results/TankLearningAI_timePunished_1/TankLearningAI.onnx (onnx, 75062 bytes, 7 tensors)

network_body._body_endoder.seq_layers.0.weight f4 [128, 6]
00000000: 4c8f 343e a5de 8fbe e968 ec3d db95 bd3e
00000010: ed3b 263f 5997 26bf bd1e 9d3e aeb6 a03e
00000020: b4ae 233f 030e 16be 0409 ba3c 62e7 633e
00000030: 853a a0bf b79a 8d3f 7e5d abbe 7aa5 a1be
00000040: 3213 89be a6bf 57bf 2c5e 43be 187d 243f
00000050: c1b8 c83e 0d47 3ebe ba8f 0cbf 151d 9ebe
00000060: b91a 48be 3aa5 8c3e 3d78 b63d 75b1 903e
00000070: 19d7 2abd d244 edbe b9bc 073e 9011 2f3e
00000080: 17b7 e7be a12b 88be 1b9b 1dbf c048 25bf
00000090: 3b9a 88be b6a3 93be d31b 2bbf 3297 e3bd
000000a0: 2be8 8cbd 08b4 22be baa0 e83e b0c5 a6be
000000b0: 2e63 ddbe a3e0 52be 3b23 423e f1dc 833d
000000c0: df61 22bf d2b5 6a3e bfe7 8a3c 47ec dd3d
000000d0: 3201 7fbe b3ee 073f dc51 afbe 49f5 43be
000000e0: 738e 76be b2ed e03d f9d3 8cbe 06dd 78be
000000f0: b610 e0bd c12f c43e 92c0 f73e bd18 dfbd
00000100: f3aa ad3e f726 8ebe 3549 e93d 76e9 37bf
00000110: 31d5 23bf 3587 053f bdad f5be 0d3e b1bd
00000120: 37bd 3abe 190f e0bd a511 d33e d380 23bf
00000130: af1e 493e 01b7 c6bd 15e7 d3bd 440a 5d3e
00000140: fd40 603e ce4c 6b3d 196b cdbe da6d 14bd
00000150: dbaf 01bd aa87 d2bd de40 e6be 977f 7a3e
00000160: 507a 01bf 19dd 55be 3018 0dbe cf08 93be
00000170: 985d 063f 241d 0dbf 3906 84be 0206 e5bd
00000180: 1d67 433e f367 cdbe fa08 ff3e 48ff 283f
00000190: 4f0d 7e3e c96e f03d 1cd1 523f 461e 2cbe
000001a0: b051 6f3f 0dfb 89bc ab76 a8be 1997 c13e
000001b0: adac e2bb a8fe 6dbe 4de7 ae3e 04b4 5c3f
000001c0: a278 7b3e 9427 c83d e01f 8e3e 555c 0d3f
000001d0: 44cd 8f3f a8c4 233e 044b bf3e c926 96bf
000001e0: 47c3 72bf 67ed e9bd d4d7 eabe 810b 76be
000001f0: a200 a0be a382 173f 55c4 7cbe 25cd 5bbf
00000200: 9cbc 403f 11fb 5c3f 35c7 11be 0f61 0c3f
00000210: 543d a5bd 8bd6 48bd ebdf c93d d6d5 3fbe
00000220: a6ab 8b3e e67d bfbd 6e95 10be 2dda 5c3d
00000230: 9884 52be 6911 363e de20 38bf c192 5c3e
00000240: 3834 2d3e 04c4 773e c43c 82bf 615b bcbc
00000250: cc3e af3d d2d5 993e 2e62 73be d87c 95be
00000260: b104 a0bd 6580 0dbf 75eb 673d 03b1 463f
00000270: 270c 2c3f f945 3abf 397d c3be 6433 e2be
00000280: 7449 c1be 4113 cf3e 0f8e fc3e 0a5e 0a3f
00000290: 63be 41be 4098 e6be 16a0 a33e 11eb e13e
000002a0: 8bd3 863d 1d08 c6bd f153 813f f6ca 2fbf
000002b0: f517 063f 612d 0ebf 85e7 50be f16d 90be
000002c0: f894 993e 3e0c d43e 2c6d 82be c624 8a3e
000002d0: 9039 72be 94ff a13e 5563 c6be d3c4 143f
000002e0: 761a 8cbd 82f7 843e 8cd8 96bd 1c47 2bbd
000002f0: 0794 46bd e71c 203f 0898 0fbf 8b15 123d
00000300: 25c3 a2be b56b 643f 202f 683e 560c ad3a
00000310: ee6e 813f 489b 673d 4381 c13e bd58 31be
00000320: 7bdd 7dbe 54e4 1a3f d6d2 303e 717d 0abf
00000330: 2f58 7a3f 6921 f23e fbee 8abe 3171 ad3c
00000340: e389 3e3f e10d 923d f094 3abe fd82 e5bd
00000350: 61f5 09be 7230 743f 7449 163e 6707 cc3d
00000360: 557e a13d a1fe 443d 6cd4 00bd ed01 b5be
00000370: 4fe2 6f3f 148b dc3d bfa2 84be 27f0 2f3e
00000380: 971e 5bbe 7d17 e33e 5fa7 0abf 431e 843e
00000390: 2205 c33e 38f6 35bd 03b6 6f3e d414 5dbf
000003a0: fc21 02be acf2 c33e 2fa6 903e 4f9e 923e
000003b0: 1fb0 0ebf 2f0d d23a 9504 0cbf 5b4b 1b3f
000003c0: 7e72 a9bc fde4 003d 299c 753e b0bb a7be
000003d0: 3eb2 6fbe 95f4 dc3d 93bb 303e 718b bcbe
000003e0: 73e8 85bf d5c4 e93e fdf9 993e db93 213e
000003f0: 678b 623e 11ba 413e d5d2 6c3e c3d7 8ebe
0.17632788 -0.28099552 0.115434475 0.37028393 0.6493519 -0.6507469 0.30687514 0.31389374
0.6393845 -0.14653783 0.022709377 0.22256234 -1.2517859 1.106284 -0.33469766 -0.3157156
-0.26772457 -0.8427681 -0.19078892 0.6425338 0.39203456 -0.18581791 -0.5490681 -0.30881563
-0.19541444 0.27469808 0.089096524 0.2826039 -0.04170904 -0.46341568 0.13255586 0.17096543
-0.45256874 -0.26595786 -0.615648 -0.6456413 -0.26680169 -0.2883584 -0.6683933 -0.111128226
-0.0688022 -0.15888989 0.45435125 -0.325727 -0.4323973 -0.20593505 0.18958752 0.064386256
-0.6343059 0.22920921 0.016956208 0.10836082 -0.249028 0.530986 -0.3424214 -0.19136538
-0.24077778 0.10982837 -0.27505472 -0.24303064 -0.10940687 0.38317683 0.48389107 -0.1089339
0.33919486 -0.27764103 0.11390916 -0.7184061 -0.6399718 0.52159435 -0.47984114 -0.08654413
-0.18236242 -0.1094038 0.412244 -0.63868445 0.19640611 -0.09702874 -0.1034681 0.21585947
0.21899791 0.057446294 -0.40120772 -0.036237575 -0.03166185 -0.10279782 -0.44971365 0.24462734
-0.5057726 -0.20885123 -0.13778758 -0.28717658 0.5248656 -0.5512259 -0.25785998 -0.111827865
0.19082303 -0.4011837 0.49811536 0.6601453 0.24809764 0.117398806 0.82350326 -0.16808423
0.9348402 -0.016843343 -0.32903036 0.3781059 -0.006917557 -0.23241675 0.34160843 0.8621218
0.24557737 0.09773174 0.27758694 0.5521901 1.1234517 0.15992987 0.3736192 -1.1730586
-0.9482922 -0.11422234 -0.4586779 -0.24027826 -0.31250483 0.5918371 -0.2468427 -0.858599
0.75287795 0.86320597 -0.14236148 0.548356 -0.08068338 -0.04903273 0.09857162 -0.18733916
0.27279395 -0.09350185 -0.14119503 0.053919006 -0.20558393 0.17780079 -0.7192515 0.21540357
0.16914451 0.24195868 -1.0174794 -0.022992792 0.085568994 0.30045944 -0.23767921 -0.2919681
-0.07813395 -0.5527404 0.056621034 0.7761385 0.67206043 -0.7276302 -0.38181475 -0.44179833
-0.37751353 0.40444377 0.49327132 0.5404974 -0.18920283 -0.45038033 0.31958073 0.44124654
0.06583317 -0.09669516 1.0103742 -0.6866907 0.52380306 -0.5553799 -0.20400818 -0.2820888
0.29996467 0.4141559 -0.25473917 0.2698118 -0.23654771 0.31640303 -0.3874766 0.5811283
-0.068409845 0.25970083 -0.07365522 -0.041815862 -0.048481014 0.625441 -0.56091356 0.035665076
-0.31789508 0.8922685 0.22674227 0.0013202529 1.0111978 0.056544572 0.3779393 -0.17319007
-0.2479152 0.6050465 0.17267928 -0.5409766 0.9779081 0.47291115 -0.27135453 0.021172138
0.7442915 0.071315534 -0.18220878 -0.11206625 -0.13472511 0.9538642 0.14676458 0.099623494
0.07885424 0.048094396 -0.03145258 -0.35353032 0.93704695 0.107687145 -0.25905415 0.17181455
-0.21398388 0.44353858 -0.5416164 0.25804338 0.38089854 -0.044424266 0.23409276 -0.86359906
-0.12708277 0.3827108 0.28251788 0.28636405 -0.5573749 0.0016025658 -0.5469449 0.6066186
-0.020684477 0.03146838 0.23985352 -0.32760382 -0.23407838 0.10788838 0.17259054 -0.36825135
-1.0461563 0.45657983 0.30073538 0.15779059 0.2212349 0.18918635 0.23127301 -0.27898988

network_body._body_endoder.seq_layers.0.bias f4 [128]
00000000: f0f4 c03c 8de9 3e3c fc27 85bb 009f a33a
00000010: 8a45 2ebc 767f 503c 4bad e0bb f692 c53c
00000020: 1b24 b03a e3b4 5fbc e944 b8bb 0f96 d93b
00000030: c579 d03b a906 93bc 9710 75bc e7aa 98bb
00000040: b5cf 33bc 31d5 203a c57e 82bc c514 f73b
00000050: a483 27bb 0274 c1bb ea0a 6f3b 506c f5bb
00000060: 339f 8abc 8b88 fe3a 4b28 adbb 5338 b43c
00000070: 9188 f4bc 69f8 d0bb e9ff c93b 4910 ebbc
00000080: e198 8abc c1ec a13b 64b2 8c2f b289 42bc
00000090: 57d6 94bc 5c9f 57ba 890a 45bc 58c6 253c
000000a0: 5a41 cbbc 8ece 01bc df2a bf3c a463 82bc
000000b0: 90a7 3f3c 23cc c0bb 6367 38bb 1898 7d3b
000000c0: ad46 f836 7785 51bb 28f8 f7bc 0c65 cd39
000000d0: 96ca d13b 8858 46bb 9db7 ecbc c71e 9dbb
000000e0: 365d 133a fc1d b7bb 7032 3cbb e772 9535
000000f0: ea72 8cbc 4842 32bc 5744 c6bb 9e3a f0ba
00000100: 3b84 dfbb 1b22 b53b f291 5dbc dd29 0cbd
00000110: ad8b b2bb 2391 b7bb be88 103c 6bc5 863a
00000120: 43fd 203c 32c2 38bb 1968 53bc e958 9fbc
00000130: c3d5 22bc 4f6e a83b d45d d5bb 49f1 21bc
00000140: cff7 a43b e494 2f3c c0a9 d337 4c24 5abc
00000150: 7fbc 523b c752 f13a 0ec7 1fbc 3e82 e23b
00000160: c5f1 083c 4193 c23c cca7 77bc b7c0 763c
00000170: a421 a1bb 5f86 98bc d2d1 5cbc 1d24 c6bb
00000180: 86fc 5fbb 0a47 1e3b 96a5 633c 9b52 a3ba
00000190: 0c54 9a3a 6dff f4bb 02af bbbb b8a1 09bb
000001a0: 592f 0c3c 6524 0dbb fd02 853b c3a6 80bc
000001b0: db81 4b39 51c9 a9bb 96fb 23bc d2e6 8dbb
000001c0: 92b4 68bb 5ffd 613c d6da b7bb dd88 d23b
000001d0: d391 75ba 0771 57bc 03f8 ab3c 75a7 67bb
000001e0: 7d79 9dba 5f77 20ba c426 5bbc f2cb 583b
000001f0: a496 53bc b495 c7b6 9d96 51bc 04cf bbb9
0.023554295 0.0116523625 -0.0040636044 0.0012483299 -0.010636697 0.012725702 -0.0068565956 0.024117928
0.0013438495 -0.013653967 -0.005623449 0.006640203 0.0063621723 -0.017947512 -0.014957569 -0.004659045
-0.010974814 0.00061352836 -0.015929589 0.0075403177 -0.0025560642 -0.005903722 0.003647501 -0.0074897185
-0.016921615 0.0019419355 -0.0052843443 0.021999514 -0.029850276 -0.006377269 0.00616454 -0.028694289
-0.016918601 0.0049415533 2.5592606e-10 -0.011873649 -0.018168611 -0.00082253455 -0.012026438 0.01011809
-0.024811435 -0.007922782 0.023335872 -0.015916653 0.011697665 -0.00588371 -0.0028137795 0.0038695391
7.3992037e-06 -0.003197042 -0.030269697 0.00039175933 0.006402324 -0.003026517 -0.028896147 -0.0047949287
0.00056214945 -0.005588291 -0.0028716587 1.1134806e-06 -0.017144639 -0.0108800605 -0.006050627 -0.0018328016
-0.006821183 0.0055277473 -0.013523566 -0.03421961 -0.0054487796 -0.0056020184 0.008821664 0.0010282224
0.009826007 -0.0028191921 -0.012903237 -0.019451575 -0.00993866 0.005140103 -0.0065114293 -0.009884187
0.005034424 0.010716651 2.5232206e-05 -0.013314318 0.003215581 0.001841151 -0.009752048 0.0069124987
0.008358424 0.023751857 -0.0151156895 0.015060595 -0.0049173404 -0.01861876 -0.013477759 -0.0060467855
-0.0034177615 0.002415123 0.013894459 -0.0012460531 0.0011774315 -0.007476738 -0.0057276497 -0.0021000933
0.00855621 -0.0021536585 0.004059194 -0.015704518 0.00019407964 -0.0051814695 -0.010008713 -0.0043304944
-0.003550802 0.0137933185 -0.005610804 0.006425007 -0.0009367738 -0.013149506 0.020992285 -0.0035347615
-0.0012014356 -0.00061213033 -0.013375942 0.0033080545 -0.0129143335 -5.94809e-06 -0.012792257 -0.00035821658

network_body._body_endoder.seq_layers.2.weight f4 [128, 128]
00000000: c697 13be 294c cabc f68d 09bd 5e9b d1ba
00000010: 60d1 bbbd 5e46 ed3d f9ce 913e bbcb dd3b
00000020: 8453 383e 0ce6 29bc 68ee eabc 47e9 9e3d
00000030: 937a b4bd f65c dabd 2135 f6bb b86a 83bd
00000040: 84f3 59be e706 ed3c e00e 92bb 5c5c a8bb
00000050: 5155 983d 8b2f e4bb 5614 77be 6456 1c3e
00000060: f27b 85be b9f6 45bc 7e3a 08bd 1ce2 d2bd
00000070: cd9d 0a3d 35c9 b9bd d7be 043e 2f1f 4ebd
00000080: 8310 a33d 9e7a 733d d1b7 7ebd c98f 1bbe
00000090: d897 493c 084f 3cbd 812f 333d 5ac7 c13d
000000a0: 50a9 ebbc f62d a83d bf07 813b 8d4a 92bd
000000b0: d4dd e9bd e7d0 9ebd 72b0 17bc 87ce 6c3c
000000c0: d683 483d 3cbc 923d ad21 9d3d 3106 21bc
000000d0: f273 a23d 746c 513e 35b1 0bbe 5c37 aa3d
000000e0: f90a 6d3c 8d32 3dbe 3d53 a73d f7f8 95bd
000000f0: 54d6 e33d 9217 be3d 2465 2bbd 42f3 003e
00000100: 1c3f de3c ff29 883c 8960 8bbd 62af bcbc
00000110: 20c0 f03d a53a 623e 1bab 08bd 5262 17be
00000120: f130 26be 4a6d 42be 8788 293d 4b7e 83bc
00000130: e856 40bd ae3b 23bd b4f9 bb3d 0e36 1c3e
00000140: 610b e33d 2cad bcbd d238 af3d 2c48 84bb
00000150: 2745 1c3d a4ff ae3d 3377 db3b 1b4e ebbc
00000160: 210c d63d 9706 85bd c40c 803d ce59 bdbd
00000170: fa4c 97bd 3996 08be dbab b6bd b160 10be
00000180: c396 083c b816 513d 431a e5bd 056a 633d
00000190: 1e71 bc3d 4b25 c6bc b7c1 22be bb5d 6bbd
000001a0: d863 61ba 3383 6bba e9e9 a639 59f4 d3bb
000001b0: 7100 3b3d b94e 533c e252 eabd 5ea9 123e
000001c0: 0ef9 f63d e569 34bd 1ad2 f83c 72d6 063c
000001d0: fda9 cfbd 0c26 ec3c f3fc 22be 0025 a53d
000001e0: 6d5b a9bd 294b 59bd 44fb 32bd 327c 563c
000001f0: 2a29 c33d d2b3 8cbb c761 86bd 6b10 a4bd
00000200: c13b b53d 5dd6 bdbb d5c8 373d a9df dfbb
00000210: b783 1bbd 53f6 6e3d cb4a f0bd 6b04 af3d
00000220: 1001 49bd b74d 943d 39e6 af3d 4166 6c3d
00000230: 787e e539 edf0 fc3d f39d d9bb 2a76 34bd
00000240: 8c5e ed3d d065 9e3d 1170 423e 0551 a13d
00000250: deda 943d a9e5 e6bd 6832 223e 1030 cb3d
00000260: d0c9 813d e4cd 123d 9c40 083e 7ce1 acbd
00000270: 6d3d 75bd 1df0 1abc d8fa a33d 772c 8cbd
00000280: 73bf 263d 9721 c5bc 5b8d 4d3d aff9 a6bd
00000290: 5495 b6bd 4655 27bb e620 13be 4cbc 803d
000002a0: 7299 15be 363c 893b 6ed1 99bc 92f5 5bbd
000002b0: 086b 143d f0ae f23d 4abe c13c 1ce9 90ba
000002c0: 75da 613a d926 2dbd 72a8 9fbc 14c8 52bd
000002d0: 56c6 00be 4f68 bcbd 4216 843d 6525 c1bc
000002e0: 144b 143c a743 6cbd 8b07 4cbb 913f 0c3e
000002f0: 8a22 14be 55f3 e93d c580 993b 4845 823b
00000300: e268 893d 2ff4 6e3d 2ce9 023c c4c8 8cbb
00000310: f029 75bd 27f6 38bd d3a9 673b 118d 083e
00000320: 21c7 183d 2769 2e3d 1459 9abd 97f5 0d3e
00000330: ff0b 80ba 32ba 5e3d 1216 abbd 879c cdbd
00000340: 7d2b 0bbd 65a5 9e3d 0f9a 44bd 105c 583b
00000350: 7209 b8bd 392b 3dbe 2b63 97bc fe45 17bc
00000360: 10c4 f7bd 47a4 d4bd 6155 b5bd fdcf 143e
00000370: 2637 163d b8a1 97bd 23ea 3dbc be32 23be
00000380: 4eaf ff3c 7d30 47bd 1b80 76be f80a 96bd
00000390: bad1 db3d c746 e4bd a691 023e 2438 8c3d
000003a0: 3c6b 67bd 6ca1 1ebd 5d14 d5bc b498 d0bd
000003b0: 14be fd3a 9eb4 b93a ae74 c73d 2406 c63d
000003c0: 9696 043e 28f7 c03c f0b3 8e3c 6930 3fbd
000003d0: 8eb8 11be a950 ccbd fbf7 05be d15a e4bd
000003e0: 0077 00be 210f f73d a93b 4bbd a2b9 02bd
000003f0: 2b1b 46bc b7e9 193d e39e d8bc 094d de3d
-0.14413366 -0.02469452 -0.03358265 -0.0015991738 -0.091707945 0.11585687 0.2847822 0.0067686713
0.18000609 -0.010369789 -0.028678134 0.07759338 -0.08812442 -0.10662262 -0.0075136577 -0.06416839
-0.212843 0.028933955 -0.0044573396 -0.005137963 0.07438148 -0.0069636754 -0.24128851 0.1526733
-0.26071125 -0.012082749 -0.033258907 -0.10297033 0.033841897 -0.0907158 0.12963425 -0.050322708
0.07962134 0.05944311 -0.06218702 -0.15191568 0.012304269 -0.045973808 0.043746475 0.094618514
-0.028767258 0.08211891 0.003937691 -0.07143126 -0.114192635 -0.07754689 -0.009258376 0.014453537
0.048953854 0.07164809 0.07672439 -0.009828136 0.07932271 0.20451528 -0.13641818 0.0831134
0.014467948 -0.18476315 0.08170173 -0.07322877 0.11124864 0.092818394 -0.041844502 0.12592795
0.027129702 0.016621588 -0.06805522 -0.023032848 0.11755395 0.22092684 -0.033366304 -0.147836
-0.16229607 -0.18987003 0.04138997 -0.016051432 -0.04695788 -0.039851837 0.091784865 0.15254995
0.11086155 -0.092127174 0.085557595 -0.004036924 0.038151886 0.08544853 0.0066975593 -0.028723767
0.10451532 -0.064953975 0.06252435 -0.092456445 -0.07387729 -0.13338555 -0.089194976 -0.14099385
0.008336726 0.051047057 -0.1118665 0.05552103 0.09201263 -0.024187705 -0.15894209 -0.057462435
-0.0008597947 -0.0008984089 0.00031836264 -0.0064683375 0.045654718 0.012897187 -0.1144159 0.14322421
0.12059222 -0.0440463 0.030373622 0.008229839 -0.101398446 0.028826736 -0.15916805 0.08063698
-0.08269391 -0.053050194 -0.043696657 0.013091134 0.09529336 -0.004293897 -0.06561618 -0.08010944
0.08849288 -0.0057933764 0.044869263 -0.0068320823 -0.03796741 0.05834038 -0.117330156 0.085457645
-0.04907328 0.072413854 0.08588833 0.057714704 0.0004377251 0.123506404 -0.0066411435 -0.044058003
0.11590299 0.07734263 0.18988062 0.078767814 0.07268308 -0.11274273 0.15839541 0.099212766
0.06337321 0.035840884 0.13305897 -0.08441445 -0.059873033 -0.0094566615 0.08006829 -0.068444185
0.040709924 -0.024063868 0.050183635 -0.08153092 -0.08915201 -0.0025533005 -0.14368019 0.06285915
-0.14609316 0.004188086 -0.018776622 -0.05370099 0.036234885 0.11849773 0.023650307 -0.00110558
0.00086156215 -0.042273376 -0.0194895 -0.05146034 -0.12575659 -0.09199583 0.06449558 -0.023577401
0.009051103 -0.057681706 -0.0031132426 0.13696124 -0.144663 0.11423365 0.00468454 0.003975544
0.06709458 0.05833834 0.007990163 -0.004296394 -0.059854448 -0.045156624 0.0035349026 0.13335063
0.03729928 0.04258075 -0.075365216 0.13863216 -0.00097692 0.05437679 -0.08353819 -0.10039621
-0.03397702 0.0774639 -0.047998484 0.0033013858 -0.089861766 -0.1847352 -0.018479904 -0.009232996
-0.12097943 -0.10382896 -0.08854175 0.14532466 0.036673687 -0.07403892 -0.011591467 -0.15937325
0.031211521 -0.048630226 -0.24072306 -0.07326311 0.107333615 -0.11146312 0.12750873 0.068466455
-0.05649875 -0.038728163 -0.026010687 -0.10185376 0.0019359016 0.0014168208 0.09739052 0.0966914
0.12948069 0.023555353 0.017419785 -0.046677027 -0.14230558 -0.09976322 -0.13082878 -0.11150134
-0.12545395 0.120634325 -0.049617443 -0.031915314 -0.012091438 0.037576403 -0.02644295 0.10854537

network_body._body_endoder.seq_layers.2.bias f4 [128]
00000000: ec43 85bb b15c 59bc 25bc 68bb ec55 22bc
00000010: 9097 00bc 17de 93bb 973f 233b 0c25 8ebb
00000020: 039f 16bc 13bd 74bb bc19 543b 9304 cebc
00000030: d760 6a2f 747d 5238 f7ff 50b3 295e 3fbc
00000040: 2ceb 52bb dea5 bdba 5bac 47bc 52b3 07bc
00000050: 767b 90bb 0655 813c e0e2 23b9 fbff 8c3b
00000060: 6c64 9e3a cec6 853b e73f f3bb a7db 0eba
00000070: 8197 00bc c036 b9bb bb4c d1bb 47cc 4dbc
00000080: cc2a cfb9 8149 a33a 3adc 0dbc 7299 faba
00000090: d77b 13bc 0b37 07bc 8e26 4dbc 8425 78bc
000000a0: 07b0 e23a 4116 1abc 9fc8 c9bb 1461 f039
000000b0: 73d1 01b5 b59a 12bc 647a 9dbc a0a7 73bc
000000c0: ae5b febb c38b 67bb 0d79 b7bb 25cd 8abc
000000d0: 3f0e 7ebc eb5a 09bc a93e 58ba b489 993a
000000e0: d259 69bc fa47 76b1 0d33 183b 048f 0bbc
000000f0: 8e9f 36bc 4653 a23c 1bf7 5fbc a3bb 86bc
00000100: a716 90bb 51e3 30bc db1d 52bc 3ee1 bdbb
00000110: 0fbd f6bb 5056 7d3c 46ac 8e3a 27d6 62bb
00000120: 886e dfba 1f5a dabb 9259 78bc 4f04 acbb
00000130: c84d 6fbc 22b1 ae3b a5d1 92ba 0d28 e4bb
00000140: 3d00 1cbb 7b2e 0abc 2358 33bb 5fe9 04bc
00000150: 5708 8eae c067 703c ab62 8fbc 2955 4b3c
00000160: d444 a33b fba6 59bc f302 5cbb b1b9 79bb
00000170: 1523 9b3c 9e4a 28bc 203d f639 c798 593c
00000180: 56d7 7bbc 2b2b e2bb 9e79 38bc fa70 63bc
00000190: 8e80 05bb 654c c1bb f608 dcb5 d8f9 50bc
000001a0: c5b4 89bc f64a c6ba eb16 dfbb cccd 8ebb
000001b0: 65fd 1dbc 8826 1ebc 0717 c33b d919 4cbc
000001c0: 9f97 0ebc dce0 16bb 8809 31bc 20dd b4bb
000001d0: 8e7e c2bc ca24 ce3c 7e4e 14bc 32eb 14bc
000001e0: c0e4 bdbb dd75 9ebc e978 2abc deeb a0bb
000001f0: 047b fbbb c21a d3bb e85c d5bb 8ebb 8fbb
-0.004066935 -0.013266728 -0.0035512534 -0.009908181 -0.007848635 -0.004512559 0.0024909729 -0.0043379124
-0.009193185 -0.0037344142 0.0032363972 -0.025148666 2.131658e-10 5.018474e-05 -4.8661573e-08 -0.011680164
-0.003218363 -0.0014468988 -0.012187089 -0.008282499 -0.004409249 0.015787613 -0.00015629409 0.004302976
0.0012084371 0.0040825373 -0.0074233892 -0.0005449601 -0.007848621 -0.0056522787 -0.006387321 -0.012560911
-0.00039514003 0.0012457819 -0.008658463 -0.0019119217 -0.009001694 -0.008252869 -0.012521399 -0.015145663
0.0017294892 -0.00940472 -0.006157949 0.00045848696 -4.8361034e-07 -0.008948018 -0.0192234 -0.014871508
-0.007762394 -0.0035331107 -0.005599147 -0.016943524 -0.015506326 -0.008383493 -0.0008249083 0.0011714012
-0.014242606 -3.5838625e-09 0.0023223788 -0.008517984 -0.011146439 0.019815098 -0.013669754 -0.016446894
-0.0043972316 -0.010796384 -0.012824501 -0.005794673 -0.0075298618 0.015462473 0.0010885082 -0.0034612508
-0.0017046491 -0.0066635753 -0.015158074 -0.005249537 -0.014605947 0.0053311745 -0.0011201395 -0.0069627822
-0.0023803853 -0.008433933 -0.0027365766 -0.008112281 -6.458894e-11 0.014673173 -0.017503103 0.0124104405
0.00498257 -0.01328444 -0.0033571094 -0.0038105065 0.018937627 -0.010271696 0.00046966318 0.013281054
-0.015371164 -0.0069021187 -0.011259465 -0.013881916 -0.0020370814 -0.0058989995 -1.6393885e-06 -0.01275488
-0.01680983 -0.0015128541 -0.006808152 -0.004358029 -0.0096429335 -0.009652741 0.005953673 -0.012457334
-0.0087031415 -0.002302221 -0.010805495 -0.005519524 -0.023741987 0.025164027 -0.009051917 -0.009089278
-0.0057950914 -0.019343311 -0.010404804 -0.00491093 -0.0076745767 -0.0064423988 -0.0065113194 -0.004386372

action_model._continuous_distribution.log_sigma f4 [1, 2]
00000000: 329f 143e 4f8a 183e
0.14513853 0.1489651

action_model._continuous_distribution.mu.weight f4 [2, 128]
00000000: 2795 663c 057b 9d3b a97c ea3b 4199 243c
00000010: 8dc4 9b3b fba0 25bd 11c2 413c 117e 403b
00000020: 49aa d8bc 3098 843b 9257 b8bb 77c7 02b9
00000030: 0a5e 343c b6a9 883c 6571 bf3a 86e5 803c
00000040: 03b3 3dbb f521 4a3c ec27 9cbb f82a 0fbc
00000050: 9941 253c 1895 b7bc 6592 b2bb 424c 58bb
00000060: bab5 913c 7aa6 473d 27e2 16bb 76b2 3d3c
00000070: ab61 a93b 0e87 be39 2734 e8bb 77de 1ebc
00000080: f0c2 43bc a458 413c 434b bc3b 1aff 203d
00000090: 4aea b4ba 2c5d b6bc 4a37 a6bc fc3d 1abb
000000a0: dbc9 6f3c 5d8a 9ebc fbad 0dbc e9c5 623c
000000b0: c9d1 2cbd 2c13 1cbc 46ae b4bc 3927 8abb
000000c0: 790b 013c b90c 903c 826f 1c3c ec6a d03b
000000d0: 37b7 7fbb 54ef 7d3b 5582 7d3c 0322 c03c
000000e0: 1706 853c 876f a7bc c4e6 31bc db03 8f3a
000000f0: 1b97 e9bb 82d6 48bc 2dc1 33ba 152b 9ebc
00000100: 19bb 4ebb f6e6 573c 7d2f 893a aad7 ed3b
00000110: 3365 0d3c 8ad8 93bc 0447 213d 3a3c 1437
00000120: 29c0 833b e07f 073b 6f9a 7cbb e1ed b0bc
00000130: 8014 0e3c 649c 993c 32a8 93bc 4c9e c2bb
00000140: eeca 3a3b a757 91bb b195 0ebd d7e9 b3bc
00000150: 1adb 613b e7dc 51bd 261b 7ebb 27c6 393d
00000160: 29ee 073c 43b8 1abb 7aef 203d b667 b1bb
00000170: d801 bc3b 5e6e b5bc 54b0 eabb bce8 eebc
00000180: a87a cbbc a9c6 c83b 5134 ba3c b8e3 92bc
00000190: 078e 813c b1db e43a 10ba a0bc 0d19 87bc
000001a0: 891e 80bb ada5 0d3d b47f 9cbc 4c00 aebb
000001b0: 3ea1 cdbc 7884 2cbc e12a d13c 10f2 8d3c
000001c0: cbff 7f3c 615b cabc 1530 22bc 80f8 f6bb
000001d0: 7152 d13b f7cd afbc eafb 48bb 3e42 263c
000001e0: 363a fa3b 00a7 bbbc 655b 18bc 921d 49bc
000001f0: e4b5 b4b6 51e1 bcbb b7cf bebb 73c4 093d
00000200: 22fe 003c eab7 773b a760 b23c bc39 6dbc
00000210: e1ed a33c eedc 7f3c c191 ed39 d3f6 053c
00000220: 6216 8bbc 93b7 cabc ec41 99bc 16c9 263b
00000230: d211 3e3b 9355 c4b9 2ddd 2a3c 4f70 8ebb
00000240: 3844 37bd 0e8a 1c3c 87fa 343c 2577 3539
00000250: 2261 5fbb 35e9 cabc a9e6 17bc aeb2 cbbc
00000260: 6315 f63c d024 44bd 8745 a2bc 5603 b3bb
00000270: 2a28 5fbb f18a 8c3c 11ad 4ebc 27f8 123c
00000280: 206e bd3c a674 92bc fee6 cd3a 4d0d 3b3c
00000290: 8381 5a3b 6d2f 693c 2452 e7ba 9fd3 b5bb
000002a0: 4cf1 1bbc 99af 02bd 4635 22bc 1c9e 7c3c
000002b0: 77ee e8bc 9bde 7bbb 0329 cd3c fd1c e6bc
000002c0: 5eeb 61bb cf90 dd3b 68c1 be3b 61dd 9cba
000002d0: 478f e53a bd62 a9ba bb6d 763c 641a 63bc
000002e0: c3d2 56bc 049e b0bb 243b efbc c148 3f3c
000002f0: 2c78 6d3c 0f19 03bd 30c8 d0ba cedc 07bc
00000300: 73ce 053c 7730 133b 69ad adb9 ca7a 2abc
00000310: eb39 823c c97d edbc 47c1 02bb 7da7 91bc
00000320: 3f99 e0bc f179 c5bc 072c cf3b e857 7ebc
00000330: ef87 963c 9e31 a8ba d3d8 d23a e372 ddba
00000340: 3a62 523b bf40 e3bc 4951 adbc c547 643b
00000350: be1d 80bc 878a 363a 86f9 d138 fc37 08bc
00000360: 5bc1 9dbc ee32 a3bb 5c3b 933b e4cb 1b3c
00000370: 1071 15bd 836e ffbc 0af4 12bd 1da9 c6bc
00000380: 8411 b63b 147f 213c 5a7d a7bb 1a23 143b
00000390: d1f2 27bb ea3e e83b a8cc 06bc c934 423b
000003a0: 8b8c e8ba abe7 abbb ce30 26bd c01f 413c
000003b0: 9937 3d3a 9606 47bc bac8 2bbd ae0d ba3c
000003c0: 0637 deb8 56a9 013c ca47 7d3b dd4d 9fbb
000003d0: 5d85 523c 126c fcbc 8070 f53a e099 953c
000003e0: 27bd 8dbc 3610 0d3b 590c e5ba 332c e53b
000003f0: 7bce 08bd 35f5 7cbc 71b6 a23b 2737 f9bc
0.014073647 0.004805925 0.007155974 0.010046304 0.0047536553 -0.040436726 0.011826054 0.0029372016
-0.026448386 0.0040464625 -0.0056256736 -0.00012472073 0.011008749 0.016682487 0.0014605938 0.015734445
-0.002894581 0.012337198 -0.0047655012 -0.008738272 0.0100864405 -0.02240996 -0.0054495805 -0.0033004438
0.01778685 0.04874275 -0.002302298 0.011578193 0.0051691136 0.00036340248 -0.007086295 -0.009696594
-0.011948332 0.011800919 0.0057462766 0.039305784 -0.0013802734 -0.022261225 -0.020290036 -0.002353548
0.014635528 -0.019353086 -0.008647437 0.013841131 -0.042192254 -0.009526055 -0.022055756 -0.0042161015
0.00787627 0.017584192 0.00954807 0.0063604023 -0.0039019117 0.0038747387 0.015472968 0.023453718
0.016238255 -0.020438923 -0.0108582415 0.0010911183 -0.007128609 -0.012258174 -0.00068570935 -0.019307652
-0.0031544624 0.013177624 0.0010466423 0.007258375 0.008630085 -0.01804759 0.039374366 8.83551e-06
0.00402071 0.0020675585 -0.0038544198 -0.021597805 0.00867188 0.01875133 -0.018024538 -0.0059392806
0.0028502303 -0.004435498 -0.034810726 -0.02196209 0.003446287 -0.05123606 -0.0038773506 0.04535499
0.008296528 -0.0023608364 0.039290883 -0.0054139746 0.0057375245 -0.022147354 -0.007162133 -0.02916371
-0.02483876 0.0061271978 0.022730025 -0.01793085 0.015814794 0.0017460493 -0.019619972 -0.016491437
-0.00390989 0.03458183 -0.019103862 -0.005310094 -0.0251013 -0.01052963 0.025533142 0.017327338
0.015624951 -0.024701776 -0.009899159 -0.0075369477 0.0063880016 -0.021460516 -0.003066773 0.010147629
0.007636334 -0.02290678 -0.009299134 -0.0122751165 -5.385593e-06 -0.0057641645 -0.0058231014 0.033634614
0.00787309 0.003779883 0.021774603 -0.014479097 0.02001089 0.015616639 0.00045312758 0.008176523
-0.016978446 -0.024745738 -0.018708192 0.0025449446 0.002900232 -0.0003744779 0.010428709 -0.0043468843
-0.044742793 0.009554399 0.0110460585 0.0001730589 -0.0034084995 -0.024769405 -0.009271302 -0.024865475
0.030039495 -0.04788667 -0.019808544 -0.005463044 -0.003405104 0.017156096 -0.012614504 0.008970297
0.0231238 -0.017877888 0.00157091 0.011416745 0.0033341355 0.014232499 -0.0017648381 -0.005548909
-0.009517979 -0.031905744 -0.009900397 0.015418556 -0.028434021 -0.0038432244 0.02504397 -0.028089995
-0.0034472565 0.0067616473 0.0058213957 -0.0011967832 0.0017514013 -0.0012923103 0.01504081 -0.0138612725
-0.013111773 -0.0053899307 -0.029203005 0.011675061 0.014493983 -0.03200632 -0.0015928801 -0.00829239
0.008166897 0.0022459307 -0.00033126332 -0.010405252 0.015896758 -0.028990643 -0.0019951628 -0.01778006
-0.027416823 -0.024105998 0.006322387 -0.015523888 0.018375365 -0.001283217 0.0016086347 -0.0016895201
0.0032102005 -0.027740834 -0.021156924 0.0034832817 -0.015639182 0.0006963391 0.00010012374 -0.008314129
-0.019257238 -0.0049804365 0.00449316 0.0095090605 -0.036484778 -0.031180626 -0.035877265 -0.024250561
0.0055562872 0.009856958 -0.0051113786 0.002260393 -0.0025626908 0.007087578 -0.008227505 0.0029633513
-0.001774208 -0.005246123 -0.040573888 0.011787355 0.00072180625 -0.012147566 -0.041939475 0.022711601
-0.00010596034 0.007913908 0.0038647526 -0.004861577 0.012849179 -0.03081325 0.0018725544 0.01826185
-0.017302109 0.0021524555 -0.0017474993 0.0069937943 -0.03340004 -0.015439321 0.0049655964 -0.030421806

action_model._continuous_distribution.mu.bias f4 [2]
00000000: 7b03 013c cfa8 6db9
0.007874365 -0.00022664967
