results/TankLearningAI_timePunished_1/TankLearningAI/TankLearningAI-9962.onnx (onnx, 75062 bytes, 7 tensors)

network_body._body_endoder.seq_layers.0.weight f4 [128, 6]
000000 de 33 43 3e a5 de 8f be 86 9f df 3d 1d 4c b2 3e
       0.19062755 -0.28099552 0.109190986 0.34823695
000010 b0 98 26 3f 09 f5 29 bf c2 1b 9e 3e ae b6 a0 3e
       0.6507673 -0.6638952 0.30880553 0.31389374
000020 45 f5 23 3f ba 7a 17 be 99 da b6 3c 6a 7e 5e 3e
       0.64046127 -0.1479291 0.022321032 0.2172791
000030 91 d0 9f bf b7 9a 8d 3f 42 81 aa be 28 f8 a2 be
       -1.2485524 1.106284 -0.3330174 -0.31829953
000040 a5 05 89 be a1 cb 58 bf d2 34 43 be 18 7d 24 3f
       -0.2676212 -0.84685713 -0.19063118 0.6425338
000050 a5 e6 c9 3e 59 77 3f be e5 eb 0c bf 58 16 9e be
       0.3943378 -0.18697871 -0.55047446 -0.30876422
000060 dd ef 51 be 3a a5 8c 3e f2 42 c8 3d de 10 93 3e
       -0.20501657 0.27469808 0.09778394 0.28723806
000070 a8 c4 3b bd 9d 51 e9 be 85 c5 14 3e 90 11 2f 3e
       -0.045841843 -0.45570078 0.14528473 0.17096543
000080 5f 9a e0 be 42 07 93 be 31 55 1d bf b4 e8 22 bf
       -0.43867776 -0.28716475 -0.61458117 -0.63636327
000090 5b f2 88 be b6 a3 93 be f0 09 2b bf 98 b8 f7 bd
       -0.26747403 -0.2883584 -0.6681204 -0.12095755
0000a0 a5 0c 8c bd 10 38 1c be 4f 3d f6 3e b0 c5 a6 be
       -0.06838349 -0.15255761 0.4809365 -0.325727
0000b0 42 57 d0 be 12 be 4b be eb 1c 42 3e 17 a8 76 3d
       -0.40691572 -0.19896725 0.18956344 0.060218897
0000c0 73 30 24 bf d2 b5 6a 3e 0a 83 9a 3c 3d 19 e0 3d
       -0.6413643 0.22920921 0.018861312 0.10942314
0000d0 ce 1d 7d be 29 a3 07 3f 8f 2b b5 be 49 f5 43 be
       -0.24718401 0.5298334 -0.35384795 -0.19136538
0000e0 d1 f5 62 be 39 f9 f5 3d 15 05 8d be 95 70 77 be
       -0.22164084 0.12010426 -0.2754294 -0.2416404
0000f0 2e ba da bd c1 2f c4 3e ea 2c f9 3e 82 a5 e0 bd
       -0.10680042 0.38317683 0.4866708 -0.10969068
000100 d3 2f ac 3e 20 56 8c be e5 e0 ed 3d 76 e9 37 bf
       0.33630237 -0.27409458 0.11615161 -0.7184061
000110 22 ae 21 bf 0d 85 03 3f 42 5a f5 be 13 06 ae bd
       -0.6315633 0.51374894 -0.47920424 -0.08497252
000120 28 18 3b be 19 0f e0 bd e7 cd d3 3e d9 e8 23 bf
       -0.18270934 -0.1094038 0.4136803 -0.6402717
000130 34 1d 49 3e 6e 59 d2 bd d5 28 db bd 44 0a 5d 3e
       0.19640046 -0.102709636 -0.107011475 0.21585947
000140 eb 8c 67 3e a2 31 70 3d 50 1a d0 be d6 8a f3 bc
       0.2261235 0.058641084 -0.40645075 -0.029729288
000150 2f fc 0e bd aa 87 d2 bd 6c f7 ec be 0d e7 81 3e
       -0.03490847 -0.10279782 -0.46282518 0.2537159
000160 83 a7 01 bf f0 7c 53 be 11 18 0e be cf 08 93 be
       -0.5064623 -0.20653129 -0.13876368 -0.28717658
000170 30 28 07 3f 4e 46 0d bf 39 57 85 be 3b 06 dd bd
       0.52795696 -0.551854 -0.26043108 -0.10792204
000180 54 02 43 3e f3 67 cd be 42 53 00 3f 93 fd 28 3f
       0.19043857 -0.4011837 0.5012704 0.66011924
000190 58 e4 7b 3e 34 8b fc 3d 58 5e 52 3f 46 1e 2c be
       0.24598825 0.123312384 0.8217521 -0.16808423
0001a0 d3 44 70 3f ab ae 8c bc 67 37 aa be d0 3b c3 3e
       0.9385502 -0.017173132 -0.33245394 0.3813157
0001b0 32 63 9c bc a8 fe 6d be 8e 6f b4 3e a6 1f 5f 3f
       -0.019090269 -0.23241675 0.3524136 0.87157667
0001c0 35 31 77 3e 64 77 da 3d 9a 95 8e 3e 55 5c 0d 3f
       0.24139865 0.10667303 0.27848512 0.5521901
0001d0 00 51 90 3f af ca 22 3e a9 c0 bc 3e 88 b3 95 bf
       1.1274719 0.1589763 0.36865738 -1.1695414
0001e0 af ee 73 bf 67 ed e9 bd 82 7f e5 be 88 80 78 be
       -0.9528608 -0.11422234 -0.44823843 -0.24267781
0001f0 9b 9e 9f be b3 f9 17 3f 28 7a 7d be 25 cd 5b bf
       -0.31175694 0.59365386 -0.2475363 -0.858599
000200 a1 7e 41 3f c1 d0 5c 3f ee ea 14 be b8 3e 0d 3f
       0.75583845 0.86256033 -0.14542744 0.55173826
000210 49 88 99 bd 8b d6 48 bd be a8 c7 3d a9 06 42 be
       -0.074966975 -0.04903273 0.09748982 -0.18947853
000220 ea 60 8c 3e b2 94 d2 bd a9 bf 0f be 2d da 5c 3d
       0.2741769 -0.10282268 -0.14037956 0.053919006
000230 fc cd 4a be 33 eb 31 3e 5e 0d 38 bf 99 59 5c 3e
       -0.1980514 0.17374878 -0.71895397 0.21518554
000240 0b 15 28 3e 04 c4 77 3e 70 ba 82 bf ac 8e d3 bc
       0.16414277 0.24195868 -1.0213146 -0.025824867
000250 cf 11 ae 3d c1 2c 91 3e 20 a8 73 be d8 7c 95 be
       0.084994905 0.28354457 -0.23794603 -0.2919681
000260 07 73 99 bd 8b b0 0d bf 7a 93 5c 3d 16 97 46 3f
       -0.07492643 -0.5534751 0.053851582 0.7757429
000270 b8 d1 26 3f f9 45 3a bf 59 43 d7 be ae b1 da be
       0.65163755 -0.7276302 -0.4204357 -0.42713684
000280 fc 44 c1 be d4 d0 d6 3e 5e c9 03 3f 0a 5e 0a 3f
       -0.37747943 0.41956198 0.51479137 0.5404974
000290 e5 6a 61 be ab aa db be d2 a7 a3 3e 67 bd ed 3e
       -0.22013433 -0.42903647 0.31963974 0.46433565
0002a0 62 c5 92 3d 1d 08 c6 bd 56 54 81 3f 70 ed 2f bf
       0.07166554 -0.09669516 1.0103862 -0.68721676
0002b0 61 f7 05 3f 91 39 0e bf ff ee 57 be f1 6d 90 be
       0.52330595 -0.5555659 -0.21087264 -0.2820888
0002c0 c5 6a 9c 3e 22 f8 d3 3e e8 ad 82 be 0e 60 8a 3e
       0.3055021 0.41400248 -0.25523305 0.2702641
0002d0 bf 37 71 be 94 ff a1 3e 24 15 c4 be 15 d0 13 3f
       -0.23556422 0.31640303 -0.3829738 0.57739383
0002e0 8b 98 8a bd ba 80 85 3e 1c 8e b6 bd 1c 47 2b bd
       -0.067673765 0.26074773 -0.08913824 -0.041815862
0002f0 e3 61 1b bd 79 56 24 3f d8 93 10 bf 20 08 3c 3d
       -0.03793515 0.64194447 -0.5647559 0.045906186
000300 a6 d5 a4 be b5 6b 64 3f 0f 06 6c 3e 26 18 8e 3a
       -0.3219425 0.8922685 0.23049186 0.0010840937
000310 89 10 81 3f f1 c9 79 3d 81 10 c4 3e bd 58 31 be
       1.0083171 0.060983602 0.3829384 -0.17319007
000320 be 3c 77 be 1d 9e 19 3f a1 1e 31 3e 08 fa 0a bf
       -0.24144265 0.60006887 0.1729684 -0.5428777
000330 2f 58 7a 3f 69 21 f2 3e fb ee 8a be 31 71 ad 3c
       0.9779081 0.47291115 -0.27135453 0.021172138
000340 e3 89 3e 3f e1 0d 92 3d 74 e1 39 be fd 82 e5 bd
       0.7442915 0.071315534 -0.1815241 -0.11206625
000350 cb 4e 06 be 00 77 75 3f bf b0 13 3e 12 89 d3 3d
       -0.13115995 0.95884705 0.14422892 0.103288785
000360 f2 71 9d 3d a1 fe 44 3d b6 2b f8 bc 9b a4 b5 be
       0.07687749 0.048094396 -0.03029428 -0.35477147
000370 a0 de 6f 3f 53 05 da 3d f1 ae 7e be 27 f0 2f 3e
       0.93699074 0.10645547 -0.24871422 0.17181455
000380 12 31 6b be 9e 96 e0 3e bf d3 0a bf 0c 46 80 3e
       -0.22967938 0.43864912 -0.5422935 0.25053442
000390 e9 72 bf 3e 38 f6 35 bd 3c 4c 76 3e 98 e6 5c bf
       0.37392357 -0.044424266 0.24052519 -0.8628936
0003a0 12 79 07 be 1d bf c8 3e 37 29 95 3e 4f 9e 92 3e
       -0.13229778 0.39208308 0.29133007 0.28636405
0003b0 da c0 0c bf 55 fe e5 bb 0b b8 0b bf ac 97 1b 3f
       -0.5498177 -0.007018844 -0.545777 0.6077831
0003c0 92 d0 a9 bc fd e4 00 3d ef 19 7b 3e 66 c4 a5 be
       -0.020729337 0.03146838 0.24521612 -0.32376403
0003d0 9d 66 74 be 36 02 e3 3d 3e bc 2f 3e 71 8b bc be
       -0.23867269 0.11084406 0.17161652 -0.36825135
0003e0 16 6c 86 bf 65 4e eb 3e dd 9c 99 3e 71 80 1f 3e
       -1.0501735 0.45958248 0.3000249 0.1557634
0003f0 4c 9b 5d 3e 11 ba 41 3e 0e 7d 71 3e 71 1a 8f be
       0.21641272 0.18918635 0.23582861 -0.2794986

network_body._body_endoder.seq_layers.0.bias f4 [128]
000000 c8 22 8b 3b 05 94 46 3c d6 18 8f bb 7b c5 43 3b
       0.0042460896 0.012120252 -0.0043669743 0.0029872346
000010 ca e0 27 bb 63 a7 42 34 f3 9b ba bb 38 fa 0e b5
       -0.0025616162 1.8128553e-07 -0.00569486 -5.326324e-07
000020 30 f4 1b 3b b1 ad 1c bb 6e 72 68 bb ec 7e 25 ba
       0.002379667 -0.002390724 -0.0035468596 -0.00063131633
000030 4c b5 f3 3b f4 fe 3c bc 2b b5 bb bb 3e d1 e5 ba
       0.0074373838 -0.011535395 -0.005728384 -0.0017533673
000040 b2 73 03 bc c8 42 87 3b 75 3c bd bb 28 54 37 3c
       -0.008023189 0.004127834 -0.0057750293 0.011189498
000050 b7 84 0c 3b e0 7c 44 bb a4 c3 01 3b 33 61 37 bc
       0.002144141 -0.0029981658 0.0019800449 -0.011192608
000060 5e c5 44 bc 63 59 8b 3b f6 93 24 33 d3 68 60 b7
       -0.012009947 0.004252599 3.8318795e-08 -1.3375847e-05
000070 7d c8 f8 bc 79 c1 15 bb 99 e3 5c 3b 92 58 39 bc
       -0.030369038 -0.0022850914 0.0033704995 -0.011312621
000080 ab 9d 58 bc 40 5c 73 b8 64 ce 3a 28 e6 46 a8 bb
       -0.013221185 -5.802163e-05 1.0369828e-14 -0.005135405
000090 e9 1d 8a bc 98 4e f4 bb fc aa a8 bb 1e a9 c9 3a
       -0.016859965 -0.007455658 -0.005147336 0.0015385484
0000a0 00 6a a8 bc 45 6c af bb e9 d3 e7 3c db 56 2e bb
       -0.020558357 -0.005353483 0.028299289 -0.0026602063
0000b0 0d c7 2d 3a 3c e3 04 bc 8f bd e3 ba 5a 68 78 3b
       0.0006629087 -0.0081108175 -0.0017375218 0.0037903995
0000c0 00 1c 97 3a da ba d0 3a 12 2b b4 bb ee 2d 82 3b
       0.001152873 0.0015924827 -0.0054982984 0.0039727604
0000d0 70 a5 38 3b 17 cb ce b9 28 fe d8 bc a9 46 3b bb
       0.002817478 -0.00039442696 -0.026488379 -0.0028576052
0000e0 3c cd 80 3b 6f 73 3c bc b1 0f 8a bb d8 46 22 a8
       0.003930716 -0.011502131 -0.0042132963 -9.008168e-15
0000f0 b2 90 04 bc 4f 6a f3 bb d5 6e 13 bc 02 15 0c ba
       -0.008091139 -0.0074284445 -0.008998592 -0.00053437066
000100 23 15 f0 ba 74 55 2c 3c 27 0e 65 bc 33 f1 e2 bc
       -0.0018316846 0.0105184205 -0.013980425 -0.027702903
000110 83 d4 0a bc 87 98 b9 bb 60 f9 0b 3c 97 67 8a bb
       -0.008473518 -0.0056639346 0.008543342 -0.0042237747
000120 cd 1e 5a 3c 73 5f 8c bb a2 3e 08 bc 86 12 c8 ae
       0.013313008 -0.0042838394 -0.008315714 -9.0982374e-11
000130 6c 60 c8 bb a2 7d ed 3b 2b b2 8e bb 86 ab 62 3a
       -0.00611501 0.0072476426 -0.0043547354 0.0008646775
000140 8d 62 88 3b 0f 35 8c 3c 29 58 d4 bb 74 d8 9f ba
       0.004162139 0.017115144 -0.006480236 -0.0012195245
000150 65 8b a7 3b b3 13 f1 ba b8 9c cf bb 7d 59 42 3c
       0.0051130527 -0.0018392712 -0.006335821 0.011862156
000160 b0 48 fc 3a 19 62 bf 3c 5e 29 ca bb 24 9b a8 3c
       0.0019247737 0.023362206 -0.006169482 0.02058179
000170 46 6a fb 39 be aa 45 bc 11 69 b8 bb 3c b6 ac bb
       0.0004795363 -0.012064634 -0.0056277593 -0.0052707475
000180 3f 6f 4d bb 09 22 1a bb 79 04 f0 3b 98 6e 66 3b
       -0.0031346825 -0.0023518822 0.007324752 0.0035161134
000190 60 a9 d6 b8 de 98 94 bb 10 06 9e bb 83 30 46 ba
       -0.00010235864 -0.0045348248 -0.0048225 -0.00075603294
0001a0 97 f1 35 3c d2 7c 52 3c 99 cd 55 3b 7c aa 5f bc
       0.011104963 0.012847142 0.0032623766 -0.0136514865
0001b0 20 53 7a 3b 5b 0c 18 3b b4 a6 81 36 29 14 99 3a
       0.003819652 0.0023200724 3.8639064e-06 0.0011678982
0001c0 5b 85 5e 3b 38 9e 8c 3c 32 a7 15 bb fc 14 89 2b
       0.0033953998 0.017165288 -0.0022835252 9.74026e-13
0001d0 92 eb 24 3a b0 25 46 bc 83 94 bb 3c f2 1a 1d 3b
       0.0006291206 -0.012093946 0.022897964 0.002397236
0001e0 8e ac a7 3a 65 92 f0 bb cf 72 09 bc 13 1b 16 ba
       0.0012792514 -0.0073416703 -0.008389189 -0.000572608
0001f0 65 22 20 bc c1 8a 67 3b 31 d1 b7 bb a0 87 a2 3a
       -0.009773825 0.0035330507 -0.0056096544 0.0012400039

network_body._body_endoder.seq_layers.2.weight f4 [128, 128]
000000 83 24 03 be af 7b 93 bc f4 3f f1 bc 69 a3 cf 3b
       -0.12806897 -0.018003313 -0.02944944 0.0063366187
000010 54 85 b0 bd df d8 d3 3d dd 25 91 3e c1 b6 1e 3a
       -0.0861918 0.10344099 0.283492 0.0006054454
000020 41 f3 3c 3e a4 40 08 bc e4 c8 a8 bc 0c 01 97 3d
       0.18452169 -0.008316193 -0.020603605 0.073732466
000030 e8 bd a4 bd d0 fd ca bd bf f2 2f bc 92 33 67 bd
       -0.08044034 -0.09911692 -0.0107390275 -0.056445666
000040 83 35 51 be 59 76 dd 3c 4e 04 0f 3b 94 8c 1f 3b
       -0.2043057 0.027033972 0.0021822634 0.0024345266
000050 78 56 9e 3d a0 f1 e9 38 47 39 6f be 7c 21 1c 3e
       0.07731336 0.00011155312 -0.23361693 0.15247148
000060 b5 1f 86 be ee cc 1c bc df 59 0d bd bb ec d7 bd
       -0.26196066 -0.009570343 -0.034509536 -0.105432
000070 18 a2 28 3d 72 d5 ac bd e1 51 04 3e c1 1f 44 bd
       0.04117021 -0.08439149 0.1292186 -0.047881845
000080 d1 d5 af 3d b1 88 5e 3d d1 b7 7e bd 71 0f 19 be
       0.08585704 0.054329578 -0.06218702 -0.14947297
000090 52 16 42 bb 80 20 34 bd 4a 23 a1 3d 48 b6 cc 3d
       -0.0029615355 -0.043976307 0.07868059 0.09995705
0000a0 af 56 b0 bc 0e ed a1 3d 27 a3 6f 3b fd ac 97 bd
       -0.021525709 0.07906543 0.0036565752 -0.07406042
0000b0 da ef e0 bd 78 87 9f bd bb 09 42 bb c2 bc a3 3c
       -0.10983248 -0.077895105 -0.002960785 0.019987468
0000c0 22 83 48 3d 96 bb 93 3d 2c dd b1 3d 8b 7a 2c bb
       0.048953183 0.072135136 0.08684763 -0.0026318158
0000d0 08 70 ad 3d ef 66 54 3e 63 a7 0b be d5 0e a8 3d
       0.08468634 0.20742391 -0.13638072 0.08205954
0000e0 48 b0 b5 3c a9 bc 42 be 84 38 b0 3d f7 f8 95 bd
       0.022178784 -0.1901728 0.086045295 -0.07322877
0000f0 94 aa ee 3d 8e 1d b9 3d 53 52 3d bd 89 03 06 3e
       0.11653629 0.0903884 -0.04622109 0.13087286
000100 65 35 03 3d d7 39 c9 3c d6 8a 79 bd d0 d1 bd bc
       0.032033343 0.024563713 -0.06092342 -0.023171335
000110 d3 7e f7 3d f5 4d 63 3e fa 85 ea bc 59 e0 11 be
       0.12084737 0.22197707 -0.028628338 -0.14245738
000120 e4 fb 1e be e6 64 41 be 62 92 45 3d 62 69 2c bc
       -0.15525776 -0.18886146 0.048235305 -0.010523172
000130 32 56 2a bd 6a 87 02 bd 02 06 c8 3d 37 22 21 3e
       -0.04158611 -0.031867422 0.09766771 0.15735708
000140 d8 18 e9 3d 64 b9 bb bd 8d 06 be 3d 8c 40 02 bc
       0.11381692 -0.0916622 0.09278593 -0.0079499595
000150 ab 33 0f 3d 60 90 b8 3d a5 15 37 3c e9 4e e9 bc
       0.034961384 0.09011912 0.011174594 -0.02848001
000160 f4 5e dc 3d b2 b7 7a bd c9 91 89 3d ff b2 bf bd
       0.10760298 -0.06121034 0.067172594 -0.09360313
000170 51 f0 b7 bd 48 0d 04 be 44 ed a9 bd 37 61 10 be
       -0.089813836 -0.12895691 -0.08297208 -0.14099585
000180 87 b3 78 3c 07 d1 27 3d 89 4b d8 bd 1a f9 81 3d
       0.015179521 0.04097083 -0.10561282 0.063463405
000190 3e 32 d9 3d d2 1c 89 bc 51 c2 22 be 0c 5e 6b bd
       0.10605286 -0.016737375 -0.15894438 -0.057462737
0001a0 33 e5 bc 3b 8a 51 9d 3b 5a f8 10 3b 66 b8 5a 3a
       0.0057646274 0.00480098 0.0022120685 0.00083435175
0001b0 84 59 54 3d 8d 51 7a 3c 7f 90 df bd 97 a3 14 3e
       0.05184318 0.015278232 -0.10916232 0.1451553
0001c0 d6 24 00 3e 0c f4 18 bd 7c 5a 14 3d 75 b8 85 3c
       0.12514052 -0.037342116 0.036219105 0.016323308
0001d0 9f 1d c3 bd d9 d0 e4 3c 85 fd 22 be 2e 20 a5 3d
       -0.09527134 0.027931618 -0.15917023 0.080627784
0001e0 df 55 9c bd ff 0a 38 bd 72 8f 13 bd 06 2a 7c 3c
       -0.07633566 -0.04493236 -0.036025472 0.015390879
0001f0 b0 95 ce 3d e1 c4 e4 3a 62 59 8a bd da 0e 93 bd
       0.100871444 0.0017453694 -0.0675533 -0.07180567
000200 07 67 a2 3d 56 d6 bd bb 25 a4 64 3d 79 af e2 bb
       0.07929807 -0.005793373 0.055820603 -0.0069178906
000210 47 e0 f9 bc 2b 76 44 3d e1 32 da bd c5 fc a3 3d
       -0.030502452 0.047964256 -0.10654236 0.08007196
000220 cd 88 1d bd 21 a9 aa 3d 3d e3 af 3d 1b 80 8c 3d
       -0.03846054 0.0833304 0.08588264 0.06860372
000230 8a 2f e5 39 6f 9a e6 3d a1 41 8d 3b 47 76 34 bd
       0.00043713703 0.112599246 0.004310802 -0.04405811
000240 d5 f7 ea 3d d0 65 9e 3d b1 cc 4d 3e b4 4f a1 3d
       0.114730515 0.07734263 0.20097615 0.0787653
000250 9a 9c aa 3d 8a 2c d1 bd 95 e7 17 3e 45 0a e1 3d
       0.08330651 -0.10213573 0.14834435 0.10988287
000260 e5 95 97 3d 96 d9 34 3d b4 28 07 3e 85 7c af bd
       0.07401637 0.04415282 0.13199121 -0.08568672
000270 68 3d 75 bd 72 7e 9e 3a 3e fb b9 3d 63 c3 6b bd
       -0.059873015 0.0012092127 0.09081124 -0.057559382
000280 52 60 52 3d c7 5d 7c bc 5b 8d 4d 3d 91 c0 90 bd
       0.05136139 -0.015403218 0.050183635 -0.07067979
000290 f1 6c c8 bd ef e0 05 3c e6 20 13 be 33 05 96 3d
       -0.09786404 0.008171304 -0.14368019 0.073252104
0002a0 10 c5 17 be e7 df 74 3c 6e d1 99 bc be 2c 30 bd
       -0.14821267 0.014945961 -0.018776622 -0.04301142
0002b0 a4 3b 40 3d af 3e 04 3e 14 e9 0b 3d 6b 79 38 bc
       0.046931878 0.12914537 0.034157827 -0.011259417
0002c0 75 da 61 3a fd 35 02 bd 5e 48 f4 bc ed 68 5c bd
       0.00086156215 -0.03178977 -0.029819664 -0.053811003
0002d0 78 04 f2 bd ed c0 a6 bd ee 41 5e 3d b8 d0 50 bc
       -0.118172586 -0.081422664 0.054262094 -0.012745075
0002e0 8e 7a 57 36 1f 7c 6c bd 32 59 f9 3b 91 3f 0c 3e
       3.2108833e-06 -0.05773556 0.00760951 0.13696124
0002f0 43 83 08 be 3b 02 00 3e 94 b9 87 3c fb fc 6a 3c
       -0.13331322 0.12500851 0.016567983 0.014342542
000300 a2 b3 70 3d 1e 00 6f 3d b8 a3 b6 ba c4 c8 8c bb
       0.05876506 0.05834972 -0.001393429 -0.004296394
000310 ba 4b 4a bd 14 a8 12 bd 84 36 67 3c 6e a7 13 3e
       -0.049388625 -0.035804823 0.014112119 0.14419338
000320 21 c7 18 3d a0 9d 50 3d 22 59 9a bd 9f 37 0b 3e
       0.03729928 0.050931573 -0.07536532 0.13595437
000330 4d 22 22 3c 9a b8 5e 3d b3 e5 c0 bd f0 68 b7 bd
       0.009895873 0.05437527 -0.09418812 -0.08955562
000340 ca 86 bf bc 65 a5 9e 3d fd 87 73 bd 9f ea 72 3c
       -0.023379702 0.0774639 -0.05945586 0.014826446
000350 26 2e a1 bd 07 2a 32 be 55 00 06 bc fe 45 17 bc
       -0.0787013 -0.17398845 -0.00817879 -0.009232996
000360 0d ae e1 bd 47 a4 d4 bd d0 2c 9f bd fb cf 14 3e
       -0.11019526 -0.10382896 -0.07772219 0.14532463
000370 8d 8b 3f 3d 3a 65 82 bd 8e bf 1c ba be 32 23 be
       0.046763945 -0.06366964 -0.00059794716 -0.15937325
000380 a3 12 2f 3d 2b 11 6c bd 2c 01 6b be 74 02 96 bd
       0.042742383 -0.05763356 -0.22949666 -0.07324687
000390 9a 8a ed 3d c8 d3 d3 bd a6 91 02 3e 24 38 8c 3d
       0.11598702 -0.103431284 0.12750873 0.068466455
0003a0 9a 5d 3b bd 15 6b 1f bd 0d f7 79 bc b0 d6 d3 bd
       -0.045743562 -0.03892048 -0.015256655 -0.10343683
0003b0 a9 35 ee bb c7 fa 45 3c ba f9 b8 3d 05 ef dc 3d
       -0.0072695804 0.012083716 0.090320066 0.10787777
0003c0 8e b2 0f 3e 3c f7 c0 3c 27 9b e6 3c 37 53 3f bd
       0.14032957 0.02355539 0.028150154 -0.04671022
0003d0 67 98 06 be d9 21 b6 bd fb f7 05 be ac 84 ce bd
       -0.13144074 -0.08893175 -0.13082878 -0.10083899
0003e0 96 96 f1 bd 2b 83 f5 3d a9 3b 4b bd 95 f2 a7 bc
       -0.117963 0.11987909 -0.049617443 -0.020501414
0003f0 25 e3 60 bb c9 77 46 3d f8 e8 7c bc a6 1a da 3d
       -0.0034315076 0.04845408 -0.015436403 0.10649614

network_body._body_endoder.seq_layers.2.bias f4 [128]
000000 59 dc 00 ba 14 21 26 bb b9 23 87 b9 33 8d 14 bc
       -0.0004915647 -0.0025349306 -0.00025775822 -0.009066868
000010 30 08 78 b8 04 d6 03 bb 17 26 4d ba e7 20 8e bb
       -5.9135433e-05 -0.0020116577 -0.0007825805 -0.0043374184
000020 9a dc ea bb b1 f6 01 bc 06 6c fa 3b 2a 6c 93 bb
       -0.007167411 -0.007932351 0.007642272 -0.004498978
000030 b7 11 cf ae 82 74 ee ba 65 62 a5 9e 77 82 3b bc
       -9.416417e-11 -0.0018192681 -1.751075e-20 -0.011444679
000040 a0 8e c6 ba 6a 05 9c 3a 57 3c f9 bb 16 2b b0 b4
       -0.0015148707 0.0011903469 -0.00760607 -3.2813904e-07
000050 ac 0b d5 bb 25 d3 b5 3c 02 90 be 2e 4a a2 ef 3b
       -0.0065016355 0.022195408 8.6657806e-11 0.0073130475
000060 30 57 11 3b 6b 63 b7 ba 5e 0c 6c bb 4d 4b d3 ba
       0.0022177212 -0.0013991421 -0.0036018114 -0.0016120464
000070 e8 df b9 bb 23 25 9b bb 1e 40 95 ba 2a 34 a2 bb
       -0.0056724437 -0.0047346517 -0.0011386906 -0.004950066
000080 92 51 cb b9 cd 43 a3 b9 65 c5 0a ba b8 5a 86 3b
       -0.00038779952 -0.00031140298 -0.00052936963 0.00410017
000090 a5 21 b1 bb 67 63 86 bb c4 24 4d bc 2e c3 64 bc
       -0.005405622 -0.004101205 -0.012520973 -0.01396255
0000a0 9e f9 08 3b 8b 2b 93 bb 2e f5 a9 bb 49 3f bb ba
       0.0020900737 -0.0044912747 -0.0051866984 -0.0014285828
0000b0 97 79 75 2c 38 80 de bb b7 4d 85 bc c4 49 1f bb
       3.488409e-12 -0.006790187 -0.016272409 -0.0024305442
0000c0 c3 9a 04 bc e1 67 65 b9 45 57 3e 3a f8 99 02 bc
       -0.008093539 -0.0002187784 0.0007260929 -0.007971279
0000d0 3c 19 f4 bb 04 d9 14 bc f7 f0 35 3a f2 b0 94 b9
       -0.0074492972 -0.009084944 0.00069405086 -0.00028360594
0000e0 ac 72 24 bc 51 71 7d 30 88 18 de 3b 07 93 36 bb
       -0.0100371055 9.2201896e-10 0.0067778267 -0.0027858631
0000f0 d0 e1 8f bb f8 b1 c4 3c f0 75 b9 bb cc bb 17 bc
       -0.0043909326 0.024010643 -0.005659811 -0.009261083
000100 7c 3a 8f bb 1d ff 5d bb 97 39 39 bc 0b 01 31 bb
       -0.0043709856 -0.0033873983 -0.011305234 -0.0027008678
000110 98 b3 f4 ba c2 d2 a5 3c 93 9b 23 3b 08 78 bd b9
       -0.0018669246 0.020242099 0.0024964556 -0.0003613832
000120 76 66 9c ba 5d 67 b7 bb 48 63 2d bc de 84 a9 bb
       -0.0011932391 -0.0055970387 -0.0105827525 -0.0051733097
000130 c8 4d 6f bc fc 81 05 3b 35 d7 88 33 c2 c6 bb bb
       -0.014605947 0.0020371666 6.3721394e-08 -0.005730481
000140 ab 84 85 bb 8c 21 0a bc 9c 2e 87 3b 3d 9b c5 bb
       -0.004074653 -0.00843085 0.0041254293 -0.0060304687
000150 c5 90 fd 2e da 68 97 b8 c0 d8 1d bc 25 f6 61 3b
       1.1530824e-10 -7.219771e-05 -0.009634197 0.003447899
000160 ed 15 e4 ba 85 25 2e b9 b8 69 63 3b 79 85 79 bb
       -0.0017401554 -0.0001660791 0.0034700464 -0.003807394
000170 21 68 9d 3c 57 6d a6 bb cc a5 57 3b 0a 35 9d 3c
       0.019214692 -0.0050789523 0.003290522 0.01919033
000180 34 2d d0 bb 54 ab 28 bb 9e 79 38 bc 42 f7 34 bc
       -0.006353045 -0.0025736885 -0.011259465 -0.011045279
000190 e0 83 e8 3a d5 41 8b bb c9 de 18 36 fa 42 4c bc
       0.0017739497 -0.004249791 2.2779443e-06 -0.01246714
0001a0 9a e9 08 bb 8c b1 c9 bb 68 3b 3b bb 86 f9 6a bb
       -0.002089119 -0.0061551984 -0.0028569344 -0.0035854294
0001b0 14 d6 d7 bb 97 98 d3 bb ff 38 c6 bb 21 4e 83 bb
       -0.0065867994 -0.006457399 -0.006049275 -0.0040071164
0001c0 88 cf d1 bb ab c1 0b b9 92 f3 70 bb b6 d4 2a bb
       -0.0064029135 -0.0001332822 -0.0036766273 -0.0026066727
0001d0 6f 3e 8d bc 22 bc f7 3c 1f 17 0c bc 21 cb e1 bb
       -0.017241685 0.030241076 -0.008550434 -0.00689067
0001e0 97 ca a9 bb c6 5a 3d bc 19 63 2a bc 61 c2 bf bb
       -0.0051816213 -0.011557287 -0.010399603 -0.005852029
0001f0 e7 46 c3 b9 01 d9 9d bb df 6d be b9 e4 fa f0 ba
       -0.00037246125 -0.0048171286 -0.00036321484 -0.0018385318

action_model._continuous_distribution.log_sigma f4 [1, 2]
000000 87 e2 08 3e 32 27 da 3d
       0.13367663 0.10652007

action_model._continuous_distribution.mu.weight f4 [2, 128]
000000 b5 8d 58 3c 8d f7 cd bb 77 95 ae 3b 13 9c 1d 3c
       0.013217379 -0.006285614 0.005327876 0.0096197305
000010 3c ab 78 3c 7f 5e 26 bd 0e d0 f8 3b bf 7e 40 3b
       0.015177544 -0.040617462 0.0075931614 0.0029372422
000020 43 e6 ed bc a8 2f e1 3a 83 78 54 bc 8b eb a2 bc
       -0.029040461 0.001718034 -0.012968185 -0.019887706
000030 fb 5d 34 3c cb 0b 32 3c 48 93 c3 3a 8b f6 80 3c
       0.011008735 0.0108670695 0.0014921213 0.01574256
000040 07 30 1e bc dd b1 46 3c b9 01 64 bc 4f 9a 15 b7
       -0.009655005 0.012127367 -0.013916426 -8.91702e-06
000050 65 fb 93 3b 94 64 f1 bc f4 de 1d bc cd 1f 1f bc
       0.0045160525 -0.029466905 -0.009635676 -0.009712172
000060 79 76 89 3c d2 aa 2c 3d 17 b9 17 bc 4d 02 4f 3c
       0.016780125 0.042155094 -0.009260437 0.012634826
000070 a6 fe dc 3b a6 fe b4 39 0d 36 58 bc b8 99 3a bc
       0.0067442236 0.00034522003 -0.01319648 -0.0113891885
000080 ca 1d 4a bc c3 62 a3 3b 22 7f 77 3c f3 3b 26 3d
       -0.012336204 0.0049861385 0.015105994 0.040584516
000090 95 3b 7f bb fb 87 b8 bc 73 37 a6 bc d1 ce 69 bb
       -0.0038945426 -0.022525778 -0.020290112 -0.003567625
0000a0 a8 3b 9a 3c 2e 7c da bc 09 53 2d bc 07 69 03 3c
       0.018827274 -0.026670542 -0.010578879 0.008020646
0000b0 e9 c8 2c bd d1 63 27 bc aa c3 b3 bc f9 12 2a 3c
       -0.04218379 -0.010216669 -0.021943886 0.0103805
0000c0 9a db 8a 3a f7 d2 91 3c c8 d6 36 3c ed 0f 91 3b
       0.0010594011 0.017800791 0.011159606 0.0044269473
0000d0 3d 92 15 bc bc e6 96 b8 57 d8 54 3c bc b0 c0 3c
       -0.009129104 -7.195535e-05 0.012991033 0.023521774
0000e0 e5 e0 ea 3c c8 6f a7 bc f2 a8 8c bc 5a e8 ab bb
       0.028671691 -0.020439044 -0.017170403 -0.0052462043
0000f0 27 2c 02 bc 0a 3f 9d bc d7 40 04 bb 58 be da bc
       -0.007945097 -0.019195098 -0.002018025 -0.026702091
000100 89 c1 4b bb a6 6b 21 bb ee 7c d8 3a 68 4b 39 3c
       -0.0031090698 -0.0024630814 0.0016516724 0.011309482
000110 b6 f6 0f 3b 35 19 c8 bc 6d c2 24 3d 76 fa d6 bb
       0.002196712 -0.024426082 0.04022448 -0.006560619
000120 11 c4 cb ba 4e 41 15 3b f3 4d 06 bb 83 36 b1 bc
       -0.0015546103 0.002277452 -0.0020493239 -0.021632439
000130 80 14 0e 3c 68 ba 85 3c 79 25 5f bc 49 cd a3 bb
       0.00867188 0.016324237 -0.013619774 -0.004998837
000140 8a 35 84 3b 6d 50 91 bb ce 15 2c bd c3 72 c4 bc
       0.0040347027 -0.0044346363 -0.042012982 -0.023980504
000150 c7 db 61 3b 54 c6 04 bd 61 dc 2b bc db 43 31 3d
       0.0034463273 -0.032415703 -0.010489554 0.043277603
000160 ec 54 19 3c 3c 2e 9c 3b 33 55 2f 3d d4 0f b2 bb
       0.009358626 0.0047662538 0.04280586 -0.0054340158
000170 09 f1 85 ba b7 66 eb bc 5a 94 54 bc 96 9f 10 bd
       -0.0010218929 -0.028735502 -0.012974823 -0.035308443
000180 80 a0 7e bc c0 4e 94 3b 51 34 ba 3c ec 2c c4 bc
       -0.015541196 0.0045259893 0.022730025 -0.023947202
000190 aa 42 8c 3c 44 e2 11 3b 10 9f a1 bc 87 34 89 bc
       0.017121632 0.002226011 -0.019729167 -0.01674868
0001a0 5d f8 9d ba 18 e9 f3 3c 3f 7c d0 bc dd 9e 90 bb
       -0.0012052167 0.029774234 -0.02544987 -0.004413469
0001b0 1f ab e6 bc e4 9d 38 bc e7 67 92 3c ab ad a5 3c
       -0.028157769 -0.011268113 0.01787181 0.020224413
0001c0 52 62 87 3c 37 30 67 bc 62 d7 6a bc 2f fc 56 bc
       0.016526375 -0.014110616 -0.014333578 -0.013121649
0001d0 41 da 88 39 12 78 e7 bc a6 d9 4a bb 5a 25 4e bc
       0.00026102553 -0.028255496 -0.0030952482 -0.0125821475
0001e0 c2 af 19 3a 81 0d a7 bc 87 5d 18 bc d6 b2 59 bc
       0.0005862677 -0.020392181 -0.009299642 -0.013287267
0001f0 b1 9f d2 ba f4 bb a6 bb 64 72 18 bc 0f 67 14 3d
       -0.001606932 -0.0050883237 -0.009304617 0.036231097
000200 c8 70 2f 3c 61 5a 43 3c 09 dd c3 3c c7 32 84 bc
       0.0107080415 0.0119234035 0.023909109 -0.016137494
000210 c5 a6 df 3c b3 ef 80 3c 5d 4c 02 3c 4d f7 05 3c
       0.027301202 0.015739297 0.007952777 0.008176637
000220 9b 71 af bc 28 be e1 bc dc a9 9f bc c5 96 b3 bb
       -0.021416476 -0.027556494 -0.019490175 -0.0054806196
000230 8b 11 3e 3b b0 e6 6f 3c bd de 2a 3c 15 71 8e bb
       0.0029002156 0.0146424025 0.0104290815 -0.0043469765
000240 32 1c 36 bd 9c 9d 54 3c 9b 70 6a 3c 66 cb bc 3b
       -0.044460483 0.01297703 0.014309074 0.0057615517
000250 e1 c5 55 bb 7d 01 d2 bc 6d 00 2a bc 75 d7 d1 bc
       -0.0032619166 -0.025635475 -0.010376078 -0.025615433
000260 bf 8e 02 3d 17 73 45 bd 6e 88 a6 bc bc c4 a9 bb
       0.031874415 -0.04820546 -0.020328727 -0.0051809233
000270 ba 65 24 bb 73 8d 8c 3c 29 d8 56 bc 4c b8 45 3c
       -0.0025085048 0.017157292 -0.01311306 0.012067866
000280 33 e9 bc 3c f9 05 97 bc c5 87 9f 3a a1 ea 7a 3c
       0.023060417 -0.018435465 0.00121712 0.015314729
000290 43 6a a4 3b fc d4 6e 3c 33 52 e7 ba 36 6e e2 bb
       0.00501755 0.014577147 -0.0017648399 -0.006910111
0002a0 4d 10 96 bb 99 97 06 bd fb 23 10 bc a2 f5 b6 3c
       -0.00457958 -0.03285942 -0.008797641 0.022333924
0002b0 b0 2c e9 bc 8e e9 31 bb 40 e1 d9 3c 9d 20 29 bd
       -0.028463691 -0.0027147266 0.026596665 -0.041290868
0002c0 64 1e 7c bb 62 d4 1d 3c 49 d1 df 3b 12 10 84 3b
       -0.0038470263 0.009633156 0.0068303687 0.004030236
0002d0 4e cd 47 3b 39 89 ac ba c7 f9 8c 3c a7 12 3f bc
       0.0030487361 -0.0013163454 0.017208947 -0.011662162
0002e0 1d 75 a4 bc c7 a0 b0 bb ab 39 f7 bc 32 be 21 3c
       -0.020075375 -0.00539026 -0.030178865 0.009872006
0002f0 6a fc 85 3c 38 e4 06 bd 8a 76 56 3b 2c 96 17 bc
       0.016355712 -0.03293249 0.0032724463 -0.009252112
000300 82 d8 06 3c 84 cf a4 3b 25 0b c3 ba 55 c9 df bb
       0.00823033 0.0050296206 -0.0014880641 -0.0068294206
000310 bc 06 c3 3c 64 c0 f4 bc d7 29 65 37 b9 ee 9b bc
       0.023806922 -0.029876895 1.3659205e-05 -0.01903473
000320 80 66 e7 bc 46 26 c7 bc e9 48 f3 3b 92 5e 7e bc
       -0.028247118 -0.024310242 0.007424463 -0.015525477
000330 ef 87 96 3c 1b 11 b1 3a 87 5e c4 3b 5a f9 b9 ba
       0.018375365 0.0013509126 0.005992714 -0.0014188692
000340 59 e8 01 3c e2 56 e3 bc 82 dd b4 bc 63 d1 9f 3b
       0.007928931 -0.02775139 -0.02207828 0.0048772558
000350 be 1d 80 bc e6 ab 85 3c 7b 9b e7 3a 5d 7b 19 3a
       -0.015639182 0.01631732 0.0017670238 0.00058548694
000360 89 05 8c bc 00 36 87 bc 9e d0 3a 3c 7e 01 1c 3c
       -0.017092483 -0.016505241 0.011402277 0.00952184
000370 4e 76 17 bd 05 15 04 bd 12 e2 14 bd ea 7b ce bc
       -0.03697806 -0.03224661 -0.03634841 -0.025205571
000380 4c 35 82 3c 8d 39 50 3c 5a 7d a7 bb c3 ee ab 3a
       0.015894555 0.012709034 -0.0051113786 0.0013117421
000390 12 af 1f 3b 79 00 d8 3b 49 79 0a bc 86 03 42 3b
       0.0024365825 0.006591853 -0.008451768 0.002960415
0003a0 be 6d c9 3a 1f a0 2e 3c e8 15 2a bd 0d a7 4c 3c
       0.0015367789 0.010658293 -0.041524798 0.012491
0003b0 c8 1c 76 3b 81 82 c2 bc 95 f8 c9 bc d0 27 d5 3c
       0.0037553776 -0.02374387 -0.024654666 0.02601996
0003c0 81 d6 07 3a eb 01 77 3c 4d ed 8d 3b 76 26 73 bb
       0.0005181805 0.015076141 0.004331267 -0.0037101782
0003d0 8e 94 76 3c 52 14 01 bd f2 d3 f9 3a 05 be 7c 3c
       0.015050067 -0.03151352 0.0019060357 0.015426164
0003e0 37 a6 97 bc 3e 40 39 3c 50 cc e4 ba 91 85 da 3b
       -0.018511875 0.01130682 -0.0017455909 0.0066687544
0003f0 7b c4 1f bd 34 f2 d4 bb 32 be 30 3c 0f 7f ed bc
       -0.039005738 -0.0064985994 0.010787534 -0.02899125

action_model._continuous_distribution.mu.bias f4 [2]
000000 ee 0e 35 3a 65 a0 07 3a
       0.0006906827 0.0005173742
