results/TankLearningAI_timePunished_1/TankLearningAI/TankLearningAI-4970.pt (torch, 441488 bytes, 36 tensors)

network_body._body_endoder.seq_layers.0.weight f4 [128, 6]
000000 7f 34 43 3e a5 de 8f be c7 9a df 3d 02 50 b2 3e
       0.19062994 -0.28099552 0.10918193 0.34826666
000010 b0 98 26 3f 66 f4 29 bf dc 0d 9b 3e ae b6 a0 3e
       0.6507673 -0.6638855 0.3028401 0.31389374
000020 60 51 25 3f b0 e3 1c be 8a 4c 86 3c ac 98 58 3e
       0.64577293 -0.15321231 0.016393919 0.2115199
000030 35 ae a0 bf b7 9a 8d 3f 2f df a7 be a0 9c a5 be
       -1.2553164 1.106284 -0.32787463 -0.32346058
000040 f9 91 8b be a2 d7 59 bf 40 68 4a be 18 7d 24 3f
       -0.27259806 -0.85094655 -0.1976633 0.6425338
000050 ba b9 cc 3e fc 19 45 be 0e 6d 0e bf 4d 00 a2 be
       0.39985448 -0.19248194 -0.55635154 -0.31640854
000060 f8 5c 53 be 3a a5 8c 3e b9 5b d0 3d fb cf 90 3e
       -0.20640934 0.27469808 0.10173745 0.28283677
000070 55 ee 43 bd 38 88 e9 be 85 c5 14 3e 90 11 2f 3e
       -0.047834713 -0.4561174 0.14528473 0.17096543
000080 5f 9a e0 be 42 07 93 be 31 55 1d bf b4 e8 22 bf
       -0.43867776 -0.28716475 -0.61458117 -0.63636327
000090 5b f2 88 be b6 a3 93 be f0 09 2b bf 98 b8 f7 bd
       -0.26747403 -0.2883584 -0.6681204 -0.12095755
0000a0 a5 0c 8c bd 10 38 1c be 4f 3d f6 3e b0 c5 a6 be
       -0.06838349 -0.15255761 0.4809365 -0.325727
0000b0 42 57 d0 be 12 be 4b be eb 1c 42 3e 17 a8 76 3d
       -0.40691572 -0.19896725 0.18956344 0.060218897
0000c0 20 e9 23 bf d2 b5 6a 3e 3f e5 43 3c 84 6c ed 3d
       -0.64027596 0.22920921 0.011956512 0.11592963
0000d0 7e 7c 7b be 65 bf 07 3f 8f 2b b5 be 49 f5 43 be
       -0.24559209 0.5302642 -0.35384795 -0.19136538
0000e0 d1 f5 62 be 39 f9 f5 3d 15 05 8d be 95 70 77 be
       -0.22164084 0.12010426 -0.2754294 -0.2416404
0000f0 fe ac e7 bd c1 2f c4 3e e6 c4 fb 3e 8b 05 eb bd
       -0.113122925 0.38317683 0.4917366 -0.114756666
000100 ee 8d a9 3e 26 c1 8f be e5 e0 ed 3d 76 e9 37 bf
       0.33116096 -0.28077048 0.11615161 -0.7184061
000110 22 ae 21 bf 0d 85 03 3f 42 5a f5 be 13 06 ae bd
       -0.6315633 0.51374894 -0.47920424 -0.08497252
000120 03 8c 42 be 19 0f e0 bd 00 9c d6 3e 9b 4d 25 bf
       -0.18998723 -0.1094038 0.41915894 -0.6457154
000130 a3 0a 43 3e 29 5b e2 bd b5 1c e8 bd 44 0a 5d 3e
       0.19047026 -0.11052544 -0.113336004 0.21585947
000140 54 1c 6d 3e ac c7 58 3d 1d 0e d2 be f8 a0 05 bd
       0.23155338 0.052924797 -0.41026393 -0.032624215
000150 2f fc 0e bd aa 87 d2 bd 6c f7 ec be 0d e7 81 3e
       -0.03490847 -0.10279782 -0.46282518 0.2537159
000160 83 a7 01 bf f0 7c 53 be e0 5f 15 be cf 08 93 be
       -0.5064623 -0.20653129 -0.14587355 -0.28717658
000170 a9 5f 08 3f c6 81 0e bf b1 08 88 be 55 38 e8 bd
       0.53270966 -0.5566677 -0.2656913 -0.113388695
000180 7c 76 3d 3e f3 67 cd be e8 73 01 3f 12 dd 27 3f
       0.1850223 -0.4011837 0.50567484 0.655717
000190 c0 f2 77 3e 60 56 f3 3d be c9 50 3f 46 1e 2c be
       0.24213696 0.11881709 0.81557834 -0.16808423
0001a0 a0 dd 71 3f 28 d1 bf bc 43 fb ac be bf dd bf 3e
       0.944788 -0.023415163 -0.33785447 0.37473866
0001b0 71 b1 9f bc a8 fe 6d be 04 46 b6 3e 92 59 5e 3f
       -0.01949379 -0.23241675 0.35600293 0.86855423
0001c0 9a c5 76 3e bd 39 da 3d c8 5a 8b 3e 55 5c 0d 3f
       0.24098817 0.10655544 0.27217698 0.5521901
0001d0 a3 0c 91 3f b2 f3 1c 3e 79 a7 b9 3e 4f 7c 96 bf
       1.1331981 0.15327337 0.36260584 -1.1756686
0001e0 af ee 73 bf 67 ed e9 bd 82 7f e5 be 88 80 78 be
       -0.9528608 -0.11422234 -0.44823843 -0.24267781
0001f0 9b 9e 9f be b3 f9 17 3f a5 19 82 be 25 cd 5b bf
       -0.31175694 0.59365386 -0.2541019 -0.858599
000200 c1 da 42 3f 4f 75 5b 3f e0 a1 1a be ac 63 0b 3f
       0.7611504 0.85725874 -0.15100813 0.5444896
000210 71 3f aa bd 8b d6 48 bd 65 24 d5 3d 22 c0 48 be
       -0.08312882 -0.04903273 0.10407332 -0.19604543
000220 6c 2e 89 3e 06 b7 e0 bd a9 bf 0f be 2d da 5c 3d
       0.2679323 -0.10972409 -0.14037956 0.053919006
000230 fc cd 4a be 33 eb 31 3e 5e 0d 38 bf 99 59 5c 3e
       -0.1980514 0.17374878 -0.71895397 0.21518554
000240 0b 15 28 3e 04 c4 77 3e 70 ba 82 bf ac 8e d3 bc
       0.16414277 0.24195868 -1.0213146 -0.025824867
000250 cf 11 ae 3d c1 2c 91 3e 4d d5 79 be d8 7c 95 be
       0.084994905 0.28354457 -0.24397774 -0.2919681
000260 3d e7 8f bd 2e e1 0e bf 0d a8 48 3d f2 ed 44 3f
       -0.07026527 -0.55812347 0.04898839 0.76925576
000270 b8 d1 26 3f f9 45 3a bf 59 43 d7 be ae b1 da be
       0.65163755 -0.7276302 -0.4204357 -0.42713684
000280 fc 44 c1 be d4 d0 d6 3e 5e c9 03 3f 0a 5e 0a 3f
       -0.37747943 0.41956198 0.51479137 0.5404974
000290 de 6a 61 be ab aa db be d2 a7 a3 3e 67 bd ed 3e
       -0.22013423 -0.42903647 0.31963974 0.46433565
0002a0 43 a0 7e 3d 1d 08 c6 bd 45 ac 82 3f bb a1 32 bf
       0.062164556 -0.09669516 1.0208822 -0.6977803
0002b0 68 bd 04 3f 74 70 10 bf 6c 54 5c be f1 6d 90 be
       0.5185151 -0.5642159 -0.2151658 -0.2820888
0002c0 d7 ad 9f 3e 69 6f d0 3e ba f1 84 be 5d 6e 89 3e
       0.31187317 0.4071 -0.25965673 0.26842013
0002d0 bf 37 71 be 94 ff a1 3e 24 15 c4 be 15 d0 13 3f
       -0.23556422 0.31640303 -0.3829738 0.57739383
0002e0 8b 98 8a bd ba 80 85 3e 1c 8e b6 bd 1c 47 2b bd
       -0.067673765 0.26074773 -0.08913824 -0.041815862
0002f0 e3 61 1b bd 79 56 24 3f d8 93 10 bf 20 08 3c 3d
       -0.03793515 0.64194447 -0.5647559 0.045906186
000300 63 34 a8 be b5 6b 64 3f 4e 4f 71 3e b4 f4 85 bb
       -0.32852468 0.8922685 0.23565409 -0.004088009
000310 9b 60 80 3f d8 9d 5d 3d 81 10 c4 3e bd 58 31 be
       1.0029482 0.05410561 0.3829384 -0.17319007
000320 be 3c 77 be 1d 9e 19 3f a1 1e 31 3e 08 fa 0a bf
       -0.24144265 0.60006887 0.1729684 -0.5428777
000330 2f 58 7a 3f 69 21 f2 3e fb ee 8a be 31 71 ad 3c
       0.9779081 0.47291115 -0.27135453 0.021172138
000340 e3 89 3e 3f e1 0d 92 3d 74 e1 39 be fd 82 e5 bd
       0.7442915 0.071315534 -0.1815241 -0.11206625
000350 cb 4e 06 be 00 77 75 3f bf b0 13 3e 12 89 d3 3d
       -0.13115995 0.95884705 0.14422892 0.103288785
000360 71 a8 91 3d a1 fe 44 3d 20 ef c8 bc 91 98 b8 be
       0.07112206 0.048094396 -0.024528086 -0.360539
000370 e4 90 6e 3f fc 8f cd 3d f1 ae 7e be 27 f0 2f 3e
       0.93189836 0.100372285 -0.24871422 0.17181455
000380 12 31 6b be 9e 96 e0 3e bf d3 0a bf 0c 46 80 3e
       -0.22967938 0.43864912 -0.5422935 0.25053442
000390 10 19 bc 3e 38 f6 35 bd 13 13 7d 3e 4e 98 5e bf
       0.3673787 -0.044424266 0.24714307 -0.8695115
0003a0 1f 18 0d be f9 44 c5 3e 37 29 95 3e 4f 9e 92 3e
       -0.13778733 0.38529184 0.29133007 0.28636405
0003b0 da c0 0c bf 55 fe e5 bb 0b b8 0b bf ac 97 1b 3f
       -0.5498177 -0.007018844 -0.545777 0.6077831
0003c0 c1 4d db bc fd e4 00 3d bf f5 80 3e 74 2d a9 be
       -0.026770474 0.03146838 0.2518749 -0.3304249
0003d0 3d cc 76 be 95 5f da 3d 3e bc 2f 3e 71 8b bc be
       -0.24101348 0.10662762 0.17161652 -0.36825135
0003e0 16 6c 86 bf 65 4e eb 3e dd 9c 99 3e 71 80 1f 3e
       -1.0501735 0.45958248 0.3000249 0.1557634
0003f0 e9 4c 57 3e 11 ba 41 3e 78 17 77 3e 84 e3 91 be
       0.21025433 0.18918635 0.24130046 -0.28493893

network_body._body_endoder.seq_layers.0.bias f4 [128]
000000 ea d4 8a 3b 82 cd 8e 3c 46 03 e9 3a e0 5a 0d 3c
       0.004236807 0.017431978 0.0017777465 0.008627623
000010 79 9a 9b 3a 63 a7 42 34 f3 9b ba bb 38 fa 0e b5
       0.0011871598 1.8128553e-07 -0.00569486 -5.326324e-07
000020 df 6b cb ba b1 ad 1c bb e1 14 d9 3a ec 7e 25 ba
       -0.0015519819 -0.002390724 0.0016562009 -0.00063131633
000030 d8 85 56 3c d6 31 8f bb 2b b5 bb bb 12 ee 79 3b
       0.013093434 -0.0043699546 -0.005728384 0.0038136286
000040 48 1e 65 bb 95 d6 29 3c 4b dd 8d bb e4 96 8a 3c
       -0.0034960676 0.010366102 -0.0043293587 0.016917653
000050 95 84 0c 3b a2 48 1d 3b 87 e0 16 3c 33 61 37 bc
       0.002144133 0.0023999591 0.009208805 -0.011192608
000060 5e c5 44 bc 6e 10 14 3c f6 93 24 33 b1 65 60 b7
       -0.012009947 0.00903712 3.8318795e-08 -1.3375117e-05
000070 d6 3f a3 bc b3 da b0 3b 99 e3 5c 3b 92 58 39 bc
       -0.0199279 0.0053971647 0.0033704995 -0.011312621
000080 c2 d1 01 bc 40 5c 73 b8 64 ce 3a 28 e6 46 a8 bb
       -0.007923545 -5.802163e-05 1.0369828e-14 -0.005135405
000090 9a c2 35 bc 98 4e f4 bb dc bf c0 3a 1e a9 c9 3a
       -0.01109376 -0.007455658 0.0014705616 0.0015385484
0000a0 2f 23 62 bc 45 6c af bb a0 51 0a 3d db 56 2e bb
       -0.013802334 -0.005353483 0.03376925 -0.0026602063
0000b0 76 c6 2d 3a 3c e3 04 bc 30 e0 95 3b 9f cf 25 3c
       0.0006628999 -0.0081108175 0.0045738444 0.0101203015
0000c0 71 c8 43 3c da ba d0 3a 12 2b b4 bb 1e 6a 26 3c
       0.011949644 0.0015924827 -0.0054982984 0.010157136
0000d0 c3 9a b5 bb 10 f1 c2 3a b0 32 6f bc a9 46 3b bb
       -0.0055421307 0.0014872868 -0.014599487 -0.0028576052
0000e0 5f ec 15 3c 97 bc e0 ba f0 f2 b9 bb d8 46 22 a8
       0.009150594 -0.0017146048 -0.0056747124 -9.008168e-15
0000f0 68 d6 fe 3a 4f 6a f3 bb d5 6e 13 bc 02 15 0c ba
       0.001944256 -0.0074284445 -0.008998592 -0.00053437066
000100 23 15 f0 ba bf da 87 3c bf e1 09 bc 18 df a9 bc
       -0.0018316846 0.016583798 -0.0084156385 -0.020736262
000110 83 d4 0a bc 75 70 a5 bb fc bc 63 3c 7e 9a 1b 3b
       -0.008473518 -0.0050488063 0.013900038 0.0023743208
000120 c2 93 a4 3c 73 5f 8c bb ce be 08 bb 86 12 c8 ae
       0.020089988 -0.0042838394 -0.0020865682 -9.0982374e-11
000130 a2 73 ef 38 48 66 55 3c 39 3a d4 3a bf aa 62 3a
       0.000114179464 0.013024874 0.0016191668 0.0008646659
000140 6b 62 88 3b d5 03 c3 3c c4 16 23 bc 74 d8 9f ba
       0.004162123 0.023805538 -0.009954158 -0.0012195245
000150 65 8b a7 3b a6 2f c0 3a 26 38 1e ba 84 18 93 3c
       0.0051130527 0.0014662638 -0.00060355884 0.017956026
000160 b0 48 fc 3a 10 37 ef 3c 83 29 ca bb 3c cd d3 3c
       0.0019247737 0.02920106 -0.0061694994 0.0258547
000170 46 6a fb 39 7a 56 94 bb da 4f 9a ba c4 e7 0f 3a
       0.0004795363 -0.0045269104 -0.0011773065 0.0005489553
000180 3f 6f 4d bb 09 22 1a bb 15 f0 e6 3a 89 31 1e 3c
       -0.0031346825 -0.0023518822 0.0017619157 0.009655365
000190 60 a9 d6 b8 27 ed a7 3a 98 58 76 3a 9f df ed 3b
       -0.00010235864 0.0012811766 0.0009397357 0.0072593237
0001a0 e6 89 88 3c ca 7c 52 3c 99 cd 55 3b 7f c1 aa bb
       0.016667318 0.012847135 0.0032623766 -0.005211055
0001b0 fb 0a 20 3c 5b 0c 18 3b b4 a6 81 36 29 14 99 3a
       0.009768243 0.0023200724 3.8639064e-06 0.0011678982
0001c0 25 84 5e 3b 2a ce bc 3c 61 ab 80 3b fc 14 89 2b
       0.0033953276 0.023047525 0.00392668 9.74026e-13
0001d0 81 b6 cb 3b b0 25 46 bc 89 e3 f0 3c f2 1a 1d 3b
       0.0062168245 -0.012093946 0.029405372 0.002397236
0001e0 a2 ea ec 3b 3e 62 73 bb 72 97 ad ba 13 1b 16 ba
       0.007230119 -0.0037137414 -0.0013243987 -0.000572608
0001f0 e4 fb 46 bb 37 37 13 3c 31 d1 b7 bb c9 4b e1 3b
       -0.003036254 0.008985332 -0.0056096544 0.0068754894

network_body._body_endoder.seq_layers.2.weight f4 [128, 128]
000000 83 24 03 be af 7b 93 bc f4 3f f1 bc 69 a3 cf 3b
       -0.12806897 -0.018003313 -0.02944944 0.0063366187
000010 54 85 b0 bd df d8 d3 3d dd 25 91 3e c1 b6 1e 3a
       -0.0861918 0.10344099 0.283492 0.0006054454
000020 41 f3 3c 3e a4 40 08 bc e4 c8 a8 bc 0c 01 97 3d
       0.18452169 -0.008316193 -0.020603605 0.073732466
000030 e8 bd a4 bd d0 fd ca bd bf f2 2f bc 92 33 67 bd
       -0.08044034 -0.09911692 -0.0107390275 -0.056445666
000040 83 35 51 be 59 76 dd 3c 4e 04 0f 3b 94 8c 1f 3b
       -0.2043057 0.027033972 0.0021822634 0.0024345266
000050 78 56 9e 3d a0 f1 e9 38 47 39 6f be 7c 21 1c 3e
       0.07731336 0.00011155312 -0.23361693 0.15247148
000060 b5 1f 86 be ee cc 1c bc df 59 0d bd bb ec d7 bd
       -0.26196066 -0.009570343 -0.034509536 -0.105432
000070 18 a2 28 3d 72 d5 ac bd e1 51 04 3e c1 1f 44 bd
       0.04117021 -0.08439149 0.1292186 -0.047881845
000080 d1 d5 af 3d b1 88 5e 3d d1 b7 7e bd 71 0f 19 be
       0.08585704 0.054329578 -0.06218702 -0.14947297
000090 52 16 42 bb 80 20 34 bd 4a 23 a1 3d 48 b6 cc 3d
       -0.0029615355 -0.043976307 0.07868059 0.09995705
0000a0 af 56 b0 bc 0e ed a1 3d 27 a3 6f 3b fd ac 97 bd
       -0.021525709 0.07906543 0.0036565752 -0.07406042
0000b0 da ef e0 bd 78 87 9f bd bb 09 42 bb c2 bc a3 3c
       -0.10983248 -0.077895105 -0.002960785 0.019987468
0000c0 22 83 48 3d 96 bb 93 3d 2c dd b1 3d 8b 7a 2c bb
       0.048953183 0.072135136 0.08684763 -0.0026318158
0000d0 08 70 ad 3d ef 66 54 3e 63 a7 0b be d5 0e a8 3d
       0.08468634 0.20742391 -0.13638072 0.08205954
0000e0 48 b0 b5 3c a9 bc 42 be 84 38 b0 3d f7 f8 95 bd
       0.022178784 -0.1901728 0.086045295 -0.07322877
0000f0 94 aa ee 3d 8e 1d b9 3d 53 52 3d bd 89 03 06 3e
       0.11653629 0.0903884 -0.04622109 0.13087286
000100 65 35 03 3d d7 39 c9 3c d6 8a 79 bd d0 d1 bd bc
       0.032033343 0.024563713 -0.06092342 -0.023171335
000110 d3 7e f7 3d f5 4d 63 3e fa 85 ea bc 59 e0 11 be
       0.12084737 0.22197707 -0.028628338 -0.14245738
000120 e4 fb 1e be e6 64 41 be 62 92 45 3d 62 69 2c bc
       -0.15525776 -0.18886146 0.048235305 -0.010523172
000130 32 56 2a bd 6a 87 02 bd 02 06 c8 3d 37 22 21 3e
       -0.04158611 -0.031867422 0.09766771 0.15735708
000140 d8 18 e9 3d 64 b9 bb bd 8d 06 be 3d 8c 40 02 bc
       0.11381692 -0.0916622 0.09278593 -0.0079499595
000150 ab 33 0f 3d 60 90 b8 3d a5 15 37 3c e9 4e e9 bc
       0.034961384 0.09011912 0.011174594 -0.02848001
000160 f4 5e dc 3d b2 b7 7a bd c9 91 89 3d ff b2 bf bd
       0.10760298 -0.06121034 0.067172594 -0.09360313
000170 51 f0 b7 bd 48 0d 04 be 44 ed a9 bd 37 61 10 be
       -0.089813836 -0.12895691 -0.08297208 -0.14099585
000180 87 b3 78 3c 07 d1 27 3d 89 4b d8 bd 1a f9 81 3d
       0.015179521 0.04097083 -0.10561282 0.063463405
000190 3e 32 d9 3d d2 1c 89 bc 51 c2 22 be 0c 5e 6b bd
       0.10605286 -0.016737375 -0.15894438 -0.057462737
0001a0 33 e5 bc 3b 8a 51 9d 3b 5a f8 10 3b 66 b8 5a 3a
       0.0057646274 0.00480098 0.0022120685 0.00083435175
0001b0 84 59 54 3d 8d 51 7a 3c 7f 90 df bd 97 a3 14 3e
       0.05184318 0.015278232 -0.10916232 0.1451553
0001c0 d6 24 00 3e 0c f4 18 bd 7c 5a 14 3d 75 b8 85 3c
       0.12514052 -0.037342116 0.036219105 0.016323308
0001d0 9f 1d c3 bd d9 d0 e4 3c 85 fd 22 be 2e 20 a5 3d
       -0.09527134 0.027931618 -0.15917023 0.080627784
0001e0 df 55 9c bd ff 0a 38 bd 72 8f 13 bd 06 2a 7c 3c
       -0.07633566 -0.04493236 -0.036025472 0.015390879
0001f0 b0 95 ce 3d e1 c4 e4 3a 62 59 8a bd da 0e 93 bd
       0.100871444 0.0017453694 -0.0675533 -0.07180567
000200 07 67 a2 3d 56 d6 bd bb 25 a4 64 3d 79 af e2 bb
       0.07929807 -0.005793373 0.055820603 -0.0069178906
000210 47 e0 f9 bc 2b 76 44 3d e1 32 da bd c5 fc a3 3d
       -0.030502452 0.047964256 -0.10654236 0.08007196
000220 cd 88 1d bd 21 a9 aa 3d 3d e3 af 3d 1b 80 8c 3d
       -0.03846054 0.0833304 0.08588264 0.06860372
000230 8a 2f e5 39 6f 9a e6 3d a1 41 8d 3b 47 76 34 bd
       0.00043713703 0.112599246 0.004310802 -0.04405811
000240 d5 f7 ea 3d d0 65 9e 3d b1 cc 4d 3e b4 4f a1 3d
       0.114730515 0.07734263 0.20097615 0.0787653
000250 9a 9c aa 3d 8a 2c d1 bd 95 e7 17 3e 45 0a e1 3d
       0.08330651 -0.10213573 0.14834435 0.10988287
000260 e5 95 97 3d 96 d9 34 3d b4 28 07 3e 85 7c af bd
       0.07401637 0.04415282 0.13199121 -0.08568672
000270 68 3d 75 bd 72 7e 9e 3a 3e fb b9 3d 63 c3 6b bd
       -0.059873015 0.0012092127 0.09081124 -0.057559382
000280 52 60 52 3d c7 5d 7c bc 5b 8d 4d 3d 91 c0 90 bd
       0.05136139 -0.015403218 0.050183635 -0.07067979
000290 f1 6c c8 bd ef e0 05 3c e6 20 13 be 33 05 96 3d
       -0.09786404 0.008171304 -0.14368019 0.073252104
0002a0 10 c5 17 be e7 df 74 3c 6e d1 99 bc be 2c 30 bd
       -0.14821267 0.014945961 -0.018776622 -0.04301142
0002b0 a4 3b 40 3d af 3e 04 3e 14 e9 0b 3d 6b 79 38 bc
       0.046931878 0.12914537 0.034157827 -0.011259417
0002c0 75 da 61 3a fd 35 02 bd 5e 48 f4 bc ed 68 5c bd
       0.00086156215 -0.03178977 -0.029819664 -0.053811003
0002d0 78 04 f2 bd ed c0 a6 bd ee 41 5e 3d b8 d0 50 bc
       -0.118172586 -0.081422664 0.054262094 -0.012745075
0002e0 8e 7a 57 36 1f 7c 6c bd 32 59 f9 3b 91 3f 0c 3e
       3.2108833e-06 -0.05773556 0.00760951 0.13696124
0002f0 43 83 08 be 3b 02 00 3e 94 b9 87 3c fb fc 6a 3c
       -0.13331322 0.12500851 0.016567983 0.014342542
000300 a2 b3 70 3d 1e 00 6f 3d b8 a3 b6 ba c4 c8 8c bb
       0.05876506 0.05834972 -0.001393429 -0.004296394
000310 ba 4b 4a bd 14 a8 12 bd 84 36 67 3c 6e a7 13 3e
       -0.049388625 -0.035804823 0.014112119 0.14419338
000320 21 c7 18 3d a0 9d 50 3d 22 59 9a bd 9f 37 0b 3e
       0.03729928 0.050931573 -0.07536532 0.13595437
000330 4d 22 22 3c 9a b8 5e 3d b3 e5 c0 bd f0 68 b7 bd
       0.009895873 0.05437527 -0.09418812 -0.08955562
000340 ca 86 bf bc 65 a5 9e 3d fd 87 73 bd 9f ea 72 3c
       -0.023379702 0.0774639 -0.05945586 0.014826446
000350 26 2e a1 bd 07 2a 32 be 55 00 06 bc fe 45 17 bc
       -0.0787013 -0.17398845 -0.00817879 -0.009232996
000360 0d ae e1 bd 47 a4 d4 bd d0 2c 9f bd fb cf 14 3e
       -0.11019526 -0.10382896 -0.07772219 0.14532463
000370 8d 8b 3f 3d 3a 65 82 bd 8e bf 1c ba be 32 23 be
       0.046763945 -0.06366964 -0.00059794716 -0.15937325
000380 a3 12 2f 3d 2b 11 6c bd 2c 01 6b be 74 02 96 bd
       0.042742383 -0.05763356 -0.22949666 -0.07324687
000390 9a 8a ed 3d c8 d3 d3 bd a6 91 02 3e 24 38 8c 3d
       0.11598702 -0.103431284 0.12750873 0.068466455
0003a0 9a 5d 3b bd 15 6b 1f bd 0d f7 79 bc b0 d6 d3 bd
       -0.045743562 -0.03892048 -0.015256655 -0.10343683
0003b0 a9 35 ee bb c7 fa 45 3c ba f9 b8 3d 05 ef dc 3d
       -0.0072695804 0.012083716 0.090320066 0.10787777
0003c0 8e b2 0f 3e 3c f7 c0 3c 27 9b e6 3c 37 53 3f bd
       0.14032957 0.02355539 0.028150154 -0.04671022
0003d0 67 98 06 be d9 21 b6 bd fb f7 05 be ac 84 ce bd
       -0.13144074 -0.08893175 -0.13082878 -0.10083899
0003e0 96 96 f1 bd 2b 83 f5 3d a9 3b 4b bd 95 f2 a7 bc
       -0.117963 0.11987909 -0.049617443 -0.020501414
0003f0 25 e3 60 bb c9 77 46 3d f8 e8 7c bc a6 1a da 3d
       -0.0034315076 0.04845408 -0.015436403 0.10649614

network_body._body_endoder.seq_layers.2.bias f4 [128]
000000 59 dc 00 ba 14 21 26 bb b9 23 87 b9 33 8d 14 bc
       -0.0004915647 -0.0025349306 -0.00025775822 -0.009066868
000010 30 08 78 b8 6a ec cd 3b 13 53 26 ba e7 20 8e bb
       -5.9135433e-05 0.0062842863 -0.00063447765 -0.0043374184
000020 9a dc ea bb b1 f6 01 bc 44 f6 60 3c 08 6d 93 bb
       -0.007167411 -0.007932351 0.013730589 -0.0044990815
000030 b7 11 cf ae 82 74 ee ba 65 62 a5 9e 7a 80 3b bc
       -9.416417e-11 -0.0018192681 -1.751075e-20 -0.011444205
000040 bf e0 9b 3b 6a 05 9c 3a 36 af f8 bb 16 2b b0 b4
       0.0047570164 0.0011903469 -0.007589246 -3.2813904e-07
000050 4e 1b 60 3a d6 65 e5 3c 02 90 be 2e 93 00 57 3c
       0.00085489906 0.02800266 8.6657806e-11 0.0131226955
000060 30 57 11 3b 0c 7c c5 3b ba dc 31 3b 4d 4b d3 ba
       0.0022177212 0.0060267504 0.002713962 -0.0016120464
000070 c4 5d a0 3a fb aa 9a bb 18 a8 b5 3b 2a 34 a2 bb
       0.0012234976 -0.0047200895 0.00554372 -0.004950066
000080 92 51 cb b9 6f 9d c5 3b 65 c5 0a ba b8 5a 86 3b
       -0.00038779952 0.0060307304 -0.00052936963 0.00410017
000090 a5 21 b1 bb 67 63 86 bb cc 3d 7f bb 4f eb e9 bb
       -0.005405622 -0.004101205 -0.0038946746 -0.0071386467
0000a0 9e f9 08 3b 82 e2 e3 3a 2e f5 a9 bb f5 3b bb ba
       0.0020900737 0.001738623 -0.0051866984 -0.0014284836
0000b0 97 79 75 2c 38 80 de bb 43 fd 1d bc fd 48 1f bb
       3.488409e-12 -0.006790187 -0.009642902 -0.002430498
0000c0 56 fe 57 ba 3e 66 65 b9 3b 57 3e 3a f8 99 02 bc
       -0.0008239498 -0.0002187723 0.0007260923 -0.007971279
0000d0 df ac f3 bb 6b 94 c0 ba f7 f0 35 3a f2 b0 94 b9
       -0.0074363793 -0.001469267 0.00069405086 -0.00028360594
0000e0 ac 72 24 bc 51 71 7d 30 58 36 4d 3c 07 93 36 bb
       -0.0100371055 9.2201896e-10 0.012525164 -0.0027858631
0000f0 d0 e1 8f bb 37 0e f3 3c f0 75 b9 bb 99 70 2b bb
       -0.0043909326 0.029669864 -0.005659811 -0.0026159643
000100 7c 3a 8f bb 1d ff 5d bb 97 39 39 bc 0b 01 31 bb
       -0.0043709856 -0.0033873983 -0.011305234 -0.0027008678
000110 32 b3 f4 ba d2 6f d4 3c fa da 26 3b 12 5a bb 3b
       -0.0018669127 0.025932226 0.002546011 0.0057175243
000120 5d a5 a7 3b 87 66 b7 bb 96 3b 2d bc de 84 a9 bb
       0.0051161484 -0.005596939 -0.010573288 -0.0051733097
000130 35 16 6f bc fc 81 05 3b 35 d7 88 33 c2 c6 bb bb
       -0.014592697 0.0020371666 6.3721394e-08 -0.005730481
000140 a3 84 85 bb 3e 21 0a bc 70 36 24 3c 3d 9b c5 bb
       -0.0040746494 -0.008430777 0.010022745 -0.0060304687
000150 c5 90 fd 2e 05 34 90 b8 0d 1f 8d bb ff f5 61 3b
       1.1530824e-10 -6.8761445e-05 -0.00430668 0.00344789
000160 ed 15 e4 ba ef 1a 2e b9 b8 69 63 3b 79 85 79 bb
       -0.0017401554 -0.00016603967 0.0034700464 -0.003807394
000170 f5 79 cb 3c 10 87 9e 3a 56 b0 15 3c 86 36 cd 3c
       0.024838427 0.0012094695 0.00913628 0.025050413
000180 34 2d d0 bb 54 ab 28 bb 0c 79 38 bc 35 6a 30 ba
       -0.006353045 -0.0025736885 -0.011259329 -0.0006729693
000190 e0 83 e8 3a d5 41 8b bb c9 de 18 36 79 0a 1f bb
       0.0017739497 -0.004249791 2.2779443e-06 -0.0024267717
0001a0 9a e9 08 bb 8c b1 c9 bb de 95 53 3b 86 f9 6a bb
       -0.002089119 -0.0061551984 0.0032285373 -0.0035854294
0001b0 14 d6 d7 bb 97 98 d3 bb ff 38 c6 bb 15 36 83 bb
       -0.0065867994 -0.006457399 -0.006049275 -0.00400425
0001c0 8e 8e b7 3a 48 c1 0b b9 92 f3 70 bb b6 d4 2a bb
       0.0014004277 -0.00013328076 -0.0036766273 -0.0026066727
0001d0 6f 3e 8d bc 25 0a 13 3d 1f 17 0c bc 27 fe 7b bb
       -0.017241685 0.035898346 -0.008550434 -0.0038451047
0001e0 de a9 4d 3a 64 5a 3d bc a2 49 2a bc 61 c2 bf bb
       0.00078454416 -0.011557195 -0.010393532 -0.005852029
0001f0 e7 46 c3 b9 36 06 9e bb df 6d be b9 51 ea af 3b
       -0.00037246125 -0.0048225177 -0.00036321484 0.005368509

action_model._continuous_distribution.log_sigma f4 [1, 2]
000000 28 88 82 3d e0 f3 5d 3d
       0.06373626 0.054187655

action_model._continuous_distribution.mu.weight f4 [2, 128]
000000 b5 8d 58 3c 8d f7 cd bb 77 95 ae 3b 13 9c 1d 3c
       0.013217379 -0.006285614 0.005327876 0.0096197305
000010 3c ab 78 3c 49 35 36 bd df d2 f8 3b bf 7e 40 3b
       0.015177544 -0.04448441 0.007593497 0.0029372422
000020 43 e6 ed bc a8 2f e1 3a d3 b0 59 bc 95 eb a2 bc
       -0.029040461 0.001718034 -0.013286787 -0.019887725
000030 fb 5d 34 3c cb 0b 32 3c 48 93 c3 3a 8b f6 80 3c
       0.011008735 0.0108670695 0.0014921213 0.01574256
000040 fe 73 fb bb dd b1 46 3c f0 ed 63 bc 4f 9a 15 b7
       -0.0076737395 0.012127367 -0.013911709 -8.91702e-06
000050 bd 31 eb 3b 13 c3 f1 bc f4 de 1d bc 6d b7 19 bc
       0.00717756 -0.029511964 -0.009635676 -0.009382111
000060 79 76 89 3c 65 26 35 3d 46 b0 08 bc 4d 02 4f 3c
       0.016780125 0.04422607 -0.008342808 0.012634826
000070 d2 cd 14 3c 75 49 b3 39 ea bf 77 bc b8 99 3a bc
       0.0090822745 0.0003419627 -0.0151214395 -0.0113891885
000080 ca 1d 4a bc 80 16 df 3b 1e 7f 77 3c f3 3b 26 3d
       -0.012336204 0.006808102 0.015105991 0.040584516
000090 95 3b 7f bb fb 87 b8 bc 90 97 e2 bc 85 90 90 bb
       -0.0038945426 -0.022525778 -0.027660161 -0.0044117593
0000a0 a8 3b 9a 3c 09 45 d9 bc 09 53 2d bc 07 69 03 3c
       0.018827274 -0.026522176 -0.010578879 0.008020646
0000b0 e9 c8 2c bd d1 63 27 bc 25 9a bb bc bf 12 2a 3c
       -0.04218379 -0.010216669 -0.02290065 0.010380446
0000c0 e7 1c 16 3b f7 d2 91 3c c8 d6 36 3c ed 0f 91 3b
       0.002290541 0.017800791 0.011159606 0.0044269473
0000d0 a3 7e 15 bc d6 98 e7 ba 57 d8 54 3c bc b0 c0 3c
       -0.009124431 -0.001766945 0.012991033 0.023521774
0000e0 e5 e0 ea 3c c8 6f a7 bc d7 d3 88 bc 5a e8 ab bb
       0.028671691 -0.020439044 -0.016702576 -0.0052462043
0000f0 27 2c 02 bc 76 07 9a bc d7 40 04 bb db f0 d7 bc
       -0.007945097 -0.018802386 -0.002018025 -0.026359966
000100 89 c1 4b bb a6 6b 21 bb ee 7c d8 3a 68 4b 39 3c
       -0.0031090698 -0.0024630814 0.0016516724 0.011309482
000110 b6 f6 0f 3b df 13 c4 bc 06 c4 24 3d 6c 08 c6 bb
       0.002196712 -0.023935257 0.040226005 -0.0060434844
000120 4b 73 36 b9 6b 3f 15 3b 6b fa 05 bb 83 36 b1 bc
       -0.00017399823 0.0022773396 -0.002044345 -0.021632439
000130 99 24 0e 3c 68 ba 85 3c 79 25 5f bc 49 cd a3 bb
       0.008675718 0.016324237 -0.013619774 -0.004998837
000140 8a 35 84 3b e6 4e 91 bb 5e c3 30 bd c3 72 c4 bc
       0.0040347027 -0.0044344543 -0.043155067 -0.023980504
000150 c7 db 61 3b 47 ff 04 bd 0c 42 31 bc db 43 31 3d
       0.0034463273 -0.032470014 -0.010818969 0.043277603
000160 ec 54 19 3c 6e 2d 9c 3b 33 55 2f 3d d4 0f b2 bb
       0.009358626 0.004766158 0.04280586 -0.0054340158
000170 b9 9c 33 39 6e c8 e8 bc 1a e2 49 bc 57 b7 12 bd
       0.00017129154 -0.028415885 -0.012321973 -0.035819378
000180 80 a0 7e bc c0 4e 94 3b 55 34 ba 3c cc 65 f3 bc
       -0.015541196 0.0045259893 0.022730032 -0.029711626
000190 aa 42 8c 3c 44 e2 11 3b 10 9f a1 bc 14 bd c2 bc
       0.017121632 0.002226011 -0.019729167 -0.0237718
0001a0 5d f8 9d ba 18 e9 f3 3c 98 d5 cb bc dd 9e 90 bb
       -0.0012052167 0.029774234 -0.024882123 -0.004413469
0001b0 1f ab e6 bc e4 9d 38 bc e7 67 92 3c 82 b3 a5 3c
       -0.028157769 -0.011268113 0.01787181 0.020227198
0001c0 c9 10 a4 3c 3a 30 67 bc 62 d7 6a bc 2f fc 56 bc
       0.020027535 -0.014110619 -0.014333578 -0.013121649
0001d0 41 da 88 39 ff 90 e5 bc a6 d9 4a bb ba 48 5e bc
       0.00026102553 -0.028023241 -0.0030952482 -0.013567144
0001e0 19 a2 8c 3a ad 0d a7 bc b2 5e 18 bc d6 b2 59 bc
       0.0010729461 -0.020392263 -0.009299921 -0.013287267
0001f0 b1 9f d2 ba 8d bc a6 bb 64 72 18 bc 42 6d 1d 3d
       -0.001606932 -0.005088395 -0.009304617 0.038434274
000200 c8 70 2f 3c 61 5a 43 3c 09 dd c3 3c c7 32 84 bc
       0.0107080415 0.0119234035 0.023909109 -0.016137494
000210 c5 a6 df 3c 47 0f ae 3c c0 7c 02 3c 4d f7 05 3c
       0.027301202 0.02124752 0.007964313 0.008176637
000220 9b 71 af bc 28 be e1 bc e3 5d c5 bc 2a 8e b3 bb
       -0.021416476 -0.027556494 -0.02409262 -0.0054795938
000230 8b 11 3e 3b b0 e6 6f 3c bd de 2a 3c f1 70 8e bb
       0.0029002156 0.0146424025 0.0104290815 -0.0043469598
000240 2b 90 4f bd 9c 9d 54 3c 02 a9 6a 3c 66 cb bc 3b
       -0.0506746 0.01297703 0.014322521 0.0057615517
000250 be b6 11 bc 1d a2 f8 bc 6d 00 2a bc eb 07 f9 bc
       -0.008893667 -0.03035074 -0.010376078 -0.030399283
000260 bf 8e 02 3d de f4 5b bd 22 92 cf bc bc c4 a9 bb
       0.031874415 -0.05370032 -0.025338236 -0.0051809233
000270 e5 7d 0e bc 74 95 8c 3c 3d 2f 8e bc 4c b8 45 3c
       -0.008697008 0.017161109 -0.01735651 0.012067866
000280 33 e9 bc 3c 9e 48 c2 bc d6 88 9f 3a a1 ea 7a 3c
       0.023060417 -0.023716267 0.0012171518 0.015314729
000290 43 6a a4 3b fc d4 6e 3c 16 10 9c bb b0 ec 3a bc
       0.00501755 0.014577147 -0.00476266 -0.01140897
0002a0 4d 10 96 bb 26 14 1a bd fb 23 10 bc a2 f5 b6 3c
       -0.00457958 -0.03761687 -0.008797641 0.022333924
0002b0 b0 2c e9 bc 8e e9 31 bb c2 ab f6 3c aa 20 29 bd
       -0.028463691 -0.0027147266 0.030111197 -0.041290917
0002c0 0e 30 0e bc 62 d4 1d 3c 49 d1 df 3b 12 10 84 3b
       -0.008678449 0.009633156 0.0068303687 0.004030236
0002d0 aa ac 48 3b ec a5 c5 bb c7 f9 8c 3c a7 12 3f bc
       0.0030620494 -0.0060317423 0.017208947 -0.011662162
0002e0 1d 75 a4 bc c7 a0 b0 bb c7 5c 0f bd 32 be 21 3c
       -0.020075375 -0.00539026 -0.03500059 0.009872006
0002f0 6a fc 85 3c d8 8f 1a bd 8a 76 56 3b 5b 20 68 bc
       0.016355712 -0.037734836 0.0032724463 -0.01416787
000300 82 d8 06 3c 84 cf a4 3b 25 0b c3 ba 55 c9 df bb
       0.00823033 0.0050296206 -0.0014880641 -0.0068294206
000310 bc 06 c3 3c 74 5c 0e bd fd 42 8b 37 a5 55 c3 bc
       0.023806922 -0.03475614 1.6601285e-05 -0.02384455
000320 2b 44 08 bd 04 26 c7 bc 50 b5 f3 3b 92 5e 7e bc
       -0.033268135 -0.02431012 0.0074373856 -0.015525477
000330 a9 a2 96 3c 1b 11 b1 3a 87 5e c4 3b 5a f9 b9 ba
       0.01838811 0.0013509126 0.005992714 -0.0014188692
000340 59 e8 01 3c 63 56 e3 bc 19 73 d9 bc 63 d1 9f 3b
       0.007928931 -0.027751153 -0.02654414 0.0048772558
000350 be 1d 80 bc bd 62 86 3c cd a6 94 bb ab 7b 19 3a
       -0.015639182 0.016404504 -0.0045364858 0.0005854915
000360 89 05 8c bc ff 38 87 bc 9e d0 3a 3c 7e 01 1c 3c
       -0.017092483 -0.01650667 0.011402277 0.00952184
000370 84 1d 2c bd f2 b2 17 bd eb d3 28 bd 2b ca f3 bc
       -0.042020336 -0.03703589 -0.041217726 -0.029759487
000380 4c 35 82 3c 8d 39 50 3c d6 7e a7 bb 48 dc e3 ba
       0.015894555 0.012709034 -0.0051115556 -0.0017384375
000390 12 af 1f 3b 79 00 d8 3b 49 79 0a bc 4c 07 9f ba
       0.0024365825 0.006591853 -0.008451768 -0.0012132912
0003a0 be 6d c9 3a 1f a0 2e 3c 77 0a 3e bd 0d a7 4c 3c
       0.0015367789 0.010658293 -0.0463967 0.012491
0003b0 c8 1c 76 3b 81 82 c2 bc 95 f8 c9 bc a7 2f d5 3c
       0.0037553776 -0.02374387 -0.024654666 0.026023699
0003c0 54 e8 ae bb 19 02 77 3c 4d ed 8d 3b 76 26 73 bb
       -0.0053377543 0.015076184 0.004331267 -0.0037101782
0003d0 8e 94 76 3c 63 d3 14 bd f2 d3 f9 3a 0c aa 82 3c
       0.015050067 -0.036334407 0.0019060357 0.015950225
0003e0 d5 b1 be bc a8 3f 39 3c eb ce e4 ba 91 85 da 3b
       -0.023278156 0.011306681 -0.0017456686 0.0066687544
0003f0 7b c4 1f bd 82 ed d4 bb 32 be 30 3c e7 17 13 bd
       -0.039005738 -0.0064980397 0.010787534 -0.035911467

action_model._continuous_distribution.mu.bias f4 [2]
000000 5e 76 40 3b 97 52 c2 bb
       0.0029367427 -0.0059302556

exp_avg f4 [128, 6]
000000 2a 1a a4 b2 00 00 00 00 67 57 d0 33 15 21 2a b3
       -1.910401e-08 0.0 9.701653e-08 -3.9611297e-08
000010 6d 64 57 a6 50 7d f8 b0 52 06 0c 3b 00 00 00 00
       -7.472921e-16 -1.8079991e-09 0.0021366072 0.0
000020 6a 80 31 bc 67 f7 90 3b 58 81 b7 2e 28 49 57 39
       -0.010833839 0.004424024 8.3448526e-11 0.0002053125
000030 47 3a 4b 3a 00 00 00 00 9a d3 80 bb 85 6f d2 3a
       0.00077525195 0.0 -0.003931475 0.0016054964
000040 ee 2e 05 2e 94 c5 9c 38 98 68 ea 3a 00 00 00 00
       3.028238e-11 7.4754615e-05 0.0017883955 0.0
000050 10 ae 14 bc 9e ce 72 3b a4 b5 99 2e ff 03 31 39
       -0.009074703 0.0037049423 6.9899e-11 0.00016881524
000060 70 d5 85 3a 00 00 00 00 c1 f6 a9 bb 23 bc 0a 3b
       0.0010210704 0.0 -0.005186886 0.0021169267
000070 f3 b6 2f 2e 73 be c3 38 29 ff 1c 19 00 00 00 00
       3.9952885e-11 9.3337985e-05 8.11654e-24 0.0
000080 78 43 b9 17 4c a5 a4 97 1c d6 b1 0b 61 af 1e 16
       1.1972376e-24 -1.0639978e-24 6.8500076e-32 1.2818478e-25
000090 3e 3e 25 26 00 00 00 00 a9 12 13 a6 1e 60 af a4
       5.733023e-16 0.0 -5.102616e-16 -7.605698e-17
0000a0 41 2d bb 18 b7 7c 27 23 04 00 00 80 00 00 00 00
       4.838406e-24 9.0794975e-18 -6e-45 0.0
0000b0 04 00 00 80 04 00 00 00 04 00 00 00 04 00 00 00
       -6e-45 6e-45 6e-45 6e-45
0000c0 2d 72 b4 ba 00 00 00 00 a8 14 e5 3b 7f f3 3a bb
       -0.0013766937 0.0 0.006990988 -0.0028526483
0000d0 89 d4 6c ae c5 3a 01 b9 d1 2f 89 32 00 00 00 00
       -5.3848957e-11 -0.00012324292 1.5970643e-08 0.0
0000e0 dd 2b ba b2 61 df 15 32 5e 8f 2a 25 42 14 e6 2f
       -2.1673197e-08 8.723732e-09 1.4793724e-16 4.185115e-10
0000f0 38 f7 0f 3b 00 00 00 00 da ad 36 bc 55 26 95 3b
       0.0021967422 0.0 -0.011149848 0.0045516887
000100 ea db bc 2e 1b 4e 57 39 ab 34 e8 a7 00 00 00 00
       8.588315e-11 0.00020533094 -6.445004e-15 0.0
000110 37 54 6d a6 32 71 74 26 98 83 83 9a 8f 38 ec a4
       -8.2340025e-16 8.4807914e-16 -5.439293e-23 -1.024445e-16
000120 b8 1b 8f 3a 00 00 00 00 4a 64 b5 bb 6c 28 14 3b
       0.0010918295 0.0 -0.005535637 0.00226071
000130 fe 86 3b 2e d5 14 de 38 e9 ae 0d 39 00 00 00 00
       4.2638774e-11 0.00010589665 0.00013511967 0.0
000140 4f a0 34 ba 90 83 93 39 cb be ba 2c b4 5c 5a 37
       -0.0006890343 0.00028136047 5.3076202e-12 1.3015397e-05
000150 f2 77 74 27 00 00 00 00 25 ea 40 26 c6 5a ff a5
       3.3926825e-15 0.0 6.6930706e-16 -4.429696e-16
000160 9d 75 0a 1a 14 3a 76 24 73 f3 6b 3a 00 00 00 00
       2.8632738e-23 5.339194e-17 0.00090008153 0.0
000170 13 a4 95 bb 71 76 f4 3a 30 b4 1a 2e 4b 1f b8 38
       -0.0045666783 0.0018651021 3.5175585e-11 8.7796325e-05
000180 47 73 c8 3a 00 00 00 00 fa 5b fe bb ae a8 4f 3b
       0.0015293144 0.0 -0.0077624293 0.0031686234
000190 4d 7b 83 2e 29 dc 14 39 4f 9e 8c 3a 00 00 00 00
       5.979093e-11 0.00014196396 0.0010728332 0.0
0001a0 15 80 b2 bb 81 bd 11 3b 53 8a 38 2e 93 c7 d2 38
       -0.0054473975 0.0022238197 4.1959613e-11 0.00010050754
0001b0 b2 7e 9c 38 00 00 00 00 20 b9 c9 b9 9b 11 24 39
       7.4622585e-05 0.0 -0.00038475636 0.00015646817
0001c0 af 93 50 2c 79 9e 98 36 ab f7 92 3b 00 00 00 00
       2.9640559e-12 4.5484016e-06 0.0044850907 0.0
0001d0 7b 79 ba bc 1b 3e 18 3c 50 c8 40 2f b0 fc da 39
       -0.022763005 0.009292151 1.7533464e-10 0.00041768467
0001e0 1f 70 a6 35 00 00 00 00 d3 82 21 b6 82 b8 83 35
       1.2400595e-06 0.0 -2.406702e-06 9.813959e-07
0001f0 72 f7 a7 28 86 7a 3c 33 c8 6f f2 3a 00 00 00 00
       1.8648037e-14 4.3883595e-08 0.0018496448 0.0
000200 a1 b6 19 bc 22 0d 7b 3b 6b e9 9e 2e 1c 9a 38 39
       -0.009381921 0.0038307388 7.2264715e-11 0.00017605018
000210 d6 05 9d 3a 00 00 00 00 30 fa c6 bb f0 77 22 3b
       0.0011979889 0.0 -0.006072305 0.0024790727
000220 02 b5 4d 2e 5b 25 ec 38 96 7c 50 a8 00 00 00 00
       4.677237e-11 0.00011260315 -1.1573335e-14 0.0
000230 83 35 a0 28 2b 92 be 26 83 c7 7c 95 f3 a0 18 27
       1.7786775e-14 1.3223517e-15 -5.1048382e-26 2.1181488e-15
000240 ab ce 5a 24 00 00 00 00 d7 16 01 23 69 10 e5 a2
       4.744627e-17 0.0 6.9979405e-18 -6.208795e-18
000250 00 da f7 16 3f 75 5c 21 88 15 ec 3a 00 00 00 00
       4.004258e-25 7.4694073e-19 0.0018011788 0.0
000260 6c b7 15 bc 43 82 74 3b b3 c7 9a 2e fe d9 32 39
       -0.009137969 0.0037309087 7.038583e-11 0.00017056611
000270 d5 27 19 82 00 00 00 00 a0 6c 42 03 8d c3 9e 82
       -1.1252096e-37 0.0 5.713617e-37 -2.3328254e-37
000280 04 00 00 80 2f 38 74 80 b8 8b 22 25 00 00 00 00
       -6e-45 -1.0673072e-38 1.4098599e-16 0.0
000290 3e 58 4e a6 6b 72 a8 25 aa 53 d5 18 60 a2 6f 23
       -7.15902e-16 2.9220887e-16 5.514369e-24 1.29906e-17
0002a0 ea 4e c4 39 00 00 00 00 8f ca f9 ba 6b d2 4b 3a
       0.0003744283 0.0 -0.001905756 0.000777519
0002b0 83 20 81 2d 63 ec 0a 38 09 ea 51 3a 00 00 00 00
       1.468004e-11 3.3121916e-05 0.0008007591 0.0
0002c0 de 24 85 bb fa 60 d9 3a 26 a6 09 2e a6 88 9a 38
       -0.004063233 0.0016584687 3.1297763e-11 7.368745e-05
0002d0 cb 51 74 a7 00 00 00 00 aa 28 92 a7 37 14 fd 25
       -3.3906142e-15 0.0 -4.056723e-15 4.3902202e-16
0002e0 02 60 0a 9a 5f 4f 77 a4 5e 87 1a af 00 00 00 00
       -2.8615286e-23 -5.3626817e-17 -1.405431e-10 0.0
0002f0 b3 20 52 2f 85 4c 53 2e c5 33 e0 9f 5f f1 66 2e
       1.9111006e-10 4.804381e-11 -9.4953336e-20 5.2510326e-11
000300 63 22 d0 3a 00 00 00 00 32 06 04 bc 1d 9c 57 3b
       0.0015879389 0.0 -0.008058118 0.0032899447
000310 6a 7d 88 2e 00 62 1d 39 ae ea a9 00 00 00 00 00
       6.206842e-11 0.00015009195 1.5604386e-38 0.0
000320 f5 fc 18 00 bf 4e 16 80 04 00 00 00 59 b1 02 00
       2.294796e-39 -2.04863e-39 6e-45 2.47291e-40
000330 04 00 00 00 00 00 00 00 04 00 00 80 04 00 00 80
       6e-45 0.0 -6e-45 -6e-45
000340 04 00 00 80 04 00 00 80 9d 12 3c b0 00 00 00 00
       -6e-45 -6e-45 -6.842045e-10 0.0
000350 2c c0 7f 30 3b 66 93 2e e9 77 76 a1 e8 60 c3 2e
       9.304155e-10 6.702946e-11 -8.350674e-19 8.8847874e-11
000360 a1 cd a2 3a 00 00 00 00 59 ac ce bb b3 ba 28 3b
       0.0012420901 0.0 -0.0063071665 0.0025746047
000370 a7 aa 55 2e 2d 31 f2 38 c3 7e 27 b0 00 00 00 00
       4.8582163e-11 0.00011548619 -6.0934385e-10 0.0
000380 47 c4 63 30 8d 17 9b 2e a2 cb 6f a1 60 66 c7 2e
       8.2861046e-10 7.0527674e-11 -8.1245856e-19 9.067658e-11
000390 4e 45 02 3b 00 00 00 00 67 6b 25 bc 53 07 87 3b
       0.0019877735 0.0 -0.0100964075 0.004120746
0003a0 6a 04 ab 2e 05 f8 3e 39 9a 06 c4 10 00 00 00 00
       7.776964e-11 0.00018212206 7.731854e-29 0.0
0003b0 8f a8 b9 05 2c 7d b9 8f c3 02 00 00 72 c4 32 90
       1.7459235e-35 -1.8290623e-29 9.91e-43 -3.5255646e-29
0003c0 f3 cb 6f 38 00 00 00 00 f3 9a 9a b9 35 9e fc 38
       5.7171983e-05 0.0 -0.00029488615 0.00012045765
0003d0 71 e0 1f 2c 65 5a c1 36 62 07 bd 27 00 00 00 00
       2.271985e-12 5.7623715e-06 5.2466042e-15 0.0
0003e0 98 2c 5f 26 4e a4 46 a6 d2 1e 56 1a eb fe bf 24
       7.7429103e-16 -6.8917724e-16 4.427906e-23 8.3264894e-17
0003f0 bc 69 68 3b 00 00 00 00 7b 62 93 bc 66 af f0 3b
       0.0035463413 0.0 -0.017991295 0.007345128

exp_avg_sq f4 [128, 6]
000000 28 ed 3d 3a 00 00 00 00 7e a8 b2 3a 6c 01 b4 37
       0.0007245117 0.0 0.0013630537 2.1458334e-05
000010 74 20 ee 1f ef ca cb 34 21 6c dc 3c 00 00 00 00
       1.0085061e-19 3.795935e-07 0.026907029 0.0
000020 db 45 34 3e 64 9b da 3c b1 0c 2e 23 20 ef 9d 38
       0.17604773 0.026685424 9.435246e-18 7.530884e-05
000030 99 0f fa 3d 00 00 00 00 05 32 9e 3d bc 58 58 3c
       0.12210006 0.0 0.07724384 0.01320475
000040 de 7b 23 23 94 60 eb 3b e0 c2 18 3d 00 00 00 00
       8.862478e-18 0.007183144 0.037295222 0.0
000050 e8 a7 87 3d 8c c8 2a 3c cd 6c cb 22 1c 2e 93 3a
       0.066238225 0.010423791 5.5138458e-18 0.0011228952
000060 f3 a9 8f 3e 00 00 00 00 e0 bb 27 3c e3 9b 19 3c
       0.28059348 0.0 0.010237664 0.009375545
000070 3c 65 3e 23 2b 83 cf 3c bb 3b 6a 1e 00 00 00 00
       1.0321358e-17 0.0253311 1.2400209e-20 0.0
000080 0f 0e a3 1b e9 5a 82 1b d5 45 96 03 61 fd 74 18
       2.6975173e-22 2.1565445e-22 8.83224e-37 3.1664185e-24
000090 1c 9f 1a 3b 00 00 00 00 6b 30 e2 36 c2 ef 85 38
       0.0023593372 0.0 6.7409615e-06 6.3865926e-05
0000a0 e3 d5 74 1f 6c 66 1d 39 9c 81 97 1c 00 00 00 00
       5.1845933e-20 0.00015010842 1.0025845e-21 0.0
0000b0 40 28 85 07 be 50 6b 1b eb 70 2a 02 13 bf bf 1b
       2.0035273e-34 1.9464834e-22 1.2522033e-37 3.1721778e-22
0000c0 65 8a 91 3e 00 00 00 00 e6 7b d1 3c 8f ec f9 3b
       0.284259 0.0 0.025571775 0.007627077
0000d0 66 77 9b 23 6f 1a 59 3c 6e 62 ff 3d 00 00 00 00
       1.6855701e-17 0.013250931 0.12469946 0.0
0000e0 b2 38 0b 3c 99 3d 72 3b 0f a0 b2 22 c9 24 25 3c
       0.008497404 0.0036962985 4.8416465e-18 0.010079571
0000f0 36 f4 31 3d 00 00 00 00 7d 20 b9 3d 3d 3d 76 3c
       0.04344579 0.0 0.090394 0.015029249
000100 dd cb f9 22 8d 75 af 3a 7b 74 c5 3c 00 00 00 00
       6.7707434e-18 0.0013386473 0.024103394 0.0
000110 30 9b 08 3a 26 96 e0 39 32 78 fd 21 5d 38 d2 37
       0.0005211113 0.0004283648 1.7175762e-18 2.5060197e-05
000120 92 d1 33 3d 00 00 00 00 64 38 14 3d 96 c2 a6 3b
       0.043901034 0.0 0.03618659 0.0050891144
000130 8f 1e 9b 22 7d 24 59 3a 7a 02 0e 3d 00 00 00 00
       4.204519e-18 0.000828333 0.03467033 0.0
000140 89 94 99 3b c6 83 b1 3a 06 83 bf 21 17 97 3e 3b
       0.004686896 0.00135433 1.2977345e-18 0.0029081756
000150 81 73 0c 3d 00 00 00 00 87 45 4c 39 27 4f 96 3a
       0.03428984 0.0 0.00019480857 0.0011467681
000160 1b 23 94 21 6a 1e 59 3b ec c5 c8 3d 00 00 00 00
       1.0038162e-18 0.00331297 0.098033756 0.0
000170 e6 da 0a 3d fb 6b da 3b e0 9c 03 23 c2 ee 97 3b
       0.033900164 0.0066657043 7.134744e-18 0.0046366164
000180 bc 82 7f 3c 00 00 00 00 23 4a 43 3d 76 95 00 3c
       0.015595134 0.0 0.047678124 0.007848134
000190 67 87 54 22 d2 64 df 3a 0b 38 84 3a 00 00 00 00
       2.880304e-18 0.0017043597 0.0010087503 0.0
0001a0 79 e2 a1 3b 3f 26 28 3a 48 26 aa 20 7c a6 57 36
       0.0049403277 0.00064143905 2.8824453e-19 3.2134403e-06
0001b0 ea 00 2a 3e 00 00 00 00 1f 5b f7 3c fe c5 04 3c
       0.16601911 0.0 0.030194817 0.008103846
0001c0 2a 0c 21 23 b1 a9 60 3c b5 00 79 3d 00 00 00 00
       8.730403e-18 0.013712333 0.06079169 0.0
0001d0 6f b9 9c 3e f9 80 31 3d 9b f9 a1 23 a4 75 72 39
       0.30610225 0.04333589 1.7561367e-17 0.00023122743
0001e0 7f 67 90 3e 00 00 00 00 30 01 7d 3c 60 cc f3 3b
       0.2820396 0.0 0.015442178 0.007440135
0001f0 bf 8c 8d 23 d7 88 82 3c 1e be 41 3d 00 00 00 00
       1.5346859e-17 0.015934391 0.04730045 0.0
000200 f4 91 26 3e 71 f1 d6 3c 40 35 3f 23 ee 78 a4 3a
       0.16266614 0.026238175 1.0365407e-17 0.0012548247
000210 f7 06 06 3e 00 00 00 00 7b 43 6f 3d f7 d0 11 3c
       0.13088594 0.0 0.058413964 0.008899919
000220 04 96 1a 23 86 4a 72 3b b6 63 92 3c 00 00 00 00
       8.380124e-18 0.003697069 0.017869812 0.0
000230 e4 07 5e 39 b6 75 06 3a ad bb 2c 21 f4 0c cd 3a
       0.0002117451 0.00051292346 5.8524254e-19 0.0015644119
000240 83 27 b6 36 00 00 00 00 3f be 07 33 85 8e 02 35
       5.4286224e-06 0.0 3.1605165e-08 4.8636167e-07
000250 dd 09 c0 1b e6 c8 88 35 1d b9 20 3d 00 00 00 00
       3.177011e-22 1.0191259e-06 0.039239038 0.0
000260 ed 3c ca 3d b3 5b 81 3c 6e 91 f6 22 95 36 85 3a
       0.09874902 0.015790796 6.6832413e-18 0.0010163361
000270 d4 44 ed 17 00 00 00 00 3c 89 d0 02 1c 43 b8 16
       1.5333141e-24 0.0 3.0641622e-37 2.9769155e-25
000280 db 15 02 00 3d 25 16 17 d3 9a d7 20 00 00 00 00
       1.91511e-40 4.8514615e-25 3.652487e-19 0.0
000290 b7 45 c8 11 b1 6f a7 1f 30 8d 72 06 65 6f 08 20
       3.1597401e-28 7.091203e-20 4.561887e-35 1.1556505e-19
0002a0 7f 01 ed 3b 00 00 00 00 ea 91 9a 3c dc 0c 33 3b
       0.0072328444 0.0 0.018868405 0.0027320897
0002b0 9e 85 c4 21 35 e3 28 39 79 8c 8e 3e 00 00 00 00
       1.3316845e-18 0.0001610637 0.27841547 0.0
0002c0 19 2f bf 3c 3c 47 11 3c b9 39 8d 23 0f 7c 81 3c
       0.023337888 0.008867081 1.5311697e-17 0.015806226
0002d0 ad 52 7a 3e 00 00 00 00 bd 93 ce 3b c6 29 c9 3b
       0.24445601 0.0 0.006304233 0.006139013
0002e0 7f c6 66 23 2c 7f 5c 3c 9e 5e 9a 3c 00 00 00 00
       1.2510358e-17 0.0134580545 0.018843945 0.0
0002f0 f3 9d 60 3b 84 79 f9 39 43 67 9b 21 c9 3e 8f 3a
       0.0034273833 0.00047583517 1.0530542e-18 0.0010928746
000300 64 36 03 3d 00 00 00 00 aa 53 5b 3d c7 0e 18 3c
       0.032034293 0.0 0.053546585 0.009280867
000310 b3 60 a6 22 45 fb e8 3a bd d2 0b 23 00 00 00 00
       4.5096774e-18 0.001777508 7.579831e-18 0.0
000320 34 c0 f5 0d 42 25 d9 21 cf 47 9d 08 d3 f0 30 22
       1.5145562e-30 1.4714354e-18 9.465976e-34 2.397994e-18
000330 b9 d1 88 03 00 00 00 00 00 00 00 00 d9 81 54 02
       8.0415115e-37 0.0 0.0 1.5612565e-37
000340 00 00 00 00 53 29 ad 02 bc 4b 57 3e 00 00 00 00
       0.0 2.5443784e-37 0.21024984 0.0
000350 f8 ba 04 3c 5d 45 aa 3b cd 32 3b 23 25 43 38 3c
       0.008101217 0.005196257 1.0148048e-17 0.011246477
000360 17 bd fe 39 00 00 00 00 23 ec b2 3b 2e 6b 6e 3a
       0.00048587538 0.0 0.0054602786 0.00090949505
000370 e6 b9 b7 20 37 f8 e6 35 fc 35 8d 3c 00 00 00 00
       3.1124423e-19 1.7208575e-06 0.017237656 0.0
000380 c9 b1 b3 3b d8 e3 03 3a 44 71 98 21 94 7d a3 3a
       0.00548384 0.0005031205 1.0329902e-18 0.0012473338
000390 39 0e 8d 3a 00 00 00 00 f1 45 00 3c e2 92 a9 3a
       0.0010761685 0.0 0.007829175 0.0012937451
0003a0 34 83 f2 20 20 33 28 36 31 25 b4 39 00 00 00 00
       4.1083218e-19 2.506371e-06 0.00034359985 0.0
0003b0 f1 00 c6 23 d3 f9 0e 38 be 71 7d 1e a1 69 ae 38
       2.1467602e-17 3.4088105e-05 1.341723e-20 8.3166415e-05
0003c0 f4 2a b4 3b 00 00 00 00 99 c9 b6 3b 84 0c 76 3a
       0.0054982845 0.0 0.0055782315 0.000938602
0003d0 cc e7 a3 20 ea 3d 5d 39 97 b3 9e 3d 00 00 00 00
       2.7766664e-19 0.00021099267 0.07749098 0.0
0003e0 d6 cf 88 3a 09 25 24 3b 40 93 7d 22 f3 85 c9 3b
       0.0010437916 0.0025046489 3.4365847e-18 0.006150001
0003f0 48 09 54 3d 00 00 00 00 7c 60 97 3e 6e cd 31 3d
       0.051766664 0.0 0.295658 0.043408804

exp_avg f4 [128]
000000 41 29 f6 2f 1d b9 51 b8 51 36 98 b7 62 ab 2f b8
       4.4776452e-10 -5.0001883e-05 -1.8145105e-05 -4.1882864e-05
000010 2e d1 c8 b7 1c d6 31 95 41 2d 3b a2 04 00 00 00
       -2.3939265e-05 -3.5913768e-26 -2.5367183e-18 6e-45
000020 26 55 07 38 92 f7 db ae 24 d7 57 b8 98 83 03 24
       3.226581e-05 -1.0002944e-10 -5.146036e-05 2.851756e-17
000030 c3 51 d6 b7 37 6a 55 b6 9d 75 8a a3 0f ce b0 b7
       -2.5548861e-05 -3.1801299e-06 -1.5011801e-17 -2.1076788e-05
000040 2f 44 16 b8 2b e7 d2 b7 6c 57 ee b5 25 53 dc b8
       -3.5826288e-05 -2.5141597e-05 -1.7757825e-06 -0.00010505904
000050 82 d4 3e b2 dd 9d 35 b8 e2 18 eb b7 1d 80 b1 24
       -1.1107774e-08 -4.3300784e-05 -2.802577e-05 7.6978546e-17
000060 00 da 77 a0 ec e4 30 b8 f7 b6 1c 00 51 cd 73 a2
       -2.0993844e-19 -4.217487e-05 2.63703e-39 -3.3041335e-18
000070 55 91 13 b7 3b 50 9d b7 26 60 8a 23 74 44 78 2b
       -8.7957205e-06 -1.8753219e-05 1.500271e-17 8.8202297e-13
000080 80 fd 1b b8 79 c0 00 80 04 00 00 80 8b 16 97 2c
       -3.719097e-05 -6.9046e-41 -6e-45 4.294181e-12
000090 ad 30 f4 b7 82 8e 86 2c a3 72 43 b8 e7 32 47 8d
       -2.9109733e-05 3.8243306e-12 -4.6598387e-05 -6.138288e-31
0000a0 9d ab b6 b5 d2 1e d6 a3 9b 23 ae b8 65 c7 91 08
       -1.3610003e-06 -2.321498e-17 -8.3035986e-05 8.7737475e-34
0000b0 72 f5 0c b2 d1 e8 34 23 37 6a 11 b8 0b 9b 8f b8
       -8.20488e-09 9.80712e-18 -3.4669614e-05 -6.8476504e-05
0000c0 59 aa af b7 6e dc a7 a3 53 2c 0e 91 2a 2a 88 b8
       -2.094095e-05 -1.8199532e-17 -1.1215483e-28 -6.492839e-05
0000d0 ea d7 0a 37 0c be 2a b6 cf 07 00 37 d6 03 1d a4
       8.275712e-06 -2.5442596e-06 7.631213e-06 -3.4047197e-17
0000e0 2b 59 31 b8 88 15 4e 37 c9 40 8e 37 9c aa cf 8f
       -4.2283133e-05 1.228357e-05 1.6957887e-05 -2.0477492e-29
0000f0 30 97 09 b7 38 d2 5d a3 41 ed c1 9c 34 94 2a 0e
       -8.201037e-06 -1.20249496e-17 -1.2832997e-21 2.1025475e-30
000100 dc ec a7 9d d3 f3 49 b8 dc f1 74 b7 a1 46 28 b8
       -4.444944e-21 -4.8149213e-05 -1.4599846e-05 -4.01201e-05
000110 a0 60 5f 12 4d c9 33 37 ed bc 35 36 3b 5e f9 b6
       7.048549e-28 1.07161e-05 2.708107e-06 -7.431748e-06
000120 55 af 0a b8 5b a5 8c 25 35 1c 43 b8 04 00 00 80
       -3.3065055e-05 2.4398178e-16 -4.6517893e-05 -6e-45
000130 54 88 35 b8 1c 8c 8e b8 ad 72 1c b8 d4 ce 70 b2
       -4.328073e-05 -6.797185e-05 -3.73001e-05 -1.4016866e-08
000140 18 c8 93 b2 50 47 38 b8 91 7b 6c 37 98 ee 97 0e
       -1.7204044e-08 -4.3935433e-05 1.4095466e-05 3.745413e-30
000150 75 dc 8d 20 fc 4a ce 37 94 03 c3 b7 50 aa 9a b8
       2.4032215e-19 2.4592031e-05 -2.3247478e-05 -7.3750154e-05
000160 5d 98 c5 ac cc f4 cc b7 a4 00 26 b2 27 53 40 b8
       -5.6159925e-12 -2.4432687e-05 -9.662617e-09 -4.585381e-05
000170 ea 09 50 08 93 67 4a b8 c1 c0 93 b7 70 e9 06 b8
       6.2604377e-34 -4.8257014e-05 -1.7613524e-05 -3.2165495e-05
000180 31 4c 30 2d d9 f8 f4 a0 ea c5 2a 38 17 c8 63 b8
       1.002136e-11 -4.1499881e-19 4.071548e-05 -5.4307366e-05
000190 04 00 00 80 00 b9 42 b8 31 c1 00 b8 43 e6 0c b8
       -6e-45 -4.64255e-05 -3.06975e-05 -3.359305e-05
0001a0 65 6e 9a b8 82 c5 80 2a 58 c0 03 ad d0 8b 01 b8
       -7.363855e-05 2.2874416e-13 -7.489197e-12 -3.0886207e-05
0001b0 15 5c 2d b8 14 d3 94 30 04 00 00 80 c5 b7 5d a9
       -4.1332172e-05 1.0828409e-09 -6e-45 -4.9231252e-14
0001c0 cf f8 23 b3 4d 39 9c b8 89 b1 a0 b8 04 00 00 80
       -3.8177685e-08 -7.449333e-05 -7.662463e-05 -6e-45
0001d0 48 38 7a b8 99 28 64 17 c4 30 55 b8 b4 97 cc 28
       -5.965706e-05 7.3722015e-25 -5.0828574e-05 2.271434e-14
0001e0 79 00 ae b8 44 e8 a7 37 85 a8 b6 b8 be 06 4c 28
       -8.2970546e-05 2.0016108e-05 -8.7098255e-05 1.1325737e-14
0001f0 84 60 0d b8 63 7b 4d b8 cc 2c ad a3 51 b5 3b b8
       -3.3706907e-05 -4.899072e-05 -1.877567e-17 -4.475314e-05

exp_avg_sq f4 [128]
000000 a7 20 ee 32 8e 34 7b 36 35 72 c5 36 9d 48 10 36
       2.7721695e-08 3.7432505e-06 5.884353e-06 2.1499939e-06
000010 c0 11 47 37 13 4e 96 16 4d 09 09 34 eb 70 2a 17
       1.1865457e-05 2.428308e-25 1.2762503e-07 5.5072485e-25
000020 dc 95 12 37 c5 8f ac 36 e6 a7 59 36 09 6b 05 35
       8.73717e-06 5.1427364e-06 3.243325e-06 4.970212e-07
000030 a7 a6 d8 35 50 6d d2 35 bc b0 d5 35 f4 4d 79 36
       1.6141756e-06 1.5678033e-06 1.5921173e-06 3.7149266e-06
000040 0b 66 cf 35 2d 82 de 33 49 74 d4 36 9b 18 de 36
       1.54524e-06 1.03613594e-07 6.3316297e-06 6.61898e-06
000050 75 04 1a 37 ef 6f 90 36 9d c1 af 36 20 db 53 35
       9.180153e-06 4.304565e-06 5.237946e-06 7.8922494e-07
000060 c2 3b 99 30 ed b9 43 36 86 76 85 12 30 8d 72 1b
       1.1149199e-09 2.9165487e-06 8.422698e-28 2.0063391e-22
000070 6e 1d f4 34 82 d2 23 37 a6 f2 0f 37 d7 4d 37 35
       4.5469955e-07 9.76457e-06 8.57996e-06 6.8286084e-07
000080 ab 6c 01 36 cf 47 9d 1d 65 cf 04 00 f6 45 02 37
       1.928575e-06 4.1631802e-21 4.41741e-40 7.764893e-06
000090 1f c7 f9 33 e7 10 27 35 07 12 33 34 1c bd 9e 33
       1.1631186e-07 6.2236944e-07 1.6677232e-07 7.391847e-08
0000a0 71 74 93 34 95 a8 40 36 ac c1 d1 36 96 e9 ba 24
       2.7465606e-07 2.8708357e-06 6.2512318e-06 8.106035e-17
0000b0 d7 65 99 36 77 c9 d4 35 0b 3c 25 37 dd 86 ed 35
       4.571611e-06 1.5853865e-06 9.848746e-06 1.7697126e-06
0000c0 29 34 f0 34 bd f9 c6 36 1d ae 39 2e 2a 26 01 36
       4.4741435e-07 5.929933e-06 4.2218774e-11 1.9244712e-06
0000d0 4a b6 87 36 92 62 81 36 8e 9f 10 36 33 83 20 37
       4.0445348e-06 3.8559747e-06 2.1550545e-06 9.56729e-06
0000e0 7d 54 24 36 37 fd 43 35 9c d7 6b 36 04 20 00 00
       2.4487083e-06 7.3011637e-07 3.514323e-06 1.1485e-41
0000f0 8b 03 cc 35 d4 d2 60 36 d2 3d d2 26 bc f7 5f 35
       1.5200216e-06 3.350132e-06 1.4588434e-15 8.3434475e-07
000100 46 58 ea 24 41 b9 d0 35 1c 15 97 35 47 90 eb 34
       1.01630864e-16 1.5551124e-06 1.125652e-06 4.3877137e-07
000110 d5 39 0c 37 9b 0e c9 36 51 24 d8 35 8c f7 fb 36
       8.358115e-06 5.991967e-06 1.6103824e-06 7.509201e-06
000120 f2 a6 3e 34 33 53 4f 35 76 a6 4a 35 45 13 18 0a
       1.7755863e-07 7.723458e-07 7.5493097e-07 7.322158e-33
000130 01 26 fb 36 e2 70 f4 36 cb 3d 9f 35 ca 9d 06 37
       7.484807e-06 7.284908e-06 1.1864407e-06 8.0237605e-06
000140 bc d1 b5 36 7b 8d bb 34 20 e1 7d 36 70 f2 b3 2e
       5.4186366e-06 3.4934405e-07 3.7830978e-06 8.183043e-11
000150 38 e4 0d 36 b3 d6 e4 37 6e 06 ab 36 05 98 a5 35
       2.1143478e-06 2.7279695e-05 5.0969456e-06 1.2337701e-06
000160 be 51 63 37 ea 43 a7 35 23 77 c5 35 7e f7 41 35
       1.3549286e-05 1.2462235e-06 1.4712317e-06 7.225825e-07
000170 b0 8a ba 2f 04 0c 56 37 24 2b 8a 36 75 c8 6f 35
       3.3931746e-10 1.2758192e-05 4.1177427e-06 8.932614e-07
000180 4c a7 65 36 0d 87 90 2a dc 0f a1 36 ba ea b5 35
       3.4221039e-06 2.567325e-13 4.80002e-06 1.3553865e-06
000190 7f 57 0e 1f 42 94 04 36 36 85 46 34 8a 67 1b 34
       3.0142045e-20 1.975583e-06 1.8488649e-07 1.4473167e-07
0001a0 7d 63 68 36 35 dc 08 32 fd 4d 1e 37 69 e0 5c 37
       3.4628604e-06 7.966311e-09 9.435692e-06 1.3165271e-05
0001b0 0c 2c bf 35 05 09 cd 36 a8 12 55 1a 7f 75 73 36
       1.4243428e-06 6.110526e-06 4.4062438e-23 3.6278213e-06
0001c0 9e 92 bf 36 0c 57 2b 36 e0 47 d4 36 7d 36 1d 03
       5.709312e-06 2.5531654e-06 6.3264597e-06 4.6200703e-37
0001d0 dc 5a 78 37 ac f0 c2 33 61 94 97 34 15 ab 45 37
       1.4803107e-05 9.077607e-08 2.8233902e-07 1.1781948e-05
0001e0 38 82 50 37 af 63 84 35 8f a2 8d 35 20 28 e8 36
       1.2428085e-05 9.863778e-07 1.0552629e-06 6.91881e-06
0001f0 7c 8f be 36 f8 90 db 36 4b 46 5d 35 43 70 25 36
       5.679145e-06 6.543585e-06 8.2431205e-07 2.465226e-06
