results/TankLearningAI_timePunished_1/TankLearningAI/TankLearningAI-9962.pt (torch, 441488 bytes, 36 tensors)

network_body._body_endoder.seq_layers.0.weight f4 [128, 6]
0	0x3e4333de	0.19062755
1	0xbe8fdea5	-0.28099552
2	0x3ddf9f86	0.109190986
3	0x3eb24c1d	0.34823695
4	0x3f2698b0	0.6507673
5	0xbf29f509	-0.6638952
6	0x3e9e1bc2	0.30880553
7	0x3ea0b6ae	0.31389374
8	0x3f23f545	0.64046127
9	0xbe177aba	-0.1479291
10	0x3cb6da99	0.022321032
11	0x3e5e7e6a	0.2172791
12	0xbf9fd091	-1.2485524
13	0x3f8d9ab7	1.106284
14	0xbeaa8142	-0.3330174
15	0xbea2f828	-0.31829953
16	0xbe8905a5	-0.2676212
17	0xbf58cba1	-0.84685713
18	0xbe4334d2	-0.19063118
19	0x3f247d18	0.6425338
20	0x3ec9e6a5	0.3943378
21	0xbe3f7759	-0.18697871
22	0xbf0cebe5	-0.55047446
23	0xbe9e1658	-0.30876422
24	0xbe51efdd	-0.20501657
25	0x3e8ca53a	0.27469808
26	0x3dc842f2	0.09778394
27	0x3e9310de	0.28723806
28	0xbd3bc4a8	-0.045841843
29	0xbee9519d	-0.45570078
30	0x3e14c585	0.14528473
31	0x3e2f1190	0.17096543
32	0xbee09a5f	-0.43867776
33	0xbe930742	-0.28716475
34	0xbf1d5531	-0.61458117
35	0xbf22e8b4	-0.63636327
36	0xbe88f25b	-0.26747403
37	0xbe93a3b6	-0.2883584
38	0xbf2b09f0	-0.6681204
39	0xbdf7b898	-0.12095755
40	0xbd8c0ca5	-0.06838349
41	0xbe1c3810	-0.15255761
42	0x3ef63d4f	0.4809365
43	0xbea6c5b0	-0.325727
44	0xbed05742	-0.40691572
45	0xbe4bbe12	-0.19896725
46	0x3e421ceb	0.18956344
47	0x3d76a817	0.060218897
48	0xbf243073	-0.6413643
49	0x3e6ab5d2	0.22920921
50	0x3c9a830a	0.018861312
51	0x3de0193d	0.10942314
52	0xbe7d1dce	-0.24718401
53	0x3f07a329	0.5298334
54	0xbeb52b8f	-0.35384795
55	0xbe43f549	-0.19136538
56	0xbe62f5d1	-0.22164084
57	0x3df5f939	0.12010426
58	0xbe8d0515	-0.2754294
59	0xbe777095	-0.2416404
60	0xbddaba2e	-0.10680042
61	0x3ec42fc1	0.38317683
62	0x3ef92cea	0.4866708
63	0xbde0a582	-0.10969068
64	0x3eac2fd3	0.33630237
65	0xbe8c5620	-0.27409458
66	0x3dede0e5	0.11615161
67	0xbf37e976	-0.7184061
68	0xbf21ae22	-0.6315633
69	0x3f03850d	0.51374894
70	0xbef55a42	-0.47920424
71	0xbdae0613	-0.08497252
72	0xbe3b1828	-0.18270934
73	0xbde00f19	-0.1094038
74	0x3ed3cde7	0.4136803
75	0xbf23e8d9	-0.6402717
76	0x3e491d34	0.19640046
77	0xbdd2596e	-0.102709636
78	0xbddb28d5	-0.107011475
79	0x3e5d0a44	0.21585947
80	0x3e678ceb	0.2261235
81	0x3d7031a2	0.058641084
82	0xbed01a50	-0.40645075
83	0xbcf38ad6	-0.029729288
84	0xbd0efc2f	-0.03490847
85	0xbdd287aa	-0.10279782
86	0xbeecf76c	-0.46282518
87	0x3e81e70d	0.2537159
88	0xbf01a783	-0.5064623
89	0xbe537cf0	-0.20653129
90	0xbe0e1811	-0.13876368
91	0xbe9308cf	-0.28717658
92	0x3f072830	0.52795696
93	0xbf0d464e	-0.551854
94	0xbe855739	-0.26043108
95	0xbddd063b	-0.10792204
96	0x3e430254	0.19043857
97	0xbecd67f3	-0.4011837
98	0x3f005342	0.5012704
99	0x3f28fd93	0.66011924
100	0x3e7be458	0.24598825
101	0x3dfc8b34	0.123312384
102	0x3f525e58	0.8217521
103	0xbe2c1e46	-0.16808423
104	0x3f7044d3	0.9385502
105	0xbc8caeab	-0.017173132
106	0xbeaa3767	-0.33245394
107	0x3ec33bd0	0.3813157
108	0xbc9c6332	-0.019090269
109	0xbe6dfea8	-0.23241675
110	0x3eb46f8e	0.3524136
111	0x3f5f1fa6	0.87157667
112	0x3e773135	0.24139865
113	0x3dda7764	0.10667303
114	0x3e8e959a	0.27848512
115	0x3f0d5c55	0.5521901
116	0x3f905100	1.1274719
117	0x3e22caaf	0.1589763
118	0x3ebcc0a9	0.36865738
119	0xbf95b388	-1.1695414
120	0xbf73eeaf	-0.9528608
121	0xbde9ed67	-0.11422234
122	0xbee57f82	-0.44823843
123	0xbe788088	-0.24267781
124	0xbe9f9e9b	-0.31175694
125	0x3f17f9b3	0.59365386
126	0xbe7d7a28	-0.2475363
127	0xbf5bcd25	-0.858599
128	0x3f417ea1	0.75583845
129	0x3f5cd0c1	0.86256033
130	0xbe14eaee	-0.14542744
131	0x3f0d3eb8	0.55173826
132	0xbd998849	-0.074966975
133	0xbd48d68b	-0.04903273
134	0x3dc7a8be	0.09748982
135	0xbe4206a9	-0.18947853
136	0x3e8c60ea	0.2741769
137	0xbdd294b2	-0.10282268
138	0xbe0fbfa9	-0.14037956
139	0x3d5cda2d	0.053919006
140	0xbe4acdfc	-0.1980514
141	0x3e31eb33	0.17374878
142	0xbf380d5e	-0.71895397
143	0x3e5c5999	0.21518554
144	0x3e28150b	0.16414277
145	0x3e77c404	0.24195868
146	0xbf82ba70	-1.0213146
147	0xbcd38eac	-0.025824867
148	0x3dae11cf	0.084994905
149	0x3e912cc1	0.28354457
150	0xbe73a820	-0.23794603
151	0xbe957cd8	-0.2919681
152	0xbd997307	-0.07492643
153	0xbf0db08b	-0.5534751
154	0x3d5c937a	0.053851582
155	0x3f469716	0.7757429
156	0x3f26d1b8	0.65163755
157	0xbf3a45f9	-0.7276302
158	0xbed74359	-0.4204357
159	0xbedab1ae	-0.42713684
160	0xbec144fc	-0.37747943
161	0x3ed6d0d4	0.41956198
162	0x3f03c95e	0.51479137
163	0x3f0a5e0a	0.5404974
164	0xbe616ae5	-0.22013433
165	0xbedbaaab	-0.42903647
166	0x3ea3a7d2	0.31963974
167	0x3eedbd67	0.46433565
168	0x3d92c562	0.07166554
169	0xbdc6081d	-0.09669516
170	0x3f815456	1.0103862
171	0xbf2fed70	-0.68721676
172	0x3f05f761	0.52330595
173	0xbf0e3991	-0.5555659
174	0xbe57eeff	-0.21087264
175	0xbe906df1	-0.2820888
176	0x3e9c6ac5	0.3055021
177	0x3ed3f822	0.41400248
178	0xbe82ade8	-0.25523305
179	0x3e8a600e	0.2702641
180	0xbe7137bf	-0.23556422
181	0x3ea1ff94	0.31640303
182	0xbec41524	-0.3829738
183	0x3f13d015	0.57739383
184	0xbd8a988b	-0.067673765
185	0x3e8580ba	0.26074773
186	0xbdb68e1c	-0.08913824
187	0xbd2b471c	-0.041815862
188	0xbd1b61e3	-0.03793515
189	0x3f245679	0.64194447
190	0xbf1093d8	-0.5647559
191	0x3d3c0820	0.045906186
192	0xbea4d5a6	-0.3219425
193	0x3f646bb5	0.8922685
194	0x3e6c060f	0.23049186
195	0x3a8e1826	0.0010840937
196	0x3f811089	1.0083171
197	0x3d79c9f1	0.060983602
198	0x3ec41081	0.3829384
199	0xbe3158bd	-0.17319007
200	0xbe773cbe	-0.24144265
201	0x3f199e1d	0.60006887
202	0x3e311ea1	0.1729684
203	0xbf0afa08	-0.5428777
204	0x3f7a582f	0.9779081
205	0x3ef22169	0.47291115
206	0xbe8aeefb	-0.27135453
207	0x3cad7131	0.021172138
208	0x3f3e89e3	0.7442915
209	0x3d920de1	0.071315534
210	0xbe39e174	-0.1815241
211	0xbde582fd	-0.11206625
212	0xbe064ecb	-0.13115995
213	0x3f757700	0.95884705
214	0x3e13b0bf	0.14422892
215	0x3dd38912	0.103288785
216	0x3d9d71f2	0.07687749
217	0x3d44fea1	0.048094396
218	0xbcf82bb6	-0.03029428
219	0xbeb5a49b	-0.35477147
220	0x3f6fdea0	0.93699074
221	0x3dda0553	0.10645547
222	0xbe7eaef1	-0.24871422
223	0x3e2ff027	0.17181455
224	0xbe6b3112	-0.22967938
225	0x3ee0969e	0.43864912
226	0xbf0ad3bf	-0.5422935
227	0x3e80460c	0.25053442
228	0x3ebf72e9	0.37392357
229	0xbd35f638	-0.044424266
230	0x3e764c3c	0.24052519
231	0xbf5ce698	-0.8628936
232	0xbe077912	-0.13229778
233	0x3ec8bf1d	0.39208308
234	0x3e952937	0.29133007
235	0x3e929e4f	0.28636405
236	0xbf0cc0da	-0.5498177
237	0xbbe5fe55	-0.007018844
238	0xbf0bb80b	-0.545777
239	0x3f1b97ac	0.6077831
240	0xbca9d092	-0.020729337
241	0x3d00e4fd	0.03146838
242	0x3e7b19ef	0.24521612
243	0xbea5c466	-0.32376403
244	0xbe74669d	-0.23867269
245	0x3de30236	0.11084406
246	0x3e2fbc3e	0.17161652
247	0xbebc8b71	-0.36825135
248	0xbf866c16	-1.0501735
249	0x3eeb4e65	0.45958248
250	0x3e999cdd	0.3000249
251	0x3e1f8071	0.1557634
252	0x3e5d9b4c	0.21641272
253	0x3e41ba11	0.18918635
254	0x3e717d0e	0.23582861
255	0xbe8f1a71	-0.2794986

network_body._body_endoder.seq_layers.0.bias f4 [128]
0	0x3b8b22c8	0.0042460896
1	0x3c469405	0.012120252
2	0xbb8f18d6	-0.0043669743
3	0x3b43c57b	0.0029872346
4	0xbb27e0ca	-0.0025616162
5	0x3442a763	1.8128553e-07
6	0xbbba9bf3	-0.00569486
7	0xb50efa38	-5.326324e-07
8	0x3b1bf430	0.002379667
9	0xbb1cadb1	-0.002390724
10	0xbb68726e	-0.0035468596
11	0xba257eec	-0.00063131633
12	0x3bf3b54c	0.0074373838
13	0xbc3cfef4	-0.011535395
14	0xbbbbb52b	-0.005728384
15	0xbae5d13e	-0.0017533673
16	0xbc0373b2	-0.008023189
17	0x3b8742c8	0.004127834
18	0xbbbd3c75	-0.0057750293
19	0x3c375428	0.011189498
20	0x3b0c84b7	0.002144141
21	0xbb447ce0	-0.0029981658
22	0x3b01c3a4	0.0019800449
23	0xbc376133	-0.011192608
24	0xbc44c55e	-0.012009947
25	0x3b8b5963	0.004252599
26	0x332493f6	3.8318795e-08
27	0xb76068d3	-1.3375847e-05
28	0xbcf8c87d	-0.030369038
29	0xbb15c179	-0.0022850914
30	0x3b5ce399	0.0033704995
31	0xbc395892	-0.011312621
32	0xbc589dab	-0.013221185
33	0xb8735c40	-5.802163e-05
34	0x283ace64	1.0369828e-14
35	0xbba846e6	-0.005135405
36	0xbc8a1de9	-0.016859965
37	0xbbf44e98	-0.007455658
38	0xbba8aafc	-0.005147336
39	0x3ac9a91e	0.0015385484
40	0xbca86a00	-0.020558357
41	0xbbaf6c45	-0.005353483
42	0x3ce7d3e9	0.028299289
43	0xbb2e56db	-0.0026602063
44	0x3a2dc70d	0.0006629087
45	0xbc04e33c	-0.0081108175
46	0xbae3bd8f	-0.0017375218
47	0x3b78685a	0.0037903995
48	0x3a971c00	0.001152873
49	0x3ad0bada	0.0015924827
50	0xbbb42b12	-0.0054982984
51	0x3b822dee	0.0039727604
52	0x3b38a570	0.002817478
53	0xb9cecb17	-0.00039442696
54	0xbcd8fe28	-0.026488379
55	0xbb3b46a9	-0.0028576052
56	0x3b80cd3c	0.003930716
57	0xbc3c736f	-0.011502131
58	0xbb8a0fb1	-0.0042132963
59	0xa82246d8	-9.008168e-15
60	0xbc0490b2	-0.008091139
61	0xbbf36a4f	-0.0074284445
62	0xbc136ed5	-0.008998592
63	0xba0c1502	-0.00053437066
64	0xbaf01523	-0.0018316846
65	0x3c2c5574	0.0105184205
66	0xbc650e27	-0.013980425
67	0xbce2f133	-0.027702903
68	0xbc0ad483	-0.008473518
69	0xbbb99887	-0.0056639346
70	0x3c0bf960	0.008543342
71	0xbb8a6797	-0.0042237747
72	0x3c5a1ecd	0.013313008
73	0xbb8c5f73	-0.0042838394
74	0xbc083ea2	-0.008315714
75	0xaec81286	-9.0982374e-11
76	0xbbc8606c	-0.00611501
77	0x3bed7da2	0.0072476426
78	0xbb8eb22b	-0.0043547354
79	0x3a62ab86	0.0008646775
80	0x3b88628d	0.004162139
81	0x3c8c350f	0.017115144
82	0xbbd45829	-0.006480236
83	0xba9fd874	-0.0012195245
84	0x3ba78b65	0.0051130527
85	0xbaf113b3	-0.0018392712
86	0xbbcf9cb8	-0.006335821
87	0x3c42597d	0.011862156
88	0x3afc48b0	0.0019247737
89	0x3cbf6219	0.023362206
90	0xbbca295e	-0.006169482
91	0x3ca89b24	0.02058179
92	0x39fb6a46	0.0004795363
93	0xbc45aabe	-0.012064634
94	0xbbb86911	-0.0056277593
95	0xbbacb63c	-0.0052707475
96	0xbb4d6f3f	-0.0031346825
97	0xbb1a2209	-0.0023518822
98	0x3bf00479	0.007324752
99	0x3b666e98	0.0035161134
100	0xb8d6a960	-0.00010235864
101	0xbb9498de	-0.0045348248
102	0xbb9e0610	-0.0048225
103	0xba463083	-0.00075603294
104	0x3c35f197	0.011104963
105	0x3c527cd2	0.012847142
106	0x3b55cd99	0.0032623766
107	0xbc5faa7c	-0.0136514865
108	0x3b7a5320	0.003819652
109	0x3b180c5b	0.0023200724
110	0x3681a6b4	3.8639064e-06
111	0x3a991429	0.0011678982
112	0x3b5e855b	0.0033953998
113	0x3c8c9e38	0.017165288
114	0xbb15a732	-0.0022835252
115	0x2b8914fc	9.74026e-13
116	0x3a24eb92	0.0006291206
117	0xbc4625b0	-0.012093946
118	0x3cbb9483	0.022897964
119	0x3b1d1af2	0.002397236
120	0x3aa7ac8e	0.0012792514
121	0xbbf09265	-0.0073416703
122	0xbc0972cf	-0.008389189
123	0xba161b13	-0.000572608
124	0xbc202265	-0.009773825
125	0x3b678ac1	0.0035330507
126	0xbbb7d131	-0.0056096544
127	0x3aa287a0	0.0012400039

network_body._body_endoder.seq_layers.2.weight f4 [128, 128]
0	0xbe032483	-0.12806897
1	0xbc937baf	-0.018003313
2	0xbcf13ff4	-0.02944944
3	0x3bcfa369	0.0063366187
4	0xbdb08554	-0.0861918
5	0x3dd3d8df	0.10344099
6	0x3e9125dd	0.283492
7	0x3a1eb6c1	0.0006054454
8	0x3e3cf341	0.18452169
9	0xbc0840a4	-0.008316193
10	0xbca8c8e4	-0.020603605
11	0x3d97010c	0.073732466
12	0xbda4bde8	-0.08044034
13	0xbdcafdd0	-0.09911692
14	0xbc2ff2bf	-0.0107390275
15	0xbd673392	-0.056445666
16	0xbe513583	-0.2043057
17	0x3cdd7659	0.027033972
18	0x3b0f044e	0.0021822634
19	0x3b1f8c94	0.0024345266
20	0x3d9e5678	0.07731336
21	0x38e9f1a0	0.00011155312
22	0xbe6f3947	-0.23361693
23	0x3e1c217c	0.15247148
24	0xbe861fb5	-0.26196066
25	0xbc1cccee	-0.009570343
26	0xbd0d59df	-0.034509536
27	0xbdd7ecbb	-0.105432
28	0x3d28a218	0.04117021
29	0xbdacd572	-0.08439149
30	0x3e0451e1	0.1292186
31	0xbd441fc1	-0.047881845
32	0x3dafd5d1	0.08585704
33	0x3d5e88b1	0.054329578
34	0xbd7eb7d1	-0.06218702
35	0xbe190f71	-0.14947297
36	0xbb421652	-0.0029615355
37	0xbd342080	-0.043976307
38	0x3da1234a	0.07868059
39	0x3dccb648	0.09995705
40	0xbcb056af	-0.021525709
41	0x3da1ed0e	0.07906543
42	0x3b6fa327	0.0036565752
43	0xbd97acfd	-0.07406042
44	0xbde0efda	-0.10983248
45	0xbd9f8778	-0.077895105
46	0xbb4209bb	-0.002960785
47	0x3ca3bcc2	0.019987468
48	0x3d488322	0.048953183
49	0x3d93bb96	0.072135136
50	0x3db1dd2c	0.08684763
51	0xbb2c7a8b	-0.0026318158
52	0x3dad7008	0.08468634
53	0x3e5466ef	0.20742391
54	0xbe0ba763	-0.13638072
55	0x3da80ed5	0.08205954
56	0x3cb5b048	0.022178784
57	0xbe42bca9	-0.1901728
58	0x3db03884	0.086045295
59	0xbd95f8f7	-0.07322877
60	0x3deeaa94	0.11653629
61	0x3db91d8e	0.0903884
62	0xbd3d5253	-0.04622109
63	0x3e060389	0.13087286
64	0x3d033565	0.032033343
65	0x3cc939d7	0.024563713
66	0xbd798ad6	-0.06092342
67	0xbcbdd1d0	-0.023171335
68	0x3df77ed3	0.12084737
69	0x3e634df5	0.22197707
70	0xbcea85fa	-0.028628338
71	0xbe11e059	-0.14245738
72	0xbe1efbe4	-0.15525776
73	0xbe4164e6	-0.18886146
74	0x3d459262	0.048235305
75	0xbc2c6962	-0.010523172
76	0xbd2a5632	-0.04158611
77	0xbd02876a	-0.031867422
78	0x3dc80602	0.09766771
79	0x3e212237	0.15735708
80	0x3de918d8	0.11381692
81	0xbdbbb964	-0.0916622
82	0x3dbe068d	0.09278593
83	0xbc02408c	-0.0079499595
84	0x3d0f33ab	0.034961384
85	0x3db89060	0.09011912
86	0x3c3715a5	0.011174594
87	0xbce94ee9	-0.02848001
88	0x3ddc5ef4	0.10760298
89	0xbd7ab7b2	-0.06121034
90	0x3d8991c9	0.067172594
91	0xbdbfb2ff	-0.09360313
92	0xbdb7f051	-0.089813836
93	0xbe040d48	-0.12895691
94	0xbda9ed44	-0.08297208
95	0xbe106137	-0.14099585
96	0x3c78b387	0.015179521
97	0x3d27d107	0.04097083
98	0xbdd84b89	-0.10561282
99	0x3d81f91a	0.063463405
100	0x3dd9323e	0.10605286
101	0xbc891cd2	-0.016737375
102	0xbe22c251	-0.15894438
103	0xbd6b5e0c	-0.057462737
104	0x3bbce533	0.0057646274
105	0x3b9d518a	0.00480098
106	0x3b10f85a	0.0022120685
107	0x3a5ab866	0.00083435175
108	0x3d545984	0.05184318
109	0x3c7a518d	0.015278232
110	0xbddf907f	-0.10916232
111	0x3e14a397	0.1451553
112	0x3e0024d6	0.12514052
113	0xbd18f40c	-0.037342116
114	0x3d145a7c	0.036219105
115	0x3c85b875	0.016323308
116	0xbdc31d9f	-0.09527134
117	0x3ce4d0d9	0.027931618
118	0xbe22fd85	-0.15917023
119	0x3da5202e	0.080627784
120	0xbd9c55df	-0.07633566
121	0xbd380aff	-0.04493236
122	0xbd138f72	-0.036025472
123	0x3c7c2a06	0.015390879
124	0x3dce95b0	0.100871444
125	0x3ae4c4e1	0.0017453694
126	0xbd8a5962	-0.0675533
127	0xbd930eda	-0.07180567
128	0x3da26707	0.07929807
129	0xbbbdd656	-0.005793373
130	0x3d64a425	0.055820603
131	0xbbe2af79	-0.0069178906
132	0xbcf9e047	-0.030502452
133	0x3d44762b	0.047964256
134	0xbdda32e1	-0.10654236
135	0x3da3fcc5	0.08007196
136	0xbd1d88cd	-0.03846054
137	0x3daaa921	0.0833304
138	0x3dafe33d	0.08588264
139	0x3d8c801b	0.06860372
140	0x39e52f8a	0.00043713703
141	0x3de69a6f	0.112599246
142	0x3b8d41a1	0.004310802
143	0xbd347647	-0.04405811
144	0x3deaf7d5	0.114730515
145	0x3d9e65d0	0.07734263
146	0x3e4dccb1	0.20097615
147	0x3da14fb4	0.0787653
148	0x3daa9c9a	0.08330651
149	0xbdd12c8a	-0.10213573
150	0x3e17e795	0.14834435
151	0x3de10a45	0.10988287
152	0x3d9795e5	0.07401637
153	0x3d34d996	0.04415282
154	0x3e0728b4	0.13199121
155	0xbdaf7c85	-0.08568672
156	0xbd753d68	-0.059873015
157	0x3a9e7e72	0.0012092127
158	0x3db9fb3e	0.09081124
159	0xbd6bc363	-0.057559382
160	0x3d526052	0.05136139
161	0xbc7c5dc7	-0.015403218
162	0x3d4d8d5b	0.050183635
163	0xbd90c091	-0.07067979
164	0xbdc86cf1	-0.09786404
165	0x3c05e0ef	0.008171304
166	0xbe1320e6	-0.14368019
167	0x3d960533	0.073252104
168	0xbe17c510	-0.14821267
169	0x3c74dfe7	0.014945961
170	0xbc99d16e	-0.018776622
171	0xbd302cbe	-0.04301142
172	0x3d403ba4	0.046931878
173	0x3e043eaf	0.12914537
174	0x3d0be914	0.034157827
175	0xbc38796b	-0.011259417
176	0x3a61da75	0.00086156215
177	0xbd0235fd	-0.03178977
178	0xbcf4485e	-0.029819664
179	0xbd5c68ed	-0.053811003
180	0xbdf20478	-0.118172586
181	0xbda6c0ed	-0.081422664
182	0x3d5e41ee	0.054262094
183	0xbc50d0b8	-0.012745075
184	0x36577a8e	3.2108833e-06
185	0xbd6c7c1f	-0.05773556
186	0x3bf95932	0.00760951
187	0x3e0c3f91	0.13696124
188	0xbe088343	-0.13331322
189	0x3e00023b	0.12500851
190	0x3c87b994	0.016567983
191	0x3c6afcfb	0.014342542
192	0x3d70b3a2	0.05876506
193	0x3d6f001e	0.05834972
194	0xbab6a3b8	-0.001393429
195	0xbb8cc8c4	-0.004296394
196	0xbd4a4bba	-0.049388625
197	0xbd12a814	-0.035804823
198	0x3c673684	0.014112119
199	0x3e13a76e	0.14419338
200	0x3d18c721	0.03729928
201	0x3d509da0	0.050931573
202	0xbd9a5922	-0.07536532
203	0x3e0b379f	0.13595437
204	0x3c22224d	0.009895873
205	0x3d5eb89a	0.05437527
206	0xbdc0e5b3	-0.09418812
207	0xbdb768f0	-0.08955562
208	0xbcbf86ca	-0.023379702
209	0x3d9ea565	0.0774639
210	0xbd7387fd	-0.05945586
211	0x3c72ea9f	0.014826446
212	0xbda12e26	-0.0787013
213	0xbe322a07	-0.17398845
214	0xbc060055	-0.00817879
215	0xbc1745fe	-0.009232996
216	0xbde1ae0d	-0.11019526
217	0xbdd4a447	-0.10382896
218	0xbd9f2cd0	-0.07772219
219	0x3e14cffb	0.14532463
220	0x3d3f8b8d	0.046763945
221	0xbd82653a	-0.06366964
222	0xba1cbf8e	-0.00059794716
223	0xbe2332be	-0.15937325
224	0x3d2f12a3	0.042742383
225	0xbd6c112b	-0.05763356
226	0xbe6b012c	-0.22949666
227	0xbd960274	-0.07324687
228	0x3ded8a9a	0.11598702
229	0xbdd3d3c8	-0.103431284
230	0x3e0291a6	0.12750873
231	0x3d8c3824	0.068466455
232	0xbd3b5d9a	-0.045743562
233	0xbd1f6b15	-0.03892048
234	0xbc79f70d	-0.015256655
235	0xbdd3d6b0	-0.10343683
236	0xbbee35a9	-0.0072695804
237	0x3c45fac7	0.012083716
238	0x3db8f9ba	0.090320066
239	0x3ddcef05	0.10787777
240	0x3e0fb28e	0.14032957
241	0x3cc0f73c	0.02355539
242	0x3ce69b27	0.028150154
243	0xbd3f5337	-0.04671022
244	0xbe069867	-0.13144074
245	0xbdb621d9	-0.08893175
246	0xbe05f7fb	-0.13082878
247	0xbdce84ac	-0.10083899
248	0xbdf19696	-0.117963
249	0x3df5832b	0.11987909
250	0xbd4b3ba9	-0.049617443
251	0xbca7f295	-0.020501414
252	0xbb60e325	-0.0034315076
253	0x3d4677c9	0.04845408
254	0xbc7ce8f8	-0.015436403
255	0x3dda1aa6	0.10649614

network_body._body_endoder.seq_layers.2.bias f4 [128]
0	0xba00dc59	-0.0004915647
1	0xbb262114	-0.0025349306
2	0xb98723b9	-0.00025775822
3	0xbc148d33	-0.009066868
4	0xb8780830	-5.9135433e-05
5	0xbb03d604	-0.0020116577
6	0xba4d2617	-0.0007825805
7	0xbb8e20e7	-0.0043374184
8	0xbbeadc9a	-0.007167411
9	0xbc01f6b1	-0.007932351
10	0x3bfa6c06	0.007642272
11	0xbb936c2a	-0.004498978
12	0xaecf11b7	-9.416417e-11
13	0xbaee7482	-0.0018192681
14	0x9ea56265	-1.751075e-20
15	0xbc3b8277	-0.011444679
16	0xbac68ea0	-0.0015148707
17	0x3a9c056a	0.0011903469
18	0xbbf93c57	-0.00760607
19	0xb4b02b16	-3.2813904e-07
20	0xbbd50bac	-0.0065016355
21	0x3cb5d325	0.022195408
22	0x2ebe9002	8.6657806e-11
23	0x3befa24a	0.0073130475
24	0x3b115730	0.0022177212
25	0xbab7636b	-0.0013991421
26	0xbb6c0c5e	-0.0036018114
27	0xbad34b4d	-0.0016120464
28	0xbbb9dfe8	-0.0056724437
29	0xbb9b2523	-0.0047346517
30	0xba95401e	-0.0011386906
31	0xbba2342a	-0.004950066
32	0xb9cb5192	-0.00038779952
33	0xb9a343cd	-0.00031140298
34	0xba0ac565	-0.00052936963
35	0x3b865ab8	0.00410017
36	0xbbb121a5	-0.005405622
37	0xbb866367	-0.004101205
38	0xbc4d24c4	-0.012520973
39	0xbc64c32e	-0.01396255
40	0x3b08f99e	0.0020900737
41	0xbb932b8b	-0.0044912747
42	0xbba9f52e	-0.0051866984
43	0xbabb3f49	-0.0014285828
44	0x2c757997	3.488409e-12
45	0xbbde8038	-0.006790187
46	0xbc854db7	-0.016272409
47	0xbb1f49c4	-0.0024305442
48	0xbc049ac3	-0.008093539
49	0xb96567e1	-0.0002187784
50	0x3a3e5745	0.0007260929
51	0xbc0299f8	-0.007971279
52	0xbbf4193c	-0.0074492972
53	0xbc14d904	-0.009084944
54	0x3a35f0f7	0.00069405086
55	0xb994b0f2	-0.00028360594
56	0xbc2472ac	-0.0100371055
57	0x307d7151	9.2201896e-10
58	0x3bde1888	0.0067778267
59	0xbb369307	-0.0027858631
60	0xbb8fe1d0	-0.0043909326
61	0x3cc4b1f8	0.024010643
62	0xbbb975f0	-0.005659811
63	0xbc17bbcc	-0.009261083
64	0xbb8f3a7c	-0.0043709856
65	0xbb5dff1d	-0.0033873983
66	0xbc393997	-0.011305234
67	0xbb31010b	-0.0027008678
68	0xbaf4b398	-0.0018669246
69	0x3ca5d2c2	0.020242099
70	0x3b239b93	0.0024964556
71	0xb9bd7808	-0.0003613832
72	0xba9c6676	-0.0011932391
73	0xbbb7675d	-0.0055970387
74	0xbc2d6348	-0.0105827525
75	0xbba984de	-0.0051733097
76	0xbc6f4dc8	-0.014605947
77	0x3b0581fc	0.0020371666
78	0x3388d735	6.3721394e-08
79	0xbbbbc6c2	-0.005730481
80	0xbb8584ab	-0.004074653
81	0xbc0a218c	-0.00843085
82	0x3b872e9c	0.0041254293
83	0xbbc59b3d	-0.0060304687
84	0x2efd90c5	1.1530824e-10
85	0xb89768da	-7.219771e-05
86	0xbc1dd8c0	-0.009634197
87	0x3b61f625	0.003447899
88	0xbae415ed	-0.0017401554
89	0xb92e2585	-0.0001660791
90	0x3b6369b8	0.0034700464
91	0xbb798579	-0.003807394
92	0x3c9d6821	0.019214692
93	0xbba66d57	-0.0050789523
94	0x3b57a5cc	0.003290522
95	0x3c9d350a	0.01919033
96	0xbbd02d34	-0.006353045
97	0xbb28ab54	-0.0025736885
98	0xbc38799e	-0.011259465
99	0xbc34f742	-0.011045279
100	0x3ae883e0	0.0017739497
101	0xbb8b41d5	-0.004249791
102	0x3618dec9	2.2779443e-06
103	0xbc4c42fa	-0.01246714
104	0xbb08e99a	-0.002089119
105	0xbbc9b18c	-0.0061551984
106	0xbb3b3b68	-0.0028569344
107	0xbb6af986	-0.0035854294
108	0xbbd7d614	-0.0065867994
109	0xbbd39897	-0.006457399
110	0xbbc638ff	-0.006049275
111	0xbb834e21	-0.0040071164
112	0xbbd1cf88	-0.0064029135
113	0xb90bc1ab	-0.0001332822
114	0xbb70f392	-0.0036766273
115	0xbb2ad4b6	-0.0026066727
116	0xbc8d3e6f	-0.017241685
117	0x3cf7bc22	0.030241076
118	0xbc0c171f	-0.008550434
119	0xbbe1cb21	-0.00689067
120	0xbba9ca97	-0.0051816213
121	0xbc3d5ac6	-0.011557287
122	0xbc2a6319	-0.010399603
123	0xbbbfc261	-0.005852029
124	0xb9c346e7	-0.00037246125
125	0xbb9dd901	-0.0048171286
126	0xb9be6ddf	-0.00036321484
127	0xbaf0fae4	-0.0018385318

action_model._continuous_distribution.log_sigma f4 [1, 2]
0	0x3e08e287	0.13367663
1	0x3dda2732	0.10652007

action_model._continuous_distribution.mu.weight f4 [2, 128]
0	0x3c588db5	0.013217379
1	0xbbcdf78d	-0.006285614
2	0x3bae9577	0.005327876
3	0x3c1d9c13	0.0096197305
4	0x3c78ab3c	0.015177544
5	0xbd265e7f	-0.040617462
6	0x3bf8d00e	0.0075931614
7	0x3b407ebf	0.0029372422
8	0xbcede643	-0.029040461
9	0x3ae12fa8	0.001718034
10	0xbc547883	-0.012968185
11	0xbca2eb8b	-0.019887706
12	0x3c345dfb	0.011008735
13	0x3c320bcb	0.0108670695
14	0x3ac39348	0.0014921213
15	0x3c80f68b	0.01574256
16	0xbc1e3007	-0.009655005
17	0x3c46b1dd	0.012127367
18	0xbc6401b9	-0.013916426
19	0xb7159a4f	-8.91702e-06
20	0x3b93fb65	0.0045160525
21	0xbcf16494	-0.029466905
22	0xbc1ddef4	-0.009635676
23	0xbc1f1fcd	-0.009712172
24	0x3c897679	0.016780125
25	0x3d2caad2	0.042155094
26	0xbc17b917	-0.009260437
27	0x3c4f024d	0.012634826
28	0x3bdcfea6	0.0067442236
29	0x39b4fea6	0.00034522003
30	0xbc58360d	-0.01319648
31	0xbc3a99b8	-0.0113891885
32	0xbc4a1dca	-0.012336204
33	0x3ba362c3	0.0049861385
34	0x3c777f22	0.015105994
35	0x3d263bf3	0.040584516
36	0xbb7f3b95	-0.0038945426
37	0xbcb887fb	-0.022525778
38	0xbca63773	-0.020290112
39	0xbb69ced1	-0.003567625
40	0x3c9a3ba8	0.018827274
41	0xbcda7c2e	-0.026670542
42	0xbc2d5309	-0.010578879
43	0x3c036907	0.008020646
44	0xbd2cc8e9	-0.04218379
45	0xbc2763d1	-0.010216669
46	0xbcb3c3aa	-0.021943886
47	0x3c2a12f9	0.0103805
48	0x3a8adb9a	0.0010594011
49	0x3c91d2f7	0.017800791
50	0x3c36d6c8	0.011159606
51	0x3b910fed	0.0044269473
52	0xbc15923d	-0.009129104
53	0xb896e6bc	-7.195535e-05
54	0x3c54d857	0.012991033
55	0x3cc0b0bc	0.023521774
56	0x3ceae0e5	0.028671691
57	0xbca76fc8	-0.020439044
58	0xbc8ca8f2	-0.017170403
59	0xbbabe85a	-0.0052462043
60	0xbc022c27	-0.007945097
61	0xbc9d3f0a	-0.019195098
62	0xbb0440d7	-0.002018025
63	0xbcdabe58	-0.026702091
64	0xbb4bc189	-0.0031090698
65	0xbb216ba6	-0.0024630814
66	0x3ad87cee	0.0016516724
67	0x3c394b68	0.011309482
68	0x3b0ff6b6	0.002196712
69	0xbcc81935	-0.024426082
70	0x3d24c26d	0.04022448
71	0xbbd6fa76	-0.006560619
72	0xbacbc411	-0.0015546103
73	0x3b15414e	0.002277452
74	0xbb064df3	-0.0020493239
75	0xbcb13683	-0.021632439
76	0x3c0e1480	0.00867188
77	0x3c85ba68	0.016324237
78	0xbc5f2579	-0.013619774
79	0xbba3cd49	-0.004998837
80	0x3b84358a	0.0040347027
81	0xbb91506d	-0.0044346363
82	0xbd2c15ce	-0.042012982
83	0xbcc472c3	-0.023980504
84	0x3b61dbc7	0.0034463273
85	0xbd04c654	-0.032415703
86	0xbc2bdc61	-0.010489554
87	0x3d3143db	0.043277603
88	0x3c1954ec	0.009358626
89	0x3b9c2e3c	0.0047662538
90	0x3d2f5533	0.04280586
91	0xbbb20fd4	-0.0054340158
92	0xba85f109	-0.0010218929
93	0xbceb66b7	-0.028735502
94	0xbc54945a	-0.012974823
95	0xbd109f96	-0.035308443
96	0xbc7ea080	-0.015541196
97	0x3b944ec0	0.0045259893
98	0x3cba3451	0.022730025
99	0xbcc42cec	-0.023947202
100	0x3c8c42aa	0.017121632
101	0x3b11e244	0.002226011
102	0xbca19f10	-0.019729167
103	0xbc893487	-0.01674868
104	0xba9df85d	-0.0012052167
105	0x3cf3e918	0.029774234
106	0xbcd07c3f	-0.02544987
107	0xbb909edd	-0.004413469
108	0xbce6ab1f	-0.028157769
109	0xbc389de4	-0.011268113
110	0x3c9267e7	0.01787181
111	0x3ca5adab	0.020224413
112	0x3c876252	0.016526375
113	0xbc673037	-0.014110616
114	0xbc6ad762	-0.014333578
115	0xbc56fc2f	-0.013121649
116	0x3988da41	0.00026102553
117	0xbce77812	-0.028255496
118	0xbb4ad9a6	-0.0030952482
119	0xbc4e255a	-0.0125821475
120	0x3a19afc2	0.0005862677
121	0xbca70d81	-0.020392181
122	0xbc185d87	-0.009299642
123	0xbc59b2d6	-0.013287267
124	0xbad29fb1	-0.001606932
125	0xbba6bbf4	-0.0050883237
126	0xbc187264	-0.009304617
127	0x3d14670f	0.036231097
128	0x3c2f70c8	0.0107080415
129	0x3c435a61	0.0119234035
130	0x3cc3dd09	0.023909109
131	0xbc8432c7	-0.016137494
132	0x3cdfa6c5	0.027301202
133	0x3c80efb3	0.015739297
134	0x3c024c5d	0.007952777
135	0x3c05f74d	0.008176637
136	0xbcaf719b	-0.021416476
137	0xbce1be28	-0.027556494
138	0xbc9fa9dc	-0.019490175
139	0xbbb396c5	-0.0054806196
140	0x3b3e118b	0.0029002156
141	0x3c6fe6b0	0.0146424025
142	0x3c2adebd	0.0104290815
143	0xbb8e7115	-0.0043469765
144	0xbd361c32	-0.044460483
145	0x3c549d9c	0.01297703
146	0x3c6a709b	0.014309074
147	0x3bbccb66	0.0057615517
148	0xbb55c5e1	-0.0032619166
149	0xbcd2017d	-0.025635475
150	0xbc2a006d	-0.010376078
151	0xbcd1d775	-0.025615433
152	0x3d028ebf	0.031874415
153	0xbd457317	-0.04820546
154	0xbca6886e	-0.020328727
155	0xbba9c4bc	-0.0051809233
156	0xbb2465ba	-0.0025085048
157	0x3c8c8d73	0.017157292
158	0xbc56d829	-0.01311306
159	0x3c45b84c	0.012067866
160	0x3cbce933	0.023060417
161	0xbc9705f9	-0.018435465
162	0x3a9f87c5	0.00121712
163	0x3c7aeaa1	0.015314729
164	0x3ba46a43	0.00501755
165	0x3c6ed4fc	0.014577147
166	0xbae75233	-0.0017648399
167	0xbbe26e36	-0.006910111
168	0xbb96104d	-0.00457958
169	0xbd069799	-0.03285942
170	0xbc1023fb	-0.008797641
171	0x3cb6f5a2	0.022333924
172	0xbce92cb0	-0.028463691
173	0xbb31e98e	-0.0027147266
174	0x3cd9e140	0.026596665
175	0xbd29209d	-0.041290868
176	0xbb7c1e64	-0.0038470263
177	0x3c1dd462	0.009633156
178	0x3bdfd149	0.0068303687
179	0x3b841012	0.004030236
180	0x3b47cd4e	0.0030487361
181	0xbaac8939	-0.0013163454
182	0x3c8cf9c7	0.017208947
183	0xbc3f12a7	-0.011662162
184	0xbca4751d	-0.020075375
185	0xbbb0a0c7	-0.00539026
186	0xbcf739ab	-0.030178865
187	0x3c21be32	0.009872006
188	0x3c85fc6a	0.016355712
189	0xbd06e438	-0.03293249
190	0x3b56768a	0.0032724463
191	0xbc17962c	-0.009252112
192	0x3c06d882	0.00823033
193	0x3ba4cf84	0.0050296206
194	0xbac30b25	-0.0014880641
195	0xbbdfc955	-0.0068294206
196	0x3cc306bc	0.023806922
197	0xbcf4c064	-0.029876895
198	0x376529d7	1.3659205e-05
199	0xbc9beeb9	-0.01903473
200	0xbce76680	-0.028247118
201	0xbcc72646	-0.024310242
202	0x3bf348e9	0.007424463
203	0xbc7e5e92	-0.015525477
204	0x3c9687ef	0.018375365
205	0x3ab1111b	0.0013509126
206	0x3bc45e87	0.005992714
207	0xbab9f95a	-0.0014188692
208	0x3c01e859	0.007928931
209	0xbce356e2	-0.02775139
210	0xbcb4dd82	-0.02207828
211	0x3b9fd163	0.0048772558
212	0xbc801dbe	-0.015639182
213	0x3c85abe6	0.01631732
214	0x3ae79b7b	0.0017670238
215	0x3a197b5d	0.00058548694
216	0xbc8c0589	-0.017092483
217	0xbc873600	-0.016505241
218	0x3c3ad09e	0.011402277
219	0x3c1c017e	0.00952184
220	0xbd17764e	-0.03697806
221	0xbd041505	-0.03224661
222	0xbd14e212	-0.03634841
223	0xbcce7bea	-0.025205571
224	0x3c82354c	0.015894555
225	0x3c50398d	0.012709034
226	0xbba77d5a	-0.0051113786
227	0x3aabeec3	0.0013117421
228	0x3b1faf12	0.0024365825
229	0x3bd80079	0.006591853
230	0xbc0a7949	-0.008451768
231	0x3b420386	0.002960415
232	0x3ac96dbe	0.0015367789
233	0x3c2ea01f	0.010658293
234	0xbd2a15e8	-0.041524798
235	0x3c4ca70d	0.012491
236	0x3b761cc8	0.0037553776
237	0xbcc28281	-0.02374387
238	0xbcc9f895	-0.024654666
239	0x3cd527d0	0.02601996
240	0x3a07d681	0.0005181805
241	0x3c7701eb	0.015076141
242	0x3b8ded4d	0.004331267
243	0xbb732676	-0.0037101782
244	0x3c76948e	0.015050067
245	0xbd011452	-0.03151352
246	0x3af9d3f2	0.0019060357
247	0x3c7cbe05	0.015426164
248	0xbc97a637	-0.018511875
249	0x3c39403e	0.01130682
250	0xbae4cc50	-0.0017455909
251	0x3bda8591	0.0066687544
252	0xbd1fc47b	-0.039005738
253	0xbbd4f234	-0.0064985994
254	0x3c30be32	0.010787534
255	0xbced7f0f	-0.02899125

action_model._continuous_distribution.mu.bias f4 [2]
0	0x3a350eee	0.0006906827
1	0x3a07a065	0.0005173742

exp_avg f4 [128, 6]
0	0x350d1d41	5.2569163e-07
1	0x00000000	0.0
2	0xb6332381	-2.6693745e-06
3	0x35923a49	1.0894811e-06
4	0x28b93329	2.0561313e-14
5	0x33549eca	4.9504514e-08
6	0xbd6523fe	-0.055942528
7	0x00000000	0.0
8	0x3e917134	0.2840668
9	0xbded703a	-0.11593671
10	0xb1165cfd	-2.188073e-09
11	0xbbabbce3	-0.005241023
12	0xbcbc971d	-0.023021275
13	0x00000000	0.0
14	0x3def6854	0.11689821
15	0xbd436b62	-0.04770983
16	0xb0778202	-9.004283e-10
17	0xbb0d7236	-0.0021582968
18	0xbd1f6667	-0.038916018
19	0x00000000	0.0
20	0x3e4a5a07	0.19760905
21	0xbda52c2f	-0.08065068
22	0xb0d132be	-1.5221173e-09
23	0xbb6e52d2	-0.0036365283
24	0x3bd25077	0.0064182836
25	0x00000000	0.0
26	0xbd057e1d	-0.032590974
27	0x3c59ec5e	0.013300983
28	0x2f8a0262	2.5103747e-10
29	0x3a242e47	0.00062629994
30	0x0b2af4d8	3.292501e-32
31	0x00000000	0.0
32	0x8c5905a4	-1.6718769e-31
33	0x0bb126fe	6.823659e-32
34	0x000e05da	1.287796e-39
35	0x09825f52	3.1386e-33
36	0x00000004	6e-45
37	0x00000000	0.0
38	0x80000004	-6e-45
39	0x80000004	-6e-45
40	0x00000004	6e-45
41	0x00000004	6e-45
42	0x80000004	-6e-45
43	0x00000000	0.0
44	0x80000004	-6e-45
45	0x00000004	6e-45
46	0x00000004	6e-45
47	0x00000004	6e-45
48	0x3b2d1140	0.0026407987
49	0x00000000	0.0
50	0xbc5bb3a8	-0.013409533
51	0x3bb3584c	0.0054731723
52	0x2ee322a8	1.0328921e-10
53	0x396db920	0.00022671046
54	0xa0ca1716	-3.4235408e-19
55	0x00000000	0.0
56	0x220045c6	1.7384173e-18
57	0xa1516914	-7.0951024e-19
58	0x94849cd7	-1.3390456e-26
59	0x9f17007e	-3.19759e-20
60	0xbcee0962	-0.029057208
61	0x00000000	0.0
62	0x3e1716bd	0.14754768
63	0xbd76a87d	-0.060219277
64	0xb09c336e	-1.1365111e-09
65	0xbb30c374	-0.0026971968
66	0x80000004	-6e-45
67	0x00000000	0.0
68	0x80000004	-6e-45
69	0x00000004	6e-45
70	0x80000004	-6e-45
71	0x80000004	-6e-45
72	0xbd0f3b2f	-0.03496855
73	0x00000000	0.0
74	0x3e35d376	0.17756447
75	0xbd946ae6	-0.07246952
76	0xb0bbfa65	-1.3677207e-09
77	0xbb5782e3	-0.003288441
78	0xbb3d692c	-0.0028901799
79	0x00000000	0.0
80	0x3c707302	0.0146758575
81	0xbbc4474a	-0.0059899436
82	0xaef895ac	-1.13043214e-10
83	0xb98500c4	-0.00025368307
84	0x00000004	6e-45
85	0x00000000	0.0
86	0x00000004	6e-45
87	0x80000004	-6e-45
88	0x00000004	6e-45
89	0x00000004	6e-45
90	0xbcc30e1c	-0.023810439
91	0x00000000	0.0
92	0x3df79d41	0.12090541
93	0xbd4a1e90	-0.049345553
94	0xb07ffe04	-9.312944e-10
95	0xbb116503	-0.0022185452
96	0xbc05989e	-0.008154063
97	0x00000000	0.0
98	0x3d299842	0.04140497
99	0xbc8a701b	-0.01689916
100	0xafaf5546	-3.1892905e-10
101	0xba409d8a	-0.0007347694
102	0xbca0138e	-0.019540574
103	0x00000000	0.0
104	0x3dcb35d6	0.09922378
105	0xbd25dfc9	-0.04049662
106	0xb0521600	-7.642882e-10
107	0xbaee39fe	-0.0018175242
108	0x3b3e0d0c	0.0028999476
109	0x00000000	0.0
110	0xbc714302	-0.014725449
111	0x3bc4eca0	0.006009653
112	0x2ef96cc2	1.1342528e-10
113	0x39917651	0.00027744708
114	0xbd8f3050	-0.06991637
115	0x00000000	0.0
116	0x3eb5c5a6	0.35502356
117	0xbe145fde	-0.14489695
118	0xb13bec1f	-2.73463e-09
119	0xbbd57536	-0.006514217
120	0xa197a0b0	-1.0274692e-18
121	0x00000000	0.0
122	0x22c07c00	5.2172994e-18
123	0xa21d4f30	-2.131939e-18
124	0x9546ff40	-4.0187138e-26
125	0x9ece6000	-2.1850803e-20
126	0xbd10f863	-0.03539313
127	0x00000000	0.0
128	0x3e3808a0	0.1797204
129	0xbd963853	-0.07334962
130	0xb0be42ae	-1.3843271e-09
131	0xbb595065	-0.003315949
132	0xbcf605cf	-0.030032067
133	0x00000000	0.0
134	0x3e1c2865	0.15249784
135	0xbd7eee5f	-0.062239047
136	0xb0a170ff	-1.1746407e-09
137	0xbb392a23	-0.0028253875
138	0x98025f30	-1.6850164e-24
139	0x00000000	0.0
140	0x19258068	8.5562315e-24
141	0x98871746	-3.4920182e-24
142	0x8bab19f0	-6.590583e-32
143	0x9643b8d1	-1.5810292e-25
144	0x00000004	6e-45
145	0x00000000	0.0
146	0x00000004	6e-45
147	0x80000004	-6e-45
148	0x00000004	6e-45
149	0x00000004	6e-45
150	0xbcc7cb08	-0.024388805
151	0x00000000	0.0
152	0x3dfda10a	0.123842314
153	0xbd4f079e	-0.050544374
154	0xb0831af4	-9.539165e-10
155	0xbb143209	-0.002261283
156	0x04885c62	3.2058287e-36
157	0x00000000	0.0
158	0x85ad1abd	-1.6278664e-35
159	0x050d4bd7	6.643718e-36
160	0x00000058	1.23e-43
161	0x02cc94bc	3.0060475e-37
162	0xa6b9f7ab	-1.2904084e-15
163	0x00000000	0.0
164	0x27ec13f1	6.552478e-15
165	0xa740b433	-2.6743039e-15
166	0x9a7410c7	-5.047157e-23
167	0xa5082e86	-1.1811882e-16
168	0xbb2ff3ab	-0.0026848118
169	0x00000000	0.0
170	0x3c5f5d08	0.01363302
171	0xbbb653fe	-0.005564212
172	0xaee6ebbf	-1.0501066e-10
173	0xb9804d48	-0.00024471642
174	0xbbe40718	-0.0069588535
175	0x00000000	0.0
176	0x3d10bc60	0.0353359
177	0xbc6c491a	-0.014421726
178	0xaf95a20a	-2.7218078e-10
179	0xba2a9ba8	-0.000650818
180	0x80000004	-6e-45
181	0x00000000	0.0
182	0x80000004	-6e-45
183	0x00000004	6e-45
184	0x80000004	-6e-45
185	0x80000004	-6e-45
186	0x93542e67	-2.678104e-27
187	0x00000000	0.0
188	0x1486ad7b	1.3598968e-26
189	0x93dbdc87	-5.550083e-27
190	0x870b3c08	-1.0474839e-34
191	0x91a0928e	-2.533387e-28
192	0xbccbcf2e	-0.024879064
193	0x00000000	0.0
194	0x3e015d19	0.1263317
195	0xbd5330e8	-0.051560313
196	0xb085bd9d	-9.730915e-10
197	0xbb17892b	-0.002312253
198	0x00000004	6e-45
199	0x00000000	0.0
200	0x00000004	6e-45
201	0x80000004	-6e-45
202	0x00000004	6e-45
203	0x00000004	6e-45
204	0x00000004	6e-45
205	0x00000000	0.0
206	0x80000004	-6e-45
207	0x80000004	-6e-45
208	0x80000004	-6e-45
209	0x80000004	-6e-45
210	0x80000004	-6e-45
211	0x00000000	0.0
212	0x00000004	6e-45
213	0x00000004	6e-45
214	0x80000004	-6e-45
215	0x00000004	6e-45
216	0xbc61572b	-0.013753693
217	0x00000000	0.0
218	0x3d8f07b8	0.06983894
219	0xbce980fd	-0.02850389
220	0xb013de9d	-5.379464e-10
221	0xbaa57e5e	-0.0012626161
222	0x062c07d7	3.2355364e-35
223	0x00000000	0.0
224	0x875a62be	-1.6429515e-34
225	0x06b243ef	6.705598e-35
226	0x00000386	1.264e-42
227	0x0478390e	2.9178458e-36
228	0xbc69b7f9	-0.014265054
229	0x00000000	0.0
230	0x3d945913	0.07243552
231	0xbcf22fca	-0.029563803
232	0xb0195e0c	-5.5794724e-10
233	0xbaaa9f34	-0.0013017417
234	0x00000004	6e-45
235	0x00000000	0.0
236	0x00000004	6e-45
237	0x80000004	-6e-45
238	0x00000004	6e-45
239	0x80000004	-6e-45
240	0x3bf19826	0.007372874
241	0x00000000	0.0
242	0xbd1958d3	-0.037438225
243	0x3c7a573d	0.015279588
244	0x2f9e8915	2.8837435e-10
245	0x3a370404	0.00069814944
246	0x00000004	6e-45
247	0x00000000	0.0
248	0x00000004	6e-45
249	0x80000004	-6e-45
250	0x00000004	6e-45
251	0x00000004	6e-45
252	0xbd8d8f02	-0.06912042
253	0x00000000	0.0
254	0x3eb3b3e8	0.35098195
255	0xbe12af58	-0.14324701

exp_avg_sq f4 [128, 6]
0	0x393a772c	0.00017782737
1	0x00000000	0.0
2	0x39af671c	0.00033455424
3	0x36b0ba1e	5.2668756e-06
4	0x1ee9c9b2	2.4753254e-20
5	0x33c8145e	9.3169305e-08
6	0x3ec84b37	0.39119884
7	0x00000000	0.0
8	0x411f5b24	9.959751
9	0x3fd4536e	1.6587961
10	0x262a401b	5.9067477e-16
11	0x3b548b3e	0.0032431628
12	0x3dbe9c34	0.09307137
13	0x00000000	0.0
14	0x3fd2b0cd	1.6460205
15	0x3e8c7555	0.27433267
16	0x24e39c53	9.871038e-17
17	0x3b16370a	0.002292099
18	0x3e4462b5	0.19178279
19	0x00000000	0.0
20	0x4097351e	4.725234
21	0x3f49821e	0.7871417
22	0x25a1d638	2.8074208e-16
23	0x3aecf800	0.0018079281
24	0x3da1090b	0.07863053
25	0x00000000	0.0
26	0x3e822461	0.2541838
27	0x3d3528c8	0.044228345
28	0x23a116a3	1.7465242e-17
29	0x3bce6b61	0.0062994217
30	0x1d65f715	3.0435636e-21
31	0x00000000	0.0
32	0x1aa01577	6.620913e-23
33	0x1a7ff5a9	5.2931207e-23
34	0x029388e3	2.1678278e-37
35	0x17708694	7.7718044e-25
36	0x3a17cdda	0.0005790867
37	0x00000000	0.0
38	0x35de1140	1.6545309e-06
39	0x37837efd	1.567555e-05
40	0x1e705fe3	1.2725323e-20
41	0x381a883b	3.6843336e-05
42	0x1b94bed0	2.4607856e-22
43	0x00000000	0.0
44	0x0682bb1b	4.917549e-35
45	0x1a6706e6	4.7775253e-23
46	0x012755d3	3.0734632e-38
47	0x1abc408e	7.785927e-23
48	0x3d9b28d7	0.07576149
49	0x00000000	0.0
50	0x3e24a0f0	0.16077018
51	0x3ce22bda	0.0276088
52	0x2375679d	1.33034176e-17
53	0x3b5875e1	0.0033029246
54	0x3cfabb0c	0.030606769
55	0x00000000	0.0
56	0x3b08af42	0.0020856415
57	0x3a6dd385	0.00090723514
58	0x21af5ed5	1.1883563e-18
59	0x3b222274	0.0024739774
60	0x3e209adf	0.15684079
61	0x00000000	0.0
62	0x4072a456	3.7912803
63	0x3f21b4e9	0.6316667
64	0x2581de58	2.25286e-16
65	0x3acbc92b	0.0015547624
66	0x3bc1db59	0.005916041
67	0x00000000	0.0
68	0x39061df1	0.0001279039
69	0x38dc7e7e	0.000105139785
70	0x20f8d9bd	4.215692e-19
71	0x36ce63bc	6.150889e-06
72	0x3e367e06	0.17821512
73	0x00000000	0.0
74	0x408a7048	4.326206
75	0x3f38784d	0.72058564
76	0x25944199	2.5718358e-16
77	0x3ad2a082	0.0016069564
78	0x3cc51a99	0.024060534
79	0x00000000	0.0
80	0x3ecde2cc	0.40212095
81	0x3d898049	0.067139216
82	0x23de5cb3	2.4108548e-17
83	0x3a5d6089	0.0008444866
84	0x3c09e445	0.00841624
85	0x00000000	0.0
86	0x38488ca1	4.7814687e-05
87	0x399391f4	0.00028146768
88	0x20917015	2.4638125e-19
89	0x3a55299d	0.0008131506
90	0x3df7423d	0.12073181
91	0x00000000	0.0
92	0x40200ebd	2.5008996
93	0x3ed578be	0.4169368
94	0x252c858c	1.4963869e-16
95	0x3aff6def	0.0019487719
96	0x3d44a490	0.0480085
97	0x00000000	0.0
98	0x3f934fda	1.1508744
99	0x3e4452c2	0.19172195
100	0x249d7a83	6.829544e-17
101	0x3a4ed8e7	0.00078905973
102	0x3d9d59db	0.07683154
103	0x00000000	0.0
104	0x3ffce9aa	1.9758809
105	0x3ea888ce	0.32916874
106	0x2507282c	1.1722994e-16
107	0x3a28a1b3	0.00064327865
108	0x3d2ade94	0.041716173
109	0x00000000	0.0
110	0x3d048ee8	0.03236285
111	0x3bc95eb4	0.0061453227
112	0x2285ac96	3.6232455e-18
113	0x3b5d196f	0.0033737083
114	0x3f2ee346	0.6831554
115	0x00000000	0.0
116	0x418a70e4	17.305122
117	0x403868be	2.881393
118	0x2693f254	1.0265857e-15
119	0x3bb99817	0.0056638825
120	0x3d8dc5e3	0.069225095
121	0x00000000	0.0
122	0x3b7864f9	0.0037901981
123	0x3aef5b1b	0.0018261404
124	0x228af870	3.766802e-18
125	0x3b8027e1	0.003911004
126	0x3e541edb	0.20714895
127	0x00000000	0.0
128	0x40a29df2	5.0817804
129	0x3f58b3c8	0.84649324
130	0x25ade8a0	3.016835e-16
131	0x3aff2aec	0.0019467748
132	0x3e19a4ae	0.15004227
133	0x00000000	0.0
134	0x4043811d	3.0547554
135	0x3f023ec4	0.5087702
136	0x25525939	1.8244826e-16
137	0x3af88dc7	0.0018963151
138	0x3b8fb8cd	0.0043860436
139	0x00000000	0.0
140	0x3859fc26	5.1971663e-05
141	0x39040275	0.00012589416
142	0x202995ee	1.4364464e-19
143	0x39c95066	0.0003839761
144	0x35b2d5da	1.3324272e-06
145	0x00000000	0.0
146	0x320544ff	7.757307e-09
147	0x34002d80	1.1937482e-07
148	0x1abc8a15	7.797806e-23
149	0x34864adb	2.501391e-07
150	0x3e063842	0.13107398
151	0x00000000	0.0
152	0x4049f4e3	3.1555717
153	0x3f068d7c	0.5255964
154	0x2558164d	1.874257e-16
155	0x3aa62772	0.001267655
156	0x16e8f20c	3.7634375e-25
157	0x00000000	0.0
158	0x01ccbc81	7.5208255e-38
159	0x15b4e799	7.306682e-26
160	0x00008305	4.7001e-41
161	0x161368d6	1.1907646e-25
162	0x1fd3ad05	8.964821e-20
163	0x00000000	0.0
164	0x1464fc37	1.1560799e-26
165	0x1ea462b4	1.7404998e-20
166	0x056e21b7	1.1196899e-35
167	0x1f05f2e3	2.8364757e-20
168	0x3c8c7de4	0.017149873
169	0x00000000	0.0
170	0x3ecd5713	0.40105495
171	0x3d88a6be	0.066724285
172	0x23dbf391	2.3847182e-17
173	0x3930c026	0.00016856249
174	0x3db5a41e	0.088691935
175	0x00000000	0.0
176	0x3f07d616	0.53061044
177	0x3db791b5	0.08963338
178	0x2420f2a8	3.4900007e-17
179	0x3b84b82c	0.0040502753
180	0x3d75c2d8	0.06000027
181	0x00000000	0.0
182	0x3acad012	0.0015473387
183	0x3ac57f67	0.0015067876
184	0x226291fa	3.070599e-18
185	0x3b587a84	0.003303201
186	0x3b978e86	0.0046251444
187	0x00000000	0.0
188	0x3a5c862c	0.0008412327
189	0x38f4edc6	0.000116791154
190	0x2098925b	2.5846652e-19
191	0x398ca297	0.0002682402
192	0x3e0c08ce	0.13675234
193	0x00000000	0.0
194	0x405588f2	3.3364835
195	0x3f0e55e7	0.55599827
196	0x25649b59	1.9828481e-16
197	0x3ac6deb8	0.0015172577
198	0x22094689	1.8604303e-18
199	0x00000000	0.0
200	0x0cf145d9	3.7173967e-31
201	0x20d5303f	3.611553e-19
202	0x079a6a29	2.323374e-34
203	0x212db774	5.885748e-19
204	0x02865370	1.9737421e-37
205	0x00000000	0.0
206	0x00000000	0.0
207	0x0150a27a	3.8320138e-38
208	0x00000000	0.0
209	0x01aa0188	6.2450335e-38
210	0x3d535f81	0.05160475
211	0x00000000	0.0
212	0x3b024fc5	0.0019883972
213	0x3aa72b16	0.001275393
214	0x2237c986	2.490781e-18
215	0x3b34e79e	0.0027603875
216	0x3d9130dc	0.07089397
217	0x00000000	0.0
218	0x3fe9c1b2	1.8262236
219	0x3e9bc9f7	0.30427524
220	0x24f9d5e8	1.0834891e-16
221	0x3a1be1c8	0.0005946425
222	0x3b8aa33f	0.004230886
223	0x00000000	0.0
224	0x3ab06b89	0.0013459782
225	0x39017ca4	0.00012348831
226	0x2095aa26	2.5354177e-19
227	0x39a082dd	0.0003061508
228	0x3dc04f9a	0.09390183
229	0x00000000	0.0
230	0x401aa4e7	2.4163148
231	0x3ece201f	0.4025888
232	0x25254559	1.4334965e-16
233	0x3a4e5731	0.0007871269
234	0x38b0dcea	8.4334824e-05
235	0x00000000	0.0
236	0x22c2654d	5.269106e-18
237	0x370c5ed6	8.366731e-06
238	0x1d78d373	3.2931843e-21
239	0x37ab3c12	2.0412761e-05
240	0x3babe25b	0.0052454895
241	0x00000000	0.0
242	0x3dd08943	0.101824306
243	0x3c8afffd	0.016967768
244	0x22de675e	6.0282665e-18
245	0x38b137c7	8.450407e-05
246	0x3c9bcf38	0.019019708
247	0x00000000	0.0
248	0x3986519f	0.00025619284
249	0x3a212748	0.0006147516
250	0x2178f45f	8.434909e-19
251	0x3ac5d9fd	0.0015094873
252	0x3f1464f0	0.5796652
253	0x00000000	0.0
254	0x416b0f72	14.691271
255	0x401c90df	2.4463422

exp_avg f4 [128]
0	0xb253a82e	-1.2320056e-08
1	0x3aabd7ff	0.0013110637
2	0x3a0d6ede	0.00053952436
3	0x3a6f156e	0.000912032
4	0xb91db995	-0.00015041821
5	0x88803564	-7.716272e-34
6	0x80000004	-6e-45
7	0x00000004	6e-45
8	0xb881cab2	-6.188954e-05
9	0x1e178eaa	8.023376e-21
10	0x3a3283ec	0.0006809819
11	0x00000004	6e-45
12	0x3a56d506	0.0008195195
13	0x388e0c66	6.773397e-05
14	0x80000004	-6e-45
15	0x3a124804	0.0005580189
16	0x39486172	0.00019109788
17	0x39f01920	0.00045795087
18	0xb88e8749	-6.7962865e-05
19	0x3ad6c4b7	0.001638553
20	0x1ee36ce0	2.407959e-20
21	0x3a5970c9	0.00082946994
22	0x3a388124	0.00070382864
23	0x15438b5e	3.9489878e-26
24	0x80000004	-6e-45
25	0x3a15d5ae	0.00057157397
26	0x81cc8701	-7.5131486e-38
27	0x240b7750	3.0241882e-17
28	0x3883f470	6.292097e-05
29	0x392b0256	0.00016308701
30	0x00000004	6e-45
31	0x109f2007	6.276379e-29
32	0x3a18d8b6	0.0005830632
33	0x80000004	-6e-45
34	0x80000004	-6e-45
35	0x00000004	6e-45
36	0x39a8fe6d	0.0003223302
37	0x838103a2	-7.582773e-37
38	0x39af46e5	0.00033431422
39	0x80000004	-6e-45
40	0xb9352ef3	-0.00017278995
41	0x80000004	-6e-45
42	0x3ad452cb	0.0016198991
43	0x00000004	6e-45
44	0xabc65de7	-1.4094809e-12
45	0x00000004	6e-45
46	0x3a841b6c	0.0010078973
47	0x3a543c30	0.0008096127
48	0xb9ae4720	-0.00033240858
49	0x1604042b	1.066419e-25
50	0x1227230c	5.2739107e-28
51	0x3a444db4	0.00074883853
52	0xba287356	-0.0006425878
53	0x36945541	4.4206686e-06
54	0x373babb8	1.118605e-05
55	0x80000004	-6e-45
56	0x3a5ddfd3	0.00084638334
57	0xb8d59dfe	-0.0001018606
58	0xb91e93ca	-0.0001512311
59	0x8f7bf020	-1.2421502e-29
60	0x38829920	6.227405e-05
61	0x80000004	-6e-45
62	0x80000004	-6e-45
63	0x00000004	6e-45
64	0x21afaa93	1.1903612e-18
65	0x3a15806f	0.0005703037
66	0x3926cfc0	0.00015908387
67	0xb9475b6b	-0.00019012175
68	0x92f222c3	-1.5280917e-27
69	0xb87c61c1	-6.0172522e-05
70	0x39be3c99	0.00036284773
71	0x39df1ce1	0.0004255539
72	0x39d21df9	0.00040076653
73	0xa794f005	-4.133848e-15
74	0x3a1d2474	0.00059945066
75	0x80000004	-6e-45
76	0x3a100b4d	0.0005494848
77	0x3aa65ac9	0.0012691851
78	0x3a411331	0.00073652255
79	0xaa10255e	-1.2802734e-13
80	0xa637c29d	-6.375463e-16
81	0x38c71884	9.493626e-05
82	0xb915a314	-0.00014270499
83	0x0005116f	4.65431e-40
84	0x00000004	6e-45
85	0x37bdb0a0	2.2612803e-05
86	0x389bd1c3	7.430047e-05
87	0x3a769146	0.00094058027
88	0x80000004	-6e-45
89	0x3a70aaa5	0.00091807015
90	0x9f758658	-5.1991895e-20
91	0x39f3439f	0.00046398953
92	0x89e2e62f	-5.4623985e-33
93	0x393fd7ca	0.00018295567
94	0xb8100da8	-3.4344994e-05
95	0x39a81215	0.0003205693
96	0x9e9508be	-1.5779604e-20
97	0x220237c8	1.7647816e-18
98	0xb84abae8	-4.8334623e-05
99	0x39afe5a7	0.00033549705
100	0x80000004	-6e-45
101	0x3a4467bf	0.0007492266
102	0x3a1374c8	0.0005625007
103	0x38a46f7c	7.840895e-05
104	0x3a454c4e	0.0007526324
105	0xacd93678	-6.173558e-12
106	0x9988af40	-1.4132853e-23
107	0xb8d069aa	-9.937894e-05
108	0x3a197f30	0.0005855439
109	0x0ed8d4a6	5.3452884e-30
110	0x80000004	-6e-45
111	0x0018b994	2.270625e-39
112	0xb00b6e08	-5.072427e-10
113	0x3a7dd786	0.00096832996
114	0x3a367baa	0.00069611764
115	0x80000004	-6e-45
116	0x3ab4a7da	0.0013782934
117	0x00000004	6e-45
118	0x3a3c36b2	0.0007179781
119	0x00000004	6e-45
120	0x3aa4740a	0.0012546789
121	0xb785a170	-1.593001e-05
122	0x3a08916b	0.0005209657
123	0x00000004	6e-45
124	0x3a0a5989	0.0005277624
125	0x3a82fc59	0.0009993418
126	0x80000004	-6e-45
127	0x3a16bc58	0.00057501113

exp_avg_sq f4 [128]
0	0x31e9c9f0	6.80415e-09
1	0x395e759e	0.00021215386
2	0x38176d01	3.6102723e-05
3	0x38d37778	0.00010083517
4	0x370acd46	8.273235e-06
5	0x15939106	5.9601634e-26
6	0x33068a12	3.132488e-08
7	0x162755d3	1.3517234e-25
8	0x36b661b6	5.4353977e-06
9	0x35a96ac1	1.2622551e-06
10	0x38aa0ae0	8.108257e-05
11	0x3402fcab	1.2199114e-07
12	0x38c1b1ea	9.236096e-05
13	0x3715c0e7	8.926006e-06
14	0x34d1cbf4	3.907768e-07
15	0x38628596	5.400701e-05
16	0x37cebd0d	2.4645147e-05
17	0x38308847	4.2088588e-05
18	0x360bf5c0	2.085566e-06
19	0x39c146ef	0.00036864678
20	0x36173603	2.2532192e-06
21	0x38e3722d	0.000108454704
22	0x388a849a	6.605052e-05
23	0x344ffef0	1.9371123e-07
24	0x2f967105	2.7365146e-10
25	0x388d6260	6.741728e-05
26	0x118307f2	2.0673052e-28
27	0x1a6e21b7	4.924448e-23
28	0x370f8ba4	8.555977e-06
29	0x3763ca40	1.3577344e-05
30	0x360d532c	2.105905e-06
31	0x3433f6b9	1.6760431e-07
32	0x38957416	7.126496e-05
33	0x1c9a6a29	1.0218307e-21
34	0x00012e40	1.08427e-40
35	0x35ffcc75	1.9058485e-06
36	0x38232998	3.8900966e-05
37	0x3424058d	1.527571e-07
38	0x3857e242	5.1470714e-05
39	0x329bd8a7	1.8142897e-08
40	0x36142022	2.2072422e-06
41	0x353d25c1	7.0462926e-07
42	0x39a410f5	0.00031293152
43	0x23b781af	1.9895823e-17
44	0x35969a4b	1.1220776e-06
45	0x34d0e8e0	3.8912458e-07
46	0x3909b443	0.00013132491
47	0x390527d5	0.00012698707
48	0x370ada0c	8.276209e-06
49	0x35c35987	1.4554688e-06
50	0x2d364bf1	1.0362365e-11
51	0x38f0a451	0.00011474698
52	0x379ca9ba	1.8675684e-05
53	0x3586d844	1.004672e-06
54	0x3691d2dd	4.3458845e-06
55	0x361d9670	2.348239e-06
56	0x38ddef00	0.000105826184
57	0x3649f426	3.0093447e-06
58	0x3611a371	2.170182e-06
59	0x00000802	2.873e-42
60	0x363063c1	2.6284108e-06
61	0x355cba15	8.222717e-07
62	0x25ce691b	3.5806526e-16
63	0x345be2e3	2.0478505e-07
64	0x23e61326	2.494476e-17
65	0x38b2ae41	8.520159e-05
66	0x377e24a0	1.5148107e-05
67	0x37ab22b3	2.0400947e-05
68	0x3609abb5	2.0514537e-06
69	0x35f340b8	1.8123746e-06
70	0x37a1509e	1.9230236e-05
71	0x37fe174b	3.0290006e-05
72	0x3806f16b	3.2172928e-05
73	0x344b8c10	1.8956803e-07
74	0x38b433f8	8.592749e-05
75	0x09154dd7	1.7971823e-33
76	0x3866b9b6	5.500923e-05
77	0x3964a734	0.00021806062
78	0x38aa9971	8.1348124e-05
79	0x360429d6	1.9693884e-06
80	0x35b2819a	1.3299752e-06
81	0x38100e99	3.434587e-05
82	0x363459c6	2.6874345e-06
83	0x2db0ab02	2.0084826e-11
84	0x350b4e48	5.189545e-07
85	0x37509357	1.2432071e-05
86	0x371295d0	8.737159e-06
87	0x39206912	0.00015297931
88	0x365f2d57	3.325598e-06
89	0x38c9029d	9.584914e-05
90	0x34c1ddf5	3.6110546e-07
91	0x38938ec9	7.036102e-05
92	0x2eb72490	8.328371e-11
93	0x3835509d	4.322884e-05
94	0x3677a77f	3.6903364e-06
95	0x38262ff6	3.962215e-05
96	0x35617802	8.3993666e-07
97	0x298de4d0	6.3013505e-14
98	0x375a11ac	1.2997927e-05
99	0x3840f417	4.6003694e-05
100	0x1e0bbf7a	7.398195e-21
101	0x38c237e5	9.261052e-05
102	0x38632aae	5.4160766e-05
103	0x376a461c	1.39638105e-05
104	0x3905d31b	0.00012762511
105	0x31065dc5	1.9552868e-09
106	0x361b6b6f	2.3159334e-06
107	0x378f6c6b	1.7097414e-05
108	0x38afd1e4	8.3837454e-05
109	0x35c94c9c	1.4997963e-06
110	0x195130b9	1.0814886e-23
111	0x356f05b1	8.904272e-07
112	0x35bc14f0	1.4013185e-06
113	0x392bed2b	0.00016396183
114	0x3905d9a7	0.0001276495
115	0x021a591e	1.1339709e-37
116	0x395a8991	0.00020841348
117	0x32bf6352	2.2280492e-08
118	0x38be9ccc	9.089112e-05
119	0x36421106	2.8918162e-06
120	0x39639bfb	0.00021706514
121	0x369433b0	4.416761e-06
122	0x38f89902	0.000118540614
123	0x35e3ed2c	1.6981844e-06
124	0x385d252e	5.2725132e-05
125	0x390a7b22	0.00013206576
126	0x34593e1b	2.0232294e-07
127	0x389786d2	7.225353e-05
