Assets/results/OuiTank/TankLearningAI/checkpoint.pt (torch, 700130 bytes, 58 tensors)

discrete_act_size_vector f4 [1, 5]
0	0x40400000	3.0
1	0x40000000	2.0
2	0x40400000	3.0
3	0x40000000	2.0
4	0x40000000	2.0

network_body._body_endoder.seq_layers.0.weight f4 [128, 82]
0	0x3da89982	0.08232404
1	0x3ce5d5a6	0.028055977
2	0xbc4a3b16	-0.012343189
3	0xbdd15202	-0.1022072
4	0xbd880b45	-0.066427745
5	0xbda560d5	-0.0807511
6	0x3df5a4a4	0.11994293
7	0xbe0b1807	-0.13583384
8	0x3e2cad7d	0.16863056
9	0x3d048372	0.03235192
10	0xbde015ea	-0.1094168
11	0xbe145bd5	-0.14488156
12	0x3d7e3125	0.062058587
13	0x3d522e2e	0.05131357
14	0xbe592f68	-0.2120949
15	0xbd43f4a7	-0.04784074
16	0x3e2e3b7c	0.17014879
17	0x3dda9350	0.10672629
18	0x3d9348a4	0.071915895
19	0xbdb1d5f8	-0.086833894
20	0xbded26a3	-0.11579635
21	0x3debb7ff	0.11509704
22	0xbc8dc3c8	-0.01730527
23	0x3dbf8e13	0.093532704
24	0x3d9f6c67	0.07784348
25	0xbe30217b	-0.17200272
26	0xbe7dcfdb	-0.24786322
27	0x3e445078	0.19171321
28	0x3cfa4464	0.03055019
29	0x3a52ffe3	0.00080489944
30	0x3c2bd59b	0.010487939
31	0x3be79c27	0.0070681754
32	0x3d7ab75d	0.061210025
33	0xbe0fc2c3	-0.1403914
34	0x3db92869	0.09040911
35	0xbb8a59e2	-0.0042221406
36	0xbe2dbbf1	-0.16966225
37	0x3e1ca12d	0.15295859
38	0xbdc60739	-0.09669346
39	0x3dccc4cc	0.099984735
40	0xbda90d79	-0.08254523
41	0xbc1b338c	-0.009472739
42	0xbcac194b	-0.021008154
43	0xbe83c139	-0.25733355
44	0xbd91d18d	-0.07120047
45	0x3e3376dd	0.17525811
46	0x3d22d39e	0.039752595
47	0x3d13f1af	0.03611916
48	0x3e68993a	0.22714701
49	0xbbe10a43	-0.0068676784
50	0x3cb999ab	0.022656282
51	0xbd6847ed	-0.05670922
52	0xbe0066ef	-0.12539266
53	0x3d7f2386	0.062289737
54	0xbd94679b	-0.07246324
55	0xbe0ce4be	-0.13759133
56	0xbbe156c4	-0.0068767983
57	0x3c92541b	0.01786237
58	0xbe97e7d3	-0.29669055
59	0xbca04c33	-0.019567585
60	0x3d48789a	0.04894314
61	0xbe1e5e2e	-0.15465614
62	0xbc8aa055	-0.016922155
63	0xbd76aa34	-0.060220912
64	0x3d8f4f74	0.06997576
65	0x3ce8c94e	0.028416302
66	0x3df66441	0.12030841
67	0xbd0bc4c8	-0.034123212
68	0xbd3f5c5d	-0.046718944
69	0x3e7f4ee0	0.24932432
70	0xbe8f48dd	-0.27985278
71	0xbcff1f2e	-0.031142797
72	0xbd4ec399	-0.050479505
73	0xbe2367e2	-0.15957597
74	0xbd8e27c6	-0.0694118
75	0xbe15c3e5	-0.14625509
76	0x3e3dc6aa	0.18532816
77	0x3e459990	0.1929686
78	0xbe020d1c	-0.12700313
79	0xbdf5d529	-0.12003548
80	0x3e2c6e83	0.16839032
81	0x3d7b642f	0.06137484
82	0xbd52b2b8	-0.05143997
83	0x3db4aa28	0.08821517
84	0x3e8d06f5	0.2754437
85	0xbd95b759	-0.073103614
86	0x3e6206a0	0.2207284
87	0xbc97f348	-0.018548623
88	0xbd8b7ec8	-0.06811291
89	0x3d87d732	0.06632842
90	0xbbf80271	-0.0075686504
91	0x3cb49dfb	0.022047987
92	0x3d0a596c	0.033776686
93	0x3d26eafa	0.040751435
94	0x3e43e455	0.1913007
95	0x3d39e0db	0.045380455
96	0x3d8f9fa8	0.07012874
97	0xbd00449c	-0.03131543
98	0xbdd5536f	-0.10416304
99	0x3de21f2c	0.11041102
100	0xbd90c5f6	-0.07069008
101	0xbd92437b	-0.07141777
102	0xbc6c0d6e	-0.014407499
103	0x3e045ba2	0.1292558
104	0xbde936b7	-0.11387389
105	0xbdb04aad	-0.08607993
106	0xbd13550a	-0.03596977
107	0xbe6bf324	-0.2304197
108	0xbbab075f	-0.0052193846
109	0x3e306c12	0.17228726
110	0xbe3d831b	-0.18507044
111	0x3d570998	0.052499384
112	0xbe03abf6	-0.12858567
113	0x3bbf0871	0.0058298637
114	0x3e4846e3	0.19558291
115	0xbd6c7800	-0.05773163
116	0x3db06303	0.08612635
117	0xbd8dc460	-0.06922221
118	0xbd923f67	-0.07140999
119	0xbc7e5c01	-0.015524865
120	0x3e24dc62	0.16099694
121	0x3d024683	0.031805526
122	0x3dd8255f	0.10554003
123	0xbd8f8777	-0.0700826
124	0xbe1d7b14	-0.15378982
125	0x3cf75160	0.03019017
126	0x3d3677eb	0.044547956
127	0x3e0876d6	0.13326582
128	0x3cba6274	0.022752024
129	0xbd99a960	-0.07503009
130	0xbd9da7a5	-0.07697991
131	0x3d9bffc4	0.07617143
132	0x3cf43f5a	0.029815365
133	0xbda487d1	-0.080337174
134	0x3dde048a	0.108407095
135	0xbe61c06e	-0.22046062
136	0xbc63d52c	-0.013905805
137	0x3d84242a	0.0645221
138	0x3d711e2c	0.058866665
139	0x3d6a3c71	0.057186548
140	0xbd7372f7	-0.05943581
141	0xbdce9e82	-0.10088827
142	0xbe41f00e	-0.1893923
143	0x3d4a95f1	0.0494594
144	0x3de4c5ea	0.111705616
145	0xbd6d42d8	-0.057925075
146	0x3ce02324	0.027360506
147	0xbd71d331	-0.0590393
148	0xbd574660	-0.05255735
149	0x3df7943e	0.12088822
150	0xbe05d697	-0.13070141
151	0x3d33f277	0.043932404
152	0xbdd044f9	-0.101694055
153	0x3d2bb1fa	0.04191778
154	0xbe049c6c	-0.12950295
155	0xbda82f32	-0.08212127
156	0xbcc30e1f	-0.023810444
157	0x3db9a322	0.09064318
158	0x3dbdaa18	0.092609584
159	0x3e338dd0	0.17534566
160	0xbdf78ccc	-0.12087402
161	0x3d19254a	0.037389077
162	0xbe6ba999	-0.23013915
163	0xbe271696	-0.1631721
164	0x3ca98eb1	0.020697923
165	0x3c396de6	0.011317706
166	0x3da9825a	0.08276816
167	0xbca19d5a	-0.019728351
168	0xbe00a3f2	-0.1256254
169	0xbd2a11ad	-0.041520763
170	0xbda6d6a2	-0.08146407
171	0xbda1773e	-0.07884072
172	0xbe19fa8d	-0.15036984
173	0x3e421453	0.18953066
174	0xbdc67c88	-0.09691721
175	0x3dc7716a	0.09738429
176	0xbdcb1d69	-0.09917719
177	0x3e25d1ba	0.16193286
178	0xbbb0a14d	-0.0053903223
179	0xbd55910f	-0.05214029
180	0x3d6445ac	0.055730507
181	0x3d821461	0.06351543
182	0xbe132372	-0.1436899
183	0x3d1cf7de	0.038322322
184	0xbd7d7b9e	-0.06188547
185	0xbc946b3c	-0.01811754
186	0x3e25d366	0.16193923
187	0x3d14c560	0.036321044
188	0x3e1a0ad2	0.1504319
189	0x3e658fa2	0.22418073
190	0x3d619924	0.055077687
191	0x3e021938	0.12704933
192	0xbe1133d7	-0.14179932
193	0xbd203354	-0.03911145
194	0x3e000bf6	0.12504563
195	0xbea14273	-0.3149601
196	0xbd21efd0	-0.039535344
197	0xbd6fc178	-0.058534116
198	0x3d6e9ddf	0.058256026
199	0x3bc0a18f	0.0058786343
200	0x3da0cbdb	0.07851382
201	0x3bf2a15e	0.0074044904
202	0xbdd2e4f8	-0.102975786
203	0x3db2b396	0.087256595
204	0x3d81cd2a	0.0633796
205	0x3dc256ee	0.09489237
206	0xbd271ad4	-0.04079707
207	0x3dbd3c86	0.092400596
208	0xbd2bf457	-0.041981068
209	0xbe2f4e94	-0.17119819
210	0x3ba82042	0.0051307986
211	0x3e9bfdef	0.30467173
212	0xbdf3cef3	-0.11904707
213	0xbdb36d9b	-0.0876114
214	0x3da8d8a1	0.08244444
215	0x3d215ccf	0.03939515
216	0xbdf59fd6	-0.11993377
217	0xbdadb896	-0.084824726
218	0x3aa0ad30	0.0012258645
219	0xbcfe0ee1	-0.031012954
220	0x3d96cbb3	0.07363071
221	0x3e2befbd	0.16790672
222	0x3c791c02	0.0152044315
223	0x3dbfc2b6	0.0936331
224	0xbe31a75e	-0.17349002
225	0x3d838c73	0.06423273
226	0xbd47f55c	-0.048817977
227	0x3e3af3a1	0.18257
228	0x3cad8236	0.021180253
229	0xbe59016d	-0.2119195
230	0x3a0f08d2	0.00054563314
231	0xbc13ae82	-0.009013774
232	0xbde1bab6	-0.110219404
233	0x3e3dcb68	0.18534625
234	0x3db66beb	0.089073025
235	0x3e02c8be	0.1277189
236	0xbe0e4abd	-0.13895698
237	0xbc09e3a7	-0.008416093
238	0xbdb6a476	-0.08918087
239	0xbda3674f	-0.07978689
240	0xbe2f160e	-0.17098257
241	0x3e4307ee	0.19045994
242	0x3e20c0b0	0.15698504
243	0x3e707bfe	0.234848
244	0xbd3bc26a	-0.045839705
245	0x3dad1aec	0.084524006
246	0x3e1ba244	0.15198618
247	0xbd41a567	-0.04727688
248	0x3d10fe59	0.035398815
249	0xbdcf9331	-0.101354964
250	0x3e3df0ab	0.18548839
251	0xbcc3dba6	-0.023908447
252	0xbd6081d3	-0.05481131
253	0x3ca2b55d	0.019861871
254	0xbd71ee0f	-0.05906492
255	0x3e0569a8	0.13028586

network_body._body_endoder.seq_layers.0.bias f4 [128]
0	0x9e0b1b36	-7.364226e-21
1	0xbb58c486	-0.0033076121
2	0x3caa16a9	0.020762758
3	0xbc479d0b	-0.012183438
4	0xbc525a2d	-0.012838882
5	0x30c05a95	1.3995584e-09
6	0x3aaaf4dd	0.0013042946
7	0xbc3f98ee	-0.011694176
8	0x3d290695	0.041266043
9	0x3c6fdde2	0.014640303
10	0xba8c73ae	-0.0010715628
11	0xbc18b27d	-0.009319899
12	0xbb5e09c2	-0.0033880328
13	0xbc8c51e5	-0.017128894
14	0xa91ae798	-3.4395745e-14
15	0xbb978fae	-0.0046252823
16	0xbd947d06	-0.07250409
17	0x3c526b89	0.012843021
18	0x36177bf0	2.2572895e-06
19	0xbc15c5f9	-0.009141439
20	0xbc646594	-0.013940234
21	0x3c1e838d	0.009674919
22	0x3bc60e2f	0.0060441713
23	0xbc91336a	-0.017724711
24	0x9600ab41	-1.0393796e-25
25	0x3d3c778c	0.046012446
26	0xbaa7249e	-0.0012752002
27	0x3cc397f0	0.02387616
28	0x3402f503	1.2196328e-07
29	0x3cfc49f0	0.030796975
30	0x3c0f8f94	0.008762259
31	0xbcbc9c33	-0.0230237
32	0xbbb328f2	-0.0054675275
33	0xbc277899	-0.010221624
34	0x3d12300f	0.035690363
35	0xbcf0ecd7	-0.029409809
36	0xb2184632	-8.863525e-09
37	0xbcd98cc7	-0.026556386
38	0x00000000	0.0
39	0xbd06a93c	-0.03287624
40	0x3d0702bb	0.03296159
41	0xbca662dc	-0.020310812
42	0xbbe740f8	-0.0070573054
43	0x3cc2d48c	0.02378299
44	0xbcd38654	-0.025820889
45	0xbc272ada	-0.010203088
46	0x3d75eeb3	0.060042094
47	0xbd255c06	-0.040370964
48	0xba9d9637	-0.0012022917
49	0xbd14ac6e	-0.036297254
50	0xbd1ab014	-0.037765577
51	0xb68a3064	-4.118354e-06
52	0xbc6af772	-0.014341222
53	0xba0e64de	-0.00054319005
54	0x3b9c2c75	0.004766042
55	0xbcf17104	-0.029472835
56	0xbba64a7d	-0.0050747977
57	0xbc483892	-0.012220519
58	0xb57bf71f	-9.3864395e-07
59	0xbc65415a	-0.013992632
60	0x3bc8e4de	0.0061307987
61	0x3cb78da2	0.022406403
62	0x3bc12dfc	0.0058953743
63	0xbd46ea85	-0.0485635
64	0x35bb2a9b	1.3944986e-06
65	0x3d181a8c	0.037134692
66	0xbc1ed1c6	-0.009693569
67	0x3ccd2216	0.025040668
68	0xbcfc8296	-0.030823987
69	0x3be6a25e	0.0070383986
70	0xbb474822	-0.0030407985
71	0x3bf77a78	0.007552441
72	0x3be278fc	0.006911395
73	0xbcdc0b74	-0.02686093
74	0xbcde4fd8	-0.027137682
75	0xbc0188b5	-0.007906129
76	0xbd089508	-0.033345252
77	0xbcbdec16	-0.023183864
78	0xbd3f95c2	-0.04677368
79	0x3b8ee126	0.004360336
80	0xbcc1a3fb	-0.023637762
81	0xbc732941	-0.014841379
82	0x3b79f5d1	0.0038140903
83	0xbc95a46e	-0.018266883
84	0xbb3d1f79	-0.002885787
85	0xbcc461fc	-0.023972504
86	0x3b8c5b49	0.004283343
87	0x3d325204	0.043535247
88	0xbc0c7a2f	-0.008574053
89	0xbbcf54e5	-0.006327259
90	0xbba47565	-0.0050188773
91	0xbbefac65	-0.007314252
92	0xbd2f0796	-0.042731844
93	0xbaf51067	-0.0018696905
94	0x3b207cf8	0.002448855
95	0xbc5c228d	-0.013435972
96	0x3b8db31c	0.00432433
97	0xbc802a68	-0.01564522
98	0xbc8b21b5	-0.016983846
99	0xbce1c02d	-0.027557457
100	0xba78dccd	-0.0009493351
101	0xbd13740c	-0.035999343
102	0x3bddaf50	0.0067652836
103	0xbbd3a106	-0.0064584045
104	0x3ad06e8d	0.0015902087
105	0xbc261df4	-0.010138977
106	0xbced53e2	-0.028970663
107	0xbb25696b	-0.0025239836
108	0x3d0c3ab7	0.034235682
109	0xbc9afeea	-0.01892038
110	0x109895fc	6.0184516e-29
111	0xbcd42ba0	-0.025899708
112	0xbcdc3ea5	-0.02688534
113	0xbb977c5d	-0.0046229796
114	0xbd382caf	-0.04496449
115	0xbd2e6a71	-0.04258198
116	0xbc31e5a8	-0.010857977
117	0xbbe2dce3	-0.0069233044
118	0xbdd14b86	-0.10219483
119	0x35a9d2f8	1.2652881e-06
120	0xbc087c52	-0.0083304215
121	0xab252c72	-5.8681456e-13
122	0xbc29674b	-0.010339568
123	0xbcb5386e	-0.022121634
124	0xbc628d52	-0.013827639
125	0xbd264a9f	-0.040598508
126	0xbd3beb26	-0.045878552
127	0xbc8b275a	-0.016986538

network_body._body_endoder.seq_layers.2.weight f4 [128, 128]
0	0x3d5b0901	0.053475384
1	0xbc6838ff	-0.014173745
2	0xbd27648c	-0.040867373
3	0x3c5c3f43	0.013442817
4	0xbcf89afc	-0.03034734
5	0xbd6303d6	-0.05542358
6	0x3e05e210	0.13074517
7	0x3e32fef4	0.1748007
8	0xbe137843	-0.14401345
9	0x3d8d4e0b	0.06899651
10	0x3e1111bf	0.14166926
11	0xbcb02866	-0.021503638
12	0xbe1d09b6	-0.15335736
13	0xbdb96520	-0.09052491
14	0x3d042403	0.032260906
15	0x3e0359fc	0.12827295
16	0x3d4abd0c	0.049496695
17	0xbe329b2a	-0.17442003
18	0xbdd48003	-0.10375979
19	0x3b6e63ae	0.0036375332
20	0x3c6a8185	0.014313106
21	0xbd852861	-0.06501842
22	0xbcbdde2d	-0.02317723
23	0x3c04d739	0.008107954
24	0xbcf9b17e	-0.030480143
25	0x3e0f4ab0	0.13993335
26	0xbd8dc6d7	-0.06922691
27	0xbcce096b	-0.025150975
28	0x3d94b28c	0.072606176
29	0xbdbc084d	-0.09181271
30	0xbe177a49	-0.14792742
31	0xbd62df08	-0.05538848
32	0xbd2362d1	-0.03988916
33	0xbd87a127	-0.06622534
34	0xbdc549d3	-0.096332215
35	0xbddc1ed8	-0.107480705
36	0x3bedcdc1	0.007257194
37	0x3dabd2e6	0.08389835
38	0x3cb3899e	0.021916207
39	0xbca13735	-0.019679645
40	0xbe07c9dd	-0.13260598
41	0xbd2e68bb	-0.042580348
42	0xbd94258f	-0.07233726
43	0xbd5a50ea	-0.053299822
44	0xbe266361	-0.16248848
45	0xbc16b212	-0.009197729
46	0x3e45ea84	0.19327742
47	0x3d854836	0.06507914
48	0xbc77e2b7	-0.015129737
49	0xbe0bf033	-0.13665847
50	0x3e2d1212	0.16901425
51	0xbda19b18	-0.0789091
52	0x3cbd4355	0.023103395
53	0x3d682350	0.0566743
54	0xbb16691f	-0.002295084
55	0xbdda2f81	-0.10653592
56	0xbd95bfbc	-0.07311961
57	0x3e0edc48	0.13951218
58	0x3c82d28f	0.015969543
59	0xbdf0687a	-0.11738677
60	0xbe4456ec	-0.19173783
61	0x3d93f7e1	0.072250135
62	0x3b0ddaea	0.0021645376
63	0x3d9707a7	0.073745064
64	0xbdc6e406	-0.09711461
65	0xbd51458f	-0.051091727
66	0x3e213821	0.15744068
67	0xbd503889	-0.050835166
68	0x3a6891d4	0.0008871828
69	0xbd0a2bde	-0.03373324
70	0xbb0e1dfe	-0.0021685357
71	0xbdc2e7f1	-0.095168956
72	0x3c8f5e08	0.017500892
73	0x3ab1f273	0.0013576284
74	0x3da99e94	0.082821995
75	0xbe80a2ff	-0.25124356
76	0xbd91238d	-0.07086859
77	0xb8efa9bc	-0.000114280236
78	0x3daf1df5	0.08550636
79	0xbe1415e5	-0.14461477
80	0xbc828c1d	-0.015935952
81	0xbd56c9e5	-0.052438635
82	0x3d46299e	0.048379533
83	0xbd74c9e4	-0.05976285
84	0xbd9f0b37	-0.07765811
85	0xbbee5f4c	-0.007274544
86	0xbd51aa92	-0.05118806
87	0xbd32672c	-0.043555424
88	0x3bbd1363	0.0057701333
89	0xbdea2ca4	-0.11434296
90	0x3c8cf6b5	0.017207483
91	0xbdda90c0	-0.1067214
92	0x3db7c2d0	0.089727044
93	0xb991f2b1	-0.00027837374
94	0xbd7944d9	-0.060856674
95	0xbd529607	-0.05141261
96	0xbb246b63	-0.0025088422
97	0xbd97c4e1	-0.074105985
98	0x3d70a6a4	0.05875267
99	0x3c65743a	0.014004761
100	0xbd20ab1a	-0.039225675
101	0x3d202f96	0.03910788
102	0xbc20786a	-0.009794334
103	0x3d537767	0.051627543
104	0xbc135b81	-0.008993984
105	0x3e5b6ec4	0.21428972
106	0x3d650c53	0.055919956
107	0xbce6aa34	-0.028157331
108	0xbc827488	-0.015924707
109	0x3cfec937	0.031101806
110	0xbd8b08cb	-0.067887865
111	0xbe8ddb1c	-0.2770623
112	0x3d03d462	0.032184966
113	0xbcb91386	-0.022592317
114	0xbde1bf8d	-0.110228635
115	0xbb308ac2	-0.0026938175
116	0x3cea7ea1	0.028624834
117	0x3d113893	0.035454344
118	0xbc773e2e	-0.015090508
119	0x3c03f553	0.008054095
120	0xbbd6cfa1	-0.006555513
121	0xbc9ac9eb	-0.01889511
122	0x3d131833	0.03591175
123	0xbd88c6fd	-0.06678579
124	0x3e15d82f	0.14633249
125	0xbd0d272a	-0.034461178
126	0xbd71ca69	-0.059030924
127	0xbc305cdf	-0.01076433
128	0x3db0cb82	0.08632566
129	0x3d428d8c	0.04749827
130	0x3c96f473	0.01842711
131	0x3cdda6d6	0.027057093
132	0xbdabe874	-0.08393946
133	0xbd88a727	-0.06672507
134	0x3e00c581	0.12575342
135	0x3d5871c1	0.05284286
136	0x3d93de4c	0.07220134
137	0x3d6c5f73	0.057708215
138	0x3d974966	0.073870465
139	0xbd902937	-0.07039111
140	0x3bff8442	0.007797749
141	0xbc062006	-0.008186346
142	0x3d0e01c7	0.034669664
143	0xbd5a8176	-0.05334612
144	0xbe23b4f9	-0.15987004
145	0x3c49d637	0.012319139
146	0x3d5ee858	0.0544208
147	0xbda51f88	-0.08062655
148	0x3d21e7e3	0.039527785
149	0x3d8ba21f	0.068180315
150	0xbda1c5c9	-0.07899053
151	0xbd214367	-0.03937092
152	0xbc806120	-0.015671313
153	0xbbb2a016	-0.0054512126
154	0xbd880bea	-0.066428974
155	0x3bf6e870	0.007535033
156	0x3cf4d968	0.029888824
157	0xbd8714fb	-0.065957986
158	0xbd92f41d	-0.07175467
159	0xbd582052	-0.052765198
160	0xbbfdd21f	-0.0077459957
161	0xbc737232	-0.014858769
162	0xbda6c258	-0.08142537
163	0x3d461701	0.048361782
164	0x3b5d2add	0.0033747472
165	0xbd98967e	-0.07450579
166	0x3db0e87a	0.086380914
167	0x3da3efba	0.080047086
168	0xbd0b389c	-0.033989534
169	0xbd12cc98	-0.035839647
170	0x3cee2026	0.029068064
171	0x3c75f887	0.015012867
172	0x3ced248d	0.028948093
173	0x3d9c1c2b	0.0762256
174	0xbdd0b7c4	-0.101913005
175	0x3d24766b	0.040151995
176	0xbc12e9c3	-0.008966866
177	0x3d7e38c1	0.062065843
178	0xbd9757e9	-0.073898144
179	0x3d214aaa	0.039377846
180	0xbd5dcd97	-0.054151144
181	0x3db4c782	0.088271156
182	0x3d36867a	0.04456184
183	0xbdefe5e6	-0.117137715
184	0xbe0efa09	-0.13962568
185	0x3e41f5e2	0.18941453
186	0x3cac36c3	0.021022206
187	0x3d0821a8	0.033235222
188	0xbd6d0262	-0.0578636
189	0x3d76221f	0.060091134
190	0xbd876b48	-0.06612259
191	0xbc8ba86e	-0.017048087
192	0xbd3ab9ce	-0.045587353
193	0x3d410651	0.047125164
194	0x3d34f6cf	0.044180688
195	0xbbc21398	-0.005922746
196	0x3aa52469	0.0012599352
197	0x3e0efa35	0.13962634
198	0xbe636ea4	-0.22210175
199	0xbdfa5335	-0.12222902
200	0xbc096fd8	-0.008388482
201	0x3da7c8b3	0.08192577
202	0xbdbcd929	-0.092211075
203	0x3dc8c8b2	0.098039046
204	0xbcd3ae66	-0.025839996
205	0x3e435372	0.190748
206	0x3d1f3174	0.03886552
207	0x3dc8f2ca	0.09811933
208	0xbcf22040	-0.029556394
209	0xbe0839df	-0.13303326
210	0xbd4acd48	-0.049512178
211	0x3ad76e17	0.0016436008
212	0xbc3fd1c6	-0.011707729
213	0xbc37d3a9	-0.011219897
214	0xbc0760e0	-0.008262843
215	0x3d93611e	0.07196258
216	0xbab7aa68	-0.0014012577
217	0xbd4687ea	-0.04846946
218	0xbd67763a	-0.056509234
219	0x3bf8669c	0.0075805914
220	0xbd3e25ad	-0.04642265
221	0xbdaddac4	-0.08488992
222	0xbdb3ec73	-0.087853335
223	0xbd87d47a	-0.066323236
224	0xbdd5c69e	-0.10438274
225	0xbcfe560f	-0.031046895
226	0xbdaf8b62	-0.08571507
227	0x3d1c10f5	0.03810211
228	0xbdedd191	-0.11612237
229	0xbdb383b2	-0.08765353
230	0xbd9b0cfa	-0.075708345
231	0xbc464899	-0.01210227
232	0x3d861a1d	0.065479495
233	0x3e0bc3ec	0.13648957
234	0x3daf7c2a	0.08568604
235	0xbdc723e6	-0.09723644
236	0x3df0a4ad	0.117501594
237	0xbcfa92bb	-0.030587545
238	0xbc0e694e	-0.008692099
239	0xbe4ad52a	-0.19807878
240	0x3daf6b54	0.08565393
241	0xbc6f4860	-0.014604658
242	0x3d7f8d19	0.06239042
243	0xbdff366b	-0.12461551
244	0x3d1d4eea	0.038405336
245	0x3cc1bd5c	0.023649864
246	0x3d0ddaec	0.03463261
247	0xbd282682	-0.04105235
248	0x3d79cfb2	0.06098909
249	0x3e302b11	0.17203929
250	0x3dabf50f	0.083963506
251	0x3e0a6105	0.13513573
252	0xbd135dd4	-0.035978153
253	0xbcebe49d	-0.028795535
254	0xbe40487c	-0.1877765
255	0xbd3c0f81	-0.045913223

network_body._body_endoder.seq_layers.2.bias f4 [128]
0	0xbc84bbf9	-0.016202914
1	0xbc214f53	-0.0098455725
2	0x3215c677	8.718067e-09
3	0xbc4b5119	-0.012409472
4	0xbba75622	-0.0051067034
5	0x3ae6e523	0.0017615895
6	0xbc4ae2d3	-0.012383181
7	0xbd14dc1b	-0.03634272
8	0xbcc66ce9	-0.024221854
9	0xbc765bd9	-0.015036547
10	0xbbb3b250	-0.005483903
11	0xbd1ba2dc	-0.03799711
12	0xbc8124eb	-0.015764674
13	0xbc937805	-0.018001566
14	0xbc5b3844	-0.013380114
15	0xbc8ba583	-0.017046696
16	0xbca3aba3	-0.019979304
17	0xbcb3702b	-0.021904072
18	0xbc2e0119	-0.010620379
19	0xbced76bd	-0.028987283
20	0xbb8ed489	-0.0043588323
21	0xbcd0835c	-0.025453262
22	0xbcb0cd3e	-0.021582242
23	0xbc085ece	-0.008323384
24	0xbcfaa024	-0.03059394
25	0xbc4b9a87	-0.012426979
26	0xbd017d50	-0.031613648
27	0xbcbcde63	-0.023055261
28	0xbc1f4957	-0.009722075
29	0xbc966bad	-0.01836189
30	0xbd0ec6b3	-0.034857463
31	0xbc4db59c	-0.012555506
32	0xb129d19c	-2.4711886e-09
33	0x31cb1942	5.910949e-09
34	0xbc143e1d	-0.009048012
35	0xbc65a211	-0.01401569
36	0xbcbb7eca	-0.022887606
37	0x3c300157	0.010742507
38	0xbd223ab5	-0.03960677
39	0xbd0d9579	-0.034566376
40	0xbca8c56d	-0.020601952
41	0xbc8ef888	-0.017452493
42	0xbbb01eba	-0.0053747566
43	0xbc9b9cfb	-0.018995753
44	0xbc187fa9	-0.00930778
45	0xbc0b1c59	-0.008490645
46	0xbc2a6ee2	-0.010402413
47	0xbd016eb6	-0.031599723
48	0xbca11116	-0.019661468
49	0xbb306abe	-0.0026919092
50	0xb5fa18b0	-1.8633637e-06
51	0xbc78fd75	-0.015197148
52	0xbbd60b2b	-0.006532093
53	0xbcb2d17f	-0.021828411
54	0xbc88a0e5	-0.016678283
55	0xbc088a1a	-0.008333707
56	0xbcf43bc9	-0.029813664
57	0x2cd99be9	6.1848205e-12
58	0xbc06bb91	-0.00822343
59	0xbb175644	-0.002309219
60	0xbcb1e752	-0.021716747
61	0x3b801357	0.0039085555
62	0xbca68983	-0.020329243
63	0xbc1cfdea	-0.009582022
64	0xbcae58d3	-0.021282589
65	0x3ad1f86d	0.0016019471
66	0xbc93b983	-0.018032795
67	0x3380a030	5.9896024e-08
68	0xbc6f8ef6	-0.014621487
69	0xbccc3410	-0.02492717
70	0xbb1d169a	-0.002396977
71	0xbc9dc5d2	-0.019259367
72	0xac9372db	-4.190743e-12
73	0xbc24489e	-0.010027079
74	0xbc6603ef	-0.014039024
75	0x3ba4b40b	0.0050263456
76	0xbce9a7b1	-0.028522344
77	0xbb78d8b9	-0.0037970974
78	0xbb84d68d	-0.0040538968
79	0xbc6b8322	-0.014374526
80	0xbcf0bdaa	-0.029387314
81	0xb7077a83	-8.0751515e-06
82	0xa0344312	-1.5268785e-19
83	0xbbe67687	-0.0070331725
84	0xbc92f561	-0.017939271
85	0xbb99d486	-0.004694524
86	0xbc689601	-0.01419592
87	0xbd31ed3f	-0.043439146
88	0xbc7d506e	-0.01546107
89	0x30400d79	6.986834e-10
90	0xbc9d8ef2	-0.0192332
91	0xbbc08570	-0.005875282
92	0xbc1161a4	-0.008873377
93	0xbc8fe62e	-0.017565813
94	0xa816ff64	-8.382052e-15
95	0xbcf0f119	-0.02941184
96	0xbc8103c1	-0.01574886
97	0xbc3a31b3	-0.011364388
98	0x3b84c600	0.0040519238
99	0xbccd8aec	-0.025090657
100	0xbb5431f7	-0.0032378414
101	0x1a30c3aa	3.6554003e-23
102	0xbcee692b	-0.029102882
103	0xbc9d6cdd	-0.01921695
104	0xbceffb42	-0.029294614
105	0xbbb0e7c3	-0.005398722
106	0xbc5dfc8f	-0.013548984
107	0xbc94b699	-0.018153476
108	0xbc965182	-0.018349413
109	0xbb6bc437	-0.0035975107
110	0xbd041932	-0.03225059
111	0xbcd03b9b	-0.025419047
112	0x3a849109	0.0010114025
113	0x2c985f25	4.330663e-12
114	0xb7c8e394	-2.3947832e-05
115	0xbc39ffab	-0.01135246
116	0xbc86874f	-0.016421942
117	0xbcacc665	-0.021090696
118	0xb8dc3e52	-0.000105020255
119	0xa8655b31	-1.2731828e-14
120	0xbc040017	-0.008056662
121	0xbcd0f6bc	-0.025508277
122	0xbbc59fba	-0.006031004
123	0xbcb72a63	-0.022359079
124	0xbc25690e	-0.010095848
125	0xbb8497a4	-0.0040463973
126	0xbc5c7916	-0.0134566035
127	0xbafb2fa1	-0.0019163975

action_model._discrete_distribution.branches.0.weight f4 [3, 128]
0	0xbb91cc1b	-0.00444938
1	0xbb0cc21c	-0.0021478003
2	0xbb811207	-0.0039389166
3	0xbd1783e5	-0.03699102
4	0x3c16f269	0.0092130685
5	0x3c835276	0.016030531
6	0xbb6a035c	-0.0035707569
7	0x3b8b586c	0.004252484
8	0xba954edc	-0.00113913
9	0xbb416ba4	-0.0029513622
10	0x3d09f971	0.03368515
11	0xbb6105da	-0.0034335763
12	0x3b2550b6	0.002522511
13	0xbd150dc1	-0.03639007
14	0x3c517f62	0.012786718
15	0x3d1a981d	0.037742723
16	0xba28178a	-0.0006412199
17	0xba8c3d3e	-0.0010699404
18	0x3b11108f	0.0022135114
19	0xbc0c6399	-0.008568668
20	0x3c9254d4	0.017862715
21	0xbc3aab73	-0.011393416
22	0xbbb69a55	-0.005572597
23	0x3beaca57	0.007165234
24	0x3c6f5eea	0.014610032
25	0xbbdbadfc	-0.00670409
26	0xb9c73882	-0.0003799834
27	0xbbbebdd2	-0.005820968
28	0x38975356	7.2157636e-05
29	0x3b301e1e	0.002687342
30	0x3c3a5def	0.011374935
31	0x3b822f13	0.003972897
32	0xba88306c	-0.0010390407
33	0x3bc5e60c	0.0060393866
34	0xbbbc3deb	-0.005744686
35	0xbcd01bd2	-0.02540389
36	0x3c3aa9c2	0.0113930125
37	0xbb278fbd	-0.0025567852
38	0xbc3ff762	-0.0117166955
39	0xbc0648bf	-0.008196055
40	0x3b95934a	0.0045646774
41	0xbb0c0ac5	-0.0021368724
42	0xbc572dc1	-0.013133467
43	0xbb8a47bc	-0.004219977
44	0x3bced5c4	0.006312104
45	0x3c64c4b9	0.013962918
46	0x3aab5f72	0.001307471
47	0x3cf9a8a7	0.030475928
48	0x3c286c64	0.010279749
49	0xbbbb40e0	-0.005714521
50	0x3c7c5ac2	0.015402498
51	0xbc3f5848	-0.011678763
52	0x3bfaf018	0.007658016
53	0xbbe8221a	-0.0070841433
54	0x3c2f35ef	0.010694011
55	0x3c2f9484	0.010716561
56	0x3d3b0878	0.045662373
57	0x3af1bdcd	0.0018443406
58	0x3cc8af25	0.024497578
59	0x3c6ceffc	0.014461514
60	0x3c3c272e	0.011483951
61	0xbc314acc	-0.010821056
62	0xbc31da0f	-0.010855212
63	0x3c5e56f9	0.013570541
64	0xbce184fb	-0.02752923
65	0x3abef45a	0.0014568672
66	0x3c652717	0.0139863705
67	0x3cc13309	0.023583906
68	0xbc89d085	-0.016823063
69	0xbc1d4744	-0.009599511
70	0xbc9b9778	-0.018993124
71	0xbb5f1673	-0.003404048
72	0x3b970635	0.004608894
73	0xbbe91388	-0.007112924
74	0x3be9f6f6	0.0071400357
75	0x3c276403	0.010216716
76	0xbc87b01f	-0.016563473
77	0x3c648e35	0.01394992
78	0xbb25311c	-0.0025206273
79	0xbc9bcce5	-0.0190186
80	0xbbb20688	-0.0054329075
81	0x3bc312e8	0.0059531815
82	0xbc3d5a34	-0.011557151
83	0x3c03615e	0.00801882
84	0xbc233013	-0.009960192
85	0x3c5bc04e	0.013412548
86	0x3b3ed8d8	0.0029120948
87	0x3c159547	0.009129829
88	0xbb096853	-0.0020966723
89	0x3bdd0bb8	0.0067457817
90	0xbaee4007	-0.0018177041
91	0xbc1e91d4	-0.009678323
92	0xbbc1ace1	-0.0059105013
93	0x3b64867b	0.0034870196
94	0x3c0043ff	0.0078287115
95	0x3b88e927	0.0041781846
96	0xbb58cbc7	-0.0033080445
97	0x3ba71869	0.0050993455
98	0x3c2df1f4	0.010616768
99	0xbaa89037	-0.0012860362
100	0xbae46473	-0.0017424956
101	0xbc03ccdd	-0.008044449
102	0xbc295cec	-0.010337096
103	0x3c134003	0.00898743
104	0x3bc051ba	0.0058691176
105	0x3b9a4d08	0.00470889
106	0x3bd743aa	0.0065693455
107	0xbb1cbffe	-0.0023918147
108	0xbbb513ff	-0.0055260654
109	0x3bd3e165	0.006466078
110	0xbbd6bfe6	-0.006553638
111	0x3b5b2b67	0.0033442618
112	0xbc484af8	-0.012224905
113	0xbc62df38	-0.013847165
114	0xbc3838ee	-0.011244042
115	0x3b9d97fa	0.004809377
116	0x3ce111b1	0.027474256
117	0x3ba45ef0	0.0050162002
118	0x3c0b5ac2	0.008505525
119	0xbc31fdd4	-0.01086374
120	0xbbba89c2	-0.0056926915
121	0xbb98f75f	-0.004668161
122	0x3c82a479	0.015947567
123	0x3c30bcff	0.010787248
124	0x3c221e95	0.009894987
125	0xba36c835	-0.0006972582
126	0xbbe12ffb	-0.006872175
127	0x3b4430b1	0.002993625
128	0x3c754369	0.014969685
129	0xbc4b5ac7	-0.01241178
130	0xba3aa7d3	-0.00071203447
131	0x3cfc6687	0.030810608
132	0xbbedd12b	-0.007257601
133	0x3c59b80f	0.013288512
134	0xbc2bbc94	-0.010481972
135	0xbc9509a1	-0.018193068
136	0xbb864d70	-0.0040985867
137	0xbc49d507	-0.012318856
138	0xbadc5509	-0.001681001
139	0x3a9d17c5	0.0011985233
140	0x3c67ff05	0.0141599225
141	0xbae78b61	-0.001766544
142	0x3c3a9853	0.011388856
143	0xbce24d84	-0.027624853
144	0xbc0e785b	-0.008695687
145	0xbb05e879	-0.0020432754
146	0xbc9b024f	-0.018922
147	0xbc7c1fca	-0.0153884385
148	0x39144d0b	0.0001414308
149	0xba7a125e	-0.000953948
150	0x3c96876c	0.018375121
151	0xbc2e4401	-0.010636331
152	0xbbd66c5a	-0.006543678
153	0x3b190913	0.0023351356
154	0xbaea2719	-0.0017864435
155	0xb9f79c9a	-0.00047228188
156	0xbccc830b	-0.02496483
157	0x3c8f274c	0.017474793
158	0x3bd758d0	0.0065718666
159	0x3c7d89e8	0.015474774
160	0x3b2c6af4	0.0026308866
161	0x3b428ea9	0.0029687083
162	0xbc37ea29	-0.011225262
163	0x3c498951	0.012300805
164	0xbb88fdf2	-0.0041806633
165	0xbd41c0ff	-0.047303196
166	0xbc106001	-0.008811952
167	0x3bc26ab2	0.005933129
168	0xbb95a077	-0.004566248
169	0x3be93e39	0.007118013
170	0x3b83dea5	0.004024344
171	0xbc213914	-0.009840269
172	0xbc0b68cb	-0.008508871
173	0x3c44e169	0.012016633
174	0x3b94b4a5	0.004538136
175	0xbc2b902c	-0.010471385
176	0x3c0a8995	0.008455654
177	0x3d04bdba	0.0324075
178	0xbb40b78b	-0.0029406275
179	0x3c4be88d	0.012445581
180	0xbc15e637	-0.009149126
181	0xbc1f5b57	-0.009726367
182	0x38cd5683	9.791276e-05
183	0x3c8c7fc8	0.017150775
184	0xbcab9683	-0.020945793
185	0x3ba503e8	0.005035866
186	0x3c4c7796	0.012479683
187	0x3b23a9f4	0.0024973126
188	0x3cdbdb4e	0.026837971
189	0x3ba6e5ac	0.005093297
190	0xbcb0ebc3	-0.021596795
191	0xbab23876	-0.0013597149
192	0xbc0cbb77	-0.008589617
193	0xbb4f8bcf	-0.0031669026
194	0x3c8c0407	0.017091764
195	0x3c6926fa	0.014230484
196	0xbc6eb949	-0.014570543
197	0xbbaf1a39	-0.005343702
198	0x3d06bdbe	0.032895796
199	0xbc43c5b0	-0.011948988
200	0x3aa6201a	0.0012674362
201	0x3d7ac9ea	0.061227717
202	0x3b14f48c	0.002272877
203	0x3cf32da3	0.029684847
204	0xbb050bb6	-0.002030117
205	0xba070375	-0.00051503564
206	0xbc5e5883	-0.0135709075
207	0x3bc8b58e	0.0061251586
208	0xbc0a8b3a	-0.008456046
209	0xbc074bff	-0.008257865
210	0x3c15580e	0.009115232
211	0xbb207ca2	-0.002448835
212	0x3bdeb145	0.0067960345
213	0x3aee9c88	0.0018204609
214	0xba5b9ad7	-0.000837726
215	0xbb4d5ac6	-0.0031334623
216	0xbc96bcb1	-0.018400522
217	0xbbf2d92a	-0.007411142
218	0x3c115033	0.008869219
219	0xbc61d204	-0.013782982
220	0x3bf4667b	0.0074585057
221	0x3c6286ea	0.013826111
222	0x3ba9af23	0.0051783486
223	0x3c910138	0.017700776
224	0x3bdbe418	0.0067105405
225	0xbab96aca	-0.0014146206
226	0x3c97bd6e	0.018522944
227	0xbb76c536	-0.0037654168
228	0x38fe84e3	0.00012136416
229	0xbaf278aa	-0.0018499095
230	0x3c14f618	0.009091876
231	0x3c41ba7e	0.011824248
232	0xbb9a4814	-0.0047082994
233	0x3bc790c7	0.006090257
234	0x3c85e796	0.01634578
235	0x3c5db1d7	0.01353117
236	0x3bafc8b2	0.005364501
237	0xbc21c885	-0.009874468
238	0xbb82f917	-0.003996979
239	0x3c8fb17c	0.017540686
240	0x3c771998	0.015081786
241	0x3bab685a	0.0052309455
242	0xbb9f1057	-0.004854243
243	0x3ba21af7	0.004947062
244	0xbca17323	-0.019708222
245	0x3c9e071c	0.0192905
246	0x3b22a055	0.0024814804
247	0x3990c12a	0.0002760974
248	0xbb836289	-0.004009549
249	0x37d65033	2.5548134e-05
250	0x3bda3402	0.006659032
251	0xba97eb6f	-0.001159055
252	0xbc6d76a3	-0.014493617
253	0x3b1844e0	0.0023234412
254	0xbd5feb11	-0.054667536
255	0xbc821eaa	-0.015883762

action_model._discrete_distribution.branches.0.bias f4 [3]
0	0xbde0d485	-0.10978035
1	0xbda52133	-0.08062973
2	0x3e3b2edc	0.18279594

action_model._discrete_distribution.branches.1.weight f4 [2, 128]
0	0x3cab34c0	0.020899177
1	0x3b83fc8b	0.004027908
2	0x3ad15080	0.0015969425
3	0xbd0ac1e8	-0.03387633
4	0xbcb25958	-0.021771118
5	0x3c0d7034	0.008632708
6	0x3d002a55	0.03129037
7	0xbc9c9404	-0.019113548
8	0xbca7f2d8	-0.02050154
9	0x3b6d85db	0.0036243114
10	0xbc6377de	-0.013883559
11	0xbc43f306	-0.011959797
12	0xb9ffcfb0	-0.0004879213
13	0x3c4b56b7	0.012410811
14	0x3c633bde	0.013869254
15	0x3cbb7005	0.022880564
16	0x3b071880	0.0020613968
17	0xbc0d3d16	-0.008620521
18	0x3b2addcc	0.0026072143
19	0x3b011b9f	0.0019700301
20	0x3c099d3f	0.008399307
21	0x3be0423b	0.006843833
22	0xbcd690b9	-0.026192056
23	0x3c56da43	0.013113561
24	0xbbefd424	-0.0073189903
25	0x3c6f2838	0.014596991
26	0xbb3de5fa	-0.0028976188
27	0x3c0a1829	0.008428612
28	0xbaadfb34	-0.0013273717
29	0x3c0be22e	0.008537812
30	0xbbc79245	-0.0060904347
31	0x3c8241e5	0.015900562
32	0xba9cb798	-0.0011956571
33	0x3c0408a2	0.008058699
34	0xbc5cbe23	-0.0134730665
35	0xbbc5641a	-0.006023896
36	0xbc017702	-0.007901909
37	0xbbc0d527	-0.0058847847
38	0x3b5b24d9	0.003343871
39	0xbc944e2c	-0.018103682
40	0xb80300f3	-3.1233718e-05
41	0x3c4c7c54	0.012480814
42	0xbc8ef6ff	-0.017451761
43	0xbb66a4db	-0.0035193476
44	0x3c7ce2ea	0.01543496
45	0xbc6737fa	-0.014112467
46	0x3a3ebedd	0.00072763656
47	0xbc82c786	-0.01596428
48	0x3c298d52	0.010348635
49	0xbb29b0f0	-0.0025892816
50	0x3b2c75fd	0.0026315444
51	0xbcc88133	-0.02447567
52	0xbc21f30c	-0.009884607
53	0xbc679b14	-0.014136095
54	0xbc01ad8f	-0.007914915
55	0xbc4b0328	-0.012390889
56	0x3cb8ced0	0.022559553
57	0xba746612	-0.0009323071
58	0xbaacd1a8	-0.0013185041
59	0x3c996454	0.018724598
60	0xbbae7249	-0.0053236824
61	0xbc5e5a81	-0.0135713825
62	0xbc4d46ed	-0.012529117
63	0x3c37f18d	0.011227024
64	0xbb7b20bf	-0.0038319079
65	0xb9c329e6	-0.00037224515
66	0x3a938230	0.0011254009
67	0x3b573425	0.0032837477
68	0x3c132dff	0.008983134
69	0xbb037028	-0.0020055864
70	0xbc39f148	-0.01134903
71	0xbb7b6e60	-0.003836535
72	0x39cc6a9a	0.00038989336
73	0xbcc36b5c	-0.023854904
74	0x3bf9c19c	0.007621957
75	0x3d57ea79	0.052713845
76	0xbc68642a	-0.014184037
77	0x3ab238eb	0.0013597285
78	0xbc6faee4	-0.0146290995
79	0xba00d311	-0.0004914264
80	0xbc217ec6	-0.009856885
81	0xbc08d37a	-0.008351201
82	0x3c232aef	0.009958967
83	0x3cebeef4	0.028800465
84	0x3b257afa	0.0025250302
85	0x3c4188f8	0.011812441
86	0xbae4384d	-0.0017411798
87	0x3ba6a5b7	0.0050856727
88	0x3c6080db	0.013702597
89	0xbb880a6e	-0.004151634
90	0xbc29d67c	-0.0103660785
91	0x3b69a468	0.0035650972
92	0xbabfb9bd	-0.0014627498
93	0x38ad68ab	8.268779e-05
94	0xbc5a5a58	-0.013327204
95	0xbaaf8247	-0.0013390266
96	0xbc8ed61d	-0.017436082
97	0xbb60df05	-0.0034312617
98	0x3bcaba0a	0.0061867284
99	0x3c8cc540	0.0171839
100	0xbc069df9	-0.008216375
101	0x3bf33be2	0.00742291
102	0xbb5ab7e9	-0.003337378
103	0x3c1ab87e	0.0094434
104	0xbc137c2c	-0.009001773
105	0x3c05de7e	0.008170722
106	0xbb864eb1	-0.004098736
107	0x3cb80791	0.022464545
108	0x3ce0d097	0.027443213
109	0xbc211db5	-0.009833743
110	0xbb42bfc3	-0.002971635
111	0xbab01f5e	-0.0013437083
112	0x3b5bc8dd	0.0033536472
113	0x3a5c75bf	0.00084098795
114	0x3c8e5a92	0.017377172
115	0x3cd97831	0.02654657
116	0xba8fe689	-0.0010978739
117	0xb94e5527	-0.00019677413
118	0x3c24fbd2	0.010069804
119	0xbb7b591a	-0.003835267
120	0xbc89e970	-0.016834944
121	0x3c41fa53	0.011839467
122	0x3c09581a	0.008382821
123	0xbb47125a	-0.0030375929
124	0x3c8a2db6	0.0168675
125	0xba18d086	-0.0005829412
126	0x3adf046d	0.0017014869
127	0x3ac49ed6	0.001500095
128	0xbbb79e9f	-0.005603626
129	0x3b7fa970	0.0039010905
130	0x3a778767	0.0009442479
131	0x3c13918f	0.009006872
132	0x3bcb9549	0.0062128645
133	0xbc7a4c96	-0.015277049
134	0xbcc047a8	-0.023471668
135	0xbbca508d	-0.006174153
136	0x3c118497	0.00888171
137	0xbba8ea2a	-0.0051548677
138	0x3c329c52	0.0109015275
139	0x3b269ada	0.0025421889
140	0x3ad32163	0.0016107972
141	0x3c153165	0.009106015
142	0xbc87787f	-0.01653695
143	0xbb5579dd	-0.0032573857
144	0x3c24d517	0.01006057
145	0x3c09c37f	0.008408426
146	0x3c37d812	0.011220949
147	0xbb4b9e78	-0.0031069797
148	0x3b6eab72	0.0036418107
149	0x3c4c76f1	0.01247953
150	0x3c42c9a1	0.011888892
151	0x3c964cf0	0.018347234
152	0x3b06aae3	0.0020548634
153	0xbcbee92a	-0.02330454
154	0x3bc2645b	0.0059323735
155	0x3a8ad31e	0.0010591482
156	0xbb1d238c	-0.0023977486
157	0xbc6cfb74	-0.014464248
158	0xbc95975a	-0.018260647
159	0xbbe26ff5	-0.006910319
160	0x3b9d342e	0.00479748
161	0x3b540b5d	0.0032355406
162	0x3c87f1b7	0.01659475
163	0x3cf18292	0.029481206
164	0x3aee17ca	0.0018165049
165	0x3cc61c3f	0.02418339
166	0x3bd96acf	0.006635047
167	0x3ca54d3f	0.020178435
168	0xbb3ef05b	-0.0029134962
169	0xbbe47d53	-0.0069729476
170	0x3c8f009c	0.017456345
171	0x3c5225f4	0.012826432
172	0x3c1dfc40	0.009642661
173	0x3c172880	0.009225965
174	0xbad1c6e3	-0.0016004707
175	0xba1623be	-0.0005727372
176	0x3c4597e1	0.0120601365
177	0xbc1fe8dc	-0.009760108
178	0x3bc6907c	0.0060597043
179	0x3c5d6c42	0.01351458
180	0xbadf851e	-0.0017053222
181	0x3c55876d	0.013032776
182	0xbbcce6d9	-0.006253105
183	0x3c87988e	0.016552236
184	0xbc754274	-0.014969457
185	0xbb8015cb	-0.003908848
186	0x3c021b58	0.00794109
187	0x3bcd27d8	0.0062608533
188	0x3c9801a2	0.018555466
189	0x3c3531cc	0.011059236
190	0x3b95b34d	0.0045684935
191	0xb95f964b	-0.00021322926
192	0xba8c106b	-0.0010686045
193	0x3c3c780f	0.011503234
194	0x3c3c26ec	0.011483889
195	0xbc320e9b	-0.01086774
196	0x3b980df7	0.0046403366
197	0x3c844c2a	0.0161496
198	0xbba23987	-0.0049507055
199	0xba96a916	-0.0011494483
200	0xba22fc83	-0.0006217437
201	0x3aa3ee71	0.0012506974
202	0x3b84c110	0.004051335
203	0xbd48cb57	-0.049022045
204	0x3c7d928c	0.015476834
205	0x3a8214f6	0.000992446
206	0xb98dd637	-0.00027053218
207	0xbbc3f0d7	-0.005979638
208	0xbc64cbaa	-0.013964573
209	0xbc9084cf	-0.017641453
210	0xbc1b99e3	-0.009497139
211	0xbb4ca573	-0.0031226545
212	0x3a8e1178	0.0010838946
213	0xbbb87a4c	-0.0056298133
214	0x3c5cdff0	0.013481125
215	0x3ca2910a	0.01984455
216	0xb8196d7b	-3.6580004e-05
217	0xbb91a41b	-0.0044446117
218	0x390c1620	0.00013359683
219	0x3c449a30	0.011999652
220	0xbb886a50	-0.004163064
221	0x392405f3	0.00015642475
222	0x3bf68b93	0.0075239628
223	0x3bd37000	0.0064525604
224	0xbc2a2f18	-0.010387205
225	0xbb8c3e42	-0.0042798826
226	0x3cec1b8b	0.028821727
227	0x3c036f9e	0.008022217
228	0x3be285ff	0.0069129462
229	0x3a8c1c39	0.0010689563
230	0xba31d613	-0.00067839137
231	0xbaf96fc0	-0.0019030496
232	0x3c827cea	0.015928704
233	0x3b2a109d	0.0025949844
234	0xbcb558ff	-0.022137163
235	0xbcd8031f	-0.026368676
236	0xbcf2a195	-0.029618064
237	0xbb322122	-0.0027180393
238	0xbc67181d	-0.01410487
239	0xbc0bf58c	-0.00854243
240	0xbb141e66	-0.0022601127
241	0x3bb3d1b5	0.0054876455
242	0x3b6ff1a2	0.003661253
243	0xbc99eb9a	-0.018789101
244	0x3c78e13b	0.015190418
245	0xbba55f99	-0.0050467965
246	0x3b2d17d5	0.002641191
247	0xbb4e8ebd	-0.0031518184
248	0x3bf349bd	0.007424562
249	0x3bafa6b8	0.0053604506
250	0x3c1a505a	0.009418571
251	0x3bf71333	0.0075401305
252	0x3b9d53ae	0.004801235
253	0xbb189c36	-0.0023286468
254	0x3d01a3eb	0.031650465
255	0xbc2f0d24	-0.010684285

action_model._discrete_distribution.branches.1.bias f4 [2]
0	0xbd8a95a4	-0.06766823
1	0x3d8a95a5	0.06766824

action_model._discrete_distribution.branches.2.weight f4 [3, 128]
0	0x3c56defe	0.013114689
1	0xbc821cf1	-0.015882941
2	0x3b9f2f38	0.004857924
3	0x3c59ebac	0.013300817
4	0xbca95439	-0.020670043
5	0x3c7207ed	0.0147723975
6	0xbbb07d04	-0.005385997
7	0x3c1054b8	0.008809261
8	0x3cd92bcf	0.026510147
9	0x3bda528a	0.0066626715
10	0x3b87173f	0.004122644
11	0x3b99322d	0.004675171
12	0xbb59c2c3	-0.003322766
13	0x3b1965c3	0.0023406602
14	0xbb04dc65	-0.0020272967
15	0xbc5028a9	-0.012705007
16	0xbc80ae8d	-0.015708232
17	0x3c88fbdf	0.016721664
18	0xbc85cabe	-0.016332027
19	0x3c10a0a2	0.00882736
20	0xbc32e8fa	-0.010919804
21	0xbb0d02bb	-0.002151652
22	0x3c33fad3	0.010985094
23	0x3c2313df	0.009953468
24	0xbb660575	-0.0035098467
25	0xbbde1798	-0.006777715
26	0x3b14f578	0.0022729319
27	0xbbf6c000	-0.0075302124
28	0x3bc52222	0.006016032
29	0xbc28f8ea	-0.010313252
30	0xbc2a97db	-0.010412182
31	0x3c39ee7f	0.011348366
32	0xbb7850a2	-0.0037889858
33	0x3c24f9c4	0.010069314
34	0x3bcebd09	0.006309156
35	0xbce36251	-0.027756842
36	0xb98bdcae	-0.00026676565
37	0x3cd0fc07	0.025510801
38	0xb8b33251	-8.544757e-05
39	0x3c90f93d	0.017696971
40	0x3bfc31a5	0.007696348
41	0x3bc803fb	0.00610399
42	0xbca2f4fc	-0.019892208
43	0x3c1c3856	0.009534916
44	0xbbc04104	-0.0058671255
45	0xbbee0e30	-0.007264875
46	0xbc261313	-0.010136384
47	0x3c01d977	0.007925383
48	0x3cdc0b9e	0.026861008
49	0x3c6325ae	0.013863964
50	0xbc9d2f73	-0.019187665
51	0x3b87d048	0.004144702
52	0x3c29c4a6	0.010361826
53	0x3cbfc407	0.023408903
54	0xbc57f309	-0.013180503
55	0x3b04dfaf	0.0020274927
56	0xbba0f357	-0.004911821
57	0xbc4a69ca	-0.012354324
58	0xbc69d2a2	-0.01427141
59	0x3cc38bdc	0.023870401
60	0x3b9beeb0	0.0047586784
61	0x3bc0a285	0.005878749
62	0x3aa5dd14	0.0012654387
63	0xbb529daa	-0.0032137432
64	0x3ca6f3c3	0.020379907
65	0x3c9941f5	0.018708209
66	0x3bc4994d	0.00599972
67	0x3c492d53	0.012278873
68	0x3c01bf11	0.007919089
69	0x3bbbcf63	0.0057315095
70	0x3a897f23	0.001049016
71	0x3c168c70	0.009188756
72	0x3bf4805f	0.007461592
73	0x3c52d195	0.012867351
74	0x3b2fafbc	0.0026807627
75	0xbd09a453	-0.033603977
76	0x3b2f9edb	0.0026797566
77	0x3c3e19cd	0.011602831
78	0xbc4b6d69	-0.012416222
79	0xbba202ba	-0.0049441727
80	0xbc838f25	-0.016059468
81	0xbc09bc15	-0.008406659
82	0x3bc7cfc8	0.0060977675
83	0x3bd5ddb2	0.0065266723
84	0xb9e582fd	-0.00043775878
85	0xbc5f456f	-0.013627394
86	0xba65d763	-0.0008767752
87	0xb9d9c69c	-0.0004153744
88	0xbc0f5e5b	-0.008750523
89	0xbc8ee946	-0.017445218
90	0x3b014c8d	0.0019729466
91	0xbb0caabb	-0.0021464068
92	0x3c162b4b	0.009165595
93	0xbc132eab	-0.0089832945
94	0x3a900ed6	0.001099075
95	0xbbb09845	-0.0053892457
96	0xbc0ed1da	-0.008717025
97	0xbc8acf95	-0.016944686
98	0x3c6f0964	0.014589641
99	0xbc7bb5f0	-0.0153632015
100	0xbc89d23f	-0.016823886
101	0x3b9841ef	0.004646532
102	0x3a73412d	0.00092794263
103	0x39e1a5f9	0.00043039004
104	0x3c224b5d	0.009905663
105	0xbbd60797	-0.0065316665
106	0x3ba24107	0.0049515995
107	0x3b8451f2	0.004038089
108	0x3b35ac88	0.0027721245
109	0xbc9e56d2	-0.019328509
110	0xbae28d70	-0.0017284583
111	0x3cfb0ba3	0.030645197
112	0x3ba759c9	0.005107139
113	0x3b82fc8f	0.0039973925
114	0xbba9b3ca	-0.005178903
115	0xba9312d9	-0.0011220827
116	0x3c03be97	0.008041046
117	0x3c869619	0.016428994
118	0xbc03c4c3	-0.008042517
119	0x3bd23618	0.00641514
120	0x3ca4cb20	0.020116389
121	0x39ab2674	0.0003264431
122	0xbc8e8eac	-0.017402016
123	0xbc54fa70	-0.012999162
124	0x3b872fd9	0.004125577
125	0x3cadb370	0.021203727
126	0x3c5b031a	0.013367439
127	0xbaf0a66a	-0.0018360142
128	0xbca22e70	-0.019797534
129	0xb9baefd9	-0.00035655385
130	0x3c30bfe6	0.01078794
131	0x3d017de2	0.03161419
132	0xbcf570c9	-0.029961007
133	0xbc131807	-0.0089778965
134	0xbc0177c1	-0.007902087
135	0x3952fb7f	0.0002012085
136	0xbbd3220d	-0.006443268
137	0x3bffe22f	0.0078089456
138	0xbcb477ac	-0.02202972
139	0x3c99b381	0.018762352
140	0xbb5c92d4	-0.0033656852
141	0xbc314c44	-0.010821406
142	0xbc57c4fc	-0.013169523
143	0x3b26248d	0.0025351376
144	0x3c559796	0.013036629
145	0xbd0f5255	-0.034990627
146	0x3b295ec4	0.0025843838
147	0xbb912873	-0.0044298708
148	0xbbbc514e	-0.005746997
149	0xbbf195ac	-0.0073725786
150	0x3c43c3f3	0.011948573
151	0x3c82d4cb	0.015970608
152	0xbc83ea77	-0.016103012
153	0x3b8d56c2	0.004313321
154	0x3a736de4	0.00092860893
155	0xbbf050fb	-0.0073338724
156	0x3c9c9048	0.019111767
157	0x3cd949c5	0.026524434
158	0xba8dbf7c	-0.0010814513
159	0x3cc70651	0.024295004
160	0xb91b8b80	-0.0001483392
161	0x3c5e1e3e	0.013557015
162	0xbbce6543	-0.0062986924
163	0xbbd3955d	-0.0064570145
164	0xbbe21763	-0.0068997606
165	0x3c23d9cb	0.010000656
166	0x39f1af38	0.0004609765
167	0x3c14c3f2	0.00907992
168	0x3a803b78	0.0009783348
169	0xb9856fac	-0.0002545094
170	0x38bb31c4	8.9261244e-05
171	0xbc2e6292	-0.010643618
172	0x3c7885e9	0.015168645
173	0xbbf9800a	-0.0076141404
174	0xbb953cf5	-0.004554386
175	0x3bd667f6	0.006543155
176	0x3c1dad6c	0.0096238665
177	0x390f8d1c	0.0001369011
178	0x3c377e0b	0.011199485
179	0x3c43741c	0.011929538
180	0xbbdc52fd	-0.00672376
181	0x3c63ad4c	0.013896298
182	0x3c59b9eb	0.013288955
183	0xb9f0921a	-0.0004588522
184	0xbbd94d6a	-0.006631543
185	0x3ad81b22	0.0016487578
186	0x3be1fd37	0.0068966406
187	0xbc2ed5e6	-0.010671115
188	0x3bbd1dce	0.0057713753
189	0x39a3aac2	0.00031217007
190	0x3b5fecfd	0.0034168356
191	0xbc05b60c	-0.008161079
192	0x3aef9b0b	0.0018280459
193	0xbc46520f	-0.012104525
194	0xbc95fb34	-0.01830826
195	0xba42d354	-0.0007432003
196	0xbbeb391d	-0.0071784393
197	0xbc3e9f7a	-0.011634702
198	0xba472043	-0.0007596055
199	0x3c37cc94	0.011218209
200	0xbab3a133	-0.0013704657
201	0xbac58cef	-0.0015071909
202	0xbb03e58b	-0.0020125832
203	0x3cf6a976	0.030110102
204	0xbc3c8666	-0.011506652
205	0x3ca18cd3	0.01972047
206	0x3cb16fa6	0.021659683
207	0xbd027bc4	-0.031856313
208	0xbbe8f4f3	-0.0071092783
209	0xbbddd5ae	-0.0067698574
210	0x3bbf516f	0.005838565
211	0x3c008a84	0.007845525
212	0x3b0f5397	0.0021869892
213	0x3bdd7555	0.006758372
214	0xbc92e67a	-0.017932165
215	0xbcd39b3b	-0.025830856
216	0x3c77ba69	0.015120127
217	0xbb1beabe	-0.002379104
218	0xbba978d2	-0.0051718736
219	0x3c1cfca2	0.009581717
220	0xbbc492da	-0.0059989514
221	0xbac05cd9	-0.0014676108
222	0xbbcadfbd	-0.0061912225
223	0xbc3ee6db	-0.01165172
224	0xbc085771	-0.008321629
225	0xbc1eee94	-0.009700436
226	0xbc060c65	-0.008181666
227	0x3b827a0b	0.003981834
228	0x3c1a49c3	0.009417
229	0xbc76a7d2	-0.01505466
230	0x3b836f7c	0.0040110927
231	0x3d028583	0.031865608
232	0xbcc861fb	-0.024460783
233	0xb9e9b89e	-0.00044578774
234	0x3c7f86b6	0.015596082
235	0xba97955f	-0.0011564902
236	0x3b07d3bb	0.0020725566
237	0x3c30014e	0.010742499
238	0x3996ccfe	0.0002876296
239	0x3b4d3de2	0.0031317403
240	0xbc0b5176	-0.0085033085
241	0x3bda7fb3	0.006668055
242	0xbbc2123b	-0.0059225834
243	0xbc1b41f3	-0.009476173
244	0xbc7b032b	-0.0153205795
245	0x3c28b1bb	0.0102962805
246	0x3bc64427	0.006050605
247	0x3c4ed820	0.01262477
248	0x3cbd26e8	0.023089841
249	0xbbfb8015	-0.0076751807
250	0x3b69483d	0.0035596036
251	0xba69adc7	-0.00089141395
252	0xbc05c66a	-0.008164981
253	0x3ce05b7b	0.027387371
254	0xbcb9cf49	-0.02268185
255	0xbad99454	-0.0016599991

action_model._discrete_distribution.branches.2.bias f4 [3]
0	0xbc7df981	-0.015501381
1	0xbe8e6f0c	-0.27819097
2	0x3e8f837b	0.2803

action_model._discrete_distribution.branches.3.weight f4 [2, 128]
0	0x3c29c20b	0.010361205
1	0xbab2023c	-0.0013580988
2	0xbc02938e	-0.00796975
3	0xbcedcc7a	-0.029028166
4	0x3b4cc6aa	0.0031246343
5	0x3bc605b2	0.0060431594
6	0xbc3f56d1	-0.0116784135
7	0x3b722c49	0.0036952666
8	0x3bdc835e	0.0067295274
9	0xbc03c14b	-0.00804169
10	0x3d4e3dd0	0.050351918
11	0xbc00c65d	-0.0078597935
12	0xba03c73c	-0.00050269417
13	0xbc0b9b4e	-0.008520914
14	0xbc468066	-0.0121155735
15	0x3c864940	0.01639235
16	0x3b855a6e	0.004069618
17	0xbc468b72	-0.012118207
18	0xbbeafd5e	-0.007171317
19	0x3c94cccc	0.018164061
20	0x3c17e1fa	0.009270186
21	0xbc183eb7	-0.009292296
22	0xbb028910	-0.0019918121
23	0xbb9b5418	-0.0047402494
24	0x3bbf421e	0.005836739
25	0xbbe7212a	-0.007053514
26	0x39db6246	0.00041844154
27	0x3c9aa3ee	0.018876996
28	0x3b20010f	0.0024414693
29	0x3c7c29f4	0.015390862
30	0x3b9dde8c	0.0048177894
31	0x3c0a377c	0.00843608
32	0xbc9ca1c9	-0.019120114
33	0xba5ea26a	-0.00084928295
34	0xbc53be92	-0.0129238535
35	0x3a101107	0.00054957013
36	0x3c9754a7	0.018472983
37	0xbbec05d4	-0.007202843
38	0xbae18c2c	-0.0017207912
39	0xbc4f50b5	-0.012653519
40	0x3c399745	0.011327569
41	0x3bc877d7	0.0061178016
42	0xbc3382df	-0.010956495
43	0x3c7ab766	0.015302515
44	0x3b609a63	0.003427171
45	0x398dcd6f	0.00027046676
46	0x3c76201c	0.015022304
47	0x3c0865a6	0.008325016
48	0xb91bd5c9	-0.00014861593
49	0x3c8daa9d	0.017293269
50	0xbbb34230	-0.0054705366
51	0x3bd180ca	0.0063935267
52	0xbb294289	-0.0025827012
53	0x3a99748f	0.0011707711
54	0x3b7d0370	0.0038606785
55	0x3c213010	0.009838119
56	0xbc4f1e2c	-0.012641471
57	0xbbacaa03	-0.0052692904
58	0xbb34cc64	-0.0027587647
59	0xbaa3ca07	-0.0012496122
60	0x3c9fd485	0.019510517
61	0xbc283844	-0.010267321
62	0x3bd32172	0.006443196
63	0x3c624b9a	0.01381197
64	0x3ab7a63d	0.0014011335
65	0x3c197233	0.009365606
66	0xbc19d1c0	-0.009388387
67	0xbc33df0e	-0.010978473
68	0x3c403be6	0.011733031
69	0xbc01ac5e	-0.007914631
70	0x3ca42b66	0.020040225
71	0x3c2967f3	0.010339725
72	0x3b660c1a	0.0035102428
73	0xbbc5402a	-0.006019612
74	0xbc63e8bb	-0.013910468
75	0x3c869590	0.016428739
76	0xbc64eeb8	-0.013972931
77	0x3bd8af79	0.006612715
78	0xbc3e9ad0	-0.01163359
79	0x3c64e3a6	0.013970291
80	0x3bb91caf	0.0056491713
81	0xbbcee9ff	-0.0063145156
82	0xbc1555d0	-0.009114698
83	0x3c770e7a	0.015079135
84	0x3a7676b1	0.00094018417
85	0xbb658703	-0.00350231
86	0xbb180fdd	-0.0023202815
87	0xbb8595a8	-0.0040766783
88	0x3cb29daf	0.021803705
89	0x3c259f9a	0.010108853
90	0xbc1ae533	-0.009454059
91	0x3c1561fd	0.0091176005
92	0x3c9fed81	0.01952243
93	0x3bbbcfe6	0.0057315705
94	0xbbdb7c0b	-0.0066981367
95	0x3bfde93a	0.00774875
96	0xbaafe5dd	-0.0013419945
97	0x3c371b6b	0.011175971
98	0x373a2fd2	1.1097598e-05
99	0x3c06e369	0.00823293
100	0x39cacc06	0.00038680452
101	0x3b42d993	0.0029731735
102	0x3c533831	0.012891815
103	0xb99dde0a	-0.00030110806
104	0x3c0beba8	0.008540072
105	0x3bd6b801	0.0065526967
106	0xbb176c4a	-0.0023105317
107	0xbc240cf7	-0.010012857
108	0xbc4494e6	-0.011998391
109	0x3a85201a	0.0010156662
110	0xbc2b5009	-0.010456094
111	0x3c01560b	0.007894049
112	0xbb0bfd75	-0.002136079
113	0x3b77ca62	0.0037809839
114	0xba0b619c	-0.0005316974
115	0x3a3eb3f4	0.000727474
116	0x39e710b4	0.00044072198
117	0x3c417094	0.011806626
118	0xbb9033e4	-0.004400717
119	0xbc61545a	-0.013753021
120	0xbb710e37	-0.0036782154
121	0x3abef4a3	0.0014568757
122	0x3b497883	0.0030741997
123	0x3a8c7a2b	0.0010717561
124	0x3ca0cd37	0.019629104
125	0x3b1e895b	0.0024190757
126	0x3c5762cd	0.013146115
127	0x3c227b1b	0.009917046
128	0xbb9b7460	-0.0047440976
129	0xbc05de1e	-0.008170633
130	0x3cd7d57a	0.02634691
131	0x3b653b8e	0.0034978124
132	0x3ab60f68	0.001389009
133	0xbc459260	-0.012058824
134	0x3adef079	0.0017008922
135	0xbbd78e49	-0.006578241
136	0xb86ac033	-5.5968947e-05
137	0x3b3fcd74	0.0029266747
138	0xbcc39119	-0.023872899
139	0x3b1914a4	0.002335825
140	0x3ac6ada7	0.0015157954
141	0xbc6d1b87	-0.014471895
142	0x3c2c2845	0.010507648
143	0xbb191b57	-0.0023362243
144	0x3b0d3754	0.002154787
145	0x3c7869c4	0.015161935
146	0xbca30cf8	-0.019903645
147	0xbc059600	-0.008153439
148	0xbc408bad	-0.011752051
149	0xba8ef782	-0.0010907503
150	0x3c41ec77	0.011836163
151	0x3b95f370	0.004576139
152	0x3c408f7b	0.011752958
153	0xbbd1cc83	-0.0064025535
154	0x3951e893	0.00020018434
155	0xbbf345d8	-0.0074240975
156	0xbb91d8cf	-0.0044508944
157	0xbc58fc30	-0.01324372
158	0xbb851796	-0.0040616496
159	0xbc93664d	-0.017993117
160	0xbcbf517f	-0.02335429
161	0xbb7cb1a2	-0.0038558026
162	0x3caef3c8	0.021356478
163	0xbafa62ff	-0.001910299
164	0xbc720b78	-0.014773242
165	0x3a4ba206	0.0007767979
166	0x3a8277d6	0.0009953927
167	0x3c5c95a0	0.013463408
168	0xbbd1f535	-0.006407405
169	0xbc03170f	-0.008001103
170	0x3c59846d	0.013276202
171	0x3a48ea7c	0.00076643354
172	0x3999ae98	0.00029312517
173	0x3bb8ae23	0.005635993
174	0xbb3a23c1	-0.0028402659
175	0xbb85d159	-0.004083794
176	0xbc192fd9	-0.009349787
177	0xbbda3786	-0.006659451
178	0x3b0d42a7	0.002155462
179	0xbca4109a	-0.020027447
180	0x3c4687f0	0.012117371
181	0x3bc12a3a	0.0058949264
182	0xbc07250a	-0.008248577
183	0xbbea5384	-0.007151069
184	0xba2bde59	-0.00065562647
185	0xbc55d36f	-0.013050898
186	0xbca2e411	-0.019884141
187	0x3b29d553	0.0025914505
188	0x39da4226	0.00041629485
189	0x3c5bfa81	0.013426424
190	0xbc28f277	-0.010311714
191	0xbc2d7aa6	-0.010588324
192	0x3cbf9fdb	0.023391655
193	0xbcb65519	-0.022257375
194	0x3c9ff8a9	0.01952775
195	0xbbfa30ce	-0.0076352125
196	0xbc3db650	-0.011579111
197	0x3bf7f89d	0.007567479
198	0xbc1aeb00	-0.009455442
199	0x3b555113	0.0032549545
200	0x3ca01568	0.019541457
201	0x3ca4d143	0.020119315
202	0xba415717	-0.0007375343
203	0xbac647ee	-0.0015127638
204	0x3c07b2c8	0.008282371
205	0xba7f32c2	-0.00097350415
206	0xbb9af9da	-0.0047294917
207	0xbc4184b1	-0.011811421
208	0x3bccf59d	0.0062548653
209	0xbbd3f22b	-0.0064680777
210	0xbc083206	-0.008312708
211	0xbca945cb	-0.020663163
212	0x3bc4e2c1	0.0060084765
213	0xbbb4e560	-0.0055205077
214	0xbc3f8f1f	-0.011691838
215	0x3c9acaa5	0.018895457
216	0x3b6a2af3	0.0035731166
217	0xbbd0d2eb	-0.0063727996
218	0x3c103f29	0.008804121
219	0xbc0138fb	-0.00788712
220	0xbc54c62f	-0.012986704
221	0xbc054385	-0.008133774
222	0xba894eb4	-0.0010475726
223	0x3c951687	0.018199218
224	0xbc0905c0	-0.008363187
225	0xba0f6c55	-0.000547116
226	0xbc26055e	-0.010133116
227	0xba444b4c	-0.0007488027
228	0x3ad7c54a	0.0016461995
229	0xb8395432	-4.418585e-05
230	0xbc269fd9	-0.010169947
231	0x3c1aff42	0.009460272
232	0xbc21097e	-0.009828923
233	0xbbe5eae0	-0.0070165247
234	0x3beb8cc4	0.0071884114
235	0x3bc1f8fc	0.005919574
236	0x3bd89ff9	0.006610867
237	0x3beee86f	0.007290892
238	0x3b169bc6	0.0022981032
239	0xbb67e18a	-0.0035382234
240	0xbbb4347c	-0.0054994207
241	0xbc9534bb	-0.01821362
242	0x3c89ebd6	0.016836088
243	0xbc3057e8	-0.010763146
244	0x3a23bc2e	0.00062459975
245	0xbb55767f	-0.003257185
246	0x3b81dcb4	0.0039630774
247	0x3abf2356	0.0014582674
248	0xbc095758	-0.008382641
249	0xbc36f52c	-0.011166852
250	0xbc1ac52c	-0.0094464235
251	0x3bb746f9	0.0055931774
252	0xbbb1a0a3	-0.0054207607
253	0xbc4628da	-0.012094701
254	0x3c3dc4a9	0.011582532
255	0xb7eea790	-2.8449838e-05

action_model._discrete_distribution.branches.3.bias f4 [2]
0	0x3db4ec39	0.088341184
1	0xbdb4ec3a	-0.08834119
