Assets/results/OuiTank/TankLearningAI/checkpoint.pt (torch, 700130 bytes, 58 tensors)

discrete_act_size_vector f4 [1, 5]
3.0 2.0 3.0 2.0 2.0
00000000: 0000 4040 0000 0040 0000 4040 0000 0040
00000010: 0000 0040

network_body._body_endoder.seq_layers.0.weight f4 [128, 82]
0.13137373 -0.114756174 0.0915158 0.08826536 0.042388458 0.15918472 0.076583885 -0.10816037
0.13248737 0.019839082 0.23490633 -0.051538046 0.008962013 -0.23101723 -0.004435586 -0.15758128
0.14984055 0.019790713 0.17755601 0.12542836 0.024147434 0.10695485 -0.045491688 -0.07645097
0.035735767 -0.1835999 -0.087919846 -0.12017338 -0.08737274 -0.119213805 0.04415566 0.045164056
0.07757909 -0.0056012645 0.11062215 0.14963844 -0.112032555 0.025729526 0.05453339 0.23555934
0.03918364 -0.0514916 -0.05899448 0.08796089 -0.12530252 -0.039032694 0.17372642 -0.043827508
-0.07601689 0.061554782 -0.059341796 -0.15362181 0.01761426 -0.014649874 0.18244548 -0.06804132
-0.07065376 -0.00018287232 0.044320576 0.031166773 -0.1454706 0.12818542 -0.031931974 0.007291479
-0.01160512 0.081349045 -0.12641327 -0.05080029 0.09167636 0.18433946 -0.09246831 0.004911723
-0.077693254 0.13971469 0.04697696 -0.044959385 0.00015575287 0.015348971 -0.038468305 -0.102538794
-0.12488331 -0.07524454 -0.033718638 -0.17623296 0.2655644 0.005122382 -0.049437374 0.006209835
-0.08312483 0.08589628 0.05741095 -0.11836427 0.008319807 0.02326915 0.018433223 -0.07230458
-0.019238321 -0.18471801 0.000187144 -0.11748899 -0.059720993 -0.18849711 -0.06094203 0.06692214
-0.005067542 -0.057475246 0.18213162 -0.082684904 -0.038650293 -0.1590522 -0.061328907 -0.08904373
0.24429564 0.06872964 0.1985602 0.041652177 -0.021052886 0.0023702523 -0.08739327 -0.10436125
-0.037508264 -0.057386 -0.009698468 0.017115755 0.031800214 0.14851661 0.034221098 0.08942381
0.094102204 -0.036385413 0.044932786 0.06277801 0.054769788 -0.023906685 0.11174464 -0.061752178
-0.105235666 0.16801542 0.15743762 -0.12074807 -0.03283185 0.028996566 0.23681375 -0.23103406
0.1601694 0.0026089062 -0.10078619 -0.14942174 -0.008672953 0.18675295 0.0018081944 0.053040396
-0.15946665 0.017938985 0.05978652 0.02250471 0.042884625 0.08365897 -0.19298959 -0.1254689
0.02903388 0.015732417 0.09200692 -0.10898069 -0.12803054 0.0764802 0.15194246 0.028162926
-0.08263728 -7.683864e-05 0.23530695 -0.01585411 -0.042510837 -0.035882857 -0.12458455 0.09996029
0.03099003 -0.15668687 0.19595443 0.05910459 0.018887868 -0.13136587 -0.08096097 0.0072256173
0.124866955 -0.016804807 0.069319956 0.089333214 0.016402395 0.02249259 -0.12637712 0.048410714
-0.008516328 -0.024872314 0.10760633 -0.007634053 -0.04354996 -0.26227957 -0.07806736 0.055563886
-0.009264245 -0.114427544 -0.15799339 -0.09275531 0.14350607 -0.2028454 -0.056183334 -0.02770309
0.06012324 0.042115923 0.01387356 0.029906606 0.029270958 -0.32493293 0.04381896 0.14838232
0.013007391 -0.26146227 0.05045236 0.05903814 -0.022592066 -0.075940624 -0.09697779 0.03271155
-0.1070429 0.055175953 0.0067777736 -0.28099832 0.03511942 0.098153114 0.05934994 0.073795855
0.07673666 0.034659646 0.033819653 -0.2194095 0.015349654 -0.20717603 0.119204916 0.15556988
-0.19316186 -0.0216229 0.17328906 0.0019843753 -0.046613358 -0.08147868 -0.041334305 -0.023319222
-0.18675643 0.053937733 0.1234527 -0.13991119 0.00362007 0.07307703 -0.10692907 0.12070745
00000000: d686 063e 4905 ebbd a36c bb3d 78c4 b43d
00000010: 859f 2d3d 5201 233e 03d8 9c3d 2f83 ddbd
00000020: c5aa 073e 9285 a23c 498b 703e 8f19 53bd
00000030: 68d5 123c c88f 6cbe 6458 91bb fd5c 21be
00000040: cd6f 193e 2220 a23c 3ed1 353e 4b70 003e
00000050: d7d0 c53c 250b db3d 7e55 3abd 5392 9cbd
00000060: ab5f 123d 9d01 3cbe 520f b4bd 761d f6bd
00000070: 7bf0 b2bd 5e26 f4bd 91dc 343d f2fd 383d
00000080: c9e1 9e3d d08a b7bb de8d e23d d23a 193e
00000090: 5371 e5bd bac6 d23c 675e 5f3d 7836 713e
000000a0: 067f 203d dbe8 52bd 32a4 71bd d724 b43d
000000b0: 4e4f 00be bfe0 1fbd 57e5 313e 7984 33bd
000000c0: beae 9bbd de20 7c3d 6210 73bd 094f 1dbe
000000d0: c84b 903c 0606 70bc fdd2 3a3e 3f59 8bbd
000000e0: ebb2 90bd 6ac1 3fb9 7e89 353d 7651 ff3c
000000f0: 3ff6 14be 0a43 033e 1acb 02bd 5ced ee3b
00000100: 6723 3ebc 549a a63d 7b72 01be f713 50bd
00000110: d1c0 bb3d 7cc3 3c3e 0660 bdbd 85f2 a03b
00000120: a41d 9fbd 5e11 0f3e ea6a 403d 5527 38bd
00000130: 9851 2339 407a 7b3c f190 1dbd dcff d1bd
00000140: d2c2 ffbd cf19 9abd 8e1c 0abd 6a76 34be
00000150: 0ff8 873e a8d9 a73b d87e 4abd df7b cb3b
00000160: 5a3d aabd 64ea af3d bf27 6b3d f768 f2bd
00000170: cd4f 083c f29e be3c 4501 973c 6c14 94bd
00000180: af99 9dbc b826 3dbe 163c 4439 119e f0bd
00000190: 009e 74bd 6305 41be 5a9e 79bd 7a0e 893d
000001a0: a00d a6bb 2a6b 6bbd b680 3a3e b456 a9bd
000001b0: c54f 1ebd 94de 22be 0534 7bbd 8f5c b6bd
000001c0: a328 7a3e 20c2 8c3d 5d53 4b3e 799b 2a3d
000001d0: 1a77 acbc 3c56 1b3b 3efb b2bd 5abb d5bd
000001e0: 44a2 19bd 950d 6bbd 53e6 1ebc 5736 8c3c
000001f0: f140 023d bd14 183e 6c2b 0c3d d523 b73d
00000200: a8b8 c03d df08 15bd 710b 383d c291 803d
00000210: 4956 603d f4d7 c3bc 60da e43d daef 7cbd
00000220: cc85 d7bd 3c0c 2c3e 5437 213e c44a f7bd
00000230: b17a 06bd 358a ed3c 4e7f 723e 3194 6cbe
00000240: 7203 243e 2ffa 2a3b fd68 cebd 0302 19be
00000250: 0019 0ebc 2a3c 3f3e f000 ed3a e340 593d
00000260: 3a4b 23be c7f4 923c b6e2 743d cc5b b83c
00000270: caa7 2f3d 6555 ab3d 109f 45be eb7a 00be
00000280: 76d8 ed3c 45e1 803c 206e bc3d 4531 dfbd
00000290: 701a 03be a7a1 9c3d ce96 1b3e f0b5 e63c
000002a0: bc3d a9bd 6e24 a1b8 4ef4 703e 7ae0 81bc
000002b0: d81f 2ebd e7f9 12bd 2f26 ffbd fbb7 cc3d
000002c0: cede fd3c 8672 20be 47a8 483e a817 723d
000002d0: bbba 9a3c c684 06be ddce a5bd dfc4 ec3b
000002e0: 3fba ff3d 3caa 89bc 9ff7 8d3d 55f4 b63d
000002f0: 515e 863c 6142 b83c 0169 01be 504a 463d
00000300: 1288 0bbc 06c1 cbbc b560 dc3d 1427 fabb
00000310: 7161 32bd 8249 86be c8e1 9fbd f596 633d
00000320: 0fc9 17bc fd58 eabd 05c9 21be 7ff6 bdbd
00000330: 41f3 123e b4b6 4fbe 7f20 66bd 97f1 e2bc
00000340: c943 763d bf81 2c3d ee4d 633c b3fe f43c
00000350: a6c9 ef3c 9c5d a6be 837b 333d 89f1 173e
00000360: f41c 553c 62de 85be 22a7 4e3d fad1 713d
00000370: ff12 b9bc c286 9bbd 4b9c c6bd 8cfc 053d
00000380: 4f39 dbbd 2e00 623d 1618 de3b 03df 8fbe
00000390: 62d9 0f3d 8004 c93d ec18 733d 4822 973d
000003a0: 1c28 9d3d 46f7 0d3d 7a86 0a3d e2ac 60be
000003b0: 1d7d 7b3c f425 54be b521 f43d b64d 1f3e
000003c0: 39cc 45be 8222 b1bc b072 313e 4b0c 023b
000003d0: a6ed 3ebd 4bde a6bd 294e 29bd f407 bfbc
000003e0: 143d 3fbe d0ed 5c3d c5d4 fc3d e144 0fbe
000003f0: b23e 6d3b 69a9 953d a1fd dabd 7835 f73d

network_body._body_endoder.seq_layers.0.bias f4 [128]
-4.6800066e-21 1.4650251e-37 0.034765545 -0.025348261 5.730199e-09 1.8609542e-09 2.643069e-23 -0.00250525
0.025818115 0.0051598116 -0.0120694265 -0.0015015713 -0.011830948 -0.014902933 -3.1061982e-14 -0.0048241722
-0.07223095 0.008970969 2.8229665e-06 -0.009164659 -0.020309504 1.7725849e-06 -6.3072582e-21 -0.02170452
-1.0395982e-25 0.050502516 -0.014325411 0.010542482 -2.1735854e-18 0.020656615 8.792366e-12 -0.024992332
-0.01942303 -0.010483073 0.038605172 -0.015375769 -1.6090671e-09 -0.033331204 0.0 -0.030180663
0.0241195 -0.019665223 -0.012314371 0.02019517 -0.025083918 -0.026003506 0.06394221 -0.04549075
1.0224353e-06 -0.042632867 -0.028215958 -7.3196955e-11 -0.0077882465 0.00075621606 0.0130623 -0.020174734
5.620699e-20 -0.06762423 -1.0374312e-06 -0.023922816 4.7199462e-12 0.011126797 0.001223274 -0.04125565
1.546102e-06 0.047446072 0.0 0.01560154 -0.029114446 0.0028230792 0.008123299 -5.3170895e-17
0.016198287 -0.026057668 -0.02385018 -0.0040675458 -0.030121306 -0.012638124 -0.06548787 0.008717543
-0.024830775 -0.008604096 0.020339912 -0.012034107 6.92333e-36 -0.021089789 -0.0029281618 0.040083036
0.007463044 -8.98979e-10 -1.1497251e-05 2.5154437e-10 -0.03593142 -2.3764504e-09 -3.798903e-05 -0.018100945
0.009223971 -0.014100589 -0.012281579 -0.02652779 0.009167574 -0.031586584 0.0001909147 -0.023951221
0.002828506 0.001876447 -0.013605117 0.0026191408 0.043736923 -0.018846504 0.0 -0.028534546
-0.033480905 -0.007870044 -0.04754648 -0.03912354 -7.809292e-29 -2.1566339e-10 -0.09187452 1.3856665e-06
-0.0012397161 4.3355716e-15 -0.020022865 -0.01253864 -0.009023268 -0.026898969 -0.043700885 -0.016908664
00000000: 3fce b09d ad68 4702 5166 0e3d 28a7 cfbc
00000010: 5de3 c431 81c4 ff30 389f ff19 1f2f 24bb
00000020: 8380 d33c a313 a93b d8be 45bc 5fd0 c4ba
00000030: 98d6 41bc 6e2b 74bc 07e4 0ba9 1714 9ebb
00000040: d2ed 93bd f9fa 123c 3272 3d36 5e27 16bc
00000050: 1e60 a6bc 8ee9 ed35 0f48 ee9d adcd b1bc
00000060: 2fb2 0096 badb 4e3d 21b5 6abc 60ba 2c3c
00000070: de61 20a2 1038 a93c 4cad 1a2d b8bc ccbc
00000080: 0c1d 9fbc 32c1 2bbc 7520 1e3d a6ea 7bbc
00000090: 0426 ddb0 4d86 08bd 0000 0000 703d f7bc
000000a0: 4296 c53c f618 a1bc 37c2 49bc 5770 a53c
000000b0: ca7c cdbc 4e05 d5bc 22f4 823d 8254 3abd
000000c0: 9c3a 8935 cd9f 2ebd 2725 e7bc 39f6 a0ae
000000d0: 8c34 ffbb cd3c 463a 4203 563c 7c45 a5bc
000000e0: 0ab7 841f 937e 8abd dd3d 8bb5 c8f9 c3bc
000000f0: 7f11 a62c 2b4d 363c 4456 a03a affb 28bd
00000100: a983 cf35 d056 423d 0000 0000 9a9d 7f3c
00000110: 6b81 eebc 6903 393b 9617 053c 1d35 75a4
00000120: 45b2 843c e476 d5bc 7461 c3bc 0c49 85bb
00000130: f5c0 f6bc 2210 4fbc 811e 86bd 07d4 0e3c
00000140: e969 cbbc 32f8 0cbc e39f a63c b42a 45bc
00000150: 323e 1305 7ec4 acbc 67e6 3fbb 1c2e 243d
00000160: 8d8c f43b 061c 77b0 51e4 40b7 b949 8a2f
00000170: d32c 13bd f54e 23b1 6956 1fb8 6f48 94bc
00000180: 2320 173c 2806 67bc ad38 49bc cf50 d9bc
00000190: 9833 163c ef60 01bd 4630 4839 5a35 c4bc
000001a0: 755e 393b 1df3 f53a ffe7 5ebc e4a5 2b3b
000001b0: 7d25 333d fc63 9abc 0000 0000 48c1 e9bc
000001c0: 4623 09bd 5bf1 00bc 19c0 42bd 0140 20bd
000001d0: 34fd c590 d91f 6daf b528 bcbd 23fb b935
000001e0: f87d a2ba 9734 9c27 fe06 a4bc de6e 4dbc
000001f0: 54d6 13bc 3a5b dcbc b3ff 32bd 0a84 8abc

network_body._body_endoder.seq_layers.2.weight f4 [128, 128]
0.053475384 -0.014173745 -0.040867373 0.013442817 -0.03034734 -0.05542358 0.13074517 0.1748007
-0.14401345 0.06899651 0.14166926 -0.021503638 -0.15335736 -0.09052491 0.032260906 0.12827295
0.049496695 -0.17442003 -0.10375979 0.0036375332 0.014313106 -0.06501842 -0.02317723 0.008107954
-0.030480143 0.13993335 -0.06922691 -0.025150975 0.072606176 -0.09181271 -0.14792742 -0.05538848
-0.03988916 -0.06622534 -0.096332215 -0.107480705 0.007257194 0.08389835 0.021916207 -0.019679645
-0.13260598 -0.042580348 -0.07233726 -0.053299822 -0.16248848 -0.009197729 0.19327742 0.06507914
-0.015129737 -0.13665847 0.16901425 -0.0789091 0.023103395 0.0566743 -0.002295084 -0.10653592
-0.07311961 0.13951218 0.015969543 -0.11738677 -0.19173783 0.072250135 0.0021645376 0.073745064
-0.09711461 -0.051091727 0.15744068 -0.050835166 0.0008871828 -0.03373324 -0.0021685357 -0.095168956
0.017500892 0.0013576284 0.082821995 -0.25124356 -0.07086859 -0.000114280236 0.08550636 -0.14461477
-0.015935952 -0.052438635 0.048379533 -0.05976285 -0.07765811 -0.007274544 -0.05118806 -0.043555424
0.0057701333 -0.11434296 0.017207483 -0.1067214 0.089727044 -0.00027837374 -0.060856674 -0.05141261
-0.0025088422 -0.074105985 0.05875267 0.014004761 -0.039225675 0.03910788 -0.009794334 0.051627543
-0.008993984 0.21428972 0.055919956 -0.028157331 -0.015924707 0.031101806 -0.067887865 -0.2770623
0.032184966 -0.022592317 -0.110228635 -0.0026938175 0.028624834 0.035454344 -0.015090508 0.008054095
-0.006555513 -0.01889511 0.03591175 -0.06678579 0.14633249 -0.034461178 -0.059030924 -0.01076433
0.08632566 0.04749827 0.01842711 0.028220203 -0.08393946 -0.06672507 0.12575342 0.05284286
0.07361854 0.059078865 0.075002946 -0.0692381 0.007797749 -0.008185782 0.034669664 -0.05334612
-0.15987004 0.014492781 0.0544208 -0.08062655 0.040513713 0.068180315 -0.07899053 -0.038677968
-0.015671313 -0.0024406787 -0.065075494 0.009397243 0.029888824 -0.062922515 -0.07175467 -0.05210225
-0.007748432 -0.014858784 -0.07968634 0.048361782 0.0033747472 -0.07450579 0.086380914 0.08004708
-0.032184698 -0.035220746 0.029874185 0.016322967 0.02970964 0.07750651 -0.09875106 0.041021585
-0.008966866 0.062065843 -0.073898144 0.039377846 -0.054151144 0.088271156 0.044561915 -0.117137685
-0.13962568 0.18941453 0.021022206 0.03323513 -0.0578636 0.061612427 -0.06612448 -0.016169718
-0.045587353 0.047125164 0.044180688 -0.004415377 0.0012599352 0.14089166 -0.22097166 -0.12222902
-0.0071447273 0.08192518 -0.09134091 0.099045426 -0.025090436 0.19068079 0.039433643 0.10188632
-0.028767293 -0.13303326 -0.04671761 0.0016436008 -0.011707729 -0.01119305 -0.0071356003 0.07444567
-0.00042457978 -0.04846946 -0.056509234 0.0075805914 -0.04642265 -0.08488992 -0.087853335 -0.066323236
-0.1031304 -0.031046895 -0.08460719 0.038986824 -0.115075365 -0.08765353 -0.0746011 -0.0111119365
0.066917084 0.13648957 0.085930124 -0.09586113 0.121824935 -0.030587545 -0.008692099 -0.19730522
0.08565393 -0.014604658 0.06273354 -0.1236825 0.038405336 0.023649864 0.034758203 -0.04105235
0.061581135 0.17203929 0.08498111 0.13513573 -0.035095297 -0.028020382 -0.1877765 -0.045913223
00000000: 0109 5b3d ff38 68bc 8c64 27bd 433f 5c3c
00000010: fc9a f8bc d603 63bd 10e2 053e f4fe 323e
00000020: 4378 13be 0b4e 8d3d bf11 113e 6628 b0bc
00000030: b609 1dbe 2065 b9bd 0324 043d fc59 033e
00000040: 0cbd 4a3d 2a9b 32be 0380 d4bd ae63 6e3b
00000050: 8581 6a3c 6128 85bd 2dde bdbc 39d7 043c
00000060: 7eb1 f9bc b04a 0f3e d7c6 8dbd 6b09 cebc
00000070: 8cb2 943d 4d08 bcbd 497a 17be 08df 62bd
00000080: d162 23bd 27a1 87bd d349 c5bd d81e dcbd
00000090: c1cd ed3b e6d2 ab3d 9e89 b33c 3537 a1bc
000000a0: ddc9 07be bb68 2ebd 8f25 94bd ea50 5abd
000000b0: 6163 26be 12b2 16bc 84ea 453e 3648 853d
000000c0: b7e2 77bc 33f0 0bbe 1212 2d3e 189b a1bd
000000d0: 5543 bd3c 5023 683d 1f69 16bb 812f dabd
000000e0: bcbf 95bd 48dc 0e3e 8fd2 823c 7a68 f0bd
000000f0: ec56 44be e1f7 933d eada 0d3b a707 973d
00000100: 06e4 c6bd 8f45 51bd 2138 213e 8938 50bd
00000110: d491 683a de2b 0abd fe1d 0ebb f1e7 c2bd
00000120: 085e 8f3c 73f2 b13a 949e a93d ffa2 80be
00000130: 8d23 91bd bca9 efb8 f51d af3d e515 14be
00000140: 1d8c 82bc e5c9 56bd 9e29 463d e4c9 74bd
00000150: 370b 9fbd 4c5f eebb 92aa 51bd 2c67 32bd
00000160: 6313 bd3b a42c eabd b5f6 8c3c c090 dabd
00000170: d0c2 b73d b1f2 91b9 d944 79bd 0796 52bd
00000180: 636b 24bb e1c4 97bd a4a6 703d 3a74 653c
00000190: 1aab 20bd 962f 203d 6a78 20bc 6777 533d
000001a0: 815b 13bc c46e 5b3e 530c 653d 34aa e6bc
000001b0: 8874 82bc 37c9 fe3c cb08 8bbd 1cdb 8dbe
000001c0: 62d4 033d 8613 b9bc 8dbf e1bd c28a 30bb
000001d0: a17e ea3c 9338 113d 2e3e 77bc 53f5 033c
000001e0: a1cf d6bb ebc9 9abc 3318 133d fdc6 88bd
000001f0: 2fd8 153e 2a27 0dbd 69ca 71bd df5c 30bc
00000200: 82cb b03d 8c8d 423d 73f4 963c 0e2e e73c
00000210: 74e8 abbd 27a7 88bd 81c5 003e c171 583d
00000220: 51c5 963d aefc 713d 259b 993d b4cc 8dbd
00000230: 4284 ff3b a81d 06bc c701 0e3d 7681 5abd
00000240: f9b4 23be 2173 6d3c 58e8 5e3d 881f a5bd
00000250: b5f1 253d 1fa2 8b3d c9c5 a1bd ca6c 1ebd
00000260: 2061 80bc cbf3 1fbb 4d46 85bd e5f6 193c
00000270: 68d9 f43c 85dd 80bd 1df4 92bd 2b69 55bd
00000280: 8fe6 fdbb 4272 73bc 9832 a3bd 0117 463d
00000290: dd2a 5d3b 7e96 98bd 7ae8 b03d b9ef a33d
000002a0: 1ad4 03bd a143 10bd b5ba f43c beb7 853c
000002b0: a261 f33c bcbb 9e3d ff3d cabd 4006 283d
000002c0: c3e9 12bc c138 7e3d e957 97bd aa4a 213d
000002d0: 97cd 5dbd 82c7 b43d 8e86 363d e2e5 efbd
000002e0: 09fa 0ebe e2f5 413e c336 ac3c 8f21 083d
000002f0: 6202 6dbd 505d 7c3d 456c 87bd 5b76 84bc
00000300: ceb9 3abd 5106 413d cff6 343d deae 90bb
00000310: 6924 a53a e745 103e 6546 62be 3553 fabd
00000320: 511e eabb 64c8 a73d f110 bbbd 54d8 ca3d
00000330: 758a cdbc d341 433e 2c85 213d c6a9 d03d
00000340: 63a9 ebbc df39 08be f75a 3fbd 176e d73a
00000350: c6d1 3fbc 0e63 37bc c1d1 e9bb f976 983d
00000360: 229a deb9 ea87 46bd 3a76 67bd 9c66 f83b
00000370: ad25 3ebd c4da adbd 73ec b3bd 7ad4 87bd
00000380: 0836 d3bd 0f56 febc 8946 adbd a6b0 1f3d
00000390: a2ac ebbd b283 b3bd 76c8 98bd d70e 36bc
000003a0: d30b 893d ecc3 0b3e 22fc af3d d752 c4bd
000003b0: 5a7f f93d bb92 fabc 4e69 0ebc 610a 4abe
000003c0: 546b af3d 6048 6fbc 717a 803d 404d fdbd
000003d0: ea4e 1d3d 5cbd c13c 9e5e 0e3d 8226 28bd
000003e0: 803c 7c3d 112b 303e 940a ae3d 0561 0a3e
000003f0: 16c0 0fbd 008b e5bc 7c48 40be 810f 3cbd

network_body._body_endoder.seq_layers.2.bias f4 [128]
-0.016202914 -0.009277871 9.32346e-09 -0.018213894 -0.0051068203 0.0017702088 -0.012342798 -0.026032332
-0.017067019 -0.015036329 -0.0015611713 -0.03731515 -0.015718507 -0.016859679 -0.013218699 -0.02399243
-0.014302461 -0.021904072 -0.012494369 -0.019033702 -2.5170778e-20 -0.015524973 -0.014883868 -0.0069623543
-0.023425981 -0.0075042485 -0.031613648 -0.013862239 -0.009722082 -0.01836189 -0.034864463 -0.012554527
-4.2843946e-16 6.34723e-09 -0.015951807 -0.0096525615 -0.022887606 -0.012883206 -0.039606772 -0.02864539
-0.014285008 -0.017448906 -0.005294988 -0.017121261 -0.009308484 -0.0005197589 -0.006019165 -0.024132129
-0.011694176 -0.0050844 -6.2329386e-09 -0.015197148 -0.002713253 -0.012847392 -0.017618345 -0.008304792
-0.027427819 6.1846053e-12 -0.012612244 -5.3627126e-27 -0.017778393 -0.0006325794 -0.0155605525 -0.0107435845
-0.017007722 -6.7769906e-05 -0.006572533 5.989582e-08 -0.014621477 -0.024851855 -0.007893615 -0.019252576
-4.182191e-12 -0.007690594 -0.014039571 0.011382586 -0.023750365 -9.8352164e-24 -0.0040534516 -0.015177977
-0.024868848 -5.8678964e-11 6.1689857e-22 -0.0070331725 -0.01780752 -8.867497e-05 -0.007251046 -0.043439046
-0.015465271 6.8230993e-10 -0.011792645 -0.0040490157 -0.012677265 -0.0053974553 1.1598346e-15 -0.018402237
-0.01576953 -0.012094446 -0.00060771627 -0.022890203 -6.0805996e-06 1.01157874e-22 -0.017149663 -0.01921695
-0.020531971 -0.009682124 -0.013546716 -0.018153476 -0.018349413 1.284072e-19 -0.027989553 -0.007281127
-1.5201216e-13 -3.018522e-20 -1.3159309e-17 -0.010298854 -0.016493075 -0.021081168 -3.9853554e-18 -1.2755959e-14
-0.003496313 -0.025547171 6.190276e-08 -0.019176088 -0.010767107 -0.009309854 -0.013480205 -0.0001533285
00000000: f9bb 84bc 3602 18bc 032d 2032 4e35 95bc
00000010: 1d57 a7bb 5a06 e83a 7239 4abc c241 d5bc
00000020: 22d0 8bbc ef5a 76bc 37a0 ccba c5d7 18bd
00000030: 19c4 80bc 4f1d 8abc 3e93 58bc c68b c4bc
00000040: df54 6abc 2b70 b3bc 2fb5 4cbc 91ec 9bbc
00000050: 35bb ed9e 755c 7ebc 78db 73bc 7624 e4bb
00000060: d8e7 bfbc 33e6 f5bb 507d 01bd 721e 63bc
00000070: 5e49 1fbc ad6b 96bc 0ace 0ebd 81b1 4dbc
00000080: 81fa f6a5 d316 da31 5dad 82bc c725 1ebc
00000090: ca7e bbbc 1514 53bc b63a 22bd bda9 eabc
000000a0: ab0b 6abc 02f1 8ebc 9481 adbb e341 8cbc
000000b0: 9d82 18bc 6e40 08ba 6a3c c5bb beb0 c5bc
000000c0: ee98 3fbc 0a9b a6bb 8229 d6b1 75fd 78bc
000000d0: d5d0 31bb de7d 52bc 5954 90bc d310 08bc
000000e0: 4eb0 e0bc f999 d92c 96a3 4ebc 5e70 d493
000000f0: fea3 91bc afd3 25ba b0f1 7ebc dc05 30bc
00000100: c753 8bbc b11f 8eb8 675e d7bb 13a0 8033
00000110: eb8e 6fbc 1e96 cbbc 3954 01bc 94b7 9dbc
00000120: d425 93ac 6101 fcbb 3b06 66bc 077e 3a3c
00000130: 2090 c2bc a23d 3e99 d1d2 84bb 0dad 78bc
00000140: c1b9 cbbc 5209 81ae 3772 3a1c 8776 e6bb
00000150: 14e1 91bc 03f7 b9b8 2f9a edbb 24ed 31bd
00000160: 0c62 7dbc 4b8d 3b30 f035 41bc 9bad 84bb
00000170: 4eb4 4fbc 23dd b0bb 5826 a726 4ac0 96bc
00000180: 1a2f 81bc c927 46bc 264f 1fba 3c84 bbbc
00000190: f407 ccb6 b195 f41a 737d 8cbc dd6c 9dbc
000001a0: aa32 a8bc c5a1 1ebc 0cf3 5dbc 99b6 94bc
000001b0: 8251 96bc b298 1720 594a e5bc 8596 eebb
000001c0: 8626 2baa b18b 0e9f 14bf 72a3 86bc 28bc
000001d0: 7c1c 87bc 6ab2 acbc 9e08 93a2 7aca 65a8
000001e0: 6622 65bb 4d48 d1bc 67ef 8433 2c17 9dbc
000001f0: 8568 30bc 5c88 18bc 14dc 5cbc cec6 20b9

action_model._discrete_distribution.branches.0.weight f4 [3, 128]
-0.00444938 -0.0028434466 -0.003939132 -0.03241655 0.009204901 0.015973203 -0.003425109 -0.0009161993
0.004870353 -0.0029513028 0.0386644 -0.0035187833 0.002505193 -0.036877688 0.012724053 0.032685094
-0.0079502035 -0.0010699404 -0.001380005 -0.012120663 0.019414118 -0.0053145946 -0.00409645 0.007059018
0.015586958 -0.00022010319 -0.0003799834 -0.007420507 7.2102266e-05 0.002687342 0.011374859 0.0039751786
-0.001039205 0.006039325 -0.00032819266 -0.02979634 0.0113930125 -0.02172035 -0.0117162755 -0.0019337408
0.0006721591 -0.0021364032 -0.013303633 -0.004130704 0.0063120276 0.0076347603 -0.0043799565 0.024185885
0.014800052 -0.01282334 0.015489544 -0.011678763 0.008070415 0.002711038 0.0036865375 0.010336347
0.039012246 0.0018443406 0.017838484 0.007486326 0.0009498843 -0.0077326493 -0.018306525 0.0090011135
-0.017101506 0.0032643534 -7.283244e-05 0.023583906 -0.016823063 -0.0096387975 -0.020707754 -0.0034065102
0.004608894 -0.0020486177 0.0071420907 0.0006974287 -0.0104456395 0.0072368444 -0.0025400973 -0.021674592
-0.007726334 0.005880097 -0.011557151 0.00801882 -0.0099783875 0.017573135 0.0060579344 0.009129829
-0.002248697 0.0067457817 0.005532363 -0.01378976 -0.012890709 -0.00016713237 0.0078287115 0.00070753065
-0.0033060638 -0.0014358093 0.0079128975 -0.005930047 -0.006556668 -0.008044449 -0.011980984 0.00898743
-0.0019264802 0.0010402196 0.006573487 -0.0023918147 -0.0055260654 -0.0015068066 -0.003694606 0.008896658
-0.017173113 -0.013847165 -0.011069248 0.0045434106 0.027979016 0.005016955 0.0034140467 -0.01086374
-0.01001233 -0.004885502 0.011603791 0.012261967 0.016108641 -0.0025944589 -0.0068596615 -0.0005146011
0.014969685 -0.013332085 -0.0007119503 0.032623548 -0.0072531933 0.01330956 -0.0106131695 -0.015561198
-0.0060468633 -0.012319467 -0.0042556506 0.0013583328 0.014185477 -0.0016664994 0.01130719 -0.029851433
-0.0014566977 -0.0020432754 -0.021310512 -0.016450781 -0.0007444568 -0.00630775 0.014624249 -0.010635582
-0.006541642 0.0037745684 -0.0017864435 -0.0010236143 -0.024964832 0.017474793 0.006572034 0.015471315
0.0026308442 0.0029687106 -0.011282117 0.012018268 -0.0041806633 -0.018378638 -0.008811885 0.0033980466
-0.006135654 0.0071178894 0.003854528 -0.010011332 -0.008508695 0.0076186312 0.004723455 -0.0175683
0.008456947 0.023913857 -0.0029221226 0.012445581 -0.009221729 -0.02289736 0.0002293615 0.016761607
-0.027655609 0.005035866 0.0030368 -0.0073667164 0.015928572 0.011246173 -0.03143953 -0.0029290905
-0.008684323 -0.0026988748 -0.000435467 0.014230484 -0.014570576 -0.0053520575 0.033300567 -0.011947307
0.0012674362 0.060264748 0.0022703488 0.035425346 -0.0047552576 0.011635804 -0.0135435965 0.006814959
-0.0066022826 -0.008674844 0.009115232 -0.002448835 0.006807394 -0.0031391843 -0.001936811 -0.0031334723
-0.017972836 -0.007411142 0.00270608 -0.014508819 -0.0016780684 0.011796235 0.0051783486 -0.00291939
0.0067069735 -0.004491547 0.018551348 0.0003319075 -0.00083375484 -0.0018499095 0.006970227 0.011824248
-0.019248508 0.005529778 0.016353762 0.01353117 0.005364501 -0.0028763094 -0.00063885417 0.014404215
0.014386102 0.0052309455 -0.0048299413 0.0048404546 -0.020678198 0.01929043 0.0065707564 0.0002760974
-0.005570502 2.7691085e-05 0.0053044492 -0.0020400272 -0.034472514 0.002499557 -0.0547001 -0.016730068
00000000: 1bcc 91bb 1e59 3abb d613 81bb 37c7 04bd
00000010: 27d0 163c 3cda 823c cb77 60bb 182d 70ba
00000020: 7b97 9f3b a56a 41bb 905e 1e3d 639b 66bb
00000030: 2a2e 243b 0f0d 17bd 8c78 503c cee0 053d
00000040: 9241 02bc 3e3d 8cba 49e1 b4ba bf95 46bc
00000050: 5b0a 9f3c 0d26 aebb 833b 86bb 564f e73b
00000060: 7160 7f3c 80cb 66b9 8238 c7b9 b927 f3bb
00000070: 9c35 9738 1e1e 303b 9e5d 3a3c 3742 823b
00000080: ef35 88ba 88e5 c53b 4611 acb9 7417 f4bc
00000090: c2a9 3a3c e0ee b1bc 9ff5 3fbc 9375 fdba
000000a0: d533 303a e602 0cbb 7bf7 59bc db5a 87bb
000000b0: 20d5 ce3b 032d fa3b bd85 8fbb 7a21 c63c
000000c0: eb7b 723c fc18 52bc dbc7 7d3c 4858 3fbc
000000d0: c639 043c acab 313b d699 713b c859 293c
000000e0: 4ecb 1f3d cdbd f13a 0322 923c db4f f53b
000000f0: a801 793a 2a62 fdbb 91f7 95bc 6879 133c
00000100: 7518 8cbc c3ee 553b 9ebd 98b8 0933 c13c
00000110: 85d0 89bc 0cec 1dbc 4fa3 a9bc c23f 5fbb
00000120: 3506 973b 1a42 06bb 3308 ea3b a6d3 363a
00000130: 3024 2bbc 0d23 ed3b c377 26bb ea8e b1bc
00000140: 302d fdbb d4ad c03b 345a 3dbc 5e61 033c
00000150: 647c 23bc 89f5 8f3c a381 c63b 4795 153c
00000160: e05e 13bb b80b dd3b d348 b53b 72ee 61bc
00000170: 8d33 53bc 4140 2fb9 ff43 003c 9479 393a
00000180: 8caa 58bb c431 bcba 19a5 013c d750 c2bb
00000190: 51d9 d6bb ddcc 03bc e44b 44bc 0340 133c
000001a0: f381 fcba fa57 883a 6866 d73b febf 1cbb
000001b0: ff13 b5bb 0a80 c5ba 3421 72bb 4ac3 113c
000001c0: a1ae 8cbc 38df 62bc cb5b 35bc e4e0 943b
000001d0: 4034 e53c 4565 a43b 33be 5f3b d4fd 31bc
000001e0: c10a 24bc 9016 a0bb d41d 3e3c 6be6 483c
000001f0: 45f6 833c cc07 2abb 03c7 e0bb 4ce6 06ba
00000200: 6943 753c d16e 5abc 2da2 3aba 45a0 053d
00000210: 32ac edbb 5710 5a3c dce2 2dbc 65f4 7ebc
00000220: c424 c6bb 97d7 49bc fc72 8bbb 160a b23a
00000230: 346a 683c 716e daba cb41 393c fe8a f4bc
00000240: aaee beba 79e8 05bb 6293 aebc cac3 86bc
00000250: a627 43ba 3eb1 cebb 8c9a 6f3c dd40 2ebc
00000260: 455b d6bb c05e 773b 1927 eaba cc2a 86ba
00000270: 0c83 ccbc 4c27 8f3c 385a d73b 667b 7d3c
00000280: 3e6a 2c3b b38e 423b a1d8 38bc 45e8 443c
00000290: f2fd 88bb cc8e 96bc b95f 10bc c3b1 5e3b
000002a0: 990d c9bb 2f3d e93b 409c 7c3b 9206 24bc
000002b0: 0e68 0bbc b6a5 f93b 36c7 9a3b 65eb 8fbc
000002c0: 028f 0a3c fee6 c33c 1581 3fbb 8de8 4b3c
000002d0: bc16 17bc 3f93 bbbc c280 7039 a34f 893c
000002e0: 048e e2bc e803 a53b 0d05 473b 7f64 f1bb
000002f0: a37c 823c de41 383c bdc6 00bd fcf5 3fbb
00000300: b148 0ebc 9bdf 30bb 644f e4b9 fa26 693c
00000310: 6db9 6ebc 5060 afbb 2d66 083d a3be 43bc
00000320: 1a20 a63a 2bd8 763d 22ca 143b 2b1a 113d
00000330: fed1 9bbb 19a4 3e3c f6e5 5dbc 0550 df3b
00000340: f657 d8bb ef20 0ebc 0e58 153c a27c 20bb
00000350: 8f10 df3b c6ba 4dbb 98dc fdba f15a 4dbb
00000360: c53b 93bc 2ad9 f2bb 7d58 313b 66b6 6dbc
00000370: a2f2 dbba ff44 413c 23af a93b 3d53 3fbb
00000380: 2cc6 db3b d42d 93bb fff8 973c df03 ae39
00000390: 5790 5aba aa78 f2ba 8166 e43b 7eba 413c
000003a0: 0caf 9dbc 2433 b53b 53f8 853c d7b1 5d3c
000003b0: b2c8 af3b 7780 3cbb c778 27ba a8ff 6b3c
000003c0: afb3 6b3c 5a68 ab3b 7c44 9ebb ad9c 9e3b
000003d0: 5365 a9bc f706 9e3c 804f d73b 2ac1 9039
000003e0: c288 b6bb 274a e837 f2d0 ad3b fab1 05bb
000003f0: 0d33 0dbd 9ccf 233b 360d 60bd 7f0d 89bc

action_model._discrete_distribution.branches.0.bias f4 [3]
-0.08530477 -0.07174141 0.1512031
00000000: 44b4 aebd 29ed 92bd fcd4 1a3e

action_model._discrete_distribution.branches.1.weight f4 [2, 128]
0.020899177 0.0036868535 0.0015971089 -0.021018049 -0.021770667 0.008615163 0.031471767 -0.018125078
-0.008556574 0.0036241726 -0.013571183 -0.011814269 -0.00048790892 0.012437885 0.013812174 0.021324374
-0.008295457 -0.008620521 0.0010968628 0.00095202576 0.009859611 0.016539538 -0.011303364 0.013119617
-0.0073927124 0.010152867 -0.0028976188 0.009068884 -0.0013273373 0.008537812 -0.0060904347 0.015900677
-0.0011958621 0.008058679 0.00065208465 -0.007040126 -0.007901909 0.0057094293 0.0033433123 -0.005725426
-0.00083575957 0.012481127 -0.017301345 -0.0035364302 0.015434926 -0.016671004 -0.0021168997 -0.019683713
0.010051019 -0.00563701 0.0027792456 -0.02447567 -0.010357449 0.0027918299 -0.010838478 -0.012754338
0.01958177 -0.0009323071 -0.0044965697 0.015598933 -0.0049928417 -0.0007463764 -0.015721103 0.009950115
-0.0033576994 0.005618119 0.007789232 0.0032837477 0.008983121 -0.0020293344 -0.008393134 -0.0038371915
0.00038989336 -0.017639253 0.0076219607 0.049279492 -0.0013461455 0.0094827255 -0.014628913 0.00073229463
-0.0051683127 -0.0086635025 0.009958967 0.028800465 0.0025257003 0.0037241776 0.0026713142 0.0050856727
0.013716481 -0.004151634 0.003355577 0.0055436706 -0.0044998904 -0.0011810965 -0.013327204 -0.0049804077
-0.017435769 -0.0051364833 0.009659318 0.016619712 -0.008674712 0.00742291 -0.0065076016 0.0094434
-0.014398555 0.00845394 -0.0040725106 0.022464545 0.027443213 -0.018733805 -0.008680871 0.011995483
0.003244374 0.00084098795 0.018502133 0.029215204 -4.786861e-05 -0.0001924052 0.0073648095 -0.003835267
-0.018047376 0.011820314 0.007720061 -0.0030221306 0.012613142 0.0019869567 0.0017017095 0.0016252297
-0.005603626 0.0042421427 0.0009440773 -0.0038514214 0.0062122648 -0.015259503 -0.023653079 -0.0071626883
-0.00306327 -0.00515473 0.010589146 0.002396665 0.0016107687 0.009078941 -0.016479831 -0.0017012327
0.0204175 0.008408426 0.012731299 -0.0020889777 0.0021815063 0.0027838047 -0.0029998207 0.018341208
0.0021285985 -0.018860323 0.0059323735 0.00041890863 -0.0023977868 -0.014464248 -0.018260647 -0.006910489
0.004797685 0.003235603 0.0024695764 0.030497428 0.0018165049 0.012589128 0.006635569 0.0078001805
-0.002108954 -0.0069733383 0.01730593 0.012843506 0.009642694 0.0117844 0.0012440591 0.003146716
0.012357753 -0.0067123813 0.005912003 0.01351458 -0.0012324511 -0.003895157 -0.0033295508 0.01691571
-0.01199172 -0.003908848 0.011119138 0.00938652 0.018224634 -0.0017657763 0.007760357 0.001063681
-0.0015428206 0.005512868 0.00482004 -0.01086774 0.004640354 0.016173355 -0.007906614 -0.0011487878
-0.0006217437 -0.004965042 0.0040513314 -0.045587733 0.0026389302 -0.007130541 -0.00027071865 -0.0072033643
-0.01865315 -0.017329147 -0.009497139 -0.0031226545 0.0010832235 0.0024584972 0.009068631 0.01984455
-5.0455925e-05 -0.0044446117 -0.013588023 0.010021006 -0.0011258961 0.0014202095 0.0075239628 0.010093941
-0.01038755 -0.0025746613 0.025349135 0.008586403 0.0073712445 0.0010689563 0.0024918355 -0.0019030496
0.02132546 0.0023116998 -0.022163343 -0.026368676 -0.029618064 0.006182035 -0.008395584 -0.021881577
-0.0021508408 0.0054876455 0.002536292 -0.02145774 0.014140428 -0.005051168 0.005346187 -0.0031518184
0.008637053 0.0053795823 0.010081331 0.007524657 0.009055593 -0.0048985607 0.031650517 -0.010809438
00000000: c034 ab3c 239f 713b 1556 d13a 0b2e acbc
00000010: 6658 b2bc 9d26 0d3c 8ae8 003d 0b7b 94bc
00000020: df30 0cbc 8783 6d3b ab59 5ebc a390 41bc
00000030: 07ce ffb9 45c8 4b3c 754c 623c 74b0 ae3c
00000040: abe9 07bc 163d 0dbc 9cc4 8f3a 5e91 793a
00000050: 358a 213c ed7d 873c bf31 39bc a9f3 563c
00000060: 913e f2bb 3658 263c fae5 3dbb a895 143c
00000070: 0dfa adba 2ee2 0b3c 4592 c7bb 2342 823c
00000080: 79be 9cba 8d08 043c a9f0 2a3a dbb0 e6bb
00000090: 0277 01bc 2a16 bb3b 791b 5b3b 5b9c bbbb
000000a0: e016 5bba a47d 4c3c 8dbb 8dbc 74c3 67bb
000000b0: c6e2 7c3c a191 88bc afbb 0abb bd3f a1bc
000000c0: 07ad 243c abb6 b8bb 0124 363b 3381 c8bc
000000d0: 4ab2 29bc 22f7 363b df93 31bc 92f7 50bc
000000e0: f369 a03c 1266 74ba f657 93bb ab92 7f3c
000000f0: fe9a a3bb 79a8 43ba 8bc9 80bc cf05 233c
00000100: d90c 5cbb 3318 b83b d03c ff3b 2534 573b
00000110: f12d 133c 95fe 04bb 5b83 09bc 6479 7bbb
00000120: 9a6a cc39 3280 90bc a4c1 f93b 4bd9 493d
00000130: 2671 b0ba 6f5d 1b3c 1cae 6fbc 76f7 3f3a
00000140: f35a a9bb 5df1 0dbc ef2a 233c f4ee eb3c
00000150: 3886 253b 5511 743b 3711 2f3b b7a5 a63b
00000160: 17bb 603c 6e0a 88bb 3de9 5b3b aea7 b53b
00000170: d173 93bb 06cf 9aba 585a 5abc b032 a3bb
00000180: 75d5 8ebc f24f a8bb 1e42 1e3c 1026 883c
00000190: 6120 0ebc e23b f33b b83d d5bb 7eb8 1a3c
000001a0: ebe7 6bbc 6582 0a3c b272 85bb 9107 b83c
000001b0: 97d0 e03c a377 99bc 363a 0ebc b488 443c
000001c0: 909f 543b bf75 5c3a c991 973c b954 ef3c
000001d0: 87c6 48b8 61c0 49b9 8054 f13b 1a59 7bbb
000001e0: 17d8 93bc fea9 413c 91f8 fc3b f00e 46bb
000001f0: 5aa7 4e3c 9a37 023b e50b df3a a905 d53a
00000200: 9f9e b7bb ac01 8b3b f57b 773a 2168 7cbb
00000210: 4190 cb3b ff02 7abc 1ac4 c1bc fcb4 eabb
00000220: 24c1 48bb 02e9 a8bb 197e 2d3c 5e11 1d3b
00000230: 6e20 d33a d7bf 143c b600 87bc e6fb deba
00000240: 9a42 a73c 7fc3 093c f096 503c 3be7 08bb
00000250: 9af7 0e3b 7e70 363b a498 44bb 4d40 963c
00000260: f57f 0b3b f780 9abc 5b64 c23b f7a0 db39
00000270: 3024 1dbb 74fb 6cbc 5a97 95bc 6271 e2bb
00000280: e635 9d3b 690c 543b 9ed8 213b bed5 f93c
00000290: ca17 ee3a a142 4e3c 306f d93b a898 ff3b
000002a0: 6036 0abb 9a80 e4bb 2ac5 8d3c 926d 523c
000002b0: 64fc 1d3c 5b13 413c b20f a33a 2239 4e3b
000002c0: 2c78 4a3c 89f3 dbbb 7ab9 c13b 426c 5d3c
000002d0: 328a a1ba e445 7fbb 9834 5abb d192 8a3c
000002e0: eb78 44bc cb15 80bb 0c2d 363c ebc9 193c
000002f0: d44b 953c 9f71 e7ba 984a fe3b 366b 8b3a
00000300: 7838 caba 4aa5 b43b 6df1 9d3b 9b0e 32bc
00000310: 1c0e 983b fc7d 843c be8a 01bc ec92 96ba
00000320: 83fc 22ba cbb1 a2bb 08c1 843b 34ba 3abd
00000330: e7f1 2c3b 50a7 e9bb 3eef 8db9 330a ecbb
00000340: 7ece 98bc dbf5 8dbc e399 1bbc 73a5 4cbb
00000350: f3fa 8d3a bd1e 213b 9894 143c 0a91 a23c
00000360: a3a0 53b8 1ba4 91bb 4da0 5ebc 252f 243c
00000370: ce92 93ba 5326 ba3a 938b f63b 0f61 253c
00000380: 8b30 2abc a6bb 28bb fda8 cf3c fcad 0c3c
00000390: 7b8a f13b 391c 8c3a 104e 233b c06f f9ba
000003a0: bbb2 ae3c e37f 173b e68f b5bc 1f03 d8bc
000003b0: 95a1 f2bc ab92 ca3b a28d 09bc fe40 b3bc
000003c0: 1ff5 0cbb b5d1 b33b eb37 263b 24c8 afbc
000003d0: 41ad 673c 4584 a5bb 112f af3b bd8e 4ebb
000003e0: 6d82 0d3c 3547 b03b 2b2c 253c 6691 f63b
000003f0: e95d 143c 1b84 a0bb f9a3 013d 121a 31bc

action_model._discrete_distribution.branches.1.bias f4 [2]
-0.042962577 0.042962577
00000000: 87f9 2fbd 87f9 2f3d

action_model._discrete_distribution.branches.2.weight f4 [3, 128]
0.013114689 -0.0153995035 0.0048578847 -0.0014608484 -0.020669091 0.014777414 -0.0054536783 0.013439951
0.00928407 0.00666269 0.008096925 0.00460237 -0.0033281744 0.002405431 -0.0020025764 -0.008862649
-0.006487967 0.016721664 -0.012203541 0.012349863 -0.009670208 -0.013263189 -0.0013839476 0.009922469
-0.0035225789 -0.0020974218 0.0022729319 -0.0049674544 0.00601605 -0.010313252 -0.010412191 0.011348102
-0.0037889492 0.010069317 -0.0076717422 -0.022822171 -0.00026676565 -0.0008893513 -8.585913e-05 0.011932601
0.01134279 0.006103764 -0.020028124 0.009557045 -0.005867137 -0.0026839948 -0.003160123 0.012975841
0.027800042 0.018104767 -0.019169826 0.004144702 0.010513157 0.0007404652 -0.013214282 0.0020145292
-0.00026475065 -0.012354324 -0.009556025 0.02884613 -0.008445996 -0.009835396 0.005820933 0.0006999051
0.017702393 0.015730219 0.0053921468 0.012278873 0.007919089 0.0057257954 0.0011792852 0.009189344
0.007461592 0.0035227272 0.0026804719 -0.03370069 -0.012107706 -0.0011875964 -0.0124220885 -0.0014290194
-0.014126785 -0.008342841 0.0060977675 0.0065266723 -0.00044030033 -0.0050407024 -0.00036023572 -0.0004153734
-0.008734198 -0.017445218 -0.010934168 -0.0037958613 0.01349359 -0.0051814057 0.001099075 0.00017460054
-0.008718697 -0.013250004 0.009460262 -0.014948535 -0.01343739 0.004646532 0.004815226 0.00043039004
0.017486583 -0.0034964217 0.004967092 0.004038089 0.0027721245 -0.009107397 0.004478176 0.016660145
0.008978969 0.0039973925 -0.005442251 0.0018009136 0.0118367765 0.016428012 -0.008487235 0.00641514
0.023549419 0.0003610693 -0.013576513 -0.013043686 -0.0013461647 0.022244362 0.0133646475 0.0012371364
-0.019797534 -0.00016081435 0.010787821 0.038825728 -0.0299633 -0.009008764 -0.008356582 -0.00013302026
-0.00091558247 0.007808943 -0.021852244 0.01874716 -0.0033518726 -0.010961748 -0.013671266 0.004928432
0.003695114 -0.034990627 8.938605e-06 -0.0017959414 0.001332207 0.0020796247 0.022754634 0.015675606
-0.017283237 -0.0015355959 0.00092860893 -0.0037956594 0.019111758 0.026524434 -0.0010816673 0.024297064
-0.00014844653 0.0135570085 0.0015637269 -0.005163771 -0.0068997606 0.0016769138 0.00046209834 0.011027767
0.0032562756 -0.00025452822 0.00060518173 -0.011307952 0.015168692 -0.0058652256 0.0018783887 0.007955811
0.0036439889 0.001840254 0.011224971 0.011929538 -0.00824619 0.007610511 0.01840744 -0.00039915572
-0.0046396162 0.0016487578 0.0076603866 -0.011010809 -0.0027531963 0.006238197 0.003095169 -0.0062558716
-0.007903374 -0.0067494875 -0.014379109 -0.0007432003 -0.00717847 -0.01163509 0.0032959552 0.011218519
-0.0013704657 0.00694257 -0.002010775 0.032775857 -0.005191818 0.0010835397 0.021698438 -0.03487789
-0.00918336 -0.0071133384 0.005838565 0.007845525 0.0022002535 -0.001354078 -0.016147967 -0.025830856
0.014950651 -0.002379104 0.0030317146 0.015373101 -0.004913954 0.0014162288 -0.0061912225 -0.016388655
-0.008317679 -0.009341047 -0.008499613 0.0019886775 0.012596223 -0.01505466 0.0050670747 0.031865608
-0.03464099 0.0021278383 0.01557566 -0.0011564902 0.0020725566 0.0069573345 -0.0045504463 0.011401142
-0.007779188 0.006668055 -0.008254683 -0.009234159 -0.012242971 0.010300945 0.0074643134 0.01262477
0.027689932 -0.008044262 0.006129097 -0.0011196996 0.0023135012 0.03146699 -0.022596905 0.0018535951
00000000: fede 563c 334e 7cbc e42e 9f3b f079 bfba
00000010: 3a52 a9bc f71c 723c c5b4 b2bb 3e33 5c3c
00000020: 361c 183c b252 da3b f7a8 043c 7acf 963b
00000030: 801d 5abb 6fa4 1d3b a83d 03bb a534 11bc
00000040: 0399 d4bb dffb 883c 5cf1 47bc 1457 4a3c
00000050: cb6f 1ebc d94d 59bc 9365 b5ba da91 223c
00000060: 11db 66bb e674 09bb 78f5 143b 07c6 a2bb
00000070: 4922 c53b eaf8 28bc e597 2abc 64ed 393c
00000080: 0550 78bb c7f9 243c 3d63 fbbb 90f5 babc
00000090: aedc 8bb9 5b23 69ba 450f b4b8 f580 433c
000000a0: 1cd7 393c 1502 c83b 0512 a4bc 2795 1c3c
000000b0: 1d41 c0bb f6e5 2fbb 111a 4fbb 9f98 543c
000000c0: eabc e33c 7350 943c 0a0a 9dbc 48d0 873b
000000d0: 603f 2c3c c71b 423a b780 58bc 3106 043b
000000e0: 3bce 8ab9 ca69 4abc e090 1cbc b84e ec3c
000000f0: 1361 0abc a424 21bc 86bd be3b d679 373a
00000100: 9c04 913c a9dc 803c 9bb0 b03b 532d 493c
00000110: 11bf 013c 749f bb3b 3f92 9a3a e78e 163c
00000120: 5f80 f43b 8edd 663b dbaa 2f3b bc09 0abd
00000130: 665f 46bc 1fa9 9bba 0486 4bbc ef4d bbba
00000140: 0874 67bc 69b0 08bc c8cf c73b b2dd d53b
00000150: 1cd8 e6b9 7a2c a5bb 05de bcb9 79c6 d9b9
00000160: e219 0fbc 46e9 8ebc 3925 33bc fcc3 78bb
00000170: 3814 5d3c c8c8 a9bb d60e 903a fa14 3739
00000180: ded8 0ebc 8b16 59bc 37ff 1a3c b3ea 74bc
00000190: 8028 5cbc ef41 983b 0bc9 9d3b f9a5 e139
000001a0: 0640 8f3c 3924 65bb fdc2 a23b f251 843b
000001b0: 88ac 353b 3137 15bc aabd 923b db7a 883c
000001c0: 871c 133c 8ffc 823b e954 b2bb a20c ec3a
000001d0: 0aef 413c 0a94 863c 0b0e 0bbc 1836 d23b
000001e0: b6ea c03c e74d bd39 0670 5ebc 2fb5 55bc
000001f0: cb71 b0ba cf39 b63c 65f7 5a3c 6927 a23a
00000200: 702e a2bc 46a0 28b9 67bf 303c ba07 1f3d
00000210: 9875 f5bc 7f99 13bc 0cea 08bc 5b7b 0bb9
00000220: b303 70ba 29e2 ff3b 7a03 b3bc a593 993c
00000230: 17ab 5bbb e798 33bc 72fd 5fbc af7e a13b
00000240: ba29 723b 5552 0fbd 04f7 1537 cb65 ebba
00000250: 739d ae3a 504a 083b ed67 ba3c 216a 803c
00000260: 9395 8dbc 0c46 c9ba e46d 733a 99c0 78bb
00000270: 4390 9c3c c549 d93c bbc6 8dba a30a c73c
00000280: 50a8 1bb9 371e 5e3c f8f5 cc3a da34 a9bb
00000290: 6317 e2bb e4cb db3a ca45 f239 cfad 343c
000002a0: 3d67 553b 3372 85b9 0fa5 1e3a fd44 39bc
000002b0: 1b86 783c 1431 c0bb 4434 f63a 1759 023c
000002c0: fdcf 6e3b ad34 f13a f1e8 373c 1c74 433c
000002d0: 071b 07bc 9861 f93b 33cb 963c c645 d1b9
000002e0: ec07 98bb 221b d83a fb03 fb3b ae66 34bc
000002f0: f86e 34bb ca69 cc3b 52d8 4a3b 0efe ccbb
00000300: 277d 01bc ce2a ddbb 5b96 6bbc 54d3 42ba
00000310: 5f39 ebbb 1ba1 3ebc f400 583b e1cd 373c
00000320: 33a1 b3ba 807e e33b 35c7 03bb fa3f 063d
00000330: 2020 aabb 8f05 8e3a ecc0 b13c 1edc 0ebd
00000340: ce75 16bc 0217 e9bb 6f51 bf3b 848a 003c
00000350: 2132 103b 517b b1ba be48 84bc 3b9b d3bc
00000360: 93f3 743c beea 1bbb bbaf 463b 76df 7b3c
00000370: 3c05 a1bb c1a0 b93a bddf cabb 8041 86bc
00000380: e046 08bc 310b 19bc f641 0bbc 7954 023b
00000390: 6360 4e3c d2a7 76bc b409 a63b 8385 023d
000003a0: b6e3 0dbd 3473 0b3b 0e31 7f3c 5f95 97ba
000003b0: bbd3 073b 5afa e33b e91b 95bb dbcb 3a3c
000003c0: 8fe8 febb b37f da3b a63e 07bc df4a 17bc
000003d0: be96 48bc 4bc5 283c 3397 f43b 20d8 4e3c
000003e0: ffd5 e23c 15cc 03bc 98d6 c83b e2c2 92ba
000003f0: 1c9e 173b 88e3 003d 251d b9bc 55f4 f23a

action_model._discrete_distribution.branches.2.bias f4 [3]
-0.0022232647 -0.2979734 0.28410408
00000000: 31b4 11bb f88f 98be 1776 913e

action_model._discrete_distribution.branches.3.weight f4 [2, 128]
0.010361205 -0.00097358774 -0.007969871 -0.017012162 0.003064307 0.0060346616 -0.012153945 -0.0010330499
0.015886819 -0.0080417665 0.04738643 -0.007886216 -0.00054529257 -0.009167559 -0.012154678 0.009312269
-0.0014514879 -0.012118207 -0.0136800045 0.011323295 0.005375553 -0.008329144 -0.006778723 -0.009219264
0.006535168 -0.0016639045 0.00041844154 0.0126816165 0.002441396 0.015390862 0.004817195 0.008436272
-0.019120231 -0.00084922166 0.00013756585 -0.009506658 0.018472983 0.0048532053 -0.0017203253 -0.0074069602
0.0040411283 0.006117981 -0.011133783 0.015276052 0.0034271637 -0.007607248 0.008024651 -0.00026222886
0.004106408 0.010456049 -0.005469148 0.0063935267 -0.0018395646 0.0021801696 -0.0006175502 0.00995926
-0.020516412 -0.0052692904 -0.00957989 -0.00863679 0.020559058 0.0017247273 -0.0015128818 0.006965523
0.01072754 0.0051536486 0.0016078572 -0.010978473 0.01173304 -0.00789396 0.01452545 0.010342527
0.0035102428 -0.017503938 -0.013908914 0.013819544 -0.0037263911 0.011766866 -0.011581043 0.00908008
0.0009751034 -0.006501322 -0.009114698 0.015079135 0.00091995177 -0.010343981 -0.006443233 -0.0040766825
0.02180073 0.010108853 0.0025202122 0.000835751 0.01328909 -0.0018729283 -0.0066981367 -0.0018799696
-0.0013436071 0.0042641885 -0.0053187595 0.008144466 -0.006986156 0.0029731735 0.011722501 -0.00030110806
0.0003447649 -0.00032516578 -0.0024012395 -0.010012857 -0.011998391 -0.00408424 -0.003684043 0.019911496
-0.010163637 0.0037809839 0.0016468555 -0.0037154846 -0.007683647 0.01180833 -0.0031326108 -0.013753021
-0.011733512 0.001106414 -0.0046092956 -0.0012186922 0.010494399 -0.003572772 0.013142769 0.0025583482
-0.0047440976 -0.008555129 0.026347034 -0.008518197 0.0014493223 -0.012050304 0.002176412 -0.0018499244
-0.009213259 0.0029267522 -0.020907255 0.0023622324 0.0015583932 -0.01382525 0.010546752 0.0047438615
0.0076758913 0.015161935 -0.013394959 -0.0013126658 -0.007857418 -0.0020539027 0.016623084 0.009055156
0.011054558 -0.011792139 0.00020018434 -0.0012287216 -0.004450827 -0.01324372 -0.004061055 -0.017993275
-0.023354173 -0.0038558657 0.008295072 0.00814593 -0.014773242 -0.011279323 0.0009949268 0.008216843
0.00087903475 -0.008001229 0.013453489 0.0007928736 0.00029312656 0.013513723 0.0041573993 0.0045034504
-0.013604809 0.0001777517 0.0021540588 -0.020027447 0.011374211 0.0048855334 -0.003770347 -0.007272218
0.007219295 -0.013050898 -0.013063017 0.009978627 -0.0006322433 0.001434373 -0.002355628 -0.003741879
0.01406525 -0.018045437 0.008531552 -0.0076352125 -0.0115791205 0.0075467946 -0.00394067 0.0032521533
0.019541457 0.03160371 -0.000739087 0.0010964504 -0.001964169 -0.0061276546 -0.0047820345 -0.006921211
0.010928922 -0.006281271 -0.008312708 -0.020663163 0.0060287253 0.0013211146 -0.007568884 0.018895457
0.0035759667 -0.0063727996 -0.0031701499 0.00039472614 -0.0067533394 -0.0005292749 -0.0010475726 0.027827948
-0.00836157 0.006364663 -0.004803258 -0.0006603371 0.009019172 -4.418585e-05 -0.009000633 0.009460272
-0.0016336223 -0.00013866284 0.0072791097 0.005919574 0.006610867 0.012390801 -0.0044738906 -0.015555669
0.0025281366 -0.01821362 0.0146575365 -0.0063201906 0.008748914 -0.0032588912 0.0026949716 0.0014582674
-0.00032738218 -0.01081639 -0.0017629355 0.00788363 0.0037138828 -0.006102847 0.011585877 0.007330253
00000000: 0bc2 293c 5e38 7fba 1094 02bc 175d 8bbc
00000010: 8ad2 483b 69be c53b 5721 47bc 6767 87ba
00000020: 1325 823c 9dc1 03bc 4618 423d 3035 01bc
00000030: f7f1 0eba 8833 16bc 6a24 47bc 7d92 183c
00000040: da3f beba 728b 46bc 1922 60bc 5785 393c
00000050: 6825 b03b f676 08bc 0d20 debb 650c 17bc
00000060: f624 d63b 5f17 daba 4662 db39 8ec6 4f3c
00000070: d4ff 1f3b f429 7c3c 8fd9 9d3b 4a38 0a3c
00000080: 08a2 9cbc 4d9e 5eba 8d3f 1039 d0c1 1bbc
00000090: a754 973c a307 9f3b 8a7c e1ba 16b6 f2bb
000000a0: 716b 843b 5879 c83b 786a 36bc 6848 7a3c
000000b0: 449a 603b 3946 f9bb d379 033c c37b 89b9
000000c0: 0c8f 863b d94f 2b3c 8a36 b3bb ca80 d13b
000000d0: 8c1d f1ba 2de1 0e3b 18e3 21ba 2a2c 233c
000000e0: 0912 a8bc 03aa acbb f9f4 1cbc 5381 0dbc
000000f0: 786b a83c 3f10 e23a e44b c6ba 0b3f e43b
00000100: 90c2 2f3c f0df a83b bcbe d23a 0edf 33bc
00000110: f03b 403c ab55 01bc 27fc 6d3c b473 293c
00000120: 1a0c 663b 6b64 8fbc 37e2 63bc 5e6b 623c
00000130: 7836 74bb d0c9 403c 6abe 3dbc 9ec4 143c
00000140: 159e 7f3a 0b09 d5bb d055 15bc 7a0e 773c
00000150: eb28 713a cd79 29bc c221 d3bb b195 85bb
00000160: 7297 b23c 9a9f 253c 252a 253b 4d16 5b3a
00000170: 7cba 593c 0c7d f5ba 0b7c dbbb 5069 f6ba
00000180: f91b b0ba 9bba 8b3b fd48 aebb 5e70 053c
00000190: 20ec e4bb 93d9 423b bc0f 403c 0ade 9db9
000001a0: 90c1 b439 037b aab9 1d5e 1dbb f70c 24bc
000001b0: e694 44bc 17d5 85bb fc6f 71bb 6f1d a33c
000001c0: 6285 26bc 62ca 773b 4ddb d73a 7d7f 73bb
000001d0: 1ac7 fbbb ba77 413c 7d4c 4dbb 5a54 61bc
000001e0: eb3d 40bc 1805 913a 9309 97bb 86bc 9fba
000001f0: b3f0 2b3c 2b25 6abb c554 573c f6a9 273b
00000200: 6074 9bbb d02a 0cbc bcd5 d73c e88f 0bbc
00000210: 30f7 bd3a a36e 45bc 22a2 0e3b 2a79 f2ba
00000220: 36f3 16bc c1ce 3f3b b145 abbc afcf 1a3b
00000230: 0043 cc3a 4d83 62bc 49cc 2c3c 6572 9b3b
00000240: 0b86 fb3b c469 783c 8876 5bbc c10d acba
00000250: 66bc 00bc c59a 06bb 222d 883c 145c 143c
00000260: 2d1e 353c d133 41bc 93e8 5139 0e0d a1ba
00000270: 3ed8 91bb 30fc 58bc 9912 85bb a266 93bc
00000280: 4051 bfbc b1b2 7cbb 0ee8 073c 8276 053c
00000290: 780b 72bc e9cc 38bc 3468 823a f09f 063c
000002a0: 066f 663a 9617 03bc 066c 5c3c d9d8 4f3a
000002b0: c8ae 9939 aa68 5d3c cb3a 883b ae91 933b
000002c0: b4e6 5ebc dc62 3a39 1c2b 0d3b 9a10 a4bc
000002d0: e65a 3a3c d316 a03b ed17 77bb c94b eebb
000002e0: d68f ec3b 6fd3 55bc 4406 56bc 657d 233c
000002f0: 21bd 25ba 9201 bc3a e160 1abb 503a 75bb
00000300: ef71 663c 06d4 93bc ecc7 0b3c ce30 fabb
00000310: 5ab6 3dbc 1a4b f73b bc20 81bb 1422 553b
00000320: 6815 a03c e472 013d 4abf 41ba c5b6 8f3a
00000330: 4ab9 00bb 7eca c8bb 9db2 9cbb 53cb e2bb
00000340: 390f 333c 1fd3 cdbb 0632 08bc cb45 a9bc
00000350: 9d8c c53b 4029 ad3a 6704 f8bb a5ca 9a3c
00000360: c45a 6a3b ebd2 d0bb 4ac2 4fbb 3ff3 ce39
00000370: 1e4b ddbb 0abf 0aba b44e 89ba 70f7 e33c
00000380: f7fe 08bc aa8e d03b a664 9dbb 791a 2dba
00000390: 26c5 133c 3254 39b8 6477 13bc 42ff 1a3c
000003a0: 451f d6ba 0666 11b9 9985 ee3b fcf8 c13b
000003b0: f99f d83b c902 4b3c b799 92bb 34dd 7ebc
000003c0: 18af 253b bb34 95bc 2a26 703c 9a19 cfbb
000003d0: 9b57 0f3c 1f93 55bb 1f9e 303b 5623 bf3a
000003e0: 7ea4 abb9 3a37 31bc 4d12 e7ba 572a 013c
000003f0: 9d64 733b 64fa c7bb b1d2 3d3c 9e32 f03b

action_model._discrete_distribution.branches.3.bias f4 [2]
0.0037523927 -0.003752402
00000000: b4ea 753b dcea 75bb
