Assets/results/OuiTank/TankLearningAI/TankLearningAI-7071211.pt (torch, 701286 bytes, 58 tensors)

discrete_act_size_vector f4 [1, 5]
000000 00 00 40 40 00 00 00 40 00 00 40 40 00 00 00 40
       3.0 2.0 3.0 2.0
000010 00 00 00 40
       2.0

network_body._body_endoder.seq_layers.0.weight f4 [128, 82]
000000 d6 86 06 3e 49 05 eb bd a3 6c bb 3d 78 c4 b4 3d
       0.13137373 -0.114756174 0.0915158 0.08826536
000010 85 9f 2d 3d 52 01 23 3e 03 d8 9c 3d 2f 83 dd bd
       0.042388458 0.15918472 0.076583885 -0.10816037
000020 c5 aa 07 3e 92 85 a2 3c 49 8b 70 3e 8f 19 53 bd
       0.13248737 0.019839082 0.23490633 -0.051538046
000030 68 d5 12 3c c8 8f 6c be 64 58 91 bb fd 5c 21 be
       0.008962013 -0.23101723 -0.004435586 -0.15758128
000040 cd 6f 19 3e 22 20 a2 3c 3e d1 35 3e 4b 70 00 3e
       0.14984055 0.019790713 0.17755601 0.12542836
000050 d7 d0 c5 3c 25 0b db 3d 7e 55 3a bd 53 92 9c bd
       0.024147434 0.10695485 -0.045491688 -0.07645097
000060 ab 5f 12 3d 9d 01 3c be 52 0f b4 bd 76 1d f6 bd
       0.035735767 -0.1835999 -0.087919846 -0.12017338
000070 7b f0 b2 bd 5e 26 f4 bd 91 dc 34 3d f2 fd 38 3d
       -0.08737274 -0.119213805 0.04415566 0.045164056
000080 c9 e1 9e 3d d0 8a b7 bb de 8d e2 3d d2 3a 19 3e
       0.07757909 -0.0056012645 0.11062215 0.14963844
000090 53 71 e5 bd ba c6 d2 3c 67 5e 5f 3d 78 36 71 3e
       -0.112032555 0.025729526 0.05453339 0.23555934
0000a0 06 7f 20 3d db e8 52 bd 32 a4 71 bd d7 24 b4 3d
       0.03918364 -0.0514916 -0.05899448 0.08796089
0000b0 4e 4f 00 be bf e0 1f bd 57 e5 31 3e 79 84 33 bd
       -0.12530252 -0.039032694 0.17372642 -0.043827508
0000c0 be ae 9b bd de 20 7c 3d 62 10 73 bd 09 4f 1d be
       -0.07601689 0.061554782 -0.059341796 -0.15362181
0000d0 c8 4b 90 3c 06 06 70 bc fd d2 3a 3e 3f 59 8b bd
       0.01761426 -0.014649874 0.18244548 -0.06804132
0000e0 eb b2 90 bd 6a c1 3f b9 7e 89 35 3d 76 51 ff 3c
       -0.07065376 -0.00018287232 0.044320576 0.031166773
0000f0 3f f6 14 be 0a 43 03 3e 1a cb 02 bd 5c ed ee 3b
       -0.1454706 0.12818542 -0.031931974 0.007291479
000100 67 23 3e bc 54 9a a6 3d 7b 72 01 be f7 13 50 bd
       -0.01160512 0.081349045 -0.12641327 -0.05080029
000110 d1 c0 bb 3d 7c c3 3c 3e 06 60 bd bd 85 f2 a0 3b
       0.09167636 0.18433946 -0.09246831 0.004911723
000120 a4 1d 9f bd 5e 11 0f 3e ea 6a 40 3d 55 27 38 bd
       -0.077693254 0.13971469 0.04697696 -0.044959385
000130 98 51 23 39 40 7a 7b 3c f1 90 1d bd dc ff d1 bd
       0.00015575287 0.015348971 -0.038468305 -0.102538794
000140 d2 c2 ff bd cf 19 9a bd 8e 1c 0a bd 6a 76 34 be
       -0.12488331 -0.07524454 -0.033718638 -0.17623296
000150 0f f8 87 3e a8 d9 a7 3b d8 7e 4a bd df 7b cb 3b
       0.2655644 0.005122382 -0.049437374 0.006209835
000160 5a 3d aa bd 64 ea af 3d bf 27 6b 3d f7 68 f2 bd
       -0.08312483 0.08589628 0.05741095 -0.11836427
000170 cd 4f 08 3c f2 9e be 3c 45 01 97 3c 6c 14 94 bd
       0.008319807 0.02326915 0.018433223 -0.07230458
000180 af 99 9d bc b8 26 3d be 16 3c 44 39 11 9e f0 bd
       -0.019238321 -0.18471801 0.000187144 -0.11748899
000190 00 9e 74 bd 63 05 41 be 5a 9e 79 bd 7a 0e 89 3d
       -0.059720993 -0.18849711 -0.06094203 0.06692214
0001a0 a0 0d a6 bb 2a 6b 6b bd b6 80 3a 3e b4 56 a9 bd
       -0.005067542 -0.057475246 0.18213162 -0.082684904
0001b0 c5 4f 1e bd 94 de 22 be 05 34 7b bd 8f 5c b6 bd
       -0.038650293 -0.1590522 -0.061328907 -0.08904373
0001c0 a3 28 7a 3e 20 c2 8c 3d 5d 53 4b 3e 79 9b 2a 3d
       0.24429564 0.06872964 0.1985602 0.041652177
0001d0 1a 77 ac bc 3c 56 1b 3b 3e fb b2 bd 5a bb d5 bd
       -0.021052886 0.0023702523 -0.08739327 -0.10436125
0001e0 44 a2 19 bd 95 0d 6b bd 53 e6 1e bc 57 36 8c 3c
       -0.037508264 -0.057386 -0.009698468 0.017115755
0001f0 f1 40 02 3d bd 14 18 3e 6c 2b 0c 3d d5 23 b7 3d
       0.031800214 0.14851661 0.034221098 0.08942381
000200 a8 b8 c0 3d df 08 15 bd 71 0b 38 3d c2 91 80 3d
       0.094102204 -0.036385413 0.044932786 0.06277801
000210 49 56 60 3d f4 d7 c3 bc 60 da e4 3d da ef 7c bd
       0.054769788 -0.023906685 0.11174464 -0.061752178
000220 cc 85 d7 bd 3c 0c 2c 3e 54 37 21 3e c4 4a f7 bd
       -0.105235666 0.16801542 0.15743762 -0.12074807
000230 b1 7a 06 bd 35 8a ed 3c 4e 7f 72 3e 31 94 6c be
       -0.03283185 0.028996566 0.23681375 -0.23103406
000240 72 03 24 3e 2f fa 2a 3b fd 68 ce bd 03 02 19 be
       0.1601694 0.0026089062 -0.10078619 -0.14942174
000250 00 19 0e bc 2a 3c 3f 3e f0 00 ed 3a e3 40 59 3d
       -0.008672953 0.18675295 0.0018081944 0.053040396
000260 3a 4b 23 be c7 f4 92 3c b6 e2 74 3d cc 5b b8 3c
       -0.15946665 0.017938985 0.05978652 0.02250471
000270 ca a7 2f 3d 65 55 ab 3d 10 9f 45 be eb 7a 00 be
       0.042884625 0.08365897 -0.19298959 -0.1254689
000280 76 d8 ed 3c 45 e1 80 3c 20 6e bc 3d 45 31 df bd
       0.02903388 0.015732417 0.09200692 -0.10898069
000290 70 1a 03 be 4b 77 98 3d 9f 89 1d 3e 46 ac 06 3d
       -0.12803054 0.07444628 0.1538453 0.032879137
0002a0 bc 3d a9 bd 21 49 4d bb fa 6b 74 3e 32 51 21 bc
       -0.08263728 -0.0031324106 0.23869315 -0.009846019
0002b0 d8 1f 2e bd 79 96 0d bd 44 84 01 be 71 61 d4 3d
       -0.042510837 -0.03456733 -0.12648112 0.10370148
0002c0 ce de fd 3c 41 6c 20 be b9 1f 4c 3e ca 3d 7a 3d
       0.03099003 -0.15666296 0.19933976 0.061094083
0002d0 bb ba 9a 3c bd f2 0c be dd c6 ac bd 8f e1 3e 3c
       0.018887868 -0.13764472 -0.08436368 0.011650457
0002e0 3f ba ff 3d 20 e5 9a bc a7 cb 92 3d 5b 06 b8 3d
       0.124866955 -0.018908083 0.0716775 0.08985587
0002f0 51 5e 86 3c 28 59 61 3d c2 e3 00 be d1 a3 53 3d
       0.016402395 0.055016667 -0.12586883 0.0516699
000300 12 88 0b bc c0 6d eb bc 7b 24 e1 3d 00 87 e7 bb
       -0.008516328 -0.028738856 0.10993286 -0.007065654
000310 71 61 32 bd 1e 15 83 be d9 d0 96 bd 0b 45 74 3d
       -0.04354996 -0.2560205 -0.07364053 0.059636157
000320 0f c9 17 bc b4 82 ea bd 5d 7c 25 be c1 38 bc bd
       -0.009264245 -0.11450711 -0.16160722 -0.091905124
000330 41 f3 12 3e 27 cf 56 be 73 54 44 bd 91 96 bd bc
       0.14350607 -0.2097746 -0.0479321 -0.023143085
000340 31 22 93 3d 52 ec 3f 3d ac 38 64 3c 2d 6d ea 3c
       0.07184256 0.046856232 0.013929527 0.028616512
000350 a6 c9 ef 3c 44 de a9 be b6 f9 38 3d 75 e0 1b 3e
       0.029270958 -0.33177388 0.045160018 0.15222342
000360 f4 1c 55 3c a6 19 85 be 20 15 39 3d e0 a3 77 3d
       0.013007391 -0.2599613 0.045186162 0.060459018
000370 ff 12 b9 bc ec 8f ab bd 06 63 cc bd 0a 7f 13 3d
       -0.022592066 -0.0837706 -0.09979825 0.036009826
000380 4f 39 db bd e2 d6 5b 3d 87 11 e8 3b 21 76 8d be
       -0.1070429 0.053671725 0.0070821675 -0.27629188
000390 62 d9 0f 3d d1 ef c5 3d 14 58 74 3d 94 c5 a0 3d
       0.03511942 0.09664882 0.05965431 0.07850185
0003a0 4c cb 9f 3d 46 f7 0d 3d bb 4c 19 3d 5c 34 64 be
       0.07802448 0.034659646 0.03742669 -0.22285599
0003b0 1d 7d 7b 3c 37 5c 56 be f0 a6 fd 3d 87 18 1d 3e
       0.015349654 -0.20933615 0.123853564 0.15341388
0003c0 39 cc 45 be 82 22 b1 bc b0 72 31 3e 4b 0c 02 3b
       -0.19316186 -0.0216229 0.17328906 0.0019843753
0003d0 a6 ed 3e bd 4b de a6 bd 29 4e 29 bd 02 6c 7b bc
       -0.046613358 -0.08147868 -0.041334305 -0.015345575
0003e0 d8 24 41 be 2e d6 4c 3d c5 d4 fc 3d 4c 1c 08 be
       -0.18861711 0.050008945 0.1234527 -0.13292044
0003f0 17 61 56 39 06 8f 8c 3d a1 fd da bd 9e d2 03 3e
       0.00020444799 0.06863217 -0.10692907 0.12873313

network_body._body_endoder.seq_layers.0.bias f4 [128]
000000 b4 1f be 9d 43 d0 a1 02 a0 af 1d 3d 30 c0 e5 bc
       -5.032536e-21 2.377636e-37 0.038497567 -0.028045744
000010 21 cd cc 31 c4 b1 0b 31 89 dd 8c 19 32 9e d8 3a
       5.960502e-09 2.032821e-09 1.4565138e-23 0.0016526638
000020 1c b1 bd 3c 4a e9 6c 3b 5d a1 5b bc 3d 6b 0b 3a
       0.023155741 0.0036149793 -0.013405171 0.0005318409
000030 8f d4 41 bc a3 ea 6f bc f0 06 0f a9 72 14 9e bb
       -0.011830463 -0.014643344 -3.1758396e-14 -0.0048242146
000040 2f b1 8b bd 7f c6 1e 3c 11 28 4e 36 94 16 16 bc
       -0.068209045 0.00969088 3.0719714e-06 -0.0091606565
000050 ab c6 b7 bc ed c9 ed 35 0a ba ee 9d 13 b4 9c bc
       -0.0224336 1.7716644e-06 -6.3190435e-21 -0.019128835
000060 6d b2 00 96 5d 91 46 3d b3 ba 8a bc 1f a2 27 3c
       -1.0396059e-25 0.048478473 -0.016934728 0.010231524
000070 52 dc 1f a2 07 6c af 3c a9 88 29 2d 0b 92 b6 bc
       -2.1665155e-18 0.021413816 9.6368824e-12 -0.022286436
000080 70 12 ba bc fa e2 2b bc e0 33 1f 3d 3d f6 72 bc
       -0.02271387 -0.010491127 0.03886783 -0.014829216
000090 c1 a0 bb b1 62 03 17 bd 00 00 00 00 a4 38 f3 bc
       -5.460692e-09 -0.03686846 0.0 -0.029690094
0000a0 00 1e c0 3c cb cf 9d bc 0c 05 6c bc 8d d5 ac 3c
       0.023451805 -0.019264122 -0.0144055 0.021097923
0000b0 96 93 c3 bc 47 27 cd bc 25 7c 79 3d ec db 42 bd
       -0.023874085 -0.025043143 0.06090941 -0.047573015
0000c0 a6 6f 9c 35 69 97 35 bd ef 23 e6 bc e9 1b a3 ae
       1.16554e-06 -0.04433385 -0.028093306 -7.41734e-11
0000d0 ec dd b8 bb 42 35 07 bb af f4 86 3c 17 c3 89 bc
       -0.0056416895 -0.002063111 0.016474096 -0.016816659
0000e0 73 53 87 1f 8a 7c 3f bd d6 48 88 b5 ed a6 cb bc
       5.731278e-20 -0.04674963 -1.0153988e-06 -0.02485987
0000f0 a5 10 a6 2c 3a 9e 38 3c 96 3d b7 bb 63 ff 23 bd
       4.7198517e-12 0.011268193 -0.0055920584 -0.040038478
000100 76 3d d7 35 8d 2d 54 3d 00 00 00 00 fd e3 78 3c
       1.6036636e-06 0.051801253 0.0 0.015191075
000110 c5 af ef bc 01 ce 7f 3b 3f 56 00 3c 1e 53 75 a4
       -0.029258618 0.00390327 0.007833063 -5.319631e-17
000120 e1 1f 8b 3c 60 ae d5 bc 92 0b af bc bc ff 49 bb
       0.016982974 -0.026084125 -0.021367822 -0.0030822596
000130 1f 64 e3 bc fb 07 76 bc 6f dd 8a bd 8b 63 eb 3b
       -0.027757702 -0.015016551 -0.06780516 0.0071834973
000140 d2 10 b7 bc 74 94 94 bb 26 17 b8 3c 14 d3 19 bc
       -0.022346888 -0.0045342986 0.022471976 -0.009388704
000150 8a f0 09 05 dc 21 c3 bc a0 a2 ab ba f2 97 1e 3d
       6.485889e-36 -0.023819856 -0.0013094731 0.038719125
000160 f5 b1 24 3c 1d cd 72 b0 2c 6d 3e b7 18 9b 8a 2f
       0.010052194 -8.833057e-10 -1.1350301e-05 2.5212255e-10
000170 89 b6 0f bd 54 d2 2b b1 96 80 1f b8 5b 95 9f bc
       -0.03508619 -2.5003333e-09 -3.802831e-05 -0.019480398
000180 17 cf 20 3c ee 03 68 bc 3c e6 6e bc de 97 e9 bc
       0.009814999 -0.014161093 -0.014581259 -0.028514799
000190 fe 9b 42 3c 5f 8a e9 bc ca 8d 2f 3b f5 7f dc bc
       0.011878012 -0.028508363 0.0026787394 -0.026916483
0001a0 01 89 22 3a 29 1d c8 3b 1f d3 80 bc 2f 29 92 3b
       0.0006200225 0.006106992 -0.01572567 0.004460476
0001b0 41 a2 3f 3d 90 df 9b bc 00 00 00 00 e4 82 fd bc
       0.046785597 -0.019027501 0.0 -0.030946203
0001c0 bd ad 17 bd 66 f3 03 bc 9c 30 39 bd 04 91 22 bd
       -0.037030924 -0.008053636 -0.045212373 -0.03968908
0001d0 c7 7e c4 90 9f 7f 77 af e9 3d b7 bd e3 3c dd 35
       -7.75037e-29 -2.2509859e-10 -0.08947355 1.6483503e-06
0001e0 c1 2a a3 3a 8b e7 9d 27 52 8f ac bc d4 23 04 bc
       0.0012448655 4.3827293e-15 -0.021064434 -0.008065183
0001f0 c9 18 02 bc 94 61 c9 bc 3b a4 34 bd 2d f9 8a bc
       -0.00794048 -0.024582662 -0.044101935 -0.01696452

network_body._body_endoder.seq_layers.2.weight f4 [128, 128]
000000 01 09 5b 3d ff 38 68 bc 8c 64 27 bd 43 3f 5c 3c
       0.053475384 -0.014173745 -0.040867373 0.013442817
000010 fc 9a f8 bc d6 03 63 bd 10 e2 05 3e f4 fe 32 3e
       -0.03034734 -0.05542358 0.13074517 0.1748007
000020 43 78 13 be 0b 4e 8d 3d bf 11 11 3e 66 28 b0 bc
       -0.14401345 0.06899651 0.14166926 -0.021503638
000030 b6 09 1d be 20 65 b9 bd 03 24 04 3d fc 59 03 3e
       -0.15335736 -0.09052491 0.032260906 0.12827295
000040 0c bd 4a 3d 2a 9b 32 be 03 80 d4 bd ae 63 6e 3b
       0.049496695 -0.17442003 -0.10375979 0.0036375332
000050 85 81 6a 3c 61 28 85 bd 2d de bd bc 39 d7 04 3c
       0.014313106 -0.06501842 -0.02317723 0.008107954
000060 7e b1 f9 bc b0 4a 0f 3e d7 c6 8d bd 6b 09 ce bc
       -0.030480143 0.13993335 -0.06922691 -0.025150975
000070 8c b2 94 3d 4d 08 bc bd 49 7a 17 be 08 df 62 bd
       0.072606176 -0.09181271 -0.14792742 -0.05538848
000080 d1 62 23 bd 27 a1 87 bd d3 49 c5 bd d8 1e dc bd
       -0.03988916 -0.06622534 -0.096332215 -0.107480705
000090 c1 cd ed 3b e6 d2 ab 3d 9e 89 b3 3c 35 37 a1 bc
       0.007257194 0.08389835 0.021916207 -0.019679645
0000a0 dd c9 07 be bb 68 2e bd 8f 25 94 bd ea 50 5a bd
       -0.13260598 -0.042580348 -0.07233726 -0.053299822
0000b0 61 63 26 be 12 b2 16 bc 84 ea 45 3e 36 48 85 3d
       -0.16248848 -0.009197729 0.19327742 0.06507914
0000c0 b7 e2 77 bc 33 f0 0b be 12 12 2d 3e 18 9b a1 bd
       -0.015129737 -0.13665847 0.16901425 -0.0789091
0000d0 55 43 bd 3c 50 23 68 3d 1f 69 16 bb 81 2f da bd
       0.023103395 0.0566743 -0.002295084 -0.10653592
0000e0 bc bf 95 bd 48 dc 0e 3e 8f d2 82 3c 7a 68 f0 bd
       -0.07311961 0.13951218 0.015969543 -0.11738677
0000f0 ec 56 44 be e1 f7 93 3d ea da 0d 3b a7 07 97 3d
       -0.19173783 0.072250135 0.0021645376 0.073745064
000100 06 e4 c6 bd 8f 45 51 bd 21 38 21 3e 89 38 50 bd
       -0.09711461 -0.051091727 0.15744068 -0.050835166
000110 d4 91 68 3a de 2b 0a bd fe 1d 0e bb f1 e7 c2 bd
       0.0008871828 -0.03373324 -0.0021685357 -0.095168956
000120 08 5e 8f 3c 73 f2 b1 3a 94 9e a9 3d ff a2 80 be
       0.017500892 0.0013576284 0.082821995 -0.25124356
000130 8d 23 91 bd bc a9 ef b8 f5 1d af 3d e5 15 14 be
       -0.07086859 -0.000114280236 0.08550636 -0.14461477
000140 1d 8c 82 bc e5 c9 56 bd 9e 29 46 3d e4 c9 74 bd
       -0.015935952 -0.052438635 0.048379533 -0.05976285
000150 37 0b 9f bd 4c 5f ee bb 92 aa 51 bd 2c 67 32 bd
       -0.07765811 -0.007274544 -0.05118806 -0.043555424
000160 63 13 bd 3b a4 2c ea bd b5 f6 8c 3c c0 90 da bd
       0.0057701333 -0.11434296 0.017207483 -0.1067214
000170 d0 c2 b7 3d b1 f2 91 b9 d9 44 79 bd 07 96 52 bd
       0.089727044 -0.00027837374 -0.060856674 -0.05141261
000180 63 6b 24 bb e1 c4 97 bd a4 a6 70 3d 3a 74 65 3c
       -0.0025088422 -0.074105985 0.05875267 0.014004761
000190 1a ab 20 bd 96 2f 20 3d 6a 78 20 bc 67 77 53 3d
       -0.039225675 0.03910788 -0.009794334 0.051627543
0001a0 81 5b 13 bc c4 6e 5b 3e 53 0c 65 3d 34 aa e6 bc
       -0.008993984 0.21428972 0.055919956 -0.028157331
0001b0 88 74 82 bc 37 c9 fe 3c cb 08 8b bd 1c db 8d be
       -0.015924707 0.031101806 -0.067887865 -0.2770623
0001c0 62 d4 03 3d 86 13 b9 bc 8d bf e1 bd c2 8a 30 bb
       0.032184966 -0.022592317 -0.110228635 -0.0026938175
0001d0 a1 7e ea 3c 93 38 11 3d 2e 3e 77 bc 53 f5 03 3c
       0.028624834 0.035454344 -0.015090508 0.008054095
0001e0 a1 cf d6 bb eb c9 9a bc 33 18 13 3d fd c6 88 bd
       -0.006555513 -0.01889511 0.03591175 -0.06678579
0001f0 2f d8 15 3e 2a 27 0d bd 69 ca 71 bd df 5c 30 bc
       0.14633249 -0.034461178 -0.059030924 -0.01076433
000200 82 cb b0 3d 8c 8d 42 3d 73 f4 96 3c d3 24 e7 3c
       0.08632566 0.04749827 0.01842711 0.028215801
000210 74 e8 ab bd 27 a7 88 bd 81 c5 00 3e c1 71 58 3d
       -0.08393946 -0.06672507 0.12575342 0.05284286
000220 69 c2 96 3d 22 f8 71 3d f1 98 99 3d f2 ce 8d bd
       0.073612995 0.05907453 0.074998744 -0.06924237
000230 42 84 ff 3b a8 1d 06 bc c7 01 0e 3d 76 81 5a bd
       0.007797749 -0.008185782 0.034669664 -0.05334612
000240 f9 b4 23 be 83 52 6d 3c 58 e8 5e 3d 88 1f a5 bd
       -0.15987004 0.014485004 0.0544208 -0.08062655
000250 14 ee 25 3d 1f a2 8b 3d c9 c5 a1 bd e0 6f 1e bd
       0.040510252 0.068180315 -0.07899053 -0.03868091
000260 20 61 80 bc 9f 06 21 bb 7f 48 85 bd 8c d6 19 3c
       -0.015671313 -0.0024570597 -0.06507968 0.009389531
000270 68 d9 f4 3c 57 e3 80 bd 1d f4 92 bd 7c 6b 55 bd
       0.029888824 -0.06293362 -0.07175467 -0.05210446
000280 8f e6 fd bb 42 72 73 bc 4e 36 a3 bd 01 17 46 3d
       -0.007748432 -0.014858784 -0.07969342 0.048361782
000290 dd 2a 5d 3b 7e 96 98 bd 7a e8 b0 3d b9 ef a3 3d
       0.0033747472 -0.07450579 0.086380914 0.08004708
0002a0 68 da 03 bd 8f 46 10 bd 84 b4 f4 3c bc ac 85 3c
       -0.03219071 -0.03522354 0.029871233 0.016317718
0002b0 62 5a f3 3c 78 ba 9e 3d cd 4c ca bd f9 02 28 3d
       0.029706184 0.0775041 -0.0987793 0.04101846
0002c0 c3 e9 12 bc c1 38 7e 3d e9 57 97 bd aa 4a 21 3d
       -0.008966866 0.062065843 -0.073898144 0.039377846
0002d0 97 cd 5d bd 82 c7 b4 3d 8e 86 36 3d e2 e5 ef bd
       -0.054151144 0.088271156 0.044561915 -0.117137685
0002e0 09 fa 0e be e2 f5 41 3e c3 36 ac 3c 8f 21 08 3d
       -0.13962568 0.18941453 0.021022206 0.03323513
0002f0 62 02 6d bd 12 57 7c 3d 45 6c 87 bd 94 7d 84 bc
       -0.0578636 0.061606474 -0.06612448 -0.016173162
000300 ce b9 3a bd 51 06 41 3d cf f6 34 3d 16 da 90 bb
       -0.045587353 0.047125164 0.044180688 -0.004420529
000310 69 24 a5 3a 98 44 10 3e eb 47 62 be 35 53 fa bd
       0.0012599352 0.14088666 -0.22097747 -0.12222902
000320 5d 68 ea bb 64 c8 a7 3d a6 12 bb bd fa d5 ca 3d
       -0.0071535544 0.08192518 -0.09134416 0.09904094
000330 fb 8f cd bc 57 41 43 3e 46 83 21 3d a5 a0 d0 3d
       -0.02509307 0.19067894 0.039431833 0.101868905
000340 52 af eb bc df 39 08 be 6d 6c 3f bd 17 6e d7 3a
       -0.028770123 -0.13303326 -0.046734262 0.0016436008
000350 c6 d1 3f bc 63 67 37 bc b6 dc e9 bb c5 71 98 3d
       -0.011707729 -0.011194083 -0.0071369065 0.07443575
000360 fd 77 e1 b9 ea 87 46 bd 3a 76 67 bd 9c 66 f8 3b
       -0.00043004742 -0.04846946 -0.056509234 0.0075805914
000370 ad 25 3e bd c4 da ad bd 73 ec b3 bd 7a d4 87 bd
       -0.04642265 -0.08488992 -0.087853335 -0.066323236
000380 be 38 d3 bd 0f 56 fe bc ce 48 ad bd 27 ad 1f 3d
       -0.10313557 -0.031046895 -0.08461152 0.03898349
000390 bc af eb bd b2 83 b3 bd aa ca 98 bd 7c 18 36 bc
       -0.11508128 -0.08765353 -0.0746053 -0.011114236
0003a0 1f 09 89 3d ec c3 0b 3e 5f fa af 3d 6f 55 c4 bd
       0.06691193 0.13648957 0.08592676 -0.09586608
0003b0 eb 6f f9 3d bb 92 fa bc 4e 69 0e bc 4c 0b 4a be
       0.1217955 -0.030587545 -0.008692099 -0.19730872
0003c0 54 6b af 3d 60 48 6f bc a2 79 80 3d 38 4f fd bd
       0.08565393 -0.014604658 0.062731996 -0.123686254
0003d0 ea 4e 1d 3d 5c bd c1 3c b0 5d 0e 3d 82 26 28 bd
       0.038405336 0.023649864 0.034757316 -0.04105235
0003e0 0a 3a 7c 3d 11 2b 30 3e a2 08 ae 3d 05 61 0a 3e
       0.061578788 0.17203929 0.0849774 0.13513573
0003f0 72 c4 0f bd 81 92 e5 bc 7c 48 40 be 81 0f 3c bd
       -0.035099454 -0.02802396 -0.1877765 -0.045913223

network_body._body_endoder.seq_layers.2.bias f4 [128]
000000 f9 bb 84 bc a2 0e 18 bc 88 58 24 32 4e 35 95 bc
       -0.016202914 -0.0092808325 9.566186e-09 -0.018213894
000010 fc 53 a7 bb 49 d9 e7 3a 72 39 4a bc 9b 91 d7 bc
       -0.0051064473 0.0017688657 -0.012342798 -0.026314547
000020 22 d0 8b bc ef 5a 76 bc 0d 90 ca ba 67 ad 18 bd
       -0.017067019 -0.015036329 -0.0015454307 -0.037274744
000030 1a 2b 81 bc d1 1f 8a bc 3e 93 58 bc bf 8b c4 bc
       -0.015767623 -0.016860874 -0.013218699 -0.023992417
000040 db 54 6a bc 2b 70 b3 bc 2f b5 4c bc 91 ec 9b bc
       -0.014302458 -0.021904072 -0.012494369 -0.019033702
000050 35 bb ed 9e 75 5c 7e bc 78 db 73 bc b9 24 e4 bb
       -2.5170778e-20 -0.015524973 -0.014883868 -0.0069623855
000060 e9 eb bf bc 7b df f5 bb 50 7d 01 bd 37 1e 63 bc
       -0.02342792 -0.0075034476 -0.031613648 -0.013862184
000070 5e 49 1f bc ad 6b 96 bc 62 c6 0e bd ab b5 4d bc
       -0.009722082 -0.01836189 -0.03485716 -0.01255552
000080 32 ea f6 a5 99 db db 31 5d ad 82 bc c7 25 1e bc
       -4.2832894e-16 6.3987042e-09 -0.015951807 -0.0096525615
000090 ca 7e bb bc 15 14 53 bc 39 2f 22 bd 4b c1 e9 bc
       -0.022887606 -0.012883206 -0.039595816 -0.028534552
0000a0 9d 28 69 bc a5 f6 8e bc 0c 8a ad bb 8e 41 8c bc
       -0.014230874 -0.017451594 -0.0052959975 -0.017121103
0000b0 0b 82 18 bc b2 55 08 ba 1e 41 c5 bb 5f da c5 bc
       -0.009308348 -0.0005200758 -0.0060197255 -0.024151979
0000c0 ee 98 3f bc 0a 9b a6 bb 76 3a 04 b2 75 fd 78 bc
       -0.011694176 -0.0050844 -7.696704e-09 -0.015197148
0000d0 6b 8a 31 bb fd 02 53 bc 59 54 90 bc 3e 11 08 bc
       -0.002709056 -0.01287913 -0.017618345 -0.008304892
0000e0 d0 ca df bc f9 99 d9 2c 96 a3 4e bc 17 18 d3 93
       -0.027318388 6.1846053e-12 -0.012612244 -5.3287643e-27
0000f0 fd 12 91 bc af d3 25 ba ac f1 7e bc dc 97 2f bc
       -0.01770925 -0.0006325794 -0.015560549 -0.010717358
000100 97 52 8b bc a3 12 8e b8 53 54 d7 bb 13 a0 80 33
       -0.017007155 -6.774559e-05 -0.0065713315 5.989582e-08
000110 eb 8e 6f bc 30 83 cb bc 39 54 01 bc f8 bd 9d bc
       -0.014621477 -0.024842829 -0.007893615 -0.019255623
000120 5f b0 92 ac f5 e0 03 bc 0f 4e 66 bc bb 0b 64 3c
       -4.1691507e-12 -0.008049239 -0.014056697 0.013918812
000130 20 90 c2 bc 2f 9f 3d 99 c0 d4 84 bb 0d ad 78 bc
       -0.023750365 -9.803218e-24 -0.004053682 -0.015177977
000140 5a 76 cb bc 60 02 81 ae 3d 72 3a 1c 87 76 e6 bb
       -0.024836708 -5.866663e-11 6.1689887e-22 -0.0070331725
000150 84 09 93 bc 8e f6 b9 b8 2f 9a ed bb 24 ed 31 bd
       -0.017948873 -8.867412e-05 -0.007251046 -0.043439046
000160 25 62 7d bc 5e 78 3b 30 71 50 41 bc 12 a1 84 bb
       -0.015465294 6.8201256e-10 -0.011798964 -0.0040475214
000170 23 d1 4f bc 9d de b0 bb 26 28 a8 26 ac 2b 96 bc
       -0.012684139 -0.0053976313 1.1668224e-15 -0.018331371
000180 6d 16 81 bc c9 27 46 bc 26 4f 1f ba 3c 84 bb bc
       -0.015757764 -0.012094446 -0.00060771627 -0.022890203
000190 f9 07 cc b6 1b 97 12 1b 61 7d 8c bc dd 6c 9d bc
       -6.080602e-06 1.2125662e-22 -0.01714963 -0.01921695
0001a0 e2 31 a8 bc 76 9a 1e bc 5b f5 5d bc 99 b6 94 bc
       -0.020531598 -0.009680381 -0.013547267 -0.018153476
0001b0 82 51 96 bc 51 21 20 20 1d 19 04 bd 7a 97 ee bb
       -0.018349413 1.356355e-19 -0.032250512 -0.007281241
0001c0 2c cf 2a aa d0 9a 6d 9f 40 f0 87 a3 0e bd 28 bc
       -1.517091e-13 -5.031476e-20 -1.4738479e-17 -0.01029898
0001d0 b0 37 87 bc 4b c8 ac bc 58 30 40 a3 7a ca 65 a8
       -0.016506046 -0.0210916 -1.0418578e-17 -1.2755959e-14
0001e0 6e 23 65 bb a6 f4 d0 bc 2e 8d 6b 33 5c 26 9d bc
       -0.0034963745 -0.025507282 5.4843603e-08 -0.01918333
0001f0 7f 68 30 bc 84 88 18 bc b5 2e 5c bc b5 31 20 b9
       -0.010767101 -0.009309892 -0.01343887 -0.00015277306

action_model._discrete_distribution.branches.0.weight f4 [3, 128]
000000 1b cc 91 bb fc 93 3a bb d6 13 81 bb 37 c7 04 bd
       -0.00444938 -0.0028469553 -0.003939132 -0.03241655
000010 85 f9 16 3c 11 d7 82 3c a3 76 60 bb 75 8c 7c ba
       0.0092147635 0.015971692 -0.00342504 -0.0009633967
000020 7b 97 9f 3b a5 6a 41 bb 81 5f 1e 3d ae a6 66 bb
       0.004870353 -0.0029513028 0.0386653 -0.0035194564
000030 ec 62 25 3b 13 0a 17 bd 8c 78 50 3c ce e0 05 3d
       0.0025235964 -0.036874842 0.012724053 0.032685094
000040 85 41 02 bc 3e 3d 8c ba 49 e1 b4 ba bf 95 46 bc
       -0.007950191 -0.0010699404 -0.001380005 -0.012120663
000050 5b 0a 9f 3c 0d 26 ae bb 83 3b 86 bb 59 4f e7 3b
       0.019414118 -0.0053145946 -0.00409645 0.0070590195
000060 f0 5b 7f 3c e0 bf 65 b9 82 38 c7 b9 86 26 f3 bb
       0.015585884 -0.00021910621 -0.0003799834 -0.007420364
000070 9c 35 97 38 1e 1e 30 3b 8f 5e 3a 3c 86 2e 82 3b
       7.2102266e-05 0.002687342 0.011375084 0.003972831
000080 ef 35 88 ba 8e e5 c5 3b 46 11 ac b9 74 17 f4 bc
       -0.001039205 0.006039328 -0.00032819266 -0.02979634
000090 c2 a9 3a 3c e0 ee b1 bc 9b f9 3f bc 5d f3 fd ba
       0.0113930125 -0.02172035 -0.011717225 -0.0019374896
0000a0 d1 25 22 3a 5d 0a 0c bb 42 08 5a bc eb 5a 87 bb
       0.00061854447 -0.0021368482 -0.013307633 -0.0041307113
0000b0 40 d5 ce 3b 4a 35 fa 3b 77 b7 8f bb 56 20 c6 3c
       0.0063120425 0.007635747 -0.0043858844 0.02418534
0000c0 eb 7b 72 3c d6 18 52 bc b8 c7 7d 3c 48 58 3f bc
       0.014800052 -0.012823304 0.015489511 -0.011678763
0000d0 77 39 04 3c 32 45 36 3b d6 99 71 3b 01 5a 29 3c
       0.008070341 0.002781224 0.0036865375 0.0103364
0000e0 73 d1 1f 3d cd bd f1 3a 03 22 92 3c db 4f f5 3b
       0.039018106 0.0018443406 0.017838484 0.007486326
0000f0 5c 9f 9b 3a 2a 62 fd bb 45 f7 95 bc 69 c5 13 3c
       0.0011873054 -0.0077326493 -0.018306384 0.009019234
000100 88 18 8c bc 99 f5 55 3b 46 e4 98 b8 09 33 c1 3c
       -0.017101541 0.0032647608 -7.290444e-05 0.023583906
000110 85 d0 89 bc 6f de 1d bc 4f a3 a9 bc f3 34 5f bb
       -0.016823063 -0.009635552 -0.020707754 -0.003405866
000120 35 06 97 3b 32 d4 05 bb fa f9 e9 3b 33 c5 0c 3b
       0.004608894 -0.0020420668 0.007140395 0.0021479845
000130 30 24 2b bc 0d 23 ed 3b 2e 8b 24 bb ea 8e b1 bc
       -0.0104456395 0.0072368444 -0.0025107372 -0.021674592
000140 ff 4b fd bb d4 ad c0 3b 34 5a 3d bc 5e 61 03 3c
       -0.0077300067 0.005880097 -0.011557151 0.00801882
000150 98 30 23 bc 89 f5 8f 3c a3 81 c6 3b 47 95 15 3c
       -0.009960316 0.017573135 0.0060579344 0.009129829
000160 e4 bd 13 bb b8 0b dd 3b c5 db b4 3b d0 ab 61 bc
       -0.0022543604 0.0067457817 0.0055193626 -0.013773873
000170 12 ca 53 bc ac 42 2f b9 ff 43 00 3c f1 5d 38 3a
       -0.012926595 -0.00016714138 0.0078287115 0.00070330413
000180 66 c5 58 bb c4 31 bc ba 19 a5 01 3c d7 50 c2 bb
       -0.0033076643 -0.0014358093 0.0079128975 -0.005930047
000190 51 d9 d6 bb dd cc 03 bc ea 4b 44 bc 03 40 13 3c
       -0.006556668 -0.008044449 -0.01198099 0.00898743
0001a0 b8 84 fc ba 52 69 88 3a 6b 3d d7 3b fe bf 1c bb
       -0.0019265627 0.0010407364 0.006568601 -0.0023918147
0001b0 ff 13 b5 bb 0a 80 c5 ba ae c0 d6 bb 15 be 11 3c
       -0.0055260654 -0.0015068066 -0.006553731 0.008895417
0001c0 a1 ae 8c bc 38 df 62 bc cb 5b 35 bc 4a d9 94 3b
       -0.017173113 -0.013847165 -0.011069248 0.0045425044
0001d0 db 04 e5 3c a1 60 a4 3b 33 be 5f 3b d4 fd 31 bc
       0.027956417 0.005016402 0.0034140467 -0.01086374
0001e0 b1 0a 24 bc 59 a4 9e bb b6 20 3e 3c 0c cd 48 3c
       -0.010012315 -0.004841369 0.011604479 0.012255918
0001f0 45 f6 83 3c 78 e9 29 bb bd 20 e1 bb 18 27 05 ba
       0.016108641 -0.0025926512 -0.006870358 -0.0005079373
000200 69 43 75 3c a6 63 5a bc 59 a2 3a ba 45 a0 05 3d
       0.014969685 -0.013329422 -0.00071195286 0.032623548
000210 59 14 ee bb 0a 15 5a 3c d9 e2 2d bc 6c 3f 7e bc
       -0.007265609 0.01331068 -0.010613167 -0.015518051
000220 c4 24 c6 bb 97 d7 49 bc 6b 7a 8b bb b9 ea b1 3a
       -0.0060468633 -0.012319467 -0.0042565367 0.0013573981
000230 82 f6 67 3c bb ac da ba cb 41 39 3c fe 8a f4 bc
       0.014157893 -0.0016683558 0.01130719 -0.029851433
000240 08 f2 be ba 79 e8 05 bb 62 93 ae bc ca c3 86 bc
       -0.001456798 -0.0020432754 -0.021310512 -0.016450781
000250 a6 27 43 ba 3e b1 ce bb 8c 9a 6f 3c ea 40 2e bc
       -0.0007444568 -0.00630775 0.014624249 -0.010635594
000260 4b 55 d6 bb 80 3b 77 3b 19 27 ea ba af 29 86 ba
       -0.0065409294 0.0037724674 -0.0017864435 -0.0010235811
000270 0c 83 cc bc 4c 27 8f 3c 40 57 d7 3b 6f 89 7d 3c
       -0.024964832 0.017474793 0.0065716803 0.015474661
000280 3e 6a 2c 3b 70 8e 42 3b a1 d8 38 bc 45 e8 44 3c
       0.0026308442 0.002968695 -0.011282117 0.012018268
000290 f2 fd 88 bb cc 8e 96 bc 7a 5f 10 bc 86 fa 5e 3b
       -0.0041806633 -0.018378638 -0.008811826 0.0034023835
0002a0 c6 35 c6 bb 67 3d e9 3b 89 f7 7c 3b 78 06 24 bc
       -0.0060488908 0.0071179154 0.003859969 -0.010011308
0002b0 21 68 0b bc 73 9f f9 3b 0b 08 9b 3b e5 ea 8f bc
       -0.008508713 0.007617885 0.0047311834 -0.017568061
0002c0 02 8f 0a 3c fb e6 c3 3c bd 81 3f bb 8d e8 4b 3c
       0.008456947 0.023913851 -0.0029221617 0.012445581
0002d0 61 17 17 bc a6 16 bc bc c2 80 70 39 64 51 89 3c
       -0.009221883 -0.022960018 0.0002293615 0.016762443
0002e0 a7 9c e2 bc e8 03 a5 3b 0f 05 47 3b 7f 64 f1 bb
       -0.027662588 0.005035866 0.0030368005 -0.0073667164
0002f0 bc 96 82 3c de 41 38 3c c1 c6 00 bd 3d a6 3f bb
       0.015941016 0.011246173 -0.031439546 -0.0029243373
000300 84 48 0e bc 01 ea 30 bb 43 45 e4 b9 fa 26 69 3c
       -0.008684281 -0.0026994946 -0.00043539153 0.014230484
000310 6d b9 6e bc 1f 5b af bb 2d 66 08 3d 80 c2 43 bc
       -0.014570576 -0.0053514387 0.033300567 -0.011948228
000320 1a 20 a6 3a 9b d0 76 3d 71 eb 14 3b 8f b3 0b 3d
       0.0012674362 0.060257535 0.0022723342 0.034106787
000330 fe d1 9b bb 19 a4 3e 3c a8 89 5e bc 05 50 df 3b
       -0.0047552576 0.011635804 -0.0135826245 0.006814959
000340 bc 43 d8 bb ef 20 0e bc 0e 58 15 3c a2 7c 20 bb
       -0.0065998714 -0.008674844 0.009115232 -0.002448835
000350 84 3b de 3b ce ba 4d bb 98 dc fd ba f1 5a 4d bb
       0.006781997 -0.0031391862 -0.001936811 -0.0031334723
000360 9f 20 93 bc 2a d9 f2 bb bb 52 2f 3b 74 5d 6e bc
       -0.01795989 -0.007411142 0.0026752192 -0.014548648
000370 64 d2 d6 ba e7 44 41 3c 23 af a9 3b 9a ed 3e bb
       -0.0016389606 0.011796213 0.0051783486 -0.002913332
000380 cf db db 3b d4 2d 93 bb ff f8 97 3c df 03 ae 39
       0.006709553 -0.004491547 0.018551348 0.0003319075
000390 57 90 5a ba aa 78 f2 ba 8e 66 e4 3b 7e ba 41 3c
       -0.00083375484 -0.0018499095 0.0069702333 0.011824248
0003a0 a8 ae 9d bc 76 30 b5 3b ad 02 86 3c d7 b1 5d 3c
       -0.019248322 0.0055294586 0.016358698 0.01353117
0003b0 b2 c8 af 3b 77 80 3c bb 05 fa 82 bb a0 06 6c 3c
       0.005364501 -0.0028763094 -0.00399709 0.014405876
0003c0 af b3 6b 3c 5a 68 ab 3b 7c 44 9e bb 5e 9c 9e 3b
       0.014386102 0.0052309455 -0.0048299413 0.0048404178
0003d0 ce 58 a9 bc 1f 09 9e 3c 80 4f d7 3b 2a c1 90 39
       -0.020672228 0.019291459 0.0065707564 0.0002760974
0003e0 89 88 b6 bb fd 1d 14 b8 29 ca ad 3b 5d 3e 05 bb
       -0.0055704755 -3.531388e-05 0.0053036404 -0.002033136
0003f0 0d 33 0d bd 18 b5 23 3b 68 f3 5f bd e3 19 89 bc
       -0.034472514 0.0024979766 -0.05467549 -0.016735977

action_model._discrete_distribution.branches.0.bias f4 [3]
000000 aa d3 5c bd 3a 34 8f bd 60 11 f8 3d
       -0.053912796 -0.06992383 0.12112689

action_model._discrete_distribution.branches.1.weight f4 [2, 128]
000000 c0 34 ab 3c 60 a5 71 3b 15 56 d1 3a 0b 2e ac bc
       0.020899177 0.0036872253 0.0015971089 -0.021018049
000010 6c 58 b2 bc 9d 26 0d 3c 8a e8 00 3d 0a 7b 94 bc
       -0.021770678 0.008615163 0.031471767 -0.018125076
000020 df 30 0c bc 87 83 6d 3b ab 59 5e bc dc 90 41 bc
       -0.008556574 0.0036241726 -0.013571183 -0.011814322
000030 39 d0 ff b9 45 c8 4b 3c 75 4c 62 3c 74 b0 ae 3c
       -0.00048792528 0.012437885 0.013812174 0.021324374
000040 c9 e9 07 bc 16 3d 0d bc 9c c4 8f 3a 5e 91 79 3a
       -0.008295485 -0.008620521 0.0010968628 0.00095202576
000050 35 8a 21 3c ed 7d 87 3c bf 31 39 bc a9 f3 56 3c
       0.009859611 0.016539538 -0.011303364 0.013119617
000060 bb 3e f2 bb f6 57 26 3c fa e5 3d bb a8 95 14 3c
       -0.007392732 0.010152807 -0.0028976188 0.009068884
000070 0d fa ad ba 2e e2 0b 3c 45 92 c7 bb 23 42 82 3c
       -0.0013273373 0.008537812 -0.0060904347 0.015900677
000080 79 be 9c ba 8d 08 04 3c a9 f0 2a 3a db b0 e6 bb
       -0.0011958621 0.008058679 0.00065208465 -0.007040126
000090 02 77 01 bc 2a 16 bb 3b b1 1c 5b 3b 85 9c bb bb
       -0.007901909 0.0057094293 0.003343385 -0.0057254457
0000a0 ee 1c 5b ba 71 7d 4c 3c 8d bb 8d bc 6b c3 67 bb
       -0.0008358498 0.012481079 -0.017301345 -0.003536428
0000b0 c6 e2 7c 3c a1 91 88 bc 2c bd 0a bb bd 3f a1 bc
       0.015434926 -0.016671004 -0.0021169884 -0.019683713
0000c0 07 ad 24 3c 85 b6 b8 bb 92 23 36 3b 33 81 c8 bc
       0.010051019 -0.0056369924 0.0027792198 -0.02447567
0000d0 76 ae 29 bc 12 f8 31 3b df 93 31 bc b3 f2 50 bc
       -0.010356536 0.0027155918 -0.010838478 -0.0127531765
0000e0 b3 69 a0 3c 12 66 74 ba f6 57 93 bb ab 92 7f 3c
       0.019581651 -0.0009323071 -0.0044965697 0.015598933
0000f0 8d c1 a1 bb 79 a8 43 ba 8b c9 80 bc 9a 46 23 3c
       -0.004936403 -0.0007463764 -0.015721103 0.009965563
000100 d9 0c 5c bb 33 18 b8 3b d0 3c ff 3b 25 34 57 3b
       -0.0033576994 0.005618119 0.007789232 0.0032837477
000110 f1 2d 13 3c c0 df 04 bb 5b 83 09 bc 0a 77 7b bb
       0.008983121 -0.0020274967 -0.008393134 -0.0038370513
000120 9a 6a cc 39 32 80 90 bc a4 c1 f9 3b 5e 56 4a 3d
       0.00038989336 -0.017639253 0.0076219607 0.049398772
000130 26 71 b0 ba 6f 5d 1b 3c 19 af 6f bc 76 f7 3f 3a
       -0.0013461455 0.0094827255 -0.014629149 0.00073229463
000140 a6 51 a9 bb 5d f1 0d bc ef 2a 23 3c f4 ee eb 3c
       -0.005167204 -0.0086635025 0.009958967 0.028800465
000150 25 85 25 3b 7a 11 74 3b 37 11 2f 3b b7 a5 a6 3b
       0.0025256362 0.0037241862 0.0026713142 0.0050856727
000160 17 bb 60 3c 6e 0a 88 bb 1b df 5b 3b 0e a7 b5 3b
       0.013716481 -0.004151634 0.003354973 0.005543596
000170 4c 74 93 bb 06 cf 9a ba 58 5a 5a bc 2a 33 a3 bb
       -0.0044999477 -0.0011810965 -0.013327204 -0.0049804645
000180 75 d5 8e bc f2 4f a8 bb 1e 42 1e 3c 10 26 88 3c
       -0.017435769 -0.0051364833 0.009659318 0.016619712
000190 61 20 0e bc e2 3b f3 3b b8 3d d5 bb 7e b8 1a 3c
       -0.008674712 0.00742291 -0.0065076016 0.0094434
0001a0 eb e7 6b bc 65 82 0a 3c 39 73 85 bb 91 07 b8 3c
       -0.014398555 0.00845394 -0.0040725735 0.022464545
0001b0 97 d0 e0 3c a3 77 99 bc 84 be 42 bb b4 88 44 3c
       0.027443213 -0.018733805 -0.0029715607 0.011995483
0001c0 90 9f 54 3b bf 75 5c 3a c9 91 97 3c b9 54 ef 3c
       0.003244374 0.00084098795 0.018502133 0.029215204
0001d0 a5 a8 5a b8 71 e7 49 b9 80 54 f1 3b 1a 59 7b bb
       -5.2132313e-05 -0.00019255072 0.0073648095 -0.003835267
0001e0 0f d8 93 bc 00 a9 41 3c 91 f8 fc 3b e3 0f 46 bb
       -0.01804736 0.011820078 0.007720061 -0.0030221872
0001f0 93 a7 4e 3c 81 37 02 3b 3e 09 df 3a 20 ec d5 3a
       0.012613195 0.0019869509 0.0017016304 0.0016320981
000200 9f 9e b7 bb 8c fe 8a 3b f5 7b 77 3a 21 68 7c bb
       -0.005603626 0.00424177 0.0009440773 -0.0038514214
000210 b2 90 cb 3b ff 02 7a bc 16 c4 c1 bc 8c b4 ea bb
       0.0062123174 -0.015259503 -0.023653071 -0.007162636
000220 24 c1 48 bb 02 e9 a8 bb 19 7e 2d 3c 36 12 1d 3b
       -0.00306327 -0.00515473 0.010589146 0.0023967153
000230 80 21 d3 3a d7 bf 14 3c b6 00 87 bc e6 fb de ba
       0.0016108006 0.009078941 -0.016479831 -0.0017012327
000240 ab 42 a7 3c 7f c3 09 3c f0 96 50 3c 3b e7 08 bb
       0.020417532 0.008408426 0.012731299 -0.0020889777
000250 9a f7 0e 3b 7e 70 36 3b a4 98 44 bb 4d 40 96 3c
       0.0021815063 0.0027838047 -0.0029998207 0.018341208
000260 35 80 0b 3b e6 80 9a bc 5b 64 c2 3b 28 9d db 39
       0.0021286134 -0.018860292 0.0059323735 0.00041888026
000270 30 24 1d bb 74 fb 6c bc 5a 97 95 bc 49 71 e2 bb
       -0.0023977868 -0.014464248 -0.018260647 -0.0069104773
000280 e6 35 9d 3b e8 0b 54 3b 9e d8 21 3b be d5 f9 3c
       0.004797685 0.003235573 0.0024695764 0.030497428
000290 ca 17 ee 3a a1 42 4e 3c 98 6e d9 3b d2 98 ff 3b
       0.0018165049 0.012589128 0.0066354983 0.0078002
0002a0 1c 35 0a bb 1a 80 e4 bb 2a c5 8d 3c 97 6d 52 3c
       -0.0021088785 -0.0069732787 0.01730593 0.012843511
0002b0 64 fc 1d 3c 5b 13 41 3c a0 12 a3 3a 81 39 4e 3b
       0.009642694 0.0117844 0.0012441464 0.003146738
0002c0 2c 78 4a 3c af f3 db bb b8 b9 c1 3b 42 6c 5d 3c
       0.012357753 -0.006712399 0.005912032 0.01351458
0002d0 3c a9 a1 ba d5 46 7a bb 98 34 5a bb 4e 90 8a 3c
       -0.0012333761 -0.0038189192 -0.0033295508 0.016914513
0002e0 59 78 44 bc cb 15 80 bb 0c 2d 36 3c eb c9 19 3c
       -0.011991584 -0.003908848 0.011119138 0.00938652
0002f0 79 d5 94 3c 9f 71 e7 ba 98 4a fe 3b e5 64 89 3a
       0.018168198 -0.0017657763 0.007760357 0.001048234
000300 78 38 ca ba 4a a5 b4 3b 6d f1 9d 3b 9b 0e 32 bc
       -0.0015428206 0.005512868 0.00482004 -0.01086774
000310 1c 0e 98 3b 11 7a 84 3c be 8a 01 bc af 97 96 ba
       0.004640354 0.016171487 -0.007906614 -0.0011489297
000320 83 fc 22 ba 24 b1 a2 bb 08 c1 84 3b 41 37 3b bd
       -0.0006217437 -0.0049649645 0.0040513314 -0.04570699
000330 e7 f1 2c 3b 50 a7 e9 bb ce cf 8d b9 33 0a ec bb
       0.0026389302 -0.007130541 -0.00027048442 -0.0072033643
000340 d1 d0 98 bc db f5 8d bc e3 99 1b bc 73 a5 4c bb
       -0.018654259 -0.017329147 -0.009497139 -0.0031226545
000350 f7 fc 8d 3a 98 1e 21 3b 98 94 14 3c 0a 91 a2 3c
       0.0010832836 0.0024584886 0.009068631 0.01984455
000360 22 9f 53 b8 1b a4 91 bb ed 9d 5e bc db 2f 24 3c
       -5.0454524e-05 -0.0044446117 -0.013587457 0.010021175
000370 75 91 93 ba 53 26 ba 3a 93 8b f6 3b 52 61 25 3c
       -0.001125856 0.0014202095 0.0075239628 0.010094004
000380 8b 30 2a bc a6 bb 28 bb fd a8 cf 3c fc ad 0c 3c
       -0.01038755 -0.0025746613 0.025349135 0.008586403
000390 7b 8a f1 3b 39 1c 8c 3a 10 4e 23 3b c0 6f f9 ba
       0.0073712445 0.0010689563 0.0024918355 -0.0019030496
0003a0 bb b2 ae 3c ed 7f 17 3b e5 8f b5 bc 1f 03 d8 bc
       0.02132546 0.0023117021 -0.02216334 -0.026368676
0003b0 95 a1 f2 bc ab 92 ca 3b 30 18 67 bc fe 40 b3 bc
       -0.029618064 0.006182035 -0.014104888 -0.021881577
0003c0 1f f5 0c bb b5 d1 b3 3b eb 37 26 3b 24 c8 af bc
       -0.0021508408 0.0054876455 0.002536292 -0.02145774
0003d0 1f bf 67 3c f3 82 a5 bb 11 2f af 3b bd 8e 4e bb
       0.014144688 -0.0050510108 0.005346187 -0.0031518184
0003e0 23 82 0d 3c 5a 49 b0 3b 2b 2c 25 3c f5 91 f6 3b
       0.008636984 0.005379838 0.010081331 0.0075247237
0003f0 b0 5d 14 3c 1a 84 a0 bb f9 a3 01 3d d2 36 31 bc
       0.00905554 -0.0048985602 0.031650517 -0.010816293

action_model._discrete_distribution.branches.1.bias f4 [2]
000000 9b 56 44 bd 9c 56 44 3d
       -0.047934156 0.04793416

action_model._discrete_distribution.branches.2.weight f4 [3, 128]
000000 fe de 56 3c 29 4c 7c bc e4 2e 9f 3b f0 79 bf ba
       0.013114689 -0.015399017 0.0048578847 -0.0014608484
000010 18 51 a9 bc fa 1c 72 3c 75 b4 b2 bb a4 4e 5c 3c
       -0.020668551 0.014777416 -0.005453641 0.013446484
000020 36 1c 18 3c b2 52 da 3b bd a9 04 3c f4 d4 96 3b
       0.00928407 0.00666269 0.008097109 0.0046030227
000030 75 c2 59 bb 98 a9 1d 3b a8 3d 03 bb a5 34 11 bc
       -0.0033227478 0.0024057385 -0.0020025764 -0.008862649
000040 c9 98 d4 bb df fb 88 3c 5c f1 47 bc 14 57 4a 3c
       -0.00648794 0.016721664 -0.012203541 0.012349863
000050 cb 6f 1e bc d9 4d 59 bc 93 65 b5 ba da 91 22 3c
       -0.009670208 -0.013263189 -0.0013839476 0.009922469
000060 50 d6 66 bb 27 5f 09 bb 78 f5 14 3b 62 c5 a2 bb
       -0.0035222955 -0.0020961256 0.0022729319 -0.0049673775
000070 49 22 c5 3b ea f8 28 bc db 97 2a bc ad ee 39 3c
       0.00601605 -0.010313252 -0.010412182 0.011348409
000080 05 50 78 bb c7 f9 24 3c 3d 63 fb bb 90 f5 ba bc
       -0.0037889492 0.010069317 -0.0076717422 -0.022822171
000090 ae dc 8b b9 5b 23 69 ba b3 b6 b3 b8 62 84 43 3c
       -0.00026676565 -0.0008893513 -8.5694155e-05 0.011933418
0000a0 05 f2 39 3c d6 02 c8 3b c9 0b a4 bc 32 95 1c 3c
       0.011349206 0.0061038537 -0.02002515 0.009557055
0000b0 12 41 c0 bb 91 d2 2f bb 46 c4 4e bb 0c 9b 54 3c
       -0.005867132 -0.0026828388 -0.0031550094 0.012976419
0000c0 ea bc e3 3c 8d 50 94 3c 0a 0a 9d bc 48 d0 87 3b
       0.027800042 0.018104816 -0.019169826 0.004144702
0000d0 94 43 2c 3c 6c e4 6f 3a b7 80 58 bc 61 02 04 3b
       0.010514159 0.0009151164 -0.013214282 0.002014302
0000e0 7e aa 8a b9 ca 69 4a bc e0 90 1c bc b8 4e ec 3c
       -0.00026448438 -0.012354324 -0.009556025 0.02884613
0000f0 7b 33 0b bc a4 24 21 bc 95 bd be 3b bd 4d 3b 3a
       -0.008496161 -0.009835396 0.00582094 0.0007145068
000100 9c 04 91 3c c4 dc 80 3c dd b0 b0 3b 53 2d 49 3c
       0.017702393 0.01573027 0.0053921775 0.012278873
000110 11 bf 01 3c 23 b2 bb 3b 3f 92 9a 3a d7 8d 16 3c
       0.007919089 0.0057280227 0.0011792852 0.009189091
000120 5f 80 f4 3b b1 00 67 3b 37 b0 2f 3b 03 ec 1c bd
       0.007461592 0.0035248215 0.0026807913 -0.038311016
000130 66 5f 46 bc 1f a9 9b ba 84 6c 4b bc ef 4d bb ba
       -0.012107706 -0.0011875964 -0.012416009 -0.0014290194
000140 7e 72 67 bc 69 b0 08 bc c8 cf c7 3b b2 dd d5 3b
       -0.014126418 -0.008342841 0.0060977675 0.0065266723
000150 0b 97 e5 b9 77 2c a5 bb 05 de bc b9 79 c6 d9 b9
       -0.0004379082 -0.005040701 -0.00036023572 -0.0004153734
000160 4d 19 0f bc 46 e9 8e bc 8e 8d 32 bc 0a ab 78 bb
       -0.0087340595 -0.017445218 -0.010898007 -0.0037943744
000170 d6 25 5d 3c ac c8 a9 bb d6 0e 90 3a 33 12 38 39
       0.01349779 -0.0051813927 0.001099075 0.00017554387
000180 ab d5 0e bc 8b 16 59 bc 37 ff 1a 3c b3 ea 74 bc
       -0.008717935 -0.013250004 0.009460262 -0.014948535
000190 80 28 5c bc ef 41 98 3b 0b c9 9d 3b f9 a5 e1 39
       -0.01343739 0.004646532 0.004815226 0.00043039004
0001a0 06 40 8f 3c 38 19 65 bb f0 cd a2 3b f2 51 84 3b
       0.017486583 -0.0034957658 0.0049683973 0.004038089
0001b0 88 ac 35 3b 31 37 15 bc d4 8f e2 ba 8d 7b 88 3c
       0.0027721245 -0.009107397 -0.0017285296 0.016660476
0001c0 87 1c 13 3c 8f fc 82 3b e9 54 b2 bb b5 0e ec 3a
       0.008978969 0.0039973925 -0.005442251 0.0018009754
0001d0 c7 09 42 3c 40 96 86 3c 0b 0e 0b bc 18 36 d2 3b
       0.011843151 0.016429067 -0.008487235 0.00641514
0001e0 b2 ea c0 3c a6 d8 be 39 b5 6f 5e bc d9 a8 55 bc
       0.023549411 0.0003640104 -0.013576438 -0.013040745
0001f0 dc 71 b0 ba fd 39 b6 3c 82 04 5b 3c 7b 08 a4 3a
       -0.0013461667 0.022244448 0.013367774 0.0012514734
000200 70 2e a2 bc 9b 17 2b b9 67 bf 30 3c ba 07 1f 3d
       -0.019797534 -0.00016316625 0.010787821 0.038825728
000210 3e 83 f5 bc 3a 9a 13 bc 31 ea 08 bc 0c 16 45 b9
       -0.029969808 -0.009008938 -0.008356617 -0.00018795597
000220 b3 03 70 ba 29 e2 ff 3b 63 0d b3 bc 50 8b 99 3c
       -0.00091558247 0.007808943 -0.02185697 0.018743187
000230 b0 97 5c bb 07 9f 33 bc 72 fd 5f bc af 7e a1 3b
       -0.0033659749 -0.010963208 -0.013671266 0.004928432
000240 18 28 72 3b 55 52 0f bd 68 f6 15 37 cb 65 eb ba
       0.0036950167 -0.034990627 8.938463e-06 -0.0017959414
000250 73 9d ae 3a 50 4a 08 3b ed 67 ba 3c 21 6a 80 3c
       0.001332207 0.0020796247 0.022754634 0.015675606
000260 39 98 8d bc d6 21 ca ba e4 6d 73 3a 50 c1 78 bb
       -0.0172845 -0.0015421461 0.00092860893 -0.003795702
000270 43 90 9c 3c c5 49 d9 3c 16 c1 8d ba 70 06 c7 3c
       0.019111758 0.026524434 -0.001081499 0.024295062
000280 50 a8 1b b9 37 1e 5e 3c f8 f5 cc 3a da 34 a9 bb
       -0.00014844653 0.0135570085 0.0015637269 -0.005163771
000290 63 17 e2 bb e4 cb db 3a a2 cc f1 39 a8 86 34 3c
       -0.0068997606 0.0016769138 0.00046119565 0.011018433
0002a0 5d 49 51 3b 62 86 85 b9 37 41 1a 3a 4f 45 39 bc
       0.0031934597 -0.0002546786 0.00058843516 -0.011308028
0002b0 1b 86 78 3c 9d 55 c0 bb a8 15 f2 3a af 48 02 3c
       0.015168692 -0.005869581 0.0018469589 0.007951899
0002c0 fd cf 6e 3b d3 31 f1 3a f7 e8 37 3c 1c 74 43 3c
       0.0036439889 0.001840169 0.011224977 0.011929538
0002d0 4e 1f 07 bc 98 ac f2 3b 33 cb 96 3c 36 74 d1 b9
       -0.00824721 0.0074058287 0.01840744 -0.0003995017
0002e0 5d 13 98 bb 22 1b d8 3a fb 03 fb 3b ae 66 34 bc
       -0.00464098 0.0016487578 0.0076603866 -0.011010809
0002f0 43 52 34 bb ca 69 cc 3b c7 d5 4a 3b 02 32 ce bb
       -0.0027514852 0.006238197 0.0030950175 -0.0062925825
000300 55 7d 01 bc d1 2d dd bb 2d 97 6b bc 54 d3 42 ba
       -0.007903417 -0.0067498465 -0.014379305 -0.0007432003
000310 5f 39 eb bb af b6 3e bc f4 00 58 3b cf ca 37 3c
       -0.00717847 -0.011640235 0.0032959552 0.011217787
000320 33 a1 b3 ba af e6 e2 3b 81 e8 03 bb 79 f3 2b 3d
       -0.0013704657 0.0069244723 -0.0020127597 0.04198024
000330 20 20 aa bb 8f 05 8e 3a 60 69 b1 3c 1e dc 0e bd
       -0.005191818 0.0010835397 0.021656692 -0.03487789
000340 bb 7b 16 bc 02 17 e9 bb 6f 51 bf 3b 84 8a 00 3c
       -0.009184773 -0.0071133384 0.005838565 0.007845525
000350 2f 73 0f 3b 58 7c b1 ba be 48 84 bc 3b 9b d3 bc
       0.0021888723 -0.0013541086 -0.016147967 -0.025830856
000360 f1 ec 74 3c be ea 1b bb da 2e 3e 3b 1c 96 7b 3c
       0.014949069 -0.002379104 0.0029019625 0.015355613
000370 2b a1 a2 bb 96 9c b9 3a bd df ca bb 7b 75 86 bc
       -0.0049630604 0.0014161046 -0.0061912225 -0.01641344
000380 43 59 08 bc 31 0b 19 bc f6 41 0b bc 79 54 02 3b
       -0.008322063 -0.009341047 -0.008499613 0.0019886775
000390 63 60 4e 3c d2 a7 76 bc b4 09 a6 3b 83 85 02 3d
       0.012596223 -0.01505466 0.0050670747 0.031865608
0003a0 f4 e3 0d bd 9c 43 0b 3b 4d 18 7f 3c 5f 95 97 ba
       -0.03464122 0.0021250015 0.015569759 -0.0011564902
0003b0 bb d3 07 3b 5a fa e3 3b 0e c7 96 39 b4 c1 3a 3c
       0.0020725566 0.0069573345 0.00028758537 0.0113987215
0003c0 8f e8 fe bb b3 7f da 3b a6 3e 07 bc 2a 4d 17 bc
       -0.007779188 0.006668055 -0.008254683 -0.009234706
0003d0 3d 50 49 bc 67 b0 28 3c 33 97 f4 3b 20 d8 4e 3c
       -0.012287197 0.010295964 0.0074643134 0.01262477
0003e0 ff d5 e2 3c 2d 50 04 bc e1 d3 c8 3b fc c7 94 ba
       0.027689932 -0.008075756 0.0061287736 -0.0011351104
0003f0 7a 9d 17 3b 27 e3 00 3d ab dd b9 bc 4c 95 ef 3a
       0.0023134635 0.03146663 -0.022688707 0.0018278747

action_model._discrete_distribution.branches.2.bias f4 [3]
000000 77 3c cc bb ef 2d 85 be 27 ca 82 3e
       -0.006232794 -0.26011607 0.25544855
