Assets/results/OuiTank/TankLearningAI/TankLearningAI-6180199.onnx (onnx, 128747 bytes, 15 tensors)

discrete_act_size_vector f4 [1, 5]
000000 00 00 40 40 00 00 00 40 00 00 40 40 00 00 00 40
       3.0 2.0 3.0 2.0
000010 00 00 00 40
       2.0

network_body._body_endoder.seq_layers.0.weight f4 [128, 82]
000000 d6 86 06 3e 49 05 eb bd a3 6c bb 3d 78 c4 b4 3d
       0.13137373 -0.114756174 0.0915158 0.08826536
000010 85 9f 2d 3d 52 01 23 3e 03 d8 9c 3d 2f 83 dd bd
       0.042388458 0.15918472 0.076583885 -0.10816037
000020 c5 aa 07 3e 92 85 a2 3c 49 8b 70 3e 8f 19 53 bd
       0.13248737 0.019839082 0.23490633 -0.051538046
000030 68 d5 12 3c c8 8f 6c be 64 58 91 bb fd 5c 21 be
       0.008962013 -0.23101723 -0.004435586 -0.15758128
000040 cd 6f 19 3e 22 20 a2 3c 3e d1 35 3e 4b 70 00 3e
       0.14984055 0.019790713 0.17755601 0.12542836
000050 d7 d0 c5 3c 25 0b db 3d 7e 55 3a bd 53 92 9c bd
       0.024147434 0.10695485 -0.045491688 -0.07645097
000060 ab 5f 12 3d 9d 01 3c be 52 0f b4 bd 76 1d f6 bd
       0.035735767 -0.1835999 -0.087919846 -0.12017338
000070 7b f0 b2 bd 5e 26 f4 bd 91 dc 34 3d f2 fd 38 3d
       -0.08737274 -0.119213805 0.04415566 0.045164056
000080 c9 e1 9e 3d d0 8a b7 bb de 8d e2 3d d2 3a 19 3e
       0.07757909 -0.0056012645 0.11062215 0.14963844
000090 53 71 e5 bd ba c6 d2 3c 67 5e 5f 3d 78 36 71 3e
       -0.112032555 0.025729526 0.05453339 0.23555934
0000a0 06 7f 20 3d db e8 52 bd 32 a4 71 bd d7 24 b4 3d
       0.03918364 -0.0514916 -0.05899448 0.08796089
0000b0 4e 4f 00 be bf e0 1f bd 57 e5 31 3e 79 84 33 bd
       -0.12530252 -0.039032694 0.17372642 -0.043827508
0000c0 be ae 9b bd de 20 7c 3d 62 10 73 bd 09 4f 1d be
       -0.07601689 0.061554782 -0.059341796 -0.15362181
0000d0 c8 4b 90 3c 06 06 70 bc fd d2 3a 3e 3f 59 8b bd
       0.01761426 -0.014649874 0.18244548 -0.06804132
0000e0 eb b2 90 bd 6a c1 3f b9 7e 89 35 3d 76 51 ff 3c
       -0.07065376 -0.00018287232 0.044320576 0.031166773
0000f0 3f f6 14 be 0a 43 03 3e 1a cb 02 bd 5c ed ee 3b
       -0.1454706 0.12818542 -0.031931974 0.007291479
000100 67 23 3e bc 54 9a a6 3d 7b 72 01 be f7 13 50 bd
       -0.01160512 0.081349045 -0.12641327 -0.05080029
000110 d1 c0 bb 3d 7c c3 3c 3e 06 60 bd bd 85 f2 a0 3b
       0.09167636 0.18433946 -0.09246831 0.004911723
000120 a4 1d 9f bd 5e 11 0f 3e ea 6a 40 3d 55 27 38 bd
       -0.077693254 0.13971469 0.04697696 -0.044959385
000130 98 51 23 39 40 7a 7b 3c f1 90 1d bd dc ff d1 bd
       0.00015575287 0.015348971 -0.038468305 -0.102538794
000140 d2 c2 ff bd cf 19 9a bd 8e 1c 0a bd 6a 76 34 be
       -0.12488331 -0.07524454 -0.033718638 -0.17623296
000150 0f f8 87 3e a8 d9 a7 3b d8 7e 4a bd df 7b cb 3b
       0.2655644 0.005122382 -0.049437374 0.006209835
000160 5a 3d aa bd 64 ea af 3d bf 27 6b 3d f7 68 f2 bd
       -0.08312483 0.08589628 0.05741095 -0.11836427
000170 cd 4f 08 3c f2 9e be 3c 45 01 97 3c 6c 14 94 bd
       0.008319807 0.02326915 0.018433223 -0.07230458
000180 af 99 9d bc b8 26 3d be 16 3c 44 39 11 9e f0 bd
       -0.019238321 -0.18471801 0.000187144 -0.11748899
000190 00 9e 74 bd 63 05 41 be 5a 9e 79 bd 7a 0e 89 3d
       -0.059720993 -0.18849711 -0.06094203 0.06692214
0001a0 a0 0d a6 bb 2a 6b 6b bd b6 80 3a 3e b4 56 a9 bd
       -0.005067542 -0.057475246 0.18213162 -0.082684904
0001b0 c5 4f 1e bd 94 de 22 be 05 34 7b bd 8f 5c b6 bd
       -0.038650293 -0.1590522 -0.061328907 -0.08904373
0001c0 a3 28 7a 3e 20 c2 8c 3d 5d 53 4b 3e 79 9b 2a 3d
       0.24429564 0.06872964 0.1985602 0.041652177
0001d0 1a 77 ac bc 3c 56 1b 3b 3e fb b2 bd 5a bb d5 bd
       -0.021052886 0.0023702523 -0.08739327 -0.10436125
0001e0 44 a2 19 bd 95 0d 6b bd 53 e6 1e bc 57 36 8c 3c
       -0.037508264 -0.057386 -0.009698468 0.017115755
0001f0 f1 40 02 3d bd 14 18 3e 6c 2b 0c 3d d5 23 b7 3d
       0.031800214 0.14851661 0.034221098 0.08942381
000200 a8 b8 c0 3d df 08 15 bd 71 0b 38 3d c2 91 80 3d
       0.094102204 -0.036385413 0.044932786 0.06277801
000210 49 56 60 3d f4 d7 c3 bc 60 da e4 3d da ef 7c bd
       0.054769788 -0.023906685 0.11174464 -0.061752178
000220 cc 85 d7 bd 3c 0c 2c 3e 54 37 21 3e c4 4a f7 bd
       -0.105235666 0.16801542 0.15743762 -0.12074807
000230 b1 7a 06 bd 35 8a ed 3c 4e 7f 72 3e 31 94 6c be
       -0.03283185 0.028996566 0.23681375 -0.23103406
000240 72 03 24 3e 2f fa 2a 3b fd 68 ce bd 03 02 19 be
       0.1601694 0.0026089062 -0.10078619 -0.14942174
000250 00 19 0e bc 2a 3c 3f 3e f0 00 ed 3a e3 40 59 3d
       -0.008672953 0.18675295 0.0018081944 0.053040396
000260 3a 4b 23 be c7 f4 92 3c b6 e2 74 3d cc 5b b8 3c
       -0.15946665 0.017938985 0.05978652 0.02250471
000270 ca a7 2f 3d 65 55 ab 3d 10 9f 45 be eb 7a 00 be
       0.042884625 0.08365897 -0.19298959 -0.1254689
000280 76 d8 ed 3c 45 e1 80 3c 20 6e bc 3d 45 31 df bd
       0.02903388 0.015732417 0.09200692 -0.10898069
000290 70 1a 03 be d1 20 4f 3d da 46 f5 3d 39 2d 4f 3c
       -0.12803054 0.050568406 0.119764045 0.012645059
0002a0 bc 3d a9 bd 05 c7 c4 3c 24 72 44 3e b1 46 0f bd
       -0.08263728 0.024020681 0.19184166 -0.034979526
0002b0 d8 1f 2e bd 01 ec 85 bd 8a 8f 15 be 7e 50 b7 3d
       -0.042510837 -0.06539155 -0.14605537 0.089508995
0002c0 ce de fd 3c bb df 17 be 0f 50 34 3e 88 59 4a 3d
       0.03099003 -0.1483144 0.17608665 0.04940179
0002d0 bb ba 9a 3c ea c1 0e be e9 37 b1 bd 57 e1 b3 b6
       0.018887868 -0.1394116 -0.08653242 -5.3608487e-06
0002e0 3f ba ff 3d 27 59 ae bc af 62 91 3d 82 68 ac 3d
       0.124866955 -0.021282746 0.070989005 0.08418371
0002f0 51 5e 86 3c 0f ff 60 3d 6a ce f7 bd 61 fe 1b 3d
       0.016402395 0.054930743 -0.12099917 0.03808439
000300 12 88 0b bc e3 17 5a bc 01 b0 d8 3d 02 91 43 bc
       -0.008516328 -0.013311359 0.10580445 -0.011936428
000310 71 61 32 bd 5f 1e 55 be 10 0a a3 bd b3 d7 38 3d
       -0.04354996 -0.20812367 -0.07960904 0.04512758
000320 0f c9 17 bc 43 29 f0 bd a3 20 ff bd 08 45 c1 bd
       -0.009264245 -0.1172662 -0.12457397 -0.09436995
000330 41 f3 12 3e e0 f7 38 be 91 28 4a bd 04 47 f7 bc
       0.14350607 -0.18063307 -0.049355093 -0.03018523
000340 c9 43 76 3d dc 2a f2 3c 22 8a 21 3d bb 53 e3 3c
       0.06012324 0.029561453 0.039438374 0.027749887
000350 a6 c9 ef 3c 08 c7 9c be 99 4d 41 3d 8d 1d 15 3e
       0.029270958 -0.306206 0.047193144 0.14562054
000360 f4 1c 55 3c d1 8a 8a be 0b 47 54 3d ce b1 3f 3d
       0.013007391 -0.27059034 0.051825564 0.046800427
000370 ff 12 b9 bc fc 59 b9 bd c8 de b5 bd e7 49 ee 3c
       -0.022592066 -0.09050366 -0.08880383 0.029087974
000380 4f 39 db bd 1c d2 3f 3d d4 31 a5 3b f5 38 95 be
       -0.1070429 0.046831235 0.0050413404 -0.29145017
000390 62 d9 0f 3d 71 ed b7 3d 3d fc 6b 3d 2e ba 81 3d
       0.03511942 0.08980835 0.0576136 0.06334339
0003a0 59 40 b9 3d 46 f7 0d 3d 18 05 de 3c fb 72 44 be
       0.090454765 0.034659646 0.027102038 -0.19184487
0003b0 1d 7d 7b 3c 76 ca 56 be ad 5e e6 3d 7d 61 24 3e
       0.015349654 -0.2097567 0.11248527 0.16052814
0003c0 39 cc 45 be 82 22 b1 bc b0 72 31 3e 4b 0c 02 3b
       -0.19316186 -0.0216229 0.17328906 0.0019843753
0003d0 a6 ed 3e bd 4b de a6 bd 29 4e 29 bd cb 83 f6 3a
       -0.046613358 -0.08147868 -0.041334305 0.0018807588
0003e0 dc 90 22 be 3d 25 85 3d c5 d4 fc 3d d1 9d 22 be
       -0.15875572 0.06501243 0.1234527 -0.15880515
0003f0 de 56 21 3d 8b d7 b0 3d a1 fd da bd 81 bd 1c 3e
       0.039389484 0.086348616 -0.10692907 0.15306665

network_body._body_endoder.seq_layers.0.bias f4 [128]
000000 14 e1 88 9d 00 00 00 00 89 43 e2 3c b4 82 a6 bc
       -3.6231626e-21 0.0 0.027620094 -0.020325996
000010 5d 74 ca 31 aa 87 c6 30 91 0a d3 1a 6a 36 a6 b9
       5.8922027e-09 1.4444954e-09 8.7284626e-23 -0.0003170253
000020 cf bd 01 3d ad bc ff 3b f6 4b 0c bc b0 59 ae bb
       0.031675156 0.0078044743 -0.008563032 -0.00532075
000030 59 20 28 bc 08 65 72 bc 09 19 0b a9 b3 14 9e bb
       -0.0102616185 -0.014794596 -3.0885915e-14 -0.004824245
000040 8f ed 96 bd 3d 50 1c 3c 67 b6 a6 b4 d0 6a 16 bc
       -0.073695295 0.009540615 -3.1052625e-07 -0.0091807395
000050 82 12 91 bc 99 e7 ed 35 17 d2 ed 9d a8 14 b5 bc
       -0.01770902 1.772528e-06 -6.2950605e-21 -0.022104576
000060 c9 b2 00 96 b2 49 50 3d 09 c8 ff bb b0 08 9a 3c
       -1.0396172e-25 0.05085153 -0.0078058285 0.01880297
000070 65 94 47 a2 7f cc 80 3c de e7 08 2d 09 8a d2 bc
       -2.7048088e-18 0.015722511 7.78219e-12 -0.025700586
000080 df d9 5b bc ee a9 2c bc 70 80 26 3d b9 15 83 bc
       -0.013418644 -0.010538561 0.04064983 -0.01600157
000090 2a 78 09 32 79 8e e3 bc 00 00 00 00 cf a6 f9 bc
       8.001772e-09 -0.027777897 0.0 -0.030475048
0000a0 d2 45 bf 3c c1 a2 a9 bc 5c 5b 22 bc 3e 3f 9c 3c
       0.023348723 -0.02070749 -0.009909477 0.019073125
0000b0 5d 0a d1 bc fd 2d a0 bc da 53 8c 3d 0c 5f 2a bd
       -0.025517637 -0.019553179 0.06851931 -0.04159455
0000c0 45 97 22 35 b9 98 20 bd 8b 27 dd bc e6 12 98 ae
       6.056983e-07 -0.039208148 -0.026996395 -6.915517e-11
0000d0 7b 30 e5 bb 7f 63 3c 3b 11 aa 0f 3c 29 69 d7 bc
       -0.0069943047 0.0028745828 0.008768574 -0.026295261
0000e0 ff 37 7b 1f 61 c6 84 bd 51 a7 88 b5 13 1a c3 bc
       5.3197636e-20 -0.0648315 -1.0181485e-06 -0.023816144
0000f0 45 02 a6 2c bf f6 69 3c 14 7f d5 3b 88 df 34 bd
       4.7182557e-12 0.01428002 0.006515393 -0.04415849
000100 29 d5 3d b3 a3 5c 28 3d 00 00 00 00 ec 90 45 3c
       -4.419886e-08 0.04110397 0.0 0.012058478
000110 6c 4f eb bc 29 ef 2e ba 31 13 0d 3c f1 f7 76 a4
       -0.028724395 -0.0006673211 0.008610533 -5.355276e-17
000120 31 ae 41 3c a7 8e d6 bc 2a 66 e8 bc 5c b6 e9 bb
       0.011821316 -0.026191069 -0.028369028 -0.0071323346
000130 d7 29 10 bd 1a a0 51 bc d8 5f 7d bd 50 a4 56 3c
       -0.03519615 -0.012794519 -0.06185898 0.013100699
000140 52 fe e5 bc f4 1d 51 bc 62 ec 79 3c b7 1b b4 bc
       -0.028075371 -0.012763489 0.015254112 -0.021985872
000150 35 e5 5f 05 d9 6e 95 bc 16 04 cb bb 26 f1 2b 3d
       1.0527508e-35 -0.018241333 -0.0061955554 0.041978024
000160 67 45 17 3b de 1c 23 af ea ba 54 b7 fb a9 81 2f
       0.0023082139 -1.483502e-10 -1.2679704e-05 2.3585742e-10
000170 08 45 f8 bc 23 e4 9c b0 cf 47 1e b8 5c 7c 45 bc
       -0.030306354 -1.1415334e-09 -3.7737012e-05 -0.012053575
000180 3b 54 dc 3b ac 5b 6d bc a7 3e cf bb 0a 70 ca bc
       0.0067239082 -0.014487188 -0.0063246074 -0.024711628
000190 a0 54 10 3c 40 1e 01 bd c6 41 c5 bb 43 69 ad bc
       0.008809239 -0.03152299 -0.0060198037 -0.021168357
0001a0 bf 6e ad 3b 67 c1 b0 37 e2 78 5c bc 69 5b ad 3b
       0.005292743 2.1070895e-05 -0.013456555 0.005290438
0001b0 1b 6c 21 3d 07 bd a0 bc 00 00 00 00 62 60 c2 bc
       0.039409738 -0.019621385 0.0 -0.0237276
0001c0 bb 1f d5 bc c7 54 c4 bb a5 99 3e bd 1f 14 14 bd
       -0.026016107 -0.0059915516 -0.046533246 -0.036152
0001d0 db d0 c2 90 79 e1 70 af f6 02 b9 bd 7d 7e 91 b4
       -7.68413e-29 -2.1907977e-10 -0.09033768 -2.7100387e-07
0001e0 0a 57 e3 bb e1 5c 64 27 79 03 9e bc a1 4c 89 bc
       -0.006937866 3.1691706e-15 -0.019288765 -0.016760172
0001f0 02 e4 10 bc 0a 39 06 bd 25 8c 30 bd b2 b2 87 bc
       -0.008843424 -0.03276924 -0.043102402 -0.0165647

network_body._body_endoder.seq_layers.2.weight f4 [128, 128]
000000 01 09 5b 3d ff 38 68 bc 8c 64 27 bd 43 3f 5c 3c
       0.053475384 -0.014173745 -0.040867373 0.013442817
000010 fc 9a f8 bc d6 03 63 bd 10 e2 05 3e f4 fe 32 3e
       -0.03034734 -0.05542358 0.13074517 0.1748007
000020 43 78 13 be 0b 4e 8d 3d bf 11 11 3e 66 28 b0 bc
       -0.14401345 0.06899651 0.14166926 -0.021503638
000030 b6 09 1d be 20 65 b9 bd 03 24 04 3d fc 59 03 3e
       -0.15335736 -0.09052491 0.032260906 0.12827295
000040 0c bd 4a 3d 2a 9b 32 be 03 80 d4 bd ae 63 6e 3b
       0.049496695 -0.17442003 -0.10375979 0.0036375332
000050 85 81 6a 3c 61 28 85 bd 2d de bd bc 39 d7 04 3c
       0.014313106 -0.06501842 -0.02317723 0.008107954
000060 7e b1 f9 bc b0 4a 0f 3e d7 c6 8d bd 6b 09 ce bc
       -0.030480143 0.13993335 -0.06922691 -0.025150975
000070 8c b2 94 3d 4d 08 bc bd 49 7a 17 be 08 df 62 bd
       0.072606176 -0.09181271 -0.14792742 -0.05538848
000080 d1 62 23 bd 27 a1 87 bd d3 49 c5 bd d8 1e dc bd
       -0.03988916 -0.06622534 -0.096332215 -0.107480705
000090 c1 cd ed 3b e6 d2 ab 3d 9e 89 b3 3c 35 37 a1 bc
       0.007257194 0.08389835 0.021916207 -0.019679645
0000a0 dd c9 07 be bb 68 2e bd 8f 25 94 bd ea 50 5a bd
       -0.13260598 -0.042580348 -0.07233726 -0.053299822
0000b0 61 63 26 be 12 b2 16 bc 84 ea 45 3e 36 48 85 3d
       -0.16248848 -0.009197729 0.19327742 0.06507914
0000c0 b7 e2 77 bc 33 f0 0b be 12 12 2d 3e 18 9b a1 bd
       -0.015129737 -0.13665847 0.16901425 -0.0789091
0000d0 55 43 bd 3c 50 23 68 3d 1f 69 16 bb 81 2f da bd
       0.023103395 0.0566743 -0.002295084 -0.10653592
0000e0 bc bf 95 bd 48 dc 0e 3e 8f d2 82 3c 7a 68 f0 bd
       -0.07311961 0.13951218 0.015969543 -0.11738677
0000f0 ec 56 44 be e1 f7 93 3d ea da 0d 3b a7 07 97 3d
       -0.19173783 0.072250135 0.0021645376 0.073745064
000100 06 e4 c6 bd 8f 45 51 bd 21 38 21 3e 89 38 50 bd
       -0.09711461 -0.051091727 0.15744068 -0.050835166
000110 d4 91 68 3a de 2b 0a bd fe 1d 0e bb f1 e7 c2 bd
       0.0008871828 -0.03373324 -0.0021685357 -0.095168956
000120 08 5e 8f 3c 73 f2 b1 3a 94 9e a9 3d ff a2 80 be
       0.017500892 0.0013576284 0.082821995 -0.25124356
000130 8d 23 91 bd bc a9 ef b8 f5 1d af 3d e5 15 14 be
       -0.07086859 -0.000114280236 0.08550636 -0.14461477
000140 1d 8c 82 bc e5 c9 56 bd 9e 29 46 3d e4 c9 74 bd
       -0.015935952 -0.052438635 0.048379533 -0.05976285
000150 37 0b 9f bd 4c 5f ee bb 92 aa 51 bd 2c 67 32 bd
       -0.07765811 -0.007274544 -0.05118806 -0.043555424
000160 63 13 bd 3b a4 2c ea bd b5 f6 8c 3c c0 90 da bd
       0.0057701333 -0.11434296 0.017207483 -0.1067214
000170 d0 c2 b7 3d b1 f2 91 b9 d9 44 79 bd 07 96 52 bd
       0.089727044 -0.00027837374 -0.060856674 -0.05141261
000180 63 6b 24 bb e1 c4 97 bd a4 a6 70 3d 3a 74 65 3c
       -0.0025088422 -0.074105985 0.05875267 0.014004761
000190 1a ab 20 bd 96 2f 20 3d 6a 78 20 bc 67 77 53 3d
       -0.039225675 0.03910788 -0.009794334 0.051627543
0001a0 81 5b 13 bc c4 6e 5b 3e 53 0c 65 3d 34 aa e6 bc
       -0.008993984 0.21428972 0.055919956 -0.028157331
0001b0 88 74 82 bc 37 c9 fe 3c cb 08 8b bd 1c db 8d be
       -0.015924707 0.031101806 -0.067887865 -0.2770623
0001c0 62 d4 03 3d 86 13 b9 bc 8d bf e1 bd c2 8a 30 bb
       0.032184966 -0.022592317 -0.110228635 -0.0026938175
0001d0 a1 7e ea 3c 93 38 11 3d 2e 3e 77 bc 53 f5 03 3c
       0.028624834 0.035454344 -0.015090508 0.008054095
0001e0 a1 cf d6 bb eb c9 9a bc 33 18 13 3d fd c6 88 bd
       -0.006555513 -0.01889511 0.03591175 -0.06678579
0001f0 2f d8 15 3e 2a 27 0d bd 69 ca 71 bd df 5c 30 bc
       0.14633249 -0.034461178 -0.059030924 -0.01076433
000200 82 cb b0 3d 8c 8d 42 3d 73 f4 96 3c 49 73 e7 3c
       0.08632566 0.04749827 0.01842711 0.028253214
000210 74 e8 ab bd 27 a7 88 bd 81 c5 00 3e c1 71 58 3d
       -0.08393946 -0.06672507 0.12575342 0.05284286
000220 f8 da 96 3d 35 1f 72 3d 49 ab 99 3d df bb 8d bd
       0.07365984 0.059111793 0.07503373 -0.06920599
000230 42 84 ff 3b c0 1d 06 bc c7 01 0e 3d 76 81 5a bd
       0.007797749 -0.008185804 0.034669664 -0.05334612
000240 f9 b4 23 be 1b 5b 6e 3c 58 e8 5e 3d 88 1f a5 bd
       -0.15987004 0.014548088 0.0544208 -0.08062655
000250 b3 0c 26 3d 1f a2 8b 3d c9 c5 a1 bd 86 59 1e bd
       0.040539455 0.068180315 -0.07899053 -0.038659595
000260 20 61 80 bc 1c 88 17 bb 0b 36 85 bd 7b da 1a 3c
       -0.015671313 -0.00231219 -0.065044485 0.009451504
000270 68 d9 f4 3c 9b b3 80 bd 1d f4 92 bd 59 58 55 bd
       0.029888824 -0.06284257 -0.07175467 -0.052086208
000280 8f e6 fd bb 42 72 73 bc 56 16 a3 bd 01 17 46 3d
       -0.007748432 -0.014858784 -0.079632446 0.048361782
000290 dd 2a 5d 3b 7e 96 98 bd 7a e8 b0 3d b9 ef a3 3d
       0.0033747472 -0.07450579 0.086380914 0.08004708
0002a0 27 a3 03 bd fb 2e 10 bd db eb f4 3c 0a 09 86 3c
       -0.032138016 -0.035201054 0.02989762 0.016361732
0002b0 25 93 f3 3c f6 c3 9e 3d 34 bf c9 bd 35 1f 28 3d
       0.02973325 0.0775222 -0.09850922 0.041045386
0002c0 c3 e9 12 bc c1 38 7e 3d e9 57 97 bd aa 4a 21 3d
       -0.008966866 0.062065843 -0.073898144 0.039377846
0002d0 97 cd 5d bd 82 c7 b4 3d 8e 86 36 3d e2 e5 ef bd
       -0.054151144 0.088271156 0.044561915 -0.117137685
0002e0 09 fa 0e be e2 f5 41 3e c3 36 ac 3c 8f 21 08 3d
       -0.13962568 0.18941453 0.021022206 0.03323513
0002f0 62 02 6d bd 6a 8a 7c 3d 4f 6c 87 bd 49 40 84 bc
       -0.0578636 0.06165544 -0.06612455 -0.016143935
000300 ce b9 3a bd 51 06 41 3d cf f6 34 3d ec 67 8f bb
       -0.045587353 0.047125164 0.044180688 -0.004376402
000310 69 24 a5 3a a4 4e 10 3e 52 3b 62 be 35 53 fa bd
       0.0012599352 0.14092499 -0.22092941 -0.12222902
000320 d4 fe e7 bb 64 c8 a7 3d b4 04 bb bd 2d ea ca 3d
       -0.0070799384 0.08192518 -0.091317564 0.09907947
000330 37 60 cd bc 1b 46 43 3e 02 93 21 3d a1 f4 d0 3d
       -0.025070293 0.19069712 0.03944684 0.10202909
000340 64 7d eb bc df 39 08 be 6e d5 3e bd 17 6e d7 3a
       -0.028746314 -0.13303326 -0.04659026 0.0016436008
000350 c6 d1 3f bc b9 3f 37 bc f6 83 e9 bb 34 9e 98 3d
       -0.011707729 -0.011184626 -0.0071263267 0.0745205
000360 89 16 c9 b9 ea 87 46 bd 3a 76 67 bd 9c 66 f8 3b
       -0.00038354498 -0.04846946 -0.056509234 0.0075805914
000370 ad 25 3e bd c4 da ad bd 73 ec b3 bd 7a d4 87 bd
       -0.04642265 -0.08488992 -0.087853335 -0.066323236
000380 6e 21 d3 bd 0f 56 fe bc 3f 35 ad bd fc ca 1f 3d
       -0.103091106 -0.031046895 -0.084574215 0.03901194
000390 53 94 eb bd b2 83 b3 bd 65 b8 98 bd bc bb 35 bc
       -0.115029 -0.08765353 -0.074570455 -0.011092123
0003a0 71 20 89 3d ec c3 0b 3e 62 0a b0 3d 09 3f c4 bd
       0.06695641 0.13648957 0.0859573 -0.095823355
0003b0 47 ea f9 3d bb 92 fa bc 4e 69 0e bc c2 03 4a be
       0.12202888 -0.030587545 -0.008692099 -0.19727996
0003c0 54 6b af 3d 60 48 6f bc 74 7f 80 3d eb 3e fd bd
       0.08565393 -0.014604658 0.0627431 -0.12365516
0003d0 ea 4e 1d 3d 5c bd c1 3c 8b 65 0e 3d 82 26 28 bd
       0.038405336 0.023649864 0.034764808 -0.04105235
0003e0 ee 4d 7c 3d 11 2b 30 3e 1f 19 ae 3d 05 61 0a 3e
       0.061597757 0.17203929 0.08500885 0.13513573
0003f0 18 a1 0f bd 66 54 e5 bc 7c 48 40 be 81 0f 3c bd
       -0.03506574 -0.027994346 -0.1877765 -0.045913223

network_body._body_endoder.seq_layers.2.bias f4 [128]
000000 f9 bb 84 bc 7e 95 17 bc ad 15 29 32 8a e7 2d bc
       -0.016202914 -0.00925195 9.842023e-09 -0.010614285
000010 13 4a a7 bb 13 04 e8 3a 72 39 4a bc 13 c6 d0 bc
       -0.005105266 0.001770141 -0.012342798 -0.025485074
000020 22 d0 8b bc ef 5a 76 bc 5b 26 cc ba 69 f7 16 bd
       -0.017067019 -0.015036329 -0.0015575396 -0.036857042
000030 9b 79 80 bc 12 7a 89 bc 3e 93 58 bc 20 8e c4 bc
       -0.015682986 -0.01678184 -0.013218699 -0.023993552
000040 df 54 6a bc bc 67 87 bc 2f b5 4c bc 91 ec 9b bc
       -0.014302461 -0.016528957 -0.012494369 -0.019033702
000050 35 bb ed 9e 1d c9 1e bc 78 db 73 bc ef 24 e4 bb
       -2.5170778e-20 -0.009691504 -0.014883868 -0.0069624106
000060 0b e5 bf bc e6 cb f5 bb 50 7d 01 bd 46 1e 63 bc
       -0.023424646 -0.007501113 -0.031613648 -0.013862198
000070 5e 49 1f bc ad 6b 96 bc b2 ca 0e bd b1 86 4d bc
       -0.009722082 -0.01836189 -0.034861274 -0.01254432
000080 ff f9 f5 a5 1a d1 94 af 5d ad 82 bc c7 25 1e bc
       -4.267013e-16 -2.706962e-10 -0.015951807 -0.0096525615
000090 ca 7e bb bc 07 92 20 bc 4f 3a 22 bd 8f 7f df bc
       -0.022887606 -0.009800441 -0.03960639 -0.027282504
0000a0 0d 81 5d bc ca f3 8e bc 8c 84 ad bb f7 3c 8c bc
       -0.013519538 -0.017450232 -0.005295342 -0.017118914
0000b0 6f 89 18 bc 0a 49 08 ba 01 1b c5 bb c4 8c b5 bc
       -0.0093101105 -0.0005198872 -0.006015182 -0.022161849
0000c0 ee 98 3f bc 0a 9b a6 bb 5a fa 74 30 75 fd 78 bc
       -0.011694176 -0.0050844 8.9122454e-10 -0.015197148
0000d0 7d ba 31 bb 1f 4d 56 bc 50 28 34 bc 94 bb 07 bc
       -0.0027119212 -0.013079911 -0.010995939 -0.008284468
0000e0 8a 05 be bc f9 99 d9 2c 96 a3 4e bc aa b7 dc 93
       -0.023196 6.1846053e-12 -0.012612244 -5.5716914e-27
0000f0 7e bd 93 bc af d3 25 ba b0 f1 7e bc 73 6c 25 bc
       -0.018034693 -0.0006325794 -0.0155605525 -0.010096657
000100 0b 57 8b bc 44 15 8e b8 dc 77 d7 bb 13 a0 80 33
       -0.017009279 -6.775049e-05 -0.0065755676 5.989582e-08
000110 e7 8e 6f bc 48 9d ca bc 35 52 01 bc 7b 00 9e bc
       -0.014621473 -0.0247332 -0.007893135 -0.019287338
000120 8e 13 04 ad ca 8a d9 bb ec cb 65 bc 8c 29 ad 3b
       -7.507673e-12 -0.0066388594 -0.01402567 0.005284494
000130 20 90 c2 bc e4 65 53 98 26 b5 84 bb 0d ad 78 bc
       -0.023750365 -2.7322552e-24 -0.004049915 -0.015177977
000140 e3 77 cb bc 07 13 81 ae 14 73 3a 1c 87 76 e6 bb
       -0.02483744 -5.869621e-11 6.1690973e-22 -0.0070331725
000150 10 b8 8f bc 7f f5 b9 b8 2f 9a ed bb 24 ed 31 bd
       -0.017543823 -8.867215e-05 -0.007251046 -0.043439046
000160 52 5f 7d bc 8c 3d 4a 30 66 8b 40 bc 61 f8 80 bb
       -0.015464621 7.3574635e-10 -0.011751985 -0.003935859
000170 4f ab 4c bc d5 da b0 bb bf 10 a5 26 26 35 90 bc
       -0.012492015 -0.0053971806 1.1453714e-15 -0.017603468
000180 e3 14 81 bc c9 27 46 bc 26 4f 1f ba 3c 84 bb bc
       -0.01575703 -0.012094446 -0.00060771627 -0.022890203
000190 00 08 cc b6 67 4c 9f 91 73 7d 8c bc dd 6c 9d bc
       -6.080605e-06 -2.5132863e-28 -0.017149663 -0.01921695
0001a0 a3 39 a8 bc 33 d5 1e bc b8 5c 5b bc 53 a2 59 bc
       -0.020535296 -0.009694385 -0.013388805 -0.01328333
0001b0 bc de 49 bc 6d d4 fc 1d c8 ea e1 bc 95 7a ed bb
       -0.01232117 6.6923488e-21 -0.027577773 -0.007247279
0001c0 7b 1f 2b aa eb 26 73 1e d9 ba ae a3 af bf 28 bc
       -1.5198773e-13 1.2872361e-20 -1.8944251e-17 -0.010299607
0001d0 48 92 70 bc d6 9f ab bc 1e 69 01 24 7a ca 65 a8
       -0.014683314 -0.02095024 2.8061454e-17 -1.2755959e-14
0001e0 5f 31 19 36 53 c6 c7 bc 52 3d 58 33 d4 d9 95 bc
       2.2827514e-06 -0.02438656 5.034719e-08 -0.018292345
0001f0 b6 68 30 bc 7f 7d 18 bc a4 39 5d bc 6d 8d 0f b9
       -0.0107671525 -0.009307264 -0.013502512 -0.00013690228

action_model._discrete_distribution.branches.0.weight f4 [3, 128]
000000 1b cc 91 bb ff 4d 3a bb f8 13 81 bb 51 00 06 bd
       -0.00444938 -0.0028427837 -0.003939148 -0.032715145
000010 82 69 14 3c 58 da 82 3c b6 76 60 bb 7c 67 ab b9
       0.009058358 0.015973255 -0.0034250445 -0.00032692763
000020 7b 97 9f 3b a5 6a 41 bb a0 5e 1e 3d 25 b2 64 bb
       0.004870353 -0.0029513028 0.03866446 -0.0034896221
000030 a4 d3 24 3b 75 3a 17 bd 8c 78 50 3c a3 e0 05 3d
       0.0025150562 -0.036920983 0.012724053 0.032684933
000040 8d 41 02 bc be 48 03 bc 49 e1 b4 ba bf 95 46 bc
       -0.007950199 -0.008012949 -0.001380005 -0.012120663
000050 5b 0a 9f 3c 3a 39 2a 3b 83 3b 86 bb 26 4f e7 3b
       0.019414118 0.002597405 -0.00409645 0.007058996
000060 16 62 7f 3c 9a ac 73 b9 82 38 c7 b9 c3 27 f3 bb
       0.01558735 -0.00023238585 -0.0003799834 -0.0074205115
000070 9c 35 97 38 1e 1e 30 3b a9 5d 3a 3c 15 66 82 3b
       7.2102266e-05 0.002687342 0.011374869 0.0039794543
000080 ef 35 88 ba fc e5 c5 3b 46 11 ac b9 74 17 f4 bc
       -0.001039205 0.006039379 -0.00032819266 -0.02979634
000090 c2 a9 3a 3c 4f 3a 36 bc 0b f6 3f bc fd 17 e0 ba
       0.0113930125 -0.0111223 -0.011716376 -0.0017096993
0000a0 e9 42 aa 3a 4d fe 0b bb 1f 62 59 bc c0 5b 87 bb
       0.0012989911 -0.0021361292 -0.013268023 -0.0041308105
0000b0 94 d5 ce 3b 3c 2a fa 3b 9c 51 8d bb e4 39 c7 3c
       0.0063120816 0.0076344293 -0.004312707 0.024319597
0000c0 eb 7b 72 3c 0d 18 52 bc 8c c8 7d 3c 48 58 3f bc
       0.014800052 -0.012823117 0.015489709 -0.011678763
0000d0 05 3b 04 3c f9 64 3e 3b 41 40 74 3b 00 c0 27 3c
       0.008070712 0.0029051884 0.0037269744 0.010238647
0000e0 43 94 1d 3d cd bd f1 3a 03 22 92 3c db 4f f5 3b
       0.03847147 0.0018443406 0.017838484 0.007486326
0000f0 f6 fb 82 3a 39 62 fd bb b0 f7 95 bc a9 8b 10 3c
       0.0009993303 -0.0077326563 -0.018306583 0.00882236
000100 66 18 8c bc ae d8 55 3b 52 ff 98 b8 09 33 c1 3c
       -0.017101478 0.0032630372 -7.295482e-05 0.023583906
000110 85 d0 89 bc 08 0e 1e bc 60 a4 a9 bc 45 fa 5e bb
       -0.016823063 -0.0096469 -0.020708263 -0.0034023684
000120 35 06 97 3b d2 2c 07 bb f0 0c ea 3b eb 75 53 bb
       0.004608894 -0.002062608 0.0071426556 -0.003226633
000130 30 24 2b bc 0d 23 ed 3b 29 f9 2e bb ea 8e b1 bc
       -0.0104456395 0.0072368444 -0.0026698804 -0.021674592
000140 18 2a fd bb d4 ad c0 3b 34 5a 3d bc 5e 61 03 3c
       -0.007725965 0.005880097 -0.011557151 0.00801882
000150 1d 40 24 bc 9e f5 8f 3c a3 81 c6 3b 47 95 15 3c
       -0.010025051 0.017573174 0.0060579344 0.009129829
000160 5d 66 12 bb b8 0b dd 3b fb 94 b0 3b 51 2e 62 bc
       -0.0022338845 0.0067457817 0.0053888536 -0.013804988
000170 cc 95 53 bc 4f 3e 2f b9 ff 43 00 3c 3b f8 3f 3a
       -0.012914132 -0.00016712512 0.0078287115 0.0007323061
000180 61 8f 58 bb c4 31 bc ba 19 a5 01 3c d7 50 c2 bb
       -0.0033044445 -0.0014358093 0.0079128975 -0.005930047
000190 51 d9 d6 bb dd cc 03 bc e4 4b 44 bc 03 40 13 3c
       -0.006556668 -0.008044449 -0.011980984 0.00898743
0001a0 ef 7e fc ba 86 66 88 3a 34 d7 d8 3b 84 a9 18 ba
       -0.0019263903 0.0010406531 0.006617451 -0.00058235996
0001b0 a4 f6 88 bb 0a 80 c5 ba 26 26 59 bb db 40 12 3c
       -0.0041797925 -0.0015068066 -0.003313431 0.008926596
0001c0 a1 ae 8c bc 38 df 62 bc cb 5b 35 bc 01 df 94 3b
       -0.017173113 -0.013847165 -0.011069248 0.0045431857
0001d0 9a aa d8 3c 53 d7 a3 3b 33 be 5f 3b d4 fd 31 bc
       0.026448537 0.005000034 0.0034140467 -0.01086374
0001e0 8c d4 e7 bb 0d ea aa bb 2d 1d 3e 3c 5e 26 4a 3c
       -0.007074898 -0.0052158893 0.011603636 0.012338249
0001f0 45 f6 83 3c d6 49 2a bb 3d af e0 bb 76 79 65 ba
       0.016108641 -0.002598395 -0.0068568275 -0.0008753756
000200 69 43 75 3c c5 ce 5a bc 96 9d 3a ba 75 4a 09 3d
       0.014969685 -0.013354962 -0.0007118819 0.033518273
000210 2e 6b eb bb 3c 10 5a 3c 57 e2 2d bc c1 be 81 bc
       -0.0071844077 0.013309535 -0.010613046 -0.015838029
000220 c4 24 c6 bb 97 d7 49 bc 44 70 8b bb b3 4d aa 3a
       -0.0060468633 -0.012319467 -0.0042553265 0.0012993127
000230 90 6f 68 3c 93 47 dd ba cc 41 39 3c a4 8a f4 bc
       0.014186755 -0.0016882293 0.011307191 -0.029851265
000240 e4 ef be ba 45 60 a2 3a 62 93 ae bc ca c3 86 bc
       -0.0014567343 0.001238831 -0.021310512 -0.016450781
000250 a6 27 43 ba fd b1 86 bc 8c 9a 6f 3c af 40 2e bc
       -0.0007444568 -0.016442293 0.014624249 -0.010635539
000260 1f 60 d6 bb 03 50 78 3b 19 27 ea ba cf 27 86 ba
       -0.0065422202 0.0037889488 -0.0017864435 -0.0010235253
000270 0c 83 cc bc 4c 27 8f 3c 26 5a d7 3b c2 a5 7d 3c
       -0.024964832 0.017474793 0.006572026 0.015481414
000280 3e 6a 2c 3b db 94 42 3b a1 d8 38 bc 45 e8 44 3c
       0.0026308442 0.0029690776 -0.011282117 0.012018268
000290 f2 fd 88 bb e0 9b a8 3a d7 60 10 bc 2e b1 49 3b
       -0.0041806633 0.0012863837 -0.008812151 0.0030775773
0002a0 3f 30 e9 bb c1 36 e9 3b 12 26 7b 3b 81 06 24 bc
       -0.007116347 0.007117123 0.0038322252 -0.010011316
0002b0 b7 67 0b bc ce d5 f9 3b e0 70 9c 3b 48 86 91 bc
       -0.008508614 0.0076243645 0.004774198 -0.017764226
0002c0 02 8f 0a 3c ca e6 c3 3c 54 83 3f bb 8d e8 4b 3c
       0.008456947 0.02391376 -0.0029222565 0.012445581
0002d0 9f 19 17 bc 51 4f b7 bc b5 ec 35 bb 14 84 88 3c
       -0.009222417 -0.022376688 -0.0027759497 0.016664542
0002e0 d4 00 dc bc e8 03 a5 3b 0d 05 47 3b 7f 64 f1 bb
       -0.026855864 0.005035866 0.0030368 -0.0073667164
0002f0 3a 81 81 3c e1 41 38 3c bd c6 00 bd 2d 78 2c bb
       0.01580869 0.0112461755 -0.03143953 -0.0026316748
000300 91 48 0e bc 0e c8 30 bb d8 16 e4 b9 fa 26 69 3c
       -0.008684293 -0.002697471 -0.0004350457 0.014230484
000310 6d b9 6e bc 79 73 af bb a5 66 08 3d e6 a5 43 bc
       -0.014570576 -0.0053543416 0.033301014 -0.011941409
000320 1a 20 a6 3a 2e f5 76 3d 12 ca 14 3b db 13 1d 3d
       0.0012674362 0.060292415 0.002270345 0.038349014
000330 fe d1 9b bb 19 a4 3e 3c b8 34 5b bc 05 50 df 3b
       -0.0047552576 0.011635804 -0.013379268 0.006814959
000340 fe 7c d8 bb ef 20 0e bc 0e 58 15 3c a2 7c 20 bb
       -0.006606697 -0.008674844 0.009115232 -0.002448835
000350 86 6e e0 3b 1a bc 4d bb 98 dc fd ba f1 5a 4d bb
       0.006849113 -0.0031392635 -0.001936811 -0.0031334723
000360 50 cc 93 bc 2a d9 f2 bb aa 64 48 3b 32 41 6d bc
       -0.01804176 -0.007411142 0.0030577579 -0.014480876
000370 a4 a4 b9 ba 02 49 41 3c 23 af a9 3b a2 e6 41 bb
       -0.0014163447 0.011797192 0.0051783486 -0.002958693
000380 ca df db 3b d4 2d 93 bb ff f8 97 3c df 03 ae 39
       0.0067100273 -0.004491547 0.018551348 0.0003319075
000390 57 90 5a ba aa 78 f2 ba 81 66 e4 3b 7e ba 41 3c
       -0.00083375484 -0.0018499095 0.006970227 0.011824248
0003a0 42 af 9d bc 03 76 b5 3b 06 8c 86 3c 2e 09 34 3c
       -0.019248608 0.0055377497 0.01642419 0.010988517
0003b0 fc c2 96 3b 77 80 3c bb 13 19 cd b9 5b d2 6c 3c
       0.0046008807 -0.0028763094 -0.0003911933 0.0144544495
0003c0 af b3 6b 3c 5a 68 ab 3b 7c 44 9e bb f9 9a 9e 3b
       0.014386102 0.0052309455 -0.0048299413 0.0048402515
0003d0 aa 35 ea bc 08 c8 9e 3c 80 4f d7 3b 2a c1 90 39
       -0.028590042 0.019382492 0.0065707564 0.0002760974
0003e0 2a ae ec 3b 60 f8 a3 39 33 d3 ad 3b 3d b4 0c bb
       0.0072229104 0.00031274837 0.005304718 -0.0021469735
0003f0 0d 33 0d bd d2 ef 23 3b a5 05 60 bd 0f 4f 84 bc
       -0.034472514 0.002501477 -0.054692883 -0.01615098

action_model._discrete_distribution.branches.0.bias f4 [3]
000000 65 c3 bd bd d8 14 91 bd 06 87 1f 3e
       -0.09265784 -0.07084054 0.15578851

action_model._discrete_distribution.branches.1.weight f4 [2, 128]
000000 c0 34 ab 3c bd 8d 71 3b 28 56 d1 3a 44 75 ad bc
       0.020899177 0.0036858164 0.0015971111 -0.02117408
000010 64 6a b2 bc 9d 26 0d 3c 8a e8 00 3d 2a 8d 94 bc
       -0.021779247 0.008615163 0.031471767 -0.018133719
000020 df 30 0c bc 87 83 6d 3b 7b 59 5e bc 7c 89 41 bc
       -0.008556574 0.0036241726 -0.0135711385 -0.011812564
000030 57 ae ff b9 11 bf 4b 3c 75 4c 62 3c 80 b0 ae 3c
       -0.00048767283 0.0124356905 0.013812174 0.021324396
000040 af e9 07 bc fd d2 0a bc 9c c4 8f 3a 5e 91 79 3a
       -0.008295461 -0.008473155 0.0010968628 0.00095202576
000050 35 8a 21 3c 47 42 7b 3c bf 31 39 bc a9 f3 56 3c
       0.009859611 0.015335626 -0.011303364 0.013119617
000060 e0 3e f2 bb 0d 77 26 3c fa e5 3d bb a8 95 14 3c
       -0.007392749 0.01016022 -0.0028976188 0.009068884
000070 0d fa ad ba 2e e2 0b 3c 41 92 c7 bb ca 44 82 3c
       -0.0013273373 0.008537812 -0.006090433 0.015901942
000080 79 be 9c ba b1 08 04 3c a9 f0 2a 3a db b0 e6 bb
       -0.0011958621 0.008058713 0.00065208465 -0.007040126
000090 02 77 01 bc b3 15 83 3c ba 13 5b 3b f9 22 bc bb
       -0.007901909 0.016001558 0.0033428506 -0.0057414738
0000a0 5b 78 5a ba 67 7e 4c 3c 90 ba 8d bc 10 c6 67 bb
       -0.00083339744 0.012481309 -0.017300874 -0.0035365857
0000b0 d7 e2 7c 3c 0f 91 88 bc 66 74 08 bb df 32 a1 bc
       0.015434942 -0.016670732 -0.0020821332 -0.019677578
0000c0 07 ad 24 3c ab b6 b8 bb 9c 27 36 3b 33 81 c8 bc
       0.010051019 -0.00563701 0.0027794605 -0.02447567
0000d0 49 c2 29 bc 0e 20 3d 3b 5e e2 1a bb a4 88 50 bc
       -0.010361263 0.0028858217 -0.002363346 -0.01272789
0000e0 93 bf af 3c 12 66 74 ba f6 57 93 bb ab 92 7f 3c
       0.021453654 -0.0009323071 -0.0044965697 0.015598933
0000f0 01 9d a0 bb 31 a7 43 ba 8b c9 80 bc 3b 65 20 3c
       -0.004901529 -0.0007463573 -0.015721103 0.00978976
000100 d9 0c 5c bb 44 18 b8 3b 01 3d ff 3b 25 34 57 3b
       -0.0033576994 0.005618127 0.0077892547 0.0032837477
000110 18 2e 13 3c a4 47 04 bb 49 81 09 bc 67 3b 7b bb
       0.008983158 -0.0020184303 -0.00839264 -0.0038334967
000120 9a 6a cc 39 bd 79 90 bc be c1 f9 3b 1c 90 2c 3d
       0.00038989336 -0.017636174 0.007621973 0.04212962
000130 26 71 b0 ba 6f 5d 1b 3c 35 6e 6f bc 76 f7 3f 3a
       -0.0013461455 0.0094827255 -0.014613678 0.00073229463
000140 7d 57 a9 bb 5d f1 0d bc ef 2a 23 3c f4 ee eb 3c
       -0.0051679 -0.0086635025 0.009958967 0.028800465
000150 dd 7b 25 3b 9f 12 74 3b 37 11 2f 3b b7 a5 a6 3b
       0.002525083 0.0037242544 0.0026713142 0.0050856727
000160 80 ba 60 3c 6e 0a 88 bb 13 c3 5c 3b ad b0 b5 3b
       0.01371634 -0.004151634 0.003368561 0.005544743
000170 ba 78 92 bb 62 cb 9a ba 58 5a 5a bc 94 44 a3 bb
       -0.004469958 -0.001180988 -0.013327204 -0.0049825404
000180 1a d5 8e bc f2 4f a8 bb 1e 42 1e 3c 10 26 88 3c
       -0.0174356 -0.0051364833 0.009659318 0.016619712
000190 61 20 0e bc e2 3b f3 3b b8 3d d5 bb 7e b8 1a 3c
       -0.008674712 0.00742291 -0.0065076016 0.0094434
0001a0 eb e7 6b bc c6 83 0a 3c 41 98 85 bb ab 57 b0 3c
       -0.014398555 0.008454269 -0.004076988 0.021526178
0001b0 35 55 d1 3c a3 77 99 bc f5 53 0e bc c0 88 44 3c
       0.025553325 -0.018733805 -0.008687009 0.011995494
0001c0 90 9f 54 3b bf 75 5c 3a c9 91 97 3c bb 54 ef 3c
       0.003244374 0.00084098795 0.018502133 0.029215207
0001d0 19 fb 62 3c 89 4d 14 b9 80 54 f1 3b 1a 59 7b bb
       0.013853812 -0.00014143264 0.0073648095 -0.003835267
0001e0 1b 6e 02 bc b1 bd 41 3c 91 f8 fc 3b 13 1c 46 bb
       -0.0079608215 0.011825011 0.007720061 -0.0030229136
0001f0 a7 a7 4e 3c 64 38 02 3b 19 13 df 3a 4d 89 d2 3a
       0.012613214 0.0019870037 0.0017019241 0.0016062647
000200 9f 9e b7 bb 67 0a 8b 3b da 7b 77 3a 47 2e 72 bb
       -0.005603626 0.0042431834 0.00094407576 -0.0036953853
000210 b1 d8 cb 3b ff 02 7a bc 1a c4 c1 bc f1 6b ea bb
       0.0062209 -0.015259503 -0.023653079 -0.007153981
000220 24 c1 48 bb 02 e9 a8 bb e9 7d 2d 3c 5b f5 1c 3b
       -0.00306327 -0.00515473 0.010589101 0.0023949954
000230 6b 18 d3 3a 0b c9 14 3c b6 00 87 bc c1 fc de ba
       0.00161053 0.0090811355 -0.016479831 -0.0017012582
000240 9a 42 a7 3c 67 59 07 3c f0 96 50 3c 3b e7 08 bb
       0.0204175 0.008261061 0.012731299 -0.0020889777
000250 9a f7 0e 3b 5e ab 82 3b a4 98 44 bb 4d 40 96 3c
       0.0021815063 0.0039877137 -0.0029998207 0.018341208
000260 a6 80 0b 3b 88 90 9a bc 5b 64 c2 3b 6d a4 db 39
       0.0021286397 -0.018867746 0.0059323735 0.00041893442
000270 30 24 1d bb 74 fb 6c bc 5a 97 95 bc 6c 7c e2 bb
       -0.0023977868 -0.014464248 -0.018260647 -0.006911805
000280 e6 35 9d 3b ff 0b 54 3b 9e d8 21 3b be d5 f9 3c
       0.004797685 0.0032355783 0.0024695764 0.030497428
000290 ca 17 ee 3a 4a 89 16 3b 2a 73 d9 3b a4 0f 00 3c
       0.0018165049 0.0022970014 0.006636043 0.007816229
0002a0 07 5e 0a bb 6d 82 e4 bb 2d c4 8d 3c d8 6d 52 3c
       -0.0021113174 -0.006973556 0.017305458 0.012843572
0002b0 53 fc 1d 3c f5 11 41 3c 65 81 9e 3a ff d3 4d 3b
       0.009642678 0.011784066 0.0012093006 0.0031406877
0002c0 2c 78 4a 3c 89 f3 db bb c1 b7 c1 3b 42 6c 5d 3c
       0.012357753 -0.0067123813 0.0059117978 0.01351458
0002d0 7a 0a a1 ba 5d b7 82 bb 6b 68 41 bc 70 5b 8a 3c
       -0.0012286447 -0.0039891438 -0.01180468 0.016889304
0002e0 41 24 63 bc cb 15 80 bb 0c 2d 36 3c eb c9 19 3c
       -0.013863624 -0.003908848 0.011119138 0.00938652
0002f0 5d 8c 94 3c e9 71 e7 ba 91 4a fe 3b 35 70 a0 3a
       0.018133337 -0.0017657849 0.007760354 0.0012240472
000300 78 38 ca ba 39 a5 b4 3b 3c f1 9d 3b 9b 0e 32 bc
       -0.0015428206 0.00551286 0.004820017 -0.01086774
000310 ac 0d 98 3b 1f 67 84 3c d0 8c 01 bc c6 0e 97 ba
       0.0046403017 0.016162453 -0.0079071075 -0.0011524789
000320 83 fc 22 ba e6 cb a2 bb ee c0 84 3b 01 71 1d bd
       -0.0006217437 -0.0049681542 0.0040513193 -0.038437847
000330 e7 f1 2c 3b 50 a7 e9 bb 08 e8 95 b9 33 0a ec bb
       0.0026389302 -0.007130541 -0.0002859237 -0.0072033643
000340 46 cf 98 bc db f5 8d bc e3 99 1b bc 73 a5 4c bb
       -0.018653523 -0.017329147 -0.009497139 -0.0031226545
000350 95 0f 8e 3a 73 1d 21 3b 98 94 14 3c 0a 91 a2 3c
       0.0010838384 0.0024584203 0.009068631 0.01984455
000360 d2 09 53 b8 1b a4 91 bb eb d6 5e bc 98 2a 24 3c
       -5.0315466e-05 -0.0044446117 -0.013601045 0.010019921
000370 0c 7f 97 ba af 22 ba 3a 93 8b f6 3b c7 69 25 3c
       -0.0011558249 0.001420101 0.0075239628 0.01009602
000380 5f 31 2a bc a6 bb 28 bb fd a8 cf 3c fc ad 0c 3c
       -0.010387748 -0.0025746613 0.025349135 0.008586403
000390 7b 8a f1 3b 39 1c 8c 3a 10 4e 23 3b c0 6f f9 ba
       0.0073712445 0.0010689563 0.0024918355 -0.0019030496
0003a0 bb b2 ae 3c 0f 7a 17 3b 6c 86 b5 bc 39 53 d0 bc
       0.02132546 0.0023113524 -0.022158824 -0.025430309
0003b0 33 26 e3 bc ab 92 ca 3b e5 73 09 bc f0 40 b3 bc
       -0.027728176 0.006182035 -0.008389448 -0.02188155
0003c0 1f f5 0c bb b5 d1 b3 3b eb 37 26 3b 26 c8 af bc
       -0.0021508408 0.0054876455 0.002536292 -0.021457743
0003d0 84 5a 7a 39 e6 2f a7 bb 11 2f af 3b bd 8e 4e bb
       0.00023875578 -0.0051021455 0.005346187 -0.0031518184
0003e0 ba ff bd ba eb 1f b0 3b 2b 2c 25 3c f0 97 f6 3b
       -0.0014495768 0.0053748987 0.010081331 0.0075254366
0003f0 9c 5d 14 3c 9a 84 a0 bb e3 a3 01 3d 7c ca 30 bc
       0.009055521 -0.00489862 0.031650435 -0.010790464

action_model._discrete_distribution.branches.1.bias f4 [2]
000000 48 39 47 bd 47 39 47 3d
       -0.048638612 0.04863861

action_model._discrete_distribution.branches.2.weight f4 [3, 128]
000000 fe de 56 3c dc 51 7c bc e5 2e 9f 3b 65 46 97 bb
       0.013114689 -0.015400376 0.004857885 -0.004616546
000010 36 60 ac bc c8 1c 72 3c 09 b5 b2 bb 1d 30 63 3c
       -0.02104197 0.01477737 -0.00545371 0.013866452
000020 36 1c 18 3c b2 52 da 3b db ac 04 3c c9 16 97 3b
       0.00928407 0.00666269 0.008097853 0.0046108705
000030 3c c5 59 bb 3b a1 03 3b aa 3d 03 bb 3a 35 11 bc
       -0.0033229133 0.0020085115 -0.0020025768 -0.008862788
000040 03 99 d4 bb cb 6e 65 3c 5c f1 47 bc 14 57 4a 3c
       -0.006487967 0.014003466 -0.012203541 0.012349863
000050 cb 6f 1e bc 45 ef dd 3b 93 65 b5 ba 11 91 22 3c
       -0.009670208 0.006772908 -0.0013839476 0.009922282
000060 bf d5 66 bb 49 1d 0a bb 78 f5 14 3b 0c c6 a2 bb
       -0.0035222617 -0.0021074584 0.0022729319 -0.0049674567
000070 49 22 c5 3b ea f8 28 bc ce 97 2a bc 36 d8 39 3c
       0.00601605 -0.010313252 -0.01041217 0.011343053
000080 05 50 78 bb e1 f9 24 3c 3d 63 fb bb 90 f5 ba bc
       -0.0037889492 0.010069341 -0.0076717422 -0.022822171
000090 ae dc 8b b9 3a 98 f5 bb 74 8e b4 b8 d6 33 44 3c
       -0.00026676565 -0.0074949535 -8.609603e-05 0.011975249
0000a0 99 0c 3e 3c fd 01 c8 3b d2 1d a4 bc 2c 95 1c 3c
       0.011599683 0.0061037526 -0.02003375 0.00955705
0000b0 3e 41 c0 bb 4a 9f 2f bb 9f 19 4c bb 9d fe 56 3c
       -0.0058671525 -0.0026797825 -0.00311432 0.013122228
0000c0 ea bc e3 3c 43 50 94 3c f5 09 9d bc 48 d0 87 3b
       0.027800042 0.018104678 -0.019169787 0.004144702
0000d0 3b 3c 2c 3c af b3 4d 3a d5 8e e3 bb 99 2a 0f 3b
       0.010512407 0.00078469043 -0.006944517 0.0021845459
0000e0 c9 b0 26 b9 ca 69 4a bc e0 90 1c bc b8 4e ec 3c
       -0.00015896851 -0.012354324 -0.009556025 0.02884613
0000f0 51 95 0b bc ae 24 21 bc 93 bc be 3b 82 75 29 3a
       -0.0085194865 -0.009835405 0.0058208196 0.00064643484
000100 9c 04 91 3c 83 d8 80 3c 23 ae b0 3b 53 2d 49 3c
       0.017702393 0.01572824 0.0053918525 0.012278873
000110 11 bf 01 3c a6 aa ba 3b eb 98 9a 3a f6 8b 16 3c
       0.007919089 0.0056966124 0.0011794841 0.009188643
000120 5f 80 f4 3b 7d 59 69 3b 31 aa 2f 3b 63 fe f1 bc
       0.007461592 0.0035606318 0.0026804323 -0.029540246
000130 66 5f 46 bc 1f a9 9b ba 06 a3 4d bc ef 4d bb ba
       -0.012107706 -0.0011875964 -0.012551075 -0.0014290194
000140 45 75 67 bc 69 b0 08 bc c8 cf c7 3b b2 dd d5 3b
       -0.01412708 -0.008342841 0.0060977675 0.0065266723
000150 c3 e8 1b ba 96 2c a5 bb 05 de bc b9 70 c6 d9 b9
       -0.0005947465 -0.0050407154 -0.00036023572 -0.00041537313
000160 b9 3a 0f bc 46 e9 8e bc 0b 0d 31 bc ea 0e 7a bb
       -0.008742028 -0.017445218 -0.010806332 -0.0038155862
000170 3d 82 5d 3c e1 c8 a9 bb d6 0e 90 3a ca ad 3f 39
       0.013519821 -0.0051814173 0.001099075 0.00018279921
000180 ea dc 0e bc 8b 16 59 bc 37 ff 1a 3c b3 ea 74 bc
       -0.008719662 -0.013250004 0.009460262 -0.014948535
000190 80 28 5c bc ef 41 98 3b 0b c9 9d 3b f9 a5 e1 39
       -0.01343739 0.004646532 0.004815226 0.00043039004
0001a0 0d 40 8f 3c ba 1d 65 bb 20 60 a2 3b 20 7c 72 bb
       0.017486596 -0.0034960345 0.0049553066 -0.0037000254
0001b0 7f e8 ae bb 31 37 15 bc c7 9b 96 3b 5c 4d 88 3c
       -0.0053377743 -0.009107397 0.004596207 0.01663845
0001c0 87 1c 13 3c 8f fc 82 3b e9 54 b2 bb f4 fe eb 3a
       0.008978969 0.0039973925 -0.005442251 0.0018005059
0001d0 05 b9 88 3c 07 83 86 3c 0b 0e 0b bc 18 36 d2 3b
       0.016689787 0.0164199 -0.008487235 0.00641514
0001e0 17 24 27 3c fd c6 14 39 38 6d 5e bc a3 1f 55 bc
       0.010201476 0.00014188509 -0.0135758445 -0.013008031
0001f0 23 72 b0 ba de 34 b6 3c 1a 10 5b 3c 4a 2f 10 3a
       -0.001346175 0.022242006 0.013370538 0.00055002107
000200 70 2e a2 bc 18 04 2d b9 61 bf 30 3c 4a f5 34 3d
       -0.019797534 -0.0001650009 0.010787816 0.04417924
000210 21 8e f3 bc 63 99 13 bc bb ea 08 bc d1 5c 80 ba
       -0.029730858 -0.009008738 -0.008356745 -0.0009793286
000220 b3 03 70 ba 29 e2 ff 3b e8 fe b2 bc 68 0d 9a 3c
       -0.00091558247 0.007808943 -0.021850064 0.01880522
000230 3c 7f 5b bb 7f 31 30 bc 72 fd 5f bc 07 7f a1 3b
       -0.0033492586 -0.010753988 -0.013671266 0.004928473
000240 bf 29 72 3b 66 24 8b bc 57 f8 15 37 cb 65 eb ba
       0.0036951152 -0.01698513 8.938913e-06 -0.0017959414
000250 73 9d ae 3a d1 5f 8c bb ed 67 ba 3c 28 6a 80 3c
       0.001332207 -0.004283883 0.022754634 0.01567562
000260 3d 94 8d bc 19 89 c8 ba e4 6d 73 3a 64 c1 78 bb
       -0.0172826 -0.0015299647 0.00092860893 -0.0037957067
000270 43 90 9c 3c c5 49 d9 3c 3e c6 8d ba 82 20 c7 3c
       0.019111758 0.026524434 -0.0010816527 0.024307493
000280 50 a8 1b b9 f2 1d 5e 3c f8 f5 cc 3a da 34 a9 bb
       -0.00014844653 0.013556944 0.0015637269 -0.005163771
000290 63 17 e2 bb 9b c9 c8 3b de ee f1 39 48 19 37 3c
       -0.0068997606 0.006127549 0.00046145072 0.011175461
0002a0 db 94 6e 3b 2a 3c 85 b9 a5 26 1e 3a 6b 45 39 bc
       0.0036404643 -0.00025412563 0.000603298 -0.011308054
0002b0 24 86 78 3c d7 60 c0 bb ac e7 02 3b 28 38 01 3c
       0.0151687 -0.005870919 0.0019974513 0.007886924
0002c0 fd cf 6e 3b 97 31 f1 3a 5a e9 37 3c 1c 74 43 3c
       0.0036439889 0.001840162 0.011225069 0.011929538
0002d0 a5 21 07 bc c1 25 e9 3b e7 78 d3 3a 44 af 10 ba
       -0.008247768 0.0071150963 0.0016134054 -0.00055192807
0002e0 a1 cd 99 bb 22 1b d8 3a fb 03 fb 3b ae 66 34 bc
       -0.0046937023 0.0016487578 0.0076603866 -0.011010809
0002f0 b7 70 2d bb fb 69 cc 3b 23 dc 4a 3b 6e b4 d9 bb
       -0.0026464888 0.00623822 0.0030953966 -0.0066438233
000300 8c 7c 01 bc d5 1d dd bb 64 94 6b bc 54 d3 42 ba
       -0.007903229 -0.006747941 -0.014378641 -0.0007432003
000310 2c 39 eb bb c5 92 3e bc 40 02 58 3b 71 c6 37 3c
       -0.0071784463 -0.011631672 0.0032960325 0.011216746
000320 33 a1 b3 ba 4d 97 e4 3b b5 9c 03 bb 5e e9 b8 3c
       -0.0013704657 0.0069760443 -0.0020082418 0.022572216
000330 20 20 aa bb 8f 05 8e 3a 6e 1c b3 3c 1e dc 0e bd
       -0.005191818 0.0010835397 0.021864142 -0.03487789
000340 6c 77 16 bc 02 17 e9 bb 6f 51 bf 3b 84 8a 00 3c
       -0.009183746 -0.0071133384 0.005838565 0.007845525
000350 8d b7 1a 3b 51 81 b1 ba be 48 84 bc 3b 9b d3 bc
       0.002360794 -0.0013542568 -0.016147967 -0.025830856
000360 be 55 75 3c be ea 1b bb a8 86 50 3b 13 75 7c 3c
       0.014974056 -0.002379104 0.0031818543 0.015408772
000370 ce 43 9c bb a7 a4 b9 3a bd df ca bb 52 8f 85 bc
       -0.004768825 0.001416345 -0.0061912225 -0.016303692
000380 2a 2e 08 bc 31 0b 19 bc f6 41 0b bc 79 54 02 3b
       -0.008311788 -0.009341047 -0.008499613 0.0019886775
000390 63 60 4e 3c d2 a7 76 bc b4 09 a6 3b 83 85 02 3d
       0.012596223 -0.01505466 0.0050670747 0.031865608
0003a0 54 e2 0d bd ed be 0b 3b a4 99 81 3c 3f 73 ac 3b
       -0.03463967 0.0021323517 0.015820332 0.005262762
0003b0 c6 9b 23 3c 5a fa e3 3b be 2a 99 bb 52 13 3b 3c
       0.00998587 0.0069573345 -0.0046742847 0.011418181
0003c0 8f e8 fe bb b3 7f da 3b a6 3e 07 bc 8d 49 17 bc
       -0.007779188 0.006668055 -0.008254683 -0.0092338445
0003d0 f3 ba 6f bc ef 56 29 3c 33 97 f4 3b 20 d8 4e 3c
       -0.0146319745 0.010335668 0.0074643134 0.01262477
0003e0 c7 db 7e 3c 7e a0 02 bc 18 d6 c8 3b fb 43 8d ba
       0.015555329 -0.007972835 0.0061290376 -0.0010777706
0003f0 9f 9c 17 3b 08 e4 00 3d d2 22 b9 bc df a0 03 3a
       0.0023134125 0.031467468 -0.022599611 0.0005021225

action_model._discrete_distribution.branches.2.bias f4 [3]
000000 fa 7d 96 3b 58 c9 56 be 64 82 4a 3e
       0.0045926543 -0.20975244 0.19776303
