Assets/results/OuiTank/TankLearningAI/TankLearningAI-7930606.onnx (onnx, 128747 bytes, 15 tensors)

discrete_act_size_vector f4 [1, 5]
00000000: 0000 4040 0000 0040 0000 4040 0000 0040
00000010: 0000 0040
3.0 2.0 3.0 2.0 2.0

network_body._body_endoder.seq_layers.0.weight f4 [128, 82]
00000000: d686 063e 4905 ebbd a36c bb3d 78c4 b43d
00000010: 859f 2d3d 5201 233e 03d8 9c3d 2f83 ddbd
00000020: c5aa 073e 9285 a23c 498b 703e 8f19 53bd
00000030: 68d5 123c c88f 6cbe 6458 91bb fd5c 21be
00000040: cd6f 193e 2220 a23c 3ed1 353e 4b70 003e
00000050: d7d0 c53c 250b db3d 7e55 3abd 5392 9cbd
00000060: ab5f 123d 9d01 3cbe 520f b4bd 761d f6bd
00000070: 7bf0 b2bd 5e26 f4bd 91dc 343d f2fd 383d
00000080: c9e1 9e3d d08a b7bb de8d e23d d23a 193e
00000090: 5371 e5bd bac6 d23c 675e 5f3d 7836 713e
000000a0: 067f 203d dbe8 52bd 32a4 71bd d724 b43d
000000b0: 4e4f 00be bfe0 1fbd 57e5 313e 7984 33bd
000000c0: beae 9bbd de20 7c3d 6210 73bd 094f 1dbe
000000d0: c84b 903c 0606 70bc fdd2 3a3e 3f59 8bbd
000000e0: ebb2 90bd 6ac1 3fb9 7e89 353d 7651 ff3c
000000f0: 3ff6 14be 0a43 033e 1acb 02bd 5ced ee3b
00000100: 6723 3ebc 549a a63d 7b72 01be f713 50bd
00000110: d1c0 bb3d 7cc3 3c3e 0660 bdbd 85f2 a03b
00000120: a41d 9fbd 5e11 0f3e ea6a 403d 5527 38bd
00000130: 9851 2339 407a 7b3c f190 1dbd dcff d1bd
00000140: d2c2 ffbd cf19 9abd 8e1c 0abd 6a76 34be
00000150: 0ff8 873e a8d9 a73b d87e 4abd df7b cb3b
00000160: 5a3d aabd 64ea af3d bf27 6b3d f768 f2bd
00000170: cd4f 083c f29e be3c 4501 973c 6c14 94bd
00000180: af99 9dbc b826 3dbe 163c 4439 119e f0bd
00000190: 009e 74bd 6305 41be 5a9e 79bd 7a0e 893d
000001a0: a00d a6bb 2a6b 6bbd b680 3a3e b456 a9bd
000001b0: c54f 1ebd 94de 22be 0534 7bbd 8f5c b6bd
000001c0: a328 7a3e 20c2 8c3d 5d53 4b3e 799b 2a3d
000001d0: 1a77 acbc 3c56 1b3b 3efb b2bd 5abb d5bd
000001e0: 44a2 19bd 950d 6bbd 53e6 1ebc 5736 8c3c
000001f0: f140 023d bd14 183e 6c2b 0c3d d523 b73d
00000200: a8b8 c03d df08 15bd 710b 383d c291 803d
00000210: 4956 603d f4d7 c3bc 60da e43d daef 7cbd
00000220: cc85 d7bd 3c0c 2c3e 5437 213e c44a f7bd
00000230: b17a 06bd 358a ed3c 4e7f 723e 3194 6cbe
00000240: 7203 243e 2ffa 2a3b fd68 cebd 0302 19be
00000250: 0019 0ebc 2a3c 3f3e f000 ed3a e340 593d
00000260: 3a4b 23be c7f4 923c b6e2 743d cc5b b83c
00000270: caa7 2f3d 6555 ab3d 109f 45be eb7a 00be
00000280: 76d8 ed3c 45e1 803c 206e bc3d 4531 dfbd
00000290: 701a 03be 8a8d 983d a289 f43d 49f4 023c
000002a0: bc3d a9bd a71d 56bb b65d 533e a0f4 0ebd
000002b0: d81f 2ebd 4286 0dbd 4d7e 1fbe b75f a43d
000002c0: cede fd3c ca92 20be e3dd 313e f8a2 283d
000002d0: bbba 9a3c 70f0 0cbe b507 c9bd a7dd 27bc
000002e0: 3fba ff3d 4add 9abc baf8 7b3d 9aa1 9e3d
000002f0: 515e 863c 72ef 603d a0e5 0ebe acba 083d
00000300: 1288 0bbc d56d ebbc 6054 d53d 874f 56bc
00000310: 7161 32bd ee18 83be 8390 a9bd 05b2 3b3d
00000320: 0fc9 17bc a8a1 eabd 16c0 1ebe e9da b9bd
00000330: 41f3 123e efce 56be b1dd 56bd 466a 01bd
00000340: 3122 933d 45ec 3f3d ba0a 0b3d 12e2 ed3c
00000350: a6c9 ef3c 3ede a9be d307 3b3d 66d3 143e
00000360: f41c 553c a90b 85be 3508 813d 66e0 7c3d
00000370: ff12 b9bc ec8f abbd 7fe5 bebd 1d94 013d
00000380: 4f39 dbbd f6d6 5b3d 1c88 ef3c f3ae 8dbe
00000390: 62d9 0f3d daef c53d 018d a73d 16e2 9f3d
000003a0: 97b5 c93d 46f7 0d3d 5190 cb3c 84d9 41be
000003b0: 1d7d 7b3c 04b9 49be ec11 0d3e e1aa 293e
000003c0: 39cc 45be 8222 b1bc b072 313e 4b0c 023b
000003d0: a6ed 3ebd 4bde a6bd 294e 29bd 7403 54bc
000003e0: 3a3b 21be 430d 8a3d c5d4 fc3d 2a07 0abe
000003f0: f192 ef3c 1185 b33d a1fd dabd 889d 053e
0.13137373 -0.114756174 0.0915158 0.08826536 0.042388458 0.15918472 0.076583885 -0.10816037
0.13248737 0.019839082 0.23490633 -0.051538046 0.008962013 -0.23101723 -0.004435586 -0.15758128
0.14984055 0.019790713 0.17755601 0.12542836 0.024147434 0.10695485 -0.045491688 -0.07645097
0.035735767 -0.1835999 -0.087919846 -0.12017338 -0.08737274 -0.119213805 0.04415566 0.045164056
0.07757909 -0.0056012645 0.11062215 0.14963844 -0.112032555 0.025729526 0.05453339 0.23555934
0.03918364 -0.0514916 -0.05899448 0.08796089 -0.12530252 -0.039032694 0.17372642 -0.043827508
-0.07601689 0.061554782 -0.059341796 -0.15362181 0.01761426 -0.014649874 0.18244548 -0.06804132
-0.07065376 -0.00018287232 0.044320576 0.031166773 -0.1454706 0.12818542 -0.031931974 0.007291479
-0.01160512 0.081349045 -0.12641327 -0.05080029 0.09167636 0.18433946 -0.09246831 0.004911723
-0.077693254 0.13971469 0.04697696 -0.044959385 0.00015575287 0.015348971 -0.038468305 -0.102538794
-0.12488331 -0.07524454 -0.033718638 -0.17623296 0.2655644 0.005122382 -0.049437374 0.006209835
-0.08312483 0.08589628 0.05741095 -0.11836427 0.008319807 0.02326915 0.018433223 -0.07230458
-0.019238321 -0.18471801 0.000187144 -0.11748899 -0.059720993 -0.18849711 -0.06094203 0.06692214
-0.005067542 -0.057475246 0.18213162 -0.082684904 -0.038650293 -0.1590522 -0.061328907 -0.08904373
0.24429564 0.06872964 0.1985602 0.041652177 -0.021052886 0.0023702523 -0.08739327 -0.10436125
-0.037508264 -0.057386 -0.009698468 0.017115755 0.031800214 0.14851661 0.034221098 0.08942381
0.094102204 -0.036385413 0.044932786 0.06277801 0.054769788 -0.023906685 0.11174464 -0.061752178
-0.105235666 0.16801542 0.15743762 -0.12074807 -0.03283185 0.028996566 0.23681375 -0.23103406
0.1601694 0.0026089062 -0.10078619 -0.14942174 -0.008672953 0.18675295 0.0018081944 0.053040396
-0.15946665 0.017938985 0.05978652 0.02250471 0.042884625 0.08365897 -0.19298959 -0.1254689
0.02903388 0.015732417 0.09200692 -0.10898069 -0.12803054 0.074488714 0.11940314 0.007992812
-0.08263728 -0.0032671483 0.20641217 -0.03490126 -0.042510837 -0.034551866 -0.15575524 0.08026069
0.03099003 -0.15680996 0.173698 0.041171044 0.018887868 -0.13763595 -0.09815923 -0.010245717
0.124866955 -0.018904347 0.0615165 0.07745667 0.016402395 0.054915853 -0.13954782 0.03338115
-0.008516328 -0.028738895 0.10416484 -0.013080484 -0.04354996 -0.25604957 -0.082795165 0.04582407
-0.009264245 -0.11456615 -0.15502962 -0.09074957 0.14350607 -0.20977376 -0.052457515 -0.03159549
0.07184256 0.046856184 0.033945777 0.029038463 0.029270958 -0.3317737 0.04566176 0.14533767
0.013007391 -0.25985458 0.063003935 0.06173744 -0.022592066 -0.0837706 -0.09321117 0.031635392
-0.1070429 0.0536718 0.029239707 -0.27672538 0.03511942 0.09664889 0.08181191 0.07806794
0.09849089 0.034659646 0.024849089 -0.18930632 0.015349654 -0.19699484 0.13776368 0.16569091
-0.19316186 -0.0216229 0.17328906 0.0019843753 -0.046613358 -0.08147868 -0.041334305 -0.012940276
-0.1574525 0.06740811 0.1234527 -0.13479295 0.029244872 0.08765615 -0.10692907 0.13048375

network_body._body_endoder.seq_layers.0.bias f4 [128]
00000000: 14f8 c39d 11bb 2b03 8508 d93c be54 a1bc
00000010: 63ca e231 d79d bf30 f4b8 ed18 d97d 3bbc
00000020: 2859 0c3d 005b 733c 2951 0aba 9f68 a2ba
00000030: 9b00 42bc 2be8 82bc 71a2 1aa9 fd13 9ebb
00000040: 416a 94bd fda8 9a3c 5258 1736 f9c5 15bc
00000050: f5d2 61bc e385 ed35 39d5 ee9d 7f33 91bc
00000060: 41ab 0096 2428 3d3d e996 82ba c04c c53c
00000070: 5cdc 1aa2 9073 d93c 02ff 372d d00a bdbc
00000080: 85a8 3dbc 56fa 2cbc 352f 123d 298c a0bc
00000090: 9143 1ab2 cc8b c6bc 0000 0000 25b5 06bd
000000a0: fd22 073d cd7a bcbc 1427 2dbc a3a3 c23c
000000b0: 5486 d3bc ab22 a8bb 92fc 823d 8c42 1cbd
000000c0: 491e a735 187b 1bbd ac7c e9bc 7973 9fae
000000d0: f64d 25bc 92cb ef3a 15e8 933b 6d8a f3bc
000000e0: 2cd9 3c1f 80d1 41bc 280f 7cb5 56f7 6cbc
000000f0: 840f a62c d589 9e3c 8bf2 ca3b 9a0c 47bd
00000100: a31a bb35 22cd 193d 0000 0000 df47 cd3c
00000110: 7e00 eebc 4aba e73b 8448 47bb c8ab 72a4
00000120: d41c e13b 54d0 dcbc c354 f1bc ccdc 84bc
00000130: 4877 09bd 960e c7bc fac3 64bd f4cf 503c
00000140: 556a c2bc 3f66 8ebc 25b2 003c e52e 95bc
00000150: f847 d285 a6d6 c5bc ec22 1abb 5b9a 323d
00000160: 0c50 d7bb c806 7ab0 5bc6 3db7 cac7 8b2f
00000170: e261 15bd a055 15b1 a06e 1fb8 0ff8 58bc
00000180: 434a 703b c309 6dbc c69e 1cbc 19c0 e0bc
00000190: 87c4 a6bb 3dea 1fbd afb6 d3b8 bc3a 6fbc
000001a0: d2d6 223c a1eb f1bb e253 edbc cc15 563b
000001b0: bdfa 143d d091 9abc 0000 0000 3846 d2bc
000001c0: e908 d0bc 50bd 8ebb e215 36bd 9a65 12bd
000001d0: 8d2b 0191 52e1 66af 912e d4bd 3e60 aa35
000001e0: 2f50 b3bb 2a39 9427 2b7f 27bc 2a82 b7bc
000001f0: 3d8d 62bc 8bbf 26bd a086 35bd 7127 8bbc
-5.1872577e-21 5.0467125e-37 0.02649332 -0.019693729 6.6004744e-09 1.394194e-09 6.144982e-24 -0.011443579
0.034264714 0.014853239 -0.0005276376 -0.0012390799 -0.011840965 -0.015979847 -3.4335765e-14 -0.00482416
-0.07246829 0.018879408 2.2552163e-06 -0.009141439 -0.013783206 1.7696842e-06 -6.3218543e-21 -0.01772475
-1.0393796e-25 0.04618086 -0.0009963188 0.024084449 -2.098755e-18 0.026544362 1.0458969e-11 -0.023076445
-0.011575823 -0.010557732 0.03568955 -0.019598084 -8.979343e-09 -0.024236582 0.0 -0.032887597
0.03299235 -0.023007775 -0.010568399 0.023759669 -0.025820889 -0.005131086 0.0639583 -0.0381494
1.2451284e-06 -0.03795919 -0.028501831 -7.250995e-11 -0.010089388 0.0018294922 0.0045137503 -0.029729092
3.999019e-20 -0.011829734 -9.389937e-07 -0.014463266 4.7197263e-12 0.019352833 0.006193464 -0.048596002
1.3940338e-06 0.037549146 0.0 0.025058685 -0.029052969 0.007071768 -0.0030408213 -5.262089e-17
0.0068698917 -0.026954807 -0.029459363 -0.016218565 -0.03356102 -0.024298947 -0.05585096 0.012744892
-0.023732344 -0.01738274 0.007854973 -0.018210838 -1.9774742e-35 -0.024150204 -0.002351935 0.043604236
-0.0065708216 -9.0959107e-10 -1.1311461e-05 2.542591e-10 -0.0364703 -2.1731026e-09 -3.801158e-05 -0.0132427355
0.0036665357 -0.014467659 -0.009559339 -0.02743535 -0.005089346 -0.039041746 -0.000100952915 -0.014601406
0.0099389125 -0.0073828255 -0.028970663 0.00326668 0.036371935 -0.018868357 0.0 -0.025668249
-0.025394874 -0.004356064 -0.044454463 -0.035741426 -1.0189726e-28 -2.0998428e-10 -0.10360444 1.2693997e-06
-0.005472205 4.114023e-15 -0.01022319 -0.022400934 -0.013827619 -0.040710013 -0.04431784 -0.01698658

network_body._body_endoder.seq_layers.2.weight f4 [128, 128]
00000000: 0109 5b3d ff38 68bc 8c64 27bd 433f 5c3c
00000010: fc9a f8bc d603 63bd 10e2 053e f4fe 323e
00000020: 4378 13be 0b4e 8d3d bf11 113e 6628 b0bc
00000030: b609 1dbe 2065 b9bd 0324 043d fc59 033e
00000040: 0cbd 4a3d 2a9b 32be 0380 d4bd ae63 6e3b
00000050: 8581 6a3c 6128 85bd 2dde bdbc 39d7 043c
00000060: 7eb1 f9bc b04a 0f3e d7c6 8dbd 6b09 cebc
00000070: 8cb2 943d 4d08 bcbd 497a 17be 08df 62bd
00000080: d162 23bd 27a1 87bd d349 c5bd d81e dcbd
00000090: c1cd ed3b e6d2 ab3d 9e89 b33c 3537 a1bc
000000a0: ddc9 07be bb68 2ebd 8f25 94bd ea50 5abd
000000b0: 6163 26be 12b2 16bc 84ea 453e 3648 853d
000000c0: b7e2 77bc 33f0 0bbe 1212 2d3e 189b a1bd
000000d0: 5543 bd3c 5023 683d 1f69 16bb 812f dabd
000000e0: bcbf 95bd 48dc 0e3e 8fd2 823c 7a68 f0bd
000000f0: ec56 44be e1f7 933d eada 0d3b a707 973d
00000100: 06e4 c6bd 8f45 51bd 2138 213e 8938 50bd
00000110: d491 683a de2b 0abd fe1d 0ebb f1e7 c2bd
00000120: 085e 8f3c 73f2 b13a 949e a93d ffa2 80be
00000130: 8d23 91bd bca9 efb8 f51d af3d e515 14be
00000140: 1d8c 82bc e5c9 56bd 9e29 463d e4c9 74bd
00000150: 370b 9fbd 4c5f eebb 92aa 51bd 2c67 32bd
00000160: 6313 bd3b a42c eabd b5f6 8c3c c090 dabd
00000170: d0c2 b73d b1f2 91b9 d944 79bd 0796 52bd
00000180: 636b 24bb e1c4 97bd a4a6 703d 3a74 653c
00000190: 1aab 20bd 962f 203d 6a78 20bc 6777 533d
000001a0: 815b 13bc c46e 5b3e 530c 653d 34aa e6bc
000001b0: 8874 82bc 37c9 fe3c cb08 8bbd 1cdb 8dbe
000001c0: 62d4 033d 8613 b9bc 8dbf e1bd c28a 30bb
000001d0: a17e ea3c 9338 113d 2e3e 77bc 53f5 033c
000001e0: a1cf d6bb ebc9 9abc 3318 133d fdc6 88bd
000001f0: 2fd8 153e 2a27 0dbd 69ca 71bd df5c 30bc
00000200: 82cb b03d 8c8d 423d 73f4 963c f0a8 dd3c
00000210: 74e8 abbd 27a7 88bd 81c5 003e c171 583d
00000220: f0de 933d a060 6c3d ec49 973d bd28 90bd
00000230: 4284 ff3b 0620 06bc c701 0e3d 7681 5abd
00000240: f9b4 23be f0dd 493c 58e8 5e3d 881f a5bd
00000250: c6e8 213d 1fa2 8b3d c9c5 a1bd d842 21bd
00000260: 2061 80bc 5d8a b2bb 3c0b 88bd 3ffa f63b
00000270: 68d9 f43c 7213 87bd 1df4 92bd c61f 58bd
00000280: 4bd2 fdbb 3272 73bc a4c1 a6bd 0117 463d
00000290: dd2a 5d3b 7e96 98bd 7ae8 b03d baef a33d
000002a0: 0337 0bbd 12cc 12bd 8a21 ee3c 87fd 753c
000002b0: 0d26 ed3c ce1c 9c3d 20b6 d0bd 2c77 243d
000002c0: c3e9 12bc c138 7e3d e957 97bd aa4a 213d
000002d0: 97cd 5dbd 82c7 b43d 7a86 363d e6e5 efbd
000002e0: 09fa 0ebe e2f5 413e c336 ac3c a721 083d
000002f0: 6202 6dbd 9f23 763d 486b 87bd eaa6 8bbc
00000300: ceb9 3abd 5106 413d cff6 343d 4409 c2bb
00000310: 6924 a53a 8afa 0e3e 686e 63be 3553 fabd
00000320: 156b 09bc b3c8 a73d c7d8 bcbd 27c9 c83d
00000330: 1ead d3bc 7253 433e 1532 1f3d 2cf4 c83d
00000340: c91e f2bc df39 08be dccb 4abd 176e d73a
00000350: c6d1 3fbc 7bd3 37bc aa5c 07bc 3962 933d
00000360: bb8d b7ba ea87 46bd 3a76 67bd 9c66 f83b
00000370: ad25 3ebd c4da adbd 73ec b3bd 7ad4 87bd
00000380: 0bc6 d5bd 0f56 febc ed8a afbd bf11 1c3d
00000390: 3ad1 edbd b283 b3bd 700c 9bbd 4c45 46bc
000003a0: ba1a 863d ecc3 0b3e 2a7c af3d 4423 c7bd
000003b0: 64a6 f03d bb92 fabc 4e69 0ebc f4d4 4abe
000003c0: 546b af3d 6048 6fbc 8d8d 7f3d f635 ffbd
000003d0: ea4e 1d3d 5cbd c13c 12db 0d3d 8226 28bd
000003e0: 4bd0 793d 112b 303e a4f5 ab3d 0561 0a3e
000003f0: 045d 13bd 28e3 ebbc 7c48 40be 810f 3cbd
0.053475384 -0.014173745 -0.040867373 0.013442817 -0.03034734 -0.05542358 0.13074517 0.1748007
-0.14401345 0.06899651 0.14166926 -0.021503638 -0.15335736 -0.09052491 0.032260906 0.12827295
0.049496695 -0.17442003 -0.10375979 0.0036375332 0.014313106 -0.06501842 -0.02317723 0.008107954
-0.030480143 0.13993335 -0.06922691 -0.025150975 0.072606176 -0.09181271 -0.14792742 -0.05538848
-0.03988916 -0.06622534 -0.096332215 -0.107480705 0.007257194 0.08389835 0.021916207 -0.019679645
-0.13260598 -0.042580348 -0.07233726 -0.053299822 -0.16248848 -0.009197729 0.19327742 0.06507914
-0.015129737 -0.13665847 0.16901425 -0.0789091 0.023103395 0.0566743 -0.002295084 -0.10653592
-0.07311961 0.13951218 0.015969543 -0.11738677 -0.19173783 0.072250135 0.0021645376 0.073745064
-0.09711461 -0.051091727 0.15744068 -0.050835166 0.0008871828 -0.03373324 -0.0021685357 -0.095168956
0.017500892 0.0013576284 0.082821995 -0.25124356 -0.07086859 -0.000114280236 0.08550636 -0.14461477
-0.015935952 -0.052438635 0.048379533 -0.05976285 -0.07765811 -0.007274544 -0.05118806 -0.043555424
0.0057701333 -0.11434296 0.017207483 -0.1067214 0.089727044 -0.00027837374 -0.060856674 -0.05141261
-0.0025088422 -0.074105985 0.05875267 0.014004761 -0.039225675 0.03910788 -0.009794334 0.051627543
-0.008993984 0.21428972 0.055919956 -0.028157331 -0.015924707 0.031101806 -0.067887865 -0.2770623
0.032184966 -0.022592317 -0.110228635 -0.0026938175 0.028624834 0.035454344 -0.015090508 0.008054095
-0.006555513 -0.01889511 0.03591175 -0.06678579 0.14633249 -0.034461178 -0.059030924 -0.01076433
0.08632566 0.04749827 0.01842711 0.027058095 -0.08393946 -0.06672507 0.12575342 0.05284286
0.07220256 0.057709336 0.07387146 -0.0703902 0.007797749 -0.008186346 0.034669664 -0.05334612
-0.15987004 0.01232098 0.0544208 -0.08062655 0.03952863 0.068180315 -0.07899053 -0.039370388
-0.015671313 -0.005448623 -0.06642768 0.007537156 0.029888824 -0.06595506 -0.07175467 -0.052764677
-0.007746016 -0.014858769 -0.08142403 0.048361782 0.0033747472 -0.07450579 0.086380914 0.080047086
-0.03398801 -0.035839148 0.029068727 0.015014059 0.028948808 0.076226816 -0.101909876 0.040152714
-0.008966866 0.062065843 -0.073898144 0.039377846 -0.054151144 0.088271156 0.04456184 -0.117137715
-0.13962568 0.18941453 0.021022206 0.03323522 -0.0578636 0.060092565 -0.06612259 -0.017047364
-0.045587353 0.047125164 0.044180688 -0.0059215147 0.0012599352 0.1396276 -0.22210085 -0.12222902
-0.008387347 0.08192577 -0.092210345 0.09803992 -0.025839385 0.190748 0.03886612 0.09812197
-0.029555695 -0.13303326 -0.04951082 0.0016436008 -0.011707729 -0.0112198545 -0.008261839 0.07196469
-0.0014004031 -0.04846946 -0.056509234 0.0075805914 -0.04642265 -0.08488992 -0.087853335 -0.066323236
-0.10438164 -0.031046895 -0.0857142 0.03810286 -0.116121724 -0.08765353 -0.07570732 -0.012101483
0.065480664 0.13648957 0.08568604 -0.09723523 0.117504865 -0.030587545 -0.008692099 -0.19807798
0.08565393 -0.014604658 0.062390853 -0.12461464 0.038405336 0.023649864 0.03463275 -0.04105235
0.06098966 0.17203929 0.083964616 0.13513573 -0.03597738 -0.02879484 -0.1877765 -0.045913223

network_body._body_endoder.seq_layers.2.bias f4 [128]
00000000: f9bb 84bc 004e 21bc 26ae 1432 4e35 95bc
00000010: 2256 a7bb 2cc7 e73a 7239 4abc 25e7 e7bc
00000020: 22d0 8bbc ef5a 76bc d33e cbba 53a6 1bbd
00000030: eb24 81bc 1180 93bc 8f76 58bc fa7c c4bc
00000040: df54 6abc 2b70 b3bc 91ad 4cbc 91ec 9bbc
00000050: 35bb ed9e 755c 7ebc e0df 73bc 4f24 e4bb
00000060: f86a c0bc a4e0 f5bb 507d 01bd 4462 61bc
00000070: 5749 1fbc ad6b 96bc b3c6 0ebd 9cb5 4dbc
00000080: 2fc3 f9a5 3b21 cb31 9626 86bc c725 1ebc
00000090: ca7e bbbc 060f 53bc 533a 22bd 2bce ebbc
000000a0: 4c91 6ebc d1f8 8ebc 851b aebb c147 8cbc
000000b0: a97f 18bc 1f4a 08ba a140 c5bb e723 c6bc
000000c0: ee98 3fbc 379b a6bb cda8 fab5 75fd 78bc
000000d0: 4ef8 43bb 8e16 8cbc 5954 90bc 1a8a 08bc
000000e0: a073 e0bc f999 d92c 8ba3 4ebc 6861 d393
000000f0: 52e7 b1bc 7bd4 25ba 65f3 7ebc 64ce 2ebc
00000100: 2851 8bbc 4110 8eb8 1aeb 43bc 30a0 8033
00000110: f68e 6fbc 922c ccbc 3954 01bc d2c5 9dbc
00000120: 1e73 93ac eb08 0ebc f903 66bc 9702 b93a
00000130: 2090 c2bc c2ba 9d1c 8dd6 84bb 0dad 78bc
00000140: aabd f0bc 2007 81ae f06f 3a1c 8776 e6bb
00000150: 41f5 92bc e7f4 b9b8 2f9a edbb 3eed 31bd
00000160: b24f 7dbc 5d1d 4030 9b50 41bc fb03 85bb
00000170: b84e 50bc 3bde b0bb beb6 cd26 44bc b8bc
00000180: d605 81bc c927 46bc 264f 1fba 3c84 bbbc
00000190: ac11 ccb6 2ecb 311a 617d 8cbc dd6c 9dbc
000001a0: abba c9bc f285 1ebc 31fb 5dbc 99b6 94bc
000001b0: 8251 96bc d4f9 2020 2c19 04bd 6696 eebb
000001c0: 064c 33aa 2117 6f9f 9e86 1aa5 eac6 28bc
000001d0: 0fd7 87bc 6dc6 acbc 01ba e2a2 7aca 65a8
000001e0: 5024 65bb 80f0 d0bc ec22 6c33 732a b7bc
000001f0: 7f68 30bc 6087 18bc 5977 5cbc 92eb 1fb9
-0.016202914 -0.009845257 8.654331e-09 -0.018213894 -0.0051067034 0.0017683259 -0.012342798 -0.02830846
-0.017067019 -0.015036329 -0.0015506394 -0.038000416 -0.015764674 -0.018005403 -0.01321186 -0.023985375
-0.014302461 -0.021904072 -0.012492553 -0.019033702 -2.5170778e-20 -0.015524973 -0.014884919 -0.006962336
-0.023488507 -0.007503586 -0.031613648 -0.0137563385 -0.009722075 -0.01836189 -0.034857463 -0.012555506
-4.3326876e-16 5.9118554e-09 -0.016375821 -0.0096525615 -0.022887606 -0.012882 -0.039606404 -0.028784832
-0.014561009 -0.01745263 -0.005313339 -0.017124059 -0.00930778 -0.0005199033 -0.0060196673 -0.024187041
-0.011694176 -0.005084421 -1.8675579e-06 -0.015197148 -0.002990264 -0.017100599 -0.017618345 -0.008333707
-0.027398884 6.1846053e-12 -0.012612234 -5.335994e-27 -0.021716747 -0.00063259125 -0.0155609595 -0.010669325
-0.017006472 -6.774115e-05 -0.011957908 5.9896024e-08 -0.014621487 -0.024923597 -0.007893615 -0.019259367
-4.190772e-12 -0.008669118 -0.014039033 0.0014115152 -0.023750365 1.0437664e-21 -0.0040538968 -0.015177977
-0.029387314 -5.8675065e-11 6.1686913e-22 -0.0070331725 -0.017939212 -8.867104e-05 -0.007251046 -0.043439142
-0.015460895 6.989092e-10 -0.011799003 -0.0040593124 -0.0127140805 -0.0053975857 1.4274265e-15 -0.02255071
-0.015749853 -0.012094446 -0.00060771627 -0.022890203 -6.081731e-06 3.676687e-23 -0.01714963 -0.01921695
-0.024625143 -0.00967549 -0.013548658 -0.018153476 -0.018349413 1.3635188e-19 -0.03225057 -0.0072811125
-1.592477e-13 -5.062935e-20 -1.3402981e-16 -0.010301331 -0.01658204 -0.02109071 -6.145436e-18 -1.2755959e-14
-0.003496427 -0.025505304 5.4979793e-08 -0.022359109 -0.010767101 -0.00930962 -0.013456189 -0.00015251178

action_model._discrete_distribution.branches.0.weight f4 [3, 128]
00000000: 1bcc 91bb 62cc 0cbb 1212 81bb 37c7 04bd
00000010: b1f2 163c f8d3 823c 2376 60bb 7b02 8eb9
00000020: 7b97 9f3b a56a 41bb 4f5f 1e3d ee8a 61bb
00000030: b650 253b 960b 15bd 2a54 503c 8ce1 053d
00000040: 7940 02bc 3e3d 8cba f7e1 b4ba bf95 46bc
00000050: 5b0a 9f3c 0d26 aebb 4702 86bb 4e4f e73b
00000060: eb70 7f3c 0d22 66b9 8238 c7b9 6d88 f2bb
00000070: b552 9738 1e1e 303b ef5d 3a3c e52e 823b
00000080: ef35 88ba 0ce6 c53b 0550 89b9 7417 f4bc
00000090: c2a9 3a3c 56f2 b1bc 7ff7 3fbc cf1f fdba
000000a0: 8371 1f3a 610b 0cbb 5fb8 56bc 2357 87bb
000000b0: c4d5 ce3b 06fa f93b d1ca 8fbb 9718 c63c
000000c0: eb7b 723c 5916 52bc a059 7c3c 4858 3fbc
000000d0: 09ac 053c d7db f0ba d699 713b 5f92 2f3c
000000e0: 61cf 1f3d cdbd f13a 6922 923c db4f f53b
000000f0: 2e27 3c3c a261 fdbb 92eb 95bc 1f46 143c
00000100: d015 8cbc b8ee 553b 437e a23c 0933 c13c
00000110: 85d0 89bc a446 1dbc 4fa3 a9bc 7316 5fbb
00000120: 3506 973b 4636 18bb eaf6 e93b b6ba 9d3b
00000130: 3024 2bbc 0d23 ed3b 1c31 25bb ea8e b1bc
00000140: 8806 b2bb d4ad c03b 345a 3dbc 5e61 033c
00000150: 2230 23bc d5f5 8f3c a381 c63b 4795 153c
00000160: b9ce 09bb b80b dd3b 222a b13b acc4 62bc
00000170: ae26 54bc aa47 2fb9 ff43 003c 8328 37ba
00000180: 0ecf 58bb cd31 bcba 19a5 013c d750 c2bb
00000190: 6ad9 d6bb ddcc 03bc ea4b 44bc 0340 133c
000001a0: 977e 2cba 4955 873a 5f20 d73b febf 1cbb
000001b0: ff13 b5bb 0a80 c5ba 04c0 d6bb 2eb6 113c
000001c0: a1ae 8cbc 38df 62bc cb5b 35bc 884e 953b
000001d0: adee e43c ba5e a43b 33be 5f3b d4fd 31bc
000001e0: 8b0a 24bc 48ee 98bb 9a20 3e3c ccbc 303c
000001f0: 45f6 833c a0f7 29bb 3e30 e1bb b5ba 00ba
00000200: 6943 753c 905d 4bbc aca7 3aba 45a0 053d
00000210: 33d1 edbb 2d19 5a3c dee2 2dbc 5c89 8abc
00000220: c424 c6bb 97d7 49bc 0578 8bbb 3be1 9d3a
00000230: 05ff 673c d883 e7ba 8c1c 3a3c 318b f4bc
00000240: 6a03 bfba 79e8 05bb b894 aebc cac3 86bc
00000250: a627 43ba 3eb1 cebb a4ad 6f3c a740 2ebc
00000260: 4361 d6bb 6d72 773b 1927 eaba 72d8 8bba
00000270: 0b83 ccbc 4c27 8f3c d058 d73b d489 7d3c
00000280: 3e6a 2c3b a98e 423b 30f0 36bc 45e8 443c
00000290: f2fd 88bb 179d 96bc ec5f 10bc 5152 5e3b
000002a0: 7aab c1bb 553e e93b cac5 833b f205 24bc
000002b0: cb68 0bbc aef2 f93b fd17 9b3b ffd6 8fbc
000002c0: 028f 0a3c 87e6 c33c 3cbd 40bb 8de8 4b3c
000002d0: 09e5 15bc 895a 45bc c280 7039 cc80 8c3c
000002e0: b680 e2bc e803 a53b c6fa 463b 7f64 f1bb
000002f0: 4edb db3c 1e40 383c 4cc7 00bd e211 40bb
00000300: 144d 0ebc 16df 30bb bc58 753c fa26 693c
00000310: 49b9 6ebc 7316 afbb 2d66 083d b0c5 43bc
00000320: 1a20 a63a adf6 783d 5cf4 143b 91b3 f13c
00000330: fed1 9bbb 19a4 3e3c 8358 5ebc 0550 df3b
00000340: 3a8b 0abc ef20 0ebc 0e58 153c a27c 20bb
00000350: 4eb1 de3b 79bc 4dbb 98dc fdba c65a 4dbb
00000360: c5b2 96bc 2ad9 f2bb 0dc0 373b 4c3a 6cbc
00000370: 7b8e edba 7e44 413c 23af a93b a484 b039
00000380: d6df db3b d42d 93bb fff8 973c df03 ae39
00000390: 949a 5aba aa78 f2ba 8e66 e43b 7eba 413c
000003a0: 0bc3 32bc 4ea2 b53b 5de7 853c d7b1 5d3c
000003b0: b2c8 af3b 7780 3cbb 6ff9 82bb 3a0e 6c3c
000003c0: afb3 6b3c 5a68 ab3b 7c44 9ebb 8d30 9e3b
000003d0: 3e43 a9bc 0f07 9e3c 804f d73b 2ac1 9039
000003e0: 3c88 b6bb 5e1b d437 72ca ad3b f9ea 97ba
000003f0: 0d33 0dbd b5c1 233b 2feb 5fbd 2f30 89bc
-0.00444938 -0.0021484126 -0.0039389217 -0.03241655 0.009213136 0.015970215 -0.0034250102 -0.000270862
0.004870353 -0.0029513028 0.038665112 -0.0034415084 0.002522511 -0.036388002 0.012715379 0.0326858
-0.007949942 -0.0010699404 -0.0013800253 -0.012120663 0.019414118 -0.0053145946 -0.004089627 0.0070590144
0.015590887 -0.00021947194 -0.0003799834 -0.007401517 7.2156465e-05 0.002687342 0.011374935 0.0039728754
-0.001039205 0.0060393866 -0.00026190295 -0.02979634 0.0113930125 -0.021722 -0.0117167225 -0.0019311848
0.0006082283 -0.0021369087 -0.013105481 -0.0041302606 0.006312104 0.007628682 -0.0043881913 0.024181647
0.014800052 -0.012822711 0.015402228 -0.011678763 0.008158692 -0.0018376064 0.0036865375 0.01071605
0.03901613 0.0018443406 0.017838674 0.007486326 0.011483951 -0.007732586 -0.018300805 0.009049921
-0.017100245 0.0032643508 0.019835597 0.023583906 -0.016823063 -0.009599362 -0.020707754 -0.003404048
0.004608894 -0.002322571 0.00714003 0.0048135174 -0.0104456395 0.0072368444 -0.0025206273 -0.021674592
-0.0054329075 0.005880097 -0.011557151 0.00801882 -0.009960206 0.017573277 0.0060579344 0.009129829
-0.0021027757 0.0067457817 0.005406634 -0.013840836 -0.012948675 -0.00016715997 0.0078287115 -0.0006986933
-0.0033082399 -0.0014358104 0.0079128975 -0.005930047 -0.0065566795 -0.008044449 -0.01198099 0.00898743
-0.00065801427 0.00103251 0.006565138 -0.0023918147 -0.0055260654 -0.0015068066 -0.0065536518 0.008893533
-0.017173113 -0.013847165 -0.011069248 0.004556481 0.02794584 0.005016175 0.0034140467 -0.01086374
-0.010012279 -0.004667077 0.0116044525 0.0107872 0.016108641 -0.002593495 -0.006872206 -0.0004910634
0.014969685 -0.012412444 -0.0007120322 0.032623548 -0.0072576045 0.013311666 -0.010613171 -0.016911201
-0.0060468633 -0.012319467 -0.004256251 0.0012045273 0.0141599225 -0.0017663194 0.011359345 -0.029851528
-0.0014573161 -0.0020432754 -0.021311149 -0.016450781 -0.0007444568 -0.00630775 0.0146288015 -0.0106355315
-0.006542356 0.0037757412 -0.0017864435 -0.0010669364 -0.02496483 0.017474793 0.0065718666 0.015474755
0.0026308442 0.0029687083 -0.011165664 0.012018268 -0.0041806633 -0.018385453 -0.008811932 0.0033923576
-0.005910334 0.0071180263 0.004021381 -0.010011183 -0.008508871 0.0076278066 0.0047330842 -0.017558573
0.008456947 0.023913635 -0.0029409667 0.012445581 -0.0091488445 -0.012045511 0.0002293615 0.017151259
-0.027649265 0.005035866 0.0030361875 -0.0073667164 0.026837971 0.0112457555 -0.031440064 -0.0029307534
-0.008685369 -0.0026988438 0.014974769 0.014230484 -0.014570543 -0.0053432523 0.033300567 -0.011948988
0.0012674362 0.060782123 0.0022728657 0.02950457 -0.0047552576 0.011635804 -0.0135709075 0.006814959
-0.008456046 -0.008674844 0.009115232 -0.002448835 0.0067960387 -0.0031392856 -0.001936811 -0.0031334623
-0.01839579 -0.007411142 0.0028038055 -0.014418196 -0.0018124128 0.011796115 0.0051783486 0.0003366816
0.006710033 -0.004491547 0.018551348 0.0003319075 -0.0008339074 -0.0018499095 0.0069702333 0.011824248
-0.01091076 0.00554303 0.016345674 0.01353117 0.005364501 -0.0028763094 -0.00399702 0.014407689
0.014386102 0.0052309455 -0.0048299413 0.004827565 -0.020661946 0.019290475 0.0065707564 0.0002760974
-0.0055704396 2.5285113e-05 0.0053036744 -0.0011590413 -0.034472514 0.0024987285 -0.054667648 -0.016746609

action_model._discrete_distribution.branches.0.bias f4 [3]
00000000: 4118 dfbd e01e a7bd ac4a 3b3e
-0.10893298 -0.08160186 0.18290204

action_model._discrete_distribution.branches.1.weight f4 [2, 128]
00000000: c034 ab3c b1f8 833b be50 d13a 0b2e acbc
00000010: 4959 b2bc 7d26 0d3c 8ae8 003d 252f 96bc
00000020: df30 0cbc 8783 6d3b ab59 5ebc 00c4 43bc
00000030: b0cf ffb9 2058 4b3c a166 623c 4bb3 ae3c
00000040: ede9 07bc 163d 0dbc cdc3 8f3a 4b91 793a
00000050: 358a 213c ed7d 873c 1040 39bc 86f3 563c
00000060: 7045 f2bb e850 263c fae5 3dbb c200 153c
00000070: 2ffb adba 2ee2 0b3c 4592 c7bb e541 823c
00000080: 79be 9cba a208 043c c90a 363a dbb0 e6bb
00000090: 0277 01bc f015 bb3b 9d24 5b3b ba20 bdbb
000000a0: dc37 63ba 427c 4c3c d2c7 8ebc b5c0 67bb
000000b0: eae2 7c3c 4491 88bc 3fc9 0abb d640 a1bc
000000c0: 07ad 243c c7b6 b8bb 0f7a 2c3b 3381 c8bc
000000d0: 1455 24bc 0766 01bb df93 31bc fe03 4bbc
000000e0: 8a65 a03c 1266 74ba 2b59 93bb ab92 7f3c
000000f0: 4972 aebb 43a3 43ba 6dca 80bc 1d65 233c
00000100: 311b 5cbb 3e18 b83b b457 5a3c 2534 573b
00000110: ff2d 133c 1059 03bb 5b83 09bc 606e 7bbb
00000120: 9a6a cc39 4189 90bc 9ec1 f93b cd6d 4c3d
00000130: 2671 b0ba 6f5d 1b3c e4ae 6fbc 76f7 3f3a
00000140: c67e 21bc 5df1 0dbc ef2a 233c f4ee eb3c
00000150: e37a 253b ff12 743b 3711 2f3b b7a5 a63b
00000160: 8a82 603c 6e0a 88bb b5e7 5b3b cda9 b53b
00000170: 1e18 94bb 13d0 9aba 585a 5abc bc47 9fbb
00000180: 4cd6 8ebc f24f a8bb 1e42 1e3c 1026 883c
00000190: 6a20 0ebc e23b f33b b83d d5bb 7eb8 1a3c
000001a0: 7181 4cbc 0682 0a3c cd3d 86bb 9107 b83c
000001b0: 97d0 e03c a377 99bc b3bf 42bb a485 443c
000001c0: 909f 543b bf75 5c3a c991 973c 0351 ef3c
000001d0: 7e55 55b8 d335 4eb9 8054 f13b 1a59 7bbb
000001e0: f3d7 93bc 6afd 413c 91f8 fc3b 9211 47bb
000001f0: 93a7 4e3c 5f37 023b 3005 df3a 4a86 d53a
00000200: 9f9e b7bb 29b1 7f3b e786 773a 2168 7cbb
00000210: 0595 cb3b df02 7abc 16c4 c1bc 09e4 e3bb
00000220: 24c1 48bb 02e9 a8bb 197e 2d3c c1de 253b
00000230: 6321 d33a fc2f 153c e00d 87bc 0c28 dfba
00000240: 9542 a73c 7fc3 093c 0b97 503c 3be7 08bb
00000250: 9af7 0e3b 7e70 363b 345f 44bb 4d40 963c
00000260: 7f8d 0b3b 847d 9abc 5b64 c23b 6939 ce39
00000270: 8c23 1dbb 74fb 6cbc 5a97 95bc 0470 e2bb
00000280: e635 9d3b 5d0b 543b 1712 1f3b bed5 f93c
00000290: ca17 ee3a c642 4e3c ec6a d93b 798e 003c
000002a0: 682e 08bb 2b7d e4bb 6fd1 8e3c eb6c 523c
000002b0: 40fc 1d3c 0f13 413c b52a a33a 9b41 4e3b
000002c0: 2c78 4a3c 6df3 dbbb 748e c63b 426c 5d3c
000002d0: d274 ccba 1a5d 643a 9834 5abb fb98 873c
000002e0: e86f 44bc cb15 80bb b62d 363c ebc9 193c
000002f0: a201 983c 3574 e7ba 204f fe3b 9c70 883a
00000300: 6b1b caba 3fa5 b43b 9c08 3cba 9b0e 32bc
00000310: f70d 983b 4649 843c be8a 01bc 16a9 96ba
00000320: 83fc 22ba e58c a2bb 0ec1 843b ab4e 3dbd
00000330: e7f1 2c3b 50a7 e9bb 37d6 8db9 330a ecbb
00000340: aacb 64bc dbf5 8dbc e399 1bbc 73a5 4cbb
00000350: a711 8e3a 131d 213b 9894 143c 0a91 a23c
00000360: 821c 1bb8 1ba4 91bb 18a0 5ebc 5e2e 243c
00000370: 8a02 91ba 6027 ba3a 938b f63b 986b 233c
00000380: bb2e 2abc a6bb 28bb fda8 cf3c fcad 0c3c
00000390: e18a f13b 391c 8c3a 104e 233b c06f f9ba
000003a0: 8fff 9e3c 6f82 173b 375d b5bc 1f03 d8bc
000003b0: 95a1 f2bc ab92 ca3b 1d18 67bc 8f3f b3bc
000003c0: 1ff5 0cbb b5d1 b33b eb37 263b 6ec4 afbc
000003d0: b7b9 673c 9360 a5bb 112f af3b bd8e 4ebb
000003e0: e581 0d3c 86a0 af3b 2b2c 253c cf12 f73b
000003f0: b05d 143c e683 a0bb e8a3 013d 152a 31bc
0.020899177 0.004027449 0.0015969498 -0.021018049 -0.02177109 0.008615133 0.031471767 -0.018333027
-0.008556574 0.0036241726 -0.013571183 -0.0119485855 -0.0004879213 0.012411147 0.013818414 0.021325728
-0.008295518 -0.008620521 0.0010968387 0.00095202465 0.009859611 0.016539538 -0.011306778 0.013119584
-0.0073935315 0.0101511255 -0.0028976188 0.009094419 -0.0013273711 0.008537812 -0.0060904347 0.015900562
-0.0011958621 0.008058699 0.0006944356 -0.007040126 -0.007901909 0.0057094023 0.0033438571 -0.0057717236
-0.00086676865 0.012480797 -0.017429266 -0.0035362665 0.01543496 -0.01667083 -0.002117708 -0.019684236
0.010051019 -0.005637023 0.002631787 -0.02447567 -0.01003005 -0.001974465 -0.010838478 -0.0123910885
0.019579668 -0.0009323071 -0.0044967136 0.015598933 -0.0053236824 -0.00074629876 -0.015721524 0.009972838
-0.0033585543 0.0056181243 0.013326574 0.0032837477 0.008983134 -0.00200421 -0.008393134 -0.003836535
0.00038989336 -0.017643573 0.007621958 0.0499094 -0.0013461455 0.0094827255 -0.0146290995 0.00073229463
-0.009856885 -0.0086635025 0.009958967 0.028800465 0.0025250248 0.0037242768 0.0026713142 0.0050856727
0.013702998 -0.004151634 0.0033554856 0.0055439235 -0.0045194766 -0.0011811279 -0.013327204 -0.0048608463
-0.01743617 -0.0051364833 0.009659318 0.016619712 -0.00867472 0.00742291 -0.0065076016 0.0094434
-0.012482033 0.008453852 -0.0040967227 0.022464545 0.027443213 -0.018733805 -0.0029716312 0.011994753
0.003244374 0.00084098795 0.018502133 0.029213434 -5.0862778e-05 -0.00019665742 0.0073648095 -0.003835267
-0.018047309 0.011840204 0.007720061 -0.0030375463 0.012613195 0.001986943 0.0017015096 0.0016290632
-0.005603626 0.0039015508 0.0009442404 -0.0038514214 0.006212833 -0.015259474 -0.023653071 -0.006954674
-0.00306327 -0.00515473 0.010589146 0.0025309774 0.0016107972 0.009105679 -0.016486108 -0.0017025485
0.020417491 0.008408426 0.012731324 -0.0020889777 0.0021815063 0.0027838047 -0.0029963972 0.018341208
0.0021294055 -0.018858679 0.0059323735 0.00039334156 -0.0023977486 -0.014464248 -0.018260647 -0.006910326
0.004797685 0.0032355406 0.0024272257 0.030497428 0.0018165049 0.012589162 0.0066350605 0.007846468
-0.0020779613 -0.006972929 0.01743385 0.012843351 0.009642661 0.011784329 0.0012448641 0.003147221
0.012357753 -0.006712368 0.006059462 0.01351458 -0.001559878 0.0008711383 -0.0033295508 0.016552439
-0.011989571 -0.003908848 0.011119297 0.00938652 0.018555466 -0.0017658534 0.0077608973 0.0010409537
-0.0015419548 0.005512863 -0.0007172914 -0.01086774 0.0046403366 0.01614822 -0.007906614 -0.0011494483
-0.0006217437 -0.0049606436 0.004051334 -0.0462176 0.0026389302 -0.007130541 -0.00027053218 -0.0072033643
-0.013964573 -0.017329147 -0.009497139 -0.0031226545 0.0010839001 0.002458398 0.009068631 0.01984455
-3.698143e-05 -0.0044446117 -0.013587974 0.01002082 -0.0011063379 0.0014202408 0.0075239628 0.009974383
-0.010387118 -0.0025746613 0.025349135 0.008586403 0.007371292 0.0010689563 0.0024918355 -0.0019030496
0.01940897 0.0023118516 -0.022139175 -0.026368676 -0.029618064 0.006182035 -0.01410487 -0.021880893
-0.0021508408 0.0054876455 0.002536292 -0.02145597 0.014143399 -0.005046913 0.005346187 -0.0031518184
0.008636926 0.005359712 0.010081331 0.007540084 0.00905554 -0.004898536 0.031650454 -0.010813256

action_model._discrete_distribution.branches.1.bias f4 [2]
00000000: 9b22 8abd 9c22 8a3d
-0.06744882 0.067448825

action_model._discrete_distribution.branches.2.weight f4 [3, 128]
00000000: fede 563c 6d1c 82bc 2a2f 9f3b f079 bfba
00000010: 5654 a9bc e01b 723c 75b4 b2bb 58da 4f3c
00000020: 361c 183c b252 da3b bba9 043c c3f2 983b
00000030: c3c2 59bb d94e 193b 9abf 02bb 263f 11bc
00000040: c797 d4bb dffb 883c dcf1 47bc 1457 4a3c
00000050: cb6f 1ebc d94d 59bc ab3d b4ba 1592 223c
00000060: 74bd 66bb 6a00 0abb 78f5 143b 4618 a0bb
00000070: 2222 c53b eaf8 28bc db97 2abc 7eee 393c
00000080: 0550 78bb c4f9 243c 6219 fbbb 90f5 babc
00000090: aedc 8bb9 fa76 69ba 022c b3b8 c1e0 433c
000000a0: e2e0 393c 0604 c83b 0cfc a3bc a094 1c3c
000000b0: 0441 c0bb 3108 30bb a0f4 4ebb 9189 543c
000000c0: eabc e33c 0250 943c 302f 9dbc 48d0 873b
000000d0: fecb 2c3c e005 383c b780 58bc 82de 043b
000000e0: 12d8 8ab9 ca69 4abc 3691 1cbc b84e ec3c
000000f0: b0ee 9b3b dc21 21bc 16a3 be3b bb35 3a3a
00000100: c806 913c 96dc 803c 91a0 f5bb 532d 493c
00000110: 11bf 013c decb bb3b 3f92 9a3a 708c 163c
00000120: 5f80 f43b b0f8 633b adaf 2f3b 40d3 efbc
00000130: 665f 46bc 1fa9 9bba 696d 4bbc ef4d bbba
00000140: 258f 83bc 69b0 08bc c8cf c73b b2dd d53b
00000150: 6583 e5b9 e52b a5bb 05de bcb9 9cc6 d9b9
00000160: 5665 0fbc 46e9 8ebc 3298 32bc c9c5 78bb
00000170: 94cc 5b3c 0cc9 a9bb d60e 903a 4901 8e38
00000180: fdd1 0ebc 8b16 59bc 37ff 1a3c b3ea 74bc
00000190: 8028 5cbc ef41 983b 0bc9 9d3b f9a5 e139
000001a0: a451 743c 2535 65bb 9a35 a23b f251 843b
000001b0: 88ac 353b 3137 15bc bf8d e2ba a67b 883c
000001c0: 871c 133c 8ffc 823b e954 b2bb 74f4 eb3a
000001d0: 8e07 423c 1396 863c 0b0e 0bbc 1836 d23b
000001e0: b5ea c03c 2b8d aa39 b56f 5ebc a6fa 54bc
000001f0: e871 b0ba 003a b63c 0c03 5b3c 25e3 a33a
00000200: 702e a2bc 31ca bab9 e6bf 303c ba07 1f3d
00000210: c970 f5bc 2d95 13bc 31ea 08bc a474 ad39
00000220: b303 70ba 29e2 ff3b 350c b3bc aeb9 993c
00000230: d492 5cbb e64a 31bc 1c09 60bc 028a a13b
00000240: 0d26 723b 5552 0fbd a599 1437 b865 ebba
00000250: 739d ae3a 504a 083b f062 ba3c 216a 803c
00000260: 7d8f 8dbc 795e c8ba e46d 733a ff20 78bb
00000270: 4890 9c3c c549 d93c 7cbf 8dba 5106 c73c
00000280: 50a8 1bb9 3e1e 5e3c 5732 ce3a da34 a9bb
00000290: 6317 e2bb 3ed8 db3a bcb1 f139 999c 353c
000002a0: 6c03 513b d174 85b9 fceb 8b39 c245 39bc
000002b0: e985 783c 0643 c0bb 0243 f23a 3573 023c
000002c0: fdcf 6e3b 3530 f13a e47f 373c 1c74 433c
000002d0: 59ab 06bc efb4 b53c 33cb 963c 8192 f0b9
000002e0: e50c 98bb 221b d83a 7a02 fb3b ae66 34bc
000002f0: ce1d bd3b aa6c cc3b 397c 4b3b ea39 cebb
00000300: 7a7b 01bc 5f2b ddbb 067b 2fbc 54d3 42ba
00000310: 1d39 ebbb 28c6 3ebc f400 583b 94cc 373c
00000320: 33a1 b3ba 56a2 da3b b9e5 03bb 2433 073d
00000330: 2020 aabb 8f05 8e3a a66f b13c 1edc 0ebd
00000340: f3f4 e8bb 0217 e9bb 6f51 bf3b 848a 003c
00000350: 6353 0f3b e47e b1ba be48 84bc 3b9b d3bc
00000360: 90c4 773c beea 1bbb 8bb4 3f3b 14fb 7b3c
00000370: fa78 a7bb 629e b93a bddf cabb 278b 32bc
00000380: ac58 08bc 310b 19bc f641 0bbc 7954 023b
00000390: 6360 4e3c d2a7 76bc b409 a63b 8385 023d
000003a0: 3d2b d5bc 1344 0b3b 5d86 7f3c 5f95 97ba
000003b0: bbd3 073b 5afa e33b 67ca 9639 95be 3a3c
000003c0: 8fe8 febb b37f da3b a63e 07bc bb3c 17bc
000003d0: 1d39 49bc b1b1 283c 3397 f43b 20d8 4e3c
000003e0: fbd5 e23c 0c81 fbbb f1d3 c83b 42ad 69ba
000003f0: 809d 173b 3ce3 003d 94cf b9bc 2d34 f03a
0.013114689 -0.015882695 0.0048579173 -0.0014608484 -0.020670097 0.014777154 -0.005453641 0.012686335
0.00928407 0.00666269 0.0080971075 0.0046676113 -0.003322766 0.0023392944 -0.001995063 -0.008865153
-0.00648782 0.016721664 -0.01220366 0.012349863 -0.009670208 -0.013263189 -0.0013751289 0.009922524
-0.0035208138 -0.0021057376 0.0022729319 -0.004885706 0.006016032 -0.010313252 -0.010412182 0.011348365
-0.0037889492 0.010069314 -0.007662938 -0.022822171 -0.00026676565 -0.00089059735 -8.543582e-05 0.011955441
0.01134512 0.0061039953 -0.020017646 0.009556919 -0.0058671255 -0.0026860351 -0.0031578913 0.0129722515
0.027800042 0.018104557 -0.01918754 0.004144702 0.010546682 0.011231869 -0.013214282 0.0020274227
-0.00026482396 -0.012354324 -0.009556105 0.02884613 0.0047586784 -0.009834733 0.005817781 0.00071033434
0.017703429 0.015730184 -0.0074959476 0.012278873 0.007919089 0.00573109 0.0011792852 0.009188756
0.007461592 0.003478568 0.0026807592 -0.029275537 -0.012107706 -0.0011875964 -0.012416222 -0.0014290194
-0.016059468 -0.008342841 0.0060977675 0.0065266723 -0.0004377618 -0.005040633 -0.00036023572 -0.0004153744
-0.008752188 -0.017445218 -0.010900544 -0.0037959686 0.013415474 -0.0051814374 0.001099075 6.771327e-05
-0.008717057 -0.013250004 0.009460262 -0.014948535 -0.01343739 0.004646532 0.004815226 0.00043039004
0.014912043 -0.0034974304 0.0049502375 0.004038089 0.0027721245 -0.009107397 -0.0017284675 0.016660523
0.008978969 0.0039973925 -0.005442251 0.001800193 0.0118426215 0.016428983 -0.008487235 0.00641514
0.023549417 0.00032530105 -0.013576438 -0.012999212 -0.0013461681 0.022244453 0.013367426 0.0012503607
-0.019797534 -0.0003562733 0.01078794 0.038825728 -0.029961007 -0.009007734 -0.008356617 0.00033084035
-0.00091558247 0.007808943 -0.021856407 0.018765297 -0.0033656852 -0.01082108 -0.013674047 0.004929782
0.003694895 -0.034990627 8.857261e-06 -0.0017959392 0.001332207 0.0020796247 0.022752255 0.015675606
-0.017280335 -0.0015286944 0.00092860893 -0.0037861464 0.019111767 0.026524434 -0.0010814513 0.024295004
-0.00014844653 0.013557015 0.0015731555 -0.005163771 -0.0068997606 0.0016772819 0.00046099524 0.011084699
0.0031892909 -0.00025454772 0.00026687968 -0.011308135 0.015168645 -0.005867365 0.0018483105 0.007962038
0.0036439889 0.0018401208 0.011199925 0.011929538 -0.008219563 0.022181002 0.01840744 -0.0004588552
-0.004640209 0.0016487578 0.0076602073 -0.011010809 0.0057713753 0.0062385397 0.0031049384 -0.006293525
-0.007902974 -0.006749555 -0.010710483 -0.0007432003 -0.0071784393 -0.011643924 0.0032959552 0.011218209
-0.0013704657 0.006672184 -0.002012594 0.033007756 -0.005191818 0.0010835397 0.021659683 -0.03487789
-0.0071092783 -0.0071133384 0.005838565 0.007845525 0.002186977 -0.0013541845 -0.016147967 -0.025830856
0.015122548 -0.002379104 0.00292519 0.015379686 -0.005110857 0.0014161582 -0.0061912225 -0.010897434
-0.008321922 -0.009341047 -0.008499613 0.0019886775 0.012596223 -0.01505466 0.0050670747 0.031865608
-0.026021594 0.0021250292 0.015596 -0.0011564902 0.0020725566 0.0069573345 0.0002876103 0.011397977
-0.007779188 0.006668055 -0.008254683 -0.009230788 -0.012281683 0.010296271 0.0074643134 0.01262477
0.027689924 -0.0076752957 0.006128781 -0.0008914062 0.0023134649 0.031466708 -0.022681989 0.0018326096

action_model._discrete_distribution.branches.2.bias f4 [3]
00000000: 8011 80bc 328d 8ebe 7bac 8f3e
-0.015633345 -0.27842098 0.2806128

action_model._discrete_distribution.branches.3.weight f4 [2, 128]
00000000: 0bc2 293c 5c0e b2ba 8e93 02bc 175d 8bbc
00000010: 00c8 4c3b 5caa c53b 5721 47bc e33d a3ba
00000020: 1325 823c 9dc1 03bc d818 423d 03af 00bc
00000030: 3cc7 03ba a18f 0bbc 5f29 47bc 2996 183c
00000040: ca4c beba 728b 46bc 8f23 60bc 5785 393c
00000050: 6825 b03b f676 08bc 56ff ddbb 6b0b 17bc
00000060: e700 d63b cd9f d8ba 4662 db39 b31a 503c
00000070: 0f01 203b f429 7c3c 8cde 9d3b 7137 0a3c
00000080: 08a2 9cbc 6aa2 5eba 8b11 0439 d0c1 1bbc
00000090: a754 973c 37fe 9e3b 348d e1ba 43f4 f1bb
000000a0: 6c83 873b d677 c83b bfc0 30bc 2148 7a3c
000000b0: 639a 603b 01e4 f8bb b4b4 033c 6505 8db9
000000c0: 0c8f 863b a04d 2b3c eb44 b3bb ca80 d13b
000000d0: 6753 f8ba 67af 3c3c 18e3 21ba 7e2e 213c
000000e0: 6d67 a8bc 03aa acbb 61f2 1cbc 5381 0dbc
000000f0: 85d4 9f3c f00d e23a ae48 c5ba ea44 e33b
00000100: f9c4 2f3c 74ea a83b 4244 143b 0edf 33bc
00000110: e63b 403c 2294 01bc 27fc 6d3c f367 293c
00000120: 1a0c 663b b01c 99bc c2e8 63bc 65b8 223c
00000130: 7836 74bb d0c9 403c d09a 3ebc 9ec4 143c
00000140: af1c b93b 0b09 d5bb d055 15bc 7a0e 773c
00000150: f076 763a 417a 29bc c221 d3bb a895 85bb
00000160: af9d b23c 9a9f 253c ea16 173b 0b90 5c3a
00000170: 14fa 573c bc7d f5ba 0b7c dbbb 45ca f2ba
00000180: b7ed afba 9bba 8b3b fd48 aebb 5e70 053c
00000190: 3cec e4bb 93d9 423b c00f 403c 0ade 9db9
000001a0: b097 dc3a efa7 a4b9 d579 17bb f70c 24bc
000001b0: e694 44bc 17d5 85bb 2b50 2bbc 0d26 a33c
000001c0: 6285 26bc 62ca 773b 4ddb d73a dbb2 73bb
000001d0: 7b4d f6bb 8c70 413c 7d4c 4dbb 5a54 61bc
000001e0: f43d 40bc 3b1e bf3a b9f4 96bb 6b7a 8c3a
000001f0: b3f0 2b3c 611c 6abb 9d62 573c b185 233b
00000200: 6074 9bbb 9bdc 05bc 7ad5 d73c e88f 0bbc
00000210: ba0c b63a b464 45bc 51a2 0e3b a9a2 d6ba
00000220: 36f3 16bc c1ce 3f3b 2247 abbc 3ab7 183b
00000230: a7ad c63a 3427 6dbc 3ed1 2c3c f96a 9b3b
00000240: 4689 fb3b c469 783c 1275 5bbc dd0d acba
00000250: 66bc 00bc c59a 06bb f024 883c 1a5b 143c
00000260: 1530 353c dc62 41bc 93e8 5139 e8ad a3ba
00000270: cfd8 91bb 30fc 58bc 9617 85bb 4966 93bc
00000280: 4051 bfbc a2b1 7cbb a718 083c 8276 053c
00000290: 780b 72bc 39c8 38bc de78 823a 0c3f 063c
000002a0: 35af 4d3a 0e17 03bc 4dc2 563c d4de 4f3a
000002b0: acae 9939 8037 5d3c f1c4 873b 45ca 933b
000002c0: b4e6 5ebc bef6 3a39 1a48 0d3b 9a10 a4bc
000002d0: bc41 3b3c 72d7 91bb ed17 77bb 6550 eabb
000002e0: 9ce5 ed3b 6fd3 55bc dc08 56bc 657d 233c
000002f0: 2642 da39 e103 bc3a 9ae2 1abb fa45 73bb
00000300: 866f 663c 9bd6 93bc 810e 013c ce30 fabb
00000310: 50b6 3dbc 1ec8 f73b bc20 81bb 1351 553b
00000320: 6815 a03c f54e 063d 7856 41ba 7f53 a33b
00000330: 4ab9 00bb 7eca c8bb daf9 9abb 53cb e2bb
00000340: 9df5 cc3b 1fd3 cdbb 0632 08bc cb45 a9bc
00000350: bae2 c43b 862e ad3a 6704 f8bb a5ca 9a3c
00000360: dd2a 6a3b ebd2 d0bb 10af 41bb f3ff cb39
00000370: 88ca d9bb b8bd 0aba b44e 89ba 7cbd e33c
00000380: c404 09bc aa8e d03b a664 9dbb 791a 2dba
00000390: 26c5 133c 3254 39b8 6877 13bc 42ff 1a3c
000003a0: 33c3 42bb 0d0c 1db9 8d93 eb3b fcf8 c13b
000003b0: f99f d83b c902 4b3c 569c 163b 6eee 7ebc
000003c0: 18af 253b bb34 95bc 2a26 703c e4ff cebb
000003d0: 079b 0c3c 5676 55bb 1f9e 303b 5623 bf3a
000003e0: 149e abb9 5efa 36bc 7d65 e7ba eb46 b73b
000003f0: 9e65 733b d5fe c7bb d9c4 3d3c ba44 f23b
0.010361205 -0.0013584602 -0.00796975 -0.017012162 0.003124714 0.0060322713 -0.012153945 -0.0012454357
0.015886819 -0.0080417665 0.047386974 -0.007854226 -0.00050269417 -0.0085181305 -0.01215586 0.009313145
-0.0014518735 -0.012118207 -0.013680353 0.011323295 0.005375553 -0.008329144 -0.006774823 -0.009219031
0.0065308693 -0.0016527117 0.00041844154 0.012701678 0.0024414693 0.015390862 0.0048177894 0.00843607
-0.019120231 -0.00084928295 0.00012595036 -0.009506658 0.018472983 0.004852082 -0.001720822 -0.0073838546
0.0041355398 0.006117801 -0.010788142 0.015275986 0.003427171 -0.0075955396 0.008038688 -0.00026897635
0.004106408 0.010455519 -0.005470862 0.0063935267 -0.0018945754 0.011516429 -0.0006175502 0.009837745
-0.02055713 -0.0052692904 -0.009579272 -0.00863679 0.019510517 0.0017246585 -0.0015051567 0.0069357054
0.010728114 0.005154902 0.0022623693 -0.010978473 0.011733031 -0.007908853 0.01452545 0.010339725
0.0035102428 -0.018690437 -0.013910474 0.009931658 -0.0037263911 0.011766866 -0.01163359 0.00908008
0.0056491713 -0.006501322 -0.009114698 0.015079135 0.00094018783 -0.010344089 -0.006443233 -0.0040766783
0.021803705 0.010108853 0.002305443 0.0008413798 0.013182182 -0.0018729488 -0.0066981367 -0.0018523416
-0.0013422285 0.0042641885 -0.0053187595 0.008144466 -0.006986169 0.0029731735 0.011722505 -0.00030110806
0.0016829874 -0.00031405638 -0.002311339 -0.010012857 -0.011998391 -0.00408424 -0.010456125 0.019915605
-0.010163637 0.0037809839 0.0016468555 -0.0037185464 -0.0075165606 0.011806618 -0.0031326108 -0.013753021
-0.011733521 0.0014581153 -0.00460681 0.0010717636 0.010494399 -0.0035722482 0.01314607 0.0024951512
-0.0047440976 -0.008170272 0.02634691 -0.008518197 0.0013889291 -0.012047935 0.0021764229 -0.0016375381
-0.009213259 0.0029267522 -0.020907942 0.002330257 0.0015157954 -0.014474679 0.010547934 0.0047429767
0.0076762764 0.015161935 -0.013394611 -0.001312669 -0.007857418 -0.0020539027 0.016619176 0.009054923
0.011058827 -0.011803355 0.00020018434 -0.0012487741 -0.0044508944 -0.01324372 -0.0040616496 -0.01799311
-0.023354173 -0.0038558026 0.008306659 0.00814593 -0.014773242 -0.011278206 0.0009954234 0.0081937425
0.0007846237 -0.008001102 0.013107848 0.00079296273 0.00029312575 0.013502002 0.0041433503 0.0045101964
-0.013604809 0.00017830261 0.0021557868 -0.020027447 0.0114292465 -0.004450732 -0.003770347 -0.007150697
0.0072600376 -0.013050898 -0.013063636 0.009978627 0.00041629485 0.0014344418 -0.00236336 -0.0037120567
0.014064675 -0.018046668 0.007876993 -0.0076352125 -0.011579111 0.0075616976 -0.00394067 0.0032549545
0.019541457 0.032790143 -0.00073752506 0.0049843187 -0.001964169 -0.0061276546 -0.0047294917 -0.006921211
0.0062548653 -0.006281271 -0.008312708 -0.020663163 0.006008473 0.0013212718 -0.007568884 0.018895457
0.0035731115 -0.0063727996 -0.0029553808 0.00038909874 -0.006646458 -0.00052925525 -0.0010475726 0.027800314
-0.008362953 0.006364663 -0.004803258 -0.0006603371 0.009019172 -4.418585e-05 -0.009000637 0.009460272
-0.0029718399 -0.00014977176 0.0071892203 0.005919574 0.006610867 0.012390801 0.0022981367 -0.015559776
0.0025281366 -0.01821362 0.0146575365 -0.0063171256 0.008581883 -0.0032571754 0.0026949716 0.0014582674
-0.0003273344 -0.011168091 -0.0017654147 0.005593171 0.0037139426 -0.0061033764 0.011582577 0.0073934468

action_model._discrete_distribution.branches.3.bias f4 [2]
00000000: 7bf8 b63d 7cf8 b6bd
0.08934113 -0.089341134
