Assets/results/OuiTank/TankLearningAI/TankLearningAI-6267443.onnx (onnx, 128747 bytes, 15 tensors)

discrete_act_size_vector f4 [1, 5]
0	0x40400000	3.0
1	0x40000000	2.0
2	0x40400000	3.0
3	0x40000000	2.0
4	0x40000000	2.0

network_body._body_endoder.seq_layers.0.weight f4 [128, 82]
0	0x3e0686d6	0.13137373
1	0xbdeb0549	-0.114756174
2	0x3dbb6ca3	0.0915158
3	0x3db4c478	0.08826536
4	0x3d2d9f85	0.042388458
5	0x3e230152	0.15918472
6	0x3d9cd803	0.076583885
7	0xbddd832f	-0.10816037
8	0x3e07aac5	0.13248737
9	0x3ca28592	0.019839082
10	0x3e708b49	0.23490633
11	0xbd53198f	-0.051538046
12	0x3c12d568	0.008962013
13	0xbe6c8fc8	-0.23101723
14	0xbb915864	-0.004435586
15	0xbe215cfd	-0.15758128
16	0x3e196fcd	0.14984055
17	0x3ca22022	0.019790713
18	0x3e35d13e	0.17755601
19	0x3e00704b	0.12542836
20	0x3cc5d0d7	0.024147434
21	0x3ddb0b25	0.10695485
22	0xbd3a557e	-0.045491688
23	0xbd9c9253	-0.07645097
24	0x3d125fab	0.035735767
25	0xbe3c019d	-0.1835999
26	0xbdb40f52	-0.087919846
27	0xbdf61d76	-0.12017338
28	0xbdb2f07b	-0.08737274
29	0xbdf4265e	-0.119213805
30	0x3d34dc91	0.04415566
31	0x3d38fdf2	0.045164056
32	0x3d9ee1c9	0.07757909
33	0xbbb78ad0	-0.0056012645
34	0x3de28dde	0.11062215
35	0x3e193ad2	0.14963844
36	0xbde57153	-0.112032555
37	0x3cd2c6ba	0.025729526
38	0x3d5f5e67	0.05453339
39	0x3e713678	0.23555934
40	0x3d207f06	0.03918364
41	0xbd52e8db	-0.0514916
42	0xbd71a432	-0.05899448
43	0x3db424d7	0.08796089
44	0xbe004f4e	-0.12530252
45	0xbd1fe0bf	-0.039032694
46	0x3e31e557	0.17372642
47	0xbd338479	-0.043827508
48	0xbd9baebe	-0.07601689
49	0x3d7c20de	0.061554782
50	0xbd731062	-0.059341796
51	0xbe1d4f09	-0.15362181
52	0x3c904bc8	0.01761426
53	0xbc700606	-0.014649874
54	0x3e3ad2fd	0.18244548
55	0xbd8b593f	-0.06804132
56	0xbd90b2eb	-0.07065376
57	0xb93fc16a	-0.00018287232
58	0x3d35897e	0.044320576
59	0x3cff5176	0.031166773
60	0xbe14f63f	-0.1454706
61	0x3e03430a	0.12818542
62	0xbd02cb1a	-0.031931974
63	0x3beeed5c	0.007291479
64	0xbc3e2367	-0.01160512
65	0x3da69a54	0.081349045
66	0xbe01727b	-0.12641327
67	0xbd5013f7	-0.05080029
68	0x3dbbc0d1	0.09167636
69	0x3e3cc37c	0.18433946
70	0xbdbd6006	-0.09246831
71	0x3ba0f285	0.004911723
72	0xbd9f1da4	-0.077693254
73	0x3e0f115e	0.13971469
74	0x3d406aea	0.04697696
75	0xbd382755	-0.044959385
76	0x39235198	0.00015575287
77	0x3c7b7a40	0.015348971
78	0xbd1d90f1	-0.038468305
79	0xbdd1ffdc	-0.102538794
80	0xbdffc2d2	-0.12488331
81	0xbd9a19cf	-0.07524454
82	0xbd0a1c8e	-0.033718638
83	0xbe34766a	-0.17623296
84	0x3e87f80f	0.2655644
85	0x3ba7d9a8	0.005122382
86	0xbd4a7ed8	-0.049437374
87	0x3bcb7bdf	0.006209835
88	0xbdaa3d5a	-0.08312483
89	0x3dafea64	0.08589628
90	0x3d6b27bf	0.05741095
91	0xbdf268f7	-0.11836427
92	0x3c084fcd	0.008319807
93	0x3cbe9ef2	0.02326915
94	0x3c970145	0.018433223
95	0xbd94146c	-0.07230458
96	0xbc9d99af	-0.019238321
97	0xbe3d26b8	-0.18471801
98	0x39443c16	0.000187144
99	0xbdf09e11	-0.11748899
100	0xbd749e00	-0.059720993
101	0xbe410563	-0.18849711
102	0xbd799e5a	-0.06094203
103	0x3d890e7a	0.06692214
104	0xbba60da0	-0.005067542
105	0xbd6b6b2a	-0.057475246
106	0x3e3a80b6	0.18213162
107	0xbda956b4	-0.082684904
108	0xbd1e4fc5	-0.038650293
109	0xbe22de94	-0.1590522
110	0xbd7b3405	-0.061328907
111	0xbdb65c8f	-0.08904373
112	0x3e7a28a3	0.24429564
113	0x3d8cc220	0.06872964
114	0x3e4b535d	0.1985602
115	0x3d2a9b79	0.041652177
116	0xbcac771a	-0.021052886
117	0x3b1b563c	0.0023702523
118	0xbdb2fb3e	-0.08739327
119	0xbdd5bb5a	-0.10436125
120	0xbd19a244	-0.037508264
121	0xbd6b0d95	-0.057386
122	0xbc1ee653	-0.009698468
123	0x3c8c3657	0.017115755
124	0x3d0240f1	0.031800214
125	0x3e1814bd	0.14851661
126	0x3d0c2b6c	0.034221098
127	0x3db723d5	0.08942381
128	0x3dc0b8a8	0.094102204
129	0xbd1508df	-0.036385413
130	0x3d380b71	0.044932786
131	0x3d8091c2	0.06277801
132	0x3d605649	0.054769788
133	0xbcc3d7f4	-0.023906685
134	0x3de4da60	0.11174464
135	0xbd7cefda	-0.061752178
136	0xbdd785cc	-0.105235666
137	0x3e2c0c3c	0.16801542
138	0x3e213754	0.15743762
139	0xbdf74ac4	-0.12074807
140	0xbd067ab1	-0.03283185
141	0x3ced8a35	0.028996566
142	0x3e727f4e	0.23681375
143	0xbe6c9431	-0.23103406
144	0x3e240372	0.1601694
145	0x3b2afa2f	0.0026089062
146	0xbdce68fd	-0.10078619
147	0xbe190203	-0.14942174
148	0xbc0e1900	-0.008672953
149	0x3e3f3c2a	0.18675295
150	0x3aed00f0	0.0018081944
151	0x3d5940e3	0.053040396
152	0xbe234b3a	-0.15946665
153	0x3c92f4c7	0.017938985
154	0x3d74e2b6	0.05978652
155	0x3cb85bcc	0.02250471
156	0x3d2fa7ca	0.042884625
157	0x3dab5565	0.08365897
158	0xbe459f10	-0.19298959
159	0xbe007aeb	-0.1254689
160	0x3cedd876	0.02903388
161	0x3c80e145	0.015732417
162	0x3dbc6e20	0.09200692
163	0xbddf3145	-0.10898069
164	0xbe031a70	-0.12803054
165	0x3d4f20d1	0.050568406
166	0x3e1399b7	0.14414106
167	0x3cc65ed2	0.024215136
168	0xbda93dbc	-0.08263728
169	0x3cc4c705	0.024020681
170	0x3e674e89	0.22588553
171	0xbcc0b2d4	-0.023522772
172	0xbd2e1fd8	-0.042510837
173	0xbd85ec01	-0.06539155
174	0xbe04807f	-0.12939642
175	0x3dcf32b5	0.101170935
176	0x3cfddece	0.03099003
177	0xbe17dfbb	-0.1483144
178	0x3e43958e	0.1910002
179	0x3d6a9542	0.05727125
180	0x3c9ababb	0.018887868
181	0xbe0ec1ea	-0.1394116
182	0xbd955e0c	-0.07293329
183	0x3c448ffa	0.011997217
184	0x3dffba3f	0.124866955
185	0xbcae5927	-0.021282746
186	0x3d887805	0.06663517
187	0x3db6d277	0.08926862
188	0x3c865e51	0.016402395
189	0x3d60ff0f	0.054930743
190	0xbdebd7a4	-0.115157396
191	0x3d504c97	0.05085429
192	0xbc0b8812	-0.008516328
193	0xbc5a17e3	-0.013311359
194	0x3dd3ee96	0.10348241
195	0xbc149200	-0.009068012
196	0xbd326171	-0.04354996
197	0xbe551e5f	-0.20812367
198	0xbd9a9ff0	-0.07550037
199	0x3d6640ff	0.05621433
200	0xbc17c90f	-0.009264245
201	0xbdf02943	-0.1172662
202	0xbe21900b	-0.15777604
203	0xbdc2b895	-0.095078625
204	0x3e12f341	0.14350607
205	0xbe38f7e0	-0.18063307
206	0xbd5c6f97	-0.053817358
207	0xbcbadf87	-0.022811664
208	0x3d7643c9	0.06012324
209	0x3cf22adc	0.029561453
210	0x3c5240ed	0.012832862
211	0x3ced4b1a	0.028966475
212	0x3cefc9a6	0.029270958
213	0xbe9cc708	-0.306206
214	0x3d37a98c	0.044839427
215	0x3e1c383a	0.15255824
216	0x3c551cf4	0.013007391
217	0xbe8a8ad1	-0.27059034
218	0x3d2eaca7	0.042645123
219	0x3d560f4a	0.052260675
220	0xbcb912ff	-0.022592066
221	0xbdb959fc	-0.09050366
222	0xbdae130a	-0.08499725
223	0x3d144883	0.036201965
224	0xbddb394f	-0.1070429
225	0x3d3fd21c	0.046831235
226	0x3b90abc9	0.0044150096
227	0xbe91bdb5	-0.28465047
228	0x3d0fd962	0.03511942
229	0x3db7ed71	0.08980835
230	0x3d696b73	0.056987237
231	0x3d8fa734	0.07014313
232	0x3d9a53e0	0.07535529
233	0x3d0df746	0.034659646
234	0x3d0db5c2	0.034597166
235	0xbe6339cc	-0.22190017
236	0x3c7b7d1d	0.015349654
237	0xbe548751	-0.20754744
238	0x3ddc9a0d	0.1077157
239	0x3e1c2ef8	0.15252292
240	0xbe45cc39	-0.19316186
241	0xbcb12282	-0.0216229
242	0x3e3172b0	0.17328906
243	0x3b020c4b	0.0019843753
244	0xbd3eeda6	-0.046613358
245	0xbda6de4b	-0.08147868
246	0xbd294e29	-0.041334305
247	0x3b4a4469	0.003086353
248	0xbe377c0f	-0.17918418
249	0x3d6e1c0c	0.058132216
250	0x3dfcd4c5	0.1234527
251	0xbe25a130	-0.1617477
252	0x3c588b3c	0.01321679
253	0x3da5e50b	0.08100327
254	0xbddafda1	-0.10692907
255	0x3e1ae7dc	0.1512751

network_body._body_endoder.seq_layers.0.bias f4 [128]
0	0x9d84747c	-3.506055e-21
1	0x00000000	0.0
2	0x3d102d70	0.035199583
3	0xbccf2b85	-0.025289306
4	0x31c36657	5.6868816e-09
5	0x30970161	1.0987088e-09
6	0x1a787577	5.1380085e-23
7	0xbafad2a6	-0.0019136264
8	0x3cd0eb21	0.025502743
9	0x3ba21ab8	0.004947033
10	0xbc413957	-0.011793456
11	0xbac50a29	-0.0015032935
12	0xbc41d24f	-0.011829927
13	0xbc748a73	-0.014925587
14	0xa9082d43	-3.0237325e-14
15	0xbb9e16ab	-0.0048244796
16	0xbd933a65	-0.07188872
17	0x3c13458a	0.008988747
18	0x360388b5	1.9600095e-06
19	0xbc162764	-0.009164665
20	0xbcad95c6	-0.021189582
21	0x35edea37	1.7726042e-06
22	0x9dee4587	-6.3069965e-21
23	0xbcb1a14a	-0.021683354
24	0x9600b21b	-1.0395958e-25
25	0x3d50e6eb	0.05100147
26	0xbc6d95e2	-0.014501067
27	0x3c69d40a	0.014271745
28	0xa223c568	-2.2195125e-18
29	0x3ca8df3a	0.020614255
30	0x2d0499b2	7.5374585e-12
31	0xbccb53f3	-0.024820304
32	0xbc9914fc	-0.018686764
33	0xbc2bc7ba	-0.01048463
34	0x3d1ec2b6	0.03875991
35	0xbc4c935a	-0.012486303
36	0x31d664b9	6.2396706e-09
37	0xbd08f277	-0.033434357
38	0x00000000	0.0
39	0xbce6c00a	-0.028167743
40	0x3cc8ef97	0.024528308
41	0xbc9c0ed7	-0.019050045
42	0xbc49cb01	-0.012316466
43	0x3ca751e2	0.020424787
44	0xbccd64a4	-0.025072403
45	0xbccb04c8	-0.024782553
46	0x3d81feea	0.06347449
47	0xbd39522f	-0.045244392
48	0x3529d9c3	6.327429e-07
49	0xbd2da24f	-0.042391118
50	0xbce8dbb5	-0.028425077
51	0xae991fe3	-6.963299e-11
52	0xbc073f62	-0.008254858
53	0x3b19c037	0.0023460516
54	0x3c56c3f3	0.013108241
55	0xbca2c2f6	-0.019868355
56	0x1f8591d4	5.6568943e-20
57	0xbd8bd7b7	-0.06828254
58	0xb58c7ba7	-1.04668e-06
59	0xbcce2638	-0.025164708
60	0x2ca6115c	4.719931e-12
61	0x3c36e416	0.011162778
62	0x3a8bb5d3	0.0010659046
63	0xbd289bdc	-0.041164264
64	0x35b0f28c	1.3183612e-06
65	0x3d4484ed	0.04797833
66	0x00000000	0.0
67	0x3c8116c4	0.015757926
68	0xbced3946	-0.028957974
69	0x3b39ba5b	0.0028339836
70	0x3c06a9b3	0.00821917
71	0xa47533b6	-5.3169707e-17
72	0x3c877cbc	0.01653897
73	0xbcd5866b	-0.026065072
74	0xbcc1a438	-0.023637876
75	0xbb884c90	-0.0041595176
76	0xbcf64e31	-0.030066581
77	0xbc5041ce	-0.012711002
78	0xbd85e15f	-0.06537127
79	0x3c119bcc	0.0088872425
80	0xbcc4978f	-0.02399805
81	0xbc07c489	-0.008286604
82	0x3ca43775	0.020045975
83	0xbc792520	-0.015206605
84	0x05471de5	9.362426e-36
85	0xbcb4ef93	-0.022086894
86	0xbb47dcd3	-0.0030496612
87	0x3d25eabb	0.04050706
88	0x3bff9fb0	0.0078010187
89	0xb075f500	-8.9478647e-10
90	0xb74c1aa8	-1.2165554e-05
91	0x2f8a191f	2.5119903e-10
92	0xbd12e328	-0.035861164
93	0xb11443ef	-2.157545e-09
94	0xb81eb2a4	-3.7836508e-05
95	0xbc914b41	-0.01773608
96	0x3c16359f	0.009168058
97	0xbc5cef73	-0.0134848235
98	0xbc47911c	-0.012180593
99	0xbcd8397d	-0.0263946
100	0x3c15c0b5	0.009140183
101	0xbd011951	-0.031518284
102	0x39bab8e1	0.0003561443
103	0xbcc2c093	-0.023773467
104	0x3b5f425a	0.0034066648
105	0x3b0d77ab	0.002158622
106	0xbc5f61d5	-0.013634165
107	0x3b44d561	0.003003441
108	0x3d33319e	0.04374849
109	0xbc99db9c	-0.018781476
110	0x00000000	0.0
111	0xbce8e4f3	-0.028429484
112	0xbd0993cc	-0.033588216
113	0xbbf2b4e5	-0.007406818
114	0xbd42a113	-0.047516894
115	0xbd202b2a	-0.039103664
116	0x90c3158f	-7.6947155e-29
117	0xaf6f9e50	-2.1793167e-10
118	0xbdbb1325	-0.09134511
119	0x3597eb62	1.1318882e-06
120	0xba96efa4	-0.001151551
121	0x278faaf9	3.987584e-15
122	0xbc9e4a0a	-0.019322414
123	0xbc43c176	-0.01194798
124	0xbc13b9c7	-0.009016461
125	0xbcdc8fe6	-0.026924085
126	0xbd2e24e0	-0.042515635
127	0xbc898279	-0.016785847

network_body._body_endoder.seq_layers.2.weight f4 [128, 128]
0	0x3d5b0901	0.053475384
1	0xbc6838ff	-0.014173745
2	0xbd27648c	-0.040867373
3	0x3c5c3f43	0.013442817
4	0xbcf89afc	-0.03034734
5	0xbd6303d6	-0.05542358
6	0x3e05e210	0.13074517
7	0x3e32fef4	0.1748007
8	0xbe137843	-0.14401345
9	0x3d8d4e0b	0.06899651
10	0x3e1111bf	0.14166926
11	0xbcb02866	-0.021503638
12	0xbe1d09b6	-0.15335736
13	0xbdb96520	-0.09052491
14	0x3d042403	0.032260906
15	0x3e0359fc	0.12827295
16	0x3d4abd0c	0.049496695
17	0xbe329b2a	-0.17442003
18	0xbdd48003	-0.10375979
19	0x3b6e63ae	0.0036375332
20	0x3c6a8185	0.014313106
21	0xbd852861	-0.06501842
22	0xbcbdde2d	-0.02317723
23	0x3c04d739	0.008107954
24	0xbcf9b17e	-0.030480143
25	0x3e0f4ab0	0.13993335
26	0xbd8dc6d7	-0.06922691
27	0xbcce096b	-0.025150975
28	0x3d94b28c	0.072606176
29	0xbdbc084d	-0.09181271
30	0xbe177a49	-0.14792742
31	0xbd62df08	-0.05538848
32	0xbd2362d1	-0.03988916
33	0xbd87a127	-0.06622534
34	0xbdc549d3	-0.096332215
35	0xbddc1ed8	-0.107480705
36	0x3bedcdc1	0.007257194
37	0x3dabd2e6	0.08389835
38	0x3cb3899e	0.021916207
39	0xbca13735	-0.019679645
40	0xbe07c9dd	-0.13260598
41	0xbd2e68bb	-0.042580348
42	0xbd94258f	-0.07233726
43	0xbd5a50ea	-0.053299822
44	0xbe266361	-0.16248848
45	0xbc16b212	-0.009197729
46	0x3e45ea84	0.19327742
47	0x3d854836	0.06507914
48	0xbc77e2b7	-0.015129737
49	0xbe0bf033	-0.13665847
50	0x3e2d1212	0.16901425
51	0xbda19b18	-0.0789091
52	0x3cbd4355	0.023103395
53	0x3d682350	0.0566743
54	0xbb16691f	-0.002295084
55	0xbdda2f81	-0.10653592
56	0xbd95bfbc	-0.07311961
57	0x3e0edc48	0.13951218
58	0x3c82d28f	0.015969543
59	0xbdf0687a	-0.11738677
60	0xbe4456ec	-0.19173783
61	0x3d93f7e1	0.072250135
62	0x3b0ddaea	0.0021645376
63	0x3d9707a7	0.073745064
64	0xbdc6e406	-0.09711461
65	0xbd51458f	-0.051091727
66	0x3e213821	0.15744068
67	0xbd503889	-0.050835166
68	0x3a6891d4	0.0008871828
69	0xbd0a2bde	-0.03373324
70	0xbb0e1dfe	-0.0021685357
71	0xbdc2e7f1	-0.095168956
72	0x3c8f5e08	0.017500892
73	0x3ab1f273	0.0013576284
74	0x3da99e94	0.082821995
75	0xbe80a2ff	-0.25124356
76	0xbd91238d	-0.07086859
77	0xb8efa9bc	-0.000114280236
78	0x3daf1df5	0.08550636
79	0xbe1415e5	-0.14461477
80	0xbc828c1d	-0.015935952
81	0xbd56c9e5	-0.052438635
82	0x3d46299e	0.048379533
83	0xbd74c9e4	-0.05976285
84	0xbd9f0b37	-0.07765811
85	0xbbee5f4c	-0.007274544
86	0xbd51aa92	-0.05118806
87	0xbd32672c	-0.043555424
88	0x3bbd1363	0.0057701333
89	0xbdea2ca4	-0.11434296
90	0x3c8cf6b5	0.017207483
91	0xbdda90c0	-0.1067214
92	0x3db7c2d0	0.089727044
93	0xb991f2b1	-0.00027837374
94	0xbd7944d9	-0.060856674
95	0xbd529607	-0.05141261
96	0xbb246b63	-0.0025088422
97	0xbd97c4e1	-0.074105985
98	0x3d70a6a4	0.05875267
99	0x3c65743a	0.014004761
100	0xbd20ab1a	-0.039225675
101	0x3d202f96	0.03910788
102	0xbc20786a	-0.009794334
103	0x3d537767	0.051627543
104	0xbc135b81	-0.008993984
105	0x3e5b6ec4	0.21428972
106	0x3d650c53	0.055919956
107	0xbce6aa34	-0.028157331
108	0xbc827488	-0.015924707
109	0x3cfec937	0.031101806
110	0xbd8b08cb	-0.067887865
111	0xbe8ddb1c	-0.2770623
112	0x3d03d462	0.032184966
113	0xbcb91386	-0.022592317
114	0xbde1bf8d	-0.110228635
115	0xbb308ac2	-0.0026938175
116	0x3cea7ea1	0.028624834
117	0x3d113893	0.035454344
118	0xbc773e2e	-0.015090508
119	0x3c03f553	0.008054095
120	0xbbd6cfa1	-0.006555513
121	0xbc9ac9eb	-0.01889511
122	0x3d131833	0.03591175
123	0xbd88c6fd	-0.06678579
124	0x3e15d82f	0.14633249
125	0xbd0d272a	-0.034461178
126	0xbd71ca69	-0.059030924
127	0xbc305cdf	-0.01076433
128	0x3db0cb82	0.08632566
129	0x3d428d8c	0.04749827
130	0x3c96f473	0.01842711
131	0x3ce75ded	0.02824303
132	0xbdabe874	-0.08393946
133	0xbd88a727	-0.06672507
134	0x3e00c581	0.12575342
135	0x3d5871c1	0.05284286
136	0x3d96d449	0.07364709
137	0x3d721481	0.059101585
138	0x3d99a650	0.07502425
139	0xbd8dc116	-0.06921594
140	0x3bff8442	0.007797749
141	0xbc061db0	-0.008185789
142	0x3d0e01c7	0.034669664
143	0xbd5a8176	-0.05334612
144	0xbe23b4f9	-0.15987004
145	0x3c6e1349	0.014530965
146	0x3d5ee858	0.0544208
147	0xbda51f88	-0.08062655
148	0x3d26044c	0.04053144
149	0x3d8ba21f	0.068180315
150	0xbda1c5c9	-0.07899053
151	0xbd1e5f7d	-0.038665283
152	0xbc806120	-0.015671313
153	0xbb1a2232	-0.0023518917
154	0xbd853b0c	-0.06505403
155	0x3c1a8eaa	0.009433428
156	0x3cf4d968	0.029888824
157	0xbd80bff9	-0.06286616
158	0xbd92f41d	-0.07175467
159	0xbd555dda	-0.052091457
160	0xbbfde68f	-0.007748432
161	0xbc737242	-0.014858784
162	0xbda31f1b	-0.07964917
163	0x3d461701	0.048361782
164	0x3b5d2add	0.0033747472
165	0xbd98967e	-0.07450579
166	0x3db0e87a	0.086380914
167	0x3da3efb9	0.08004708
168	0xbd03b211	-0.03215224
169	0xbd10352e	-0.035206966
170	0x3cf4dc1a	0.029890109
171	0x3c85efd7	0.016349716
172	0x3cf383e4	0.029725976
173	0x3d9ec13c	0.077517
174	0xbdc9e6b1	-0.09858454
175	0x3d281783	0.041038048
176	0xbc12e9c3	-0.008966866
177	0x3d7e38c1	0.062065843
178	0xbd9757e9	-0.073898144
179	0x3d214aaa	0.039377846
180	0xbd5dcd97	-0.054151144
181	0x3db4c782	0.088271156
182	0x3d36868e	0.044561915
183	0xbdefe5e2	-0.117137685
184	0xbe0efa09	-0.13962568
185	0x3e41f5e2	0.18941453
186	0x3cac36c3	0.021022206
187	0x3d08218f	0.03323513
188	0xbd6d0262	-0.0578636
189	0x3d7c7c3b	0.061641913
190	0xbd876c45	-0.06612448
191	0xbc8450ed	-0.01615187
192	0xbd3ab9ce	-0.045587353
193	0x3d410651	0.047125164
194	0x3d34f6cf	0.044180688
195	0xbb8fcc71	-0.004388385
196	0x3aa52469	0.0012599352
197	0x3e104bfc	0.14091486
198	0xbe623ecc	-0.22094268
199	0xbdfa5335	-0.12222902
200	0xbbe8a32a	-0.007099529
201	0x3da7c864	0.08192518
202	0xbdbb0877	-0.09132474
203	0x3dcae4b7	0.09906905
204	0xbccd6d33	-0.025076484
205	0x3e4344ae	0.19069168
206	0x3d218ee0	0.039442897
207	0x3dd0dd73	0.10198488
208	0xbceb8af8	-0.028752789
209	0xbe0839df	-0.13303326
210	0xbd3eff84	-0.046630397
211	0x3ad76e17	0.0016436008
212	0xbc3fd1c6	-0.011707729
213	0xbc3747b3	-0.011186528
214	0xbbe9991f	-0.007128849
215	0x3d989209	0.07449729
216	0xb9cfb385	-0.0003961587
217	0xbd4687ea	-0.04846946
218	0xbd67763a	-0.056509234
219	0x3bf8669c	0.0075805914
220	0xbd3e25ad	-0.04642265
221	0xbdaddac4	-0.08488992
222	0xbdb3ec73	-0.087853335
223	0xbd87d47a	-0.066323236
224	0xbdd327b9	-0.10310311
225	0xbcfe560f	-0.031046895
226	0xbdad3a98	-0.084584415
227	0x3d1fc2d1	0.03900415
228	0xbdeb9bf3	-0.11504354
229	0xbdb383b2	-0.08765353
230	0xbd98bd4c	-0.074579805
231	0xbc35d62a	-0.011098424
232	0x3d891a32	0.066944495
233	0x3e0bc3ec	0.13648957
234	0x3db005f9	0.08594889
235	0xbdc44525	-0.09583501
236	0x3df9c9ef	0.12196719
237	0xbcfa92bb	-0.030587545
238	0xbc0e694e	-0.008692099
239	0xbe4a05b6	-0.19728741
240	0x3daf6b54	0.08565393
241	0xbc6f4860	-0.014604658
242	0x3d807dc9	0.062739916
243	0xbdfd4353	-0.12366357
244	0x3d1d4eea	0.038405336
245	0x3cc1bd5c	0.023649864
246	0x3d0e6362	0.034762748
247	0xbd282682	-0.04105235
248	0x3d7c48ac	0.061592743
249	0x3e302b11	0.17203929
250	0x3dae14b9	0.08500046
251	0x3e0a6105	0.13513573
252	0xbd0faaaa	-0.035074867
253	0xbce56516	-0.028002303
254	0xbe40487c	-0.1877765
255	0xbd3c0f81	-0.045913223

network_body._body_endoder.seq_layers.2.bias f4 [128]
0	0xbc84bbf9	-0.016202914
1	0xbc17b937	-0.009260467
2	0x3222f1b6	9.4846e-09
3	0xbc95354e	-0.018213894
4	0xbba761be	-0.0051080873
5	0x3ae8085e	0.0017702689
6	0xbc4a3972	-0.012342798
7	0xbcd26dba	-0.025687087
8	0xbc8bd022	-0.017067019
9	0xbc765aef	-0.015036329
10	0xbacc363c	-0.0015580128
11	0xbd192a45	-0.037393827
12	0xbc80affb	-0.015708914
13	0xbc89f542	-0.01684058
14	0xbc58933e	-0.013218699
15	0xbcc48be3	-0.023992484
16	0xbc6a54df	-0.014302461
17	0xbc800c7f	-0.015630959
18	0xbc4cb52f	-0.012494369
19	0xbc9bec91	-0.019033702
20	0x9eedbb35	-2.5170778e-20
21	0xbc7e5c75	-0.015524973
22	0xbc73db78	-0.014883868
23	0xbbe42482	-0.00696236
24	0xbcbfe529	-0.023424702
25	0xbbf5d4cd	-0.0075021745
26	0xbd017d50	-0.031613648
27	0xbc631e49	-0.013862201
28	0xbc1f495e	-0.009722082
29	0xbc966bad	-0.01836189
30	0xbd0ecbf7	-0.034862485
31	0xbc4da0b9	-0.012550526
32	0xa5f6888e	-4.276673e-16
33	0x31025364	1.8964892e-09
34	0xbc82ad5d	-0.015951807
35	0xbc1e25c7	-0.0096525615
36	0xbcbb7eca	-0.022887606
37	0xbc1fb637	-0.009748033
38	0xbd223c68	-0.03960839
39	0xbce8dad2	-0.028424654
40	0xbc57d56c	-0.013173442
41	0xbc8ef467	-0.017450524
42	0xbbad8eee	-0.0052965796
43	0xbc8c3f6c	-0.017120086
44	0xbc1887a7	-0.009309686
45	0xba08495e	-0.0005198921
46	0xbbc53925	-0.006018775
47	0xbcb7dee9	-0.022445159
48	0xbc3f98ee	-0.011694176
49	0xbba69b0a	-0.0050844
50	0x2fde5a10	4.0445558e-10
51	0xbc78fd75	-0.015197148
52	0xbb31ac50	-0.0027110763
53	0xbc55251e	-0.013009338
54	0xbc905459	-0.017618345
55	0xbc0812ba	-0.008305246
56	0xbce0d16f	-0.027443616
57	0x2cd999f9	6.1846053e-12
58	0xbc4ea396	-0.012612244
59	0x93da107f	-5.5047203e-27
60	0xbc93ae8e	-0.01802757
61	0xba25d3af	-0.0006325794
62	0xbc7ef1b0	-0.0155605525
63	0xbc2abb43	-0.010420623
64	0xbc8b5652	-0.017008934
65	0xb88e194b	-6.775799e-05
66	0xbbd76b51	-0.0065740724
67	0x3380a013	5.989582e-08
68	0xbc6f8ef7	-0.014621488
69	0xbccb807e	-0.024841543
70	0xbc015439	-0.007893615
71	0xbc9df682	-0.019282583
72	0xac93fb08	-4.2058614e-12
73	0xbbfb3e42	-0.007667334
74	0xbc65ed2d	-0.014033598
75	0x3c3b09ef	0.011415943
76	0xbcc29020	-0.023750365
77	0x992a1640	-8.793287e-24
78	0xbb84ce58	-0.0040529184
79	0xbc78ad0d	-0.015177977
80	0xbccb9895	-0.02485303
81	0xae810ed2	-5.8688734e-11
82	0x1c3a7324	6.1691053e-22
83	0xbbe67687	-0.0070331725
84	0xbc9148a7	-0.017734839
85	0xb8b9f4ff	-8.8671215e-05
86	0xbbed9a2f	-0.007251046
87	0xbd31ed24	-0.043439046
88	0xbc7d61df	-0.015465229
89	0x303bb40c	6.8286066e-10
90	0xbc411a65	-0.011786078
91	0xbb84abc8	-0.0040487982
92	0xbc4c2ca4	-0.012461815
93	0xbbb0db7d	-0.005397259
94	0x26a5ab36	1.1495582e-15
95	0xbc961dde	-0.018324789
96	0xbc810e19	-0.015753793
97	0xbc4627c9	-0.012094446
98	0xba1f4f26	-0.00060771627
99	0xbcbb843c	-0.022890203
100	0xb6cc07fc	-6.0806033e-06
101	0x1adf7cc1	9.243219e-23
102	0xbc8c7d73	-0.017149663
103	0xbc9d6cdd	-0.01921695
104	0xbca83871	-0.020534726
105	0xbc1e9f23	-0.009681496
106	0xbc5de2c9	-0.013542839
107	0xbc94b699	-0.018153476
108	0xbc965182	-0.018349413
109	0x1fc1375d	8.183027e-20
110	0xbce65e34	-0.028121091
111	0xbbee899a	-0.007279587
112	0xaa2b3745	-1.5207026e-13
113	0x1dd662a0	5.6747304e-21
114	0xa39c454e	-1.6942906e-17
115	0xbc28bd13	-0.010298985
116	0xbc8676be	-0.016414043
117	0xbcabb0b1	-0.020958276
118	0xa352b71b	-1.1422897e-17
119	0xa865ca7a	-1.2755959e-14
120	0xbb6523fb	-0.0034964073
121	0xbcd05647	-0.025431765
122	0x33899fd1	6.40863e-08
123	0xbc9c816d	-0.019104684
124	0xbc3068b6	-0.0107671525
125	0xbc1886e2	-0.009309502
126	0xbc5d3788	-0.013502009
127	0xb90f4c7e	-0.00013666038

action_model._discrete_distribution.branches.0.weight f4 [3, 128]
0	0xbb91cc1b	-0.00444938
1	0xbb3a2df0	-0.0028408729
2	0xbb8113d5	-0.0039391317
3	0xbd04c737	-0.03241655
4	0x3c1675cd	0.009183359
5	0x3c82da41	0.015973212
6	0xbb6076b1	-0.0034250433
7	0xba658258	-0.00087550795
8	0x3b9f977b	0.004870353
9	0xbb416aa5	-0.0029513028
10	0x3d1e5ee9	0.038664732
11	0xbb670972	-0.0035253433
12	0x3b250441	0.0025179537
13	0xbd171f1d	-0.036894906
14	0x3c50788c	0.012724053
15	0x3d05e0ce	0.032685094
16	0xbc02418d	-0.007950199
17	0xbc05bc72	-0.008162605
18	0xbab4e149	-0.001380005
19	0xbc4695bf	-0.012120663
20	0x3c9f0a5b	0.019414118
21	0xbbae260d	-0.0053145946
22	0xbb863b83	-0.00409645
23	0x3be74f56	0.007059018
24	0x3c7f632a	0.015587607
25	0xb967361b	-0.00022050033
26	0xb9c73882	-0.0003799834
27	0xbbf3279b	-0.007420493
28	0x3897359c	7.2102266e-05
29	0x3b301e1e	0.002687342
30	0x3c3a5dbf	0.01137489
31	0x3b824b80	0.0039762855
32	0xba8835ef	-0.001039205
33	0x3bc5e609	0.006039385
34	0xb9ac1146	-0.00032819266
35	0xbcf41774	-0.02979634
36	0x3c3aa9c2	0.0113930125
37	0xbc3e996b	-0.011633257
38	0xbc3ff522	-0.011716159
39	0xbaff265d	-0.0019466389
40	0x3abcf9b6	0.0014417681
41	0xbb0bff64	-0.0021361941
42	0xbc594365	-0.013260697
43	0xbb875b1b	-0.0041307337
44	0x3bced56f	0.0063120644
45	0x3bfa4222	0.007637278
46	0xbb8e2ebe	-0.004339068
47	0x3cc757d7	0.024333877
48	0x3c727beb	0.014800052
49	0xbc52181e	-0.012823133
50	0x3c7dc85d	0.015489665
51	0xbc3f5848	-0.011678763
52	0x3c043b2f	0.008070751
53	0x3b412200	0.0029469728
54	0x3b7199d6	0.0036865375
55	0x3c297886	0.010343676
56	0x3d1fca9c	0.039011583
57	0x3af1bdcd	0.0018443406
58	0x3c922203	0.017838484
59	0x3bf54fdb	0.007486326
60	0x3a8222df	0.0009928605
61	0xbbfd622a	-0.0077326493
62	0xbc95f789	-0.01830651
63	0x3c12c70a	0.008958587
64	0xbc8c1870	-0.017101496
65	0x3b55ee7f	0.0032643375
66	0xb898dd33	-7.2891264e-05
67	0x3cc13309	0.023583906
68	0xbc89d085	-0.016823063
69	0xbc1df5f7	-0.009641162
70	0xbca9a34f	-0.020707754
71	0xbb5f07a2	-0.003403165
72	0x3b970635	0.004608894
73	0xbb061365	-0.0020458337
74	0x3bea0d78	0.007142719
75	0x3b926c42	0.0044684717
76	0xbc2b2430	-0.0104456395
77	0x3bed230d	0.0072368444
78	0xbb29bb59	-0.0025899021
79	0xbcb18eea	-0.021674592
80	0xbbfd2824	-0.0077257324
81	0x3bc0add4	0.005880097
82	0xbc3d5a34	-0.011557151
83	0x3c03615e	0.00801882
84	0xbc23b5cc	-0.009992074
85	0x3c8ff5a3	0.017573183
86	0x3bc681a3	0.0060579344
87	0x3c159547	0.009129829
88	0xbb138f01	-0.0022515657
89	0x3bdd0bb8	0.0067457817
90	0x3bb4601f	0.0055046226
91	0xbc61f113	-0.013790387
92	0xbc5445d5	-0.012956102
93	0xb92f40fd	-0.0001671351
94	0x3c0043ff	0.0078287115
95	0x3a3766bd	0.0006996205
96	0xbb58a6bb	-0.0033058363
97	0xbabc31c4	-0.0014358093
98	0x3c01a519	0.0079128975
99	0xbbc250d7	-0.005930047
100	0xbbd6d951	-0.006556668
101	0xbc03ccdd	-0.008044449
102	0xbc444be4	-0.011980984
103	0x3c134003	0.00898743
104	0xbafc7ec0	-0.0019263849
105	0x3a887426	0.0010410591
106	0x3bd74ce8	0.0065704472
107	0xbb1cbffe	-0.0023918147
108	0xbbb513ff	-0.0055260654
109	0xbac5800a	-0.0015068066
110	0xbb72f0f5	-0.003706989
111	0x3c11ccbb	0.008898909
112	0xbc8caea1	-0.017173113
113	0xbc62df38	-0.013847165
114	0xbc355bcb	-0.011069248
115	0x3b94dbe2	0.0045428136
116	0x3ce54a00	0.027989388
117	0x3ba37278	0.004988011
118	0x3b5fbe33	0.0034140467
119	0xbc31fdd4	-0.01086374
120	0xbc240aa3	-0.010012302
121	0xbba0aae0	-0.0049031824
122	0x3c3e1e36	0.011603883
123	0x3c48b421	0.012249977
124	0x3c83f645	0.016108641
125	0xbb2a0dc5	-0.0025948149
126	0xbbe0a70d	-0.0068558515
127	0xb9d7152b	-0.00041023767
128	0x3c754369	0.014969685
129	0xbc5ab80e	-0.013349546
130	0xba3aa1af	-0.00071194296
131	0x3d05a045	0.032623548
132	0xbbed4dd5	-0.0072419443
133	0x3c5a1057	0.01330956
134	0xbc2de251	-0.01061304
135	0xbc7fb436	-0.0156069305
136	0xbbc624c4	-0.0060468633
137	0xbc49d797	-0.012319467
138	0xbb8b7468	-0.00425582
139	0x3ab36256	0.0013685923
140	0x3c6855c0	0.014180601
141	0xbad956f5	-0.0016581701
142	0x3c3941cb	0.01130719
143	0xbcf48afe	-0.029851433
144	0xbabeef96	-0.0014567252
145	0x3ac28868	0.0014841678
146	0xbcae9362	-0.021310512
147	0xbc86c3ca	-0.016450781
148	0xba4327a6	-0.0007444568
149	0xbbceb13e	-0.00630775
150	0x3c6f9a8c	0.014624249
151	0xbc2e40dd	-0.010635582
152	0xbbd6611d	-0.0065423385
153	0x3b778f93	0.0037774786
154	0xbaea2719	-0.0017864435
155	0xba862826	-0.0010235354
156	0xbccc830c	-0.024964832
157	0x3c8f274c	0.017474793
158	0x3bd759fd	0.0065720067
159	0x3c7da278	0.01548063
160	0x3b2c6a3e	0.0026308442
161	0x3b4293df	0.0029690189
162	0xbc38d8a1	-0.011282117
163	0x3c44e845	0.012018268
164	0xbb88fdf2	-0.0041806633
165	0xbaa50185	-0.0012588954
166	0xbc106068	-0.008812048
167	0x3b5fa8b5	0.0034127657
168	0xbbf422fd	-0.00745046
169	0x3be93753	0.007117191
170	0x3b7a793b	0.0038219232
171	0xbc24067d	-0.010011313
172	0xbc0b67b8	-0.008508615
173	0x3bf9b833	0.007620835
174	0x3b9a5b16	0.0047105653
175	0xbc91dbf7	-0.017805083
176	0x3c0a8f02	0.008456947
177	0x3cc3e6d0	0.02391377
178	0xbb3f8315	-0.0029222418
179	0x3c4be88d	0.012445581
180	0xbc1717f1	-0.009222017
181	0xbcb78641	-0.022402884
182	0x397080ce	0.00022936167
183	0x3c894403	0.016756063
184	0xbce28c16	-0.027654689
185	0x3ba503e8	0.005035866
186	0x3b47050d	0.0030368
187	0xbbf1647f	-0.0073667164
188	0x3c81b3b1	0.015832754
189	0x3c3841de	0.011246173
190	0xbd00c6bd	-0.03143953
191	0xbb3124bb	-0.002702995
192	0xbc0e48a4	-0.008684311
193	0xbb30e037	-0.0026989111
194	0xb9e42f85	-0.00043522954
195	0x3c6926fa	0.014230484
196	0xbc6eb96d	-0.014570576
197	0xbbaee86c	-0.0053377654
198	0x3d08662d	0.033300567
199	0xbc43a7d1	-0.011941866
200	0x3aa6201a	0.0012674362
201	0x3d76db16	0.06026753
202	0x3b14c5a4	0.002270081
203	0x3d13651a	0.03598509
204	0xbb9bd1fe	-0.0047552576
205	0x3c3ea419	0.011635804
206	0xbc5cd33a	-0.013478095
207	0x3bdf5005	0.006814959
208	0xbbd8715f	-0.0066053118
209	0xbc0e20ef	-0.008674844
210	0x3c15580e	0.009115232
211	0xbb207ca2	-0.002448835
212	0x3bdf94a9	0.0068231416
213	0xbb4dbc48	-0.0031392742
214	0xbafddc98	-0.001936811
215	0xbb4d5af1	-0.0031334723
216	0xbc93300d	-0.017967248
217	0xbbf2d92a	-0.007411142
218	0x3b31668b	0.0027069177
219	0xbc6da170	-0.014503822
220	0xbac38d50	-0.0014919434
221	0x3c41467e	0.011796592
222	0x3ba9af23	0.0051783486
223	0xbb3efb06	-0.002914132
224	0x3bdbe38b	0.006710475
225	0xbb932dd4	-0.004491547
226	0x3c97f8ff	0.018551348
227	0x39ae03df	0.0003319075
228	0xba5a9057	-0.00083375484
229	0xbaf278aa	-0.0018499095
230	0x3be46681	0.006970227
231	0x3c41ba7e	0.011824248
232	0xbc9daf63	-0.01924867
233	0x3bb55228	0.0055334754
234	0x3c85f6a0	0.016352952
235	0x3c5db1d7	0.01353117
236	0x3bafc8b2	0.005364501
237	0xbb3c8077	-0.0028763094
238	0xba26dbca	-0.00063651486
239	0x3c6c0709	0.014405974
240	0x3c6bb3af	0.014386102
241	0x3bab685a	0.0052309455
242	0xbb9e447c	-0.0048299413
243	0x3b9e9eae	0.0048406934
244	0xbca97999	-0.020687865
245	0x3c9ede21	0.019393029
246	0x3bd74f80	0.0065707564
247	0x3990c12a	0.0002760974
248	0xbbb6889c	-0.0055704843
249	0x3850ced9	4.9783706e-05
250	0x3badd0cc	0.0053044315
251	0xbb055bbf	-0.0020348874
252	0xbd0d330d	-0.034472514
253	0x3b23cd04	0.0024994025
254	0xbd600e8c	-0.054701373
255	0xbc82d44f	-0.015970377

action_model._discrete_distribution.branches.0.bias f4 [3]
0	0xbde6672a	-0.11250146
1	0xbd9971a8	-0.07492381
2	0x3e370660	0.17873526

action_model._discrete_distribution.branches.1.weight f4 [2, 128]
0	0x3cab34c0	0.020899177
1	0x3b7189b9	0.003685577
2	0x3ad15615	0.0015971089
3	0xbcac2e0b	-0.021018049
4	0xbcb252a3	-0.02176792
5	0x3c0d269d	0.008615163
6	0x3d00e88a	0.031471767
7	0xbc947a07	-0.018124593
8	0xbc0c30df	-0.008556574
9	0x3b6d8387	0.0036241726
10	0xbc5e59ab	-0.013571183
11	0xbc4179d0	-0.0118088275
12	0xb9ffc1ae	-0.00048781693
13	0x3c4bcc7a	0.012438888
14	0x3c624c75	0.013812174
15	0x3caeb074	0.021324374
16	0xbc07e9af	-0.008295461
17	0xbc0af279	-0.008480662
18	0x3a8fc49c	0.0010968628
19	0x3a79915e	0.00095202576
20	0x3c218a35	0.009859611
21	0x3c877ded	0.016539538
22	0xbc3931bf	-0.011303364
23	0x3c56f3a9	0.013119617
24	0xbbf23f10	-0.0073927715
25	0x3c2659f7	0.010153285
26	0xbb3de5fa	-0.0028976188
27	0x3c1495a8	0.009068884
28	0xbaadfa0d	-0.0013273373
29	0x3c0be22e	0.008537812
30	0xbbc79245	-0.0060904347
31	0x3c82430f	0.015901117
32	0xba9cbe79	-0.0011958621
33	0x3c0408b1	0.008058713
34	0x3a2af0a9	0.00065208465
35	0xbbe6b0db	-0.007040126
36	0xbc017702	-0.007901909
37	0x3c7988ee	0.0152304005
38	0x3b5b15d5	0.003342976
39	0xbbbb90e5	-0.00572406
40	0xba5b1215	-0.00083568814
41	0x3c4c7e3d	0.012481269
42	0xbc8dbabc	-0.017300956
43	0xbb67c505	-0.0035365236
44	0x3c7ce2d7	0.015434942
45	0xbc8891a8	-0.016671017
46	0xbb0aabf4	-0.002115962
47	0xbca13fe9	-0.019683795
48	0x3c24ad07	0.010051019
49	0xbbb8b720	-0.0056370646
50	0x3b362717	0.0027794295
51	0xbcc88133	-0.02447567
52	0xbc29baba	-0.0103594605
53	0x3b3d169b	0.0028852585
54	0xbc3193df	-0.010838478
55	0xbc50ea37	-0.012751154
56	0x3ca06a0f	0.019581823
57	0xba746612	-0.0009323071
58	0xbb9357f6	-0.0044965697
59	0x3c7f92ab	0.015598933
60	0xbba09d6b	-0.004901578
61	0xba43a7f1	-0.0007463685
62	0xbc80c98b	-0.015721103
63	0x3c21d65e	0.009877769
64	0xbb5c0cd9	-0.0033576994
65	0x3bb81833	0.005618119
66	0x3bff3ccf	0.0077892314
67	0x3b573425	0.0032837477
68	0x3c132dfa	0.00898313
69	0xbb050837	-0.0020299086
70	0xbc09835b	-0.008393134
71	0xbb7b4161	-0.003833853
72	0x39cc6a9a	0.00038989336
73	0xbc907fe5	-0.01763911
74	0x3bf9c1b7	0.0076219696
75	0x3d430587	0.047612693
76	0xbab07126	-0.0013461455
77	0x3c1b5d6f	0.0094827255
78	0xbc6f8eec	-0.014621478
79	0x3a3ff776	0.00073229463
80	0xbba95b76	-0.0051683737
81	0xbc0df15d	-0.0086635025
82	0x3c232aef	0.009958967
83	0x3cebeef4	0.028800465
84	0x3b258b04	0.0025259862
85	0x3b7412c9	0.0037242642
86	0x3b2f1137	0.0026713142
87	0x3ba6a5b7	0.0050856727
88	0x3c60bb2f	0.013716503
89	0xbb880a6e	-0.004151634
90	0x3b5c148a	0.0033581578
91	0x3bb5a92b	0.005543848
92	0xbb935c3e	-0.00449708
93	0xba9acee8	-0.001181093
94	0xbc5a5a58	-0.013327204
95	0xbba30b77	-0.004975732
96	0xbc8ed55e	-0.017435726
97	0xbba84ff2	-0.0051364833
98	0x3c1e421e	0.009659318
99	0x3c882610	0.016619712
100	0xbc0e2061	-0.008674712
101	0x3bf33be2	0.00742291
102	0xbbd53db8	-0.0065076016
103	0x3c1ab87e	0.0094434
104	0xbc6be7eb	-0.014398555
105	0x3c0a8281	0.008453966
106	0xbb856f40	-0.0040721
107	0x3cb80791	0.022464545
108	0x3ce0d097	0.027443213
109	0xbc9977a3	-0.018733805
110	0xbc0e7f10	-0.008697286
111	0x3c4488e7	0.011995531
112	0x3b549f90	0.003244374
113	0x3a5c75bf	0.00084098795
114	0x3c9791c9	0.018502133
115	0x3cef54bb	0.029215207
116	0xb83c0042	-4.4822933e-05
117	0xb9270880	-0.00015929528
118	0x3bf15480	0.0073648095
119	0xbb7b591a	-0.003835267
120	0xbc93d817	-0.018047376
121	0x3c41b7dc	0.011823621
122	0x3bfcf891	0.007720061
123	0xbb45f3e0	-0.0030205175
124	0x3c4ea7a7	0.012613214
125	0x3b0239bc	0.0019870838
126	0x3adf1115	0.0017018641
127	0x3a617cca	0.0008601664
128	0xbbb79e9f	-0.005603626
129	0x3b8b0c63	0.00424342
130	0x3a777bf5	0.0009440773
131	0xbb7c6821	-0.0038514214
132	0x3bcb79bb	0.0062095798
133	0xbc7a02ff	-0.015259503
134	0xbcc1c41a	-0.023653079
135	0xbbeab893	-0.0071631162
136	0xbb48c124	-0.00306327
137	0xbba8e902	-0.00515473
138	0x3c2d7e19	0.010589146
139	0x3b1cb66f	0.002391245
140	0x3ad31d42	0.0016106742
141	0x3c14bba2	0.009077938
142	0xbc8700b6	-0.016479831
143	0xbadefbe6	-0.0017012327
144	0x3ca7429a	0.0204175
145	0x3c0778e3	0.008268568
146	0x3c5096f0	0.012731299
147	0xbb08e73b	-0.0020889777
148	0x3b0ef79a	0.0021815063
149	0x3b36707e	0.0027838047
150	0xbb4498a4	-0.0029998207
151	0x3c96404d	0.018341208
152	0x3b0b810c	0.0021286635
153	0xbc9a81e8	-0.018860772
154	0x3bc2645b	0.0059323735
155	0x39dba352	0.00041892618
156	0xbb1d2430	-0.0023977868
157	0xbc6cfb74	-0.014464248
158	0xbc95975a	-0.018260647
159	0xbbe27554	-0.0069109593
160	0x3b9d35e6	0.004797685
161	0x3b540bbb	0.0032355625
162	0x3b21d89e	0.0024695764
163	0x3cf9d5be	0.030497428
164	0x3aee17ca	0.0018165049
165	0x3b491315	0.003068154
166	0x3bd97214	0.0066359136
167	0x3bff8d32	0.007798814
168	0xbb0a378d	-0.002109024
169	0xbbe481ce	-0.0069734817
170	0x3c8dc459	0.01730554
171	0x3c526d9e	0.012843518
172	0x3c1dfc53	0.009642678
173	0x3c41131e	0.011784343
174	0x3aa2f078	0.0012431284
175	0x3b4e3c82	0.003146917
176	0x3c4a782c	0.012357753
177	0xbbdbf314	-0.006712327
178	0x3bc1b7f6	0.0059118224
179	0x3c5d6c42	0.01351458
180	0xbaa146d4	-0.0012304434
181	0xbb82b2a4	-0.003988581
182	0xbb5a3498	-0.0033295508
183	0x3c8a8c3a	0.016912568
184	0xbc447939	-0.011991792
185	0xbb8015cb	-0.003908848
186	0x3c362d0c	0.011119138
187	0x3c19c9eb	0.00938652
188	0x3c948c71	0.018133374
189	0xbae771c7	-0.001765781
190	0x3bfe4a98	0.007760357
191	0x3a94e70c	0.0011360361
192	0xbaca3878	-0.0015428206
193	0x3bb4a54a	0.005512868
194	0x3b9df16e	0.0048200404
195	0xbc320e9b	-0.01086774
196	0x3b980e01	0.0046403413
197	0x3c847f31	0.01617393
198	0xbc018abe	-0.007906614
199	0xba9702db	-0.0011521237
200	0xba22fc83	-0.0006217437
201	0xbba2b345	-0.0049652182
202	0x3b84c0f5	0.0040513226
203	0xbd33e66d	-0.043920923
204	0x3b2cf1e7	0.0026389302
205	0xbbe9a750	-0.007130541
206	0xb991d18e	-0.00027812686
207	0xbbec0a33	-0.0072033643
208	0xbc98ce47	-0.018653048
209	0xbc8df5db	-0.017329147
210	0xbc1b99e3	-0.009497139
211	0xbb4ca573	-0.0031226545
212	0x3a8df145	0.001082935
213	0x3b211d49	0.0024584106
214	0x3c149498	0.009068631
215	0x3ca2910a	0.01984455
216	0xb853c075	-5.048556e-05
217	0xbb91a41b	-0.0044446117
218	0xbc5eab4f	-0.013590648
219	0x3c242e65	0.010020827
220	0xba93f0ff	-0.0011287032
221	0x3aba2635	0.001420206
222	0x3bf68b93	0.0075239628
223	0x3c254d48	0.010089226
224	0xbc2a30d8	-0.010387622
225	0xbb28bba6	-0.0025746613
226	0x3ccfa8fd	0.025349135
227	0x3c0cadfc	0.008586403
228	0x3bf18a7b	0.0073712445
229	0x3a8c1c39	0.0010689563
230	0x3b234e10	0.0024918355
231	0xbaf96fc0	-0.0019030496
232	0x3caeb2bb	0.02132546
233	0x3b177f2d	0.0023116574
234	0xbcb590a3	-0.022163695
235	0xbcd8031f	-0.026368676
236	0xbcf2a195	-0.029618064
237	0x3bca92ab	0.006182035
238	0xbc0948c8	-0.008379169
239	0xbcb34108	-0.021881595
240	0xbb0cf51f	-0.0021508408
241	0x3bb3d1b5	0.0054876455
242	0x3b2637eb	0.002536292
243	0xbcafc826	-0.021457743
244	0x3c67a07c	0.014137384
245	0xbba69a07	-0.0050842795
246	0x3baf2f11	0.005346187
247	0xbb4e8ebd	-0.0031518184
248	0x3c0d8229	0.00863699
249	0x3bb02b91	0.0053762873
250	0x3c252c2b	0.010081331
251	0x3bf683d1	0.007523038
252	0x3c145d9c	0.009055521
253	0xbba0853c	-0.0048986953
254	0x3d01a3f9	0.031650517
255	0xbc24911a	-0.0100443605

action_model._discrete_distribution.branches.1.bias f4 [2]
0	0xbd5fef46	-0.05467155
1	0x3d5fef45	0.054671545

action_model._discrete_distribution.branches.2.weight f4 [3, 128]
0	0x3c56defe	0.013114689
1	0xbc7c50f7	-0.015400163
2	0x3b9f2ee4	0.0048578847
3	0xbabf79f0	-0.0014608484
4	0xbca971af	-0.020684091
5	0x3c721cf7	0.014777414
6	0xbbb2b499	-0.005453658
7	0x3c5bf8cd	0.013426018
8	0x3c181c36	0.00928407
9	0x3bda52b2	0.00666269
10	0x3c04a86b	0.008096795
11	0x3b96d241	0.004602701
12	0xbb5a54d8	-0.003331473
13	0x3b1d5686	0.002400787
14	0xbb033da8	-0.0020025764
15	0xbc1134a5	-0.008862649
16	0xbbd49903	-0.006487967
17	0x3c687d96	0.014190098
18	0xbc47f15c	-0.012203541
19	0x3c4a5714	0.012349863
20	0xbc1e6fcb	-0.009670208
21	0xbc594dd9	-0.013263189
22	0xbab56593	-0.0013839476
23	0x3c2291d3	0.0099224625
24	0xbb66dc5b	-0.0035226557
25	0xbb09aac9	-0.0021006337
26	0x3b14f578	0.0022729319
27	0xbba2c5c8	-0.004967425
28	0x3bc52249	0.00601605
29	0xbc28f8ea	-0.010313252
30	0xbc2a9801	-0.010412217
31	0x3c39e280	0.011345506
32	0xbb785005	-0.0037889492
33	0x3c24f9e1	0.010069341
34	0xbbfb633d	-0.0076717422
35	0xbcbaf590	-0.022822171
36	0xb98bdcae	-0.00026676565
37	0xbbf9dabf	-0.0076249535
38	0xb8b4430b	-8.5955566e-05
39	0x3c437689	0.011930116
40	0x3c3980ba	0.011322195
41	0x3bc801db	0.006103737
42	0xbca432ad	-0.020043695
43	0x3c1c9534	0.009557057
44	0xbbc0413e	-0.0058671525
45	0xbb300361	-0.0026857483
46	0xbb5070cf	-0.003180552
47	0x3c549d4f	0.012976958
48	0x3ce3bcea	0.027800042
49	0x3c94506f	0.01810476
50	0xbc9d09f5	-0.019169787
51	0x3b87d048	0.004144702
52	0x3c2c3f3d	0.010513124
53	0x3a57a842	0.00082266715
54	0xbc5880b7	-0.013214282
55	0x3b042b06	0.0020167246
56	0xb98b20f3	-0.00026536695
57	0xbc4a69ca	-0.012354324
58	0xbc1c90e0	-0.009556025
59	0x3cec4eb8	0.02884613
60	0xbc0b90b2	-0.008518385
61	0xbc2124a4	-0.009835396
62	0x3bbebd51	0.005820908
63	0x3a3d85ef	0.00072297355
64	0x3c91049c	0.017702393
65	0x3c80dc6f	0.01573011
66	0x3bb0afa2	0.005392031
67	0x3c492d53	0.012278873
68	0x3c01bf11	0.007919089
69	0x3bbbb476	0.0057282997
70	0x3a9a923f	0.0011792852
71	0x3c168e7a	0.0091892425
72	0x3bf4805f	0.007461592
73	0x3b66bbbf	0.003520712
74	0x3b2fa435	0.0026800756
75	0xbcc5ece6	-0.024160814
76	0xbc465f66	-0.012107706
77	0xba9ba91f	-0.0011875964
78	0xbc4bbfa6	-0.012435829
79	0xbabb4def	-0.0014290194
80	0xbc677537	-0.014127067
81	0xbc08b069	-0.008342841
82	0x3bc7cfc8	0.0060977675
83	0x3bd5ddb2	0.0065266723
84	0xb9ecb58e	-0.00045148697
85	0xbba52ccd	-0.005040741
86	0xb9bcde05	-0.00036023572
87	0xb9d9c679	-0.0004153734
88	0xbc0f1bf6	-0.008734694
89	0xbc8ee946	-0.017445218
90	0xbc33aeaf	-0.010966941
91	0xbb78e8df	-0.00379806
92	0x3c5c7e96	0.013457915
93	0xbba9c923	-0.005181448
94	0x3a900ed6	0.001099075
95	0x3933b8a1	0.0001713955
96	0xbc0ee068	-0.008720495
97	0xbc59168b	-0.013250004
98	0x3c1aff37	0.009460262
99	0xbc74eab3	-0.014948535
100	0xbc5c2880	-0.01343739
101	0x3b9841ef	0.004646532
102	0x3b9dc90b	0.004815226
103	0x39e1a5f9	0.00043039004
104	0x3c8f4006	0.017486583
105	0xbb65384e	-0.0034976187
106	0x3ba2a610	0.004963644
107	0x3b8451f2	0.004038089
108	0x3b35ac88	0.0027721245
109	0xbc153731	-0.009107397
110	0x3b91446f	0.0044332067
111	0x3c887759	0.016658472
112	0x3c131c87	0.008978969
113	0x3b82fc8f	0.0039973925
114	0xbbb254e9	-0.005442251
115	0x3aec0971	0.0018008185
116	0x3c41e109	0.011833438
117	0x3c867d7d	0.01641726
118	0xbc0b0e0b	-0.008487235
119	0x3bd23618	0.00641514
120	0x3cc0eabb	0.023549428
121	0x39b10089	0.0003376047
122	0xbc5e7012	-0.013576524
123	0xbc55d14e	-0.01305039
124	0xbab07191	-0.001346158
125	0x3cb63872	0.022243712
126	0x3c5aefac	0.013362806
127	0x3a576ed3	0.0008218113
128	0xbca22e70	-0.019797534
129	0xb92a1389	-0.00016219741
130	0x3c30bf67	0.010787821
131	0x3d1f07ba	0.038825728
132	0xbcf51d06	-0.029921066
133	0xbc13999d	-0.009008792
134	0xbc08eaa0	-0.00835672
135	0xb85b6f27	-5.2317188e-05
136	0xba7003b3	-0.00091558247
137	0x3bffe229	0.007808943
138	0xbcb2fd36	-0.021849256
139	0x3c998d56	0.018744152
140	0xbb5ba251	-0.0033513496
141	0xbc336ee2	-0.0109517295
142	0xbc5ffd72	-0.013671266
143	0x3ba17eae	0.0049284315
144	0x3b7229bf	0.0036951152
145	0xbc8df762	-0.017329875
146	0x3715f862	8.938923e-06
147	0xbaeb65cb	-0.0017959414
148	0x3aae9d73	0.001332207
149	0x3b084a50	0.0020796247
150	0x3cba67ed	0.022754634
151	0x3c806a21	0.015675606
152	0xbc8d9452	-0.017282639
153	0xbac9b502	-0.0015389028
154	0x3a736de4	0.00092860893
155	0xbb78c131	-0.0037956948
156	0x3c9c9043	0.019111758
157	0x3cd949c5	0.026524434
158	0xba8dc80f	-0.0010817068
159	0x3cc7116b	0.024300298
160	0xb91ba850	-0.00014844653
161	0x3c5e1e24	0.013556991
162	0x3accf5f8	0.0015637269
163	0xbba934da	-0.005163771
164	0xbbe21763	-0.0068997606
165	0x3beee2d9	0.007290226
166	0x39f210ce	0.00046170357
167	0x3c354837	0.011064581
168	0x3b6371a5	0.0034705189
169	0xb9853835	-0.00025409614
170	0x3a1765ef	0.0005775382
171	0xbc394519	-0.011307978
172	0x3c788624	0.0151687
173	0xbbc07e45	-0.0058744275
174	0x3afa1885	0.0019080794
175	0x3c0292b4	0.007969547
176	0x3b6ecffd	0.0036439889
177	0x3af13193	0.0018401615
178	0x3c37e95a	0.011225069
179	0x3c43741c	0.011929538
180	0xbc071df0	-0.008246884
181	0x3bec6d33	0.007215166
182	0x3c96cb33	0.01840744
183	0xb9d45b24	-0.00040503696
184	0xbb980138	-0.004638817
185	0x3ad81b22	0.0016487578
186	0x3bfb03fb	0.0076603866
187	0xbc3466ae	-0.011010809
188	0xbb2c98d5	-0.0026336212
189	0x3bcc69c0	0.0062381923
190	0x3b4ad90e	0.0030952129
191	0xbbd37fbe	-0.006454437
192	0xbc017c89	-0.007903227
193	0xbbdd2b13	-0.0067495196
194	0xbc6b954d	-0.014378858
195	0xba42d354	-0.0007432003
196	0xbbeb3926	-0.0071784435
197	0xbc3eef8f	-0.011653795
198	0x3b5800f4	0.0032959552
199	0x3c37ca0c	0.011217605
200	0xbab3a133	-0.0013704657
201	0x3be3b777	0.006949361
202	0xbb039ddd	-0.0020083108
203	0x3d0068b8	0.031349868
204	0xbbaa2020	-0.005191818
205	0x3a8e058f	0.0010835397
206	0x3cb24947	0.021763457
207	0xbd0edc1e	-0.03487789
208	0xbc167416	-0.0091829505
209	0xbbe91702	-0.0071133384
210	0x3bbf516f	0.005838565
211	0x3c008a84	0.007845525
212	0x3b10a455	0.0022070606
213	0xbab17e32	-0.0013541637
214	0xbc8448be	-0.016147967
215	0xbcd39b3b	-0.025830856
216	0x3c74fc81	0.01495278
217	0xbb1beabe	-0.002379104
218	0x3b45e9b3	0.003019911
219	0x3c7be9c2	0.015375556
220	0xbb9a7fd0	-0.0047149435
221	0x3ab9a4b2	0.0014163463
222	0xbbcadfbd	-0.0061912225
223	0xbc859da8	-0.016310528
224	0xbc082bcb	-0.008311222
225	0xbc190b31	-0.009341047
226	0xbc0b41f6	-0.008499613
227	0x3b025479	0.0019886775
228	0x3c4e6063	0.012596223
229	0xbc76a7d2	-0.01505466
230	0x3ba609b4	0.0050670747
231	0x3d028583	0.031865608
232	0xbd0de27a	-0.034639813
233	0x3b0b8459	0.0021288602
234	0x3c7f467a	0.015580768
235	0xba97955f	-0.0011564902
236	0x3b07d3bb	0.0020725566
237	0x3be3fa5a	0.0069573345
238	0xbb92d2dd	-0.0044807033
239	0x3c3ae12a	0.011406222
240	0xbbfee88f	-0.007779188
241	0x3bda7fb3	0.006668055
242	0xbc073ea6	-0.008254683
243	0xbc174af2	-0.009234177
244	0xbc489c93	-0.012244361
245	0x3c2955e2	0.010335417
246	0x3bf49733	0.0074643134
247	0x3c4ed820	0.01262477
248	0x3ce2d5fe	0.02768993
249	0xbc0300af	-0.007995768
250	0x3bc8d783	0.0061292066
251	0xba909b44	-0.0011032601
252	0x3b179d6b	0.00231346
253	0x3d00e3bf	0.031467196
254	0xbcb90192	-0.022583757
255	0x3ad5c833	0.0016310274

action_model._discrete_distribution.branches.2.bias f4 [3]
0	0xbbed5828	-0.007243175
1	0xbe86e8bf	-0.26349446
2	0x3e83ee27	0.25767633

action_model._discrete_distribution.branches.3.weight f4 [2, 128]
0	0x3c29c20b	0.010361205
1	0xba7f7b4a	-0.00097458495
2	0xbc029422	-0.007969888
3	0xbc8b5d17	-0.017012162
4	0x3b4c09c1	0.0031133743
5	0x3bc5bec6	0.006034705
6	0xbc47216a	-0.012153963
7	0xba82023f	-0.0009918882
8	0x3c822513	0.015886819
9	0xbc03c19d	-0.0080417665
10	0x3d42197e	0.047387592
11	0xbc00ec13	-0.0078687845
12	0xba0bc6c5	-0.0005332048
13	0xbc15f45a	-0.009152496
14	0xbc47246a	-0.012154678
15	0x3c189299	0.009312295
16	0xbabe3fa1	-0.0014514813
17	0xbc860b03	-0.016362673
18	0xbc602219	-0.0136800045
19	0x3c398557	0.011323295
20	0x3bb02568	0.005375553
21	0xbc0876f6	-0.008329144
22	0xbbde200d	-0.006778723
23	0xbc170c45	-0.009219234
24	0x3bd62a02	0.0065357694
25	0xbad8dda8	-0.0016545551
26	0x39db6246	0.00041844154
27	0x3c4fc68e	0.0126816165
28	0x3b1fffd4	0.002441396
29	0x3c7c29f4	0.015390862
30	0x3b9dd9af	0.0048172097
31	0x3c0a5767	0.00844369
32	0xbc9ca208	-0.019120231
33	0xba5e9d29	-0.00084920466
34	0x39103f8d	0.00013756585
35	0xbc1bc1d0	-0.009506658
36	0x3c9754a7	0.018472983
37	0xbaf7f066	-0.0018916249
38	0xbae17aa0	-0.0017202683
39	0xbbf3f622	-0.007445113
40	0x3b781db0	0.0037859492
41	0x3bc8786b	0.0061178706
42	0xbc35fa87	-0.011107094
43	0x3c7a4868	0.015276052
44	0x3b609a9c	0.0034271842
45	0xbbf8dbf4	-0.00759458
46	0x3c044b9e	0.008074669
47	0xb95ca3b8	-0.00021041825
48	0x3b868f0c	0.004106408
49	0x3c2b5005	0.01045609
50	0xbbb33703	-0.0054692044
51	0x3bd180ca	0.0063935267
52	0xbaf10bdf	-0.0018390379
53	0x3b150f07	0.0022744553
54	0xba21e31b	-0.0006175504
55	0x3c233217	0.009960673
56	0xbca80ea3	-0.020514792
57	0xbbacaa03	-0.0052692904
58	0xbc1cf4f9	-0.00957989
59	0xbc0d8153	-0.00863679
60	0x3ca819c0	0.020520091
61	0x3ae2106b	0.0017247325
62	0xbac64913	-0.0015127979
63	0x3be5959a	0.0070063593
64	0x3c2fc2d8	0.010727607
65	0x3ba8e4c7	0.0051542255
66	0x3ad2c653	0.0016080834
67	0xbc33df0e	-0.010978473
68	0x3c403bed	0.011733037
69	0xbc013755	-0.007886727
70	0x3c6dfc27	0.01452545
71	0x3c296de1	0.010341139
72	0x3b660c1a	0.0035102428
73	0xbc8f4053	-0.017486727
74	0xbc63df50	-0.013908222
75	0x3c7485b8	0.014924459
76	0xbb743678	-0.0037263911
77	0x3c40c9d0	0.011766866
78	0xbc3c567e	-0.011495231
79	0x3c14c49e	0.00908008
80	0x3a7f866e	0.00097475096
81	0xbbd5090b	-0.006501322
82	0xbc1555d0	-0.009114698
83	0x3c770e7a	0.015079135
84	0x3a76cb10	0.0009414414
85	0xbc297977	-0.010343901
86	0xbbd321c2	-0.006443233
87	0xbb8595b1	-0.0040766825
88	0x3cb2975b	0.021800688
89	0x3c259f9a	0.010108853
90	0x3b265a5d	0.002538345
91	0x3a5c069c	0.0008393319
92	0x3c606d07	0.013697869
93	0xbaf578bf	-0.0018728002
94	0xbbdb7c0b	-0.0066981367
95	0xbafe362d	-0.0019394808
96	0xbaaf79b4	-0.0013387711
97	0x3b8bba9b	0.0042641885
98	0xbbae48fd	-0.0053187595
99	0x3c05705e	0.008144466
100	0xbbe4ec20	-0.006986156
101	0x3b42d993	0.0029731735
102	0x3c400fbc	0.011722501
103	0xb99dde0a	-0.00030110806
104	0x39b4bfc0	0.0003447514
105	0xb9a8809b	-0.00032139276
106	0xbb1d7424	-0.0024025524
107	0xbc240cf7	-0.010012857
108	0xbc4494e6	-0.011998391
109	0xbb85d517	-0.00408424
110	0xbb6a7375	-0.0035774384
111	0x3ca32478	0.01991485
112	0xbc268562	-0.010163637
113	0x3b77ca62	0.0037809839
114	0x3ad7db4d	0.0016468555
115	0xbb7374ed	-0.003714855
116	0xbbfc115e	-0.0076925
117	0x3c41b339	0.011822515
118	0xbb4d4c7d	-0.0031326108
119	0xbc61545a	-0.013753021
120	0xbc403e0e	-0.011733545
121	0x3a98b6ff	0.0011651217
122	0xbb9708f1	-0.00460922
123	0xbaa1d46a	-0.001234663
124	0x3c2bf07c	0.010494348
125	0xbb6a1e6c	-0.00357237
126	0x3c577772	0.013151037
127	0x3a7b8806	0.0009595159
128	0xbb9b7460	-0.0047440976
129	0xbc0c2693	-0.008554119
130	0x3cd7d5be	0.026347037
131	0xbc0b8fe8	-0.008518197
132	0x3ab788d6	0.0014002572
133	0xbc456ebf	-0.01205033
134	0x3b0ea204	0.002176405
135	0xbaf7de56	-0.0018910866
136	0xbc16f336	-0.009213259
137	0x3b3fcec1	0.0029267522
138	0xbcab47d3	-0.020908272
139	0x3b19aafb	0.002344786
140	0x3acaad6a	0.0015463058
141	0xbc62c27b	-0.013840313
142	0x3c2ccc49	0.010546752
143	0x3b9b723b	0.004743842
144	0x3bfb861b	0.0076758987
145	0x3c9efa2c	0.0194064
146	0xbc5b7688	-0.013394959
147	0xbaac0dc1	-0.0013126658
148	0xbc00bc66	-0.007857418
149	0xbb069acc	-0.0020539043
150	0x3c882d22	0.016623084
151	0x3c145bf4	0.009055126
152	0x3c351b96	0.01105394
153	0xbc415b00	-0.011801481
154	0x3951e893	0.00020018434
155	0xbaa10e73	-0.0012287631
156	0xbb91d83e	-0.004450827
157	0xbc58fc30	-0.01324372
158	0xbb8512b9	-0.00406107
159	0xbc93763e	-0.018000718
160	0xbcbf5140	-0.023354173
161	0xbb7cb2df	-0.0038558764
162	0x3c07e80e	0.008295072
163	0x3c057682	0.00814593
164	0xbc720b78	-0.014773242
165	0xbb949614	-0.0045344923
166	0x3a82664a	0.0009948697
167	0x3c073ff1	0.008254991
168	0x3a94aa11	0.0011342188
169	0xbc03173b	-0.008001144
170	0x3c5bfc15	0.0134268
171	0x3a4fd7aa	0.000792856
172	0x3999ac11	0.00029310634
173	0x3c5d337f	0.013501047
174	0x3b869749	0.00410739
175	0x3b91df13	0.0044516413
176	0xbc5ee6b4	-0.013604809
177	0x393a4fe5	0.00017768105
178	0x3b0d2bd0	0.0021541007
179	0xbca4109a	-0.020027447
180	0x3c3a58b1	0.011373685
181	0x3b9cffd2	0.0047912383
182	0xbb7717ed	-0.003770347
183	0xbbee5788	-0.007273618
184	0x3bec81e6	0.0072176335
185	0xbc55d36f	-0.013050898
186	0xbc560644	-0.013063017
187	0x3c237d65	0.009978627
188	0xba1b8595	-0.0005932686
189	0x3abc0166	0.0014343678
190	0xbb1a625f	-0.002355717
191	0xbb77e758	-0.00378271
192	0x3c6671a7	0.014065183
193	0xbc93d527	-0.018045975
194	0x3c0bc6de	0.0085313
195	0xbbfa30ce	-0.0076352125
196	0xbc3db657	-0.011579118
197	0x3bf70e81	0.007539571
198	0xbb8120bc	-0.00394067
199	0x3b553995	0.0032535542
200	0x3ca01568	0.019541457
201	0x3d0160e0	0.031586528
202	0xba41ef3c	-0.00073980144
203	0xb70db993	-8.447462e-06
204	0xbb00b94a	-0.001964169
205	0xbbc8ca7e	-0.0061276546
206	0xbb9f82a8	-0.0048678704
207	0xbbe2cb53	-0.006921211
208	0x3c3310c3	0.010929289
209	0xbbcdd31f	-0.006281271
210	0xbc083206	-0.008312708
211	0xbca945cb	-0.020663163
212	0x3bc4d860	0.006007239
213	0x3aad24d5	0.0013209829
214	0xbbf80467	-0.007568884
215	0x3c9acaa5	0.018895457
216	0x3b6a5a85	0.003575952
217	0xbbd0d2eb	-0.0063727996
218	0xbb50f282	-0.0031882827
219	0x39cd128e	0.0003911447
220	0xbbeab02c	-0.0071621146
221	0xba0ac7c4	-0.00052940496
222	0xba894eb4	-0.0010475726
223	0x3ce47437	0.027887447
224	0xbc09132f	-0.00836639
225	0x3bd08eaa	0.006364663
226	0xbb9d64a6	-0.004803258
227	0xba2d1a79	-0.0006603371
228	0x3c13c526	0.009019172
229	0xb8395432	-4.418585e-05
230	0xbc137764	-0.009000633
231	0x3c1aff42	0.009460272
232	0xbad61ec5	-0.0016336074
233	0xb9155ad4	-0.00014243583
234	0x3bee9096	0.0072804196
235	0x3bc1f8fc	0.005919574
236	0x3bd89ff9	0.006610867
237	0x3c4b02c9	0.012390801
238	0xbb961802	-0.0045804987
239	0xbc7eeb65	-0.015559052
240	0x3b25af18	0.0025281366
241	0xbc9534bb	-0.01821362
242	0x3c70262a	0.0146575365
243	0xbbcf1edd	-0.006320818
244	0x3c0f7cb4	0.008757759
245	0xbb5680b7	-0.0032730529
246	0x3b309e1f	0.0026949716
247	0x3abf2356	0.0014582674
248	0xb9aba48f	-0.00032738267
249	0xbc322d7f	-0.010875105
250	0xbae71455	-0.0017629961
251	0x3c016d51	0.007899598
252	0x3b73654e	0.003713924
253	0xbbc7fdbe	-0.0061032465
254	0x3c3db004	0.01157761
255	0x3c124b43	0.008929077

action_model._discrete_distribution.branches.3.bias f4 [2]
0	0x3be42e2c	0.006963512
1	0xbbe42e48	-0.006963525
