results/TankLearningAI_timePunished/TankLearningAI/checkpoint.pt (torch, 768299 bytes, 36 tensors)

network_body._body_endoder.seq_layers.0.weight f4 [128, 111]
00000000: c5fc 873d 3ad8 44be e713 003e 33dc 983d
00000010: 9822 c7bd 3c5d 52be 0b99 c2bd b9c9 c93d
00000020: bbb4 ecbd db13 933c 2da9 cfbd f945 63bd
00000030: e5f6 eebc c3b8 4dbd fc34 20bd 2c78 bebc
00000040: cdee 47be 2f8c c0bd 3a5f 373d 311c ecbd
00000050: 224f 0ebc ff2a 67bd d0f1 a6bd 039b ac3c
00000060: 7cf4 09be ae94 eabc cf53 563d 8d40 d6bc
00000070: ad04 87be d0f5 30bd 48df 3e3c 752a 413d
00000080: dee9 ca3d 2fab 273e 7f8b e4ba 0341 913d
00000090: a51f 1f3c 5d52 d83d 5d99 e5bd 631b 51bd
000000a0: df18 a3bd 9976 e4bd 7d17 49be 4866 40bd
000000b0: a00e 1bbc c0d1 15bd 512e 563c 3cf5 c0bd
000000c0: 553a d4bd 5d8f 2abd d9ad 88bd c47f a8bc
000000d0: ad3e 113e 15d4 19be e0ee 29be a2b8 3bbd
000000e0: b3c7 c8bd f8f7 abbc de6e 173b 52e7 11bc
000000f0: 5ac3 243d 04d8 8e3d 225f f73d 7395 36bd
00000100: c098 c9bd 1b11 f5bd bad3 5bbe d4e8 0cbd
00000110: 925f 03be 7275 e53d d8fd 0b3e a002 4c3d
00000120: 8b16 c33d 9187 643e 0114 ab3d ac70 d7bc
00000130: 722d 9e3d 685e 0dbe 9171 dbbd 400c ea3b
00000140: b0cb 453c 95b2 283e 2c51 14bd a3b2 37be
00000150: f70e 1bbe ac52 dbbc c446 ccbd c5a5 543e
00000160: 2061 aabd b814 2cbc e207 3c3d c32c e33b
00000170: 7821 a9bd 5a41 a33b 220b 723c efd3 71bd
00000180: e4a1 5f3d 0438 88bd 0f76 aa3b 32da 533d
00000190: ae76 83be a03a 1cbc 210e c03d 7b41 c0bc
000001a0: ade1 d3bd 7d39 01be 5544 983d f501 ee3c
000001b0: 7cfc 393d f708 efbd bb1e f93d 9412 1c3d
000001c0: b22c 2b3c 8462 a2bc 05e0 89bd e8f4 8ebc
000001d0: fa56 47bd d052 373d 7ac2 52bc 5458 df3d
000001e0: 0da0 81bd 6bd1 babd 73a0 febd c754 bebd
000001f0: 834d 49bd 9442 32bc 439e 5bbe e6c0 55be
00000200: 33aa 11be 7c2b 96bd 8d23 e0bd 2f15 ee3d
00000210: 5be8 633d e3b2 0bbe e175 99bd 1bdd cfbd
00000220: 99f2 2f3e 7d46 14be 70cb 3bbd b0cd ddbd
00000230: f140 ae3d e7c1 2dbe 3dc6 b5bd 9d60 3c3e
00000240: 74eb 46bd 586e 8b3d 3caf b8bd 109a 8cbd
00000250: 8d4b cb3d 7d3f 11be d7c0 fd3c 55aa a13c
00000260: 5746 a3bd 33d5 94bc bf08 7f3e e0c4 36bd
00000270: cbc1 ee3d 84af a03d c142 0abe 3994 063e
00000280: 54c4 89bd 9608 4e3d d842 4a3b 5c96 0e3c
00000290: 5507 00be ea82 14be 3f98 d13a 061b 443c
000002a0: 0472 a43d 7a79 9b3d 914a 87bd a5a4 383a
000002b0: 6ba0 b2bc cc14 38bc cd08 e4bc 4fa1 80bd
000002c0: 191f ffbd 13bf a9be 239f 75bd 368e fc3b
000002d0: 677d 393e cbac 8d3d 06a9 ccbd 0251 2a3d
000002e0: e671 f0bd 1cca 86bd b0b8 2c3c 76e7 26bd
000002f0: b7a9 84bd 517c 05bd 1232 3a3d 2248 183e
00000300: fd21 aebb a8b0 9b3d 19a1 31be 5b52 27be
00000310: 272c a0bd 2383 6f3d cc34 133d cc96 9b3d
00000320: d570 8fbd 76ff c7bd d8a0 493d 4dd6 02bc
00000330: e344 a33d 2b9e e23b ee2f 7dbd 2e2a 0ebe
00000340: 5447 91bd 0813 2f3b 14fe 15bd f344 8d3d
00000350: c05c dcbd e87f e43d 8f7d b93d 5f3c f73a
00000360: 4ea5 4b3e 9cea 10bd 3fbc 653e f64e 123d
00000370: 6683 af3c c8e9 a43d afe9 8fbd ac0e 6a3e
00000380: 6f7d 25bd 2c7a 38bd 4e75 d5bd 8a08 efbd
00000390: 3881 8cbd 7754 cbbd af13 3f3e a8e8 de3c
000003a0: 8c68 0d3e 640e 7dbb 00c2 8b3c fbda fbbd
000003b0: eebc 08bd 0faf 48bc 1596 48bd a9a8 cdbd
000003c0: 1143 4bbd a327 883e 1d92 4b3d f027 83bd
000003d0: 236b 063e e320 41bd be6a a43e 32a8 e1bd
000003e0: 9a5f 873d 4f59 03be 1e09 1bbd c817 72be
000003f0: 137e 5ebe fbe3 c23d ce82 77bd 84ff dc3d
0.06640009 -0.19223109 0.12507592 0.07463875 -0.09723395 -0.20543379 -0.09501847 0.09852929
-0.11557909 0.017953804 -0.101396896 -0.055486653 -0.029170463 -0.05022503 -0.03911303 -0.023250662
-0.19524689 -0.09401738 0.04476855 -0.115288146 -0.008685859 -0.05643749 -0.08151591 0.02107001
-0.1347217 -0.02863535 0.05232602 -0.026153827 -0.26370755 -0.043203175 0.011649914 0.04715963
0.09907888 0.16373895 -0.0017436593 0.07092478 0.0097121345 0.105625845 -0.11210892 -0.05105151
-0.07963728 -0.11155433 -0.19637866 -0.046972543 -0.009463936 -0.036576986 0.013072566 -0.09421775
-0.103626885 -0.041640628 -0.06673784 -0.020568736 0.14184065 -0.15022309 -0.1659503 -0.045830376
-0.098037146 -0.020992264 0.0023106853 -0.008905249 0.040225364 0.069747955 0.12078692 -0.04457612
-0.09843588 -0.11966153 -0.21467486 -0.03440173 -0.12829426 0.112040415 0.13671052 0.04980719
0.09525784 0.2231734 0.08353425 -0.026298843 0.07723512 -0.13805544 -0.107150204 0.0071425736
0.012072489 0.16474374 -0.036210224 -0.17939238 -0.15142427 -0.02677282 -0.09974435 0.20766361
-0.083193064 -0.010502987 0.045905955 0.0069328262 -0.08258337 0.0049821557 0.014773162 -0.059040006
0.05459775 -0.06651309 0.005202062 0.05172176 -0.25676483 -0.009535462 0.09377695 -0.023468724
-0.103457786 -0.12619586 0.07434908 0.029053668 0.045406803 -0.11671632 0.121640645 0.038103655
0.010447668 -0.019822367 -0.067321815 -0.017450765 -0.04866693 0.04475671 -0.01286375 0.10905519
-0.063293554 -0.091219746 -0.12432947 -0.09293514 -0.049146187 -0.010880131 -0.21447091 -0.20874366
-0.14225082 -0.07332513 -0.10944281 0.11625134 0.055641513 -0.13642459 -0.07493187 -0.101495944
0.17182387 -0.14480014 -0.04584831 -0.108302474 0.0850848 -0.16968499 -0.088757016 0.1839623
-0.04856439 0.06808156 -0.09017798 -0.068653226 0.099265195 -0.14184375 0.030975742 0.019734541
-0.07972401 -0.018168068 0.2490568 -0.04462135 0.11658057 0.07845977 -0.13502027 0.1314248
-0.067269 0.050301157 0.0030862596 0.008702841 -0.12502797 -0.14503065 0.0015990807 0.0119693335
0.08029559 0.07591529 -0.06606019 0.0007043577 -0.021805009 -0.011235427 -0.027836228 -0.06280767
-0.12457103 -0.3315359 -0.059966218 0.0077073826 0.18114243 0.06917723 -0.09993176 0.04158116
-0.117404744 -0.06581518 0.01054208 -0.040748082 -0.06477683 -0.03258926 0.045457907 0.14871266
-0.0053141103 0.07602054 -0.1734661 -0.1634001 -0.078209214 0.05847467 0.035939023 0.075971216
-0.07003943 -0.09765522 0.04922566 -0.007985664 0.079721235 0.0069158277 -0.061813287 -0.13883278
-0.07093683 0.0026714224 -0.03661926 0.06897917 -0.10759878 0.11157209 0.090571515 0.0018862596
0.19887277 -0.03537999 0.22435091 0.035719834 0.02142496 0.08052403 -0.070269935 0.2285716
-0.040402826 -0.045038387 -0.10422765 -0.116715506 -0.06860584 -0.0992822 0.18659852 0.027210549
0.13809413 -0.0038613314 0.01706028 -0.122976266 -0.033383302 -0.0122487685 -0.048971254 -0.10041935
-0.049624506 0.2659274 0.04969989 -0.06404102 0.13126807 -0.047150504 0.32112688 -0.11018409
0.066100314 -0.12827037 -0.03785049 -0.23641884 -0.21727781 0.0951614 -0.06042748 0.10790923

network_body._body_endoder.seq_layers.0.bias f4 [128]
00000000: 7ee4 88bd 3563 85bd 3acb aabc d94a babd
00000010: f705 95bc 5207 1abd fc84 703d 9f07 9dbc
00000020: fb5b 443d d33f 5c3c 14f3 80bc 0107 8bbd
00000030: 6893 a4bd 553a 32bd 7944 c83b befe 76bd
00000040: ac49 edbd 7db6 71bd 4990 45bd 83a4 48bd
00000050: 77ba 0cbd 4d42 a6bd cfbf 16bd 0e7e 46bd
00000060: b21b d2bd c311 45bd 4a25 7fbd 6ff6 c3bc
00000070: 2638 53bd c798 a3bd e84a f8bc 7b00 2abd
00000080: e87f f8bc 61df 79bc d5d4 96bd 03ae 46bd
00000090: 0da1 68bd a73f 703c d99f 0c3c 51c3 61bc
000000a0: 1149 01bd de1f 3fbd 1fee 3fbd d881 a8bc
000000b0: b7f3 15bd d477 d8bc b842 8ebc 84bd 663d
000000c0: 4379 aa3b 8fa9 2abd dd2f babd 236b cabd
000000d0: 86d5 6cbd 8cdd debc 5c4e 09bd 89bc 7bbd
000000e0: a2cd 4ebd a299 e2bc 3024 1239 b52a 51bd
000000f0: 869f 2dbd 53d4 6fbd 0a5e 53bd 8321 2abd
00000100: a514 5bbd b7ec 9bbc 41c6 1bbd b8f7 93bd
00000110: 40c0 12bd e376 523c a6c9 7bbc 7a8b 43bc
00000120: af7a a3bd cb38 3abc 8daa 763b 44ce 82bd
00000130: 411b 98bd a67e 90bd 29f3 fa3b df62 bfbd
00000140: 84a5 d4bd 55c8 95bd 61c8 b6bc 183b f8bc
00000150: 0df2 42bd ea33 333d dcfd 7bbc 1f99 04bd
00000160: fd5e cdbd 33f9 3bbd 6514 38bd 8225 65bd
00000170: 6b7a 13bc d375 92bc 4b88 e9bb eaec ddbb
00000180: 67ad bcbd 2f0d 203c 927f fc3c 31e9 62bd
00000190: 1957 9cbd d2ec e73b f9ae 1cbd 5c53 4abd
000001a0: 805b 4abd 0d2c 6ebd e981 14bd ad85 efbb
000001b0: 71d0 d8bd 0c91 d9bd 9ee5 32bd 7e7a 85bd
000001c0: 106a 88bd c663 80bc ec6e 9fbd 0e2b 0abd
000001d0: 36f4 9f3c 1b2d c1bd b5d5 60bd e9f2 27bd
000001e0: 7ab7 50bd fad1 95bd 153f cf3c 1768 cd3c
000001f0: 4204 a23c c997 9cbd e170 68bc 9e51 093d
-0.066842064 -0.06513063 -0.02084886 -0.09096307 -0.01819132 -0.037604637 0.058720574 -0.019168673
0.047939282 0.013442951 -0.015740909 -0.06788445 -0.08035928 -0.04351266 0.006111678 -0.060301535
-0.115863174 -0.059011925 -0.048233304 -0.048985016 -0.034357514 -0.081181146 -0.036804017 -0.04846006
-0.10259189 -0.048112642 -0.06229142 -0.02392122 -0.05156722 -0.07988124 -0.030309156 -0.041504364
-0.030334428 -0.015251012 -0.07364813 -0.048505794 -0.056794215 0.014663613 0.0085830325 -0.013779477
-0.031563822 -0.04666125 -0.04685795 -0.020569727 -0.036609378 -0.026424326 -0.017365798 0.05633308
0.005202444 -0.04166561 -0.090911604 -0.09883716 -0.05782082 -0.027205251 -0.033521995 -0.061459098
-0.050489075 -0.027661148 0.00013937126 -0.05106612 -0.04238846 -0.058552098 -0.051603355 -0.041535866
-0.053486485 -0.019033773 -0.038030867 -0.07224983 -0.035827875 0.012845728 -0.015367901 -0.011935109
-0.079823844 -0.01136608 0.0037638277 -0.06386998 -0.07427073 -0.07055406 0.0076583815 -0.0934503
-0.10383132 -0.07313601 -0.022312345 -0.030301616 -0.04759412 0.04375068 -0.015380349 -0.03237259
-0.10027883 -0.04589195 -0.044941325 -0.055943973 -0.009001355 -0.017878449 -0.007126843 -0.006772627
-0.09212761 0.009768768 0.030822549 -0.05539817 -0.076338 0.0070777917 -0.038252804 -0.049395904
-0.049403667 -0.05814748 -0.036256704 -0.0073096366 -0.10586632 -0.106233686 -0.04367601 -0.06517504
-0.06660855 -0.015672576 -0.077848285 -0.033732466 0.019525629 -0.09432431 -0.054891307 -0.04100314
-0.050956227 -0.073154405 0.025298635 0.025074048 0.01977742 -0.07646138 -0.014187069 0.0335251

network_body._body_endoder.seq_layers.2.weight f4 [128, 128]
00000000: 5297 fabd 3c7b c9bc ab71 4ebc 829a b9bd
00000010: a1f7 d9bd 8ca2 883c f263 88bd 7a25 d5bc
00000020: bbcc abbc 2cca 853c d658 22be ebec debd
00000030: 3f51 4abd d54f edbc e1b3 36bc f59d 163d
00000040: d9f2 b93d 9f45 923d 791a 6e3d bf35 0ebd
00000050: 607e 39be 6522 a6bd 2375 14bd 861a 11be
00000060: 3522 873d d6be e1bd 6138 1dbd e9cb 0abe
00000070: 0aa7 d4bc 88f2 2cbd be20 21be 5b07 8a3c
00000080: cf5a 87bd 3286 583d 8fc5 393d a44c 2dbd
00000090: e673 5bbc a8da eb3d 3b15 1dbd bc34 29bd
000000a0: d39d 93bc 0cb7 07bd fcbd 1abd 1bb7 17bb
000000b0: 12e9 92be fe6a 97bd 1572 cabd ca11 403d
000000c0: 37ff c73d 9e5e 30be 9b41 f0bd c5be a5bd
000000d0: 1595 4fbe fe14 31bd 5696 763d d758 40bc
000000e0: bbb0 c6bd f12c 56be 591f 9a3d 89ff e63c
000000f0: 6051 4dbc df39 8dbc 41cc b9bd ea33 f0bc
00000100: f552 b4bd a8f8 063c 7ba1 573d 045c 083e
00000110: 729f e2bd 1346 a0bd e92b 69bd b87a 27bd
00000120: d5e0 cf3b 4151 08be 0cb0 e0bc 6a1e 203e
00000130: 394d 1a3d 8899 aabd 301a 493d 41c4 db3b
00000140: 415c ef3d 2408 2d3d 7435 913c 0d9d b4bc
00000150: 1f62 83bc 4592 2d3c 2419 c3bc 8f05 1abe
00000160: e005 63bd c53e cbbc 166e 91be bef2 1ebe
00000170: 055e 15bc e00f 353c 6ae7 11be 910a de3c
00000180: 0717 ff3c 514f d2bd f198 7cbd 2996 8bbd
00000190: 1d41 62be bf52 3e3e 1f0a dbbd c219 d4bd
000001a0: d01b ccbc 8435 403e 0b9b f2bd c1b8 2cbd
000001b0: 7941 f33d 8d68 773d 1d68 aabd 7f8c 2b3d
000001c0: a914 8cbd 5616 86bc 68e2 9f3d c66d 983d
000001d0: f66d 793c 5230 fcbd a2a0 cabd 5a52 19be
000001e0: 5470 a5bc f3dd c3bd 82bd 69bd 3033 e43c
000001f0: 2074 06be e5a7 593d 0214 3fbd 1c71 fbbc
00000200: e531 85bb 6358 4cbd f992 2bbe 5e29 2f3e
00000210: ef38 30bc c287 a2bc 4eef 76be 723f 92bd
00000220: 055a d73c 2eaa a7bd 0877 55bd 1a1c 42bd
00000230: 74d8 a53d 9cc5 1e3e a2a8 fcbc 2bce 213d
00000240: ae00 05be 964d 5abd 9a97 21be d108 09bc
00000250: 822d 933c c4cf a1bc c5f5 333c 3ffb 03bd
00000260: 7bba 9dbb 1fbb 983b 1e5c c73c 609f 053d
00000270: 63b7 493d a358 1bbd 9ebd e7bc 9cb2 8f3d
00000280: 00bd d3bd 56b6 6abe 7e08 7ebd 4a51 233e
00000290: 4215 b9bc bbfd 32bc 7224 c2bd c641 7cbc
000002a0: b797 063d f614 c1bd cc2c 55bb 46af 0bbd
000002b0: b1a8 9f3d 044d ef3b 68c8 27bd 52a8 bdbd
000002c0: b01d 893d 1396 0ebe 018b c93c 2b32 5d3d
000002d0: 4780 07bd e7bc 013c b522 183c 9206 bfbd
000002e0: a20a 5ebd 9fd6 12be 1cdb ac3d ce0a edbc
000002f0: 3086 35be 52e1 fb3d b40a 173e 61e7 903c
00000300: 1bad 15be cec0 17bd 2d56 0bbe 6d92 4cbd
00000310: 164a ddbd 702b 383d 8439 75bd e28c 47bd
00000320: f5b2 123e 9e9d 03be 195a 853c 9649 563d
00000330: 0bc2 81bd 244b f43d 4fad 2abe b6ef f63c
00000340: ed8e b2bd 6c6a 8abd 6ad1 313e 42c2 01be
00000350: 2f5d aa3d 5775 6dbc 730a d43d f8f1 d63d
00000360: 9226 bdbd 7ac1 c3bb f08d 00bd b2b1 36bc
00000370: f826 0ebd 4374 23be 03fc 083d 393e 0cbe
00000380: 7bed 5c3e b759 39bd 4eef 16bd 8b00 eabb
00000390: fb18 90bc 875b c5bc 1bbf 183c 861e d9bd
000003a0: d6d9 55be c465 00be d8d7 8dbd ec91 48bd
000003b0: 1153 8b3c 34e8 513d a3d0 e7bb 5a31 e7bd
000003c0: d5c2 f43d 50fe 45be 5921 2c3e a973 cdbd
000003d0: 4902 c5bd ad82 313d 8b1f 0fbe 97af 2f3c
000003e0: ef7a bb3d 400a 13bd 5567 6bbe 309c 19be
000003f0: 73f0 31be cae9 49bd f9bb 83bc 2614 c43d
-0.12235893 -0.024594896 -0.012600343 -0.09062673 -0.106429346 0.01667907 -0.06659688 -0.026018847
-0.020971647 0.016331755 -0.158542 -0.10885032 -0.04939389 -0.028968731 -0.011151285 0.036771733
0.09079523 0.071421854 0.058130715 -0.034719225 -0.18114614 -0.08112029 -0.036244523 -0.14170274
0.06598321 -0.11022727 -0.038383845 -0.13554348 -0.025958557 -0.042223483 -0.15735146 0.01684921
-0.06609117 0.052862354 0.045354422 -0.04230942 -0.013394332 0.11516315 -0.038350325 -0.041310057
-0.018019592 -0.03313355 -0.03777884 -0.002314991 -0.28693444 -0.07393454 -0.09885041 0.046891965
0.09765475 -0.17223594 -0.11731263 -0.08093027 -0.20271714 -0.04323291 0.060201965 -0.011739931
-0.097016774 -0.20915581 0.0752551 0.02819802 -0.012531608 -0.01723951 -0.090721615 -0.02932163
-0.08804885 0.008237995 0.052644234 0.13316351 -0.11065568 -0.078258656 -0.05692664 -0.040888518
0.0063439407 -0.13312246 -0.027427696 0.15636602 0.0376713 -0.08330065 0.04909724 0.006706745
0.11687518 0.04224409 0.017725684 -0.022047544 -0.016037999 0.010593955 -0.023815699 -0.15041183
-0.055425525 -0.024810204 -0.284043 -0.15522286 -0.009116654 0.011051148 -0.14248434 0.027104648
0.03113891 -0.10269035 -0.061669294 -0.0681575 -0.22095151 0.18586253 -0.1069529 -0.103564754
-0.024915606 0.18770415 -0.11845978 -0.042168383 0.11877722 0.06040244 -0.08320639 0.041882034
-0.06839878 -0.016368072 0.078068554 0.074428126 0.015223971 -0.12313904 -0.098939195 -0.14972821
-0.020195164 -0.09563818 -0.057065494 0.02785644 -0.13130236 0.053138632 -0.04664994 -0.030693583
-0.004064786 -0.04988898 -0.16755284 0.17105624 -0.0107557615 -0.019840125 -0.24114725 -0.071410075
0.026288042 -0.08186756 -0.05211547 -0.04739008 0.08097926 0.1550507 -0.03084213 0.039503258
-0.1298854 -0.053296648 -0.15780488 -0.008363918 0.017966036 -0.01975239 0.010983889 -0.03222203
-0.00481349 0.0046609784 0.024335917 0.032622695 0.049247157 -0.037926327 -0.028288659 0.07016489
-0.10338783 -0.22921118 -0.062019818 0.15948978 -0.022593144 -0.010924752 -0.09479608 -0.015396541
0.03285953 -0.09427826 -0.0032527922 -0.0341027 0.07795847 0.007302882 -0.040962607 -0.0926062
0.066951156 -0.13924436 0.024602415 0.054002922 -0.03308132 0.007918573 0.009285619 -0.09327425
-0.05420936 -0.14339684 0.08440229 -0.028935816 -0.1772697 0.12298836 0.14750177 0.017688455
-0.14616816 -0.037049107 -0.13607092 -0.04994433 -0.108051464 0.0449633 -0.059869304 -0.04871834
0.14326079 -0.12853095 0.016278313 0.05231627 -0.06335839 0.119283944 -0.16667674 0.0301436
-0.08718667 -0.067585796 0.17365041 -0.1267176 0.083185546 -0.014493308 0.103535555 0.104953706
-0.09235872 -0.005973992 -0.031385362 -0.011150764 -0.034705132 -0.15962319 0.033443462 -0.13695611
0.21574967 -0.045251574 -0.036849312 -0.007141178 -0.017590037 -0.024091495 0.009322907 -0.10601525
-0.20883879 -0.1253882 -0.069259346 -0.048967287 0.017007383 0.051246837 -0.007074432 -0.1128871
0.11951224 -0.19335294 0.16809596 -0.10031826 -0.096195765 0.043337513 -0.13976876 0.010723016
0.09154307 -0.035898447 -0.22988637 -0.15000987 -0.1737688 -0.049295224 -0.016080843 0.095741555

network_body._body_endoder.seq_layers.2.bias f4 [128]
00000000: 33e5 e8bc fae4 3cbd 148e 9dbd 15ac 203c
00000010: c3b6 92bd 94bd 84bd dfde 8abd eeb7 103d
00000020: 27cd 9fbc 0da8 44bc 93d7 1b3c faaf 53bd
00000030: 1ffe ddbc 7bb2 56bd 4136 07bd deff 7fbd
00000040: 27e0 55bd 8e43 92bd 2e1f 68bd 2f85 92bd
00000050: d9ae 3bbd 414c 29bd 01b3 b8bb c287 42bd
00000060: 3f1f a0bd 386f 37bd a10b 8fbc 2519 87bd
00000070: fb32 a1bd adcf 8abc 38f9 6abd fd20 5cbd
00000080: 4e35 60bd 4922 83bd 3fb5 0cbd 8591 adbc
00000090: b269 39bd 78e3 1cbd 30b0 87ba d3f0 8fbd
000000a0: 836a 79bd 5edd 85bd 463a ecbc 6f79 d7bc
000000b0: 94b7 4ebd 78d9 60bd 795f e1bc 6417 d53c
000000c0: cc12 20bd 9023 a0bd fbfa 1fbd 7eeb c1bd
000000d0: b644 d6bc 831f 7ebd 9fa4 f1bc c9fb 80bd
000000e0: 8640 febc 1ae5 12bd af12 5ebd a241 acbd
000000f0: 31af 0fbd 7b09 bfbc a573 69bd 4195 93bd
00000100: da3c 62bc ba1a 95bd b6cd 0bbc 773e b7bc
00000110: b298 2cbd 8d05 2ebc dabc 45bd 76a2 19bd
00000120: 5ce0 8ebd ab0c f9bc 8528 b4bc 8426 83bd
00000130: f92a 9e3b 384c 40bd c30a 15bd 63bf 1c3d
00000140: f9cd 72bc 1db0 4fbd 25c6 12bd 6180 19bd
00000150: 7c5c 48bd 3db6 53bd 2fcd 89bd 111a 28bd
00000160: e732 03bd a0d8 87bc b173 9abd d50b 4dbd
00000170: 3d75 fdbc 42a3 07bd 3c92 4abd 754c 5bbd
00000180: 2070 8ebc dbd2 b9bd f270 6739 0fbe 93bd
00000190: 5daf 8fbd 6d09 3dbd 7386 24bc 55e4 1cbd
000001a0: 64e0 2fbd 7f80 9fbd 0737 94bc 0765 72bd
000001b0: bf37 babd 3fd8 5cbd 1686 91bd 9e09 8abd
000001c0: 214c 36bd cb77 93bd 6529 37bd 655e 1ebd
000001d0: a123 96bc 0bdf 90bd b9a2 36bd da1d 40bd
000001e0: ce97 35bc f8ee b2bd 1869 85bd 9c7f 81bc
000001f0: 2cb4 66bc 7a24 a1bc b2c1 ddbc c7d2 60bd
-0.028429603 -0.046116807 -0.07693115 0.009806653 -0.07163765 -0.06481472 -0.067807905 0.03533166
-0.019507004 -0.012002957 0.009511846 -0.051681496 -0.027098713 -0.052416306 -0.033010725 -0.062499873
-0.05221572 -0.07141791 -0.05667036 -0.07154309 -0.045821045 -0.041332487 -0.0056365733 -0.04749275
-0.0781846 -0.0447838 -0.0174616 -0.06596593 -0.07871052 -0.01694473 -0.05736658 -0.053742398
-0.054738335 -0.06403024 -0.034352537 -0.021187553 -0.045266815 -0.03830287 -0.0010352191 -0.070283554
-0.060892593 -0.06536363 -0.02883638 -0.026303021 -0.050468042 -0.054894894 -0.027511345 0.02601213
-0.039080426 -0.07819283 -0.039057713 -0.09468745 -0.02615581 -0.06204177 -0.029497443 -0.06298024
-0.031036627 -0.03586302 -0.054217037 -0.08410956 -0.035079185 -0.02331995 -0.056995053 -0.07206202
-0.013808453 -0.07280488 -0.008532932 -0.022368653 -0.04213781 -0.010621441 -0.048275806 -0.03750845
-0.06976387 -0.030401548 -0.021991977 -0.06403831 0.0048269 -0.046947688 -0.036387216 0.038268458
-0.0148196155 -0.050705064 -0.035833497 -0.037475947 -0.048916325 -0.051687468 -0.06728589 -0.041040484
-0.032030966 -0.016582787 -0.07541598 -0.050060112 -0.030939693 -0.03311468 -0.049455866 -0.053539712
-0.01738745 -0.090734206 0.00022071952 -0.07213985 -0.0701587 -0.046151567 -0.010041821 -0.038303692
-0.042938605 -0.077881806 -0.018092645 -0.05917838 -0.09092664 -0.053917166 -0.07105653 -0.067401156
-0.044506196 -0.07200583 -0.04471721 -0.03866424 -0.018327536 -0.07073792 -0.04458878 -0.04690347
-0.011083556 -0.08736986 -0.06514186 -0.01580792 -0.014081042 -0.019670714 -0.0270699 -0.054888513

action_model._continuous_distribution.log_sigma f4 [1, 5]
00000000: 6486 fbbd 7596 5ebe 8d3c 66bd 8cfe acbd
00000010: da0a e33c
-0.12281492 -0.21737082 -0.05621009 -0.084469885 0.027715135

action_model._continuous_distribution.mu.weight f4 [5, 128]
00000000: a7af 04bd 215f debc e6fc c0bb 6c49 0f3c
00000010: ee1f 8e3b 9c98 68ba 7978 50bc 1af7 59bc
00000020: 9a5f 4b3c 92f7 aa3c b42a 23b8 5f4b 0bbc
00000030: 5bbe 43bc 02db 303c d3e5 633c b5b7 4cbc
00000040: a526 81bc 6359 90bb c51b d03b 4186 4ebc
00000050: 2af2 89bd a436 58bb f551 42bc 1493 39bc
00000060: 8d67 673a 65a9 efbc 0329 6639 a3cf 86bc
00000070: 76e7 3fbb fbed 64bd c5d0 133c 0d04 033b
00000080: 8e4a 94bc 31a3 1abd 6608 8f3b 1790 87bc
00000090: 5deb 543b fe88 f8bb ce7a b23c 912f 47bc
000000a0: d790 2cbc fade 203c 8744 26bd 24d2 4abd
000000b0: 7edd e6bc 5ff5 823c fcb9 ffbb 511e 9b39
000000c0: 9208 bdbc 281b 4a3c 62ba 82bc 18a8 89bc
000000d0: 51e5 083c d7bf a7bc fb76 8239 3f88 54bc
000000e0: 7b0e 1abd 21e9 3cbd e886 91bc beb5 8bbc
000000f0: ef08 43bc 7b2c 4cbd 6d12 f6bb 7191 2dbc
00000100: b17c 643c d590 323b 3e25 e2bc d933 233c
00000110: e521 fb3b 8ad4 d43c 3327 23bd 246f 43bd
00000120: 5e08 cd3b db83 aa3c 9125 e73b 9662 2ebd
00000130: 197f 09bd e00e 66bc 2ef3 43bd 7d00 823d
00000140: c228 7ebc 8149 8bbc f4fd 7cbc 617a a83b
00000150: 7e2f d0bc f307 f6ba d1d0 e3bc 2e00 09bd
00000160: 9472 e33c c23c 64bc 0f47 1dbc f4a7 883c
00000170: 1d6e af3c 433f 33bd d0db 6bbc 92bb a1bc
00000180: 3fde 143d 8029 eeb9 a1ca 10bd e7c1 9abc
00000190: 6d88 91bb 3d89 d43b 2d78 983c 2e03 c3bc
000001a0: 6b80 00bd ec65 40bb 4bab f7bc cb84 65bc
000001b0: ae2f e8ba 180f a6bc 3b79 dd3b 9eaf 99bc
000001c0: a99c 73bc 0a45 3dbc 57d2 e9bb 36fc b43c
000001d0: 3acd ebbb 3591 bb3c 916f 1f3a 2f10 cfbc
000001e0: 624e 69bb 0428 b73b 8bb5 3bbc e078 44bc
000001f0: 77e0 18bc 729a 09bc cd2a 963c 330c c6bc
00000200: 39be 2bbc 36f1 09bd c157 d9bb cfdf a73b
00000210: 93e9 56bc 3ec6 f33a ab9c 153c ccf3 c7bd
00000220: eec8 67bc 0e0b b9bd 5634 133d 65d3 af3c
00000230: bea7 cbbc a59b 2c3c bb18 533c 2cb9 17bd
00000240: 0fb3 07bd 25d6 55bc 634b 39bc 11f3 75bc
00000250: 00c1 77bc 70f7 37bc 516f ddbc 0e4f edbc
00000260: a80a 8bba 7304 f83c 8a1e 2f3c ddfe fbbb
00000270: 182f 00bd cc0c d53c e30f cdbc 15bb 2dbd
00000280: 7240 19bd 2d46 1fbd b375 2abd e45d 4cbb
00000290: 9987 ce3c c397 973b 46ce dfbd 2866 de3b
000002a0: 6928 0dbc 9d87 dcbc 1ddb 35bc fe5a 0a3c
000002b0: b851 d9ba 0629 973b e8c5 98bd a0f6 3bbd
000002c0: 6ee1 84bc 35a0 e2bc 4524 d9bb c697 f6bc
000002d0: a2df 04bd 87b5 3abc b633 b3bc a47e b7bb
000002e0: 2119 21bd f438 92bb 21b1 8d3c a663 13bc
000002f0: 9933 fd3a 6ecb 53bc 08aa dbbb 1b78 8a37
00000300: 5cf1 d3bd b9f7 35bc 300c d33b 42a6 123c
00000310: 4f64 89bc c758 d5bc 8cfa ee3c b5f8 d5bc
00000320: 59a1 623c 47bd 1cbd 4a18 b63c ac94 f6bb
00000330: 2d61 f03a a8a6 a93c 9c65 4fbc 9b53 ccbc
00000340: 5e43 1ebc 67ad 05bd 3375 85bd bb7a 7fbd
00000350: 2803 ecbc 149c 99bc ebf8 e1b9 e1cf bbbc
00000360: 0469 743c 706d 30bd bb4e 29bc 1dcd 013b
00000370: b26d 9bbd aa86 473d 45e0 83bc 23e3 28bc
00000380: 4790 11bd d789 80bc e697 44bc 447d 493b
00000390: 5da0 0abc adf2 2c3c 1ffd f9b9 8487 4cbc
000003a0: c83a c0bb 3015 96bb 02ac 243b 30ae efbc
000003b0: 37ab 32bc fa1e 19bc bf1e 85bc fac0 6abc
000003c0: 01cb bfbc a60e debb feb2 3a3c a2d2 2abd
000003d0: ed69 8bbc 2d04 af3b 51ee 093c 17e3 213b
000003e0: 84b9 42bc bac8 58bb af19 15bc 4009 ef3c
000003f0: e3ff 4ebd b8c9 abbd a630 89bd d645 dcbb
-0.032394078 -0.02714497 -0.005889523 0.0087455325 0.0043373024 -0.0008872838 -0.012724035 -0.0133035425
0.01241293 0.020870004 -3.8902e-05 -0.008501857 -0.01194724 0.010794403 0.013909775 -0.012494971
-0.015765497 -0.004405187 0.0063509666 -0.012605251 -0.06735642 -0.0032991553 -0.01186036 -0.01132657
0.0008827381 -0.029255578 0.00021949787 -0.01645643 -0.0029282249 -0.05589102 0.0090219425 0.0019991428
-0.018101957 -0.037753288 0.004365015 -0.0165482 0.003248892 -0.00758469 0.021787073 -0.012157337
-0.010532579 0.009818787 -0.040592697 -0.049516812 -0.028181788 0.015986143 -0.0078041535 0.0002958649
-0.023075376 0.012335576 -0.015958015 -0.016803786 0.008355455 -0.020477219 0.0002488418 -0.012971937
-0.037611466 -0.046120767 -0.017764524 -0.017054435 -0.011903985 -0.049847107 -0.0075095207 -0.010593758
0.013945744 0.002724697 -0.02760565 0.009961092 0.0076639527 0.025980253 -0.039832305 -0.047713414
0.006257101 0.020814827 0.007054039 -0.042574488 -0.033568475 -0.014041632 -0.047839336 0.063477494
-0.015512647 -0.017002823 -0.0154414065 0.005141542 -0.025413271 -0.001877068 -0.027809532 -0.033447437
0.027764596 -0.013930501 -0.009599461 0.016681649 0.02141481 -0.043761503 -0.014395669 -0.01974276
0.036344763 -0.00045425817 -0.035349492 -0.018891288 -0.004441312 0.0064860866 0.018611992 -0.023805227
-0.03137247 -0.0029357625 -0.030233046 -0.014008711 -0.0017714405 -0.02027087 0.0067588366 -0.018760499
-0.014868894 -0.011552105 -0.00713567 0.02209292 -0.007196096 0.022896389 0.00060819933 -0.025276272
-0.0035599698 0.005589487 -0.011456857 -0.0119917095 -0.00933086 -0.008398639 0.018330956 -0.024175739
-0.010482364 -0.033677302 -0.0066327755 0.0051231156 -0.013117212 0.001859851 0.009131591 -0.097632974
-0.014147026 -0.09035312 0.035938583 0.021463105 -0.02486026 0.010535155 0.012884314 -0.037041828
-0.033129748 -0.013051544 -0.0113094775 -0.015011565 -0.015121698 -0.011228427 -0.027030619 -0.02896836
-0.0010608034 0.030275559 0.010688433 -0.007690294 -0.031294912 0.026007079 -0.02503199 -0.042414743
-0.037414975 -0.038885284 -0.041616153 -0.0031183893 0.025211142 0.0046262457 -0.109280154 0.0067870803
-0.008615592 -0.026920134 -0.011099604 0.008444546 -0.001658014 0.0046130447 -0.074596226 -0.045889497
-0.016220775 -0.027664283 -0.006626638 -0.030101668 -0.032439835 -0.011395819 -0.021875244 -0.0055998135
-0.039330605 -0.0044623557 0.017296376 -0.008995926 0.0019317745 -0.012926919 -0.006703619 1.650681e-05
-0.1034877 -0.011106425 0.006440662 0.008950772 -0.016771464 -0.026043309 0.029172204 -0.02611957
0.013832414 -0.038266446 0.022228379 -0.0075250473 0.0018339508 0.02070935 -0.012658503 -0.02494221
-0.009659616 -0.032636072 -0.065164946 -0.062372904 -0.028810099 -0.018751182 -0.00043100803 -0.022926273
0.014917616 -0.043073118 -0.010333712 0.0019806095 -0.07589282 0.04871241 -0.016098151 -0.01030806
-0.035537984 -0.015690727 -0.011999106 0.003074483 -0.008461085 0.010555905 -0.0004768157 -0.012483481
-0.0058663823 -0.0045801625 0.0025126939 -0.029257864 -0.010905079 -0.009345764 -0.016250012 -0.014328236
-0.02341223 -0.0067766486 0.011395214 -0.04170478 -0.017018283 0.005341074 0.008418635 0.0024702006
-0.011885051 -0.0033078627 -0.009100362 0.029179215 -0.050537 -0.08388084 -0.06698732 -0.0067221923

action_model._continuous_distribution.mu.bias f4 [5]
00000000: 3da0 1dba f527 10bd cd59 96bd ec9b 503c
00000010: af81 e33a
-0.0006012952 -0.035194356 -0.07341347 0.012732487 0.0017357374

exp_avg f4 [128, 111]
00000000: 27fa b031 0000 0000 0000 0000 0400 0000
00000010: f0e1 32ac 4f08 c02f 25fd b031 0000 0000
00000020: 0000 0000 0400 0080 4efe f3ab 9736 b92f
00000030: 1efb b031 0000 0000 0000 0000 0400 0080
00000040: 8a63 e4ab 799a 922f 769f b131 0000 0000
00000050: 0000 0000 0400 0080 d987 a6ad ad57 cf2f
00000060: 85f6 b031 0000 0000 0000 0000 0400 0000
00000070: 889e 21ac 1c03 862f 2802 ab31 0000 0000
00000080: 0000 0000 0400 0000 3cab 382f de0f 842f
00000090: b5f6 b031 0000 0000 0000 0000 0400 0000
000000a0: fa25 23ac c735 902f aa56 ae31 0000 0000
000000b0: 0000 0000 0400 0000 407a a62e ac6b 832f
000000c0: c2e3 b031 0000 0000 0000 0000 0400 0000
000000d0: 650b 38aa d39b b82f cb5e 6b31 0000 0000
000000e0: 0000 0000 0400 0000 aea2 722e ead9 a62f
000000f0: 1599 b331 0000 0000 0000 0000 0400 0000
00000100: fcb0 adae 0567 942f 1ec6 4eb0 0000 0000
00000110: 0000 0000 0400 0000 dee4 0c32 07d5 c531
00000120: e497 0eb1 0000 0000 0000 0000 0400 0000
00000130: 412e f831 7a1f ea31 c297 00af 0000 0000
00000140: 0000 0000 0400 0080 e053 9b31 8513 aa31
00000150: 633a 0a2e 0000 0000 0000 0000 0400 0000
00000160: 8a56 af31 52b2 af31 0d8b 842e 0000 0000
00000170: 0000 0000 0400 0080 4461 ab31 9aa4 ac31
00000180: 0d8b 842e 0000 0000 0000 0000 0400 0080
00000190: 4461 ab31 9aa4 ac31 ce30 0ab5 0000 0000
000001a0: bea9 0432 25f0 14b5 b00c d6aa 5cd9 98b4
000001b0: 25f0 14b5 b00c d6aa 5cd9 98b4 7f68 2730
000001c0: 0000 0000 0000 0000 0400 0000 5916 132d
000001d0: 6379 0b2e 0f40 2730 0000 0000 0000 0000
000001e0: 0400 0000 fbab b92c 2051 6bad 5965 2730
000001f0: 0000 0000 0000 0000 0400 0000 6ecf e52c
00000200: b177 e72d acdb 1730 0000 0000 0000 0000
00000210: 0400 0000 dac5 8e2e 0154 902e c197 2730
00000220: 0000 0000 0000 0000 0400 0000 65a9 072d
00000230: 55a9 032e a69c 4330 0000 0000 0000 0000
00000240: 0400 0080 29d8 cdae 55ff 1430 88f4 2730
00000250: 0000 0000 0000 0000 0400 0080 b3ed e02c
00000260: db10 242e ee51 332f 0000 0000 0000 0000
00000270: 0400 0000 4b62 f92f 3e20 2730 66b6 2930
00000280: 0000 0000 0000 0000 0400 0080 9531 d921
00000290: 99e5 822e 0746 e42c 0000 0000 0000 0000
000002a0: 0400 0000 18a0 1830 d9ec 2330 16b6 2930
000002b0: 0000 0000 0000 0000 0400 0080 05ed 9527
000002c0: 5490 822f e874 032d 0000 0000 0000 0000
000002d0: 0400 0080 196a 2730 ac91 2730 8cb5 2930
000002e0: 0000 0000 0000 0000 0400 0080 fb2a 5828
000002f0: 9e28 e62f 3fc4 9b2e 0000 0000 0000 0000
00000300: 0400 0000 4aec 2a30 b383 3630 274b 2730
00000310: 0000 0000 0000 0000 0400 0000 704f 4b2d
00000320: 49c1 0f30 8e8e acae 0000 0000 0000 0000
00000330: 0400 0080 9a30 2b2f 4b12 c22f 8e8e acae
00000340: 0000 0000 0000 0000 0400 0080 9a30 2b2f
00000350: 4612 c22f 7e96 84b3 0000 0000 9791 7e30
00000360: 00d6 f031 d988 e6a6 9b6b 50b1 00d6 f031
00000370: d988 e6a6 9b6b 50b1 d00e a2b5 0000 0000
00000380: 0000 0000 0400 0080 f122 8232 2202 9035
00000390: a0c1 5fb5 0000 0000 0000 0000 0400 0000
000003a0: 2c2c bab3 386f cdb6 4027 9bb5 0000 0000
000003b0: 0000 0000 0400 0080 37c7 aab2 d2f4 1636
000003c0: ea99 2d38 0000 0000 0000 0000 0400 0000
000003d0: f0f4 46b8 1588 eab7 00cb a3b5 0000 0000
000003e0: 0000 0000 0400 0000 1b4f e832 8b17 a536
000003f0: a24e 3638 0000 0000 0000 0000 0400 0080
5.150713e-09 0.0 0.0 6e-45 -2.5420742e-12 3.49305e-10 5.1510534e-09 0.0
0.0 -6e-45 -1.7336772e-12 3.3690092e-10 5.150823e-09 0.0 0.0 -6e-45
-1.6228002e-12 2.6667005e-10 5.1695066e-09 0.0 0.0 -6e-45 -1.8932344e-11 3.7715378e-10
5.1503e-09 0.0 0.0 6e-45 -2.2967479e-12 2.4376667e-10 4.977e-09 0.0
0.0 6e-45 1.6795537e-10 2.4021934e-10 5.1503215e-09 0.0 0.0 6e-45
-2.3184774e-12 2.6231659e-10 5.073919e-09 0.0 0.0 6e-45 7.570522e-11 2.3905267e-10
5.1481672e-09 0.0 0.0 6e-45 -1.6346436e-13 3.3580125e-10 3.4250884e-09 0.0
0.0 6e-45 5.5168918e-11 3.035006e-10 5.226989e-09 0.0 0.0 6e-45
-7.898568e-11 2.6994243e-10 -7.5223905e-10 0.0 0.0 6e-45 8.201111e-09 5.757673e-09
-2.075006e-09 0.0 0.0 6e-45 7.2230084e-09 6.813875e-09 -1.1695447e-10 0.0
0.0 -6e-45 4.520629e-09 4.9498703e-09 3.1429425e-11 0.0 0.0 6e-45
5.1030087e-09 5.113443e-09 6.0273654e-11 0.0 0.0 -6e-45 4.987813e-09 5.024572e-09
6.0273654e-11 0.0 0.0 -6e-45 4.987813e-09 5.024572e-09 -5.1480026e-07 0.0
7.722006e-09 -5.548375e-07 -3.802284e-13 -2.8470356e-07 -5.548375e-07 -3.802284e-13 -2.8470356e-07 6.0902744e-10
0.0 0.0 6e-45 8.360945e-12 3.1712754e-11 6.084528e-10 0.0 0.0
6e-45 5.27711e-12 -1.3376217e-11 6.089827e-10 0.0 0.0 6e-45 6.5316008e-12
2.6314813e-11 5.524565e-10 0.0 0.0 6e-45 6.492558e-11 6.563284e-11 6.09699e-10
0.0 0.0 6e-45 7.711475e-12 2.993635e-11 7.11632e-10 0.0 0.0
-6e-45 -9.3607185e-11 5.4204935e-10 6.1101746e-10 0.0 0.0 -6e-45 6.392853e-12
3.7304253e-11 1.6309062e-10 0.0 0.0 6e-45 4.5362678e-10 6.0800065e-10 6.1741046e-10
0.0 0.0 -6e-45 1.4717616e-18 5.9525e-11 6.4879243e-12 0.0 0.0
6e-45 5.5524785e-10 5.9635635e-10 6.17406e-10 0.0 0.0 -6e-45 4.1612785e-15
2.3749414e-10 7.472446e-12 0.0 0.0 -6e-45 6.090502e-10 6.096126e-10 6.1739835e-10
0.0 0.0 -6e-45 1.19997286e-14 4.1865617e-10 7.083444e-11 0.0 0.0
6e-45 6.2181427e-10 6.639837e-10 6.0861044e-10 0.0 0.0 6e-45 1.1556853e-11
5.229777e-10 -7.846977e-11 0.0 0.0 -6e-45 1.5569626e-10 3.5301392e-10 -7.846977e-11
0.0 0.0 -6e-45 1.5569626e-10 3.5301378e-10 -6.1741034e-08 0.0 9.261156e-10
7.0092483e-09 -1.5996549e-15 -3.032915e-09 7.0092483e-09 -1.5996549e-15 -3.032915e-09 -1.2074252e-06 0.0
0.0 -6e-45 1.5149881e-08 1.0729457e-06 -8.3355735e-07 0.0 0.0 6e-45
-8.669335e-08 -6.1224237e-06 -1.1559823e-06 0.0 0.0 -6e-45 -1.9881197e-08 2.2494246e-06
4.1389758e-05 0.0 0.0 6e-45 -4.7434994e-05 -2.7958342e-05 -1.2203527e-06 0.0
0.0 6e-45 2.7044328e-08 4.920124e-06 4.3465414e-05 0.0 0.0 -6e-45

exp_avg_sq f4 [128, 111]
00000000: 4122 1c27 0000 0000 0000 0000 bcf0 ee18
00000010: e04d 4b26 4619 f226 7da7 8a27 0000 0000
00000020: 0000 0000 7842 7d17 4914 e525 5530 f826
00000030: 48d1 5927 0000 0000 0000 0000 5cce bd18
00000040: d184 9a26 c79d f526 7924 8627 0000 0000
00000050: 0000 0000 632d a215 dc45 2e26 1914 eb26
00000060: ac27 4727 0000 0000 0000 0000 32b0 fa15
00000070: 9f1a e226 95aa 1027 0b9b 7b27 0000 0000
00000080: 0000 0000 8fa8 1314 a294 4026 b9bb d626
00000090: 9840 3627 0000 0000 0000 0000 dd01 9f14
000000a0: 4121 0027 c2dd 2f27 1a4c 7327 0000 0000
000000b0: 0000 0000 adbe 1014 36b9 7f26 c680 3027
000000c0: a4f1 3f27 0000 0000 0000 0000 103f 9e14
000000d0: 2efc e926 1c06 2627 6685 2627 0000 0000
000000e0: 0000 0000 0878 d214 01a7 0f27 b054 2c27
000000f0: fbc7 5f27 0000 0000 0000 0000 bd61 5d15
00000100: 570c 9e26 5a7a 2327 aa66 0c27 0000 0000
00000110: 0000 0000 023f 2d16 4b14 2127 c197 2f27
00000120: a4d6 7127 0000 0000 0000 0000 b011 7315
00000130: a762 9526 2645 4827 853d 2e27 0000 0000
00000140: 0000 0000 93d7 d516 8b7d 0427 74e2 2727
00000150: 361c 3527 0000 0000 0000 0000 72d4 c515
00000160: e8ae 0227 b2d8 4027 2f1b 3d27 0000 0000
00000170: 0000 0000 dcd4 5316 7ee3 e126 336d 3027
00000180: 2f1b 3d27 0000 0000 0000 0000 dcd4 5316
00000190: 7ee3 e126 336d 3027 3373 3f2e 0000 0000
000001a0: 367c 3028 419f 3c2b 87f4 eb16 036c 762a
000001b0: 419f 3c2b 87f4 eb16 036c 762a f2a7 fd27
000001c0: 0000 0000 0000 0000 2070 d813 81ba 7b29
000001d0: 00a1 8529 ffdc 8528 0000 0000 0000 0000
000001e0: b16b ab13 b2b5 5729 9a81 7929 6432 3627
000001f0: 0000 0000 0000 0000 2420 b913 4764 9229
00000200: 5bb8 9329 b96b 8829 0000 0000 0000 0000
00000210: 53e5 6413 d7c0 8327 d28d 2229 dfc8 2627
00000220: 0000 0000 0000 0000 daa5 b715 e1ea 6229
00000230: ee08 6e29 d8aa 8829 0000 0000 0000 0000
00000240: b12a a50e 8f54 cb25 2852 ab28 7f82 6c27
00000250: 0000 0000 0000 0000 3e46 5617 0402 8b29
00000260: 9c7c 8d29 48c5 8e29 0000 0000 0000 0000
00000270: e1b3 930f 6b4e 9726 bf3c 7428 7337 4d29
00000280: 0000 0000 0000 0000 bb55 8117 d264 d028
00000290: b357 0c29 eab6 8f29 0000 0000 0000 0000
000002a0: 2589 8b17 4e88 0127 9d66 8a27 1702 8329
000002b0: 0000 0000 0000 0000 b361 9f17 aca2 cc27
000002c0: 35a0 3428 408d 8f29 0000 0000 0000 0000
000002d0: 297e eb17 d988 0327 664d 2627 6c18 8829
000002e0: 0000 0000 0000 0000 b2e3 0718 dd49 a427
000002f0: 4c44 e227 9979 8e29 0000 0000 0000 0000
00000300: 8656 3518 6f72 ee26 f328 1b27 1fd6 8e29
00000310: 0000 0000 0000 0000 ae60 e317 00a1 8626
00000320: 7bbf 1427 69c1 8c29 0000 0000 0000 0000
00000330: bcd0 5b18 bcc3 ec26 986a 1e27 69c1 8c29
00000340: 0000 0000 0000 0000 bcd0 5b18 bcc3 ec26
00000350: 986a 1e27 4d17 3430 0000 0000 3dfa 252a
00000360: b9a1 012d 8479 6a19 f16c 432c b9a1 012d
00000370: 8479 6a19 f16c 432c 48f9 9834 0000 0000
00000380: 0000 0000 d236 d01e 816c 2233 ce57 b233
00000390: d1cc a034 0000 0000 0000 0000 e516 9c1d
000003a0: 75ae 2733 2faa 0734 9d87 a034 0000 0000
000003b0: 0000 0000 513f 361e 2103 2233 173b 9733
000003c0: 7111 7f34 0000 0000 0000 0000 c568 191d
000003d0: dceb b933 a4e0 3f34 462d 9d34 0000 0000
000003e0: 0000 0000 cb7f 041c 40d7 6c33 2825 af33
000003f0: cbef 3534 0000 0000 0000 0000 6929 8817
2.1667918e-15 0.0 0.0 6.1764638e-24 7.0535313e-16 1.6798974e-15 3.8484286e-15 0.0
0.0 8.1832604e-25 3.9738913e-16 1.7221557e-15 3.0228251e-15 0.0 0.0 4.9063725e-24
1.0721897e-15 1.7043056e-15 3.7232015e-15 0.0 0.0 6.5502887e-26 6.0463054e-16 1.6311848e-15
2.7638304e-15 0.0 0.0 1.0125218e-25 1.5689116e-15 2.0076487e-15 3.4917296e-15 0.0
0.0 7.454846e-27 6.6814817e-16 1.4900115e-15 2.529259e-15 0.0 0.0 1.6055632e-26
1.7781595e-15 2.4406344e-15 3.376428e-15 0.0 0.0 7.307746e-27 8.8721905e-16 2.4494715e-15
2.6637568e-15 0.0 0.0 1.5978797e-26 1.6235976e-15 2.304044e-15 2.3109443e-15 0.0
0.0 2.1251925e-26 1.993577e-15 2.3915704e-15 3.1055876e-15 0.0 0.0 4.4707696e-26
1.0966797e-15 2.268712e-15 1.9484557e-15 0.0 0.0 1.399471e-25 2.235424e-15 2.4368395e-15
3.3561826e-15 0.0 0.0 4.9087412e-26 1.0365692e-15 2.779306e-15 2.41807e-15 0.0
0.0 3.4548052e-25 1.8386737e-15 2.3298666e-15 2.513409e-15 0.0 0.0 7.9902846e-26
1.813594e-15 2.6762823e-15 2.6243755e-15 0.0 0.0 1.7111611e-25 1.5674173e-15 2.4484104e-15
2.6243755e-15 0.0 0.0 1.7111611e-25 1.5674173e-15 2.4484104e-15 4.353069e-11 0.0
9.7968966e-15 6.7012026e-13 3.8120616e-25 2.1886663e-13 6.7012026e-13 3.8120616e-25 2.1886663e-13 7.0403693e-15
0.0 0.0 5.463663e-27 5.5894962e-14 5.9343155e-14 1.4861808e-14 0.0 0.0
4.327266e-27 4.7897186e-14 5.5401518e-14 2.528489e-15 0.0 0.0 4.673226e-27 6.501098e-14
6.560092e-14 6.0583e-14 0.0 0.0 2.8890711e-27 3.656888e-15 3.6094236e-14 2.314602e-15
0.0 0.0 7.417478e-26 5.0385806e-14 5.285436e-14 6.06925e-14 0.0 0.0
4.071675e-30 3.5272186e-16 1.9020443e-14 3.2822321e-15 0.0 0.0 6.9235787e-25 6.17319e-14
6.283274e-14 6.3402896e-14 0.0 0.0 1.4564606e-29 1.0498985e-15 1.3557893e-14 4.556724e-14
0.0 0.0 8.358071e-25 2.3136363e-14 3.116231e-14 6.382206e-14 0.0 0.0
9.017285e-25 1.7976237e-15 3.841395e-15 5.817931e-14 0.0 0.0 1.0299797e-24 5.6797743e-15
1.0026747e-14 6.374979e-14 0.0 0.0 1.5218366e-24 1.8254087e-15 2.3079086e-15 6.04385e-14
0.0 0.0 1.7563298e-24 4.5599227e-15 6.280165e-15 6.3271606e-14 0.0 0.0
2.3437385e-24 1.6545585e-15 2.153277e-15 6.343211e-14 0.0 0.0 1.4693937e-24 9.341757e-16
2.0642928e-15 6.2508e-14 0.0 0.0 2.841047e-24 1.6428844e-15 2.198469e-15 6.2508e-14
0.0 0.0 2.841047e-24 1.6428844e-15 2.198469e-15 6.551673e-10 0.0 1.4741763e-13
7.368711e-12 1.2122056e-23 2.7771641e-12 7.368711e-12 1.2122056e-23 2.7771641e-12 2.8493582e-07 0.0
0.0 2.204553e-20 3.7817248e-08 8.3047425e-08 2.9951346e-07 0.0 0.0 4.131653e-21
3.9041385e-08 1.2634767e-07 2.9900994e-07 0.0 0.0 9.648093e-21 3.772141e-08 7.042234e-08
2.3755071e-07 0.0 0.0 2.0303546e-21 8.6576364e-08 1.7869985e-07 2.927647e-07 0.0
0.0 4.3840305e-22 5.51438e-08 8.155831e-08 1.6944175e-07 0.0 0.0 8.799247e-25

exp_avg f4 [128]
00000000: 51e2 b031 66b6 2930 e029 a0b5 cc18 f531
00000010: 4191 0438 0830 5635 25a0 cdb8 571f c5ac
00000020: 7891 47b9 3bb5 d0b7 91ff c6b6 781b 9e33
00000030: caf3 4e33 b4d4 e6b7 3b19 67b8 c674 e2b0
00000040: 9e9d 6faf bd6f 0537 29a6 50ae 76be bab5
00000050: f21d 0236 af7b 3931 06c7 84b7 3b57 35b8
00000060: 2b99 e234 de1c ddb7 12ea 1331 9944 4e38
00000070: 621a 9baf d2f5 6f31 77ea e8b7 0bcf 29b2
00000080: 1daf 14b8 12cb 0637 b22b 89b4 7c93 06ae
00000090: 2e9e 9835 486d 75b7 bb49 0db7 2e8a 25a6
000000a0: b7b2 0238 7a1f af38 32c6 83b8 b1fb d9b8
000000b0: 1681 1ab7 e733 73b9 d5f0 7d35 239a 16b9
000000c0: 8cc6 a4b8 68d7 d7b4 6686 b1b0 c0a8 2f38
000000d0: f038 b7ad 6d37 932c c6e4 e036 a17e efaf
000000e0: 81f0 71ad eefe c32d 246f 9c38 bdb3 b3af
000000f0: 768e adb6 eb88 a7ae b638 9c2f 6267 0cb3
00000100: 4e48 91b8 be8f 3aab fe47 e8b8 badb 57b0
00000110: 4cc0 4d2f 3715 78a9 ca02 9038 b09e d9b8
00000120: 966a 352d a2fd 2cb8 abe8 7d2a 6dd3 1cad
00000130: 479c d7b2 2833 f1ab d2f2 4237 5737 c035
00000140: f9f3 fa34 6c3d ec2e 8c9a 91b6 2ed4 c837
00000150: 363c 372b 6a15 7cb8 5aa4 db38 8a52 382e
00000160: e1af 1d37 d429 34ae 42cc 38b8 58e9 dc34
00000170: 9921 f736 5d7d 3db9 3706 eeaa 1a19 3eb1
00000180: 77aa 812d f042 c7af d74e 1bb9 c029 55b1
00000190: f853 4caf 72dd a7b8 7550 52b8 a6fc d2b8
000001a0: 08c9 45b0 e897 71b7 b812 3c36 4836 0bb8
000001b0: 24b8 aab1 224c 0c39 a99a 6f26 0e64 ae33
000001c0: 9965 1638 8945 2339 ce57 f3aa eb4c 8830
000001d0: 8e5c 3cb5 4be7 c631 ea66 08b0 84a8 09b7
000001e0: 2f12 a8ad 0e8d 5434 3c30 6438 c871 6bb8
000001f0: 594d 0cb8 6161 3a38 d39d 4eb8 7590 0338
5.1480034e-09 6.1741046e-10 -1.1933116e-06 7.1332575e-09 3.160653e-05 7.9791107e-07 -9.804991e-05 -5.602556e-12
-0.0001903231 -2.4879924e-05 -5.9306117e-06 7.362445e-08 4.8184837e-08 -2.7517184e-05 -5.509819e-05 -1.6476853e-09
-2.179292e-10 7.953434e-06 -4.7441304e-11 -1.3913511e-06 1.938894e-06 2.699135e-09 -1.5828304e-05 -4.3235003e-05
4.2207225e-07 -2.6358695e-05 2.152437e-09 4.9178114e-05 -2.8213082e-10 3.491881e-09 -2.7765736e-05 -9.884171e-09
-3.5449037e-05 8.034303e-06 -2.555003e-07 -3.0599065e-11 1.1370919e-06 -1.4628582e-05 -8.421422e-06 -5.7433143e-16
3.1160856e-05 8.350513e-05 -6.2834835e-05 -0.000103942475 -9.2091705e-06 -0.00023193621 9.46003e-07 -0.00014362535
-7.8571116e-05 -4.02036e-07 -1.2916643e-09 4.1880412e-05 -2.0829977e-11 4.184145e-12 6.702353e-06 -4.3563822e-10
-1.37526665e-11 2.2282145e-11 7.459361e-05 -3.2687622e-10 -5.1723864e-06 -7.618602e-11 2.841653e-10 -3.2690316e-08
-6.9276066e-05 -6.6279957e-13 -0.00011076032 -7.8528795e-10 1.8712959e-10 -5.5085463e-14 6.8669746e-05 -0.00010376924
1.0312326e-11 -4.124421e-05 2.2551637e-13 -8.914519e-12 -2.5100361e-08 -1.7138279e-12 1.1619837e-05 1.4321221e-06
4.6743642e-07 1.0742948e-10 -4.3393284e-06 2.3940662e-05 6.509822e-13 -6.0101425e-05 0.000104733466 4.1910066e-11
9.398879e-06 -4.0964412e-11 -4.405925e-05 4.1147973e-07 7.365085e-06 -0.00018071146 -4.2281605e-13 -2.7662908e-09
1.4741304e-11 -3.624545e-10 -0.00014811322 -3.1019312e-09 -1.8583524e-10 -8.004428e-05 -5.0142833e-05 -0.0001006064
-7.1953865e-10 -1.4400088e-05 2.8025079e-06 -3.3190736e-05 -4.9685855e-09 0.00013379802 8.3129386e-16 8.120706e-08
3.5857407e-05 0.00015570795 -4.3226398e-13 9.917164e-10 -7.017014e-07 5.7888534e-09 -4.962276e-10 -8.205072e-06
-1.9107464e-11 1.9795354e-07 5.4404358e-05 -5.6134333e-05 -3.3450637e-05 4.4436547e-05 -4.9261213e-05 3.136737e-05

exp_avg_sq f4 [128]
00000000: 0ed6 9c27 de87 9329 b993 bc34 1b00 9727
00000010: ccf1 9d32 f2d7 8334 d02a 5136 8d51 521f
00000020: 235b 8735 7d4b 9035 ea8d 3135 4412 042c
00000030: e6a0 1331 1a7f f034 4f00 2a36 0614 3b28
00000040: 345c 3c28 445a 0434 380d b021 52ed b335
00000050: f718 9335 8e9b 9c29 8091 d933 03f5 1b33
00000060: 2ca6 6a30 12ce 8535 c511 472c 286f bb35
00000070: f170 ad22 79e7 eb2a 1bce e333 c8f2 4628
00000080: 9081 a532 c0e5 9c35 340e 5a32 d798 4023
00000090: 21df 3034 37fc bf35 4438 c431 7023 891d
000000a0: 66b3 e934 7ad4 0436 f712 ca34 a317 f134
000000b0: a8a0 1036 e1d1 e035 a551 b033 6956 2036
000000c0: 2b4b 9435 acab cc30 82dd d828 049a 5e35
000000d0: be37 0226 295b 0820 53d8 8933 db8f 3527
000000e0: ed53 1e20 c9a8 0823 e5e8 fb33 3636 0825
000000f0: d3a6 e035 c59b 4c27 1cc4 0025 f8df c230
00000100: eb06 6f35 9ea4 8f1f d625 f935 d9ed 4b2c
00000110: 79b3 c023 8b61 0a1f 11ee b634 3b96 fa33
00000120: 9718 2e25 89e5 0235 e504 0521 db30 8222
00000130: 374e 6c31 ceeb 111e 50dd eb35 c902 202f
00000140: c2d3 2c33 d2d7 5e26 d22a 4a33 d776 1034
00000150: 321d a020 b511 d836 724c ba35 7167 a921
00000160: eee7 3634 7a6c 8724 6a97 8f35 aee4 d62d
00000170: 7ac9 d234 6ed3 0936 a819 771e e74f 852b
00000180: 2c8a 4227 faa2 db27 1faa 3934 ee78 9d30
00000190: 5eae 0129 bfd1 5435 f0c7 2935 dbad a035
000001a0: 3398 d526 ee35 6f30 f6b0 b634 a0ab 1634
000001b0: 2dbe b026 4de0 3c35 c5d7 ad1e cbd2 9730
000001c0: be29 c335 c96c 2f36 ecf7 b122 d615 3926
000001d0: 1948 c634 ac7a cc2b eaf2 c729 77fb 3835
000001e0: 698d 5523 c960 982c aff3 3135 8dab 4436
000001f0: a47b 6c36 92b0 4035 236f 0036 0aa6 ea34
4.3530777e-15 6.5516806e-14 3.512521e-07 4.1911034e-15 1.8387162e-08 2.4557772e-07 3.1168347e-06 4.4536687e-20
1.0084808e-06 1.0750806e-06 6.614415e-07 1.8768468e-12 2.1482776e-09 4.4795962e-07 2.5332154e-06 1.0384927e-14
1.045609e-14 1.2326296e-07 1.1929723e-18 1.3405609e-06 1.0959619e-06 6.954776e-14 1.0131316e-07 3.6311587e-08
8.536485e-10 9.969247e-07 2.8289465e-12 1.3964936e-06 4.7011325e-18 4.1905002e-13 1.06080016e-07 1.1043853e-14
1.9267446e-08 1.1689772e-06 1.26924995e-08 1.0440706e-17 1.6472451e-07 1.4304013e-06 5.7107474e-09 3.630024e-21
4.3530162e-07 1.979321e-06 3.763923e-07 4.4906946e-07 2.1551186e-06 1.6750383e-06 8.21049e-08 2.3892155e-06
1.1048736e-06 1.4891746e-09 2.4076881e-14 8.2925567e-07 4.5178355e-16 1.154981e-19 6.418909e-08 2.519678e-15
1.3410889e-19 7.4083164e-18 1.17304616e-07 1.1814487e-16 1.6737853e-06 2.839513e-15 1.1168675e-16 1.4179014e-09
8.9044505e-07 6.083519e-20 1.8562957e-06 2.8980067e-12 2.0892691e-17 2.9303322e-20 3.4073358e-07 1.1668859e-07
1.5100426e-16 4.876279e-07 4.506863e-19 3.52883e-18 3.438698e-09 7.724999e-21 1.7573275e-06 1.4552905e-10
4.0239463e-08 7.7314213e-16 4.7070735e-08 1.3454279e-07 2.7124374e-19 6.439363e-06 1.3880328e-06 1.1479266e-18
1.7034446e-07 5.8730684e-17 1.0698398e-06 2.4430537e-11 3.9262142e-07 2.053766e-06 1.3081377e-20 9.472396e-13
2.6997811e-15 6.096141e-15 1.7291357e-07 1.1457624e-09 2.8794993e-14 7.9281375e-07 6.3248353e-07 1.1971528e-06
1.4821098e-15 8.702433e-10 3.4028898e-07 1.4032275e-07 1.2264e-15 7.036186e-07 1.8406328e-20 1.1046607e-09
1.4540781e-06 2.6140353e-06 4.8238444e-18 6.421436e-16 3.6932832e-07 1.452912e-12 8.879514e-14 6.891127e-07
1.1576698e-17 4.330845e-12 6.6292245e-07 2.9306132e-06 3.5238709e-06 7.178252e-07 1.9138176e-06 4.3706706e-07
