results/TankLearningAI_timePunished/TankLearningAI/TankLearningAI-455825.onnx (onnx, 79158 bytes, 7 tensors)

network_body._body_endoder.seq_layers.0.weight f4 [128, 14]
0	0xbd8a5593	-0.06754603
1	0x3d277256	0.040880524
2	0x3dd86269	0.10565645
3	0xbe456160	-0.19275427
4	0xbcc179f3	-0.02361772
5	0xbe2d5fb0	-0.16931033
6	0xbd9972b7	-0.07492583
7	0x3da8ee8c	0.08248624
8	0x3e274bb7	0.16337477
9	0x3e9f21d3	0.31080493
10	0xbe9e226e	-0.30885643
11	0xbebec45e	-0.3725919
12	0xbc99e0d1	-0.018783959
13	0xbe10cd18	-0.14140737
14	0x3d67f922	0.056634076
15	0x3e9a6b8e	0.30160183
16	0x3e3da5ce	0.1852028
17	0xbd57e435	-0.05270787
18	0xbeb7335a	-0.35781366
19	0xbcc21bd6	-0.023694914
20	0x3ea80fc2	0.32824522
21	0xbdf20590	-0.11817467
22	0xbe39edcf	-0.18157123
23	0x3deeb42d	0.116554596
24	0x3db5e9c3	0.08882477
25	0xbec04800	-0.37554932
26	0xbe434a06	-0.19071206
27	0x3e061c78	0.13096797
28	0xbd72b9f3	-0.059259366
29	0xbd9424de	-0.07233594
30	0xbeb0df41	-0.3454533
31	0x3d5b1885	0.05349018
32	0x3db2bf53	0.087278984
33	0x3e5f165b	0.21785872
34	0x3ecf2bac	0.40463006
35	0x3ed03eae	0.4067282
36	0x3e4d47d7	0.20046936
37	0xbec95467	-0.39322206
38	0xbe00a351	-0.125623
39	0x3ea9d9e8	0.33174062
40	0xbc67eee0	-0.014156073
41	0x3de2a55b	0.11066695
42	0xbd39fda7	-0.045407917
43	0xbe6abd09	-0.22923674
44	0xbec80969	-0.3906968
45	0xbe93ace3	-0.2884284
46	0x3e0d5669	0.13802494
47	0x3e63ed19	0.22258414
48	0x3e375d0a	0.17906585
49	0x3ea8c5f8	0.32963538
50	0xbd89f041	-0.06735278
51	0xbd186125	-0.03720202
52	0xbea445a3	-0.3208438
53	0x3f162330	0.5864744
54	0x3e323cee	0.17406055
55	0x3e111a96	0.14170298
56	0x3ced8305	0.028993139
57	0xbddcdab8	-0.10783905
58	0x3ec796ea	0.38982326
59	0xbc33fe50	-0.010985926
60	0x3efa6fa7	0.4891331
61	0x3de762dc	0.11298153
62	0x3e2e00ea	0.16992536
63	0xbd922da1	-0.07137609
64	0x3e4fe5ef	0.20302556
65	0xbd90083f	-0.07032823
66	0x3d1649a1	0.03669131
67	0xbd609131	-0.054825965
68	0x3e4b12f9	0.19831456
69	0xbdd9f34f	-0.106421106
70	0xbd937d26	-0.072016045
71	0xbeabe5ca	-0.33573753
72	0x3e1f8039	0.15576257
73	0xbe593675	-0.2121218
74	0xbdada709	-0.08479125
75	0x3f4ef9a1	0.80849653
76	0xbe791a17	-0.24326359
77	0x3e830515	0.25589815
78	0x3e7a3c5a	0.24437085
79	0x3e5435de	0.20723674
80	0x3ea7658d	0.32694665
81	0xbafcae2b	-0.001927798
82	0x3e03385d	0.1281447
83	0xbc60071e	-0.013673572
84	0x3cc10acb	0.023564717
85	0xbe9faba1	-0.3118563
86	0x3ec1108e	0.37707943
87	0xbd30efac	-0.04319732
88	0x3d2a2267	0.041536715
89	0xbeb5b044	-0.35486042
90	0x3f1968cc	0.5992553
91	0xbf348d87	-0.70528454
92	0x3eb8c895	0.36090532
93	0xbf03ef2b	-0.51536816
94	0xbe45f246	-0.19330701
95	0xbead4903	-0.33844766
96	0xbf4601b1	-0.7734633
97	0xbf054fb4	-0.5207474
98	0xbdf1984c	-0.117966264
99	0x3e09af3b	0.13445751
100	0xbeabf089	-0.3358195
101	0x3dc3266b	0.09528812
102	0x3d55de2f	0.052213844
103	0xbe82aaf6	-0.25521058
104	0x3c852254	0.01625172
105	0xbd7bab27	-0.06144252
106	0x3e25ae49	0.16179766
107	0x3df763a0	0.12079549
108	0x3e7fc5e9	0.2497784
109	0x3e8f9f42	0.28051192
110	0x3e6342da	0.2219347
111	0xbae36503	-0.001734883
112	0x3d3f7aff	0.046748158
113	0x3e407a43	0.18796639
114	0xbdfc252d	-0.12311778
115	0x3dc87784	0.09788421
116	0x3e9ae124	0.30249894
117	0x3dedbae2	0.11607911
118	0x3e087d8c	0.13329142
119	0x3e9aa469	0.3020356
120	0x3e75e4cc	0.2401306
121	0xbb90d04a	-0.0044193612
122	0x3d2f9422	0.04286588
123	0x3ef291b4	0.47376788
124	0x3e5f21f1	0.21790291
125	0xbe1d590b	-0.15365998
126	0x3c29d14f	0.010364844
127	0xbe474293	-0.1945899
128	0x3e46a1bf	0.19397639
129	0x3d7f2f2f	0.062300857
130	0xbdbdd93d	-0.092699505
131	0xbe7471f7	-0.23871599
132	0x3e9cddc3	0.3063794
133	0x3ecf6814	0.40509093
134	0xbe6d2ff3	-0.23162822
135	0xbde27d88	-0.110590994
136	0xbefe95b5	-0.49723592
137	0xbe6c6055	-0.23083623
138	0xbd859c61	-0.065239675
139	0xbd646077	-0.05575606
140	0xbec2ae9c	-0.3802384
141	0xbd8050ea	-0.06265433
142	0x3ce64d8a	0.028113145
143	0xbee62660	-0.44951153
144	0x3ee52b33	0.4475952
145	0x3e6a4754	0.22878772
146	0xbe54eade	-0.2079272
147	0x3de1c4cb	0.110238634
148	0xbb956f1c	-0.0045603644
149	0xbd495a49	-0.04915837
150	0x3e88f5da	0.2675007
151	0x3ed85a51	0.42256406
152	0xbecc9129	-0.39954498
153	0x3d984a36	0.074360296
154	0xbdb1e63e	-0.08686493
155	0xbf103f05	-0.5634616
156	0x3e473fc3	0.19457917
157	0x3e539b85	0.20664795
158	0xbdbac699	-0.09119911
159	0xbe119237	-0.14215933
160	0xbdefcf62	-0.11709477
161	0xbe6381bd	-0.2221746
162	0xbe4c5113	-0.19952802
163	0xbd4d9d8b	-0.050199073
164	0xbef0f9e9	-0.47065666
165	0x3f000a83	0.5001604
166	0xbccd2af8	-0.025044903
167	0xbd6814c9	-0.056660447
168	0xbe09425a	-0.13404217
169	0x3da9f5bb	0.082988225
170	0x3e452e97	0.19256054
171	0xbd8173a6	-0.06320886
172	0xbdc5f8ae	-0.096665725
173	0x3dbe72a0	0.09299207
174	0xbe11cf2a	-0.14239183
175	0x3daa80f6	0.083253786
176	0x3f16a266	0.5884155
177	0xbccf37f7	-0.02529524
178	0x3df7a13b	0.12091299
179	0xbec15f90	-0.3776822
180	0xbd098cb7	-0.03358146
181	0xbd9759a8	-0.073901474
182	0x3ebbe436	0.3669755
183	0x3e4a7135	0.19769748
184	0xbd00bc35	-0.03142949
185	0x3e81b20c	0.2533115
186	0xbd556730	-0.05210036
187	0xbcb16c08	-0.021657959
188	0x3f0472b8	0.51737547
189	0xbe31e208	-0.1737138
190	0xbe895489	-0.26822308
191	0xbeb6e05d	-0.3571805
192	0x3e186835	0.14883502
193	0xbe7623bd	-0.2403707
194	0x3e262595	0.16225274
195	0x3e91345d	0.28360263
196	0xbdf6d1a9	-0.12051708
197	0xbe8be174	-0.27320445
198	0x3f306294	0.6890042
199	0x3ee9fcbb	0.4570063
200	0x3f00c74c	0.503041
201	0xbf14e55b	-0.5816247
202	0x3dfa95cc	0.12235603
203	0xbe91c008	-0.2846682
204	0xbf06aff6	-0.52612245
205	0x3e9b3029	0.3031018
206	0xbe33189a	-0.17489854
207	0xbec8c329	-0.39211395
208	0x3d7a30d1	0.06108171
209	0x3df5b266	0.119969174
210	0x3da5a044	0.08087209
211	0x3d838e53	0.064236306
212	0xbe8200d3	-0.25391254
213	0xbbbc5945	-0.0057479464
214	0xbeac0807	-0.33599874
215	0x3e1d5ce5	0.15367468
216	0x3e45e558	0.19325769
217	0xbdaeb1ba	-0.085299924
218	0x3f0cb8f2	0.54969704
219	0x3e665df3	0.22496776
220	0xbe2db8c1	-0.1696501
221	0xbdaf5413	-0.08560958
222	0xbaea55cd	-0.0017878354
223	0x3e513e7e	0.20433995
224	0xbedc63f1	-0.43045
225	0x3c606fba	0.013698513
226	0xbe829f78	-0.2551229
227	0xbef9637c	-0.48708713
228	0xbe5b9ba6	-0.21446094
229	0xbede25fa	-0.4338835
230	0xbe67fe5b	-0.22655623
231	0xbe3d434d	-0.18482704
232	0xbf4553db	-0.7708108
233	0x3ee93d5f	0.45554635
234	0xbe42db98	-0.19029081
235	0xbf109b2e	-0.56486785
236	0x3bce11c8	0.006288741
237	0xbc053a63	-0.008131596
238	0xbe7b9eec	-0.24572343
239	0xbdbceca3	-0.09224822
240	0x3d5d2c24	0.053997174
241	0xbe02f9ca	-0.127906
242	0xbd610e7e	-0.05494546
243	0x3d363e18	0.04449281
244	0xbcafcb5d	-0.021459276
245	0xbec3444a	-0.38138038
246	0x3e57370a	0.2101709
247	0x3e9bbb60	0.30416393
248	0xbdfc86be	-0.123303875
249	0x3e3aa605	0.18227394
250	0xbe870b23	-0.26375684
251	0xbd5f65d0	-0.054540455
252	0xbe9f95df	-0.3116903
253	0xbeaad348	-0.3336432
254	0x3da7b6c2	0.08189155
255	0x3e34bd39	0.17650308

network_body._body_endoder.seq_layers.0.bias f4 [128]
0	0xbd83c56a	-0.06434138
1	0xbdb92fe4	-0.090423375
2	0x3cd08c17	0.025457425
3	0xbc687ae4	-0.014189456
4	0xbc985319	-0.018594312
5	0xbd40ea52	-0.047098465
6	0xbb8a8daa	-0.0042283135
7	0xbd212094	-0.03933771
8	0x3d0bd481	0.034138206
9	0xbcd405fd	-0.025881762
10	0xbdba826b	-0.091069065
11	0xbd985bfd	-0.0743942
12	0xbd54c755	-0.05194791
13	0x3d20dd7d	0.039273728
14	0xbc843e6b	-0.016143044
15	0x3c821165	0.015877435
16	0xbe48535d	-0.1956305
17	0xbe016999	-0.12637939
18	0xbe099658	-0.13436258
19	0x3cb59628	0.022166327
20	0x3ae0ab67	0.0017140926
21	0x3c7c3010	0.015392318
22	0xbe100e1e	-0.14067885
23	0xbbefdf69	-0.0073203337
24	0x3a88f47b	0.0010448837
25	0xbe7c30c9	-0.24627985
26	0x3c3c41ad	0.011490268
27	0xbe256ecb	-0.16155545
28	0xbd674d97	-0.05647048
29	0xbc01779e	-0.007902054
30	0xbd270939	-0.04078028
31	0xbca53144	-0.020165093
32	0x3c8c007e	0.017090078
33	0xbe01122e	-0.12604591
34	0xbd7f4b98	-0.06232795
35	0x3bd10730	0.0063790306
36	0xbdf8601d	-0.12127707
37	0xbe4b0b36	-0.19828495
38	0xbdc73557	-0.09726971
39	0x3bf12a76	0.007359798
40	0xbd870135	-0.06592027
41	0x39de3f84	0.00042390462
42	0xbdc58663	-0.09644773
43	0xbe90d02c	-0.28283823
44	0xbe6c4dbb	-0.23076527
45	0xbda3bff6	-0.07995598
46	0xbd21881e	-0.039436452
47	0xbd03f7e2	-0.03221882
48	0xbe09cfa2	-0.13458112
49	0x3c88a594	0.016680516
50	0x3cc41f66	0.023940753
51	0xbd2527d3	-0.040321182
52	0xbd8a58cb	-0.06755217
53	0x3c603d02	0.01368642
54	0xbea028ca	-0.3128112
55	0xbe0c9434	-0.1372841
56	0xbd8cf5a5	-0.068827905
57	0xbd98d225	-0.07461957
58	0xbdccaf74	-0.099944025
59	0xbcf81f47	-0.030288352
60	0xbcac6649	-0.021044867
61	0xbd7a75b0	-0.06114739
62	0x3b812cfa	0.003942129
63	0xbca758b6	-0.020428043
64	0xbd78319c	-0.060594186
65	0xbc46c7d3	-0.012132603
66	0xbac96d3b	-0.0015367636
67	0xbdbe7559	-0.09299726
68	0xbc7e1597	-0.015508077
69	0xbe0fb38a	-0.14033332
70	0xbd69d1f3	-0.05708499
71	0xbe183909	-0.14865507
72	0x3c965153	0.018349325
73	0xbdc38204	-0.09546283
74	0xbd2f27a9	-0.042762432
75	0xbd4eae51	-0.05045921
76	0xbdd0d1b4	-0.10196248
77	0x3c3ff369	0.011715748
78	0xbb276568	-0.002554262
79	0xbdb4cc06	-0.08827977
80	0xbea4e791	-0.3220792
81	0xbe8bbc48	-0.27292085
82	0xbd704a90	-0.05866486
83	0xbdac9727	-0.084272675
84	0x3b09ed1a	0.0021045865
85	0xbc961255	-0.018319288
86	0xbdc13c24	-0.09435299
87	0xbc5f04dc	-0.013611998
88	0xbe93569a	-0.2877701
89	0x3cd2a349	0.025712626
90	0xbe4e4dd0	-0.2014687
91	0xbceef8a2	-0.029171292
92	0xbc2c50e2	-0.010517331
93	0xbc92fce7	-0.017942859
94	0x3d285651	0.041097943
95	0x3d5d45a8	0.054021508
96	0xbc8cf144	-0.017204888
97	0xbd27131b	-0.040789705
98	0xbc0e9916	-0.008703491
99	0xbcde8578	-0.027163252
100	0xbe946d54	-0.2898966
101	0xbe82ae3a	-0.2552355
102	0xbcbf349e	-0.02334052
103	0x3b8da9aa	0.004323204
104	0xbe4559d7	-0.19272552
105	0xbc8a4df7	-0.01688288
106	0xbc611fa4	-0.013740454
107	0xbe1f5c7d	-0.15562625
108	0xbdee564d	-0.11637554
109	0xbca4e856	-0.020130318
110	0xbe0aa616	-0.1353992
111	0xbe1f7ff1	-0.1557615
112	0xbe046a6c	-0.12931222
113	0xbc469eb3	-0.012122798
114	0xbe8d15f0	-0.275558
115	0xbe027117	-0.12738453
116	0xbc19fb41	-0.0093982825
117	0xbd9b8136	-0.075930044
118	0xbbb3cec5	-0.0054872953
119	0xbe3f7ecf	-0.18700717
120	0xbd28a73e	-0.04117512
121	0xbc8cebfa	-0.017202366
122	0xbc455232	-0.012043523
123	0x3b8bf869	0.004271556
124	0x3d51e4f7	0.05124375
125	0xbc866c33	-0.016409015
126	0x3c156f44	0.009120766
127	0xbe923f9f	-0.28564164

network_body._body_endoder.seq_layers.2.weight f4 [128, 128]
0	0xbd9577c1	-0.07298232
1	0x3b2938db	0.0025821242
2	0x3e14acd8	0.1451906
3	0x3c07a8cb	0.0082799895
4	0x3dad110f	0.08450519
5	0xbe50345d	-0.20332475
6	0x3df950c1	0.12173606
7	0xbe128509	-0.14308561
8	0x3d63c724	0.055609837
9	0xbe0ddf06	-0.13854608
10	0xbe6709c9	-0.22562326
11	0x3c5337d1	0.012891726
12	0x3e151ae6	0.14561042
13	0xbd6f93e4	-0.05849065
14	0x3daccee7	0.08437901
15	0xbdae1d70	-0.085017085
16	0x3c49e6dd	0.0123231085
17	0x3b9e9034	0.0048389677
18	0xbd9bcebd	-0.076077916
19	0xbd7d67e6	-0.061866663
20	0x3d54f400	0.05199051
21	0xbdbe9c72	-0.09307183
22	0x3c840831	0.016117187
23	0x3dcfd656	0.10148303
24	0xbd718baf	-0.058971103
25	0x38012492	3.0790055e-05
26	0xbdef1f25	-0.11675862
27	0x3cf42f66	0.029807758
28	0x3dbbf703	0.09177973
29	0x3d859f6a	0.065245464
30	0x3d943cd6	0.07238166
31	0x3e161611	0.14656855
32	0xbe23b3cf	-0.1598656
33	0x3e135ff3	0.1439207
34	0xbe5c5cef	-0.21519826
35	0xbe3220a2	-0.17395261
36	0xbe242a45	-0.1603175
37	0xbd6cfff8	-0.0578613
38	0xbdce2a7f	-0.10066699
39	0xbc9e259d	-0.019305045
40	0xbdb5781f	-0.08860802
41	0xbdd80bb7	-0.105491094
42	0xbd545104	-0.051835075
43	0x3e701243	0.23444466
44	0x3dc4c968	0.09608728
45	0xbd32bbc5	-0.043636102
46	0xbd551035	-0.05201741
47	0xbadc542d	-0.0016809754
48	0x3d916e00	0.07101059
49	0xbdf60d63	-0.12014272
50	0x3ca9d006	0.020729076
51	0xbca8e448	-0.020616665
52	0x3cd2a97b	0.02571558
53	0xbce52834	-0.027973272
54	0xbe2cca64	-0.16874081
55	0x3dab69a2	0.08369757
56	0xbd901a3f	-0.07036256
57	0xbda7d561	-0.08194996
58	0x3d86c87b	0.06581207
59	0xbc8ca0e1	-0.017166557
60	0x3e43629e	0.19080588
61	0x3e26108c	0.1621725
62	0x3d76d94b	0.06026582
63	0x3ce820cc	0.028335951
64	0xbe347dd9	-0.17626132
65	0x3e23dcb8	0.16002166
66	0x3dcca4bc	0.09992358
67	0xbcb78c24	-0.022405691
68	0xbc88a93f	-0.016682265
69	0x3d92ae47	0.07162147
70	0xbd750d38	-0.05982706
71	0x3e1e17be	0.15438744
72	0x3c968ebf	0.018378614
73	0x3cc35476	0.023843985
74	0xbc69e317	-0.014275334
75	0xbe1c5d38	-0.15269935
76	0xbdd92162	-0.106020704
77	0xbdea2f80	-0.11434841
78	0xbd3e5fc3	-0.046478044
79	0xbbcba382	-0.00621456
80	0xbde9ce58	-0.1141631
81	0xbe29ba35	-0.16574939
82	0xbd33294f	-0.043740567
83	0xbbc5a153	-0.0060311942
84	0xbd192d6e	-0.03739684
85	0x3dcde6b6	0.1005377
86	0xbbf98c62	-0.007615612
87	0x3e01719b	0.12640993
88	0xbd591b40	-0.053004503
89	0xbdde98df	-0.108690016
90	0xbc905f30	-0.017623514
91	0x3d8659bb	0.065600835
92	0x3d3566a5	0.044287343
93	0xbe0308e2	-0.12796357
94	0xbe53141d	-0.20613141
95	0x3d228291	0.0396753
96	0x3ac6d4bd	0.0015169602
97	0xbdaa7153	-0.08322396
98	0xbd8eeebb	-0.06979128
99	0xbdc11822	-0.09428431
100	0xbbb54c14	-0.005532751
101	0x3e1ee4fd	0.1551704
102	0xbd61307a	-0.05497787
103	0xbe1f33e9	-0.15547146
104	0x3d9d3db6	0.07677786
105	0xbd855247	-0.06509834
106	0x3d8462cd	0.06464157
107	0x3e7b7fe9	0.24560513
108	0xbdc28cbf	-0.094995014
109	0x3c870355	0.016481081
110	0xbe005f7a	-0.12536421
111	0x3daf7258	0.08566731
112	0x3c48febb	0.012267764
113	0xbe24e3f0	-0.16102576
114	0xbcce50f0	-0.025185078
115	0x3d7f030d	0.06225877
116	0x3b8b19f8	0.004245039
117	0x3e0abe62	0.13549188
118	0x3cc440b6	0.023956638
119	0xbcc0343a	-0.023462404
120	0xbd397da0	-0.04528582
121	0xbd739a50	-0.059473336
122	0xbcff7835	-0.031185249
123	0x3cac8f44	0.021064408
124	0x3dcce641	0.10004855
125	0xbabc0f6b	-0.0014347857
126	0xbd71ec86	-0.059063457
127	0x3d83927f	0.06424426
128	0x3c077c33	0.0082693575
129	0xbc33d144	-0.010975186
130	0xbd940a75	-0.07228557
131	0xbc3c5de3	-0.011496994
132	0xbe2e40db	-0.17016928
133	0xbce6444a	-0.028108735
134	0x3ba7c9e4	0.005120503
135	0x3ca5f158	0.020256683
136	0x3e12d5ec	0.14339417
137	0xbdc39bff	-0.09551238
138	0xbe0d7a47	-0.13816176
139	0xbe436ac3	-0.19083695
140	0x3d5432c8	0.05180624
141	0xbdc72c95	-0.097253
142	0xbd9d4485	-0.07679085
143	0x3c4b73a6	0.012417709
144	0x3d66e7ca	0.056373395
145	0xbdb49c98	-0.088189304
146	0x3d04af71	0.032393876
147	0x3e1f5b78	0.15562236
148	0x3da0aa95	0.07845036
149	0xbd57b347	-0.052661207
150	0x3dc0478b	0.09388646
151	0x3e722fc3	0.23651032
152	0x3d8ccff9	0.06875605
153	0x3d860e00	0.06545639
154	0xbd7e7b09	-0.062129054
155	0x3d20e002	0.03927613
156	0xbe10fa51	-0.14157988
157	0xbd4e1141	-0.050309423
158	0xbd120810	-0.03565222
159	0xbd1ee0f7	-0.038788762
160	0xbda61d49	-0.081110545
161	0x3d06d817	0.032920923
162	0xbe86ef6b	-0.26354536
163	0xbd04bdce	-0.032407574
164	0x3dcfd0ce	0.10147248
165	0xbd5c399f	-0.05376589
166	0xbdd7d54d	-0.10538731
167	0xbd3ab055	-0.04557832
168	0xbe3c03ee	-0.18360874
169	0xbcfa4375	-0.030549744
170	0xbd1b22b7	-0.037874904
171	0xbdbad76c	-0.0912312
172	0x3d7ab62c	0.06120889
173	0x3dfd7c9d	0.12377284
174	0xbdcfbf5a	-0.10143919
175	0x3d70a2ef	0.058749136
176	0xbd7cce03	-0.061719906
177	0xbde3bdda	-0.11120196
178	0xbc22e029	-0.009941139
179	0xbd67de66	-0.05660858
180	0xbe711066	-0.23541412
181	0xbcf4496d	-0.029820168
182	0xbd88cf90	-0.066802144
183	0xbe177685	-0.14791305
184	0xbc9c3193	-0.019066608
185	0xbd473642	-0.04863573
186	0xbda37c4b	-0.079826914
187	0x3d2478a0	0.0401541
188	0x3cb3e06f	0.021957604
189	0xbdd31fdf	-0.10308813
190	0xbd701b77	-0.058619943
191	0x3d632f56	0.055465065
192	0xbe30e194	-0.17273551
193	0xbe17fea3	-0.1484323
194	0x3d740c19	0.05958185
195	0xbe20ff60	-0.15722418
196	0xbd238501	-0.039921764
197	0xbda4e483	-0.08051398
198	0xbd99acb6	-0.07503645
199	0x3de313d4	0.11087766
200	0xbe14f181	-0.14545251
201	0xbd7c32fa	-0.061572053
202	0x3bda4fca	0.0066623436
203	0xbcecfc0c	-0.028928779
204	0x3d8a70d1	0.06759799
205	0xbe4789fe	-0.19486234
206	0x3d8d4b9f	0.06899189
207	0xbcce6024	-0.025192328
208	0xbc8a154f	-0.016855864
209	0x3d536785	0.051612396
210	0xbcc031fb	-0.023461333
211	0x3d29447b	0.041325074
212	0xbded946b	-0.11600574
213	0xbe063d10	-0.13109231
214	0xbdb485de	-0.08814596
215	0xbdad1b50	-0.08452475
216	0xbd9caf60	-0.076506376
217	0xbe803a06	-0.25044268
218	0x3d95bd4b	0.073114954
219	0xbe0040a0	-0.12524652
220	0xbe9caf7e	-0.3060264
221	0x3d23bff6	0.03997799
222	0x3b8aa90d	0.004231578
223	0x3cf07117	0.0293508
224	0xbd2d337e	-0.042285435
225	0x3d709896	0.058739267
226	0x3e3463b0	0.17616153
227	0x3d5ce964	0.053933516
228	0x3d352111	0.044220988
229	0xbd0f7971	-0.035027925
230	0xb9d78f58	-0.00041114795
231	0xbd1d7a15	-0.038446505
232	0xbdb6ab46	-0.089193866
233	0x3d2dfcd6	0.04247745
234	0x3ac32db0	0.0014890935
235	0xbda9410f	-0.08264362
236	0xbd4d2e86	-0.050093196
237	0x3db4a5a6	0.088206574
238	0x3db541bd	0.08850429
239	0xbe01820b	-0.12647264
240	0xbde2fb36	-0.11083071
241	0xbd8fe7c0	-0.07026625
242	0x3c13e914	0.009027738
243	0xbcb6417d	-0.022248024
244	0xbd5e6123	-0.054291856
245	0xbd8fda3e	-0.07024048
246	0x3a797242	0.0009515622
247	0xbe0516cc	-0.12996978
248	0x3d9cb7ff	0.07652282
249	0x3d80e086	0.062928244
250	0x3c42578e	0.011861695
251	0x3c8fe6e3	0.01756615
252	0x3da358ad	0.07975898
253	0xbe0d7603	-0.13814549
254	0xbd2f5bdd	-0.042812217
255	0x3dff6b62	0.124716535

network_body._body_endoder.seq_layers.2.bias f4 [128]
0	0xbc97d207	-0.018532766
1	0xbd2f2d3c	-0.04276775
2	0xbcd23c0e	-0.025663402
3	0xbc9b3b08	-0.018949047
4	0xbcd42d7e	-0.025900599
5	0xbc32a38c	-0.01090325
6	0xbc89fa5c	-0.016843013
7	0xbcdf9be2	-0.02729601
8	0xbbe14b77	-0.006875451
9	0x3d8f0932	0.06984176
10	0xb9c6cbb2	-0.00037917268
11	0xbc9d5d5b	-0.019209554
12	0xbc3081ce	-0.010773135
13	0xbca61b26	-0.020276617
14	0xbbca0e37	-0.0061662453
15	0xbc3a8258	-0.011383615
16	0xbcfe7205	-0.031060228
17	0xbcc530f9	-0.024071204
18	0xbd19ed1b	-0.037579637
19	0xbcd620e2	-0.026138727
20	0xbcc8fcb1	-0.024534555
21	0xbc445ee5	-0.011985515
22	0xbcc81c9d	-0.024427706
23	0xbd198cd5	-0.037487824
24	0xbd07c23c	-0.03314422
25	0xbb069054	-0.0020532804
26	0xbbaf989c	-0.0053587686
27	0xbcdd97d0	-0.027049929
28	0xbc57ccc1	-0.013171376
29	0xbcb007ee	-0.021488156
30	0xbd0451e9	-0.032304678
31	0xbcfc9438	-0.030832395
32	0xbc96fa20	-0.018429816
33	0xbd0388ab	-0.03211276
34	0xbcbaf523	-0.022821968
35	0xbc2857f8	-0.01027488
36	0xbc598b50	-0.013277844
37	0xbd0e99fa	-0.034814812
38	0xbd1232c0	-0.03569293
39	0xbc591a33	-0.013250875
40	0xbc90c9e0	-0.017674387
41	0xbbc85801	-0.0061140065
42	0xbcae2b68	-0.021260932
43	0xbc89bb79	-0.016813027
44	0x3b54a491	0.0032446722
45	0xbcc861fb	-0.024460783
46	0xbc94325a	-0.018090416
47	0xbc9c4e00	-0.019080162
48	0xbc1fd71f	-0.009755879
49	0xbc443cbf	-0.011977374
50	0xbcc20b45	-0.023687014
51	0xbc377a14	-0.011198539
52	0xbc8de24f	-0.017319826
53	0xbc3b0abd	-0.011416134
54	0xbcdb8f21	-0.026801648
55	0xbd261fc6	-0.040557645
56	0xbc6a0e17	-0.014285586
57	0xbc0e7326	-0.008694446
58	0xbbd8d0fe	-0.0066167107
59	0xbd071c93	-0.032986235
60	0xbd164784	-0.036689296
61	0xbc441c5f	-0.011969655
62	0xbc49f4bd	-0.012326417
63	0xbd1a103b	-0.037613135
64	0xbc0ff285	-0.0087858485
65	0xbcd0f47c	-0.025507204
66	0xbc93a024	-0.018020697
67	0xbd113cb2	-0.035458274
68	0xbc77482f	-0.0150928935
69	0xbbeffc2f	-0.007323764
70	0xbc2504a2	-0.010071905
71	0xbc534ade	-0.012896268
72	0xbce8d397	-0.028421206
73	0xbc5ce980	-0.013483405
74	0xbc814eff	-0.015784739
75	0xbcbde098	-0.023178384
76	0xbd179ce6	-0.037014864
77	0xbc570ce4	-0.013125632
78	0xbd05e6ad	-0.032690693
79	0xbd020ddc	-0.0317515
80	0xbbf77599	-0.0075518605
81	0xbd139bf7	-0.03603741
82	0xbc7bacba	-0.015361005
83	0xbc11d500	-0.008900881
84	0xbcc2bb89	-0.023771064
85	0xbc578bc9	-0.013155886
86	0xbcdfb1e3	-0.027306503
87	0xbc96b9d9	-0.018399166
88	0xbcaa8291	-0.020814212
89	0xbc957af6	-0.018247109
90	0xbc756b2f	-0.014979168
91	0xbcbd091e	-0.023075636
92	0xbc5b585b	-0.013387765
93	0xbc55e1e5	-0.013054346
94	0xbd44f6a5	-0.04808678
95	0xbc1d402f	-0.009597822
96	0xbc127207	-0.008938319
97	0xbc5130af	-0.012767955
98	0xbd07ed3f	-0.03318524
99	0xbc1f5b58	-0.009726368
100	0xbcda50a0	-0.026649773
101	0xbc78083d	-0.015138683
102	0xbc1806f6	-0.009279003
103	0xbcbdc70e	-0.023166206
104	0xbd4254cb	-0.047444146
105	0xbc8e0e60	-0.017340839
106	0xbc068afc	-0.008211847
107	0xbccd99ea	-0.025097806
108	0xbd092215	-0.03347977
109	0xbcc7bc87	-0.024381889
110	0xbcbc6f7e	-0.023002382
111	0xbd22c878	-0.039741963
112	0xbd3b3ca9	-0.045712147
113	0xbc665662	-0.014058681
114	0xbd12f863	-0.03588141
115	0xbd2890ef	-0.041153844
116	0xbb80d6c9	-0.0039318544
117	0xbce04283	-0.027375465
118	0xbcbb663e	-0.022875901
119	0xbc1bbcae	-0.009505434
120	0xbc654b0c	-0.013994943
121	0xbcbc896d	-0.023014748
122	0xbd4cd4d8	-0.05000767
123	0xbd3b7037	-0.045761313
124	0xbc6e7faa	-0.014556805
125	0xbcb9e1c2	-0.022690658
126	0xbd06852b	-0.032841843
127	0xbc8634ac	-0.016382538

action_model._continuous_distribution.log_sigma f4 [1, 2]
0	0xbf19c481	-0.60065466
1	0xbf866ced	-1.0501992

action_model._continuous_distribution.mu.weight f4 [2, 128]
0	0x3c711bd9	0.014716112
1	0xba4b48bf	-0.00077546755
2	0xbb9e1c42	-0.004825146
3	0xbd1b44a1	-0.037907247
4	0xbc311ded	-0.0108103575
5	0xbcd5beb0	-0.026091903
6	0xbbe7a591	-0.0070692976
7	0x3bfb5932	0.007670545
8	0x39f79670	0.00047223596
9	0x3de6fa4a	0.112782076
10	0xbc42a93a	-0.011881167
11	0x3bcd6283	0.006267847
12	0xbc2762b2	-0.010216402
13	0xbc204880	-0.00978291
14	0x3b460dcb	0.0030220624
15	0x3c3dda1f	0.011587649
16	0xbc67dbb8	-0.014151506
17	0xbb991e09	-0.00467277
18	0xbbb1ed5f	-0.005429908
19	0xbc4d4322	-0.012528213
20	0x3ca54ee1	0.020179214
21	0x3a881dbb	0.0010384837
22	0xbc1e8cc8	-0.00967712
23	0xbc0acc83	-0.008471611
24	0xbb46eb26	-0.0030352562
25	0xbadb82af	-0.0016747321
26	0x3caec1f0	0.021332711
27	0xbc6e237f	-0.01453483
28	0xbc0f4501	-0.008744479
29	0xbccdd830	-0.0251275
30	0x3bcdd43d	0.0062814043
31	0x3b78b9bf	0.003795251
32	0xbb0f19b0	-0.002183538
33	0xbc31d0cf	-0.0108530065
34	0xbc17ca03	-0.009264472
35	0x3c28e9c6	0.010309642
36	0xbbbe0456	-0.0057988567
37	0xbaeef2b2	-0.0018230288
38	0xbc9f4600	-0.019442558
39	0xbb601cf0	-0.0034196936
40	0xba8e1f7f	-0.0010843127
41	0xbc9a968d	-0.018870616
42	0xbc112e0b	-0.008861075
43	0x3b64053b	0.0034793157
44	0x3bbf9cd1	0.0058475514
45	0x3c6cd0de	0.014454095
46	0xbc62ff05	-0.013854747
47	0xb9e62cce	-0.000439024
48	0xbc53c929	-0.012926378
49	0xbc2eeb27	-0.010676182
50	0xbd14b19f	-0.036302205
51	0xbb2bcfb0	-0.002621632
52	0xbc0e462b	-0.008683722
53	0xbad553d7	-0.0016275597
54	0xbb071263	-0.0020610325
55	0xbc1cdd77	-0.009574286
56	0x3b01050e	0.001968685
57	0x3c119f8d	0.0088881375
58	0xbc6625a2	-0.014047058
59	0xbb64cf0d	-0.003491345
60	0xbc38324c	-0.01124246
61	0xba221a4a	-0.0006183727
62	0xbc4f06bc	-0.012635883
63	0x3a6afd19	0.0008964106
64	0xbbca67c0	-0.0061769187
65	0x3a931e0d	0.0011224166
66	0x3c95b058	0.018272564
67	0xbc42e642	-0.011895718
68	0xbb9c3220	-0.0047667176
69	0xbca334d6	-0.019922655
70	0xbb55c42f	-0.0032618155
71	0x3cffb411	0.031213792
72	0xbc1e90d9	-0.009678089
73	0xbc9bdb6e	-0.01902553
74	0xbb7104e9	-0.0036776608
75	0xbc0e5af7	-0.00868868
76	0xbac4b21f	-0.0015006698
77	0xbc5812dc	-0.01318809
78	0xba1fddfe	-0.0006098448
79	0xbc3e1f67	-0.011604167
80	0x3d1015b0	0.035176933
81	0xbc2d4b22	-0.010576995
82	0xbc75132b	-0.014958183
83	0xbc435135	-0.011921217
84	0xbc68a1b2	-0.014198707
85	0x3c0f7b3d	0.00875741
86	0xbc759ffd	-0.014991757
87	0x3c878f07	0.016547693
88	0xbbd9ec95	-0.006650517
89	0xbcb84e0d	-0.022498155
90	0xbc3910fa	-0.011295551
91	0xbc5bbffb	-0.013412471
92	0xba5b3963	-0.00083627383
93	0xb95e31e2	-0.00021190153
94	0xbc94a6be	-0.018145915
95	0x3b8c0dab	0.0042740903
96	0xbbe5f2de	-0.0070174774
97	0xbc35415a	-0.011062944
98	0x3c6f7002	0.014614107
99	0xbc8c9036	-0.017158609
100	0xbb8c37b7	-0.0042791027
101	0x3b0cf868	0.0021510366
102	0xbc43d708	-0.011953123
103	0x3b18bb34	0.002330494
104	0xbbde26de	-0.0067795357
105	0xbc8b5bce	-0.01701155
106	0xbad16904	-0.0015976732
107	0xbca041f0	-0.019562691
108	0xbb620922	-0.0034490307
109	0x38ec639a	0.00011271909
110	0x3b23e74b	0.0025009688
111	0xbc2e7e69	-0.010650256
112	0x3c476d33	0.012172031
113	0xbc6d1912	-0.014471309
114	0xbc091e31	-0.008369015
115	0xbc270c86	-0.010195857
116	0xbc715143	-0.014728847
117	0x3d114d76	0.035474263
118	0x3b36318e	0.0027800533
119	0x3b579b33	0.0032898902
120	0xba77fda0	-0.00094600953
121	0xbc0275a4	-0.007962618
122	0x3c93e1bc	0.018051974
123	0xbc0d5e5d	-0.008628455
124	0xbc56df6f	-0.013114794
125	0xbc062c02	-0.008189203
126	0xbc3c00ea	-0.011474827
127	0xba230d88	-0.0006219973
128	0x3c0bedbb	0.008540566
129	0xbba8ab1e	-0.005147352
130	0xb9ddeb0b	-0.00042327525
131	0xbcb778e6	-0.022396516
132	0x3bf19115	0.0073720315
133	0xbcd0f5cb	-0.025507828
134	0xba993880	-0.0011689812
135	0xbb6ca879	-0.003611116
136	0xbbf6ed0e	-0.0075355833
137	0xba83ea35	-0.0010064306
138	0xbac7f5cd	-0.001525575
139	0x3ae679e3	0.0017583932
140	0xbc0bfd47	-0.008544273
141	0x3ade4aa8	0.0016959505
142	0xbb3edccd	-0.0029123307
143	0xbb4dc360	-0.003139697
144	0xbb309cb4	-0.002694887
145	0x3ad9a8a0	0.001660604
146	0x399535c9	0.00028459568
147	0x3b9d11b4	0.00479337
148	0x3949caa9	0.0001924435
149	0xbc6ca47c	-0.014443513
150	0xbc611cfb	-0.01373982
151	0xbb75b4f3	-0.0037491887
152	0x3b8a1733	0.0042141913
153	0xb869e8da	-5.576839e-05
154	0xbc4d1237	-0.01251655
155	0x39b3e1b2	0.00034309697
156	0x3b4f4b2b	0.0031630497
157	0xbcab34ed	-0.02089926
158	0x3cb5c1fc	0.022187226
159	0x388ee1af	6.8131245e-05
160	0xbbdee88d	-0.0068026246
161	0x3bc1dff8	0.0059165917
162	0xbc3f11b9	-0.01166194
163	0xba429b58	-0.0007423661
164	0x3b4a5c2c	0.0030877693
165	0x3be70080	0.00704962
166	0xbb602a4c	-0.0034204898
167	0xb9e37503	-0.00043383994
168	0xbbaaf830	-0.0052175745
169	0xbc49efe0	-0.012325257
170	0x3ba88b62	0.005143569
171	0xbcbd451c	-0.023104243
172	0xbc25c417	-0.010117552
173	0xbc12a99c	-0.008951571
174	0x3c4274b8	0.011868648
175	0xbb12bd3e	-0.002239063
176	0x3c623d9d	0.013808635
177	0x3c32d0cd	0.01091404
178	0xbc2fe005	-0.010734563
179	0xbaef2d3e	-0.0018247736
180	0xbbf3a938	-0.007435944
181	0xbcbdc6ac	-0.023166023
182	0x3ad6edb8	0.001639775
183	0xba88f046	-0.0010447584
184	0x3c3cfc7f	0.011534809
185	0x3bd811c8	0.0065939166
186	0x3c3eb41a	0.011639619
187	0x3c0a2473	0.008431542
188	0x3993e846	0.00028211082
189	0x3b956535	0.004559184
190	0x3c9ca83f	0.019123195
191	0x39ef73fc	0.00045672047
192	0x3bc97392	0.0061478103
193	0x3aab096c	0.0013049073
194	0xbab67db5	-0.0013922962
195	0x39a6b4dc	0.00031796738
196	0x3caf258b	0.021380207
197	0xbbfa7a5e	-0.007643982
198	0xbc0b43b0	-0.008500025
199	0x3d2f107d	0.042740334
200	0x3c071bd9	0.0082463855
201	0x3b8e63cc	0.004345393
202	0xbb8e8983	-0.004349889
203	0x3c2a4299	0.010391855
204	0x3a8e674c	0.0010864525
205	0x39f9bc75	0.00047633392
206	0xbc8fa7c4	-0.017536052
207	0x36a984c0	5.0520466e-06
208	0x3c4f6c80	0.012660146
209	0xbc991cb8	-0.018690452
210	0x3b859757	0.004076879
211	0xbc172d15	-0.009227057
212	0xbb237cb5	-0.0024946157
213	0x3d160eba	0.036635138
214	0x3b1fc94b	0.0024381455
215	0x3c384ad3	0.011248308
216	0xbb95e790	-0.0045747235
217	0x3bb0b2c6	0.005392405
218	0x3bf1a2e5	0.007374155
219	0xbc2691e2	-0.010166617
220	0xbc691f86	-0.014228707
221	0x3c927600	0.017878532
222	0xbc0b9e64	-0.00852165
223	0x3bb8c2ae	0.005638442
224	0xbb9156fd	-0.0044354186
225	0xbc9dd13b	-0.019264808
226	0x3c73fe03	0.014892104
227	0xbbc3ee3e	-0.0059793284
228	0xbc31f698	-0.010862015
229	0x3adef83c	0.0017011235
230	0x3b4772ab	0.0030433338
231	0x37afd568	2.0961e-05
232	0xbc282b42	-0.01026422
233	0x3ac9b5ac	0.0015389225
234	0xbbfa7a53	-0.0076439767
235	0x3c462184	0.012092952
236	0x3a33dbbe	0.0006861052
237	0x3bf4f5f1	0.0074756076
238	0xbcb6305e	-0.02223986
239	0xbc4ccdae	-0.01250021
240	0xbc526f88	-0.012843974
241	0x3c322136	0.010872176
242	0x3b22d0c3	0.002484367
243	0xbbf2c969	-0.007409264
244	0xbc72b0cc	-0.0148126595
245	0x3b52c008	0.0032157917
246	0x3bb0dc43	0.005397351
247	0x3cde7f9f	0.027160464
248	0x39d39622	0.00040356914
249	0xbbe937ce	-0.007117248
250	0x3c117d60	0.008879989
251	0xbb818888	-0.0039530434
252	0xbc098c0d	-0.008395207
253	0x3b199e06	0.0023440137
254	0xbbc897d4	-0.006121615
255	0x3b26678d	0.002539131

action_model._continuous_distribution.mu.bias f4 [2]
0	0x3e3b6cff	0.18303297
1	0x3cd5ea05	0.026112566
