results/TankLearningAI_timePunished/TankLearningAI/TankLearningAI-454992.pt (torch, 466186 bytes, 36 tensors)

network_body._body_endoder.seq_layers.0.weight f4 [128, 14]
000000 b0 5a 8a bd 56 72 27 3d 9d 6e d8 3d 23 63 45 be
       -0.067555785 0.040880524 0.10567973 -0.19276099
000010 f3 79 c1 bc f9 5d 2d be 39 73 99 bd 94 ee a8 3d
       -0.02361772 -0.16930379 -0.0749268 0.0824863
000020 b4 4b 27 3e d3 21 9f 3e 6e 22 9e be 5e c4 be be
       0.16337472 0.31080493 -0.30885643 -0.3725919
000030 da e0 99 bc 12 cd 10 be 47 ae 67 3d 8e 6b 9a 3e
       -0.018783975 -0.14140728 0.05656269 0.30160183
000040 19 d2 3d 3e 6e 17 58 bd 5a 33 b7 be 39 56 c2 bc
       0.18537177 -0.05275672 -0.35781366 -0.023722755
000050 fd 0e a8 3e fa 05 f2 bd d3 ed 39 be 3d b4 ee 3d
       0.32823935 -0.11817546 -0.18157129 0.116554715
000060 b1 e9 b5 3d fc 47 c0 be 0a 4a 43 be 64 1c 06 3e
       0.08882464 -0.3755492 -0.19071212 0.13096768
000070 85 0c 71 bd de 24 94 bd f1 14 b1 be 11 c4 5c 3d
       -0.05884983 -0.07233594 -0.3458629 0.05389792
000080 a2 a4 b2 3d 55 dd 5f 3e 2c ef d1 3e ad a0 d0 3e
       0.087228075 0.21861775 0.41002786 0.40747586
000090 bc b6 4d 3e 27 cb c9 be 6b 34 00 be 71 b9 a9 3e
       0.20089239 -0.39412805 -0.12519996 0.33149293
0000a0 86 00 61 bc e0 66 e0 3d ff 30 38 bd 09 bd 6a be
       -0.013733035 0.10957122 -0.0449686 -0.22923674
0000b0 fd 42 c8 be 87 73 93 be f5 48 0d 3e 8e bb 64 3e
       -0.39113608 -0.28799078 0.13797362 0.22337171
0000c0 c1 e4 3c 3e 0a 2c a9 3e 47 03 89 bd 1c 0f 1c bd
       0.18446638 0.33041412 -0.06690078 -0.038100347
0000d0 68 0a a4 be 96 14 16 3f 6b b3 32 3e 8d ff 0f 3e
       -0.3203919 0.5862516 0.17451255 0.14062329
0000e0 05 83 ed 3c b8 da dc bd ea 96 c7 3e 50 fe 33 bc
       0.028993139 -0.10783905 0.38982326 -0.010985926
0000f0 a7 6f fa 3e dc 62 e7 3d ea 00 2e 3e a1 2d 92 bd
       0.4891331 0.11298153 0.16992536 -0.07137609
000100 ef e5 4f 3e 3f 08 90 bd a1 49 16 3d 31 91 60 bd
       0.20302556 -0.07032823 0.03669131 -0.054825965
000110 f9 12 4b 3e 4f f3 d9 bd f8 dc 8e bd ca e5 ab be
       0.19831456 -0.106421106 -0.0697574 -0.33573753
000120 26 30 1d 3e eb ef 56 be d2 b8 b0 bd ae 82 4f 3f
       0.15350398 -0.20989959 -0.08629002 0.81058776
000130 7e 90 76 be d5 43 84 3e 5a e0 7c 3e a7 e9 57 3e
       -0.24078557 0.25833002 0.24694958 0.21085225
000140 94 b7 a8 3e 05 b6 0e 3a 61 dc 05 3e 63 77 79 bb
       0.3295256 0.0005443993 0.13072349 -0.0038065545
000150 cb 0a c1 3c a1 ab 9f be 8e 10 c1 3e ac ef 30 bd
       0.023564717 -0.3118563 0.37707943 -0.04319732
000160 67 22 2a 3d 44 b0 b5 be cc 68 19 3f 87 8d 34 bf
       0.041536715 -0.35486042 0.5992553 -0.70528454
000170 95 c8 b8 3e 2b ef 03 bf 46 f2 45 be 03 49 ad be
       0.36090532 -0.51536816 -0.19330701 -0.33844766
000180 b1 01 46 bf b4 4f 05 bf 43 bb f0 bd 3b af 09 3e
       -0.7734633 -0.5207474 -0.11754467 0.13445751
000190 ca 27 ac be 8e 02 c4 3d 9e ac 55 3d 80 46 82 be
       -0.33624107 0.095708 0.052166574 -0.25444412
0001a0 f5 43 b1 3c a6 91 78 bd 3d 20 26 3e a6 8c f5 3d
       0.02163885 -0.060685776 0.16223235 0.11989717
0001b0 eb 1b 80 3e 97 7f 8f 3e cb b4 63 3e af 95 38 bb
       0.250213 0.2802703 0.22236936 -0.002816539
0001c0 fd 33 41 3d 43 7a 40 3e aa 01 fd bd 1a 53 c9 3d
       0.04716872 0.18796639 -0.12353833 0.098303035
0001d0 5a da 9a 3e 54 4e ef 3d 96 04 0e 3e e7 07 9b 3e
       0.30244714 0.11684862 0.13868937 0.30279467
0001e0 83 56 76 3e cd 69 ae bb 00 5b 31 3d 82 72 f2 3e
       0.24056439 -0.005322671 0.043299675 0.47352988
0001f0 a6 93 5f 3e be 76 1e be 13 7b 29 3c 93 42 47 be
       0.21833667 -0.15474984 0.010344285 -0.1945899
000200 f3 ae 46 3e f9 20 7f 3d 3d d9 bd bd 9a 71 74 be
       0.19402675 0.062287305 -0.092699505 -0.2387146
000210 bb dd 9c 3e 14 68 cf 3e f3 2f 6d be 88 7d e2 bd
       0.30637917 0.40509093 -0.23162822 -0.110590994
000220 b5 95 fe be 55 60 6c be 6a 9c 85 bd 86 60 64 bd
       -0.49723592 -0.23083623 -0.06523974 -0.055756114
000230 d7 ae c2 be ea 50 80 bd 61 57 e6 3c 9a 26 e6 be
       -0.38024017 -0.06265433 0.028117837 -0.44951326
000240 33 2b e5 3e ca 46 6a 3e de ea 54 be c7 c4 e1 3d
       0.4475952 0.22878566 -0.2079272 0.110238604
000250 11 6f 95 bb 44 5a 49 bd da f5 88 3e 51 5a d8 3e
       -0.0045603593 -0.04915835 0.2675007 0.42256406
000260 29 91 cc be 36 4a 98 3d 2d e4 b1 bd 05 3f 10 bf
       -0.39954498 0.074360296 -0.08686099 -0.5634616
000270 33 3d 47 3e 45 9c 53 3e 99 c6 ba bd 0c 90 11 be
       0.1945694 0.20665081 -0.09119911 -0.14215106
000280 1b d0 ef bd b2 81 63 be 16 51 4c be 8b 9d 4d bd
       -0.11709615 -0.22217444 -0.19952807 -0.050199073
000290 e9 f9 f0 be 83 0a 00 3f fa 2a cd bc 7a 14 68 bd
       -0.47065666 0.5001604 -0.025044907 -0.056660153
0002a0 57 42 09 be bb f5 a9 3d 8b 2e 45 3e a7 73 81 bd
       -0.13404213 0.082988225 0.19256036 -0.06320887
0002b0 ae f8 c5 bd a7 72 be 3d 2a cf 11 be f6 80 aa 3d
       -0.096665725 0.09299212 -0.14239183 0.083253786
0002c0 66 a2 16 3f f7 37 cf bc 3b a1 f7 3d 90 5f c1 be
       0.5884155 -0.02529524 0.12091299 -0.3776822
0002d0 b7 8c 09 bd a8 59 97 bd d1 19 bc 3e 35 71 4a 3e
       -0.03358146 -0.073901474 0.36738446 0.19769748
0002e0 06 69 02 bd 70 e7 81 3e 25 9b 55 bd 7f 37 ab bc
       -0.03183844 0.25371885 -0.05214991 -0.020900486
0002f0 55 d4 05 3f 6a 1e 31 be 31 1d 89 be 03 57 b7 be
       0.5227712 -0.17296758 -0.26780084 -0.35808572
000300 f1 d6 18 3e 22 65 76 be 51 94 26 3e f0 a4 90 3e
       0.14925744 -0.24062017 0.16267516 0.28250837
000310 a9 d1 f6 bd 74 e1 8b be 94 62 30 3f bb fc e9 3e
       -0.12051708 -0.27320445 0.6890042 0.4570063
000320 4c c7 00 3f 5b e5 14 bf cc 95 fa 3d 08 c0 91 be
       0.503041 -0.5816247 0.12235603 -0.2846682
000330 f6 af 06 bf 29 30 9b 3e 9a 18 33 be 29 c3 c8 be
       -0.52612245 0.3031018 -0.17489854 -0.39211395
000340 d1 30 7a 3d 66 b2 f5 3d c5 7d a6 3d 53 8e 83 3d
       0.06108171 0.119969174 0.081294574 0.064236306
000350 30 38 82 be 10 90 ae bb ab 0e ac be ff 26 1e 3e
       -0.25433493 -0.005327232 -0.3360494 0.15444563
000360 b6 6c 4b 3e d4 22 ad bd 7c d5 0c 3f 63 71 65 3e
       0.19865689 -0.084539086 0.5501325 0.22406535
000370 93 46 2d be b1 d0 af bd 25 3e b1 ba 31 21 50 3e
       -0.16921453 -0.085847266 -0.0013522549 0.20325162
000380 e7 a3 dc be ba 6f 60 3c 82 5f 82 be 44 a3 f9 be
       -0.43093798 0.013698513 -0.25463492 -0.48757374
000390 a6 9b 5b be 28 fe dd be 24 35 6b be ef b5 3d be
       -0.21446094 -0.43357968 -0.2296949 -0.18526433
0003a0 87 75 45 bf 8e 70 e9 3e c9 62 43 be 94 9a 10 bf
       -0.7713246 0.45593685 -0.19080652 -0.5648587
0003b0 ad 2b bd 3b ec 67 0c bc 54 9c 7b be a3 ec bc bd
       0.005773029 -0.008569699 -0.24571353 -0.09224822
0003c0 4a 12 5d 3d ee f7 02 be 7e 0e 61 bd 46 48 36 3d
       0.05397252 -0.1278989 -0.05494546 0.04450252
0003d0 39 ca af bc 45 44 c3 be 0a 37 57 3e 60 bb 9b 3e
       -0.021458732 -0.38138023 0.2101709 0.30416393
0003e0 bd 86 fc bd 0f a6 3a 3e 23 0b 87 be 23 66 5f bd
       -0.12330387 0.18227409 -0.26375684 -0.054540765
0003f0 65 97 9f be 48 d3 aa be f2 c5 a7 3d 25 bb 34 3e
       -0.31170192 -0.3336432 0.08192052 0.17649515

network_body._body_endoder.seq_layers.0.bias f4 [128]
000000 84 c5 83 bd c5 30 b9 bd f2 e6 d3 3c 52 48 61 bc
       -0.064341575 -0.09042505 0.02586696 -0.013750153
000010 19 53 98 bc fd a9 37 bd aa 8d 8a bb 7b 66 1f bd
       -0.018594312 -0.044839848 -0.0042283135 -0.038916092
000020 7c 8d 0d 3d fb 06 d4 bc 6b 82 ba bd f6 5b 98 bd
       0.03455876 -0.025882235 -0.091069065 -0.07439415
000030 55 c7 54 bd 4e 8a 22 3d 6b 3e 84 bc 5a 87 85 3c
       -0.05194791 0.03968268 -0.016143044 0.016299892
000040 25 d3 48 be 93 69 01 be 69 96 09 be 7c 02 b9 3c
       -0.19611795 -0.1263793 -0.13436283 0.022584192
000050 f9 9f e0 3a c1 6f 81 3c ee 0d 10 be 69 df ef bb
       0.0017137519 0.015800359 -0.14067814 -0.0073203337
000060 7b f4 88 3a 6f 75 7c be 15 41 3c 3c 8d 6e 25 be
       0.0010448837 -0.24654172 0.011490126 -0.16155453
000070 b0 70 65 bd ef 78 01 bc ca 09 27 bd 0b c4 a1 bc
       -0.05601567 -0.007902368 -0.04078082 -0.0197468
000080 a7 59 8f 3c 4d 2a 00 be e5 4b 7f bd ce 78 de 3b
       0.017498804 -0.12516136 -0.062328238 0.0067893034
000090 85 01 f9 bd 7a c6 4a be 80 49 c6 bd 5a fc fe 3b
       -0.12158493 -0.19802275 -0.09681988 0.0077815475
0000a0 58 01 87 bd 84 3f de 39 32 86 c5 bd c7 d0 90 be
       -0.06592053 0.00042390462 -0.09644736 -0.28284284
0000b0 d7 4e 6c be c4 be a3 bd 4d 88 21 bd ed c4 02 bd
       -0.2307695 -0.0799537 -0.039436627 -0.031926084
0000c0 a0 cf 09 be 94 a5 88 3c 55 84 c7 3c d3 27 25 bd
       -0.13458109 0.016680516 0.024355093 -0.040321182
0000d0 be 58 8a bd 20 f6 66 3c 7b 2c a0 be 34 94 0c be
       -0.067552075 0.014096767 -0.31283936 -0.1372841
0000e0 8d 14 85 bd 99 d2 98 bd 6e af cc bd 84 20 f8 bc
       -0.064980604 -0.07462043 -0.09994398 -0.030288942
0000f0 ff 63 ac bc 5c 76 7a bd d4 9b 8e 3b b6 58 a7 bc
       -0.021043776 -0.061148033 0.0043520723 -0.020428043
000100 c0 7e 75 bd cd c7 46 bc 3b 6d c9 ba 5e 75 be bd
       -0.05993533 -0.012132597 -0.0015367636 -0.0929973
000110 6c 15 7e bc 31 8b 0f be f3 d1 69 bd 09 39 18 be
       -0.015508037 -0.14017941 -0.05708499 -0.14865507
000120 58 a6 99 3c 81 7e c2 bd 59 28 2f bd bb d3 4c bd
       0.018756077 -0.09496785 -0.042763088 -0.05000661
000130 7c e4 d0 bd 2f be 46 3c 6d 8c 0c bb cd ca b4 bd
       -0.1019983 0.012130304 -0.0021446005 -0.08827744
000140 e6 dd a4 be b6 bf 8b be 1d 56 6e bd 39 b0 ac bd
       -0.32200545 -0.272947 -0.058187593 -0.08432049
000150 bf e2 09 3b 55 12 96 bc 2d 3c c1 bd 0c 33 57 bc
       0.0021039692 -0.018319288 -0.09435306 -0.013134729
000160 2c 37 93 be 4a 68 d6 3c 14 50 4e be 3f 8f eb bc
       -0.2875303 0.026172776 -0.20147735 -0.028754828
000170 a7 75 25 bc e7 fc 92 bc 55 10 2a 3d 60 f9 5e 3d
       -0.010098851 -0.017942859 0.04151948 0.05443704
000180 44 f1 8c bc 1d 13 27 bd e1 c6 07 bc 9a 14 db bc
       -0.017204888 -0.040789712 -0.0082871625 -0.026743222
000190 3c 77 94 be 9b d0 82 be 9e 34 bf bc c1 76 84 3b
       -0.2899722 -0.25549778 -0.02334052 0.004042477
0001a0 b9 cb 44 be f7 4d 8a bc 23 61 5a bc c4 5c 1f be
       -0.19218339 -0.01688288 -0.013328823 -0.15562731
0001b0 66 56 ee bd 56 e8 a4 bc fe a5 0a be cb 7f 1f be
       -0.11637573 -0.020130318 -0.13539883 -0.15576093
0001c0 b0 6a 04 be 9d 9e 46 bc f1 15 8d be e9 6a 02 be
       -0.12931323 -0.012122777 -0.27555802 -0.12736095
0001d0 7e fb 19 bc f4 80 9b bd c5 ce b3 bb cf 7e 3f be
       -0.009398339 -0.07592955 -0.0054872953 -0.18700717
0001e0 56 cc 26 bd 7e 84 89 bc 32 52 45 bc f2 61 99 3b
       -0.040722214 -0.01678681 -0.012043523 0.0046808654
0001f0 23 93 53 3d b7 6e 86 bc 44 6f 15 3c 21 63 92 be
       0.051653992 -0.016410215 0.009120766 -0.28591254

network_body._body_endoder.seq_layers.2.weight f4 [128, 128]
000000 c1 77 95 bd db 38 29 3b db ac 14 3e f9 a8 07 3c
       -0.07298232 0.0025821242 0.14519064 0.008280032
000010 0f 11 ad 3d 5d 34 50 be c1 50 f9 3d 09 85 12 be
       0.08450519 -0.20332475 0.12173606 -0.14308561
000020 24 c7 63 3d 06 df 0d be c9 09 67 be d1 37 53 3c
       0.055609837 -0.13854608 -0.22562326 0.012891726
000030 e6 1a 15 3e dd 93 6f bd e7 ce ac 3d 6d 1d ae bd
       0.14561042 -0.058490623 0.08437901 -0.08501706
000040 dd e6 49 3c 34 90 9e 3b bd ce 9b bd ce 67 7d bd
       0.0123231085 0.0048389677 -0.076077916 -0.061866574
000050 00 f4 54 3d 70 9c be bd 31 08 84 3c 56 d6 cf 3d
       0.05199051 -0.09307182 0.016117187 0.10148303
000060 af 8b 71 bd 54 51 01 38 25 1f ef bd 66 2f f4 3c
       -0.058971103 3.083174e-05 -0.11675862 0.029807758
000070 06 f7 bb 3d 6a 9f 85 3d d6 3c 94 3d 11 16 16 3e
       0.09177975 0.065245464 0.07238166 0.14656855
000080 cf b3 23 be f3 5f 13 3e ef 5c 5c be a0 20 32 be
       -0.1598656 0.1439207 -0.21519826 -0.17395258
000090 45 2a 24 be f8 ff 6c bd 7f 2a ce bd 82 25 9e bc
       -0.1603175 -0.0578613 -0.10066699 -0.019304994
0000a0 1f 78 b5 bd b7 0b d8 bd 04 51 54 bd 43 12 70 3e
       -0.08860802 -0.105491094 -0.051835075 0.23444466
0000b0 68 c9 c4 3d c5 bb 32 bd 35 10 55 bd 2d 54 dc ba
       0.09608728 -0.043636102 -0.05201741 -0.0016809754
0000c0 00 6e 91 3d 63 0d f6 bd 2d d0 a9 3c 48 e4 a8 bc
       0.07101059 -0.12014272 0.020729149 -0.020616665
0000d0 7b a9 d2 3c 24 28 e5 bc 64 ca 2c be a2 69 ab 3d
       0.02571558 -0.027973242 -0.16874081 0.08369757
0000e0 3f 1a 90 bd 61 d5 a7 bd 7b c8 86 3d e1 a0 8c bc
       -0.07036256 -0.08194996 0.06581207 -0.017166557
0000f0 9e 62 43 3e 8c 10 26 3e 59 d9 76 3d cc 20 e8 3c
       0.19080588 0.1621725 0.060265873 0.028335951
000100 d9 7d 34 be b8 dc 23 3e bc a4 cc 3d 24 8c b7 bc
       -0.17626132 0.16002166 0.09992358 -0.022405691
000110 3f a9 88 bc 47 ae 92 3d 38 0d 75 bd be 17 1e 3e
       -0.016682265 0.07162147 -0.05982706 0.15438744
000120 e0 8e 96 3c 79 54 c3 3c 17 e3 69 bc 34 5d 1c be
       0.018378675 0.02384399 -0.014275334 -0.15269929
000130 62 21 d9 bd 7d 2f ea bd bd 5f 3e bd 82 a3 cb bb
       -0.106020704 -0.11434839 -0.046478022 -0.00621456
000140 58 ce e9 bd 35 ba 29 be 42 29 33 bd 53 a1 c5 bb
       -0.1141631 -0.16574939 -0.04374052 -0.0060311942
000150 6e 2d 19 bd b6 e6 cd 3d 62 8c f9 bb 9b 71 01 3e
       -0.03739684 0.1005377 -0.007615612 0.12640993
000160 40 1b 59 bd de 98 de bd 30 5f 90 bc bd 59 86 3d
       -0.053004503 -0.10869001 -0.017623514 0.06560085
000170 ab 66 35 3d e2 08 03 be 1d 14 53 be 92 82 22 3d
       0.044287365 -0.12796357 -0.20613141 0.039675303
000180 bd d4 c6 3a 53 71 aa bd bc ee 8e bd 22 18 c1 bd
       0.0015169602 -0.08322396 -0.06979129 -0.09428431
000190 14 4c b5 bb fe e4 1e 3e 7a 30 61 bd e9 33 1f be
       -0.005532751 0.15517041 -0.05497787 -0.15547146
0001a0 b6 3d 9d 3d 47 52 85 bd cd 62 84 3d e9 7f 7b 3e
       0.07677786 -0.06509834 0.06464157 0.24560513
0001b0 bf 8c c2 bd 55 03 87 3c 7a 5f 00 be 58 72 af 3d
       -0.094995014 0.016481081 -0.12536421 0.08566731
0001c0 bb fe 48 3c f0 e3 24 be f0 50 ce bc 0d 03 7f 3d
       0.012267764 -0.16102576 -0.025185078 0.06225877
0001d0 f8 19 8b 3b 62 be 0a 3e b6 40 c4 3c 3a 34 c0 bc
       0.004245039 0.13549188 0.023956638 -0.023462404
0001e0 9d 7d 39 bd 46 9a 73 bd 35 78 ff bc 52 8f ac 3c
       -0.04528581 -0.0594733 -0.031185249 0.021064434
0001f0 45 e6 cc 3d 6b 0f bc ba 86 ec 71 bd 81 92 83 3d
       0.10004858 -0.0014347857 -0.059063457 0.06424428
000200 33 7c 07 3c 44 d1 33 bc 9c f9 93 bd 69 d8 3b bc
       0.0082693575 -0.010975186 -0.072253436 -0.01146517
000210 db 40 2e be b6 44 e6 bc e4 c9 a7 3b 04 1f a6 3c
       -0.17016928 -0.028108936 0.005120503 0.020278461
000220 1d da 12 3e ff 9b c3 bd 47 7a 0d be c3 6a 43 be
       0.14341016 -0.09551238 -0.13816176 -0.19083695
000230 c8 32 54 3d f1 22 c7 bd 85 44 9d bd 21 e6 4b 3c
       0.05180624 -0.097234614 -0.07679085 0.012445004
000240 ca e7 66 3d 98 9c b4 bd 71 af 04 3d 3a 66 1f 3e
       0.056373395 -0.088189304 0.032393876 0.1556634
000250 95 aa a0 3d fe 94 57 bd 8b 47 c0 3d c3 2f 72 3e
       0.07845036 -0.052632324 0.09388646 0.23651032
000260 f9 cf 8c 3d 6a 1b 86 3d 09 7b 7e bd 02 e0 20 3d
       0.06875605 0.065481976 -0.062129054 0.03927613
000270 b6 f3 10 be 41 11 4e bd 10 08 12 bd 99 d5 1e bd
       -0.14155468 -0.050309423 -0.03565222 -0.03877792
000280 0a 14 a6 bd 17 d8 06 3d 6b ef 86 be e3 82 04 bd
       -0.08109291 0.032920923 -0.26354536 -0.032351386
000290 1d d7 cf 3d 9f 39 5c bd a5 cd d7 bd 1f 9d 3a bd
       0.101484515 -0.05376589 -0.105372705 -0.04556
0002a0 ee 03 3c be 75 43 fa bc b7 22 1b bd 6c d7 ba bd
       -0.18360874 -0.030549744 -0.037874904 -0.0912312
0002b0 2c b6 7a 3d 9d 7c fd 3d 5a bf cf bd ef a2 70 3d
       0.06120889 0.12377284 -0.10143919 0.058749136
0002c0 03 ce 7c bd da bd e3 bd ad 28 22 bc 66 de 67 bd
       -0.061719906 -0.11120196 -0.009897393 -0.05660858
0002d0 66 10 71 be 87 26 f4 bc 90 cf 88 bd 85 76 17 be
       -0.23541412 -0.029803528 -0.066802144 -0.14791305
0002e0 6e 21 9c bc 42 36 47 bd 4b 7c a3 bd a0 78 24 3d
       -0.01905891 -0.04863573 -0.079826914 0.0401541
0002f0 6f e0 b3 3c df 1f d3 bd 1e f5 6f bd 56 2f 63 3d
       0.021957604 -0.10308813 -0.05858337 0.055465065
000300 7e e1 30 be a3 fe 17 be 19 0c 74 3d 60 ff 20 be
       -0.17273518 -0.1484323 0.05958185 -0.15722418
000310 01 85 23 bd 83 e4 a4 bd b6 ac 99 bd d4 13 e3 3d
       -0.039921764 -0.08051398 -0.07503645 0.11087766
000320 6b e7 14 be c9 2f 7c bd ca 4f da 3b a0 99 ec bc
       -0.14541404 -0.06156901 0.0066623436 -0.028881848
000330 f7 73 8a 3d ce 83 47 be 0c 56 8d 3d 24 60 ce bc
       0.067604 -0.19483873 0.06901178 -0.025192328
000340 60 15 8a bc 85 67 53 3d 07 02 c0 bc 7b 44 29 3d
       -0.016855896 0.051612396 -0.023438467 0.041325074
000350 6b 94 ed bd 10 3d 06 be de 85 b4 bd b5 19 ad bd
       -0.11600574 -0.13109231 -0.08814596 -0.08452169
000360 60 af 9c bd 3d 38 80 be 4b bd 95 3d cd 3a 00 be
       -0.076506376 -0.25042906 0.073114954 -0.1252243
000370 a0 ad 9c be f6 bf 23 3d be d5 8a 3b b8 87 f0 3c
       -0.30601215 0.03997799 0.004236906 0.02936159
000380 7e 33 2d bd 96 98 70 3d 0e 69 34 3e d2 0d 5d 3d
       -0.042285435 0.058739267 0.176182 0.05396826
000390 11 21 35 3d b8 5d 0f bd 58 8f d7 b9 2e 75 1d bd
       0.044220988 -0.035001487 -0.00041114795 -0.03844183
0003a0 e4 a8 b6 bd d6 fc 2d 3d 4f 91 c6 3a 0f 41 a9 bd
       -0.08918932 0.04247745 0.0015149507 -0.08264362
0003b0 86 2e 4d bd a6 a5 b4 3d bd 41 b5 3d 0b 82 01 be
       -0.050093196 0.088206574 0.08850429 -0.12647264
0003c0 36 fb e2 bd c0 e7 8f bd 14 e9 13 3c 7d 41 b6 bc
       -0.11083071 -0.07026625 0.009027738 -0.022248024
0003d0 23 61 5e bd 3e da 8f bd 42 72 79 3a cc 16 05 be
       -0.054291856 -0.07024048 0.0009515622 -0.12996978
0003e0 9f bd 9c 3d 06 ed 80 3d 8e 57 42 3c f5 0a 90 3c
       0.07653355 0.06295209 0.011861695 0.01758335
0003f0 64 6c a3 3d 03 76 0d be dd 5b 2f bd 24 77 ff 3d
       0.07979658 -0.13814549 -0.042812217 0.12473896

network_body._body_endoder.seq_layers.2.bias f4 [128]
000000 07 d2 97 bc 78 2c 2f bd 94 3b d2 bc ac 3a 9b bc
       -0.018532766 -0.042767018 -0.025663175 -0.018948875
000010 96 30 d4 bc bf a2 32 bc 5c fa 89 bc d8 9a df bc
       -0.025902074 -0.0109030595 -0.016843013 -0.027295515
000020 3d 40 e1 bb b9 d5 8f 3d 9b e0 c6 b9 67 5d 9d bc
       -0.006874113 0.07023186 -0.00037932847 -0.019209577
000030 ce 81 30 bc b6 1c a6 bc 37 0e ca bb 58 82 3a bc
       -0.010773135 -0.020277362 -0.0061662453 -0.011383615
000040 2e 66 fe bc d1 30 c5 bc 1b ed 19 bd e2 20 d6 bc
       -0.031054582 -0.024071129 -0.037579637 -0.026138727
000050 b1 fc c8 bc e2 5e 44 bc 5e 1a c8 bc 29 8c 19 bd
       -0.024534555 -0.011985512 -0.024426635 -0.037487183
000060 72 c2 07 bd 57 90 06 bb 9c 98 af bb cc 97 dd bc
       -0.033144422 -0.002053281 -0.0053587686 -0.027049921
000070 21 ca 57 bc 5c 06 b0 bc ec 51 04 bd 36 94 fc bc
       -0.01317075 -0.021487407 -0.03230469 -0.030832391
000080 20 fa 96 bc 1c 88 03 bd b4 f3 ba bc 8a 5f 28 bc
       -0.018429816 -0.032112226 -0.022821285 -0.010276685
000090 a1 8d 59 bc 77 9a 0e bd 8d 32 12 bd 2a 1a 59 bc
       -0.013278396 -0.034815278 -0.03569274 -0.013250867
0000a0 93 c9 90 bc 01 58 c8 bb 3c 2b ae bc 6e b8 89 bc
       -0.017674243 -0.0061140065 -0.02126085 -0.016811576
0000b0 92 a4 54 3b fb 61 c8 bc ed 32 94 bc d8 4d 9c bc
       0.0032446724 -0.024460783 -0.01809069 -0.019080088
0000c0 1f dd 1f bc de 3c 44 bc 66 0d c2 bc f6 79 37 bc
       -0.009757309 -0.0119774025 -0.02368803 -0.011198511
0000d0 d0 e1 8d bc bd 0a 3b bc 21 8f db bc 7f 1f 26 bd
       -0.01731959 -0.011416134 -0.026801648 -0.04055738
0000e0 17 0e 6a bc af 76 0e bc 7b d3 d8 bb 7a 1d 07 bd
       -0.014285586 -0.008695289 -0.0066170073 -0.032987095
0000f0 2d 47 16 bd 5e 1c 44 bc 91 f5 49 bc 3b 10 1a bd
       -0.036688972 -0.011969654 -0.012326614 -0.037613135
000100 0d f2 0f bc 7c f4 d0 bc 24 a0 93 bc 52 3c 11 bd
       -0.008785737 -0.025507204 -0.018020697 -0.035457917
000110 2f 48 77 bc db fb ef bb 10 02 25 bc de 4a 53 bc
       -0.0150928935 -0.0073237247 -0.0100712925 -0.012896268
000120 97 d3 e8 bc e1 f1 5c bc b8 4c 81 bc a6 e4 bd bc
       -0.028421206 -0.013485403 -0.015783653 -0.023180317
000130 e6 9c 17 bd 3d 0c 57 bc ad e6 05 bd 7c 0d 02 bd
       -0.037014864 -0.013125476 -0.032690693 -0.03175114
000140 99 75 f7 bb 28 9b 13 bd c3 af 7b bc 4c d4 11 bc
       -0.0075518605 -0.03603664 -0.015361729 -0.008900713
000150 9e bb c2 bc cc 8b 57 bc 96 b3 df bc d9 b9 96 bc
       -0.023771103 -0.013155889 -0.027307313 -0.018399166
000160 91 82 aa bc f6 7a 95 bc 9c 4a 75 bc 20 07 bd bc
       -0.020814212 -0.018247109 -0.014971402 -0.023074687
000170 62 51 5b bc 8b e9 55 bc 5d f7 44 bd 11 4b 1d bc
       -0.013386102 -0.013056169 -0.048087467 -0.009600417
000180 07 72 12 bc ae 1e 51 bc 49 ed 07 bd c1 60 1f bc
       -0.008938319 -0.012763662 -0.033185277 -0.009727658
000190 de 4c da bc 32 0a 78 bc 36 07 18 bc 2b c7 bd bc
       -0.026647981 -0.0151391495 -0.009279063 -0.02316626
0001a0 cb 54 42 bd 2c 0e 8e bc 63 83 06 bc 8e 90 cd bc
       -0.047444146 -0.017340742 -0.008210036 -0.025093343
0001b0 b7 21 09 bd ea bd c7 bc 8f 6b bc bc f8 c8 22 bd
       -0.03347942 -0.02438255 -0.023000507 -0.03974244
0001c0 52 3c 3b bd 70 64 66 bc 26 f8 12 bd 4d 91 28 bd
       -0.045711823 -0.014062032 -0.035881184 -0.041154195
0001d0 e9 cf 80 bb 87 42 e0 bc 3e 66 bb bc 85 bd 1b bc
       -0.003931035 -0.027375473 -0.022875901 -0.009505634
0001e0 13 4b 65 bc 6d 89 bc bc d8 d4 4c bd 36 70 3b bd
       -0.01399495 -0.023014748 -0.05000767 -0.04576131
0001f0 2f 7e 6e bc c2 e1 b9 bc 44 85 06 bd be 34 86 bc
       -0.014556452 -0.022690658 -0.032841936 -0.016382571

action_model._continuous_distribution.log_sigma f4 [1, 2]
000000 93 5c 16 bf 04 b1 86 bf
       -0.5873501 -1.0522771

action_model._continuous_distribution.mu.weight f4 [2, 128]
000000 40 1c 71 3c 61 de 26 ba f0 f7 9e bb c8 30 1b bd
       0.014716208 -0.00063655345 -0.004851334 -0.03788832
000010 20 c5 30 bc dd c4 d5 bc 91 a5 e7 bb e5 4f fb 3b
       -0.010789186 -0.026094848 -0.0070692976 0.0076694363
000020 6d 56 f4 39 2a d2 e7 3d 52 1b 42 bc 09 85 cd 3b
       0.000466037 0.113193825 -0.011847334 0.0062719625
000030 b2 62 27 bc 10 81 1f bc c8 0d 46 3b 1f da 3d 3c
       -0.010216402 -0.009735361 0.0030220617 0.011587649
000040 c1 d7 6b bc 0d b3 9a bb d9 4e b1 bb 13 43 4d bc
       -0.014394701 -0.0047210515 -0.0054110107 -0.012528199
000050 b8 4e a5 3c ea 3e 90 3a fb b1 1d bc 0f 23 0b bc
       0.020179138 0.0011005078 -0.009624953 -0.008492245
000060 10 59 49 bb 1e 79 db ba f0 c1 ae 3c a2 23 6e bc
       -0.0030723251 -0.001674447 0.021332711 -0.014534863
000070 86 3a 10 bc 7f b9 cd bc aa ea cd 3b 60 d6 78 3b
       -0.008803016 -0.025112865 0.0062840777 0.0037969574
000080 b1 19 0f bb c2 07 33 bc 2e 15 17 bc 53 7f 25 3c
       -0.0021835382 -0.010927143 -0.009221358 0.010101157
000090 d9 b6 bd bb a6 08 f3 ba 2c 4a 9f bc 2f 4d 60 bb
       -0.0057896194 -0.0018542006 -0.019444548 -0.0034225693
0000a0 b1 e3 91 ba 8d 96 9a bc b0 48 11 bc d9 9f 66 3b
       -0.0011130479 -0.018870616 -0.008867428 0.0035190491
0000b0 14 9d bf 3b d8 d0 6c 3c e8 12 63 bc 68 e5 e5 b9
       0.0058475826 0.014454089 -0.013859488 -0.00043849205
0000c0 e8 78 54 bc 6f df 2f bc be 87 14 bd a7 00 2c bb
       -0.012968279 -0.010734423 -0.036262266 -0.0026245506
0000d0 92 76 0d bc d7 53 d5 ba 28 11 07 bb 49 33 1d bc
       -0.008634226 -0.0016275597 -0.002060959 -0.009594747
0000e0 0e 05 01 3b 37 44 12 3c ca 6a 66 bc 2a 5b 67 bb
       0.001968685 0.0089273965 -0.014063546 -0.003530214
0000f0 d4 b0 38 bc d6 4f 22 ba d7 0f 4f bc 27 fd 6a 3a
       -0.011272628 -0.0006191706 -0.012638054 0.0008964114
000100 d9 fd ca bb ae 1f 93 3a 58 b0 95 3c 66 67 43 bc
       -0.006194812 0.0011224651 0.018272564 -0.011926508
000110 20 32 9c bb 87 37 a3 bc 86 48 54 bb 1e b4 ff 3c
       -0.0047667176 -0.019923938 -0.003239186 0.031213816
000120 d9 90 1e bc 6d 4a 9b bc 7a 8b 6b bb c3 e7 0e bc
       -0.009678089 -0.018956387 -0.0035941289 -0.0087222485
000130 3b b0 c4 ba ec 40 58 bc 0a de 1f ba 81 9d 3e bc
       -0.0015006134 -0.013199072 -0.0006098455 -0.011634232
000140 b0 15 10 3d 2e c7 2c bc dc 80 74 bc cb 44 41 bc
       0.035176933 -0.010545535 -0.014923301 -0.011796187
000150 14 96 68 bc e5 96 0f 3c 5d 33 75 bc 07 8f 87 3c
       -0.014195938 0.008764003 -0.014965859 0.016547693
000160 95 ec d9 bb ea 4d b8 bc 56 13 3e bc 26 1d 5b bc
       -0.006650517 -0.02249809 -0.01160129 -0.013373649
000170 26 8c 5b ba 1f 7a 45 b9 86 79 93 bc 1c 90 82 3b
       -0.0008375071 -0.00018832878 -0.018002283 0.0039844643
000180 de f2 e5 bb aa 22 36 bc 71 6f 6f 3c 75 5e 8b bc
       -0.0070174774 -0.011116663 0.014613972 -0.017012814
000190 9b 67 87 bb a3 2b 08 3b 32 22 44 bc 40 2a 17 3b
       -0.004132224 0.0020777963 -0.011971043 0.0023065954
0001a0 de 26 de bb ae 67 8b bc 22 fc ce ba 76 cd a1 bc
       -0.0067795357 -0.017017212 -0.0015791694 -0.019751292
0001b0 5e 89 68 bb 64 56 a7 38 fb 2e 27 3b 70 7b 2a bc
       -0.0035482268 7.979272e-05 0.002551018 -0.010405406
0001c0 c4 3c 47 3c 1b e8 6c bc 88 cf 09 bc f9 86 25 bc
       0.012160484 -0.014459635 -0.008411296 -0.010102981
0001d0 41 8f 6f bc 9b 4d 11 3d 81 35 36 3b 64 86 57 3b
       -0.014621557 0.0354744 0.0027802887 0.00328865
0001e0 0e 25 7d ba a4 75 02 bc c1 e1 93 3c 94 61 0d bc
       -0.00096567057 -0.007962618 0.018051984 -0.0086292215
0001f0 0c 21 56 bc 03 2c 06 bc 98 73 3a bc 6e 50 31 ba
       -0.013069402 -0.008189204 -0.011380099 -0.0006763999
000200 a8 ed 0b 3c 7c a6 ad bb 91 1c 13 ba 3d cb b7 bc
       0.008540548 -0.0052993875 -0.00056118617 -0.022435779
000210 17 18 ec 3b cf ff d0 bc 80 38 99 ba 98 cd 74 bb
       0.00720502 -0.025512604 -0.0011689812 -0.0037353989
000220 73 f4 fb bb 90 9c ea 38 4e db d8 ba 34 31 e2 3a
       -0.0076890527 0.000111871515 -0.001654485 0.0017257095
000230 47 fd 0b bc 00 18 c4 3a dd dc 3e bb 60 c3 4d bb
       -0.008544273 0.0014960766 -0.0029123344 -0.003139697
000240 26 1b 3a bb 26 7a cd 3a f9 23 46 38 77 11 9d 3b
       -0.002839753 0.0015676662 4.724038e-05 0.0047933417
000250 45 9c 49 39 18 87 6c bc e7 d9 62 bc a9 ea 7c bb
       0.00019227069 -0.014436506 -0.013845897 -0.0038592017
000260 4b bb 87 3b b3 47 71 b8 37 12 4d bc a4 2d b4 39
       0.0041422 -5.7525653e-05 -0.01251655 0.0003436628
000270 b9 21 4f 3b 85 a4 ab bc 9d bf b5 3c 1d fc 89 38
       0.0031605794 -0.020952472 0.022186095 6.579629e-05
000280 82 e8 de bb 90 7c be 3b 15 79 40 bc 23 78 82 ba
       -0.0068026194 0.005813189 -0.011747618 -0.0009954016
000290 26 44 3f 3b 63 a7 e4 3b a1 20 63 bb 97 3a e2 b9
       0.0029184907 0.006977962 -0.00346569 -0.00043149732
0002a0 84 b7 ab bb e0 ef 49 bc 19 ae a8 3b 90 bb bd bc
       -0.0052403826 -0.012325257 0.005147707 -0.023160726
0002b0 80 c4 25 bc c4 a9 12 bc 6b fa 41 3c 05 88 14 bb
       -0.01011765 -0.008951608 0.011839489 -0.0022664082
0002c0 47 dc 5f 3c 38 c1 31 3c 3a 8d 30 bc 83 77 f0 ba
       0.013663358 0.01084929 -0.010775859 -0.0018346164
0002d0 e9 67 f6 bb ac c6 bd bc a7 c1 d6 3a 63 03 8c ba
       -0.0075197113 -0.023166023 0.0016384617 -0.0010682162
0002e0 7f fc 3c 3c 1d 41 d2 3b dc fc 3d 3c be c6 07 3c
       0.011534809 0.0064164535 0.011595931 0.00828713
0002f0 a1 27 79 39 b3 69 95 3b 2e 8f 9c 3c 51 73 ef 39
       0.00023761253 0.0045597195 0.019111242 0.0004567155
000300 64 6c c9 3b aa 00 ab 3a b5 7d b6 ba 70 d4 74 39
       0.0061469544 0.0013046463 -0.0013922962 0.00023348792
000310 8b 25 af 3c e3 89 fa bb 67 86 0c bc 66 10 2f 3d
       0.021380207 -0.007645832 -0.008576966 0.04274025
000320 d9 1b 07 3c 56 40 8a 3b 1e f6 96 bb a9 dd 26 3c
       0.0082463855 0.004219095 -0.004606976 0.010184684
000330 aa 1b 8e 3a d2 b8 fc 39 c4 a7 8f bc 3e dd 2c b8
       0.0010841985 0.00048202887 -0.017536052 -4.1214043e-05
000340 80 6c 4f 3c 0b 96 99 bc 61 c2 83 3b 07 b9 19 bc
       0.012660146 -0.018748304 0.0040209745 -0.009382493
000350 05 aa 23 bb e9 0c 16 3d 75 90 15 3b d3 4a 38 3c
       -0.0024973166 0.036633406 0.0022821699 0.011248308
000360 92 e7 95 bb 7b b2 b0 3b 54 c2 f4 3b 15 b9 28 bc
       -0.0045747245 0.0053923703 0.007469455 -0.010298033
000370 16 e0 6a bc 44 a3 91 3c 7f c7 0e bc bc 51 b0 3b
       -0.014335653 0.017778046 -0.008714556 0.0053808372
000380 fd 56 91 bb b1 2d 9f bc 35 f5 73 3c 01 28 ca bb
       -0.0044354186 -0.019430967 0.014890005 -0.0061693196
000390 84 de 34 bc bb dd c9 3a ee 8a 41 3b 8b 8a 4c b8
       -0.01103938 0.0015401164 0.0029532271 -4.876642e-05
0003a0 42 2b 28 bc 80 ac c9 3a 76 67 00 bc 40 6b 45 3c
       -0.01026422 0.0015386492 -0.007837167 0.012049496
0003b0 e0 39 ca 39 cc 32 f2 3b 0f cf b6 bc 06 2e 4f bc
       0.00038571563 0.0073913094 -0.02231553 -0.01264525
0003c0 61 0a 53 bc 53 a0 2d 3c 8a 11 1f 3b e5 10 f5 bb
       -0.0128808925 0.010597306 0.0024271929 -0.0074788206
0003d0 24 0b 75 bc 96 af 52 3b 02 db b0 3b 45 70 de 3c
       -0.014956269 0.0032148114 0.0053972015 0.027153144
0003e0 76 f3 99 39 cf 37 e9 bb b2 7c 11 3c 4f 83 81 bb
       0.00029363827 -0.0071172486 0.008879827 -0.003952421
0003f0 9d 4d 0b bc f5 9d 19 3b 83 23 cd bb d7 78 23 3b
       -0.008502391 0.0023440097 -0.006260337 0.0024943852

action_model._continuous_distribution.mu.bias f4 [2]
000000 44 bf 3b 3e 20 0f df 3c
       0.18334681 0.027228892

exp_avg f4 [128, 14]
000000 d5 c4 e4 2a 04 00 00 80 1e 8a 92 ab 4c cf 96 2a
       4.0637516e-13 -6e-45 -1.0412259e-12 2.6789194e-13
000010 e3 78 9d 9f 46 a8 ba 2a da 1a 9d 27 f0 b3 0e 28
       -6.6692077e-20 3.3157e-13 4.3605366e-15 7.921601e-15
000020 6d a8 29 26 ed 13 75 20 c0 ee 6f 26 0b 70 dd 27
       5.8861913e-16 2.07589e-19 8.324335e-16 6.14613e-15
000030 c0 ee 6f 26 ee 82 db 25 34 79 58 2e 04 00 00 80
       8.324335e-16 3.8079166e-16 4.9220364e-11 -6e-45
000040 df a9 0a af c2 87 0e 2e b2 d0 14 a3 1a 86 2e 2e
       -1.2611377e-10 3.240764e-11 -8.067289e-18 3.9682126e-11
000050 d5 59 17 2b 34 b0 85 2b 48 52 a2 29 6d 46 cc 24
       5.3770644e-13 9.499125e-13 7.208519e-14 8.85902e-17
000060 a0 8e e5 29 aa cd 55 2b a0 8e e5 29 bf 36 af 28
       1.01943844e-13 7.595822e-13 1.01943844e-13 1.9452645e-14
000070 76 7d 38 bd 04 00 00 00 4b 5a ec 3d 54 ed f2 bc
       -0.045041524 6e-45 0.115406595 -0.029654182
000080 74 aa fd 31 5d b3 14 bd 9f 09 01 ba f0 d2 63 ba
       7.3826474e-09 -0.036303867 -0.0004922393 -0.0008690795
000090 72 6c 8a b8 24 58 06 b3 b5 c2 c3 b8 5f 63 36 ba
       -6.600552e-05 -3.127947e-08 -9.3345916e-05 -0.00069575565
0000a0 b5 c2 c3 b8 33 90 5e b7 59 ad 8d bc 04 00 00 00
       -9.3345916e-05 -1.3265805e-05 -0.017294573 6e-45
0000b0 2a 81 35 3d 9a 8e 3a bc f5 cc 42 31 2f 69 64 bc
       0.044312634 -0.011386538 2.834722e-09 -0.013941093
0000c0 84 27 46 b9 89 f8 ae b9 1c 90 d4 b7 6e c6 4f b2
       -0.00018897472 -0.0003337304 -2.5339476e-05 -1.20941035e-08
0000d0 01 4e 16 b8 40 0a 8c b9 01 4e 16 b8 91 69 ac b6
       -3.5835434e-05 -0.00026710518 -3.5835434e-05 -5.138289e-06
0000e0 2b 31 51 a2 04 00 00 00 db ff 05 23 c5 ab 09 a2
       -2.8350811e-18 6e-45 7.264124e-18 -1.8657896e-18
0000f0 28 d5 0f 17 7d 1e 28 a2 b3 f1 12 9f 79 d9 80 9f
       4.6474833e-25 -2.2784386e-18 -3.111663e-20 -5.456989e-20
000100 56 87 9d 9d de 4d 23 97 7b c7 de 9d 88 c7 4f 9f
       -4.169749e-21 -5.2766423e-25 -5.896917e-21 -4.3999003e-20
000110 7b c7 de 9d ce c6 b9 9b 6f 51 f2 bc 04 00 00 00
       -5.896917e-21 -3.0734157e-22 -0.029579846 6e-45
000120 f2 37 9b 3d 82 80 9f bc 1e 9b a6 31 9e b8 c2 bc
       0.0757903 -0.019470457 4.8488706e-09 -0.023769673
000130 1a 3d aa b9 86 3d 15 ba 61 29 36 b8 c2 56 8e 2e
       -0.0003247045 -0.00056930666 -4.343072e-05 6.472824e-11
000140 ca ce 80 b8 12 c1 f0 b9 ca ce 80 b8 30 71 7a 34
       -6.142033e-05 -0.00045920216 -6.142033e-05 2.3324242e-07
000150 e2 35 d6 14 04 00 00 00 c4 36 89 95 17 c2 8d 14
       2.1629731e-26 6e-45 -5.5420264e-26 1.4313917e-26
000160 34 de 92 89 39 60 c2 14 c1 0b 74 11 e1 29 12 12
       -3.535718e-33 1.9626947e-26 1.9251828e-28 4.6121097e-28
000170 20 46 19 10 ed 34 a2 0d 18 c3 58 10 3f 36 a2 11
       3.0227952e-29 9.996762e-31 4.2748784e-29 2.5592525e-28
000180 18 c3 58 10 e5 15 2a 11 01 1f d8 bc 04 00 00 00
       4.2748784e-29 1.3417382e-28 -0.026381971 6e-45
000190 19 70 8a 3d 11 4a 8e bc 27 94 94 31 69 33 ae bc
       0.06759662 -0.017369302 4.32421e-09 -0.021264749
0001a0 85 27 97 b9 20 72 05 ba 3d 26 22 b8 f8 a8 9d b2
       -0.0002883041 -0.00050905533 -3.8659422e-05 -1.8354044e-08
0001b0 5a 50 65 b8 22 a6 d5 b9 5a 50 65 b8 52 b8 02 b7
       -5.4672688e-05 -0.00040750304 -5.4672688e-05 -7.791519e-06
0001c0 52 56 e8 bc 04 00 00 80 3f d3 94 3d 4d f7 98 bc
       -0.028361473 -6e-45 0.072668545 -0.01867261
0001d0 1a ba 9f 31 09 46 bb bc 4c 7e a2 b9 b6 75 0f ba
       4.6486663e-09 -0.022860544 -0.00030993146 -0.00054725574
0001e0 d2 4f 2e b8 96 af a9 b2 a1 83 76 b8 01 ad e5 b9
       -4.155917e-05 -1.9754037e-08 -5.877356e-05 -0.00043807182
0001f0 a1 83 76 b8 dc a0 0c b7 a3 f3 21 29 04 00 00 00
       -5.877356e-05 -8.382103e-06 3.5960503e-14 6e-45
000200 81 7a cf a9 96 8a d5 28 cc 7e de 9d 8d 2a 05 29
       -9.213898e-14 2.3707852e-14 -5.8894016e-21 2.956884e-14
000210 61 cf db 25 41 5c 4b 26 42 0a 70 24 86 dc ae 20
       3.813097e-16 7.05548e-16 5.2050393e-17 2.9622677e-19
000220 e5 bb a9 24 9a 06 1a 26 e5 bb a9 24 a9 71 a1 24
       7.361037e-17 5.343843e-16 7.361037e-17 7.001517e-17
000230 ca e5 de 2c 04 00 00 00 51 c7 8e ad 57 a9 92 2c
       6.335131e-12 6e-45 -1.6232045e-11 4.16837e-12
000240 8c 4b 99 a1 0f f7 b2 2c 81 c9 9c 29 f0 2e 09 2a
       -1.038768e-18 5.0864933e-12 6.962747e-14 1.2184329e-13
000250 fc 25 28 28 d3 f2 73 a3 3c cc 6d 28 70 c3 dd 29
       9.33411e-15 -1.32244764e-17 1.3200429e-14 9.8482745e-14
000260 3c cc 6d 28 31 3d b5 25 92 be e0 2b 04 00 00 80
       1.3200429e-14 3.143996e-16 1.5969051e-12 -6e-45
000270 2a f6 8f ac 3a 13 94 2b 7c 79 9a a0 2c e6 b6 2b
       -4.091634e-12 1.0521369e-12 -2.6169006e-19 1.2995763e-12
000280 d0 f2 9a 28 86 e3 0b 29 69 82 27 27 94 4e c8 21
       1.7202738e-14 3.1061545e-14 2.3246601e-15 1.3573327e-18
000290 e6 e4 6c 27 cc bb da 28 e6 e4 6c 27 3f 50 e8 26
       3.2875665e-15 2.4284306e-14 3.2875665e-15 1.6119985e-15
0002a0 53 05 69 aa 04 00 00 80 56 43 15 2b 2c 5b 19 aa
       -2.0696404e-13 -6e-45 5.302888e-13 -1.3620761e-13
0002b0 44 37 20 1f 80 4c 3b aa f1 a4 23 a7 a0 8b 8f a7
       3.3927033e-20 -1.6635478e-13 -2.271021e-15 -3.9841855e-15
0002c0 18 70 af a5 de 9c 98 9f 4b 1b f8 a5 a9 60 67 a7
       -3.0433619e-16 -6.463402e-20 -4.3039637e-16 -3.211009e-15
0002d0 4b 1b f8 a5 e9 db db a3 2d db 3a bd 04 00 00 80
       -4.3039637e-16 -2.3837163e-17 -0.04561918 -6e-45
0002e0 4a 62 ef 3d d5 0a f6 bc a4 75 00 32 5b 9b 16 bd
       0.11688669 -0.030034462 7.477329e-09 -0.036769252
0002f0 8e b1 02 ba ac be 66 ba 5a 33 8c b8 51 01 08 b3
       -0.0004985564 -0.0008802216 -6.685285e-05 -3.1666165e-08
000300 0b 46 c6 b8 98 ba 38 ba 0b 46 c6 b8 78 54 61 b7
       -9.454422e-05 -0.00070468476 -9.454422e-05 -1.3430712e-05
000310 b1 31 00 00 04 00 00 80 56 7f 00 80 d8 20 00 00
       1.7826e-41 -6e-45 -4.568e-41 1.1782e-41
000320 04 00 00 80 f9 1d 00 00 be 00 00 00 c1 00 00 00
       -6e-45 1.0752e-41 2.66e-43 2.7e-43
000330 12 00 00 00 04 00 00 00 19 00 00 00 cc 00 00 00
       2.5e-44 6e-45 3.5e-44 2.86e-43
000340 19 00 00 00 37 01 00 00 d6 cf d9 bc 04 00 00 00
       3.5e-44 4.36e-43 -0.026588362 6e-45
000350 58 85 8b 3d 2a 67 8f bc bc bd 95 31 ed 90 af bc
       0.06812543 -0.017505247 4.358041e-09 -0.02143141
000360 70 55 98 b9 ca 7d 06 ba b7 69 23 b8 70 0c 9f b2
       -0.00029055355 -0.00051304384 -3.8960683e-05 -1.8515692e-08
000370 d2 19 67 b8 da 50 d7 b9 d2 19 67 b8 27 db 03 b7
       -5.509874e-05 -0.00041068235 -5.509874e-05 -7.859234e-06
000380 7c 90 d2 ac 04 00 00 00 e5 e0 86 2d 80 9f c8 2c
       -5.9846e-12 6e-45 1.533391e-11 5.70205e-12
000390 2e 8e e3 a2 2a 6b e8 2c 74 80 a5 aa fc b5 fe 29
       -6.167901e-18 6.605734e-12 -2.939902e-13 1.1311435e-13
0003a0 09 ff 62 aa 6a a9 24 ab bf 82 a0 aa e8 be a7 2a
       -2.0161315e-13 -5.8499614e-13 -2.8512433e-13 2.9797627e-13
0003b0 bf 82 a0 aa 3c 97 a2 aa 87 e2 0c ae 04 00 00 80
       -2.8512433e-13 -2.888192e-13 -3.203351e-11 -6e-45
0003c0 50 7d b4 2e 2d 83 b9 ad 89 ba c1 22 ef 15 e3 ad
       8.207712e-11 -2.1090319e-11 5.2510257e-18 -2.5816653e-11
0003d0 84 1b c5 aa 34 f6 2d ab 8b 63 53 a9 a8 cf ae a3
       -3.5013323e-13 -6.180362e-13 -4.693775e-14 -1.8953064e-17
0003e0 79 79 95 a9 ef 54 0b ab 79 79 95 a9 f2 5e 01 a8
       -6.6380014e-14 -4.950059e-13 -6.6380014e-14 -7.1815265e-15
0003f0 88 c1 de ac 04 00 00 00 1b b0 8e 2d 3c b3 92 ac
       -6.3311058e-12 6e-45 1.6221737e-11 -4.1694686e-12

exp_avg_sq f4 [128, 14]
000000 5e cf 88 20 f4 01 00 00 3b 8a e0 21 3d 30 ec 1f
       2.317652e-19 7e-43 1.521542e-18 1.0002969e-19
000010 37 0b 66 09 06 7a a3 1c fd e9 3b 17 31 ef 08 18
       2.7690516e-33 1.0817978e-21 6.0718294e-25 1.7698349e-24
000020 65 5b 20 17 36 ac 17 15 65 5b a0 17 b6 a2 bc 13
       5.1814144e-25 3.0630058e-26 1.0362829e-24 4.7618317e-27
000030 65 5b a0 17 d8 d0 88 18 11 1e c0 20 f4 01 00 00
       1.0362829e-24 3.5366054e-24 3.2545961e-19 7e-43
000040 2c a8 1d 22 94 37 24 20 48 13 32 09 22 32 8f 1f
       2.1366497e-18 1.390973e-19 2.1435037e-33 6.0645794e-20
000050 29 25 a2 1a 20 b0 40 1a da df 82 17 33 db f4 17
       6.7061665e-23 3.9846942e-23 8.457561e-25 1.5823464e-24
000060 da df 02 18 4d eb 82 19 da df 02 18 22 66 99 1a
       1.6915122e-24 1.3536722e-23 1.6915122e-24 6.344432e-23
000070 27 9d 97 3d f4 01 00 00 41 d6 f8 3e 8a 73 02 3d
       0.07403021 7e-43 0.48600963 0.031848468
000080 9a 45 2b 26 95 5b c3 3c ff 66 6a 37 64 5f 59 37
       5.942187e-16 0.02384738 1.39714675e-05 1.2956418e-05
000090 08 55 38 34 c7 3c 13 34 07 55 b8 34 4c 93 0f 37
       1.716727e-07 1.3712553e-07 3.4334536e-07 8.557759e-06
0000a0 07 55 b8 34 55 11 5a 37 35 ee 37 3c f4 01 00 00
       3.4334536e-07 1.2997848e-05 0.011226227 7e-43
0000b0 29 f0 96 3d dc 3f 9e 3b 1c 0a d0 24 22 f1 6b 3b
       0.07370026 0.00482939 9.022275e-17 0.003600188
0000c0 86 33 0e 36 8d 77 03 36 50 b5 df 32 75 dd b3 32
       2.118964e-06 1.959011e-06 2.6043068e-08 2.093905e-08
0000d0 50 b5 5f 33 f2 a9 ad 35 50 b5 5f 33 b4 1a 04 36
       5.2086136e-08 1.2938965e-06 5.2086136e-08 1.9685076e-06
0000e0 2e 99 9e 07 f4 01 00 00 5e 26 02 09 49 d1 08 07
       2.3863229e-34 7e-43 1.5666221e-33 1.0293006e-34
0000f0 f4 01 00 00 6a 53 9f 07 1e 64 9e 00 52 df 0a 01
       7e-43 2.3972687e-34 1.4545924e-38 2.5506821e-38
000100 98 d4 05 00 7c 77 00 00 44 a9 0b 00 62 41 0d 01
       5.35442e-40 4.2863e-41 1.070912e-39 2.594452e-38
000110 44 a9 0b 00 88 81 23 00 ce ae 9e 3b f4 01 00 00
       1.070912e-39 3.26071e-39 0.0048426157 7e-43
000120 26 38 02 3d fb ff 08 3b 0d 51 be 24 e4 d3 75 3b
       0.03179183 0.002090453 8.253667e-17 0.003751033
000130 0f d5 f9 34 c6 7a c5 35 3f 6c 39 32 b4 33 ca 2b
       4.6534885e-07 1.4713376e-06 1.079303e-08 1.4367314e-12
000140 40 6c b9 32 ae db 79 35 40 6c b9 32 ef ac 5a 2f
       2.1586061e-08 9.3079404e-07 2.1586061e-08 1.9888423e-10
000150 81 87 2a 00 f4 01 00 00 5f 9a 0b 01 96 62 12 00
       3.9057e-39 7e-43 2.5641024e-38 1.688405e-39
000160 f4 01 00 00 1c 35 00 00 f4 01 00 00 f4 01 00 00
       7e-43 1.9052e-41 7e-43 7e-43
000170 f4 01 00 00 f4 01 00 00 f4 01 00 00 f4 01 00 00
       7e-43 7e-43 7e-43 7e-43
000180 f4 01 00 00 f4 01 00 00 61 6b d3 3c f4 01 00 00
       7e-43 7e-43 0.025808038 7e-43
000190 0d 7f 2d 3e 4d e7 35 3c e0 37 6e 25 15 b1 07 3c
       0.16942997 0.01110251 2.066214e-16 0.008281966
0001a0 41 70 a3 36 cb 16 97 36 5d 94 80 33 eb cf 4e 33
       4.8708466e-06 4.502804e-06 5.9874516e-08 4.8152213e-08
0001b0 5d 94 00 34 f5 52 47 36 5d 94 00 34 f0 f4 97 36
       1.1974903e-07 2.9701598e-06 1.1974903e-07 4.528665e-06
0001c0 1a 00 f3 3c f4 01 00 00 9a 69 47 3e 09 14 51 3c
       0.029663134 7e-43 0.19473878 0.012761124
0001d0 39 4b 89 25 0b 56 1c 3c 1f dc bb 36 e0 08 ae 36
       2.3816684e-16 0.009541999 5.5986598e-06 5.1866373e-06
0001e0 14 bd 93 33 13 7f 6c 33 12 bd 13 34 f9 e5 65 36
       6.879614e-08 5.5063605e-08 1.3759225e-07 3.425752e-06
0001f0 12 bd 13 34 61 b0 ae 36 ff 8a 05 20 f4 01 00 00
       1.3759225e-07 5.2061373e-06 1.1311528e-19 7e-43
000200 77 2d 5b 21 52 e6 66 1f 35 a2 d3 08 86 fc 0d 1c
       7.426026e-19 4.889491e-20 1.2737235e-33 4.6979365e-22
000210 64 89 e9 15 25 77 47 17 63 e5 99 16 80 79 3e 0f
       9.4324715e-26 6.445075e-25 2.4863247e-25 9.391123e-30
000220 63 e5 19 17 2a 61 38 11 63 e5 19 17 c5 74 c7 17
       4.9726493e-25 1.4544982e-28 4.9726493e-25 1.288955e-24
000230 73 50 37 1e f4 01 00 00 ae 6e 96 1f d2 7c 9d 1d
       9.704576e-21 7e-43 6.3710575e-20 4.1686615e-21
000240 7e cd 8a 06 16 a5 57 1e 70 1b be 16 14 1e 85 16
       5.2211774e-35 1.1416144e-20 3.071347e-25 2.150629e-25
000250 f2 38 ed 14 ed 0f cd 14 f2 38 6d 15 79 47 34 17
       2.3953345e-26 2.0705992e-26 4.790669e-26 5.825135e-25
000260 f2 38 6d 15 78 95 ea 14 fe 70 8f 20 f4 01 00 00
       4.790669e-26 2.3686917e-26 2.4299914e-19 7e-43
000270 3f 6c eb 21 ac 02 f8 1f e7 98 72 09 e0 cd d4 1c
       1.5952872e-18 1.05036506e-19 2.9201585e-33 1.4082201e-21
000280 35 62 b8 17 f7 7d 29 18 2c 52 25 17 97 f1 1b 11
       1.1915512e-24 2.1906334e-24 5.341809e-25 1.230179e-28
000290 2c 52 a5 17 87 8c c9 15 2c 52 a5 17 8c ac a7 18
       1.0683618e-24 8.1404967e-26 1.0683618e-24 4.3342716e-24
0002a0 14 c6 9e 17 f4 01 00 00 56 4b 02 19 d8 c1 08 17
       1.0260513e-24 7e-43 6.7360564e-24 4.4188635e-25
0002b0 dc e2 5c 00 8d 7f 92 17 3a 5c cb 10 ba 18 35 11
       8.530247e-39 9.467227e-25 8.021148e-29 1.4286002e-28
0002c0 40 8e 40 0e 0d 87 d7 0d 40 8e c0 0e c2 cc 1a 11
       2.3734318e-30 1.328291e-30 4.7468636e-30 1.2211554e-28
0002d0 40 8e c0 0e 5c 60 20 10 f7 93 9b 3d f4 01 00 00
       4.7468636e-30 3.162867e-29 0.075965814 7e-43
0002e0 c6 57 ff 3e 8d dc 05 3d 3a 9e 2f 26 d4 5e c8 3c
       0.49871653 0.032681037 6.092976e-16 0.02445928
0002f0 6d 80 70 37 36 f3 5e 37 16 2b 3d 34 b5 3e 17 34
       1.4335016e-05 1.3288858e-05 1.7617671e-07 1.4085784e-07
000300 17 2b bd 34 16 32 13 37 17 2b bd 34 52 c1 5f 37
       3.5235345e-07 8.773544e-06 3.5235345e-07 1.3336847e-05
000310 f4 01 00 00 f4 01 00 00 f4 01 00 00 f4 01 00 00
       7e-43 7e-43 7e-43 7e-43
000320 f4 01 00 00 f4 01 00 00 f4 01 00 00 f4 01 00 00
       7e-43 7e-43 7e-43 7e-43
000330 f4 01 00 00 f4 01 00 00 f4 01 00 00 f4 01 00 00
       7e-43 7e-43 7e-43 7e-43
000340 f4 01 00 00 f4 01 00 00 d2 df d5 3c f4 01 00 00
       7e-43 7e-43 0.026107702 7e-43
000350 d1 82 2f 3e 61 04 38 3c 49 ad 71 25 96 7c 09 3c
       0.17139746 0.011231513 2.0962129e-16 0.00839152
000360 b1 51 a5 36 b0 16 99 36 13 0b 82 33 36 74 50 33
       4.9268933e-06 4.5623965e-06 6.055611e-08 4.8534467e-08
000370 13 0b 02 34 b7 2f 4a 36 13 0b 02 34 ff b4 99 36
       1.2111222e-07 3.012812e-06 1.2111222e-07 4.580826e-06
000380 57 7c b5 34 f4 01 00 00 a3 ee 14 36 88 c7 1c 34
       3.3804346e-07 7e-43 2.2192623e-06 1.4601221e-07
000390 f1 c6 24 1e 48 d0 7b 30 0d 7d a6 28 83 ae 37 2c
       8.723228e-21 9.1609254e-10 1.8483934e-14 2.6102738e-12
0003a0 db eb 41 2b 3c cf 12 26 da eb c1 2b a2 bd b7 1f
       6.889469e-13 5.093478e-16 1.3778937e-12 7.7817236e-20
0003b0 da eb c1 2b 83 ae b7 2c f4 b7 03 1f f4 01 00 00
       1.3778937e-12 5.2205475e-12 2.789249e-20 7e-43
0003c0 0e 2f 58 20 24 5b 5f 1e a9 35 ab 07 b5 70 a2 1e
       1.8311481e-19 1.1824369e-20 2.576076e-34 1.7199032e-20
0003d0 7f 12 9c 18 2d a1 ca 18 d8 7f d3 15 b4 50 c2 16
       4.034373e-24 5.2378522e-24 8.5423923e-26 3.139332e-25
0003e0 d6 7f 53 16 38 95 ad 18 d6 7f 53 16 aa 39 6b 18
       1.7084782e-25 4.4870124e-24 1.7084782e-25 3.0402151e-24
0003f0 fe 15 aa 1f f4 01 00 00 a6 93 0b 21 51 fa 12 1f
       7.2034184e-20 7e-43 4.7290443e-19 3.112376e-20

exp_avg f4 [128]
000000 4a 4e 22 28 21 95 99 2b 20 e4 82 ba 6b 08 c9 b9
       9.009783e-15 1.0912695e-12 -0.00099862 -0.0003834398
000010 a7 6a 94 9f 31 eb 2b ba 1c fa 17 12 24 55 19 ba
       -6.285688e-20 -0.00065581786 4.795548e-28 -0.0005849174
000020 65 d6 24 ba 30 cd 65 26 ee 23 1e 2a 5c 73 1f 29
       -0.0006288051 7.9728416e-16 1.4045685e-13 3.540515e-14
000030 8d 52 a5 a7 e0 91 84 ba 19 01 00 00 3b 88 1a ba
       -4.58862e-15 -0.0010114275 3.94e-43 -0.0005894934
000040 c3 63 15 aa a0 e8 47 ab 34 0a 1e aa a3 c6 35 ba
       -1.326847e-13 -7.1021834e-13 -1.4036759e-13 -0.0006934201
000050 1e 64 9b a9 8c 98 86 ba 70 9c 70 ab 02 80 01 a4
       -6.90075e-14 -0.0010268851 -8.548223e-13 -2.8080843e-17
000060 03 42 88 21 fa a1 2a 39 f5 40 83 21 72 69 66 ac
       9.233192e-19 0.00016272804 8.894099e-19 -3.27435e-12
000070 ec d0 99 b9 c2 43 2b 1e a7 c7 5e 23 8b 59 2d ba
       -0.00029338093 9.066677e-21 1.2076922e-17 -0.0006612769
000080 eb 2f 8a ba ef 73 9f b7 55 06 61 2b 5e 53 77 ba
       -0.0010542845 -1.9008263e-05 7.9944845e-13 -0.0009434725
000090 3c d0 82 39 18 14 a9 2e d3 b7 a5 b9 f2 83 20 ba
       0.0002495068 7.6887996e-11 -0.00031608212 -0.0006123177
0000a0 51 37 95 2b bd 8d 88 16 69 17 d8 a5 1c 1a ce 28
       1.060244e-12 2.2061434e-25 -3.748589e-16 2.2881917e-14
0000b0 13 25 fa 25 1e 81 56 ac 2e 8a d4 2b 3f ff 87 ab
       4.339321e-16 -3.0482904e-12 1.5101859e-12 -9.663172e-13
0000c0 c1 86 6b 2a 2d 04 08 a5 19 61 50 ba fe a5 59 23
       2.0918945e-13 -1.1797534e-16 -0.0007949039 1.1798744e-17
0000d0 4c 1b f7 ab 70 42 6d ba 2b ae 89 2b b8 15 f5 29
       -1.7557982e-12 -0.00090507325 9.782777e-13 1.0883953e-13
0000e0 61 13 4b b9 d1 4a 55 29 2a f5 0b 2a 82 34 70 22
       -0.00019366808 4.7360394e-14 1.2430738e-13 3.2553863e-18
0000f0 ac 31 b2 a5 f3 9c 9d 2b a1 e8 81 ba 38 42 7b 94
       -3.0911737e-16 1.1199083e-12 -0.0009911248 -1.2685321e-26
000100 9b e1 50 b2 ff 12 c6 a2 63 73 0f 1c 06 26 ac 2a
       -1.215849e-08 -5.368812e-18 4.7463865e-22 3.0579722e-13
000110 88 dd 94 27 14 0a 51 24 00 b5 4b a8 3d 40 9e a8
       4.1318437e-15 4.5328187e-17 -1.1308012e-14 -1.7569383e-14
000120 71 ef 98 ba 5e 11 18 b9 fd 3e bc 28 41 ce a1 b9
       -0.0011668039 -0.0001450232 2.089951e-14 -0.00030861984
000130 90 66 a9 39 6e f3 4a ba ab bd 80 ba a0 e2 43 2c
       0.00032310607 -0.00077419623 -0.000982215 2.7836969e-12
000140 bb 4a 19 b0 92 a2 2a 28 27 a7 5d b9 46 9f 23 a3
       -5.5767274e-10 9.4721475e-15 -0.00021138471 -8.869975e-18
000150 b2 1f 6e ab 5e 47 96 28 4d 6b 7d 2a db c1 4a b9
       -8.459857e-13 1.6684296e-14 2.2508141e-13 -0.00019336438
000160 b7 ae f6 2e 34 96 91 b9 c4 c5 fe 25 f2 47 3d ba
       1.12178204e-10 -0.00027768465 4.4195987e-16 -0.00072204985
000170 8d e4 2c ba b6 7f e4 14 46 8c 10 ba 4d 49 45 ba
       -0.0006595336 2.307249e-26 -0.00055140664 -0.0007525876
000180 75 52 25 14 33 b7 9a a9 45 48 37 ba ed 83 29 ba
       8.346633e-27 -6.870754e-14 -0.0006991665 -0.0006466497
000190 13 9d 6f 2b 86 f4 2a 39 cd 89 00 09 8c 01 05 3a
       8.512784e-13 0.00016303555 1.5472233e-33 0.0005073778
0001a0 3f 9f 40 b8 2c 43 45 a5 dc 77 63 ba 3d 7f 87 24
       -4.5924677e-05 -1.7109785e-16 -0.0008677223 5.876247e-17
0001b0 f2 ad 83 ac d7 d3 16 9c 20 47 39 a8 e3 3e 6e 28
       -3.7425557e-12 -4.9904633e-22 -1.0284986e-14 1.322529e-14
0001c0 54 de c4 2b db 62 3f 28 34 73 b8 2a 44 de 10 ae
       1.3988346e-12 1.0624066e-14 3.2764904e-13 -3.293922e-11
0001d0 3c 6d 85 2a ac 9d 38 a6 3e 4b 37 88 ea d8 cc 29
       2.3701343e-13 -6.405151e-16 -5.5158006e-34 9.0970485e-14
0001e0 e0 8b 9c b9 f0 5c 47 ba f4 eb 10 02 5d d2 86 ba
       -0.00029858854 -0.00076050963 1.0647164e-37 -0.0010286082
0001f0 6f 3e 79 ba 4c 22 2a 2c e7 af cb a4 7d c9 36 39
       -0.00095078995 2.4177492e-12 -8.8335207e-17 0.00017431933
