results/TankLearningAI_timePunished/TankLearningAI/TankLearningAI-40.onnx (onnx, 76673 bytes, 6 tensors)

network_body._body_endoder.seq_layers.0.weight f4 [128, 8]
00000000: c86f 0cbe 15e6 a2bd 5b28 a93e 70fe 743c
00000010: 1438 033f 6e11 ca3e 9214 c43e facc f53e
00000020: 998f b8be 5ace 553f a502 ffbb c713 e13e
00000030: e942 e5bd 7386 953e fdae 3abe df71 06be
00000040: ea32 8bbd 5771 adbc 0d57 a23e 7fe7 0c3e
00000050: 0335 b13d d534 c0bd d9ec 643c 2839 2cbd
00000060: 2228 98bd 853e 633d 620d 7fbd 6ccc 28bd
00000070: cce7 d83e 01d3 833e bbb1 0cbe 0731 8abf
00000080: 776d d2be aa0b 88be 7e82 debe 6fbc 9a3e
00000090: 7973 5b3c 92c9 2bbe 2945 c4bc 8e32 41bb
000000a0: 5e0e a13e 465a 9a3e d9de 893e ffcd 033f
000000b0: 5502 a9be 9602 04bf 0fa0 03bf 4211 a63e
000000c0: ac75 cf3d 0b34 f5bd 65dc 6a3e 42aa 0ebc
000000d0: a69a 84be 9911 e93d ded7 c0be 63f4 b43e
000000e0: d924 653d 4832 af3d 584a 17bf 5e74 18be
000000f0: cda8 a6bd 5520 db3d 7e0d c0bd 5a5d 3fbe
00000100: 8760 d03d bcee 16bf 84b6 953d 62b4 4a3d
00000110: b5c5 f3be 6009 20bf 2d68 333e f051 a33d
00000120: 09d3 f83e f455 7bbe 87e9 de3d 4f4a d33d
00000130: 2483 0a3e 1a7a fc3d 9907 96be 14f0 183f
00000140: a87d 0f3d 30de 793c 71ac ca3e 854c 28be
00000150: c0ef 193e 6fc2 ab3d af0d 6f3e 6dfe 94be
00000160: 88b0 ff3e 63f0 ac3d 91c2 243e 7939 173f
00000170: 0e8e bebd 89da 82be e395 90be ddea 10be
00000180: 98dc 233f 5930 ecbe 9718 72bd d818 423c
00000190: b605 1a3e aae6 dc3e 0bad b83e fc3e e7bd
000001a0: e903 29bf 98e1 373f f765 8bbd 9a5c 2b3e
000001b0: 42da 4abf 28d4 173e 68eb e53e 6d62 bc3e
000001c0: f4bd ab3e 0bec 7fbe ff5d 173e 27eb 82bd
000001d0: d7bc 80be d268 1dbf 9b9a da3d 0634 5fbe
000001e0: 6814 9f3e 7ab6 9fbe dc76 39bf adec b83d
000001f0: beaa ad3e db45 233f f9a3 d03a 9888 ef3e
00000200: a7ef 03bf 0fe5 c7be a4ce 2d3d 965e a9be
00000210: f49e bd3e e1a7 603e 7082 193d b319 253e
00000220: c194 b9be e095 3d3e 28ac 16bf ce1a 20bf
00000230: 1278 a8bd bc3f b3be c459 903e 42f1 653e
00000240: cdaf d03e 620c 3ebe ec67 b3be 6546 f4be
00000250: 3c97 c23e d6e2 25bf 35e4 dc3e 87e9 a43e
00000260: 96d0 15bf f0c9 f93e 6fb1 983e 64ee 8bbe
00000270: 0783 17bf 2ab8 2b3c 5f33 4e3e d5b4 4dbe
00000280: 9a5c 6bbe 1d39 d6bd 8251 f83d 561d f9be
00000290: 2026 f9bc 9d0b f43c bb90 b43e fc73 fbbd
000002a0: 16cf d63d 8a3f 193f 5e90 b63e a5bc e13e
000002b0: 4187 2a3f d356 233f 748b 983d e856 26be
000002c0: 59ae 7fbd 6eb8 f43d 0f1e 0cbf 0c18 5e3e
000002d0: 0702 8fbf 6dea 963e 3988 abbd 9e0b d93c
000002e0: 303d 233f 2bc2 523e 5f53 ec3e f750 7f3e
000002f0: 7fbd 7b3e 8038 f93d 6613 c13d c10b c53e
00000300: d4e1 653e 40ca 37be 8656 eb3e edea 07be
00000310: e2a1 f43e 4e44 c23e 2d16 cabc 8b98 1a3b
00000320: 1901 9dbd 0e2d ccbe c0a4 46bf 8db7 eabd
00000330: 9015 a13e 2a23 e1be 79e8 2e3f b573 213e
00000340: 263e 533e 82cf a3be 51d5 223e e4a9 94be
00000350: 6770 f53c 6f0f 19bf 93ca 423b 1e90 20be
00000360: 4717 a1be e043 13be 707b 35bf bf87 bebe
00000370: 410d 14bf 0334 f63e 8753 3b3f 076a 1d3f
00000380: 2bca 2e3e 5241 e33e 2b99 57bd 8057 f8be
00000390: aee0 b03e 36fc 2cbf f2f3 f6be c4ce 8cbd
000003a0: 5d2c b43d df78 89be 41e8 d3be 9b2a 9cbe
000003b0: 5a77 903e 365f 3dbe 51b9 983e d224 a1be
000003c0: fa09 233f 701d 6cbe fd26 35bf 23e1 2bbf
000003d0: c49d 453e 72d2 a63d 7612 b83c 7eee 6d3e
000003e0: 50b4 14bf 1ae2 813e d7ed 023e ee38 6b3f
000003f0: 6603 e2bd 1b33 083d 4ddc da3e 2f57 efbc
-0.13714516 -0.07954041 0.330386 0.014953241 0.51257443 0.39466423 0.38296944 0.48007947
-0.36047056 0.8351799 -0.0077822977 0.439604 -0.11194403 0.2920414 -0.18230815 -0.13129376
-0.067968205 -0.021172209 0.3170704 0.13760184 0.08652689 -0.09385077 0.0139724845 -0.042046696
-0.0742953 0.055479545 -0.062268622 -0.041210577 0.42364347 0.2574692 -0.13739674 -1.0796212
-0.4109914 -0.265714 -0.43458933 0.30221888 0.01339423 -0.16776112 -0.02395876 -0.0029479596
0.31456274 0.30146998 0.26927832 0.514862 -0.33009592 -0.51566446 -0.51416105 0.32435042
0.10129866 -0.11972817 0.22935636 -0.008707585 -0.25899237 0.113803096 -0.37664694 0.35342702
0.055943344 0.08554512 -0.59097815 -0.1488814 -0.08137665 0.10699526 -0.093775734 -0.18687955
0.10174661 -0.5895803 0.07310203 0.049488433 -0.47611776 -0.62514305 0.17520209 0.07974613
0.48598507 -0.24544507 0.108843856 0.103169076 0.13526589 0.123279765 -0.29302672 0.5974133
0.035031945 0.0152507275 0.39584687 -0.1643544 0.15032864 0.08386695 0.23345064 -0.2910036
0.4993937 0.08444288 0.16089846 0.5907207 -0.093044385 -0.25557354 -0.28239354 -0.14152093
0.64008474 -0.46130636 -0.059105482 0.0118467435 0.15041241 0.43144733 0.3606952 -0.1129131
-0.6602159 0.71828604 -0.068065576 0.16734543 -0.79239285 0.14827025 0.44906163 0.36793843
0.3354336 -0.24992387 0.1478195 -0.06392508 -0.25144073 -0.6148807 0.1067402 -0.21797189
0.31070256 -0.31193906 -0.7244699 0.09029517 0.33919328 0.63778466 0.0015918008 0.467839
-0.51537555 -0.39041945 0.042433396 -0.33079976 0.37035334 0.2193904 0.03747791 0.16123085
-0.36246303 0.18514204 -0.5885644 -0.625409 -0.082260266 -0.35009563 0.28193486 0.22455314
0.40759125 -0.18559411 -0.35040224 -0.47709957 0.38006008 -0.6479925 0.43142858 0.32209417
-0.585214 0.4878688 0.2982287 -0.27330315 -0.59184307 0.01048092 0.20136784 -0.20088513
-0.22984543 -0.10460112 0.121249214 -0.48655194 -0.030413687 0.029790694 0.3526667 -0.12277982
0.10488717 0.5986258 0.35657018 0.44089237 0.6661263 0.6380436 0.074484736 -0.1624409
-0.06242213 0.1194924 -0.54733366 0.2168886 -1.1172494 0.29475728 -0.08375592 0.026494797
0.6376524 0.20581882 0.46157357 0.2493323 0.24584006 0.1216898 0.09427528 0.3848553
0.22449428 -0.17948246 0.4596445 -0.13273211 0.47779757 0.37942737 -0.024668777 0.0023589458
-0.07666225 -0.39878124 -0.7759514 -0.11460791 0.31461763 -0.4397214 0.68323475 0.15766795
0.20629176 -0.31994253 0.15901686 -0.29035866 0.029960824 -0.59789175 0.0029722794 -0.15679976
-0.31463072 -0.14381361 -0.70891476 -0.3721294 -0.57832724 0.48086557 0.7317433 0.6148991
0.17069308 0.44385773 -0.052636307 -0.48504257 0.34546417 -0.67572343 -0.4823299 -0.06875375
0.08797524 -0.2685003 -0.41388133 -0.30501255 0.28216058 -0.18493351 0.29828885 -0.31473404
0.636871 -0.23058105 -0.70762616 -0.67140406 0.19298464 0.08145608 0.02246974 0.23235509
-0.58087635 0.25367814 0.12786041 0.9188374 -0.110358045 0.033251863 0.427462 -0.029216377

network_body._body_endoder.seq_layers.0.bias f4 [128]
00000000: 0000 0000 0000 0000 0000 0000 0000 0000
00000010: 0000 0000 0000 0000 0000 0000 0000 0000
00000020: 0000 0000 0000 0000 0000 0000 0000 0000
00000030: 0000 0000 0000 0000 0000 0000 0000 0000
00000040: 0000 0000 0000 0000 0000 0000 0000 0000
00000050: 0000 0000 0000 0000 0000 0000 0000 0000
00000060: 0000 0000 0000 0000 0000 0000 0000 0000
00000070: 0000 0000 0000 0000 0000 0000 0000 0000
00000080: 0000 0000 0000 0000 0000 0000 0000 0000
00000090: 0000 0000 0000 0000 0000 0000 0000 0000
000000a0: 0000 0000 0000 0000 0000 0000 0000 0000
000000b0: 0000 0000 0000 0000 0000 0000 0000 0000
000000c0: 0000 0000 0000 0000 0000 0000 0000 0000
000000d0: 0000 0000 0000 0000 0000 0000 0000 0000
000000e0: 0000 0000 0000 0000 0000 0000 0000 0000
000000f0: 0000 0000 0000 0000 0000 0000 0000 0000
00000100: 0000 0000 0000 0000 0000 0000 0000 0000
00000110: 0000 0000 0000 0000 0000 0000 0000 0000
00000120: 0000 0000 0000 0000 0000 0000 0000 0000
00000130: 0000 0000 0000 0000 0000 0000 0000 0000
00000140: 0000 0000 0000 0000 0000 0000 0000 0000
00000150: 0000 0000 0000 0000 0000 0000 0000 0000
00000160: 0000 0000 0000 0000 0000 0000 0000 0000
00000170: 0000 0000 0000 0000 0000 0000 0000 0000
00000180: 0000 0000 0000 0000 0000 0000 0000 0000
00000190: 0000 0000 0000 0000 0000 0000 0000 0000
000001a0: 0000 0000 0000 0000 0000 0000 0000 0000
000001b0: 0000 0000 0000 0000 0000 0000 0000 0000
000001c0: 0000 0000 0000 0000 0000 0000 0000 0000
000001d0: 0000 0000 0000 0000 0000 0000 0000 0000
000001e0: 0000 0000 0000 0000 0000 0000 0000 0000
000001f0: 0000 0000 0000 0000 0000 0000 0000 0000
0.0 0.0 0.0 0.0 0.0 0.0 0.0 0.0
0.0 0.0 0.0 0.0 0.0 0.0 0.0 0.0
0.0 0.0 0.0 0.0 0.0 0.0 0.0 0.0
0.0 0.0 0.0 0.0 0.0 0.0 0.0 0.0
0.0 0.0 0.0 0.0 0.0 0.0 0.0 0.0
0.0 0.0 0.0 0.0 0.0 0.0 0.0 0.0
0.0 0.0 0.0 0.0 0.0 0.0 0.0 0.0
0.0 0.0 0.0 0.0 0.0 0.0 0.0 0.0
0.0 0.0 0.0 0.0 0.0 0.0 0.0 0.0
0.0 0.0 0.0 0.0 0.0 0.0 0.0 0.0
0.0 0.0 0.0 0.0 0.0 0.0 0.0 0.0
0.0 0.0 0.0 0.0 0.0 0.0 0.0 0.0
0.0 0.0 0.0 0.0 0.0 0.0 0.0 0.0
0.0 0.0 0.0 0.0 0.0 0.0 0.0 0.0
0.0 0.0 0.0 0.0 0.0 0.0 0.0 0.0
0.0 0.0 0.0 0.0 0.0 0.0 0.0 0.0

network_body._body_endoder.seq_layers.2.weight f4 [128, 128]
00000000: 58d8 fabc 6c7a 83bd e3f0 4ebd aba5 15be
00000010: b38f 97bd e211 353d 23d9 00be ece0 ce3c
00000020: 7cb9 873d 717d d03c 9bc2 bebc b8c1 4ebc
00000030: 5043 143d c0b5 2bbc f93d 053e 31a2 aa3c
00000040: a39d 7bbd 84c5 bfbc 0eaf 933d 0f00 6e3d
00000050: c7ae 14be b3af b93c b21e 113e 1333 d5bc
00000060: 225e 9b3d e613 a83d e056 173e b458 093e
00000070: a230 19bc 40ba c43d e530 c5bc ff97 383e
00000080: af37 02be f4da 443c 53ce d33c cdd2 e43d
00000090: a5e1 1f3d c522 26be 42d8 eabc 0851 1bbd
000000a0: d416 613d f562 39bc 4251 d33b f7d4 063e
000000b0: 188f 613c 4661 d23b aec4 2ebd 1acc 2cbd
000000c0: 6acc 4d3c b72f dfbd 469c d53d 80ff e53d
000000d0: 4852 f7bc 64fa 7e3c 8522 d4bd 08c2 10bd
000000e0: de04 c8bd d350 7dbd 02f7 73bc cc32 b6bc
000000f0: ca2a b6bc 46bc 693d 76dd 06be 8de0 6f3d
00000100: b1ed 5dbd 9c0d 1f3d 8dce a83d fe61 bcbc
00000110: 5202 1dbe 3456 07be caa9 8cbd 0914 013d
00000120: e4cd 1ebe 8053 ae3d 8ea4 303e 54c7 033e
00000130: 89ea 7fbe 1b06 3ebd b48a 94bd b15a 913d
00000140: 2fe2 ffbc dcc0 0a3e d00e 583d 8943 64bd
00000150: 8fe9 1fbd a3cd 0fbe de48 7fbb fc3a cd3d
00000160: 5f37 50bd a7f8 c6bd dc8b 913d d20f 8f3c
00000170: 5f0f a53d 71f4 c1bd 316d 8f3d 240c 8dbd
00000180: 298a 8a3c c62b 33bd 6698 03bd 025e 663c
00000190: eef8 5b3d 6e2d b33d dd11 09bd 464f 013c
000001a0: 001e 0abd 50c9 55bd 53c2 1ebd 028f f6bc
000001b0: 9e91 e7bd 129e 42bd 6b9c 813c 753d 63bc
000001c0: ae2f 3db9 0339 e93d db45 ac3d 4d60 c43d
000001d0: 271d 9f3d 5b3c 95bc d476 1a3d 97b4 4abd
000001e0: 7f64 833c 17b8 f6bd 6dd8 24bd 6c40 c43d
000001f0: 5334 413e 3840 aa3c 590b 75bc f8e8 193e
00000200: 234c 4c3d 341f 433e f112 5fbe 9bb8 253d
00000210: 7508 f3bd 304d 7abc dca1 833c 872a 8ebd
00000220: f46f 203c 7870 1dbe a61e 813d 5641 0fbd
00000230: 4fcd 713c a819 e13d 275d 1bbe 6429 d93c
00000240: 106c d4bb 34c9 9d3c e099 40bd 94b0 eebd
00000250: 7dd7 b23d a4dd be3d 9805 8abd 4c5b 3dbd
00000260: dc34 a73d 232e 213d f6e7 9d3d d7a2 363e
00000270: 2731 d13c 602a 82bb 59ea 803b fb05 72bd
00000280: 33c0 1d3d 2075 c9bd d25d 18bd a4ff 643e
00000290: 7a97 3f3d 0fcc a03d 4a1f 73bd c00e 17bd
000002a0: 18d0 86bc 7009 983d 3d2f bb3d 78bb d43c
000002b0: 3294 a4bd 037b 143d e2b7 ea3d 0014 07bd
000002c0: c7e0 4fbd 8641 0b3d b6d5 5f3c e291 c33d
000002d0: 6613 8c3d 0d35 3a3e 7227 b93d 0b47 9d3c
000002e0: 2c82 1c3d 95dd 2a3d df52 d1bd ee2a 37be
000002f0: be4f 17bd d435 e4bd 3204 08bd 6cc9 f9bc
00000300: 914f 14be 99d3 543d 4da3 ae3d 7fc9 3f3d
00000310: e96c 4c3d 3f96 803e cd0d d63d 2e20 f8bd
00000320: ef7b 3dbd 484b 38bd 7575 283e 2a98 0a3d
00000330: 130e d43d b21d f93c 58fa 5ebd 5380 ccbd
00000340: 9723 6c3d b222 53bd abc6 43bd 0b18 ebbc
00000350: 9535 cf3d 16e9 4dbe 0d2d 53bd ac49 493e
00000360: 7cfb 4f3c 0992 3ebc bac7 bebc 132e e8bc
00000370: 4741 65bd 9fdd 093e df16 fa3d 5287 f13d
00000380: 2af9 8dbd 98a7 2e3e dad7 16be 4916 efbd
00000390: 8bab 2ebd 8293 71bd 3f03 e53c 328f 183d
000003a0: 5084 033d fd73 acbd bdd2 eebd f5f7 32bd
000003b0: 6a20 d73d 5ba0 6c3c aaca d0bd dce2 f4bd
000003c0: 98ba 723d 550b d13d 40e4 373e 1663 a8bd
000003d0: 8156 4a3d 0660 c7bd b549 7c3d 553f b9bd
000003e0: 3438 af3d a0c8 1dbc a0ef ca3d 09af 1e3d
000003f0: 9a3b 5ebd 3cc7 e23d 3dbd 5c3d a18c a83d
-0.030620739 -0.064198345 -0.050522696 -0.14613979 -0.07400455 0.044206508 -0.12582831 0.025253735
0.06627175 0.02545044 -0.023286154 -0.012619428 0.036197007 -0.010480344 0.13011922 0.020829292
-0.06142963 -0.023409612 0.072111234 0.058105525 -0.14519797 0.022666788 0.14171866 -0.02602533
0.07586314 0.0820692 0.14779234 0.13412744 -0.009349974 0.09605837 -0.024071166 0.18026732
-0.12716554 0.012015093 0.025855219 0.111730196 0.03903355 -0.16224201 -0.028667573 -0.037919074
0.05495341 -0.011315097 0.0064488957 0.13167177 0.013767026 0.0064202873 -0.042668037 -0.042186834
0.012560943 -0.10897773 0.104301974 0.112303734 -0.030190602 0.015562627 -0.103581466 -0.035341293
-0.09766553 -0.061844658 -0.014890434 -0.022241019 -0.0222372 0.057064317 -0.13170418 0.058563758
-0.05418176 0.03883134 0.082425214 -0.022995945 -0.15332916 -0.13216478 -0.06868322 0.031513248
-0.15508229 0.0851202 0.17250273 0.12869006 -0.24991812 -0.04639254 -0.07253018 0.07097376
-0.031235782 0.13550133 0.0527485 -0.05572847 -0.0390411 -0.14043288 -0.0038953344 0.10021016
-0.050834056 -0.097153954 0.07106754 0.017463598 0.080595724 -0.094704516 0.070032485 -0.06887081
0.016911583 -0.043742917 -0.03212776 0.014060499 0.053704195 0.087488994 -0.0334643 0.007892435
-0.033720016 -0.05219394 -0.03875954 -0.030097488 -0.11307071 -0.04751403 0.015821656 -0.013869633
-0.00018042207 0.11387827 0.084117614 0.095886804 0.07769232 -0.018217256 0.03771098 -0.04948863
0.016039131 -0.12046831 -0.040245462 0.095826 0.18867616 0.020782575 -0.014956319 0.15030277
0.049877297 0.19054872 -0.2178457 0.040459257 -0.118668474 -0.015277192 0.016068392 -0.06941705
0.009792317 -0.15374935 0.06304674 -0.03497442 0.014758422 0.10991222 -0.15172254 0.026508994
-0.0064826086 0.01926098 -0.047021747 -0.11654773 0.087325074 0.09319618 -0.06739348 -0.046229646
0.08164379 0.03935064 0.07710259 0.17835556 0.025536133 -0.0039723366 0.0039341864 -0.059087735
0.038513374 -0.09836793 -0.03719885 0.22363144 0.04677532 0.07851421 -0.05935601 -0.0368793
-0.016456649 0.07423675 0.09139869 0.025968298 -0.080360785 0.036250126 0.11460854 -0.032978058
-0.050751474 0.033998035 0.0136617925 0.09549309 0.068396375 0.181843 0.09040727 0.019198915
0.03821008 0.041715223 -0.102208845 -0.1788747 -0.036941282 -0.111430794 -0.033207126 -0.030491553
-0.14483477 0.051959608 0.08527241 0.04682302 0.049908552 0.2511463 0.10451851 -0.12115513
-0.04626077 -0.04499367 0.16451056 0.03383652 0.10354247 0.030409668 -0.054437965 -0.099854134
0.05765113 -0.05154676 -0.047796886 -0.028697988 0.10117642 -0.20108446 -0.051556636 0.1965701
0.012694236 -0.011631497 -0.023288596 -0.028342282 -0.055970456 0.13463448 0.122113936 0.117933884
-0.0693229 0.1705612 -0.14730778 -0.116741724 -0.042644065 -0.058978565 0.02795565 0.037245937
0.032108605 -0.084205605 -0.11661289 -0.0436935 0.10504229 0.014442529 -0.10194905 -0.119573325
0.05925998 0.102072395 0.17958164 -0.08222024 0.049398903 -0.09735112 0.06159373 -0.09045283
0.08555642 -0.009630352 0.09908986 0.038741145 -0.05425606 0.11073157 0.05389141 0.08229948

action_model._continuous_distribution.log_sigma f4 [1, 4]
00000000: 0000 0000 0000 0000 0000 0000 0000 0000
0.0 0.0 0.0 0.0

action_model._continuous_distribution.mu.weight f4 [4, 128]
00000000: 2d65 39bc 57c2 17bd e2e3 023c 1a99 583c
00000010: 993d b1bc 3aa9 7fbc 8fac 38bc ea1a 6f3c
00000020: 50f0 d9bc 6aee 16bd 2375 c83c 7cdb 003c
00000030: cb79 c3bc 4b23 44bd ad0a 403c 070b de3b
00000040: aaa8 b93a 9568 96bc 3dc9 54bc 83f3 213d
00000050: 929f 993c 7778 3d3c 5b02 923c 5b1d 99bc
00000060: dd32 d6bc 7b42 25bc 1357 4cbb 2e80 3d3b
00000070: 38d2 d9bc 9d8d 843c 9b29 ed3b e5de 8a3b
00000080: 0525 4fbc 67c2 c73b 3a37 623c 5f5d b0bc
00000090: d17c 9ebc d40d bf3c 52f0 4ebc 42aa 413c
000000a0: 786e 923c 0df4 8e3c d356 183c b809 543c
000000b0: 6baf 03bd 9207 ec3a 7f7f 93ba 03d0 c73b
000000c0: 10ca 5abc c7b8 573c 1cea aebc e957 8f3b
000000d0: 989e f0bb edd9 72bc a773 ea3c 60f0 4fbc
000000e0: 285e 423d c19e 47bd 6b3d 21bd 49b2 b2bc
000000f0: 2769 1f3d d5b0 c2ba 1597 05bd 288f 773c
00000100: d293 a3bb ab9d 473b 86c3 983c 5558 d7bb
00000110: 8f75 e33b 4e64 063d 858f d13c 5b20 263d
00000120: 1ad7 793c 6142 053c 3874 2f3c c369 1c3b
00000130: e798 593c f7d8 bf3a 0bbe df3c 8355 ab3c
00000140: 772d ec3c fbb8 9bbc 8b65 30bc b7e9 58bb
00000150: dec8 163b ed2d 6ebc 9a96 3b3c fffd 5abb
00000160: a2ba e7bc 13a0 52bc 9c05 383b 8387 09bc
00000170: 65d0 133d d285 f63c 2bb1 8dbc 53be 463b
00000180: f26e 693b 604d 9a3c 5422 843c 5f29 5f3c
00000190: 380c 6d3c 9d16 10bc c7c4 b0bb cdb3 753c
000001a0: 0288 ca3c 11af 263c 03fc 7cbc a991 20bb
000001b0: 0fe5 583c c901 07bc ef31 81bb f937 11bc
000001c0: 2175 b5bc e588 8b3c 41cd a23c b2a9 533c
000001d0: 9a53 65bc dff0 8bba e8c6 fabb 2fd5 b3bc
000001e0: 9ba9 30bc 9b94 c43a 4f9d a83b 32a2 ebbc
000001f0: b71a b8bc 3bfd 4b3b 52ca a13b a4f5 02bd
00000200: 7a38 1cbd 5d4d d73b e774 a83c bb8a 633c
00000210: bb37 63bc 0679 b0bc d1c9 043c ebb3 c03c
00000220: b7e4 653c 4b44 393d 4a27 e53b cfb2 6a3a
00000230: abcd 813c 13ff d3ba 4d0b b53c ca75 0ebc
00000240: 73a8 213b 33fe 953b 100a 6a3c ccb6 123c
00000250: 0dc0 d839 b771 96bc 1bae 273c c9ae 9a3b
00000260: 1ba7 0eba 4022 ec3c 3dbe 77bc 9bff 563c
00000270: a9ac b6bc d2a6 a03b 5bda 483d c6f2 883b
00000280: 3ff9 2c3c b5e4 8cbb afba 9ebc 5a63 b2bc
00000290: e35e 20bc e3bf 9c3c 66dd 16bc 5f84 ff3c
000002a0: ef05 903b 7b65 ad3a 0640 0d3c 73d2 31b9
000002b0: 1db3 f4bc a8c5 273d 75f8 d53c 25a4 23bc
000002c0: 28e7 4ebd a03d f63b 6fb2 b23c 0be2 113d
000002d0: 8793 abbc 2291 0dbc 6c84 a7bc 58d9 bd3b
000002e0: f18e 4b3c 540d 813c 2218 e03c 49a9 cabc
000002f0: ce8d 81bc 7900 b7bc cb77 103c 21dc 9f3b
00000300: e55a 35bc 9510 0dbc 8ad4 cebb ed54 94bc
00000310: 27c9 283c c1b8 0d3d cfdb 983c f76f 2bbc
00000320: 4b2e c33c 855a a4bc 706e 1abd f8e8 b63c
00000330: cfcc 71bc eedb 45bb d984 4c3c 59bb 8dbb
00000340: 23d5 23bc d78d 213d 4d98 cd3b d3e9 1bbd
00000350: b7a7 8b3c 97f1 75b9 cf14 003c 9dbf c1bb
00000360: cc63 973c f77d 58bd 6dc1 f0b9 a2c1 87bb
00000370: 013e a23c e061 93bb adc5 b03c 5732 e53b
00000380: e47e c83b 1bb0 cbbc cb77 58bc 3fb2 19bd
00000390: 9a6c 03bc e3b8 e1bb 3c19 3ebc b86a 61bc
000003a0: 276a cf3b 6de0 573a 4f7e 89bc c1a6 333b
000003b0: 781a 843c 3dde 853c e7e3 67bc b8d0 d53c
000003c0: 3d14 033c a5f2 55bb 8beb 9d3b ef5f c1bb
000003d0: 1c81 bd3c 089a 8fbb 5cc3 09bd 9f72 1d3c
000003e0: 5fad c939 e7e0 0bbb eb07 80bb 53ff 5c3c
000003f0: 5541 863a cd70 4b3c 9d66 133c a09c fb3b
-0.011315626 -0.03705057 0.007988902 0.013220096 -0.021635817 -0.015604312 -0.01127161 0.014593819
-0.026603848 -0.036848463 0.024469918 0.007864829 -0.023861786 -0.04788522 0.011721295 0.006776217
0.0014164646 -0.018360415 -0.012987432 0.03953887 0.018752847 0.011564366 0.017823389 -0.018690756
-0.0261473 -0.010086651 -0.003117983 0.0028915512 -0.026589498 0.016180808 0.007237626 0.004237997
-0.0126431035 0.0060961726 0.013807112 -0.021528898 -0.019346626 0.023322023 -0.012630539 0.011820378
0.017874941 0.017450357 0.009298044 0.01294177 -0.032149713 0.0018007627 -0.0011253207 0.006097795
-0.0133538395 0.013166613 -0.021351866 0.0043744934 -0.0073431246 -0.014822465 0.0286196 -0.012691587
0.047453076 -0.048735384 -0.039365213 -0.021813529 0.03891864 -0.0014853725 -0.032614786 0.015109815
-0.004991987 0.0030458968 0.01864792 -0.0065718093 0.0069415043 0.0328105 0.02558113 0.0405582
0.015249038 0.008133502 0.010708861 0.002386675 0.013281084 0.0014636804 0.0273123 0.020914799
0.028830273 -0.019009104 -0.010766397 -0.003309829 0.002300791 -0.014537317 0.01144948 -0.0033415554
-0.028287236 -0.0128555475 0.0028079515 -0.008394125 0.036087412 0.030093107 -0.017296394 0.0030325844
0.0035619107 0.018835723 0.01612965 0.0136207035 0.014468245 -0.008794454 -0.0053945514 0.014996481
0.024723057 0.010173575 -0.015440944 -0.0024500883 0.013238206 -0.008240172 -0.00394272 -0.008863443
-0.022150578 0.01703305 0.019873263 0.0129188765 -0.013996983 -0.0010676644 -0.007653106 -0.02195224
-0.010782625 0.0014997901 0.005145706 -0.028763864 -0.022473676 0.003112628 0.0049374485 -0.031972542
-0.038139798 0.0065705017 0.020563556 0.013888056 -0.013868268 -0.021542083 0.008104757 0.023523292
0.014031581 0.045231145 0.006993209 0.0008953036 0.01584514 -0.001617404 0.022100115 -0.008695075
0.0024667054 0.004577422 0.014284626 0.008954715 0.0004134182 -0.01836477 0.010234381 0.004720543
-0.0005441771 0.028824925 -0.01512104 0.0131224645 -0.022299128 0.004902699 0.049036365 0.0041793315
0.010557472 -0.004299725 -0.019376127 -0.02177589 -0.009788248 0.019134467 -0.009208059 0.03119105
0.0043952386 0.0013229096 0.008621221 -0.00016958434 -0.029870564 0.040959984 0.02611945 -0.009987866
-0.050513417 0.0075146705 0.0218136 0.035615962 -0.02094437 -0.008640559 -0.020448886 0.0057937317
0.012424217 0.015753426 0.027355257 -0.024738925 -0.015814688 -0.022339093 0.008817623 0.0048785363
-0.011069034 -0.0086099105 -0.0063119577 -0.018106902 0.010301865 0.034600023 0.0186595 -0.010463706
0.023825785 -0.020062694 -0.037702978 0.022327885 -0.014758303 -0.0030190903 0.012482845 -0.004325312
-0.009999546 0.03944191 0.006274259 -0.03806479 0.017047746 -0.0002345502 0.007817461 -0.0059127347
0.018480204 -0.052854504 -0.0004592048 -0.004142956 0.019804956 -0.0044977516 0.021578634 0.0069945264
0.006118642 -0.024864247 -0.013212155 -0.037523504 -0.008021498 -0.0068884953 -0.011602696 -0.013758354
0.006329793 0.0008235041 -0.016783861 0.0027412625 0.016125903 0.016341323 -0.014153457 0.026100501
0.008000431 -0.0032645848 0.0048193387 -0.0059013288 0.023132853 -0.0043823756 -0.033633575 0.009609847
0.0003846688 -0.002134377 -0.003907194 0.013488608 0.0010242859 0.0124170305 0.008996633 0.0076785833

action_model._continuous_distribution.mu.bias f4 [4]
00000000: 0000 0000 0000 0000 0000 0000 0000 0000
0.0 0.0 0.0 0.0
