results/TankLearningAI_timePunished/TankLearningAI/TankLearningAI-439959.pt (torch, 466186 bytes, 36 tensors)

network_body._body_endoder.seq_layers.0.weight f4 [128, 14]
000000 be b4 8a bd 56 72 27 3d e4 4c d9 3d ce 7d 45 be
       -0.06772755 0.040880524 0.10610369 -0.19286272
000010 f3 79 c1 bc 86 5b 2d be 02 73 99 bd 5c ee a8 3d
       -0.02361772 -0.16929445 -0.07492639 0.082485884
000020 8d 4b 27 3e d3 21 9f 3e 87 22 9e be 5e c4 be be
       0.16337414 0.31080493 -0.30885717 -0.3725919
000030 54 e2 99 bc 2e cd 10 be 8d 74 67 3d 8e 6b 9a 3e
       -0.01878468 -0.1414077 0.056507636 0.30160183
000040 7b f3 3d 3e ef f2 57 bd 5a 33 b7 be 27 aa c2 bc
       0.18549912 -0.052721914 -0.35781366 -0.023762776
000050 cb 0e a8 3e 83 08 f2 bd 40 ee 39 be e3 b0 ee 3d
       0.32823786 -0.1181803 -0.18157291 0.11654832
000060 64 e8 b5 3d c5 47 c0 be d9 4a 43 be 95 19 06 3e
       0.088822156 -0.37554756 -0.19071521 0.13095696
000070 14 2a 76 bd de 24 94 bd 2f 71 b0 be f7 d6 52 3d
       -0.060098723 -0.07233594 -0.34461352 0.051474538
000080 fe cf d0 3d f7 8d 5c 3e ee 1b d3 3e 6e d0 d3 3e
       0.10195921 0.2153853 0.41232246 0.41369957
000090 2d 4c 5a 3e 70 77 ae be 94 3d e7 bd 06 f2 a5 3e
       0.21318121 -0.340755 -0.11291042 0.32411212
0000a0 69 43 bd ba aa b4 00 3e 47 e8 39 bd 09 bd 6a be
       -0.0014439645 0.12568918 -0.045387533 -0.22923674
0000b0 13 0c c8 be 66 44 94 be 85 0b 17 3e a8 46 62 3e
       -0.39071712 -0.28958434 0.14750488 0.22097266
0000c0 43 13 40 3e 37 c9 ac 3e f0 4c 5c bd e2 94 7c 3c
       0.18757348 0.33747265 -0.05378431 0.015416356
0000d0 15 53 9d be 72 5a 14 3f ff 21 40 3e 5d 32 21 3e
       -0.3072745 0.5795051 0.18762968 0.15741868
0000e0 05 83 ed 3c b8 da dc bd ea 96 c7 3e 50 fe 33 bc
       0.028993139 -0.10783905 0.38982326 -0.010985926
0000f0 a7 6f fa 3e dc 62 e7 3d ea 00 2e 3e a1 2d 92 bd
       0.4891331 0.11298153 0.16992536 -0.07137609
000100 ef e5 4f 3e 3f 08 90 bd a1 49 16 3d 31 91 60 bd
       0.20302556 -0.07032823 0.03669131 -0.054825965
000110 f9 12 4b 3e 4f f3 d9 bd 31 eb af bd ca e5 ab be
       0.19831456 -0.106421106 -0.08589781 -0.33573753
000120 38 b7 2d 3e e9 57 67 be c1 44 a7 bd 24 8c 4b 3f
       0.16964424 -0.22592129 -0.08167411 0.7951071
000130 e3 2d 84 be 8f 4f 7e 3e 30 1c 6b 3e 3e ec 1f 3e
       -0.2581626 0.24835037 0.22959971 0.15617463
000140 6f d5 9f 3e 69 59 89 bc a7 2f e8 3d ed 1c fc bc
       0.31217524 -0.016766267 0.11337214 -0.030775512
000150 cb 0a c1 3c a1 ab 9f be 8e 10 c1 3e ac ef 30 bd
       0.023564717 -0.3118563 0.37707943 -0.04319732
000160 67 22 2a 3d 44 b0 b5 be cc 68 19 3f 87 8d 34 bf
       0.041536715 -0.35486042 0.5992553 -0.70528454
000170 95 c8 b8 3e 2b ef 03 bf 46 f2 45 be 03 49 ad be
       0.36090532 -0.51536816 -0.19330701 -0.33844766
000180 b1 01 46 bf b4 4f 05 bf b5 8d f2 bd 3b af 09 3e
       -0.7734633 -0.5207474 -0.11843435 0.13445751
000190 2d b3 ab be 22 c8 bf 3d e0 43 83 3d 1a c6 83 be
       -0.33535138 0.09364344 0.064094305 -0.25737077
0001a0 95 de c6 3c ed a4 5d bd 6c 16 33 3e 1b 70 31 3e
       0.024276057 -0.054112364 0.17489022 0.17327921
0001b0 f6 96 86 3e 79 ce 8b 3e 04 ab 70 3e 3a 7f 5f 3c
       0.2628705 0.27305964 0.23502737 0.013641173
0001c0 2b 5b 3d 3d 43 7a 40 3e 28 15 fb bd f0 fe c4 3d
       0.046229523 0.18796639 -0.122598946 0.09618938
0001d0 ba 25 a1 3e 6a 52 e9 3d 3b ac 10 3e 24 60 9e 3e
       0.31474096 0.11392672 0.141282 0.30932724
0001e0 0c 9e 81 3e 62 fe 44 3d 15 f1 64 3d 9b ca ee 3e
       0.25315893 0.04809416 0.055893976 0.4663895
0001f0 2d 79 6c 3e d5 b5 0d be a8 76 27 3c 93 42 47 be
       0.230931 -0.13838895 0.010221161 -0.1945899
000200 ae ff 46 3e 79 cc 7e 3d 3d d9 bd bd 38 6b 74 be
       0.19433472 0.06220672 -0.092699505 -0.23869026
000210 b9 dd 9c 3e 08 68 cf 3e 0f 30 6d be 88 7d e2 bd
       0.3063791 0.40509057 -0.23162864 -0.110590994
000220 cf 95 fe be 55 60 6c be 9b 9c 85 bd 7c 60 64 bd
       -0.4972367 -0.23083623 -0.06524011 -0.055756077
000230 22 a3 c2 be ea 50 80 bd ba 87 e4 3c a2 1d e6 be
       -0.38015085 -0.06265433 0.02789675 -0.44944483
000240 33 2b e5 3e e2 64 6a 3e b0 ea 54 be e3 c4 e1 3d
       0.4475952 0.22890046 -0.20792651 0.11023881
000250 18 6f 95 bb b9 5a 49 bd df f5 88 3e 70 5a d8 3e
       -0.0045603625 -0.049158785 0.26750085 0.42256498
000260 24 91 cc be 06 4a 98 3d a1 09 b2 bd 05 3f 10 bf
       -0.39954484 0.07435994 -0.08693243 -0.5634616
000270 c9 6c 47 3e 62 90 53 3e 99 c6 ba bd 50 84 11 be
       0.19475092 0.20660546 -0.09119911 -0.1421063
000280 80 cf ef bd a9 81 63 be 2f 51 4c be 8b 9d 4d bd
       -0.11709499 -0.2221743 -0.19952844 -0.050199073
000290 fa f9 f0 be 83 0a 00 3f 5e 2b cd bc fa 13 68 bd
       -0.47065717 0.5001604 -0.025045093 -0.056659676
0002a0 94 42 09 be bb f5 a9 3d 0d 2f 45 3e 12 74 81 bd
       -0.13404304 0.082988225 0.1925623 -0.06320967
0002b0 ae f8 c5 bd 06 72 be 3d 2a cf 11 be f6 80 aa 3d
       -0.096665725 0.09299092 -0.14239183 0.083253786
0002c0 66 a2 16 3f f7 37 cf bc 3b a1 f7 3d 90 5f c1 be
       0.5884155 -0.02529524 0.12091299 -0.3776822
0002d0 b7 8c 09 bd a8 59 97 bd 5b 75 bb 3e 35 71 4a 3e
       -0.03358146 -0.073901474 0.36612973 0.19769748
0002e0 20 8b fa bc 05 a9 80 3e bc f3 18 bd c8 de c5 bc
       -0.030583918 0.25128952 -0.03734182 -0.024154082
0002f0 d3 69 06 3f 30 c2 2a be c3 d2 82 be 5a 04 9c be
       0.52505225 -0.16675639 -0.25551423 -0.3047207
000300 db 6b 25 3e 23 fd 7d be 3b 29 33 3e d7 e5 98 3e
       0.16154425 -0.24803595 0.17496197 0.29862854
000310 a9 d1 f6 bd 74 e1 8b be 94 62 30 3f bb fc e9 3e
       -0.12051708 -0.27320445 0.6890042 0.4570063
000320 4c c7 00 3f 5b e5 14 bf cc 95 fa 3d 08 c0 91 be
       0.503041 -0.5816247 0.12235603 -0.2846682
000330 f6 af 06 bf 29 30 9b 3e 9a 18 33 be 29 c3 c8 be
       -0.52612245 0.3031018 -0.17489854 -0.39211395
000340 d1 30 7a 3d 66 b2 f5 3d c4 ad a4 3d 53 8e 83 3d
       0.06108171 0.119969174 0.08040956 0.064236306
000350 31 c4 81 be cf 12 f2 bb 5e f1 a5 be d5 35 1b 3e
       -0.25344995 -0.007387496 -0.3241071 0.15157254
000360 8a 22 4e 3e db a5 9f bd c3 12 10 3f 7e 15 8e 3e
       0.20130363 -0.07795306 0.5627863 0.27750772
000370 df 50 20 be 97 64 be bd ff 32 39 3c f0 f0 60 3e
       -0.1565585 -0.0929653 0.011303662 0.2196691
000380 e8 e3 d5 be ba 6f 60 3c 82 1f 89 be 5a d5 f2 be
       -0.4177544 0.013698513 -0.2678185 -0.474284
000390 ea b5 5b be 98 00 e4 be 26 ee 6b be c1 33 32 be
       -0.21456113 -0.44531703 -0.23040065 -0.17402555
0003a0 af 27 42 bf 2d bc da 3e f6 22 36 be ed 8f 10 bf
       -0.758418 0.42721692 -0.17786774 -0.56469613
0003b0 61 49 99 3c ea 1b 30 3b 23 8e 7b be a3 ec bc bd
       0.018711748 0.0026872107 -0.2456594 -0.09224822
0003c0 26 86 5c 3d 9a f7 02 be 7e 0e 61 bd a8 32 36 3d
       0.05383887 -0.12789765 -0.05494546 0.044481903
0003d0 45 c4 af bc d6 43 c3 be 12 37 57 3e 97 bb 9b 3e
       -0.021455893 -0.38137692 0.21017101 0.30416557
0003e0 55 86 fc bd e0 a5 3a 3e 23 0b 87 be 9a 5f 5f bd
       -0.12330309 0.18227339 -0.26375684 -0.054534532
0003f0 40 7c 9f be 48 d3 aa be b9 bd a6 3d df de 34 3e
       -0.31149483 -0.3336432 0.081416555 0.17663144

network_body._body_endoder.seq_layers.0.bias f4 [128]
000000 89 c7 83 bd 8e 31 b9 bd e2 ab c9 3c 85 25 68 bc
       -0.06434543 -0.09042655 0.024618093 -0.014169102
000010 19 53 98 bc 40 c6 79 bd aa 8d 8a bb 85 0b 23 bd
       -0.018594312 -0.06098008 -0.0042283135 -0.039805908
000020 b2 b4 09 3d 9f 0c d4 bc 22 81 ba bd d0 5c 98 bd
       0.03361959 -0.025884924 -0.091066614 -0.074395776
000030 55 c7 54 bd e0 66 1d 3d 6b 3e 84 bc 77 8e 7c 3c
       -0.05194791 0.038428187 -0.016143044 0.015414826
000040 0c 55 3b be 3d 69 01 be 46 95 09 be b9 a8 b0 3c
       -0.18294162 -0.12637801 -0.1343585 0.021564828
000050 68 cf e0 3a dd 0a 6e 3c c3 0a 10 be 69 df ef bb
       0.0017151656 0.014528957 -0.14066605 -0.0073203337
000060 7b f4 88 3a 26 48 77 be f5 38 3c 3c be 6e 25 be
       0.0010448837 -0.24148616 0.011488189 -0.16155526
000070 78 6f 65 bd e7 90 01 bc 9b 0f 27 bd 9a ca a9 bc
       -0.056014508 -0.007908083 -0.040786367 -0.02072649
000080 17 e0 84 3c ef d1 fd bd ed 46 7f bd 44 67 b6 3b
       0.016220136 -0.12393557 -0.0623235 0.0055665094
000090 11 26 f1 bd 43 fa 40 be 9c 8d c6 bd d6 0b e1 3b
       -0.11774839 -0.18845467 -0.096949786 0.006867866
0000a0 cb fe 86 bd 84 3f de 39 46 7f c5 bd 7e 7d 90 be
       -0.06591567 0.00042390462 -0.09643416 -0.28220743
0000b0 e1 24 6c be f0 ae a3 bd c3 85 21 bd 46 a1 b9 bc
       -0.23060943 -0.07992351 -0.039434206 -0.022659909
0000c0 49 ce 09 be 94 a5 88 3c 5a 60 be 3c d3 27 25 bd
       -0.13457598 0.016680516 0.023239303 -0.040321182
0000d0 c0 57 8a bd 65 4e 53 3c 02 82 9b be 16 8e 0c be
       -0.06755018 0.012897109 -0.30372626 -0.13726076
0000e0 51 57 84 bd ba e0 98 bd 8b b2 cc bd b7 2e f8 bc
       -0.06461967 -0.07464738 -0.09994992 -0.030295713
0000f0 46 37 ac bc a9 71 7a bd 05 a7 4b 3b b6 58 a7 bc
       -0.02102245 -0.06114355 0.0031074893 -0.020428043
000100 36 52 88 bd 9e c7 46 bc 74 6d c9 ba 63 74 be bd
       -0.066563055 -0.012132553 -0.0015367703 -0.09299543
000110 88 1a 7e bc f9 e8 05 be cd d1 69 bd 35 39 18 be
       -0.015509255 -0.13077153 -0.057084847 -0.14865573
000120 b3 ca 8e 3c 01 31 bf bd ae 2a 2f bd 09 24 4d bd
       0.017430639 -0.09335519 -0.042765312 -0.050083194
000130 1f 7d d1 bd 1b b8 34 3c cf bc 5d bb 9b dc b4 bd
       -0.10228943 0.011030222 -0.0033834463 -0.0883114
000140 dc d6 a0 be 0b 59 8a be d4 a5 6b bd 85 aa 9c bd
       -0.31413925 -0.2702106 -0.057531193 -0.076497115
000150 9e 20 0c 3b 0c 12 96 bc a7 3a c1 bd 37 f1 48 bc
       0.0021381746 -0.018319152 -0.09435015 -0.012264541
000160 c4 c3 8c be ee 6e d7 3c 08 d6 4d be 7f 28 f4 bc
       -0.27493107 0.026298013 -0.20101178 -0.029804466
000170 d5 96 35 bc e7 fc 92 bc 0c e4 25 3d 23 94 5a 3d
       -0.011083324 -0.017942859 0.040500686 0.05336393
000180 44 f1 8c bc 8d 14 27 bd a0 c3 18 bc 4f f5 e2 bc
       -0.017204888 -0.040791083 -0.009323984 -0.027704863
000190 62 9a 8f be 32 3a 80 be 9e 34 bf bc 7f f9 46 3b
       -0.28047472 -0.250444 -0.02334052 0.0030361114
0001a0 91 7b 3b be f7 4d 8a bc 29 9f 6d bc 26 5f 1f be
       -0.18308856 -0.01688288 -0.014503279 -0.1556364
0001b0 99 1e ee bd 56 e8 a4 bc 3a a3 0a be 44 75 1f be
       -0.1162693 -0.020130318 -0.13538828 -0.15572077
0001c0 82 6a 04 be bc 9e 46 bc 15 15 8d be 09 b4 fa bd
       -0.12931255 -0.012122806 -0.27555147 -0.1224137
0001d0 c0 f9 19 bc 3e 7b 9b bd c5 ce b3 bb 92 5d 3f be
       -0.009397924 -0.07591866 -0.0054872953 -0.18688038
0001e0 aa f0 26 bd 34 63 92 bc 32 52 45 bc 4a 1f 60 3b
       -0.04075686 -0.01786957 -0.012043523 0.0034198337
0001f0 7c 8f 4e 3d e0 5e 86 bc 59 6f 15 3c 04 ea 8f be
       0.050429806 -0.016402662 0.009120786 -0.28108227

network_body._body_endoder.seq_layers.2.weight f4 [128, 128]
000000 c1 77 95 bd db 38 29 3b df ac 14 3e ad ab 07 3c
       -0.07298232 0.0025821242 0.1451907 0.008280677
000010 0f 11 ad 3d 5d 34 50 be c1 50 f9 3d 0a 85 12 be
       0.08450519 -0.20332475 0.12173606 -0.14308563
000020 50 c7 63 3d 06 df 0d be c9 09 67 be d1 37 53 3c
       0.05561 -0.13854608 -0.22562326 0.012891726
000030 e6 1a 15 3e 9b 93 6f bd e7 ce ac 3d 5d 1d ae bd
       0.14561042 -0.058490377 0.08437901 -0.08501694
000040 dd e6 49 3c 34 90 9e 3b bd ce 9b bd f7 66 7d bd
       0.0123231085 0.0048389677 -0.076077916 -0.061865773
000050 00 f4 54 3d 49 9c be bd 31 08 84 3c 56 d6 cf 3d
       0.05199051 -0.09307153 0.016117187 0.10148303
000060 af 8b 71 bd df fd 03 38 25 1f ef bd 66 2f f4 3c
       -0.058971103 3.146927e-05 -0.11675862 0.029807758
000070 15 f7 bb 3d 6a 9f 85 3d d6 3c 94 3d 11 16 16 3e
       0.091779865 0.065245464 0.07238166 0.14656855
000080 cf b3 23 be f3 5f 13 3e ef 5c 5c be 74 20 32 be
       -0.1598656 0.1439207 -0.21519826 -0.17395192
000090 45 2a 24 be f8 ff 6c bd 7f 2a ce bd 68 24 9e bc
       -0.1603175 -0.0578613 -0.10066699 -0.01930447
0000a0 1f 78 b5 bd b7 0b d8 bd 04 51 54 bd 43 12 70 3e
       -0.08860802 -0.105491094 -0.051835075 0.23444466
0000b0 68 c9 c4 3d c5 bb 32 bd 35 10 55 bd 2d 54 dc ba
       0.09608728 -0.043636102 -0.05201741 -0.0016809754
0000c0 00 6e 91 3d 63 0d f6 bd 67 d2 a9 3c 48 e4 a8 bc
       0.07101059 -0.12014272 0.02073021 -0.020616665
0000d0 7b a9 d2 3c 6f 27 e5 bc 64 ca 2c be a2 69 ab 3d
       0.02571558 -0.027972905 -0.16874081 0.08369757
0000e0 3f 1a 90 bd 61 d5 a7 bd 7b c8 86 3d e1 a0 8c bc
       -0.07036256 -0.08194996 0.06581207 -0.017166557
0000f0 9e 62 43 3e 8c 10 26 3e 39 da 76 3d cc 20 e8 3c
       0.19080588 0.1621725 0.060266707 0.028335951
000100 d9 7d 34 be b8 dc 23 3e bc a4 cc 3d 24 8c b7 bc
       -0.17626132 0.16002166 0.09992358 -0.022405691
000110 3f a9 88 bc 47 ae 92 3d 38 0d 75 bd be 17 1e 3e
       -0.016682265 0.07162147 -0.05982706 0.15438744
000120 e6 90 96 3c 8c 54 c3 3c 17 e3 69 bc 22 5d 1c be
       0.01837964 0.023844026 -0.014275334 -0.15269902
000130 62 21 d9 bd 6e 2f ea bd 68 5f 3e bd 82 a3 cb bb
       -0.106020704 -0.11434828 -0.046477705 -0.00621456
000140 58 ce e9 bd 35 ba 29 be cc 28 33 bd 53 a1 c5 bb
       -0.1141631 -0.16574939 -0.04374008 -0.0060311942
000150 6e 2d 19 bd b6 e6 cd 3d 62 8c f9 bb 9b 71 01 3e
       -0.03739684 0.1005377 -0.007615612 0.12640993
000160 40 1b 59 bd d9 98 de bd 30 5f 90 bc cc 59 86 3d
       -0.053004503 -0.10868997 -0.017623514 0.06560096
000170 e3 66 35 3d e2 08 03 be 1d 14 53 be a4 82 22 3d
       0.044287574 -0.12796357 -0.20613141 0.03967537
000180 bd d4 c6 3a 53 71 aa bd a6 ee 8e bd ee 17 c1 bd
       0.0015169602 -0.08322396 -0.06979112 -0.09428392
000190 14 4c b5 bb fe e4 1e 3e 7a 30 61 bd e9 33 1f be
       -0.005532751 0.15517041 -0.05497787 -0.15547146
0001a0 b6 3d 9d 3d 47 52 85 bd e6 62 84 3d e9 7f 7b 3e
       0.07677786 -0.06509834 0.06464176 0.24560513
0001b0 bf 8c c2 bd 55 03 87 3c 7a 5f 00 be 58 72 af 3d
       -0.094995014 0.016481081 -0.12536421 0.08566731
0001c0 bb fe 48 3c f0 e3 24 be f0 50 ce bc 0d 03 7f 3d
       0.012267764 -0.16102576 -0.025185078 0.06225877
0001d0 f8 19 8b 3b 62 be 0a 3e b6 40 c4 3c 3a 34 c0 bc
       0.004245039 0.13549188 0.023956638 -0.023462404
0001e0 8c 7d 39 bd d1 99 73 bd 35 78 ff bc 3a 90 ac 3c
       -0.045285746 -0.059472863 -0.031185249 0.021064866
0001f0 85 e6 cc 3d 6b 0f bc ba 86 ec 71 bd 91 92 83 3d
       0.100049056 -0.0014347857 -0.059063457 0.0642444
000200 33 7c 07 3c 44 d1 33 bc 9f 07 93 bd 2d fc 33 bc
       0.0082693575 -0.010975186 -0.07179188 -0.010985416
000210 db 40 2e be dc 43 e6 bc e4 c9 a7 3b 66 9a a8 3c
       -0.17016928 -0.02810853 0.005120503 0.020581435
000220 4f 16 13 3e ff 9b c3 bd 47 7a 0d be c3 6a 43 be
       0.14363979 -0.09551238 -0.13816176 -0.19083695
000230 c8 32 54 3d 15 a2 c6 bd 85 44 9d bd f0 63 52 3c
       0.05180624 -0.096988834 -0.07679085 0.01284121
000240 8d e7 66 3d 98 9c b4 bd 71 af 04 3d 4b 04 20 3e
       0.056373168 -0.088189304 0.032393876 0.15626638
000250 95 aa a0 3d 7b e3 55 bd 8b 47 c0 3d c3 2f 72 3e
       0.07845036 -0.052218895 0.09388646 0.23651032
000260 f9 cf 8c 3d 11 d7 86 3d 09 7b 7e bd 02 e0 20 3d
       0.06875605 0.065839894 -0.062129054 0.03927613
000270 da 95 10 be 41 11 4e bd 10 08 12 bd 9c 3e 1e bd
       -0.14119664 -0.050309423 -0.03565222 -0.038633928
000280 28 8e a5 bd 4b d8 06 3d 6b ef 86 be 28 51 01 bd
       -0.08083755 0.032921117 -0.26354536 -0.031571537
000290 0b 3d d0 3d 9f 39 5c bd ce 5b d7 bd b4 ad 39 bd
       0.10167893 -0.05376589 -0.10515557 -0.04533167
0002a0 ee 03 3c be 75 43 fa bc b7 22 1b bd 6c d7 ba bd
       -0.18360874 -0.030549744 -0.037874904 -0.0912312
0002b0 2c b6 7a 3d 9d 7c fd 3d 5a bf cf bd ef a2 70 3d
       0.06120889 0.12377284 -0.10143919 0.058749136
0002c0 03 ce 7c bd da bd e3 bd 7b 29 18 bc 66 de 67 bd
       -0.061719906 -0.11120196 -0.009287233 -0.05660858
0002d0 66 10 71 be 7d 14 f2 bc 90 cf 88 bd 85 76 17 be
       -0.23541412 -0.029550785 -0.066802144 -0.14791305
0002e0 c2 29 9b bc 42 36 47 bd 4b 7c a3 bd a0 78 24 3d
       -0.01894081 -0.04863573 -0.079826914 0.0401541
0002f0 6f e0 b3 3c df 1f d3 bd 82 cc 6d bd 56 2f 63 3d
       0.021957604 -0.10308813 -0.058056362 0.055465065
000300 e5 e0 30 be a3 fe 17 be 19 0c 74 3d 60 ff 20 be
       -0.1727329 -0.1484323 0.05958185 -0.15722418
000310 01 85 23 bd 83 e4 a4 bd b6 ac 99 bd d4 13 e3 3d
       -0.039921764 -0.08051398 -0.07503645 0.11087766
000320 5d 5b 14 be 2f 0d 7c bd ca 4f da 3b be 32 e7 bc
       -0.14487977 -0.06153601 0.0066623436 -0.028222438
000330 8e 9e 8a 3d b5 22 47 be fb e4 8d 3d 24 60 ce bc
       0.06768523 -0.19446833 0.0692844 -0.025192328
000340 d1 15 8a bc 85 67 53 3d b2 68 bd bc 7b 44 29 3d
       -0.016856106 0.051612396 -0.023121212 0.041325074
000350 6b 94 ed bd 10 3d 06 be de 85 b4 bd b8 14 ad bd
       -0.11600574 -0.13109231 -0.08814596 -0.084512174
000360 6b b0 9c bd d0 21 80 be 4b bd 95 3d 4a d9 ff bd
       -0.076508366 -0.25025797 0.073114954 -0.124926165
000370 ef 97 9c be f6 bf 23 3d ed c0 8c 3b f1 c3 f1 3c
       -0.30584666 0.03997799 0.0042954595 0.029512377
000380 7e 33 2d bd 96 98 70 3d 71 ad 34 3e f5 1a 5f 3d
       -0.042285435 0.058739267 0.17644288 0.054469068
000390 11 21 35 3d 61 dc 0d bd 58 8f d7 b9 df 37 1d bd
       0.044220988 -0.034633998 -0.00041114795 -0.03838336
0003a0 6f 85 b6 bd d6 fc 2d 3d 15 00 f6 3a 0f 41 a9 bd
       -0.08912169 0.04247745 0.0018768335 -0.08264362
0003b0 86 2e 4d bd a6 a5 b4 3d bd 41 b5 3d 0b 82 01 be
       -0.050093196 0.088206574 0.08850429 -0.12647264
0003c0 36 fb e2 bd c0 e7 8f bd 14 e9 13 3c 7d 41 b6 bc
       -0.11083071 -0.07026625 0.009027738 -0.022248024
0003d0 23 61 5e bd 3e da 8f bd 42 72 79 3a cc 16 05 be
       -0.054291856 -0.07024048 0.0009515622 -0.12996978
0003e0 6c 0e 9d 3d a7 9e 81 3d 8e 57 42 3c 6e ee 91 3c
       0.076687664 0.06329089 0.011861695 0.017813887
0003f0 84 8d a4 3d 03 76 0d be dd 5b 2f bd d1 08 00 3e
       0.080348045 -0.13814549 -0.042812217 0.12503363

network_body._body_endoder.seq_layers.2.bias f4 [128]
000000 07 d2 97 bc 44 21 2f bd 74 2a d2 bc 5b 2a 9b bc
       -0.018532766 -0.042756334 -0.025655009 -0.018941095
000010 cc 1f d4 bc a9 93 32 bc 5c fa 89 bc 95 88 df bc
       -0.025894068 -0.010899463 -0.016843013 -0.027286807
000020 2c 8f e0 bb ed 2f 8c 3d cb 44 c3 b9 4a 5d 9d bc
       -0.006853005 0.068450786 -0.00037244553 -0.019209523
000030 ce 81 30 bc c9 0c a6 bc 37 0e ca bb 58 82 3a bc
       -0.010773135 -0.020269768 -0.0061662453 -0.011383615
000040 af 6f fe bc de 21 c5 bc de e6 19 bd e2 20 d6 bc
       -0.031059114 -0.024064 -0.037573688 -0.026138727
000050 be fc c8 bc 3e 7f 44 bc 30 ed c7 bc 0d 84 19 bd
       -0.02453458 -0.0119932275 -0.024405092 -0.03747945
000060 d3 c1 07 bd 48 90 06 bb 9c 98 af bb 60 9f dd bc
       -0.03314383 -0.0020532776 -0.0053587686 -0.027053535
000070 cd fa 57 bc 7b e7 af bc 19 52 04 bd 2d 94 fc bc
       -0.013182354 -0.021472683 -0.032304857 -0.030832374
000080 20 fa 96 bc 18 90 03 bd 3e f9 ba bc 24 14 28 bc
       -0.018429816 -0.03211984 -0.022823926 -0.010258708
000090 69 64 59 bc c9 99 0e bd 6a 31 12 bd 66 1d 59 bc
       -0.013268569 -0.03481463 -0.035691656 -0.013251638
0000a0 c8 c5 90 bc 01 58 c8 bb b6 33 ae bc 7c 91 89 bc
       -0.017672434 -0.0061140065 -0.021264892 -0.016793005
0000b0 af a4 54 3b fb 61 c8 bc 49 30 94 bc ec 4c 9c bc
       0.0032446792 -0.024460783 -0.01808943 -0.019079648
0000c0 03 d0 1f bc 74 72 44 bc e3 e3 c1 bc c4 79 37 bc
       -0.009754184 -0.011990178 -0.023668235 -0.011198465
0000d0 ce d9 8d bc bd 0a 3b bc 21 8f db bc 06 18 26 bd
       -0.017315771 -0.011416134 -0.026801648 -0.040550254
0000e0 17 0e 6a bc 8e 7a 0e bc ae 25 d8 bb 4b 27 07 bd
       -0.014285586 -0.0086962115 -0.0065962886 -0.032996457
0000f0 5e 41 16 bd 0a 1b 44 bc 69 fa 49 bc 3b 10 1a bd
       -0.036683433 -0.011969337 -0.012327769 -0.037613135
000100 63 0b 10 bc 7c f4 d0 bc 24 a0 93 bc 06 32 11 bd
       -0.008791777 -0.025507204 -0.018020697 -0.035448097
000110 2f 48 77 bc ed f8 ef bb 86 f5 24 bc fe 4a 53 bc
       -0.0150928935 -0.0073233754 -0.010068303 -0.0128962975
000120 97 d3 e8 bc 3f a4 5c bc 1a 1e 81 bc a6 dc bd bc
       -0.028421206 -0.013466894 -0.015761424 -0.023176502
000130 e6 9c 17 bd 24 1b 57 bc ad e6 05 bd 06 07 02 bd
       -0.037014864 -0.013129029 -0.032690693 -0.03174498
000140 99 75 f7 bb 97 98 13 bd 35 93 7b bc ff 9f 11 bc
       -0.0075518605 -0.036034193 -0.015354921 -0.008888244
000150 87 bd c2 bc 42 89 57 bc c3 8f df bc d9 b9 96 bc
       -0.023772014 -0.013155283 -0.02729023 -0.018399166
000160 91 82 aa bc f6 7a 95 bc 07 6b 75 bc 01 f5 bc bc
       -0.020814212 -0.018247109 -0.014979131 -0.023066046
000170 ac 3c 5b bc ed cf 55 bc 67 e6 44 bd 0e 15 1d bc
       -0.0133811645 -0.013050062 -0.04807129 -0.009587539
000180 07 72 12 bc be 12 51 bc a1 ed 07 bd 15 03 1f bc
       -0.008938319 -0.012760816 -0.033185605 -0.009705325
000190 4d 12 da bc f1 dd 77 bc d2 f3 17 bc a0 c4 bd bc
       -0.026620055 -0.015128599 -0.00927444 -0.023165047
0001a0 cb 54 42 bd 51 20 8e bc 0b 44 06 bc dd 8a cd bc
       -0.047444146 -0.017349394 -0.008194934 -0.02509063
0001b0 f8 0a 09 bd 3f c1 c7 bc 67 3c bc bc 4a c3 22 bd
       -0.033457726 -0.02438414 -0.02297802 -0.039737023
0001c0 a7 36 3b bd da 75 66 bc 02 ef 12 bd 9f 95 28 bd
       -0.045706417 -0.014066184 -0.035872467 -0.041158315
0001d0 5a 9c 80 bb 72 42 e0 bc 3e 66 bb bc 08 bf 1b bc
       -0.0039248886 -0.027375434 -0.022875901 -0.009505995
0001e0 22 3c 65 bc 6d 89 bc bc d8 d4 4c bd ee 70 3b bd
       -0.013991388 -0.023014748 -0.05000767 -0.045761995
0001f0 2c 42 6e bc c2 e1 b9 bc 5c 7e 06 bd e2 34 86 bc
       -0.014542144 -0.022690658 -0.03283535 -0.016382638

action_model._continuous_distribution.log_sigma f4 [1, 2]
000000 d5 de 18 bf 0d 2a 80 bf
       -0.59715015 -1.0012833

action_model._continuous_distribution.mu.weight f4 [2, 128]
000000 43 1f 71 3c ca 68 ce ba e8 9d ae bb d9 37 1b bd
       0.014716926 -0.0015747782 -0.0053288825 -0.037895057
000010 8a 30 36 bc 5e 62 d5 bc 91 a5 e7 bb 16 05 fd 3b
       -0.011119971 -0.026047882 -0.0070692976 0.0077215536
000020 98 6e a2 3a 60 1d e2 3d fc 89 45 bc 8c f5 ce 3b
       0.0012392579 0.11040759 -0.012056824 0.0063158926
000030 b2 62 27 bc 89 a0 1f bc ab 0d 46 3b 1f da 3d 3c
       -0.010216402 -0.009742864 0.003022055 0.011587649
000040 57 2c 56 bc d1 7f b9 bb 7c 80 aa bb 25 41 4d bc
       -0.013072095 -0.005660989 -0.005203305 -0.012527739
000050 e4 4d a5 3c 4a 32 c3 3a 1b e3 1a bc 28 60 0b bc
       0.020178743 0.0014892307 -0.00945356 -0.008506812
000060 38 d9 62 bb b6 04 db ba f0 c1 ae 3c fe d1 69 bc
       -0.0034614336 -0.0016709778 0.021332711 -0.014271257
000070 74 f8 fb bb ca 44 ce bc cb fe cd 3b c8 1f 7b 3b
       -0.00768953 -0.025179286 0.006286477 0.0038318504
000080 82 05 0f bb 89 dc 1e bc 28 5e 12 bc 07 8b 2d 3c
       -0.0021823351 -0.009696134 -0.008933581 0.010592229
000090 ea e5 d9 bb 11 59 03 bb 7c 28 9f bc a5 eb 4a bb
       -0.0066497223 -0.0020042101 -0.019428484 -0.003096321
0000a0 b2 b3 92 ba 8d 96 9a bc 21 55 0c bc 9c 95 6f 3b
       -0.0011192469 -0.018870616 -0.008565218 0.003655768
0000b0 d0 9c bf 3b 3f d0 6c 3c c6 f0 64 bc 20 bd d5 b9
       0.005847551 0.014453947 -0.0139734205 -0.00040767435
0000c0 33 fc 56 bc ed 37 2b bc 51 47 17 bd 4d 54 18 bb
       -0.013121652 -0.010450345 -0.036933247 -0.0023243607
0000d0 be 0a 0f bc d7 53 d5 ba 1c ef 06 bb 2c c2 24 bc
       -0.0087305885 -0.0016275597 -0.0020589298 -0.01005606
0000e0 0e 05 01 3b 21 07 08 3c b1 22 83 bc fd 93 2d bb
       0.001968685 0.008302481 -0.016007753 -0.0026485913
0000f0 74 fd 3e bc 12 e3 0f ba 39 f6 4e bc 8b fe 6a 3a
       -0.011657108 -0.0005488853 -0.012631946 0.00089643215
000100 f1 fe b7 bb 8e 23 93 3a 58 b0 95 3c b7 25 4d bc
       -0.005615108 0.0011225806 0.018272564 -0.012521199
000110 20 32 9c bb 4a 4c a3 bc 8f b7 44 bb 71 b3 ff 3c
       -0.0047667176 -0.019933838 -0.0030016636 0.031213494
000120 d9 90 1e bc f6 3a a2 bc 7d 7a 97 bb ca a1 1a bc
       -0.009678089 -0.019803505 -0.004622756 -0.009437988
000130 24 23 c5 ba 79 a9 53 bc 7a de 1f ba 83 b5 44 bc
       -0.001504038 -0.012918823 -0.000609852 -0.012006166
000140 b0 15 10 3d 49 dd 29 bc 29 e9 7e bc ec 0b 2f bc
       0.035176933 -0.0103677 -0.015558519 -0.010683995
000150 f9 82 67 bc 01 32 10 3c 4a 4e 7a bc 07 8f 87 3c
       -0.014130347 0.008800984 -0.015277455 0.016547693
000160 9c ec d9 bb db 4a b8 bc d2 d5 23 bc 11 6a 55 bc
       -0.0066505205 -0.022496631 -0.009999709 -0.0130257765
000170 66 d8 48 ba 49 10 82 ba c8 da 89 bc a8 15 81 3b
       -0.00076616404 -0.0009923066 -0.016827956 0.003939349
000180 de f2 e5 bb ee 92 2d bc 79 64 6f 3c 86 e6 87 bc
       -0.0070174774 -0.010594113 0.014611357 -0.016589414
000190 c9 b8 23 bb 4d 1a fd 39 99 c2 4c bc a6 36 19 3b
       -0.0024981967 0.00048275516 -0.012497568 0.002337852
0001a0 eb 26 de bb 83 4f 87 bc 08 3c bf ba 52 c9 a3 bc
       -0.0067795417 -0.016517406 -0.0014590034 -0.019993458
0001b0 af 7a 97 bb 39 96 55 ba 83 53 37 3b ba eb 16 bc
       -0.0046227793 -0.000814769 0.002797336 -0.009211475
0001c0 e8 52 47 3c bf a5 66 bc 87 a5 19 bc 4e fe 1e bc
       0.0121657625 -0.014077603 -0.009377844 -0.009704186
0001d0 bc 4a 68 bc 5c 50 11 3d b8 36 36 3b 3a 7c 57 3b
       -0.014177974 0.035477027 0.002780361 0.0032880441
0001e0 f6 82 cf ba a4 75 02 bc 2f e2 93 3c 48 fa 0b bc
       -0.0015831876 -0.007962618 0.018052189 -0.008543558
0001f0 68 95 57 bc a8 2b 06 bc 0b 85 31 bc eb 9a 1b ba
       -0.01315818 -0.008189119 -0.010834943 -0.00059358653
000200 3c f1 0b 3c 5a 2e d7 bb 83 8e 23 bb 8f 73 ba bc
       0.0085414015 -0.006566805 -0.002495677 -0.02276018
000210 4a be f1 3b 15 95 d2 bc 9a 38 99 ba ec 69 a8 bb
       0.0073774206 -0.025705853 -0.0011689842 -0.00513958
000220 e5 e4 19 bc ce 8c 24 ba 46 92 3f bb 8d 53 d1 3a
       -0.009392952 -0.0006277085 -0.0029231473 0.0015970335
000230 47 fd 0b bc dc 62 9c 3a 3b dd 3e bb 60 c3 4d bb
       -0.008544273 0.0011931318 -0.0029123563 -0.003139697
000240 2a 03 a4 39 3a f1 98 b9 ac 79 e8 ba b6 0f 9d 3b
       0.00031282875 -0.00029171427 -0.0017736456 0.0047931327
000250 7f 15 48 39 a9 ad 62 bc eb 90 77 bc 83 b1 a7 bb
       0.00019081494 -0.013835349 -0.015110235 -0.0051175966
000260 8a 36 67 3b 39 c3 8e b8 37 12 4d bc fd 39 8a 39
       0.003528031 -6.807451e-05 -0.01251655 0.00026364616
000270 c6 32 b9 3a 9d a7 b0 bc 35 b2 b5 3c 53 3a b6 38
       0.0014129512 -0.0215643 0.022179702 8.6893e-05
000280 08 e3 de bb cf c5 a5 3b 6d 6f 3f bc 9c 5a 2b ba
       -0.0068019666 0.005058981 -0.011684281 -0.0006536634
000290 9e ae 14 3b b5 8c de 3b f1 56 78 bb df 5b ff b9
       0.0022687088 0.006791676 -0.0037893618 -0.0004870584
0002a0 8c 13 b6 bb e0 ef 49 bc a1 ac 9d 3b b6 c0 c3 bc
       -0.0055565294 -0.012325257 0.0048118387 -0.023895603
0002b0 84 c7 25 bc 5d ab 12 bc f0 84 41 3c 61 96 1e bb
       -0.010118369 -0.008951989 0.01181148 -0.002419852
0002c0 e3 eb 57 3c 2a 76 21 3c 08 9d 15 bc eb da 04 bb
       0.013178798 0.009854833 -0.009131677 -0.0020272087
0002d0 85 8f ff bb ac c6 bd bc 8f a1 d6 3a c8 03 fc ba
       -0.0077990913 -0.023166023 0.0016375053 -0.0019227201
0002e0 7f fc 3c 3c 41 8c c7 3b 1a dd 26 3c e1 7a e7 3b
       0.011534809 0.0060897176 0.010184551 0.007064209
0002f0 56 3f 26 ba 63 82 97 3b bf 15 9c 3c 7f 6f ef 39
       -0.0006341835 0.0046236976 0.019053338 0.00045668703
000300 07 69 b7 3b 48 e1 aa 3a b5 7d b6 ba 9c 2c b2 ba
       0.005597237 0.001303711 -0.0013922962 -0.0013593617
000310 8b 25 af 3c 79 39 fb bb d4 c1 12 bc cc 0f 2f 3d
       0.021380207 -0.0076667634 -0.008957345 0.042739674
000320 d9 1b 07 3c 6c f3 61 3a fa 82 c5 bb b6 77 13 3c
       0.0082463855 0.00086193415 -0.0060275765 0.009000709
000330 a9 8b 8b 3a d7 64 92 39 cf a7 8f bc 12 10 7d ba
       0.001064648 0.00027922422 -0.017536072 -0.0009653579
000340 80 6c 4f 3c 9c 4a 9b bc a2 51 52 3b 69 cd 33 bc
       0.012660146 -0.018956475 0.0032092114 -0.010974267
000350 23 8d 22 bb a2 15 16 3d 8b 2b b6 3a d3 4a 38 3c
       -0.0024803362 0.036641724 0.0013898475 0.011248308
000360 a0 e7 95 bb c9 b1 b0 3b 9e 4f 9c 3b 71 d5 37 bc
       -0.004574731 0.0053922874 0.0047702333 -0.011220322
000370 34 bb 6e bc 21 c6 93 3c 21 38 2c bc b7 29 ab 3b
       -0.014571 0.018038811 -0.010511429 0.0052234787
000380 fd 56 91 bb a5 20 a1 bc 81 b4 73 3c d9 27 01 bc
       -0.0044354186 -0.019668886 0.014874578 -0.007883036
000390 db 39 4f bc 40 62 95 ba c5 4a ed 3a 92 80 1d ba
       -0.012648071 -0.0011397079 0.0018103948 -0.0006008233
0003a0 41 2b 28 bc bb 6c 82 3a af d6 0e bc 0c a4 2f 3c
       -0.010264219 0.0009950617 -0.008718177 0.010720264
0003b0 80 14 3c bb 68 e8 db 3b 0d cf bd bc 31 80 5c bc
       -0.0028698742 0.0067110546 -0.023170019 -0.013458298
0003c0 2a ad 59 bc 8f ed 26 3c 92 c9 3f 3a c5 9d f1 bb
       -0.013285914 0.010188474 0.0007316108 -0.007373544
0003d0 e4 29 7d bc fa c7 52 3b 44 e7 b0 3b 17 51 de 3c
       -0.015451882 0.0032162652 0.0053986628 0.027138276
0003e0 5b 44 ae ba b0 37 e9 bb 89 78 11 3c 82 fa 81 bb
       -0.0013295518 -0.007117234 0.0088788355 -0.0039666304
0003f0 a9 03 20 bc e1 9d 19 3b 06 ef f4 bb ba 88 01 3b
       -0.009766498 0.002344005 -0.007474783 0.0019765333

action_model._continuous_distribution.mu.bias f4 [2]
000000 d6 87 37 3e be 5d d5 3c
       0.17922911 0.026045676

exp_avg f4 [128, 14]
000000 9e c7 67 ab 04 00 00 80 da 77 14 2c a5 82 25 ab
       -8.234471e-13 -6e-45 2.1098596e-12 -5.880108e-13
000010 82 77 ad a0 f6 00 40 2b f8 d0 0e 29 1e ab 46 28
       -2.9386424e-19 6.8213436e-13 3.1711585e-14 1.1028313e-14
000020 fe b9 a6 a5 60 e9 e5 25 08 ca eb a5 b4 9e 07 9e
       -2.8922443e-16 3.9883309e-16 -4.0902903e-16 -7.1796595e-21
000030 08 ca eb a5 d9 7a 8c 28 93 89 a1 ad 04 00 00 80
       -4.0902903e-16 1.5596399e-14 -1.8364676e-11 -6e-45
000040 b0 f2 4e 2e 5d 11 59 ad 32 16 83 22 bf c2 9f ad
       4.7054527e-11 -1.2338877e-11 3.553112e-18 -1.8162692e-11
000050 34 62 f2 a9 3f 51 ed aa b4 b8 c5 a8 d0 f2 66 27
       -1.07639944e-13 -4.2156033e-13 -2.1951496e-14 3.205054e-15
000060 71 cf 0b a9 da 31 fd a0 71 cf 0b a9 02 cf 27 ab
       -3.1044127e-14 -4.2892856e-19 -3.1044127e-14 -5.96176e-13
000070 dc 7e 5f 3c 04 00 00 00 66 29 0f bd a8 b5 14 3c
       0.0136410855 6e-45 -0.03495159 0.009076513
000080 9a 48 39 b1 9b 1a 33 3c 9c f4 14 39 36 55 89 39
       -2.6962312e-09 0.010931636 0.00014205504 0.00026194163
000090 2a a8 97 37 35 b0 6f b5 a1 79 d6 37 3e ad b0 2f
       1.807891e-05 -8.9290853e-07 2.5567426e-05 3.213731e-10
0000a0 a1 79 d6 37 c8 37 c2 39 5a c1 ad 3b 04 00 00 00
       2.5567426e-05 0.00037044124 0.0053025903 6e-45
0000b0 9e 99 5e bc 2c 33 67 3b 03 07 90 b0 50 cc 8a 3b
       -0.01358643 0.0035278304 -1.0479372e-09 0.0042357817
0000c0 bd b2 68 38 ac f7 d4 38 48 15 ec 36 8c 9b b8 b4
       5.5479573e-05 0.0001015508 7.0358255e-06 -3.4385846e-07
0000d0 8f ef 26 37 f9 63 08 2f 8f ef 26 37 35 97 16 39
       9.950148e-06 1.2404645e-10 9.950148e-06 0.00014361444
0000e0 3a 78 0f 21 04 00 00 00 0e cd b7 a1 78 8d bd 20
       4.8609403e-19 6e-45 -1.245484e-18 3.2111462e-19
0000f0 44 32 f2 95 1b 86 b8 20 14 34 02 1e 56 3f 13 1e
       -9.7822327e-26 3.1259556e-19 6.892912e-21 7.795213e-21
000100 56 bf 50 1c f2 cc 9f 99 52 9b 93 1c 04 f4 47 14
       6.9068723e-22 -1.6522991e-23 9.767793e-22 1.0095056e-26
000110 52 9b 93 1c 3a 3d 50 1e d7 1f 00 b7 04 00 00 00
       9.767793e-22 1.102409e-20 -7.636808e-06 6e-45
000120 54 24 a4 37 60 b8 a8 b6 ba a2 d8 2b f9 13 8d b6
       1.956724e-05 -5.0282542e-06 1.5392889e-12 -4.2044526e-06
000130 3c 82 03 b4 e3 a5 e8 b3 dd 22 40 b2 d0 02 17 30
       -1.2247705e-07 -1.08335165e-07 -1.1183798e-08 5.4937477e-10
000140 5b dc 87 b2 50 fe 48 2b 5b dc 87 b2 bf 82 24 b4
       -1.5816275e-08 7.1407203e-13 -1.5816275e-08 -1.5321255e-07
000150 b9 64 2c 9c 04 00 00 00 09 db dc 1c c9 64 e6 9b
       -5.7040207e-22 6e-45 1.4614998e-21 -3.811544e-22
000160 a9 2c a4 8d 45 7b 8a 1a 87 fa e3 15 ac f4 4d 97
       -1.0118032e-30 5.7274615e-23 9.207983e-26 -6.654789e-25
000170 d3 ee 5f 97 dc ec 50 10 2d 58 9e 97 65 83 60 89
       -7.2356625e-25 4.1203237e-29 -1.0232769e-24 -2.70248e-33
000180 2d 58 9e 97 ee a1 91 97 a2 f4 03 3c 04 00 00 00
       -1.0232769e-24 -9.411282e-25 0.0080539305 6e-45
000190 dc 0c a9 bc a8 97 af 3b 1a c3 da b0 8c 31 d3 3b
       -0.020636015 0.005358655 -1.5917039e-09 0.0064451154
0001a0 36 3a b0 38 f8 f9 21 39 e4 2b 33 37 3d f2 0c b5
       8.4031766e-05 0.00015447277 1.06794505e-05 -5.250657e-07
0001b0 e5 62 7d 37 db 21 50 2f e5 62 7d 37 b7 11 65 39
       1.5103001e-05 1.8929518e-10 1.5103001e-05 0.00021845741
0001c0 b8 83 0d 3c 04 00 00 80 d6 4b b5 bc 6a 50 bc 3b
       0.008637361 -6e-45 -0.022130888 0.005746891
0001d0 4a a0 ea b0 0b 8d e2 3b c2 f3 bc 38 5a bf 2d 39
       -1.7071298e-09 0.0069137863 9.009942e-05 0.0001656985
0001e0 54 22 40 37 29 45 17 b5 fc db 87 37 33 37 5f 2f
       1.1452084e-05 -5.6352525e-07 1.6195692e-05 2.0301343e-10
0001f0 fc db 87 37 46 b7 75 39 1e f3 ec ab 04 00 00 00
       1.6195692e-05 0.00023433295 -1.6836287e-12 6e-45
000200 a7 c7 97 2c 6f ca 9f ab a2 fe f3 9f eb 13 ea 2a
       4.313844e-12 -1.1353816e-12 -1.0333576e-19 4.158057e-13
000210 9e a8 36 28 c6 10 56 27 d1 fb 0a a7 3c 6b dd 22
       1.01395925e-14 2.9707559e-15 -1.9287857e-15 6.001571e-18
000220 7e 8d 44 a7 1d 8b c0 9c 7e 8d 44 a7 00 5e 97 27
       -2.7277167e-15 -1.2741454e-21 -2.7277167e-15 4.2012834e-15
000230 37 0c b5 aa 04 00 00 00 58 f1 67 2b f2 4b 72 aa
       -3.2160535e-13 6e-45 8.240262e-13 -2.1520267e-13
000240 12 77 9f 1f 68 16 58 aa 9a 1f af a7 71 15 af a7
       6.7536105e-20 -1.9192428e-13 -4.860652e-15 -4.8595504e-15
000250 0f b9 e7 a5 3c 7e ac 25 50 da 23 a6 61 48 91 9e
       -4.0197513e-16 2.9922784e-16 -5.6847854e-16 -1.5382407e-20
000260 50 da 23 a6 f2 9a f7 a7 65 74 9e ab 04 00 00 80
       -5.6847854e-16 -6.8724264e-15 -1.1258881e-12 -6e-45
000270 a8 ff 4a 2c d3 5f 5e ab 10 20 ca a0 ae a9 22 2b
       2.8847844e-12 -7.9003226e-13 -3.4241348e-19 5.778944e-13
000280 7d be 37 29 66 d0 0f 28 2e 61 42 a6 ef 56 a7 23
       4.0799385e-14 7.983284e-15 -6.7438974e-16 1.8142994e-17
000290 5c 72 89 a6 20 ed 15 9f 5c 72 89 a6 52 62 4b 28
       -9.537282e-16 -3.1748122e-20 -9.537282e-16 1.12900835e-14
0002a0 c5 43 5d 29 04 00 00 80 88 bb 0d aa 58 47 12 29
       4.913064e-14 -6e-45 -1.2588379e-13 3.2480393e-14
0002b0 c5 f1 3a 9e f4 4f 10 29 45 16 46 26 ef ad 65 26
       -9.896755e-21 3.204377e-14 6.872523e-16 7.968606e-16
0002c0 49 d5 9f 24 d3 ee 58 a2 c1 09 e2 24 6c b7 65 1c
       6.931658e-17 -2.9399891e-18 9.80284e-17 7.600681e-22
0002d0 c1 09 e2 24 66 68 a2 26 1a a7 62 3c 04 00 00 80
       9.80284e-17 1.1269305e-15 0.013833785 -6e-45
0002e0 16 2f 11 bd 6e cf 16 3c ea e5 3b b1 91 a2 35 3c
       -0.035445295 0.0092047285 -2.7342772e-09 0.011086122
0002f0 5a 0d 17 39 0f 46 8b 39 60 cc 99 37 ed 16 73 b5
       0.00014405456 0.00026564344 1.833419e-05 -9.0557916e-07
000300 ed 80 d9 37 c2 35 b3 2f ed 80 d9 37 73 f6 c4 39
       2.5928452e-05 3.2598108e-10 2.5928452e-05 0.00037567652
000310 3e 1e 19 89 04 00 00 80 67 29 c4 09 b7 ce cb 88
       -1.8430925e-33 -6e-45 4.722422e-33 -1.22662165e-33
000320 0a 00 00 80 38 41 5a 07 7e 7e 0c 00 ac 6f 5a 84
       -1.4e-44 1.6419663e-34 1.147403e-39 -2.5677054e-36
000330 f2 59 4f 84 04 00 00 00 9b 9e 92 84 04 00 00 80
       -2.4374034e-36 6e-45 -3.447009e-36 -6e-45
000340 9b 9e 92 84 2e 75 9a 84 08 a5 04 3c 04 00 00 00
       -3.447009e-36 -3.631284e-36 0.008095987 6e-45
000350 d2 ee a9 bc 56 82 b0 3b 9e ea db b0 be 4b d4 3b
       -0.020743761 0.005386631 -1.6001029e-09 0.0064787557
000360 b8 2c b1 38 67 d2 22 39 d0 1b 34 37 68 ac 0d b5
       8.448347e-05 0.00015527905 1.0735312e-05 -5.277748e-07
000370 40 b6 7e 37 08 12 51 2f 40 b6 7e 37 c2 43 66 39
       1.5182013e-05 1.9014845e-10 1.5182013e-05 0.00021959751
000380 bb dd f5 36 04 00 00 00 c4 7d 9d b7 9d 9a a3 36
       7.327382e-06 6e-45 -1.8774423e-05 4.875778e-06
000390 f6 9a c1 a8 89 4c 13 b5 a8 f0 08 31 f7 1f 53 32
       -2.1494508e-14 -5.487314e-07 1.9927402e-09 1.2289084e-08
0003a0 17 bd 26 32 88 1d 8b 2e d9 cd 6b 32 d8 38 99 a4
       9.705466e-09 6.326234e-11 1.3725605e-08 -6.644947e-17
0003b0 d9 cd 6b 32 b3 49 95 32 de 36 0b 2d 04 00 00 80
       1.3725605e-08 1.7379397e-08 7.913418e-12 -6e-45
0003c0 74 59 b2 ad 05 e2 b8 2c 2c 74 eb a1 f6 49 c9 2c
       -2.0275982e-11 5.2546877e-12 -1.595497e-18 5.720975e-12
0003d0 fc c5 dd 29 c3 1c 1d 2a 82 cd 40 28 a9 2e bc a6
       9.8487164e-14 1.395438e-13 1.07027034e-14 -1.3057768e-15
0003e0 06 55 88 28 10 b7 66 20 06 55 88 28 ba 30 5e 2a
       1.5135906e-14 1.9542328e-19 1.5135906e-14 1.9734466e-13
0003f0 81 aa 38 2c 04 00 00 00 17 94 ec ac 0a 45 fa 2b
       2.6242621e-12 6e-45 -6.7239647e-12 1.7782731e-12

exp_avg_sq f4 [128, 14]
000000 ef cc 42 20 f4 01 00 00 c9 db 9f 21 86 4e a8 1f
       1.6500246e-19 7e-43 1.0832436e-18 7.1280674e-20
000010 4a 74 8a 09 43 ef 96 1c 29 60 ce 16 37 0e ab 17
       3.333165e-33 9.988015e-22 3.334178e-25 1.1054204e-24
000020 33 4c b9 16 87 87 86 14 32 4c 39 17 fb 96 96 13
       2.993645e-25 1.3583998e-26 5.9872896e-25 3.80142e-27
000030 32 4c 39 17 da d7 2a 18 9b 80 b7 20 f4 01 00 00
       5.9872896e-25 2.2080962e-24 3.108651e-19 7e-43
000040 47 96 16 22 44 e0 1d 20 9d 82 1d 09 ca c1 84 1f
       2.0408347e-18 1.337262e-19 1.8959602e-33 5.622477e-20
000050 0b 87 9e 1a 8e d8 38 1a 48 f7 61 17 a4 ed 80 17
       6.556544e-23 3.822524e-23 7.3013534e-25 8.331795e-25
000060 48 f7 e1 17 2b 3d 63 19 48 f7 e1 17 87 f5 97 1a
       1.4602707e-24 1.1747978e-23 1.4602707e-24 6.284881e-23
000070 b6 a3 88 3d f4 01 00 00 8f 42 e0 3e d0 bf eb 3c
       0.066718504 7e-43 0.4380078 0.028777987
000080 a3 0f c3 25 4f 6a a9 3c 5e 04 60 37 bf 01 44 37
       3.3837704e-16 0.020680575 1.3352457e-05 1.1682917e-05
000090 3a c7 20 34 e8 ad 92 33 3d c7 a0 34 b9 6b fd 36
       1.497364e-07 6.830288e-08 2.9947287e-07 7.552528e-06
0000a0 3d c7 a0 34 1e f8 4e 37 d9 9d 23 3c f4 01 00 00
       2.9947287e-07 1.2336326e-05 0.009986364 7e-43
0000b0 8a 44 86 3d 07 25 8d 3b da df 6b 24 93 04 4b 3b
       0.065560415 0.0043073925 5.1147112e-17 0.0030978068
0000c0 5b 05 06 36 db 96 ea 35 16 7c c0 32 cf 82 30 32
       1.9970673e-06 1.7478263e-06 2.240817e-08 1.0274291e-08
0000d0 15 7c 40 33 ca dc 97 35 15 7c 40 33 12 80 f7 35
       4.4816336e-08 1.1314635e-06 4.4816336e-08 1.8440207e-06
0000e0 55 6f 6b 07 f4 01 00 00 1f 34 c1 08 f3 78 cb 06
       1.7712153e-34 7e-43 1.1628019e-33 7.653783e-35
0000f0 f4 01 00 00 f6 4b 6a 07 77 5e 84 00 f3 8f da 00
       7e-43 1.7626526e-34 1.2156173e-38 2.0071777e-38
000100 3c 44 04 00 75 3e 00 00 9d 88 08 00 93 02 e9 00
       3.9182e-40 2.2405e-41 7.83692e-40 2.1398594e-38
000110 9d 88 08 00 26 f9 1f 00 8a 95 13 3b f4 01 00 00
       7.83692e-40 2.936278e-39 0.0022519552 7e-43
000120 f3 38 72 3c 39 55 7f 3a 40 86 9f 22 5a c9 f4 3a
       0.014784086 0.0009740177 4.323918e-18 0.001867573
000130 9f 53 4b 34 7c 0d 16 35 20 7e a9 31 4a 38 86 2c
       1.893627e-07 5.5898977e-07 4.932886e-09 3.8147584e-12
000140 21 7e 29 32 a1 4e cb 34 21 7e 29 32 94 b4 c4 2e
       9.865773e-09 3.7868907e-07 9.865773e-09 8.945125e-11
000150 36 f6 2b 00 f4 01 00 00 1e 4e 10 01 51 02 13 00
       4.03725e-39 7e-43 2.650467e-38 1.745705e-39
000160 f4 01 00 00 1a 3c 00 00 f4 01 00 00 f4 01 00 00
       7e-43 2.156e-41 7e-43 7e-43
000170 f4 01 00 00 f4 01 00 00 f4 01 00 00 f4 01 00 00
       7e-43 7e-43 7e-43 7e-43
000180 f4 01 00 00 f4 01 00 00 c4 2b bc 3c f4 01 00 00
       7e-43 7e-43 0.022970088 7e-43
000190 f7 6a 1a 3e 95 54 22 3c 49 8b 06 25 8b 52 e9 3b
       0.15079866 0.009907861 1.1669839e-16 0.0071204356
0001a0 33 36 9a 36 06 f8 86 36 8f 65 5d 33 4e 4d c9 32
       4.5958673e-06 4.022385e-06 5.154794e-08 2.3434634e-08
0001b0 8f 65 dd 33 4e 66 2e 36 8f 65 dd 33 8f 74 8e 36
       1.0309588e-07 2.598757e-06 1.0309588e-07 4.245499e-06
0001c0 18 ae da 3c f4 01 00 00 5b 74 33 3e bf a5 3c 3c
       0.026694342 7e-43 0.17524855 0.011514126
0001d0 31 aa 1c 25 03 a0 07 3c fd 32 b3 36 7e d1 9c 36
       1.3588506e-16 0.008277896 5.3405515e-06 4.6735504e-06
0001e0 58 a6 80 33 4b 65 eb 32 56 a6 00 34 5f e6 4a 36
       5.990722e-08 2.7403663e-08 1.1981442e-07 3.023444e-06
0001f0 56 a6 00 34 3a 87 a5 36 4a af c0 1f f4 01 00 00
       1.1981442e-07 4.9331256e-06 8.1605154e-20 7e-43
000200 49 1f 1e 21 0b 97 26 1f 6a c5 1d 09 8b fa 00 1c
       5.357389e-19 3.5276807e-20 1.8991011e-33 4.2675467e-22
000210 2f ce 45 15 b5 f9 da 16 66 a3 2e 16 af e7 94 0e
       3.9946483e-26 3.5377387e-25 1.4107168e-25 3.670792e-30
000220 66 a3 ae 16 45 82 10 11 66 a3 ae 16 90 f6 5a 17
       2.8214335e-25 1.139974e-28 2.8214335e-25 7.0750805e-25
000230 0a cb 39 1e f4 01 00 00 43 77 98 1f a6 1e a0 1d
       9.835806e-21 7e-43 6.4571806e-20 4.2383337e-21
000240 63 5d 46 05 8c 2e 82 1e 09 15 6b 16 4d ac 2b 16
       9.327068e-36 1.3783537e-20 1.8989786e-25 1.3867639e-25
000250 e4 eb e5 14 62 f3 8b 14 e4 eb 65 15 aa 59 dc 16
       2.3216133e-26 1.4131411e-26 4.6432267e-26 3.5599503e-25
000260 e4 eb 65 15 91 2f a7 14 17 74 5c 20 f4 01 00 00
       4.6432267e-26 1.6881452e-26 1.8673136e-19 7e-43
000270 fb e8 b4 21 23 91 be 1f b1 4f a4 09 6e 41 d4 1c
       1.2258944e-18 8.070824e-20 3.9556505e-33 1.4045896e-21
000280 db da 75 17 a5 e9 f3 17 3b 75 cd 16 a1 18 b6 10
       7.9440004e-25 1.5762487e-24 3.319352e-25 7.182429e-29
000290 3d 75 4d 17 bd c2 ac 15 3d 75 4d 17 bf f9 70 18
       6.638705e-25 6.977749e-26 6.638705e-25 3.1145363e-24
0002a0 84 ff 6e 17 f4 01 00 00 c5 20 c4 18 cc 3e ce 16
       7.7224454e-25 7e-43 5.06979e-24 3.3320725e-25
0002b0 67 87 10 00 ae 97 56 17 83 38 af 10 ef c4 0f 11
       1.517941e-39 6.9338576e-25 6.91124e-29 1.1341396e-28
0002c0 42 cd 0e 0e 04 9a 5d 0d 44 cd 8e 0e 6d 77 01 11
       1.760168e-30 6.8286272e-31 3.5203366e-30 1.0213107e-28
0002d0 44 cd 8e 0e 02 bf 11 10 77 4f 8c 3d f4 01 00 00
       3.5203366e-30 2.8743355e-29 0.06851094 7e-43
0002e0 eb 48 e6 3e 58 15 f2 3c d1 22 c8 25 77 f5 ad 3c
       0.44977507 0.029551193 3.4718062e-16 0.02123521
0002f0 73 0c 66 37 65 47 49 37 e0 19 25 34 21 75 96 33
       1.3711967e-05 1.1997156e-05 1.5376236e-07 7.006225e-08
000300 e0 19 a5 34 b4 16 02 37 e0 19 a5 34 31 8e 54 37
       3.0752472e-07 7.75389e-06 3.0752472e-07 1.2669291e-05
000310 f4 01 00 00 f4 01 00 00 f4 01 00 00 f4 01 00 00
       7e-43 7e-43 7e-43 7e-43
000320 f4 01 00 00 f4 01 00 00 f4 01 00 00 f4 01 00 00
       7e-43 7e-43 7e-43 7e-43
000330 f4 01 00 00 f4 01 00 00 f4 01 00 00 f4 01 00 00
       7e-43 7e-43 7e-43 7e-43
000340 f4 01 00 00 f4 01 00 00 78 9b bf 3c f4 01 00 00
       7e-43 7e-43 0.023389563 7e-43
000350 f2 3c 1d 3e f6 4a 25 3c eb 46 09 25 ca a5 ed 3b
       0.1535528 0.010088673 1.1906884e-16 0.0072524296
000360 92 06 9d 36 71 66 89 36 23 71 61 33 34 06 ce 32
       4.6797295e-06 4.094844e-06 5.2489792e-08 2.3984377e-08
000370 23 71 e1 33 e9 be 31 36 23 71 e1 33 24 0b 91 36
       1.04979584e-07 2.648618e-06 1.04979584e-07 4.3226337e-06
000380 c0 88 82 36 f4 01 00 00 68 3d d6 37 cc d6 e1 35
       3.8902217e-06 7e-43 2.5539382e-05 1.682632e-06
000390 0e 4d 76 20 ac ab c1 32 d6 ad ff 29 f8 06 09 2d
       2.0862506e-19 2.2546224e-08 1.13544306e-13 7.789096e-12
0003a0 cc 51 92 2c f7 b0 9a 27 cd 51 12 2d 27 96 e1 21
       4.158651e-12 4.293545e-15 8.317303e-12 1.5286338e-18
0003b0 cd 51 12 2d f8 06 89 2d 94 ae f8 1e f4 01 00 00
       8.317303e-12 1.5578192e-11 2.6330225e-20 7e-43
0003c0 31 13 4c 20 2c 25 54 1e 14 03 d2 06 ac 05 9c 1e
       1.7285822e-19 1.12308735e-20 7.8997743e-35 1.6519488e-20
0003d0 4d 68 97 18 7a e3 bd 18 5b f5 b8 15 51 d9 64 16
       3.9137902e-24 4.9085048e-24 7.470411e-26 1.8486266e-25
0003e0 5b f5 38 16 a2 93 a9 18 5b f5 38 16 c4 c8 55 18
       1.4940822e-25 4.3834547e-24 1.4940822e-25 2.7630965e-24
0003f0 9e e3 79 1f f4 01 00 00 cb 10 cd 20 a6 e6 d7 1e
       5.291608e-20 7e-43 3.4739463e-19 2.2859404e-20

exp_avg f4 [128]
000000 22 71 a4 a8 ab 36 e5 aa 8c 90 9e 39 de 8c f6 38
       -1.8256721e-14 -4.0716505e-13 0.00030243804 0.00011756433
000010 91 93 4b 1e 5a cd 35 b4 21 9e 74 99 06 3d 3b 39
       1.07772465e-20 -1.6931645e-07 -1.2646438e-23 0.00017856443
000020 5c cd 48 39 27 1c 28 a9 ea 72 00 a8 de d6 e0 a8
       0.00019149989 -3.7327912e-14 -7.130345e-15 -2.496218e-14
000030 57 fb 9c 26 f7 cd a0 39 5e 44 59 86 4e 37 3c 39
       1.08928e-15 0.00030671034 -4.0863392e-35 0.0001794968
000040 9b 6f 2e 34 c9 89 45 2a 18 04 83 29 58 d9 5c 39
       1.6245615e-07 1.7544919e-13 5.818279e-14 0.00021061802
000050 b4 96 83 28 6f 8e a3 39 16 55 3e aa f8 b5 e8 22
       1.4609279e-14 0.00031195904 -1.690491e-13 6.3076393e-18
000060 00 fd 40 1f e5 af 4f b8 10 08 a2 a8 f2 2f 50 2b
       4.0866858e-20 -4.951646e-05 -1.798911e-14 7.396298e-13
000070 52 6f bc 38 24 ca 6e a9 18 50 9c a9 e7 b4 53 39
       8.9852736e-05 -5.3021945e-14 -6.941686e-14 0.0002018992
000080 b6 4d a7 39 f4 f6 ed 36 90 e2 49 aa 6c d2 95 39
       0.0003191062 7.0918995e-06 -1.7930991e-13 0.0002857627
000090 96 6a a0 b8 f3 05 ae 30 58 0e cc 38 78 c8 42 39
       -7.649248e-05 1.2661857e-09 9.73015e-05 0.00018575962
0000a0 f4 93 8a aa c0 27 41 95 c5 d3 fd 29 ac 4f 97 2a
       -2.4616387e-13 -3.9007397e-26 1.1272193e-13 2.6878272e-13
0000b0 b6 49 8e aa 94 9b 9d 2a 1d 9e ff aa a7 95 76 32
       -2.5275414e-13 2.7996756e-13 -4.5406813e-13 1.4353112e-08
0000c0 84 50 cf a9 76 23 19 24 d2 8e 7c 39 20 b8 91 a1
       -9.206614e-14 3.3206623e-17 0.00024085797 -9.87432e-19
0000d0 9c 9c db 2a fc c7 90 39 0b 11 2a 2f 15 62 3d a9
       3.9010884e-13 0.0002761482 1.5467465e-10 -4.2051503e-14
0000e0 dc f3 71 38 4c ad bf 28 0b 59 c6 28 c6 5e a6 a9
       5.768599e-05 2.1280415e-14 2.2021032e-14 -7.3883215e-14
0000f0 c0 c0 83 2a f6 12 03 ab 81 1b 9d 39 5b fc 0c 95
       2.3404022e-13 -4.6566863e-13 0.00029965866 -2.8471848e-26
000100 75 66 57 b6 83 f5 d5 25 ef fa 23 a4 6c 68 94 a8
       -3.2097134e-06 3.7115975e-16 -3.555754e-17 -1.6476587e-14
000110 fa fa a5 a8 d2 0c 81 33 78 53 7a a6 20 94 20 26
       -1.8427524e-14 6.0093626e-08 -8.6849295e-16 5.57119e-16
000120 c6 01 b9 39 e3 ed 49 38 7e d7 00 a8 1e f1 c4 38
       0.0003528727 4.8143684e-05 -7.152155e-15 9.39092e-05
000130 c9 84 e7 b8 b2 41 77 39 ee 28 9c 39 af 21 c7 aa
       -0.000110396715 0.00023580229 0.00029785134 -3.5372874e-13
000140 d0 73 82 b3 21 8c 03 ad 65 4b 89 38 bf bf 2b 32
       -6.074663e-08 -7.477603e-12 6.5467124e-05 9.997108e-09
000150 f1 1d 9c 2a 7e d9 ea a6 ac 7e 3d a9 48 a9 7a 38
       2.7731943e-13 -1.6295963e-15 -4.20763e-14 5.97623e-05
000160 87 7a 94 32 20 3e b1 38 12 a4 a1 aa a8 e7 65 39
       1.7285187e-08 8.4515894e-05 -2.8713192e-13 0.0002192544
000170 54 1f 52 39 9a 8c b1 95 4e c1 32 39 44 6d 70 39
       0.00020038831 -7.171156e-26 0.00017047414 0.00022928888
000180 a9 93 5d 98 6b 58 33 28 73 f0 5e 39 ae c1 4d 39
       -2.863813e-24 9.955669e-15 0.00021261144 0.00019622475
000190 98 7f 90 2f 45 d9 4f b8 fd 6b b2 8a b8 cb 25 b9
       2.6284108e-10 -4.9554994e-05 -1.7181397e-32 -0.00015811517
0001a0 ee 7f c0 37 a7 42 1f 24 b4 49 8a 39 fe 8d a6 a9
       2.2947755e-05 3.4534086e-17 0.00026376324 -7.3965126e-14
0001b0 5e 72 70 2c 65 ad f5 1a f0 bb 82 29 ec 9f 65 29
       3.4169538e-12 1.0160976e-22 5.805762e-14 5.0986925e-14
0001c0 0f e4 46 ab 38 af a2 a7 42 fe 0b aa ae aa 03 af
       -7.0660226e-13 -4.5154005e-15 -1.2433893e-13 -1.1975018e-10
0001d0 b2 6b ac a9 c6 e4 bb 29 00 c4 b2 06 3b b0 41 a8
       -7.6570166e-14 8.344154e-14 6.7244154e-35 -1.0751866e-14
0001e0 46 fd c1 38 48 e9 71 39 97 3d fa 80 d7 09 a3 39
       9.250133e-05 0.00023070455 -2.2980968e-38 0.00031097114
0001f0 e4 37 97 39 c6 5c 28 ab ce 99 43 a4 12 85 5e b8
       0.00028842606 -5.981434e-13 -4.2414162e-17 -5.3052856e-05
