results/TankLearningAI_timePunished/TankLearningAI/TankLearningAI-854950.pt (torch, 444682 bytes, 36 tensors)

network_body._body_endoder.seq_layers.0.weight f4 [128, 6]
00000000: 13c9 453d ad5e fbbd 3353 29bf 6f9e 2c3d
00000010: f6a7 873e c51c 063f fefd a63e 1ef3 0d3f
00000020: 0e9a 673e ea40 48bc efe7 a4be e508 cf3e
00000030: 6e08 2e3d 8486 02be f5d2 8d3f 0593 b4be
00000040: e650 c03e f724 f73e 175f de3e ea14 7ebe
00000050: 4974 0e3f 0415 f1bb a213 bf3e c596 c3ba
00000060: 2aba 943e 7645 f8bd eecd 443e aca7 483e
00000070: b9ea 373f bf55 a0be bc57 773f 6ebe 423e
00000080: 7192 1c3e e69f 11be 7d00 f9be 4343 d13d
00000090: ee70 75be 196a 1cbe fae2 e83e ebe4 7dbf
000000a0: 5299 e23e 8414 0c3f 2653 71be 8c30 1fbf
000000b0: 592d cebc 3fd3 0ebf 63b5 14bf 9c07 8dbe
000000c0: 8757 163e da13 1a3f f289 e0bd fe8b e3be
000000d0: 6036 693e 5482 913e f41b 213f 593b 1a3f
000000e0: fd02 ecbd 5b18 0b3d 89c7 293e 3109 24be
000000f0: deb8 1b3e e49f b9be 7414 e3be 9c77 c4bd
00000100: aac4 1b3f 7ef5 273e 9844 863e 24b2 c9be
00000110: ba1a 8f3d 2248 433e 229f 11be e8c3 e9bc
00000120: c051 a33e 7a11 103c 8e73 adbe 5565 61be
00000130: 59f6 03be b5a5 b23d f049 a5bc 2147 7e3d
00000140: d807 773e cd4a 7cbe d270 49be f060 953e
00000150: d033 903e bc81 ca3e bd87 a23e 41f0 0dbf
00000160: 4e21 f1be 32ad 84be 7e04 f83e bff3 a53e
00000170: 14a7 94bc 9e4d 5a3f 82fe 6a3e d16f 593e
00000180: 926d 373e 281c afbe 88a5 c03c 0e21 e7bc
00000190: d78e e53c fa9d dbbe 1237 a63d 2fef f83e
000001a0: de98 bc3e a732 b9be 85bf 8c3f 3492 90be
000001b0: 1001 863e 895e dbbe 0254 be3e b27a d0be
000001c0: bcad 01be 9588 ba3e 011d 3bbe 504b 51bf
000001d0: c847 373e c4d8 db3e 618d 573f ba55 71be
000001e0: ea98 da3e 82d6 d4be d719 c2bc 45f9 0b3f
000001f0: dede cf3e b35f 9b3e 0170 2dbd 60f7 a6be
00000200: e244 603d 9df2 71bf 2eeb 64be 41f9 75be
00000210: 930c f93e 576d 0fbf 70fe b9be d3c6 c73d
00000220: 8feb 82bd 4340 a7be aa9c 92bd ebbf fa3d
00000230: 57c2 0fbc a37e 92bf 4e5f 8fbe 1726 cdbe
00000240: 5e47 263e b0c8 823e dde5 ef3c 2998 92bd
00000250: aef9 7fbe 5f79 d9bd 699f 3cbd 63ce 52be
00000260: 7577 c3bd 8380 dbbe 52e6 4f3e e11a 253f
00000270: 859f e0bd 5252 c93e 6dec 083f 0098 1abf
00000280: 040e 133d 0556 793c 2625 bf3e 1e0c 943e
00000290: 7807 f4bd 42b8 4c3f c747 a53e 7728 b4be
000002a0: e092 293e cb34 babe bf62 5dbe 4715 bf3e
000002b0: a832 e0be 96c0 ea3e 93cb 313d 3ac9 ecbe
000002c0: 314c 23be ee7c 023e 02c2 d6be e56e e03e
000002d0: a82a 7a3e 57c3 59bf 3dc0 bdbe 10e2 b03e
000002e0: 11e8 93bd 4288 01bd a99e 9c3e 7ddc 023f
000002f0: 1fc0 35be 17d7 533e c0de ba3d a4d4 03bf
00000300: 6c2f 99be d474 f73e 26b8 883e 9bdd 3dbe
00000310: cab4 24bf b093 bb3e 183f 0f3f b9e1 42be
00000320: ebbc 433f 29d3 0d3e dfbd d4be 2e8a 173e
00000330: 78b1 733e 7421 273e d805 0abf 09a4 613f
00000340: 393f 693b 260d 023f c6bb 5a3e ba25 23bf
00000350: 4b95 80bf b9c0 1b3e a90f 0cbf ee28 48bc
00000360: c1d9 073f e449 c23e c98f 7f3e d476 2abf
00000370: dd8a d0be dab9 e13d 1f7e bf3d fcba 0cbe
00000380: 326d 15bf f5f2 eebe c6d0 89be 83d4 46bf
00000390: 0a03 183e c04b 59bf 9227 abbd c3ed abbd
000003a0: 59e6 173f 8fa5 bebe 1b19 00bf f67c 3bbe
000003b0: 628e 373e 06a0 0ebe 01d3 f5bd 7d12 223f
000003c0: b548 273e 2486 573e 8420 383e 5ec6 c1bc
000003d0: 4783 0e3e 7375 d1be b2d4 3b3e e4ef c43e
000003e0: 353a 513f 2021 ecbc 10d6 1fbc 189f 6ebe
000003f0: 41af 99bd 7118 e3bd a987 b33e 2a0f ddbc
0.048287462 -0.12273917 -0.66142577 0.04214328 0.26495332 0.5238765 0.32615656 0.5544909
0.22617361 -0.012222508 -0.322082 0.40436473 0.042488508 -0.12746626 1.1080004 -0.35268417
0.3756172 0.4827039 0.43431923 -0.24812666 0.5564619 -0.0073572416 0.37319666 -0.0014922252
0.29048282 -0.121226236 0.19219181 0.19595212 0.71842533 -0.3131542 0.9661825 0.19017956
0.15290238 -0.14221153 -0.48633185 0.10217907 -0.2396886 -0.15274848 0.4548567 -0.99177426
0.442576 0.54718804 -0.23566875 -0.6218345 -0.025168108 -0.55791086 -0.58089274 -0.27544868
0.14681827 0.6018654 -0.10963811 -0.44442743 0.22774649 0.28419745 0.6293328 0.6024681
-0.115240075 0.033958774 0.16580023 -0.16019131 0.1520724 -0.362548 -0.44351542 -0.09593126
0.6084696 0.16402242 0.26224208 -0.39393723 0.069875196 0.19070485 -0.1422086 -0.028535798
0.31898308 0.008793229 -0.33877224 -0.22011311 -0.12886943 0.08723012 -0.020176858 0.062079553
0.24124086 -0.24637909 -0.19671944 0.2917552 0.2816453 0.39552104 0.31744185 -0.55444723
-0.47095722 -0.25913388 0.48440927 0.32412526 -0.018146075 0.85274684 0.2294865 0.21234061
0.17912892 -0.3420117 0.023516431 -0.028214004 0.028022213 -0.42893964 0.081159726 0.48619983
0.36835378 -0.36171457 1.0995947 -0.28236544 0.26172686 -0.42845562 0.37173468 -0.4071861
-0.1266393 0.3643233 -0.18272783 -0.8175554 0.17898476 0.42938817 0.842001 -0.23567858
0.4269479 -0.41569906 -0.023693962 0.5467723 0.40599722 0.3034645 -0.042343143 -0.32610607
0.05475319 -0.94510823 -0.22355339 -0.24020864 0.48642406 -0.56026214 -0.36326933 0.097547196
-0.063925855 -0.32666215 -0.071587875 0.12243637 -0.008774362 -1.1444896 -0.280024 -0.40068123
0.16238162 0.25543737 0.029284412 -0.071579285 -0.24997589 -0.10618853 -0.046050463 -0.20586543
-0.09544269 -0.42871484 0.20302704 0.6449414 -0.10967926 0.39320618 0.5348576 -0.60388184
0.03590204 0.015218263 0.3733303 0.28915495 -0.11915487 0.79968655 0.32281324 -0.35187122
0.16559935 -0.36368403 -0.216197 0.3732092 -0.43788648 0.45850056 0.043407034 -0.46247274
-0.15947033 0.1274297 -0.4194489 0.43834606 0.24430335 -0.8506369 -0.3706073 0.34547472
-0.072219975 -0.031624086 0.30589798 0.5111769 -0.1774907 0.20687519 0.091245174 -0.5149634
-0.29918993 0.4833132 0.26702994 -0.18541567 -0.6433836 0.36636114 0.5595565 -0.19031419
0.7646014 0.13850082 -0.4155111 0.14798805 0.23798168 0.16321355 -0.53915167 0.8814092
0.0035590662 0.5080131 0.21360692 -0.6372944 -1.0045561 0.15210237 -0.54711396 -0.01221679
0.5306664 0.37947 0.24957193 -0.6658757 -0.40730944 0.110217765 0.093502276 -0.13743204
-0.58369744 -0.46669737 -0.26917094 -0.7766802 0.1484491 -0.8488121 -0.08357157 -0.08394959
0.5933586 -0.37235686 -0.5003831 -0.18309388 0.17925408 -0.13928232 -0.120031364 0.6330946
0.1633633 0.21047264 0.17981154 -0.02365416 0.13917266 -0.4090992 0.18342856 0.38464272
0.8172944 -0.028824389 -0.009755626 -0.23302877 -0.0750413 -0.11088646 0.35064438 -0.02698477

network_body._body_endoder.seq_layers.0.bias f4 [128]
00000000: 50b5 bbbd b1d4 48bc 6627 51be daa3 e4bb
00000010: 82fa a23c bd29 1d3c 7f9e 48bf e214 08be
00000020: 8356 8e3c 7768 a6b8 ac25 d9bd ae4b 05bd
00000030: 4968 ecbb 8134 22bd 7925 c1bc 51d2 0abc
00000040: a61d 8abc 8c8b d0bd 53b6 903c 8060 81bd
00000050: fb2b cdbb 282e 9bbe 706d 60bc 699b 80bd
00000060: 185e 0bbd 22cc 50bc c229 28bf a27a 873a
00000070: ad8d 8bbd cd00 0e3d d9c4 59be e1ef b8bb
00000080: d217 c2be 7a08 0c3d b36c 69bd 3c7b 29bd
00000090: 9bb5 18bc 8845 2dba 5294 78be febb 09be
000000a0: 54ba 30be 2495 273b 91b7 45be 9d11 b1bd
000000b0: 33c3 a3be b51f 1ebd e3d7 56be 6ead 5dbe
000000c0: 8a40 4fbe 51d5 e6be 4e54 11be 6f89 9ebc
000000d0: 9a7f 19bc 526f c9bd 9321 08be fc99 febd
000000e0: 3305 153c 49df e3bb e29d bdbc d09e e1bd
000000f0: e940 a1bc 0479 bcbe 006d de3b 7470 a5bd
00000100: 1a94 05bc 9f6f dcbe ccad 6fbe 052e ffbd
00000110: 1395 55be 189a 25bb b9cb 03bb b8af d43c
00000120: 30eb 73bd e0d2 78b6 afe6 18bd 47d3 f1bd
00000130: bd77 b0be d92d a93c ce8f ad3b 3a5b 223c
00000140: 5928 3d3c fcb7 43ba d9c9 b5be c29e 0fbd
00000150: 1502 0cbe 2d08 35bc 8d8f a9bd 6f28 c2bd
00000160: ac1d f03c 8a79 42bc 1eb6 35be 9014 2bbe
00000170: 340a a9bd daf8 86be 8de3 873c 7ff2 a33c
00000180: c2df 483c a53f 0bbe ceae 9dbe ba3a 8dbe
00000190: d8d8 34bd 1f1f d9be 0a51 eebd 735c 88bd
000001a0: b937 e339 5512 35bd cd07 1bbd 9d2d 6abe
000001b0: 7bf6 433b eadd 2fbe 81b1 50bd 644f 913b
000001c0: 1a17 10be 26fe c0bd 11f2 99be be9c b5bd
000001d0: 2d2e 82be 205f 67be 1fc5 07be 5a81 833c
000001e0: 67dd cabd df3d bbbb 38a2 f9bd ddd9 72b6
000001f0: 3f4f 32be b62e 4dbe d2ce 833b 1d04 a5be
-0.09165442 -0.012257741 -0.20425186 -0.0069775404 0.019894842 0.009592471 -0.78366846 -0.13289216
0.017375236 -7.934955e-05 -0.106028885 -0.032542877 -0.00721458 -0.039600853 -0.023577439 -0.008472995
-0.01685984 -0.101828665 0.017665064 -0.06317234 -0.0062613464 -0.30308652 -0.013697967 -0.06279642
-0.03402528 -0.012743982 -0.6568872 0.001033623 -0.06814132 0.034668732 -0.21266498 -0.00564383
-0.37908798 0.03418777 -0.05698843 -0.04137729 -0.009320642 -0.0006609787 -0.2427533 -0.1345062
-0.17258579 0.0025571072 -0.19308306 -0.086459376 -0.31984863 -0.038604457 -0.20980792 -0.2164819
-0.20239463 -0.45084623 -0.14192316 -0.019352643 -0.0093688015 -0.09835686 -0.13294058 -0.12431714
0.009095478 -0.006954108 -0.023146573 -0.11016619 -0.019684272 -0.36811078 0.006787896 -0.08078089
-0.008152986 -0.4305391 -0.23406142 -0.124599494 -0.20857649 -0.002526885 -0.0020110442 0.025962695
-0.059550464 -3.7077625e-06 -0.037329372 -0.11807876 -0.34466353 0.020651745 0.005296684 0.009909445
0.011545264 -0.00074660755 -0.3550556 -0.035063513 -0.13672669 -0.011049313 -0.08279333 -0.09480368
0.029311024 -0.0118697975 -0.17745253 -0.16707063 -0.08253899 -0.26361734 0.016587997 0.020013092
0.012260379 -0.13598497 -0.30797428 -0.27583867 -0.04415211 -0.42406556 -0.11636551 -0.06658258
0.0004333833 -0.044206936 -0.037849236 -0.22868963 0.0029901552 -0.17174497 -0.05095053 0.004434513
-0.14071313 -0.09423475 -0.30067495 -0.08867787 -0.25425854 -0.22594881 -0.1325879 0.01605289
-0.099055104 -0.0057141627 -0.12189144 -3.6187623e-06 -0.17413042 -0.2003735 0.0040224576 -0.322297

network_body._body_endoder.seq_layers.2.weight f4 [128, 128]
00000000: 7ce5 c13d 47b6 793d a057 063c 5396 87bd
00000010: 6be8 4dbd a78f 0d3e 3930 173d 6b5d 693e
00000020: 613f b33c e8db 223e f7af d5bd b728 84bd
00000030: 28a2 25bb 4fa7 e53a 3a4b febc 2ce2 963d
00000040: 7a34 d73d 9c85 003d 31bb 203d e25a 53bd
00000050: 099d f2bc f603 143e c3ed 61be 3332 74bd
00000060: 4740 a6bc 163c f33d f8fe 8abd 685c 11bd
00000070: a6c0 9fbd f4e8 f8bc 4494 2fbd 27ef 86bd
00000080: 1e66 423b 4a07 be3a c58a 973d 5a7b 6ebd
00000090: a18b 9d3d d3f1 143c 9d90 58bd 19bb 393d
000000a0: 934c 413d 7efa e6bd 6164 b8bd 3501 8dbd
000000b0: 0a96 503c 368a 99bd d869 6cb8 035a 893c
000000c0: 30ac 29bd 8091 5dbd a9da 6d3e 1ff3 103e
000000d0: 3b1e 603d f523 103d 7ae2 a2bd 400a 5bbe
000000e0: c572 58bd bf34 243e 3be7 be3b 75e5 4fbd
000000f0: 3a6a db3d acee 86bd 41dd 26bd ca48 303d
00000100: d793 29be 5e34 ae3b 70f9 b3bc 9b40 c73d
00000110: 2155 3fbe b1bb ce3d 3df5 f63c befc 8a3c
00000120: e90d eb3d e18b 3ebd d6dd 0a3e e8a8 4a3c
00000130: e3fe b83d 8ff4 4bbd 2c96 02bd b2c0 c6bd
00000140: 190b 04bd 8928 843c e486 54bd 8239 a2bd
00000150: 77e2 f43d 2890 133e e46b a3bb 2298 c83c
00000160: aa2e acbd b838 54bc e835 acbd aa0d 603d
00000170: c6ad 17be cea3 73bd 1f42 fd3d 41c3 82bd
00000180: f344 17bc be68 cd3d 20ad 133c 786c 463d
00000190: cab6 12bd bab1 3a3d 124a c53d c96e 093d
000001a0: b13b 403d 68ad c73d bda8 123d c2de fb3c
000001b0: 2ecd c0bc 235a 353d 0b0d 29bc c331 3d3d
000001c0: 4493 17be a595 063d 6ab8 563d e354 80bc
000001d0: e3db 63be dd4e dd3c 6062 a23d 4eda 2d3c
000001e0: d2a8 e13d b41e 553d ab39 813e 5e40 9fbb
000001f0: 317d 5abd 6230 15be 3402 4bbd 4f6b 2bbe
00000200: 8857 63bd f4b7 88bd 5647 cdbc 2abd 1d3e
00000210: fbb8 aa3d 92c6 8cbd 7dc6 f73c dd16 07bd
00000220: fc44 48bd 10c6 f0bd a728 863d 008e 383d
00000230: b360 f9bd bf2b 96bc 8557 5cbd 5d80 1ebc
00000240: 4513 313e d7aa 2e3d 24d3 1ebe e495 4abe
00000250: df1d 1d3d df66 d6bc aea8 c13d f51f 00be
00000260: 3e5d e5bd 769b 42ba c83f 83bd 845a 5bbd
00000270: 45cc 97bd 3ae2 903d e2d9 a0bc 1c9d e23b
00000280: 37d1 81bd 18ac 253c 40d2 243d c013 843c
00000290: ac4f 82bd 7447 8a3d fa62 233c 43d2 bcbc
000002a0: 9612 bebd 1d1b 5cbc a723 a03d bf06 83bd
000002b0: e7d0 873c 47e5 60bd 06d1 5cbd 0e9f 223d
000002c0: 9429 7ebc 4db9 04be b3eb 993d 1660 5f3d
000002d0: 83f1 dbbd 8105 ee3b 8d2d 803d de8b 97bd
000002e0: d6e1 963d 8500 85bd 088f 43bd 5cd9 0a3d
000002f0: c9be 86bc 8448 463d b0cd cb3d 6703 80bd
00000300: 1ea7 bf3d 4283 1cbe 8c8a 8ebb 6e73 9ebc
00000310: ccec e93d 6df4 a0bd 3006 a0bd 6b07 b63d
00000320: ff86 08bc 1110 193d 257a fbbd b9d9 5a3d
00000330: 1cd0 a3bd 2fa3 d7bd 74c7 c0bd eded 7dbd
00000340: e14f 033e 3af7 0c3d 191e 37be 9898 953d
00000350: 50ac 553d d424 c8bc ca5e 8cbd f15c 5a3d
00000360: 3a49 1dbe a681 4d3c d71c 6fbe f720 243d
00000370: 2c2c 6fbd 063a 4e3d d740 ec3c a774 853e
00000380: 0cea 0f3e 3cce a1bd 71d7 10bd 79a1 98bd
00000390: 70a2 023e cc1d 913d a28c 3abd 472e 19be
000003a0: cb6b 0dbe ab46 433d 4229 0fbe 9367 a8bc
000003b0: 9d43 39be ce11 dc3d 3971 90bd f0d1 4abd
000003c0: 3c6d 133e 41c7 00bd bcc5 543d 59a4 c6bb
000003d0: baaa 67bd 44f1 8cbc e260 eebd 0adc 09bd
000003e0: 0dfd 01be 67eb b8bd b214 d4bc 319a ebba
000003f0: c547 4e3e db8a 1cbe bc34 bebd 13d7 833d
0.09467599 0.06096485 0.008199602 -0.06620469 -0.05027048 0.1382433 0.036911223 0.22789542
0.021880807 0.159042 -0.10433953 -0.06453078 -0.0025273655 0.0017521175 -0.03104173 0.073673576
0.10508056 0.03137742 0.03924102 -0.051600344 -0.029615896 0.14454636 -0.22063355 -0.059618186
-0.020294322 0.11876695 -0.06786913 -0.035488516 -0.07800417 -0.030384518 -0.042866006 -0.065885834
0.0029662917 0.0014498022 0.07399515 -0.058223106 0.07692648 0.0090908585 -0.05287229 0.045344446
0.047192167 -0.11278246 -0.09003521 -0.06884996 0.012731085 -0.07497065 -5.636536e-05 0.016766554
-0.041423976 -0.054093838 0.23227943 0.14155243 0.05471633 0.03519054 -0.07953353 -0.21390629
-0.052843828 0.16035746 0.0058259047 -0.050755937 0.107136205 -0.06588492 -0.040738348 0.043038167
-0.16560303 0.0053163012 -0.021969527 0.097291194 -0.18684818 0.10094393 0.030146236 0.01696622
0.114772625 -0.046520118 0.13561186 0.012369372 0.09032991 -0.049793776 -0.031881496 -0.097047225
-0.032237146 0.01613261 -0.051886454 -0.07921125 0.11957257 0.1441046 -0.004987227 0.024486605
-0.08407338 -0.012952976 -0.08408719 0.05470053 -0.14812383 -0.05948239 0.12366127 -0.06384898
-0.009232747 0.100297436 0.009013444 0.048443288 -0.035818852 0.04557965 0.096332684 0.03355292
0.046931926 0.097498715 0.035805453 0.030745868 -0.023535337 0.044275414 -0.010318051 0.046190035
-0.14802271 0.032857556 0.052421965 -0.015665477 -0.22251849 0.027015144 0.0792892 0.01061113
0.11018528 0.052031234 0.2523931 -0.004859968 -0.053342048 -0.14569238 -0.049562648 -0.16740154
-0.0555034 -0.06675711 -0.02505843 0.15404192 0.083360635 -0.06873812 0.030246014 -0.03298079
-0.048893914 -0.117565274 0.065507226 0.045057297 -0.12176647 -0.018331407 -0.053794403 -0.009674159
0.17292507 0.042643394 -0.15510231 -0.19783741 0.038358565 -0.0261721 0.09456001 -0.1251219
-0.11199425 -0.0007423678 -0.0640865 -0.05355312 -0.07412008 0.07074399 -0.019635145 0.0069157016
-0.06338733 0.010111831 0.040239573 0.016122699 -0.063628525 0.0675191 0.009972328 -0.02304948
-0.09280889 -0.013434199 0.078193 -0.06397771 0.016579105 -0.054906156 -0.053910278 0.039702468
-0.015512843 -0.12961312 0.07515659 0.054534994 -0.10739424 0.0072638397 0.06258688 -0.073997244
0.073672935 -0.0649424 -0.047743827 0.033898696 -0.016448395 0.048409 0.09951341 -0.06250649
0.09358047 -0.15284446 -0.004350012 -0.01934215 0.114221185 -0.078591205 -0.0781368 0.088881336
-0.008332967 0.037368838 -0.122791566 0.053430293 -0.07998678 -0.10529172 -0.09413043 -0.06199448
0.1282344 0.03441546 -0.17882575 0.073044956 0.052166283 -0.024431624 -0.06854017 0.053311292
-0.15359965 0.012543118 -0.23350845 0.0400705 -0.058391735 0.050348304 0.028839512 0.2606556
0.14054126 -0.07900664 -0.03536171 -0.074526735 0.12757277 0.070857614 -0.045544274 -0.1495906
-0.13810651 0.047674816 -0.13980582 -0.0205572 -0.18092199 0.107455835 -0.070528455 -0.04951662
0.14397138 -0.031440023 0.051946387 -0.0060620722 -0.056559302 -0.017204888 -0.11639573 -0.03365711
-0.12694187 -0.090292744 -0.025888775 -0.001797503 0.20144565 -0.15287344 -0.09287402 0.064375065

network_body._body_endoder.seq_layers.2.bias f4 [128]
00000000: 81cb 2ebd f0f6 69bc 2ccf 62bb 1145 8ebc
00000010: a29f 2dbd f0e5 19bc 6c1c 5dbd 5e5e c7bc
00000020: 0053 03bd 35dd 63bc ca9d 6cbd 499d 07bd
00000030: 2e65 d8bc 1796 2cbd 9f07 37bd d474 7abd
00000040: 1645 5ebc c157 13bd c215 c8bb 789a 773b
00000050: 1004 2fbd 76d1 9bbd 7a06 e1bc acce debc
00000060: ceb7 77bc 8fff c2bc bfcd 74bd e53f 0cbd
00000070: 0027 17bd 814a 3b3c 2519 49bc 9813 8bbc
00000080: 7199 a8bc 30bb 22bd c779 a8bc 4a19 97bc
00000090: 0f90 b3bc 75cb 82bc 41e9 5bbd ed81 1fbd
000000a0: bd19 1cbd fb04 80bd cbc0 12bd d531 0dbd
000000b0: 7634 62bc 2ad7 aabc 9be0 59bc 060f 4dbc
000000c0: f7df 17bd 08da cfbc 21fd febc 8ce7 8abb
000000d0: 5799 c1bc 815b 21bd 7c36 eebc 70c5 5fbc
000000e0: 6713 47bc 38d4 5fbd 76e4 08bd 8459 aa3a
000000f0: c603 97bd f071 bebc 40c7 3bbd f698 17bc
00000100: 01ec b8bc 48b2 60bc 0c48 08bd 3dcb 9cbc
00000110: f7ce 71bc 6357 b3bb 74fa 0abd 22fd fbbc
00000120: 5880 d2bc ccce abbd be53 bfbc d0f9 acbc
00000130: 2595 23bd 56cf afbc a91e b0b9 a9ee b3bc
00000140: 42c6 f5bc 0b58 a4bc 49c5 d4bc 9a04 84bc
00000150: 06e0 74bc 3788 1cbd ccb1 bbbc 0792 c6bc
00000160: 47de 30b9 8551 10bd 7577 5abc d6f9 a0bd
00000170: 95fe 1fbd 7a9a 91bc 011b c3bc 4641 fabc
00000180: 96b0 0ebd 620c d9bc 1dc4 17ba 7d30 81bd
00000190: d313 d9bc dac2 a7bc 5f92 10bd 4124 d1bb
000001a0: 0ba9 3bbd a01a 85bc fa4c 18bd 0c29 07bd
000001b0: c5f8 23bc 36c1 aabc 7a19 15bb 2bfc 7bbb
000001c0: 0406 00bd 62f7 c1bc 5ade 563b 139c 38bd
000001d0: 5044 28bd 72a1 f6bc fd37 adbc 346a 08bd
000001e0: cf9a f2bc 69d1 e0bc 235b 8fbc 6ebb f9bb
000001f0: cf2b c3bb 9e97 06bd 9a0d 5d3b 3aa8 5bbd
-0.042674545 -0.014280066 -0.0034608347 -0.017366918 -0.042388566 -0.0093932 -0.053982183 -0.02433699
-0.032061577 -0.01390772 -0.057767667 -0.033108983 -0.026415434 -0.042135324 -0.044685002 -0.061146572
-0.013566276 -0.03597236 -0.0061061094 0.003778128 -0.042728484 -0.07608311 -0.027468909 -0.027198158
-0.015119506 -0.0238035 -0.059766527 -0.034240622 -0.036902428 0.011431337 -0.012274061 -0.016977116
-0.020580979 -0.039729297 -0.02056588 -0.018444676 -0.021919278 -0.015966156 -0.053689245 -0.038942266
-0.038110483 -0.0625095 -0.035828393 -0.03447135 -0.013806453 -0.020854551 -0.013298179 -0.012515789
-0.037078824 -0.02537252 -0.03112656 -0.0042390283 -0.023632688 -0.039393906 -0.029078715 -0.013657913
-0.012150622 -0.054645747 -0.033421002 0.0012996648 -0.073737666 -0.023247689 -0.045844316 -0.009252777
-0.022573473 -0.013714381 -0.033271834 -0.01913988 -0.014758817 -0.005473064 -0.033930257 -0.030760352
-0.025695965 -0.08389053 -0.023355361 -0.021115214 -0.039937157 -0.02146117 -0.0003359218 -0.021964388
-0.030001763 -0.020061513 -0.02597298 -0.016115475 -0.0149459895 -0.038215842 -0.022911929 -0.024239553
-0.00016867473 -0.035233993 -0.013334145 -0.078601524 -0.039061148 -0.017773855 -0.023816587 -0.030548703
-0.034836374 -0.026495162 -0.0005789416 -0.063080765 -0.02649871 -0.020478655 -0.03529584 -0.0063824956
-0.04581551 -0.016248047 -0.037182786 -0.03299813 -0.010008042 -0.020844083 -0.002275078 -0.0038449864
-0.031255737 -0.023677532 0.003278634 -0.04507072 -0.041080773 -0.03010628 -0.021144861 -0.03330441
-0.029614834 -0.027443605 -0.017499512 -0.0076212203 -0.00595615 -0.032859437 0.003373003 -0.05362723

action_model._continuous_distribution.log_sigma f4 [1, 4]
00000000: 1bf1 66bf 5b86 6cbf e91a 8dbf 7a20 b0bf
-0.9021165 -0.9239251 -1.1023837 -1.3759911

action_model._continuous_distribution.mu.weight f4 [4, 128]
00000000: 5300 653c ff9e 3b3a a006 de3c 3f8c 3db8
00000010: 7e02 8a3c 1970 2a3c 7c31 343b 6a87 53bb
00000020: 33f2 a93c 15ae 303c 60b8 96bc 91f9 c13b
00000030: 0472 53bc b424 a73a 928e 923c 586b bebc
00000040: d27e 273c d4e9 b9bb 6022 133c fc23 b83c
00000050: 595b 2bbc 9ff5 e5bb ff16 413b 904f 263d
00000060: f086 f93c 1e06 833b ca6a 663d 57a5 dd3c
00000070: 6ec0 bcbb 82ff e23d c916 813d ab14 3c3c
00000080: 3665 f9bb 86d4 99ba e8d5 e23b 7378 7b3c
00000090: 9acd d8bb b7f5 6d3c a7ad d43c 6aeb 283c
000000a0: 4b8f 7e3b 689f 1abc f066 98bb afe7 373c
000000b0: d653 b13c 3717 1c3a 8130 fb3b 0970 07bb
000000c0: 5a81 313d a556 9d3b 9acd de3b 4e59 ce3c
000000d0: 24f3 e9ba e72b 8f3c 763c 4d3c 2ec1 12bc
000000e0: ed69 8a3c 1ef6 383c 180f e0b9 2e60 123d
000000f0: 636b af3b aa5c ab3b c12f 2f3c 60ac a83c
00000100: 57f3 2e3c f5ca 943d 77cc a93a 2c5c 13bc
00000110: 7865 b7bb d0e0 953a 288f a23b 8c9f a73c
00000120: 8c3f 8f3b b7dd 52bd bb1d 9e3b e663 cf3b
00000130: 001a 023d 9287 e83b af35 b73c 9172 54bc
00000140: cfcd 78bb face 373c 99b9 1ebb f532 763a
00000150: 922a 7d3b 4bfe 7a3b ac05 55bc 9c7f 083c
00000160: a306 173b faaf 943b 7abf b73c 0e5a 85bc
00000170: 11ed 263b c6ac 143c 7742 5fbb d762 1e3c
00000180: 66a6 a83a cebb 953c b375 cc3c e480 a13c
00000190: b9f7 703b 64d6 1d3c bfa1 d3bb 4c9a 25bc
000001a0: 849d 16bb edee f83b 85d9 003d 2beb 8b3c
000001b0: 39dd db3b 1f8b dd3b b444 0bbd a7ce 07bc
000001c0: a868 44bb 46ad d93b a9db a33c 99b3 ad3b
000001d0: d130 183c 9ea0 083c 745a 81bc fad8 143c
000001e0: 98f7 313a b833 f239 2737 b0ba a5a1 69bb
000001f0: 17f8 0c3d cda9 a53b b334 a3bb 2033 613b
00000200: 11d2 fe3c aefe 36bc bb16 5f3b 647a 0fbb
00000210: cba0 a2bc f598 12bd dbf6 5abb 005f 353b
00000220: 2fad 1d3c b4b3 7a3c 3643 31bd 313b 05bb
00000230: f8bf 37bc 97f0 23bc 4271 91bc 6939 933b
00000240: dc6a 16bc 4c8f ddbc 64d7 3d3c ca49 09bd
00000250: c6e3 89bc 29fb 703b 8b4f 44bb 944c 2d3c
00000260: 574d 3539 06ba 063c 2b96 e2bc 7645 62bc
00000270: c420 32bd 5cb0 b1bd 2a48 bbbc 473f 91bc
00000280: 74f7 893b e56a 73bb a90c 3fbc c5ec b0bc
00000290: 5d33 18bc 041d 70bb 5d5f f4bc 1bc2 4cbb
000002a0: 7629 13bb 8580 5cbb 5d55 8bbb 2cf5 30bc
000002b0: 8ddc 5d3c 9be8 243b 090f 22bc d260 eb3b
000002c0: 0fef 96bc 77b4 0abc 8363 06bc f60b cbbc
000002d0: 1b55 65bc 65e8 123c 815c d937 1624 94bc
000002e0: 4e3b 36bc 034f 1bbc b28c 973c 4a9c b83b
000002f0: 7987 f0bc 88dd 75bb 49a7 8f3a ad7c 31bc
00000300: c731 42bc ed17 8fbd e936 163c a3b0 133a
00000310: 6912 0bbb 68b9 893b 224a 3e3b 1da8 98bc
00000320: 29cd cdbb 52f1 21bd 852b 2cbc 8a3f 2bbc
00000330: 2f8e bbbc 5865 723b d62a 16bb 7422 233c
00000340: 30ef 94bb c98a b63b bec8 49bc 683b 2dba
00000350: 9ef3 573b c037 7c3d a927 1fbd 1a75 f1bb
00000360: 0b58 f0bc 4b96 b23b b3a4 1fbc e6ca 56bc
00000370: ea92 b5ba 8e98 5cbb 4339 653c 95fe debb
00000380: 926d 963a 5ebc 87bc 038d 053c 7e01 9fb9
00000390: b84c 103b f110 11bc 52c5 41bc d296 cabb
000003a0: 2b86 97bc d2ad 443a 0964 3a3b c333 62bc
000003b0: d52e a13b bfcc 8c3b fb47 7c3a 9d85 dabb
000003c0: 9890 8ebb b8a3 60bc 5ca0 d5bc 7209 98bc
000003d0: 6150 abba 167f 31bb 6581 0bbc 306d c03a
000003e0: 38fa 1bbd 2c80 b23c 9014 4d3c e599 d739
000003f0: bc9f a03c 5f58 333a 6ba2 fcbc f345 4ebc
0.013977128 0.0007157176 0.027102768 -4.5191726e-05 0.016846891 0.010402703 0.0027495315 -0.0032276758
0.020745372 0.010783692 -0.018398464 0.005919643 -0.012905601 0.0012752027 0.017890248 -0.023244545
0.010223107 -0.0056736264 0.008980364 0.022478096 -0.010458791 -0.0070178057 0.002946317 0.04060322
0.030459851 0.003998532 0.056254186 0.02705638 -0.005760244 0.110838905 0.06303174 0.011479537
-0.0076109422 -0.001173631 0.0069224723 0.015348542 -0.0066163065 0.014523915 0.02596171 0.010310033
0.0038842733 -0.0094374195 -0.004650943 0.011224671 0.021646421 0.0005954387 0.007665694 -0.0020666143
0.04333625 0.0048015886 0.006799412 0.025189068 -0.0017848951 0.017476989 0.012526622 -0.00895719
0.016896212 0.011289148 -0.00042735855 0.035736255 0.0053533777 0.0052295523 0.010692538 0.020590007
0.010678134 0.072652735 0.0012954612 -0.008994143 -0.005596813 0.0011434797 0.004960913 0.02046182
0.004371589 -0.051480975 0.0048253215 0.0063290475 0.031763077 0.0070962394 0.022364466 -0.012966768
-0.0037964468 0.011218781 -0.0024219512 0.00093917485 0.003863011 0.0038298543 -0.013001841 0.008331206
0.0023044727 0.0045375796 0.02243017 -0.016278293 0.0025470892 0.0090743955 -0.0034066716 0.00966712
0.0012866973 0.018278029 0.024958467 0.01971478 0.0036768748 0.009633634 -0.0064584906 -0.010107588
-0.002298207 0.0075968415 0.031457443 0.01707991 0.0067097214 0.0067609693 -0.034001067 -0.008289016
-0.0029969607 0.0066429703 0.020002203 0.0053009507 0.0092889825 0.008339075 -0.015790202 0.009084934
0.00067889085 0.0004619637 -0.0013444171 -0.0035649326 0.034416284 0.005055642 -0.0049806475 0.0034362748
0.031106027 -0.011169119 0.0034040648 -0.002189302 -0.019852063 -0.035790402 -0.0033411297 0.0027675033
0.00962381 0.015301634 -0.043276988 -0.002032947 -0.0112152025 -0.010006092 -0.0177542 0.004492928
-0.009180751 -0.027045868 0.011586998 -0.033517636 -0.016832244 0.0036770797 -0.0029954638 0.01057734
0.00017290316 0.008223062 -0.027659496 -0.013810506 -0.04348828 -0.08676216 -0.022861559 -0.017730368
0.004210407 -0.0037142572 -0.011660733 -0.021597276 -0.00928959 -0.0036638388 -0.029830629 -0.0031243626
-0.0022455133 -0.003364594 -0.0042521195 -0.010800641 0.013541353 0.0025163058 -0.00989128 0.0071831727
-0.018424539 -0.008465878 -0.008202436 -0.024785977 -0.0139973415 0.00896654 2.5911491e-05 -0.018083613
-0.011122538 -0.009479287 0.018499706 0.0056338655 -0.029361473 -0.0037516076 0.0010959889 -0.010832948
-0.011852688 -0.06986985 0.009168365 0.0005633926 -0.002122069 0.0042030104 0.0029035886 -0.01863485
-0.0062805605 -0.03953678 -0.010508423 -0.010452161 -0.022894947 0.0036986675 -0.0022913716 0.009956945
-0.004545115 0.0055707437 -0.012315927 -0.00066082785 0.0032951604 0.061576605 -0.038856182 -0.007368696
-0.029338857 0.005450045 -0.009743857 -0.013109898 -0.0013852988 -0.0033660266 0.013990703 -0.006805251
0.0011476746 -0.016569313 0.008151296 -0.00030327955 0.0022018384 -0.008854137 -0.01182683 -0.00618253
-0.018496593 0.0007502708 0.0028440973 -0.013806286 0.004918913 0.0042968686 0.0009623763 -0.00666876
-0.004350733 -0.013710909 -0.026077442 -0.018559191 -0.001307022 -0.0027083806 -0.008514737 0.0014680978
-0.038080424 0.021789633 0.0125171095 0.00041122656 0.019607417 0.00068414764 -0.030839166 -0.012589919

action_model._continuous_distribution.mu.bias f4 [4]
00000000: dcb3 2b3e eb4d 1bbe 1828 d93d fc54 09bd
0.1676783 -0.15166442 0.106033504 -0.033528313

exp_avg f4 [128, 6]
00000000: 6832 0e3b 0000 0000 38b0 a938 a78e 00ba
00000010: 96d4 2d2e c883 7738 f444 fc9d 0000 0000
00000020: 5285 969b 12fe e31c 2075 1991 0371 559b
00000030: e0ce 3f2c 0000 0000 2ce4 e429 28dc 20ab
00000040: 1c32 341f 8060 caa8 4225 1a15 0000 0000
00000050: 76f2 b712 ea77 0b94 d96f 3c08 2d2d 8612
00000060: 02d7 57a8 0000 0000 d6c8 00a6 4f25 4327
00000070: 8ced 839b bada bba5 0400 0080 0000 0000
00000080: 0400 0080 0400 0000 0400 0000 0400 0000
00000090: 74ea a03a 0000 0000 ba06 4038 c488 91b9
000000a0: a7b6 c42d e519 0c38 6bf4 32bd 0000 0000
000000b0: 7f8d d5ba 1deb 213c e4c3 5ab0 5ac7 9bba
000000c0: 0a76 0228 0000 0000 00af 9b25 9dee eaa6
000000d0: a733 1d1b a9cb 4c25 77f0 3106 0000 0000
000000e0: 4957 d403 05e2 2085 b201 0000 e1e4 9a03
000000f0: f3aa 60ae 0000 0000 450d 06ac f0be 4a2d
00000100: 9252 89a1 d4b0 c3ab 9809 5d2a 0000 0000
00000110: c0e2 0328 24da 47a9 d91a 871d fd61 c027
00000120: eaf8 5c1e 0000 0000 cfd8 031c cfdc 479d
00000130: 5b10 8711 fa61 c01b 4ac9 d6b9 0000 0000
00000140: e827 80b7 204e c238 2749 03ad f400 3bb7
00000150: a477 a116 0000 0000 37af 4014 a243 9295
00000160: 3463 c509 9b7a 0c14 10cd a81f 0000 0000
00000170: a06f 491d a052 ac9e 605a ce12 10e0 191d
00000180: 6578 9c2e 0000 0000 a8b8 3a2c fc73 8dad
00000190: 6247 bf21 3735 082c 7d4f 7dae 0000 0000
000001a0: 5424 17ac e01e 652d c0d4 9aa1 4f92 dcab
000001b0: 34cb 759b 0000 0000 31a8 1299 2639 581a
000001c0: d4d5 898e 0278 3a98 652a 2e3d 0000 0000
000001d0: 74d6 cf3a d580 1dbc 20e9 5430 c09a 973a
000001e0: c2c4 1c22 0000 0000 cc13 bb1f a896 0da1
000001f0: b0a4 3f15 fe5e 881f cafe 85ae 0000 0000
00000200: afe6 1fac df5b 722d bacd a3a1 3a8f e9ab
00000210: b1e5 c315 0000 0000 55c5 6913 ef48 b194
00000220: 117a ef08 f481 2a13 949f b82e 0000 0000
00000230: 3651 5c2c cc06 a7ad deb1 e121 21d9 202c
00000240: 837d 762e 0000 0000 9612 132c eef5 5ead
00000250: 94a9 9621 4491 d62b 3208 0139 0000 0000
00000260: 71fa 9936 3e78 e9b7 b1be 1d2c 0ab9 6036
00000270: 84aa 1bb8 0000 0000 f6c2 b9b5 f1ed 0c37
00000280: d94b 3eab ec98 87b5 8b54 632e 0000 0000
00000290: f1a3 072c 1fa4 4dad 7ff3 8a21 6ac9 c52b
000002a0: f811 29b6 0000 0000 dac1 c9b3 dec7 1835
000002b0: 6aab 4ea9 a01b 93b3 a6b3 c63b 0000 0000
000002c0: 1a1e 6d39 32c1 b3ba c7e7 f22e 39f1 2c39
000002d0: 3c39 f3ae 0000 0000 9b1f 91ac ba27 dd2d
000002e0: 6daa 14a2 43d6 53ac fb3b 16a9 0000 0000
000002f0: 9e47 b3a6 8add 0728 d8a7 379c 06c1 82a6
00000300: c726 b0bb 0000 0000 1e35 52b9 13cb 9e3a
00000310: 9e56 d7ae 6d77 19b9 748e b90a 0000 0000
00000320: 486e 5d08 6b1d a889 588b 0300 eb7f 2108
00000330: b416 e63a 0000 0000 4a49 8938 a22a d0b9
00000340: 2aa3 0c2e 102e 4838 6697 bc2e 0000 0000
00000350: 6a0d 612c 3a33 a9ad aa8b e621 c2ee 232c
00000360: b306 0080 0000 0000 3f00 0080 f100 0000
00000370: 0400 0000 3e01 0000 2863 a32f 0000 0000
00000380: c4f9 422d a2c6 93ae 12bc c722 c540 0e2d
00000390: ce6e 96af 0000 0000 4084 33ad 39f3 872e
000003a0: f6e5 b7a2 d1fe 02ad ca95 193d 0000 0000
000003b0: 4247 b73a 85e4 0abc 78c0 3b30 64b0 853a
000003c0: 10b4 aeae 0000 0000 bb7a 50ac 4ffd 9d2d
000003d0: 6b91 d5a1 7316 18ac 7a90 47ab 0000 0000
000003e0: 9825 eea8 046b 342a a6f5 739e 38bb ada8
000003f0: 32ef a33b 0000 0000 e1a0 4339 7a44 94ba
0.0021697525 0.0 8.091371e-05 -0.00049040694 3.952446e-11 5.901212e-05 -6.677514e-21 0.0
-2.4901575e-22 1.5087276e-21 -1.2105664e-28 -1.7655463e-22 2.7257571e-12 0.0 1.01648155e-13 -5.7148947e-13
3.8157932e-20 -2.2468355e-14 3.1129444e-26 0.0 1.1608695e-27 -7.0413555e-27 5.670567e-34 8.467726e-28
-1.198152e-14 0.0 -4.4681104e-16 2.7081911e-15 -2.1825643e-22 -3.2587544e-16 -6e-45 0.0
-6e-45 6e-45 6e-45 6e-45 0.0012276904 0.0 4.578263e-05 -0.00027758454
2.2363734e-11 3.3402717e-05 -0.043690126 0.0 -0.001629278 0.0098827155 -7.9586315e-10 -0.0011884973
7.242045e-15 0.0 2.7006798e-16 -1.6301688e-15 1.3003425e-22 1.7763182e-16 3.3466666e-35 0.0
1.248028e-36 -7.564677e-36 6.08e-43 9.1038545e-37 -5.1083537e-11 0.0 -1.9049911e-12 1.1524767e-11
-9.305337e-19 -1.3904663e-12 1.9632072e-13 0.0 7.321129e-15 -4.4376083e-14 3.5761962e-21 5.3396944e-15
1.1698177e-20 0.0 4.3624483e-22 -2.6451586e-21 2.1309324e-28 3.1827051e-22 -0.00040967233 0.0
-1.5277372e-05 9.265193e-05 -7.462731e-12 -1.11462905e-05 2.6086457e-25 0.0 9.728078e-27 -5.9075636e-26
4.7519315e-33 7.092373e-27 7.1490015e-20 0.0 2.6659837e-21 -1.8245381e-20 1.3022707e-27 2.036522e-21
7.115445e-11 0.0 2.6534695e-12 -1.6081352e-11 1.2961558e-18 1.9356303e-12 -5.759614e-11 0.0
-2.1478557e-12 1.30239985e-11 -1.049176e-18 -1.5672549e-12 -2.0331583e-22 0.0 -7.581989e-24 4.4713917e-23
-3.3979016e-30 -2.4100525e-24 0.0425209 0.0 0.0015856759 -0.0096132355 7.745644e-10 0.0011566505
2.1246105e-18 0.0 7.923033e-20 -4.797205e-19 3.8702058e-26 5.775539e-20 -6.0933994e-11 0.0
-2.2723314e-12 1.3776507e-11 -1.1099765e-18 -1.6595399e-12 7.912226e-26 0.0 2.9506027e-27 -1.79012e-26
1.4412987e-33 2.1521088e-27 8.395698e-11 0.0 3.1308961e-12 -1.898872e-11 1.5293674e-18 2.2857898e-12
5.60454e-11 0.0 2.0900274e-12 -1.2673846e-11 1.0209282e-18 1.5245934e-12 0.00012305452 0.0
4.5889105e-06 -2.7831757e-05 2.2416897e-12 3.3486308e-06 -3.7113685e-05 0.0 -1.3840315e-06 8.40005e-06
-6.760682e-13 -1.010279e-06 5.1688914e-11 0.0 1.927566e-12 -1.1689343e-11 9.415697e-19 1.4053596e-12
-2.5193422e-06 0.0 -9.395053e-08 5.691526e-07 -4.5889867e-14 -6.850246e-08 0.006063896 0.0
0.00022613295 -0.0013714193 1.1046058e-10 0.0001649306 -1.10605275e-10 0.0 -4.1246568e-12 2.5142433e-11
-2.0147963e-18 -3.0103843e-12 -3.3358716e-14 0.0 -1.2440032e-15 7.542044e-15 -6.0766554e-22 -9.072881e-16
-0.0053757164 0.0 -0.00020046948 0.0012114964 -9.7924543e-11 -0.00014635707 1.7868437e-32 0.0
6.6634403e-34 -4.0472193e-33 3.25494e-40 4.859954e-34 0.0017554373 0.0 6.54632e-05 -0.00039704615
3.1977233e-11 4.7726615e-05 8.576144e-11 0.0 3.198187e-12 -1.9235825e-11 1.5622375e-18 2.329623e-12
-2.403e-42 0.0 -8.8e-44 3.38e-43 6e-45 4.46e-43 2.9719982e-10 0.0
1.1083082e-11 -6.72007e-11 5.4138185e-18 8.086147e-12 -2.7363573e-10 0.0 -1.0204337e-11 6.182294e-11
-4.984573e-18 -7.446225e-12 0.037496366 0.0 0.0013983028 -0.008477335 6.830372e-10 0.0010199663
-7.9445894e-11 0.0 -2.9626707e-12 1.7961325e-11 -1.4471933e-18 -2.161296e-12 -7.0899504e-13 0.0
-2.6439612e-14 1.602434e-13 -1.2915112e-20 -1.9288052e-14 0.0050028795 0.0 0.00018656581 -0.0011311912

exp_avg_sq f4 [128, 6]
00000000: c676 0f3b 0000 0000 9e4c 4c36 356a ce38
00000010: f60f 4e21 3244 ba37 4f31 1b1c 0000 0000
00000020: e2cf e41e fd2a c41b d4f1 0204 2582 401b
00000030: 4c08 a830 0000 0000 0949 ef2b fa87 f32d
00000040: 4c65 4816 6f5f 282e feea 561b 0000 0000
00000050: 9e7f 241e b4f2 fd1a bf4a 4003 d271 9b1a
00000060: 5c74 ba1c 0000 0000 7470 9a1f b4f1 4f1c
00000070: eb57 a504 5e04 171c 2c15 5e1c 0000 0000
00000080: 64ba 541f 1988 b51b 64a5 2904 7a78 f81b
00000090: 9a92 ec39 0000 0000 0372 2835 2e98 b337
000000a0: 48e3 2c20 ed94 4d36 15a5 a23e 0000 0000
000000b0: 1d9d e739 f34e 863c 97c0 f224 450c 8839
000000c0: 72bf 1720 0000 0000 cf18 581b b0b0 4a1d
000000d0: 5241 1004 8dfc a11d 1e05 6307 0000 0000
000000e0: 86a0 b604 c755 5107 f401 0000 e74e 5004
000000f0: 608a 3523 0000 0000 9943 811e 382f 8e20
00000100: 6476 ba08 d556 aa20 c893 241b 0000 0000
00000110: d1cb b91d 68c1 fd1a 1179 4303 7108 b619
00000120: 62c7 1810 0000 0000 2e37 740d d4fe 770f
00000130: f401 0000 7746 ad0f 662d 3b3b 0000 0000
00000140: 4d46 8536 29b6 c038 fcea 7121 2b00 8638
00000150: fc39 a51a 0000 0000 9cd5 4c1d e4f5 851a
00000160: 4926 bf02 be4b 3619 86f8 ef1b 0000 0000
00000170: cfbb 8f1e df62 7e1b a486 ec03 b7e4 3b1b
00000180: dfb9 4821 0000 0000 df14 951c 4540 261f
00000190: b3fd 9507 89b2 1a1c 0336 fe20 0000 0000
000001a0: eabe 051f 9e74 d51e 796d 4007 93a2 191c
000001b0: f798 201c 0000 0000 a3d0 0e1f ff89 9b1b
000001c0: 3b46 ec03 3671 991b e113 8c3e 0000 0000
000001d0: 147a c739 e554 673c 2209 d124 51b0 6a39
000001e0: aa20 5f1d 0000 0000 5143 8d1d b088 481d
000001f0: 9d66 fa05 edb3 311b 1bea 3021 0000 0000
00000200: 86ef 7b1c 851d d81e fa7c 1707 ded5 221e
00000210: a1b8 c211 0000 0000 21a4 1b0f cc9b b311
00000220: 3a08 0000 0e0e b40e 6585 5021 0000 0000
00000230: bc78 941c ea54 2b1f c2e7 9907 3749 591c
00000240: 433e 0c21 0000 0000 545b 5d1c 9839 e81e
00000250: ee8f 5107 e35a d71b 6fe3 b83b 0000 0000
00000260: 19a5 0337 cce5 6139 5220 fd21 1eb8 d338
00000270: 24da 6c34 0000 0000 e9a4 a82f acad f131
00000280: de29 2f1a 141c a331 659a 2a21 0000 0000
00000290: 6170 7d1c d644 121f 0dd5 8507 b754 141c
000002a0: 5f77 1f36 0000 0000 3916 6331 a934 af33
000002b0: e374 2d1c c285 5933 5358 2c3c 0000 0000
000002c0: 466d 7537 e357 023a e7db 7b22 b808 9d38
000002d0: 4e9f cf22 0000 0000 59f2 131e 541d ac20
000002e0: b250 1b09 e57a a01d 8099 6e1a 0000 0000
000002f0: f245 c717 ff7a 591a b60e 1203 475d 5417
00000300: bafe 1e3b 0000 0000 8b6a 6236 9449 0339
00000310: 42fa 6c21 9ec0 0936 0a50 8d1c 0000 0000
00000320: 4db3 641f 66e6 261c 1f29 8304 2650 d31b
00000330: 7799 393b 0000 0000 ad26 8436 bf2d 0439
00000340: 8579 8921 e478 0238 9296 ee21 0000 0000
00000350: b858 2a1d 5d10 c61f 40f0 3208 84c1 c31c
00000360: debd 1e1b 0000 0000 ecff ec1d b857 d01a
00000370: 0872 1a03 0caa 361a 202a 6323 0000 0000
00000380: 24bf a11e 6e13 3c21 21bd a909 2712 2f1e
00000390: 2274 2c23 0000 0000 1695 751e 9ed2 0e21
000003a0: bedb 8009 edd7 041e 5caf 5b3e 0000 0000
000003b0: cc6b 9c39 fc66 353c 5aeb a324 f61a 3839
000003c0: 4578 8721 0000 0000 b5ca 541d 8084 601f
000003d0: f588 ca07 3cdd 521c ae5e c21c 0000 0000
000003e0: c35a 981f 9df5 3c1c f835 9804 8e5f 221c
000003f0: 6f05 be3b 0000 0000 9d4c 0737 75fb 9c39
0.0021890863 0.0 3.0442966e-06 9.842628e-05 6.981664e-19 2.2204684e-05 5.134893e-22 0.0
2.4226417e-20 3.245326e-22 1.5392469e-36 1.592392e-22 1.2225967e-09 0.0 1.7002243e-12 2.7686287e-11
1.6187835e-25 3.828354e-11 1.7777595e-22 0.0 8.708478e-21 1.05030456e-22 5.6509533e-37 6.4290384e-23
1.2338526e-21 0.0 6.5407575e-20 6.880295e-22 3.8872053e-36 4.9967353e-22 7.3481e-22 0.0
4.5046925e-20 3.003189e-22 1.9941798e-36 4.1106015e-22 0.00045122654 0.0 6.2750786e-07 2.1409327e-05
1.4644168e-19 3.0634067e-06 0.31766573 0.0 0.00044176812 0.016395068 1.0527703e-16 0.00025949083
1.2853541e-19 0.0 1.7875117e-22 2.6825823e-21 1.6957112e-36 4.2877477e-21 1.7079086e-34 0.0
4.2935412e-36 1.574862e-34 7e-43 2.4486513e-36 9.841332e-18 0.0 1.3686364e-20 2.4086982e-19
1.1222301e-33 2.885658e-19 1.3613513e-22 0.0 4.9179833e-21 1.0495081e-22 5.7444327e-37 1.8821768e-23
3.0130313e-29 0.0 7.5254725e-31 1.2227118e-29 7e-43 1.7086259e-29 0.0028560995 0.0
3.971893e-06 9.1892034e-05 8.1964975e-19 6.389649e-05 6.833608e-23 0.0 2.7109609e-21 5.540477e-23
2.8086902e-37 9.4244755e-24 3.9699838e-22 0.0 1.521839e-20 2.1042335e-22 1.3901745e-36 1.5542179e-22
6.8008634e-19 0.0 9.865388e-22 3.520503e-20 2.256814e-34 5.1185077e-22 4.3065016e-19 0.0
2.8321766e-20 2.2600484e-20 1.4476646e-34 5.0833576e-22 5.313726e-22 0.0 3.024225e-20 2.5731777e-22
1.38869575e-36 2.5384888e-22 0.27358916 0.0 0.00038047193 0.0141193615 9.065477e-17 0.00022381662
2.9530691e-21 0.0 3.7391993e-21 2.6540445e-21 2.3547581e-35 1.4699234e-22 5.9940955e-19 0.0
8.335851e-22 2.2882099e-20 1.1396705e-34 8.620435e-21 3.072159e-28 0.0 7.6737e-30 2.8337238e-28
2.951e-42 4.438696e-30 7.0649687e-19 0.0 9.825028e-22 3.6280898e-20 2.3157096e-34 7.1893905e-22
4.751625e-19 0.0 7.3240805e-22 2.4587776e-20 1.576571e-34 3.56275e-22 0.0056423466 0.0
7.846648e-06 0.00021543278 1.7152502e-18 0.000100955585 2.2058572e-07 0.0 3.0676198e-10 7.0337673e-09
3.6222972e-23 4.7471165e-09 5.780258e-19 0.0 8.3855924e-22 3.0973642e-20 2.0136836e-34 4.9078584e-22
2.376233e-06 0.0 3.304548e-09 8.158651e-08 5.739197e-22 5.06459e-08 0.010519105 0.0
1.462858e-05 0.00049722026 3.4133258e-18 7.4879674e-05 5.6276133e-18 0.0 7.8322315e-21 2.915734e-19
1.869539e-33 4.2478717e-21 4.9341243e-23 0.0 1.287773e-24 4.4973904e-23 4.292243e-37 6.8618627e-25
0.0024260716 0.0 3.373864e-06 0.00012520544 8.0291124e-19 2.0526709e-06 9.351287e-22 0.0
4.8429192e-20 5.5222576e-22 3.0835716e-36 3.4958817e-22 0.0028320232 0.0 3.938409e-06 0.00012605543
9.315647e-19 3.1107003e-05 1.6167363e-18 0.0 2.254518e-21 8.388333e-20 5.384734e-34 1.295404e-21
1.3130803e-22 0.0 6.2733297e-21 8.61685e-23 4.5387434e-37 3.777408e-23 1.2314615e-17 0.0
1.7125592e-20 6.3722593e-19 4.0863126e-33 9.268177e-21 9.348731e-18 0.0 1.3001022e-20 4.839022e-19
3.1021524e-33 7.032674e-21 0.21453613 0.0 0.00029834954 0.011071917 7.108868e-17 0.00017557651
9.179791e-19 0.0 2.8162763e-21 4.7543446e-20 3.0474078e-34 6.976911e-22 1.2862317e-21 0.0
6.4524657e-20 6.252143e-22 3.578459e-36 5.3724805e-22 0.0057989876 0.0 8.064465e-06 0.0002994199

exp_avg f4 [128]
00000000: 6a10 8bb7 2db6 761a 2095 bba8 debf 9691
00000010: ad15 d324 0400 0000 e25e 1db7 1d03 af39
00000020: 742c 7fa4 e304 ae82 d3b7 db2a f02a d8a6
00000030: a21a d89a e70d 5236 f7e8 1d93 1015 259c
00000040: e905 19ab d0ba f72a ea60 f017 1b54 aab9
00000050: 9850 999e 100b 032b d794 3f92 4a8e 34ab
00000060: 570f f1aa f060 7cb5 8e3c 9834 6552 deaa
00000070: 7258 a532 0053 42b8 74dd 6d2b aaec 9225
00000080: 4445 2c38 e877 3587 fd04 61b7 ba6f 38ab
00000090: 0d00 0000 a6c9 1fac 5e1e 132c 9533 96b9
000000a0: bbda 2a2b ea2a c327 9b52 20b8 99f7 f0b9
000000b0: 7196 36b7 b37a 7d35 40ee fdb7 0fdb f230
000000c0: 1086 3639 9f9b f038 f5f4 9e2b 183c 5f17
000000d0: ae53 6a17 1b87 3c2a 871f bfb8 f6b2 99b9
000000e0: 0400 0080 7490 739e 510b c88c 1af8 94b9
000000f0: 0217 bea3 5880 f62d 30e1 242c 9346 0dba
00000100: 33dc 4a27 94f0 f5b6 22c5 8539 b90c 89b9
00000110: 10e8 a934 128a 8f8a 0400 0000 426f 5823
00000120: ace9 442c 95af 7480 7ec4 d029 52dc da2b
00000130: 658e ac2c 4e14 1901 6bb8 1323 adf8 0100
00000140: 6e6c 2121 2842 4d06 8ee3 7129 ab25 872b
00000150: ea82 7e38 b600 bda8 0890 e2b9 695c 0ab9
00000160: 13ff 301c 0400 0000 799b d7b8 5a0f 3f32
00000170: 7261 e1b9 0e4e 6eb7 47a7 69b8 5fee ddad
00000180: 06d4 25aa 9ef4 c6b5 7494 112c 306d 51b8
00000190: ac97 84ab 04a5 8caa cee4 68b2 e15b 1a32
000001a0: 1d00 0000 4c25 beaa bc86 df2b 1fdb 8631
000001b0: 0400 0080 520c 982c 02bd 10b8 0400 0080
000001c0: ee50 71b7 f4f1 96b9 94f5 75b4 0c08 9739
000001d0: 0455 19a8 41b7 03b9 6fbe 15ad fd39 2b27
000001e0: 5e8f afb9 1082 0ba7 ca15 7335 11a4 0000
000001f0: 1569 32b7 dcc7 eb32 d004 3615 d70a 1628
-1.6577735e-05 5.1018768e-23 -2.0825843e-14 -2.3784074e-28 9.1543384e-17 6e-45 -9.380021e-06 0.0003338092
-5.5331964e-17 -2.5569807e-37 3.9029768e-13 -1.4999649e-15 -8.9378534e-23 3.130053e-06 -1.9931046e-27 -5.4621143e-22
-5.436472e-13 4.400564e-13 1.5534101e-24 -0.0003248759 -1.6232838e-20 4.65559e-13 -6.0452432e-28 -6.414631e-13
-4.2820844e-13 -9.401838e-07 2.8356266e-07 -3.9492295e-13 1.9248748e-08 -4.6330504e-05 8.450664e-13 2.5487333e-16
4.1072504e-05 -1.3652164e-34 -1.34122065e-05 -6.5524983e-13 1.8e-44 -2.2707196e-12 2.0906814e-12 -0.0002864866
6.069968e-13 5.41699e-15 -3.8223905e-05 -0.00045960842 -1.0883073e-05 9.4428395e-07 -3.0270894e-05 1.7670078e-09
0.00017406815 0.000114730785 1.1294564e-12 7.2131035e-25 7.5715096e-25 1.6744628e-13 -9.113462e-05 -0.0002931577
-6e-45 -1.2894185e-20 -3.082169e-31 -0.0002841361 -2.0609585e-17 2.8023958e-11 2.3430806e-12 -0.00053892395
2.8152502e-15 -7.329576e-06 0.00025514612 -0.00026140155 3.164755e-07 -1.3822335e-32 6e-45 1.1732943e-17
2.798299e-12 -1.0715905e-38 9.2711415e-14 1.5550983e-12 4.904343e-12 2.811623e-38 8.007938e-18 1.81044e-40
5.4692427e-19 3.860482e-35 5.3710122e-14 9.602782e-13 6.0680242e-05 -2.0983523e-14 -0.0004321339 -0.00013195131
5.856319e-22 6e-45 -0.00010280958 1.1121154e-08 -0.00042987947 -1.4204079e-05 -5.5707318e-05 -2.523065e-11
-1.4728504e-13 -1.4823343e-06 2.0688147e-12 -4.993117e-05 -9.421262e-13 -2.4983498e-13 -1.35562015e-08 8.984871e-09
4e-44 -3.377666e-13 1.5882499e-12 3.9248245e-09 -6e-45 4.3214677e-12 -3.4508303e-05 -6e-45
-1.4383562e-05 -0.000287905 -2.2906744e-07 0.0002880696 -8.511641e-15 -0.00012561401 -8.511954e-12 2.3762453e-15
-0.00033485418 -1.9360632e-15 9.055626e-07 5.8856e-41 -1.0634093e-05 2.7448486e-08 3.6758404e-26 8.329023e-15

exp_avg_sq f4 [128]
00000000: 5d36 0934 3aa0 2617 b9b5 a029 40c1 6616
00000010: 9930 c817 7172 6e17 9043 e232 ac8e 9b37
00000020: c922 1119 dfbb 7302 34a2 2d1c 0db8 2816
00000030: f105 240b 6c05 3334 2a66 b115 3647 f716
00000040: c8fc 3f1a 1268 f819 2f6e 2c17 37f9 8537
00000050: c87d 6f18 7f34 291a 9f0e d10c 186f 471a
00000060: 6f23 061a ded4 b034 d687 622d 9c02 291a
00000070: 6784 182f aad5 2435 c9bb c61b 0add 7c15
00000080: 0e11 1834 9ab9 9717 f982 3134 4dd1 e41a
00000090: d86f 2a16 0344 591c 56f0 241c ae1c 5237
000000a0: 15a7 811a ae80 c617 a3bd b534 7642 0b38
000000b0: f5cc 5433 e640 2533 6926 9f34 d287 b327
000000c0: 6740 ac36 3779 ed35 a8a6 0e1b 34a3 4717
000000d0: ec3d 9011 11a9 2519 c901 e135 e704 5637
000000e0: 7ff2 fd16 3f58 6e15 276a 000e 495e 7237
000000f0: 1e03 1613 a387 a520 569f 4e1c c15b 3438
00000100: 4369 ce13 300e 3533 dccc 2437 f904 2e37
00000110: de0e 992e 2cc0 4c12 f6f2 0f0a ec9e 4018
00000120: 2cb9 ac1c 8eaf 1a00 5703 5818 7dda 001c
00000130: 6b67 1f30 0101 0b18 87ac 221b a344 c917
00000140: d132 1318 f3a7 0e06 f931 1a20 d34a 551b
00000150: 390f 7435 a230 e318 d86a f037 d7ee 3736
00000160: 11f0 df16 dbb6 9515 0953 0a36 1eb4 6032
00000170: 4061 f037 8bc9 8034 24ae 7f35 1bca 0f32
00000180: 24d9 0019 6736 2c33 901c 4f1c 0789 0435
00000190: 056f 801b 66b0 7219 2907 5a2f 76f1 ce32
000001a0: 377c 5203 6b96 c119 dae0 181c d28f cb2c
000001b0: dd95 bb16 2f3d c31d f618 9d34 7451 c017
000001c0: d638 8933 c72d 4f37 ec5b 3531 281a 5b37
000001d0: 90b5 4316 0b4f 3736 03a8 f11d c692 9518
000001e0: 7fc6 8937 4c37 d117 959e 0233 f401 0000
000001f0: c80b 0d33 3ad7 6f2f d602 1110 2213 8924
1.2778897e-07 5.3839727e-25 7.136951e-14 1.8640231e-25 1.2936965e-24 7.7046393e-25 2.6340587e-08 1.8543877e-05
7.503349e-24 1.7906737e-37 5.745054e-22 1.3629008e-25 3.158972e-32 1.6672647e-07 7.165092e-26 3.9949943e-25
3.970207e-23 2.5684633e-23 5.571527e-25 1.5970885e-05 3.095353e-24 3.4990787e-23 3.2210348e-31 4.1241976e-23
2.7739174e-23 3.2937436e-07 1.2876774e-11 3.495049e-23 1.3871358e-10 6.1405683e-07 3.2877706e-22 5.1065364e-26
1.4162308e-07 9.804999e-25 1.6532057e-07 9.4636733e-23 1.3767782e-25 7.188718e-22 5.4573675e-22 1.2523653e-05
5.3623085e-23 1.2827933e-24 3.3851856e-07 3.320208e-05 4.9546504e-08 3.847608e-08 2.9644005e-07 4.9829737e-15
5.133497e-06 1.7693154e-06 1.1799814e-22 6.450636e-25 2.2757356e-28 8.564443e-24 1.6764326e-06 1.2756535e-05
4.102739e-25 4.813333e-26 1.5828329e-30 1.44462765e-05 1.8934199e-27 2.8041844e-19 6.836562e-22 4.3000797e-05
5.2105507e-27 4.215525e-08 9.822859e-06 1.0372366e-05 6.9602754e-11 6.460792e-28 6.9308954e-33 2.4895653e-24
1.1429871e-21 2.4507e-39 2.7919032e-24 4.2634037e-22 5.799083e-10 1.7965836e-24 1.3456073e-22 1.3006647e-24
1.902496e-24 2.683062e-35 1.3060842e-19 1.7643124e-22 9.0919235e-07 5.872723e-24 2.8659982e-05 2.7408148e-06
3.6179096e-25 6.0469116e-26 2.0611935e-06 1.307947e-08 2.8655515e-05 2.39885e-07 9.524831e-07 8.369649e-09
6.661296e-24 4.009635e-08 6.852747e-22 4.9373233e-07 2.1247568e-22 1.254673e-23 1.9829528e-10 2.409136e-08
6.1856045e-37 2.0016486e-23 5.0583195e-22 5.7855743e-12 3.0306056e-25 5.1679333e-21 2.926169e-07 1.2428271e-24
6.389898e-08 1.234882e-05 2.6391218e-09 1.3059507e-05 1.5809266e-25 2.7315134e-06 6.396589e-21 3.86638e-24
1.6424105e-05 1.3520267e-24 3.0412213e-08 7e-43 3.2839836e-08 2.1813387e-10 2.8598393e-29 5.944669e-17
