results/TankLearningAI_timePunished/TankLearningAI/TankLearningAI-859013.onnx (onnx, 76102 bytes, 7 tensors)

network_body._body_endoder.seq_layers.0.weight f4 [128, 6]
00000000: 13ff 5c3d ad5e fbbd 91cb 27bf 048d 153d
00000010: 1a51 883e 301a 053f fefd a63e 1ef3 0d3f
00000020: 0e9a 673e ea40 48bc efe7 a4be e508 cf3e
00000030: acff 2f3d 8486 02be 8be2 8d3f 53cd b4be
00000040: e650 c03e 80e2 f63e 175f de3e ea14 7ebe
00000050: 4974 0e3f 0415 f1bb a213 bf3e c596 c3ba
00000060: 2aba 943e 7645 f8bd eecd 443e aca7 483e
00000070: b9ea 373f bf55 a0be bc57 773f 6ebe 423e
00000080: 7192 1c3e e69f 11be 7d00 f9be 4343 d13d
00000090: fb36 6fbe 196a 1cbe 8580 ee3e 879c 7fbf
000000a0: 72b8 e23e 2890 0a3f 4720 71be 8c30 1fbf
000000b0: edf1 c8bc cfdf 0ebf 63a7 14bf 08f0 8dbe
000000c0: f70c 193e da13 1a3f 6d73 dfbd d7c8 e3be
000000d0: 6036 693e 4037 913e f41b 213f 593b 1a3f
000000e0: fd02 ecbd 5b18 0b3d 89c7 293e 3109 24be
000000f0: 6ad9 253e e49f b9be 7356 debe c41a d9bd
00000100: aac4 1b3f fc25 203e a344 863e 24b2 c9be
00000110: ba1a 8f3d 2248 433e 229f 11be e8c3 e9bc
00000120: c051 a33e 7a11 103c 8e73 adbe 5565 61be
00000130: 59f6 03be b5a5 b23d 263f 8abc 2147 7e3d
00000140: 12ba 7f3e f977 7fbe ce4f 49be 6398 933e
00000150: d033 903e bc81 ca3e bd87 a23e 41f0 0dbf
00000160: 4e21 f1be 32ad 84be 7e04 f83e bff3 a53e
00000170: 14a7 94bc 9e4d 5a3f 82fe 6a3e d16f 593e
00000180: 476c 373e 281c afbe d293 c03c cd20 e7bc
00000190: d78e e53c 089e dbbe 742b a63d 2fef f83e
000001a0: c298 bc3e ea31 b9be 85bf 8c3f 4d92 90be
000001b0: 1001 863e 895e dbbe 0254 be3e b27a d0be
000001c0: bcad 01be 9588 ba3e 3d20 3bbe 504b 51bf
000001d0: 3818 373e 20d6 db3e f47e 573f 92ea 6ebe
000001e0: ea98 da3e 82d6 d4be d719 c2bc 45f9 0b3f
000001f0: dede cf3e b35f 9b3e a0d4 2ebd 60f7 a6be
00000200: d4f6 5f3d 83ef 71bf 2eeb 64be dbe2 75be
00000210: 930c f93e 576d 0fbf 70fe b9be d3c6 c73d
00000220: 8feb 82bd 4340 a7be 759c 92bd ebbf fa3d
00000230: 73ab 0fbc 1b7e 92bf 4e5f 8fbe d32b cdbe
00000240: 9b4c 263e b0c8 823e 2de1 ef3c 2c9b 92bd
00000250: aef9 7fbe 3079 d9bd 2597 14bd 63ce 52be
00000260: 4e61 a9bd 5fec e0be 1364 523e d2af 223f
00000270: fbb6 e8bd 5252 c93e 94bd 073f 1be7 19bf
00000280: ea0f 133d e24e ac3c 9b5c bf3e 1e0c 943e
00000290: dbe7 f3bd 26b1 4c3f c747 a53e 0b27 b4be
000002a0: 85bd 313e cb34 babe 45fb 54be 226a bb3e
000002b0: cf20 e0be dc5b e63e 6fde 443d 3ac9 ecbe
000002c0: bce5 1abe 94f8 fa3d 453e d6be f1dd de3e
000002d0: 0445 823e 57c3 59bf 3d0c babe e8df ac3e
000002e0: 11e8 93bd 069a ffbc c49e 9c3e 7ddc 023f
000002f0: 14c0 35be 0ad7 533e c0de ba3d a4d4 03bf
00000300: 9630 96be d474 f73e 5407 8e3e 8d8f 43be
00000310: c38e 24bf d0ef bb3e 183f 0f3f b9e1 42be
00000320: ebbc 433f 29d3 0d3e dfbd d4be 2e8a 173e
00000330: 03e3 773e 7421 273e 32eb 08bf cb91 603f
00000340: 21d8 923b 6a31 013f 8eb6 6f3e ba25 23bf
00000350: fdec 7bbf 6b77 053e 410f 0cbf 5e88 4cbc
00000360: c1d9 073f e449 c23e c98f 7f3e d476 2abf
00000370: dd8a d0be dab9 e13d a662 d03d fcba 0cbe
00000380: 3e5d 13bf 1e20 f3be c6d0 89be 0de1 44bf
00000390: c3d8 193e c04b 59bf a339 aabd 3e1b adbd
000003a0: 59e6 173f 8f9a bebe eb07 00bf f67c 3bbe
000003b0: 8ef9 373e 71e7 0ebe 38dc f5bd 1174 223f
000003c0: 4f3a 273e 2486 573e 2420 383e 71a8 c1bc
000003d0: 4783 0e3e ac75 d1be 91d4 3b3e e4ef c43e
000003e0: 353a 513f e420 ecbc 10d6 1fbc 189f 6ebe
000003f0: cc93 96bd 7118 e3bd 54da b43e d06c e9bc
0.053954195 -0.12273917 -0.6554499 0.036511436 0.26624376 0.51993084 0.32615656 0.5544909
0.22617361 -0.012222508 -0.322082 0.40436473 0.042968437 -0.12746626 1.108476 -0.353129
0.3756172 0.4821968 0.43431923 -0.24812666 0.5564619 -0.0073572416 0.37319666 -0.0014922252
0.29048282 -0.121226236 0.19219181 0.19595212 0.71842533 -0.3131542 0.9661825 0.19017956
0.15290238 -0.14221153 -0.48633185 0.10217907 -0.23360817 -0.15274848 0.46582428 -0.99848217
0.44281346 0.54126215 -0.23547469 -0.6218345 -0.024529422 -0.55810255 -0.5806791 -0.27722192
0.14946352 0.6018654 -0.109106876 -0.44489166 0.22774649 0.28362465 0.6293328 0.6024681
-0.115240075 0.033958774 0.16580023 -0.16019131 0.16196218 -0.362548 -0.4342533 -0.10600808
0.6084696 0.1563949 0.2622424 -0.39393723 0.069875196 0.19070485 -0.1422086 -0.028535798
0.31898308 0.008793229 -0.33877224 -0.22011311 -0.12886943 0.08723012 -0.016875815 0.062079553
0.24973324 -0.2494811 -0.1965935 0.288272 0.2816453 0.39552104 0.31744185 -0.55444723
-0.47095722 -0.25913388 0.48440927 0.32412526 -0.018146075 0.85274684 0.2294865 0.21234061
0.17912398 -0.3420117 0.023507986 -0.028213883 0.028022213 -0.42894006 0.08113757 0.48619983
0.36835295 -0.36170894 1.0995947 -0.2823662 0.26172686 -0.42845562 0.37173468 -0.4071861
-0.1266393 0.3643233 -0.18274017 -0.8175554 0.17880332 0.42936802 0.8417809 -0.23331669
0.4269479 -0.41569906 -0.023693962 0.5467723 0.40599722 0.3034645 -0.042683244 -0.32610607
0.054678753 -0.9450609 -0.22355339 -0.2401232 0.48642406 -0.56026214 -0.36326933 0.097547196
-0.063925855 -0.32666215 -0.07158748 0.12243637 -0.008768904 -1.1444734 -0.280024 -0.40072498
0.1624016 0.25543737 0.029282177 -0.07158503 -0.24997589 -0.10618818 -0.036276955 -0.20586543
-0.082705125 -0.43930337 0.20545988 0.6354953 -0.11363026 0.39320618 0.5302365 -0.60118264
0.03590385 0.021033708 0.3737534 0.28915495 -0.11909457 0.7995781 0.32281324 -0.35186037
0.17357452 -0.36368403 -0.20798977 0.3660441 -0.4377503 0.44991958 0.04806369 -0.46247274
-0.15126699 0.12254444 -0.41844383 0.43528703 0.2544328 -0.8506369 -0.36337462 0.33764577
-0.072219975 -0.031201374 0.3058988 0.5111769 -0.17749053 0.206875 0.091245174 -0.5149634
-0.29333943 0.4833132 0.27739966 -0.19097729 -0.6428034 0.367064 0.5595565 -0.19031419
0.7646014 0.13850082 -0.4155111 0.14798805 0.24207692 0.16321355 -0.5348388 0.8772246
0.004481331 0.50466025 0.23409483 -0.6372944 -0.9840849 0.13033836 -0.54710776 -0.012483684
0.5306664 0.37947 0.24957193 -0.6658757 -0.40730944 0.110217765 0.10175066 -0.13743204
-0.5756415 -0.4748544 -0.26917094 -0.769059 0.15024094 -0.8488121 -0.083117746 -0.08452462
0.5933586 -0.37227294 -0.5001208 -0.18309388 0.17966291 -0.13955475 -0.12004894 0.63458353
0.16330837 0.21047264 0.1798101 -0.02363989 0.13917266 -0.4091009 0.18342806 0.38464272
0.8172944 -0.028824277 -0.009755626 -0.23302877 -0.07352409 -0.11088646 0.3532282 -0.028494269

network_body._body_endoder.seq_layers.0.bias f4 [128]
00000000: 4850 c7bd b1d4 48bc 4ea0 51be daa3 e4bb
00000010: 82fa a23c bd29 1d3c f22c 4abf c247 08be
00000020: bd21 8e3c 7768 a6b8 4728 e5bd ae4b 05bd
00000030: 4968 ecbb c6b9 2fbd 7925 c1bc 51d2 0abc
00000040: 9b1d 8abc 758b d0bd 53b6 903c 0a5a 81bd
00000050: fb2b cdbb c82d 9bbe 706d 60bc 779b 80bd
00000060: 435e 0bbd 8a76 b8bc 8027 27bf 8802 873a
00000070: b8e1 9bbd 24dc f53c 21b1 5abe f3ef b8bb
00000080: a016 c5be 7a08 0c3d e332 7abd 33f0 7cbd
00000090: 9bb5 18bc 6f12 efbb 3b9a 78be cd00 0abe
000000a0: 33ba 30be 3795 273b 4045 47be ff3b b1bd
000000b0: af04 a6be efd1 3fbd bc7e 5cbe 0459 5ebe
000000c0: 37bf 4ebe 7441 e7be ad5b 12be 6f89 9ebc
000000d0: 9a7f 19bc 298f c9bd 2cea 07be f4af febd
000000e0: 3305 153c 49df e3bb e29d bdbc f571 e2bd
000000f0: d240 a1bc 4152 c3be 3d70 de3b d11c a5bd
00000100: a794 05bc bdc1 dfbe b305 70be e26b ffbd
00000110: 9de1 55be 189a 25bb b9cb 03bb b8af d43c
00000120: 67e9 73bd e0d2 78b6 96e6 18bd d2a7 01be
00000130: a3cf b3be d92d a93c d218 b23b 3a5b 223c
00000140: 5b28 3d3c fcb7 43ba 7927 b7be 696d 10bd
00000150: f570 0cbe 437b 29bc a0bb a9bd c16d c3bd
00000160: ac1d f03c 8a79 42bc dcf7 35be 4b9e 20be
00000170: a8d8 a8bd d79b 87be 136f 573c 2795 ba3c
00000180: aede 483c b641 15be fdf0 9dbe a895 8dbe
00000190: ecb4 38bd 363c e2be b35c 10be c135 9ebd
000001a0: b937 e339 c034 35bd ab23 1bbd 85ce 6cbe
000001b0: 7bf6 433b d8db 2fbe 69a0 77bd 644f 913b
000001c0: 0f73 13be 5d36 c1bd eec4 9cbe e746 b6bd
000001d0: 9d3a 82be 6130 69be 59ad 11be f880 833c
000001e0: 30fc cabd e83d bbbb bdc0 06be ddd9 72b6
000001f0: 37c9 32be 4168 4dbe d2ce 833b 8dee a5be
-0.09732109 -0.012257741 -0.20471308 -0.0069775404 0.019894842 0.009592471 -0.7897483 -0.13308623
0.017350072 -7.934955e-05 -0.11189323 -0.032542877 -0.00721458 -0.042901777 -0.023577439 -0.008472995
-0.01685982 -0.10182849 0.017665064 -0.06316002 -0.0062613464 -0.30308366 -0.013697967 -0.062796526
-0.03402544 -0.022517461 -0.6529465 0.0010300437 -0.07611412 0.030012198 -0.21356632 -0.0056438386
-0.38493824 0.03418777 -0.061083686 -0.06175251 -0.009320642 -0.0072958986 -0.24277584 -0.13476868
-0.1725853 0.0025571117 -0.1946001 -0.086540215 -0.32425448 -0.046831068 -0.2153272 -0.21713644
-0.2019013 -0.45167124 -0.14292784 -0.019352643 -0.0093688015 -0.09841759 -0.13272923 -0.12435904
0.009095478 -0.006954108 -0.023146573 -0.11056892 -0.019684229 -0.38148692 0.006788282 -0.08062137
-0.008153117 -0.43702498 -0.23439674 -0.12471749 -0.20886846 -0.002526885 -0.0020110442 0.025962695
-0.05954876 -3.7077625e-06 -0.03732928 -0.12661675 -0.35119352 0.020651745 0.0054350877 0.009909445
0.011545266 -0.00074660755 -0.35772303 -0.03526059 -0.13714965 -0.010344329 -0.0828774 -0.09542418
0.029311024 -0.0118697975 -0.17770332 -0.15685384 -0.08244449 -0.26486084 0.013149041 0.0227762
0.012260122 -0.14575848 -0.30847922 -0.2765324 -0.045094416 -0.44186562 -0.14097862 -0.077250965
0.0004333833 -0.04423976 -0.037875813 -0.23125656 0.0029901552 -0.17173707 -0.060455713 0.004434513
-0.1439936 -0.09434197 -0.30618995 -0.08900242 -0.25435343 -0.22772361 -0.14226283 0.016052708
-0.09911382 -0.005714167 -0.13159461 -3.6187623e-06 -0.1745957 -0.20059301 0.0040224576 -0.32408562

network_body._body_endoder.seq_layers.2.weight f4 [128, 128]
00000000: c289 b93d 47b6 793d 3d46 ee3b 5396 87bd
00000010: 6be8 4dbd a78f 0d3e 489b 173d 5165 633e
00000020: a930 b33c e8db 223e 93fe ccbd b728 84bd
00000030: 28a2 25bb 1ee8 403c 3a4b febc 2ce2 963d
00000040: 7934 d73d 9c85 003d 31bb 203d c294 6cbd
00000050: 099d f2bc 5303 143e c3ed 61be 8432 74bd
00000060: 2440 a6bc c6de ee3d acb8 82bd 635c 11bd
00000070: ec5c 91bd 73e3 0dbd cbdf 28bd 27ef 86bd
00000080: 99d0 2bbb 4a07 be3a 3ffd 7b3d c247 4fbd
00000090: a18b 9d3d b5bf 073c f18f 58bd 1afc 223d
000000a0: 934c 413d 7efa e6bd ff42 c2bd 6f8b 98bd
000000b0: e8f7 193c 05ca 69bd 0e45 9f3a ec50 813c
000000c0: 3d32 0cbd 9e13 74bd 1b5d 6e3e 1ff3 103e
000000d0: 3b1e 603d 1dc0 113d 6fde aebd 9007 61be
000000e0: c572 58bd bf34 243e 3be7 be3b 1f22 68bd
000000f0: 3a6a db3d f5a3 7fbd 41dd 26bd f636 183d
00000100: d793 29be 07a5 783a c48c e0bc c80f bc3d
00000110: 64ce 3fbe b1bb ce3d 3df5 f63c befc 8a3c
00000120: e90d eb3d e18b 3ebd d6dd 0a3e 9d13 663c
00000130: 8546 b73d 8ff4 4bbd 84a4 02bd b2c0 c6bd
00000140: 190b 04bd 8928 843c 47d4 50bd 31a6 a1bd
00000150: daaa e83d a44a 153e 7b3f 30bc fb12 983c
00000160: aa2e acbd b838 54bc 97b1 b8bd 0ef7 723d
00000170: 28ba 1dbe eb9e 81bd 8580 f43d 1505 74bd
00000180: f344 17bc d798 c43d 926c 433c 3637 2d3d
00000190: 4cd3 12bd 1971 313d 8862 bc3d 23dc 403d
000001a0: b13b 403d 55e8 c63d adb4 123d 9817 183d
000001b0: 2ecd c0bc 3c61 353d 2e8d 66bc c331 3d3d
000001c0: 3b67 1bbe 93ae db3c e34f 783d ed2c b4bc
000001d0: 83d5 63be 253e b13c 7655 9e3d 4bda 2d3c
000001e0: 6618 d63d b41e 553d ef83 7d3e 5e40 9fbb
000001f0: 23dc 65bd 7fb0 14be 3402 4bbd 50b9 30be
00000200: 8857 63bd f4b7 88bd 5647 cdbc 2abd 1d3e
00000210: fbb8 aa3d 92c6 8cbd 7dc6 f73c dd16 07bd
00000220: fc44 48bd 10c6 f0bd a728 863d 008e 383d
00000230: b360 f9bd bf2b 96bc 8557 5cbd 5d80 1ebc
00000240: 4513 313e d7aa 2e3d 24d3 1ebe e495 4abe
00000250: df1d 1d3d df66 d6bc aea8 c13d f51f 00be
00000260: 3e5d e5bd 769b 42ba c83f 83bd 845a 5bbd
00000270: 45cc 97bd 3ae2 903d e2d9 a0bc 1c9d e23b
00000280: 37d1 81bd 18ac 253c 40d2 243d c013 843c
00000290: ac4f 82bd 7447 8a3d fa62 233c 43d2 bcbc
000002a0: 9612 bebd 1d1b 5cbc a723 a03d bf06 83bd
000002b0: e7d0 873c 47e5 60bd 06d1 5cbd 0e9f 223d
000002c0: 9429 7ebc 4db9 04be b3eb 993d 1660 5f3d
000002d0: 83f1 dbbd 8105 ee3b 8d2d 803d de8b 97bd
000002e0: d6e1 963d 8500 85bd 088f 43bd 5cd9 0a3d
000002f0: c9be 86bc 8448 463d b0cd cb3d 6703 80bd
00000300: 1ea7 bf3d 4283 1cbe 8c8a 8ebb 6e73 9ebc
00000310: ccec e93d 6df4 a0bd 3006 a0bd 6b07 b63d
00000320: ff86 08bc 1110 193d 257a fbbd b9d9 5a3d
00000330: 1cd0 a3bd 2fa3 d7bd 74c7 c0bd eded 7dbd
00000340: e14f 033e 3af7 0c3d 191e 37be 9898 953d
00000350: 50ac 553d d424 c8bc ca5e 8cbd f15c 5a3d
00000360: 3a49 1dbe a681 4d3c d71c 6fbe f720 243d
00000370: 2c2c 6fbd 063a 4e3d d740 ec3c a774 853e
00000380: 0cea 0f3e 3cce a1bd 71d7 10bd 79a1 98bd
00000390: 70a2 023e cc1d 913d a28c 3abd 472e 19be
000003a0: cb6b 0dbe ab46 433d 4229 0fbe 9367 a8bc
000003b0: 9d43 39be ce11 dc3d 3971 90bd f0d1 4abd
000003c0: 3c6d 133e 41c7 00bd bcc5 543d 59a4 c6bb
000003d0: baaa 67bd 44f1 8cbc e260 eebd 0adc 09bd
000003e0: 0dfd 01be 67eb b8bd b214 d4bc 319a ebba
000003f0: c547 4e3e db8a 1cbe bc34 bebd 13d7 833d
0.09059478 0.06096485 0.0072715566 -0.06620469 -0.05027048 0.1382433 0.037013322 0.22206618
0.021873789 0.159042 -0.10009494 -0.06453078 -0.0025273655 0.011774091 -0.03104173 0.073673576
0.10508055 0.03137742 0.03924102 -0.057759054 -0.029615896 0.14454393 -0.22063355 -0.059618488
-0.020294257 0.116635844 -0.063828796 -0.035488497 -0.070978016 -0.03464074 -0.04122905 -0.065885834
-0.0026216863 0.0014498022 0.06152081 -0.050605543 0.07692648 0.008285453 -0.05287165 0.039791204
0.047192167 -0.11278246 -0.09485435 -0.0744847 0.009397484 -0.057077426 0.0012151317 0.015785657
-0.0342276 -0.05958902 0.23277704 0.14155243 0.05471633 0.035583604 -0.085385196 -0.21975541
-0.052843828 0.16035746 0.0058259047 -0.056673165 0.107136205 -0.06241222 -0.040738348 0.03716179
-0.16560303 0.000948504 -0.027410872 0.091826975 -0.18731076 0.10094393 0.030146236 0.01696622
0.114772625 -0.046520118 0.13561186 0.014042762 0.089489974 -0.049793776 -0.031895176 -0.097047225
-0.032237146 0.01613261 -0.050983693 -0.078930266 0.11360712 0.14579254 -0.010757322 0.018563738
-0.08407338 -0.012952976 -0.090182476 0.05931764 -0.15403044 -0.06329139 0.11938576 -0.05957516
-0.009232747 0.095994644 0.011927741 0.04228898 -0.03584604 0.04332075 0.09198481 0.04708494
0.046931926 0.097122826 0.035816837 0.037131876 -0.023535337 0.044282183 -0.014071746 0.046190035
-0.15176098 0.026816642 0.06062306 -0.021994079 -0.22249417 0.021636078 0.07731144 0.010611127
0.104538724 0.052031234 0.2475736 -0.004859968 -0.05611814 -0.14520453 -0.049562648 -0.17258191
-0.0555034 -0.06675711 -0.02505843 0.15404192 0.083360635 -0.06873812 0.030246014 -0.03298079
-0.048893914 -0.117565274 0.065507226 0.045057297 -0.12176647 -0.018331407 -0.053794403 -0.009674159
0.17292507 0.042643394 -0.15510231 -0.19783741 0.038358565 -0.0261721 0.09456001 -0.1251219
-0.11199425 -0.0007423678 -0.0640865 -0.05355312 -0.07412008 0.07074399 -0.019635145 0.0069157016
-0.06338733 0.010111831 0.040239573 0.016122699 -0.063628525 0.0675191 0.009972328 -0.02304948
-0.09280889 -0.013434199 0.078193 -0.06397771 0.016579105 -0.054906156 -0.053910278 0.039702468
-0.015512843 -0.12961312 0.07515659 0.054534994 -0.10739424 0.0072638397 0.06258688 -0.073997244
0.073672935 -0.0649424 -0.047743827 0.033898696 -0.016448395 0.048409 0.09951341 -0.06250649
0.09358047 -0.15284446 -0.004350012 -0.01934215 0.114221185 -0.078591205 -0.0781368 0.088881336
-0.008332967 0.037368838 -0.122791566 0.053430293 -0.07998678 -0.10529172 -0.09413043 -0.06199448
0.1282344 0.03441546 -0.17882575 0.073044956 0.052166283 -0.024431624 -0.06854017 0.053311292
-0.15359965 0.012543118 -0.23350845 0.0400705 -0.058391735 0.050348304 0.028839512 0.2606556
0.14054126 -0.07900664 -0.03536171 -0.074526735 0.12757277 0.070857614 -0.045544274 -0.1495906
-0.13810651 0.047674816 -0.13980582 -0.0205572 -0.18092199 0.107455835 -0.070528455 -0.04951662
0.14397138 -0.031440023 0.051946387 -0.0060620722 -0.056559302 -0.017204888 -0.11639573 -0.03365711
-0.12694187 -0.090292744 -0.025888775 -0.001797503 0.20144565 -0.15287344 -0.09287402 0.064375065

network_body._body_endoder.seq_layers.2.bias f4 [128]
00000000: aca2 46bd f0f6 69bc 2ccf 62bb 0e45 8ebc
00000010: a29f 2dbd f0e5 19bc 6c1c 5dbd 5d5e c7bc
00000020: 0053 03bd 35dd 63bc 7b9d 6cbd 499d 07bd
00000030: 2e65 d8bc 1796 2cbd 7d06 37bd 0876 7abd
00000040: 1645 5ebc c157 13bd 6354 c8bb f19e 773b
00000050: 1004 2fbd 76d1 9bbd 5008 e1bc c0cd debc
00000060: 20aa 77bc 8fff c2bc c7cd 74bd e53f 0cbd
00000070: fc26 17bd 17fe 3e3c 5f1c 49bc b913 8bbc
00000080: 5da0 a8bc 30bb 22bd af78 a8bc 1219 97bc
00000090: 0f90 b3bc 75cb 82bc 41e9 5bbd ed81 1fbd
000000a0: bd19 1cbd fb04 80bd cbc0 12bd d531 0dbd
000000b0: 7634 62bc 895f abbc 5ad7 59bc 112f 4ebc
000000c0: f7df 17bd 08da cfbc 38fd febc 3ff8 8abb
000000d0: 5799 c1bc 815b 21bd 7c36 eebc 70c5 5fbc
000000e0: 0913 47bc 38d4 5fbd 76e4 08bd 0768 aa3a
000000f0: d70d 97bd f071 bebc 40c7 3bbd e398 17bc
00000100: 01ec b8bc cbef 61bc 0c48 08bd 3dcb 9cbc
00000110: f7ce 71bc 6357 b3bb 74fa 0abd 4cfd fbbc
00000120: 5880 d2bc ccce abbd f553 bfbc d0f9 acbc
00000130: 2595 23bd 5bd0 afbc 7ebf afb9 a9ee b3bc
00000140: 42c6 f5bc 0b58 a4bc 3ec5 d4bc 9a04 84bc
00000150: 06e0 74bc 25b9 21bd ccb1 bbbc 0792 c6bc
00000160: 47de 30b9 8551 10bd de21 5cbc d6f9 a0bd
00000170: 3c5b 20bd d19a 91bc 5a09 c3bc 4641 fabc
00000180: 325d 0fbd 670c d9bc 06b2 17ba 7d30 81bd
00000190: d313 d9bc dac2 a7bc 5f92 10bd 971d d1bb
000001a0: 0ba9 3bbd a01a 85bc fa4c 18bd 0c29 07bd
000001b0: e2f8 23bc 98c1 aabc 7079 15bb fcfa 7bbb
000001c0: 0406 00bd 62f7 c1bc 5ade 563b 139c 38bd
000001d0: 9b41 28bd 72a1 f6bc fd37 adbc 346a 08bd
000001e0: d59a f2bc 6221 d7bc 185b 8fbc 6dbb f9bb
000001f0: 5f29 c3bb 1b9d 06bd 9a0d 5d3b 3aa8 5bbd
-0.04849498 -0.014280066 -0.0034608347 -0.017366912 -0.042388566 -0.0093932 -0.053982183 -0.024336988
-0.032061577 -0.01390772 -0.057767373 -0.033108983 -0.026415434 -0.042135324 -0.044683922 -0.06114772
-0.013566276 -0.03597236 -0.0061135753 0.0037783945 -0.042728484 -0.07608311 -0.027469784 -0.027197719
-0.015116245 -0.0238035 -0.059766557 -0.034240622 -0.036902413 0.011657259 -0.012274831 -0.016977178
-0.02058428 -0.039729297 -0.020565359 -0.018444572 -0.021919278 -0.015966156 -0.053689245 -0.038942266
-0.038110483 -0.0625095 -0.035828393 -0.03447135 -0.013806453 -0.020919578 -0.013295973 -0.012584464
-0.037078824 -0.02537252 -0.031126603 -0.004241019 -0.023632688 -0.039393906 -0.029078715 -0.013657913
-0.012150534 -0.054645747 -0.033421002 0.0013000973 -0.073756866 -0.023247689 -0.045844316 -0.00925276
-0.022573473 -0.013790081 -0.033271834 -0.01913988 -0.014758817 -0.005473064 -0.033930257 -0.03076043
-0.025695965 -0.08389053 -0.023355464 -0.021115214 -0.039937157 -0.021461656 -0.00033521274 -0.021964388
-0.030001763 -0.020061513 -0.025972959 -0.016115475 -0.0149459895 -0.03948321 -0.022911929 -0.024239553
-0.00016867473 -0.035233993 -0.013435809 -0.078601524 -0.039149508 -0.017774018 -0.02380817 -0.030548703
-0.035000987 -0.026495172 -0.00057867204 -0.063080765 -0.02649871 -0.020478655 -0.03529584 -0.006381701
-0.04581551 -0.016248047 -0.037182786 -0.03299813 -0.010008069 -0.020844266 -0.0022807978 -0.003844916
-0.031255737 -0.023677532 0.003278634 -0.04507072 -0.04107819 -0.03010628 -0.021144861 -0.03330441
-0.029614845 -0.026261035 -0.017499492 -0.00762122 -0.0059558596 -0.03286467 0.003373003 -0.05362723

action_model._continuous_distribution.log_sigma f4 [1, 4]
00000000: a114 65bf e4dc 6dbf a9c6 8bbf e0d6 b0bf
-0.894846 -0.9291518 -1.0920001 -1.3815575

action_model._continuous_distribution.mu.weight f4 [4, 128]
00000000: 8190 003d ff9e 3b3a a006 de3c 9118 42b8
00000010: 4403 8a3c 1970 2a3c 7c31 343b 8dad 53bb
00000020: 2ef2 a93c 15ae 303c 43a6 96bc 91f9 c13b
00000030: 0472 53bc b424 a73a 2b0e 933c f14a bebc
00000040: 367f 273c d4e9 b9bb 415b 093c bf2f b83c
00000050: 595b 2bbc 9ff5 e5bb 74a0 343b 0455 263d
00000060: e9e4 f93c 1e06 833b d169 663d 57a5 dd3c
00000070: 17d1 bcbb 289d e83d b010 813d 250e 3c3c
00000080: d63f f2bb 94d8 99ba 28a3 df3b 645b 7b3c
00000090: 9dcd d8bb b7f5 6d3c a7ad d43c 6aeb 283c
000000a0: 4b8f 7e3b 689f 1abc f066 98bb afe7 373c
000000b0: f053 b13c a8a4 3bba f729 fb3b 1e86 5bbb
000000c0: 5a81 313d a556 9d3b 3ec3 de3b d0f7 cd3c
000000d0: bffd e9ba e72b 8f3c 193d 4d3c aac2 12bc
000000e0: 7083 8a3c 1ef6 383c 180f e0b9 8669 123d
000000f0: d1ed bb3b aa5c ab3b c12f 2f3c 89ad a83c
00000100: 34f3 2e3c ebad 963d 77cc a93a 2c5c 13bc
00000110: 7865 b7bb d0e0 953a 288f a23b e298 a73c
00000120: 8c3f 8f3b b7dd 52bd adce 9d3b e663 cf3b
00000130: f219 023d 7f41 e83b 535f b73c 9172 54bc
00000140: 87ce 78bb face 373c a634 1fbb f532 763a
00000150: 922a 7d3b e892 983a ac05 55bc 9c7f 083c
00000160: a306 173b faaf 943b cf9d a83c 0e5a 85bc
00000170: 9a3b 8b3a 5690 143c dc59 5fbb d762 1e3c
00000180: 2a22 46ba 2db6 953c 2a7c cc3c 567f a13c
00000190: b9f7 703b a7d5 1d3c bfa1 d3bb 7dc8 26bc
000001a0: 849d 16bb 41eb f83b 2ed9 003d 2beb 8b3c
000001b0: c7e0 db3b 1529 dd3b 8f2c 0bbd 62c7 08bc
000001c0: 9368 44bb 65ad d93b a9db a33c 99b3 ad3b
000001d0: f5e2 1a3c b6a0 083c 745a 81bc 0ed8 143c
000001e0: 986d 1c3a e6d6 8e3b 1824 b0ba 5ba1 69bb
000001f0: 47f9 0c3d 3108 983b b334 a3bb 2033 613b
00000200: 5ceb be3c aefe 36bc bf16 5f3b 9679 0fbb
00000210: efa0 a2bc f598 12bd dbf6 5abb d969 353b
00000220: 2cad 1d3c b4b3 7a3c be5a 31bd 323b 05bb
00000230: f8bf 37bc 97f0 23bc 7776 91bc c72c 943b
00000240: 7b6b 16bc 4c8f ddbc 31a9 3f3c 3b4a 09bd
00000250: c6e3 89bc 29fb 703b 9540 42bb 1e70 2d3c
00000260: f3f9 2e39 06ba 063c 2996 e2bc 7645 62bc
00000270: a422 32bd b28b afbd ef42 bbbc a53e 91bc
00000280: 1f02 8b3b 416a 73bb e028 3fbc c1f7 b0bc
00000290: 5d33 18bc ff1c 70bb 5d5f f4bc 1dc2 4cbb
000002a0: 7629 13bb 8580 5cbb 5d55 8bbb 2cf5 30bc
000002b0: 7edc 5d3c 8294 bb3a 4d40 22bc 0cdc d03b
000002c0: 0fef 96bc 77b4 0abc 3d6b 06bc f642 cbbc
000002d0: c154 65bc 65e8 123c 6660 d937 3924 94bc
000002e0: d541 36bc 034f 1bbc b28c 973c 3a25 b93b
000002f0: 47a1 f6bc 88dd 75bb 49a7 8f3a ba84 31bc
00000300: d031 42bc c13f 8cbd e936 163c a3b0 133a
00000310: 6912 0bbb 68b9 893b 224a 3e3b 29a5 98bc
00000320: 29cd cdbb 52f1 21bd 8322 2cbc 8a3f 2bbc
00000330: 1d8e bbbc fb6f 703b a751 16bb 7422 233c
00000340: 19ef 94bb c98a b63b 89c1 49bc 683b 2dba
00000350: 9df3 573b af6d 903d a927 1fbd 1575 f1bb
00000360: 0b58 f0bc 4b96 b23b d18d 17bc e6ca 56bc
00000370: 7b71 1abb 8c80 5cbb 2e1d 653c 98fe debb
00000380: b061 81ba 8fbc 87bc b493 053c c668 a0b9
00000390: a24c 103b 1b11 11bc 52c5 41bc d03d c9bb
000003a0: 2b86 97bc 34b4 443a 0a66 3a3b c333 62bc
000003b0: 302e a13b 29f0 8c3b 3c2b 6e3a 6ec1 d9bb
000003c0: bb91 8ebb bca3 60bc 5ca0 d5bc 7209 98bc
000003d0: 42df acba 1d7f 31bb 6581 0bbc ea6d c03a
000003e0: b2c9 1cbd 96fd 743d 6914 4d3c 5b9d d739
000003f0: 62a3 a03c 1e12 293a 6ba2 fcbc f345 4ebc
0.03138781 0.0007157176 0.027102768 -4.6276084e-05 0.01684726 0.010402703 0.0027495315 -0.003229949
0.020745363 0.010783692 -0.018389827 0.005919643 -0.012905601 0.0012752027 0.017951092 -0.023229094
0.010223201 -0.0056736264 0.008383573 0.022483705 -0.010458791 -0.0070178057 0.0027561458 0.04060842
0.03050466 0.003998532 0.05625326 0.02705638 -0.00576223 0.113581 0.06302011 0.011477982
-0.0073928637 -0.0011737519 0.0068248697 0.015341613 -0.006616308 0.014523915 0.02596171 0.010310033
0.0038842733 -0.0094374195 -0.004650943 0.011224671 0.02164647 -0.00071580196 0.0076649147 -0.0033496688
0.04333625 0.0048015886 0.006798177 0.02514258 -0.0017852111 0.017476989 0.012526774 -0.008957544
0.016908377 0.011289148 -0.00042735855 0.035745166 0.005735137 0.0052295523 0.010692538 0.02059056
0.010678101 0.07357391 0.0012954612 -0.008994143 -0.005596813 0.0011434797 0.004960913 0.020458642
0.004371589 -0.051480975 0.0048158974 0.0063290475 0.031763025 0.007087886 0.022384321 -0.012966768
-0.0037964897 0.011218781 -0.0024292856 0.00093917485 0.003863011 0.0011640461 -0.013001841 0.008331206
0.0023044727 0.0045375796 0.020583062 -0.016278293 0.0010622621 0.0090676155 -0.003408066 0.00966712
-0.00075581914 0.018275345 0.02496155 0.019714039 0.0036768748 0.009633458 -0.0064584906 -0.010179636
-0.002298207 0.007596404 0.03145712 0.01707991 0.006710145 0.006749282 -0.03397804 -0.008348318
-0.0029969558 0.0066429847 0.020002203 0.0053009507 0.009453525 0.008339098 -0.015790202 0.009084715
0.00059672585 0.004359114 -0.0013438491 -0.0035649154 0.034417417 0.0046396484 -0.0049806475 0.0034362748
0.023305587 -0.011169119 0.0034040657 -0.002189254 -0.01985213 -0.035790402 -0.0033411297 0.0027681498
0.009623807 0.015301634 -0.04329943 -0.0020329473 -0.0112152025 -0.010006092 -0.017756684 0.0045219394
-0.009180899 -0.027045868 0.011698053 -0.033518057 -0.016832244 0.0036770797 -0.0029640545 0.010585813
0.00016687046 0.008223062 -0.027659493 -0.013810506 -0.043490067 -0.08571567 -0.022859065 -0.017730067
0.004242196 -0.003714219 -0.01166746 -0.021602513 -0.00928959 -0.0036638377 -0.029830629 -0.003124363
-0.0022455133 -0.003364594 -0.0042521195 -0.010800641 0.013541339 0.0014311227 -0.009903026 0.006373888
-0.018424539 -0.008465878 -0.008204279 -0.024812203 -0.013997258 0.00896654 2.5913305e-05 -0.018083679
-0.011124094 -0.009479287 0.018499706 0.0056501897 -0.0301062 -0.0037516076 0.0010959889 -0.010834867
-0.011852697 -0.068480976 0.009168365 0.0005633926 -0.002122069 0.0042030104 0.0029035886 -0.018633442
-0.0062805605 -0.03953678 -0.010506275 -0.010452161 -0.022894913 0.003668784 -0.0022936852 0.009956945
-0.004545104 0.0055707437 -0.012314209 -0.00066082785 0.0032951601 0.070521705 -0.038856182 -0.0073686936
-0.029338857 0.005450045 -0.00925012 -0.013109898 -0.0023566175 -0.0033645956 0.013984008 -0.0068052523
-0.0009871032 -0.016569404 0.008152891 -0.0003059564 0.0022018333 -0.008854176 -0.01182683 -0.006141402
-0.018496593 0.0007503659 0.0028442168 -0.013806286 0.004918836 0.0043010903 0.0009085422 -0.006645373
-0.0043508685 -0.013710912 -0.026077442 -0.018559191 -0.0013189095 -0.0027083822 -0.008514737 0.0014681194
-0.03827829 0.05981215 0.012517073 0.00041125235 0.019609157 0.0006449538 -0.030839166 -0.012589919

action_model._continuous_distribution.mu.bias f4 [4]
00000000: 9eff 2e3e 1c86 1abe 2375 d83d b7b8 f2bc
0.17089698 -0.15090221 0.10569217 -0.029629095
