results/TankLearningAI_timePunished/TankLearningAI/TankLearningAI-844941.pt (torch, 444682 bytes, 36 tensors)

network_body._body_endoder.seq_layers.0.weight f4 [128, 6]
0	0x3d775ac1	0.060389284
1	0xbdfb5ead	-0.12273917
2	0xbf263a37	-0.6493258
3	0x3ced5d8b	0.028975269
4	0x3e88149f	0.26578233
5	0x3f03f062	0.5153867
6	0x3ea6fdfe	0.32615656
7	0x3f0df31e	0.5544909
8	0x3e679a0e	0.22617361
9	0xbc4840ea	-0.012222508
10	0xbea4e7ef	-0.322082
11	0x3ecf08e5	0.40436473
12	0x3d11719f	0.03550875
13	0xbe028684	-0.12746626
14	0x3f8cef8b	1.1010603
15	0xbeb104b6	-0.34573907
16	0x3ec050d5	0.3756167
17	0x3efab620	0.48967075
18	0x3ede5f17	0.43431923
19	0xbe7e14ea	-0.24812666
20	0x3f0e7449	0.5564619
21	0xbbf11504	-0.0073572416
22	0x3ebf13a2	0.37319666
23	0xbac396c5	-0.0014922252
24	0x3e94ba2a	0.29048282
25	0xbdf84576	-0.121226236
26	0x3e44cdee	0.19219181
27	0x3e48a7ac	0.19595212
28	0x3f37eab9	0.71842533
29	0xbea055bf	-0.3131542
30	0x3f7757bc	0.9661825
31	0x3e42be6e	0.19017956
32	0x3e1c9271	0.15290238
33	0xbe119fe6	-0.14221153
34	0xbef9007d	-0.48633185
35	0x3dd14343	0.10217907
36	0xbe688199	-0.22705688
37	0xbe1c6a19	-0.15274848
38	0x3eef5a99	0.46748808
39	0xbf80a1bb	-1.0049356
40	0x3ee2cde0	0.44297695
41	0x3f09aaa5	0.5377601
42	0xbe71d40d	-0.23616047
43	0xbf1f308c	-0.6218345
44	0xbcd23488	-0.025659814
45	0xbf0ead81	-0.55733496
46	0xbf14bc84	-0.5810015
47	0xbe9026fe	-0.2815475
48	0x3e1691c2	0.1470404
49	0x3f1a13da	0.6018654
50	0xbde0856a	-0.10962947
51	0xbee38ff4	-0.44445765
52	0x3e693660	0.22774649
53	0x3e917c5a	0.28415185
54	0x3f211bf4	0.6293328
55	0x3f1a3b59	0.6024681
56	0xbdec02fd	-0.115240075
57	0x3d0b185b	0.033958774
58	0x3e29c789	0.16580023
59	0xbe240931	-0.16019131
60	0x3e1d7f4d	0.15380593
61	0xbeb99fe4	-0.362548
62	0xbee30987	-0.44343206
63	0xbdc543e0	-0.09632087
64	0x3f1bc4aa	0.6084696
65	0x3e279f4c	0.1636936
66	0x3e864490	0.26224184
67	0xbec9b224	-0.39393723
68	0x3d8f1aba	0.069875196
69	0x3e43482a	0.19070497
70	0xbe119f22	-0.1422086
71	0xbce9c3ed	-0.028535808
72	0x3ea351c0	0.31898308
73	0x3c10117a	0.008793229
74	0xbead738e	-0.33877224
75	0xbe616555	-0.22011311
76	0xbe03f659	-0.12886943
77	0x3db2a5b5	0.08723012
78	0xbcce4d35	-0.0251833
79	0x3d7e4721	0.062079553
80	0x3e71e77e	0.23623464
81	0xbe77a524	-0.2418409
82	0xbe4a623a	-0.19764033
83	0x3e984554	0.29740393
84	0x3e9033d0	0.2816453
85	0x3eca81bc	0.39552104
86	0x3ea287bd	0.31744185
87	0xbf0df041	-0.55444723
88	0xbef1214e	-0.47095722
89	0xbe84ad32	-0.25913388
90	0x3ef8047e	0.48440927
91	0x3ea5f3bf	0.32412526
92	0xbc94a714	-0.018146075
93	0x3f5a4d9e	0.85274684
94	0x3e6afe82	0.2294865
95	0x3e596fd1	0.21234061
96	0x3e37a0a2	0.1793237
97	0xbeaf1c28	-0.3420117
98	0x3cc0b5fc	0.023524277
99	0xbce78496	-0.028261464
100	0x3ce58ed7	0.028022213
101	0xbedb9d2e	-0.42893356
102	0x3da5e5e6	0.0810049
103	0x3ef8ef2f	0.48619983
104	0x3ebc9823	0.3683482
105	0xbeb92dae	-0.36167663
106	0x3f8cbf85	1.0995947
107	0xbe909306	-0.2823717
108	0x3e860110	0.26172686
109	0xbedb5e89	-0.42845562
110	0x3ebe5402	0.37173468
111	0xbed07ab2	-0.4071861
112	0xbe01adbc	-0.1266393
113	0x3eba8895	0.3643233
114	0xbe3b6f28	-0.18304121
115	0xbf514b50	-0.8175554
116	0x3e36f5a1	0.17867137
117	0x3edbf3c2	0.4295941
118	0x3f577a86	0.8417133
119	0xbe6b2402	-0.22962955
120	0x3eda98ea	0.4269479
121	0xbed4d682	-0.41569906
122	0xbcc219d7	-0.023693962
123	0x3f0bf945	0.5467723
124	0x3ecfdede	0.40599722
125	0x3e9b5fb3	0.3034645
126	0xbd2f0dfe	-0.042737953
127	0xbea6f760	-0.32610607
128	0x3d6033c0	0.054736853
129	0xbf71ee09	-0.9450384
130	0xbe64eb2e	-0.22355339
131	0xbe75ed7b	-0.24016373
132	0x3ef90c93	0.48642406
133	0xbf0f6d57	-0.56026214
134	0xbeb9fe70	-0.36326933
135	0x3dc7c6d3	0.097547196
136	0xbd82eb8f	-0.063925855
137	0xbea74043	-0.32666215
138	0xbd92587f	-0.071457855
139	0x3dfabfeb	0.12243637
140	0xbc0fac60	-0.008769125
141	0xbf927f88	-1.144517
142	0xbe8f5f4e	-0.280024
143	0xbecd2720	-0.40068913
144	0x3e265704	0.16244131
145	0x3e82c8b0	0.25543737
146	0x3cefeabc	0.029286735
147	0xbd929ff9	-0.071594186
148	0xbe7ff9ae	-0.24997589
149	0xbdd97642	-0.10618259
150	0xbd273e6c	-0.040831015
151	0xbe52ce63	-0.20586543
152	0xbdb8c6e2	-0.09022309
153	0xbedeaa24	-0.43489182
154	0x3e50a07c	0.2037372
155	0x3f23bf34	0.6396363
156	0xbdd3d7f1	-0.10343922
157	0x3ec95252	0.39320618
158	0x3f0a8525	0.5410941
159	0xbf1be012	-0.6088878
160	0x3d13113d	0.03590511
161	0x3bcfaaad	0.006337485
162	0x3ebf3ac1	0.37349513
163	0x3e940c1e	0.28915495
164	0xbdf4041e	-0.11914848
165	0x3f4cb5b7	0.79964775
166	0x3ea547c7	0.32281324
167	0xbeb427ca	-0.35186607
168	0x3e21ea10	0.15811944
169	0xbeba34cb	-0.36368403
170	0xbe650b7b	-0.2236766
171	0x3ec275f6	0.37980622
172	0xbee03478	-0.4379003
173	0x3eeecb45	0.46639457
174	0x3d5832a6	0.052782677
175	0xbeecc93a	-0.46247274
176	0xbe19b277	-0.15009485
177	0x3df1065f	0.11768793
178	0xbed5f732	-0.41790158
179	0x3edcaf28	0.43102384
180	0x3e7a38eb	0.24435775
181	0xbf59c357	-0.8506369
182	0xbebdbff9	-0.37060526
183	0x3eb0e062	0.3454619
184	0xbd93e811	-0.072219975
185	0xbd019c44	-0.031643167
186	0x3e9c9ea9	0.30589798
187	0x3f02dc7d	0.5111769
188	0xbe35c01f	-0.1774907
189	0x3e53d717	0.20687519
190	0x3dbadec0	0.091245174
191	0xbf03d4a4	-0.5149634
192	0xbe9ff5d6	-0.31242245
193	0x3ef774d4	0.4833132
194	0x3e81f1c4	0.25379765
195	0xbe2ffcea	-0.17186323
196	0xbf24fa84	-0.64444757
197	0x3eb032de	0.3441381
198	0x3f0f3f18	0.5595565
199	0xbe42e1b9	-0.19031419
200	0x3f43bceb	0.7646014
201	0x3e0dd329	0.13850082
202	0xbed4bddf	-0.4155111
203	0x3e178a2e	0.14798805
204	0x3e7cefe6	0.24700889
205	0x3e272174	0.16321355
206	0xbf07b634	-0.53012395
207	0x3f5f4d21	0.87227064
208	0x3b84d1a9	0.0040533138
209	0x3effd31c	0.4996575
210	0x3e59bb3e	0.21262833
211	0xbf2325ba	-0.6372944
212	0xbf8096b2	-1.0045989
213	0x3e1c0033	0.15234451
214	0xbf0c0fa9	-0.54711396
215	0xbc48580b	-0.012228022
216	0x3f07d9c1	0.5306664
217	0x3ec249e4	0.37947
218	0x3e7f8fc9	0.24957193
219	0xbf2a76d4	-0.6658757
220	0xbed08add	-0.40730944
221	0x3de1b9da	0.110217765
222	0x3dbf9548	0.09354645
223	0xbe0cbafc	-0.13743204
224	0xbf156d06	-0.5836948
225	0xbeeef4d6	-0.4667117
226	0xbe89d0c6	-0.26917094
227	0xbf46d453	-0.7766773
228	0x3e169831	0.14706494
229	0xbf594bc0	-0.8488121
230	0xbdab4b12	-0.08363928
231	0xbdab2083	-0.083558105
232	0x3f17e659	0.5933586
233	0xbebeac6e	-0.37240928
234	0xbf003423	-0.50079554
235	0xbe3b7cf6	-0.18309388
236	0x3e372262	0.1788421
237	0xbe0e4fd1	-0.13897635
238	0xbdf677ce	-0.1203457
239	0x3f239770	0.6390295
240	0x3e26fb9e	0.16306922
241	0x3e578624	0.21047264
242	0x3e381d84	0.1798001
243	0xbcc12e7a	-0.023581732
244	0x3e0e8347	0.13917266
245	0xbed176ab	-0.4091085
246	0x3e3bd423	0.18342642
247	0x3ec4efe4	0.38464272
248	0x3f513a35	0.8172944
249	0xbcec200c	-0.028823875
250	0xbc1fd610	-0.009755626
251	0xbe6e9f18	-0.23302877
252	0xbda1acb9	-0.07894272
253	0xbde31871	-0.11088646
254	0x3eb1884a	0.34674293
255	0xbcbdd351	-0.023172053

network_body._body_endoder.seq_layers.0.bias f4 [128]
0	0xbdd47df4	-0.10375586
1	0xbc48d4b1	-0.012257741
2	0xbe4a3470	-0.19746566
3	0xbbe4a3da	-0.0069775404
4	0x3ca2fa82	0.019894842
5	0x3c1d29bd	0.009592471
6	0xbf4bda43	-0.79629916
7	0xbe0793f9	-0.13240041
8	0x3c8e52cc	0.017373465
9	0xb8a66877	-7.934955e-05
10	0xbdd92e99	-0.10604591
11	0xbd054bae	-0.032542877
12	0xbbec6849	-0.00721458
13	0xbd0db2e0	-0.034594417
14	0xbcc12579	-0.023577439
15	0xbc0ad251	-0.008472995
16	0xbc8a210c	-0.016861461
17	0xbdd08ad8	-0.10182732
18	0x3c90b653	0.017665064
19	0xbd80bc54	-0.06285921
20	0xbbcd2bfb	-0.0062613464
21	0xbe9b2dc8	-0.30308366
22	0xbc606d70	-0.013697967
23	0xbd809bf4	-0.06279746
24	0xbd0b5e94	-0.034025744
25	0xbc9327bf	-0.017963288
26	0xbf29c192	-0.6631099
27	0x3a874d69	0.0010322753
28	0xbd78799a	-0.060662843
29	0x3ccf3402	0.025293354
30	0xbe59c512	-0.21266583
31	0xbbb8efe1	-0.00564383
32	0xbebb5180	-0.36585617
33	0x3d0c087a	0.03418777
34	0xbd8732e8	-0.066015065
35	0xbd297261	-0.041368846
36	0xbc18b59b	-0.009320642
37	0xba2d6096	-0.00066138187
38	0xbe789099	-0.2427391
39	0xbe094ffe	-0.13409421
40	0xbe30b994	-0.17258292
41	0x3b279560	0.0025571212
42	0xbe41b8f5	-0.18918212
43	0xbdb07b75	-0.086172976
44	0xbea99ad9	-0.33125952
45	0xbd02a717	-0.03189763
46	0xbe5ac442	-0.21363929
47	0xbe5cc53e	-0.21559617
48	0xbe4e44e0	-0.20143461
49	0xbee5690a	-0.448067
50	0xbe11511d	-0.14191099
51	0xbc9e896f	-0.019352643
52	0xbc197f9a	-0.0093688015
53	0xbdc970ce	-0.09835969
54	0xbe0539d0	-0.13010335
55	0xbdfdfea9	-0.12402088
56	0x3c150533	0.009095478
57	0xbbe3df49	-0.006954108
58	0xbcbd9de2	-0.023146573
59	0xbddf76df	-0.10911345
60	0xbca140e9	-0.019684272
61	0xbebc34cd	-0.36759034
62	0x3bdece82	0.00679952
63	0xbda58442	-0.08081867
64	0xbc059421	-0.008152992
65	0xbee055ba	-0.43815404
66	0xbe6e860d	-0.23293324
67	0xbdfe3f8a	-0.12414463
68	0xbe55db5e	-0.20884463
69	0xbb259a18	-0.002526885
70	0xbb03cbb9	-0.0020110442
71	0x3cd4afb8	0.025962695
72	0xbd73d3c6	-0.059528135
73	0xb678d2e0	-3.7077625e-06
74	0xbd18e63b	-0.03732894
75	0xbdf1d0e0	-0.11807418
76	0xbeaa71aa	-0.33289844
77	0x3ca92dd9	0.020651745
78	0x3badcf2f	0.005304239
79	0x3c225b3a	0.009909445
80	0x3c3d2849	0.011545249
81	0xba43b7fc	-0.00074660755
82	0xbeb5af89	-0.35485485
83	0xbd0fa06d	-0.035065103
84	0xbe0ace22	-0.13555196
85	0xbc34fed7	-0.011047087
86	0xbda9218a	-0.0825835
87	0xbdbf70e3	-0.09347703
88	0x3cf01dac	0.029311024
89	0xbc42798a	-0.0118697975
90	0xbe332ec0	-0.17498302
91	0xbe31c9d5	-0.17362149
92	0xbda885f8	-0.082286775
93	0xbe8c1d83	-0.27366266
94	0x3c089985	0.008337383
95	0x3c57ffaa	0.013183514
96	0x3c48df11	0.012260214
97	0xbe11f0bc	-0.14251989
98	0xbe9daba0	-0.30795002
99	0xbe8b086b	-0.2715486
100	0xbd34da37	-0.04415342
101	0xbed91e6a	-0.42406017
102	0xbde95879	-0.11393828
103	0xbd825c1c	-0.06365225
104	0x39e337b9	0.0004333833
105	0xbd35153a	-0.044209696
106	0xbd1b04ac	-0.037846252
107	0xbe79c083	-0.24389844
108	0x3b43f67b	0.0029901552
109	0xbe2fdfd8	-0.17175233
110	0xbd65cc79	-0.056103203
111	0x3b914f64	0.004434513
112	0xbe0b0335	-0.13575442
113	0xbdc061aa	-0.09393628
114	0xbe9592fd	-0.29213706
115	0xbdb3e245	-0.08783392
116	0xbe822e2d	-0.25425854
117	0xbe65a210	-0.22425103
118	0xbe07c742	-0.13259605
119	0x3c8382a5	0.016053507
120	0xbdca9445	-0.098915614
121	0xbbbb3dba	-0.0057141455
122	0xbdeabb84	-0.11461547
123	0xb672d9dd	-3.6187623e-06
124	0xbe34802d	-0.1762702
125	0xbe3dcbac	-0.18534726
126	0x3b83ced2	0.0040224576
127	0xbea36728	-0.3191464

network_body._body_endoder.seq_layers.2.weight f4 [128, 128]
0	0x3dbea575	0.09308902
1	0x3d79b647	0.06096485
2	0x3c0331ca	0.008007476
3	0xbd879653	-0.06620469
4	0xbd4de86b	-0.05027048
5	0x3e0d8fa7	0.1382433
6	0x3d126461	0.03574026
7	0x3e68565a	0.2268919
8	0x3cb33f61	0.021880807
9	0x3e22dbe8	0.159042
10	0xbdd5afd0	-0.10433924
11	0xbd8428b7	-0.06453078
12	0xbb25a228	-0.0025273655
13	0x3a97d39f	0.0011583454
14	0xbcfe4b3a	-0.03104173
15	0x3d96e22c	0.073673576
16	0x3dd7347a	0.10508056
17	0x3d00859c	0.03137742
18	0x3d20bb31	0.03924102
19	0xbd575572	-0.05257172
20	0xbcf29d09	-0.029615896
21	0x3e1403f6	0.14454636
22	0xbe61edc3	-0.22063355
23	0xbd743233	-0.059618186
24	0xbca64047	-0.020294322
25	0x3df0be8d	0.11755095
26	0xbd876002	-0.06610109
27	0xbd115c68	-0.035488516
28	0xbd9ee9e2	-0.07759453
29	0xbd0287ee	-0.031867914
30	0xbd2f9444	-0.042866006
31	0xbd86ef27	-0.065885834
32	0x3b06069c	0.0020450717
33	0x3abe074a	0.0014498022
34	0x3d90e2f3	0.07074537
35	0xbd6e7b5a	-0.058223106
36	0x3d9d8ba1	0.07692648
37	0x3c14f1d3	0.0090908585
38	0xbd58909d	-0.05287229
39	0x3d35b766	0.044364356
40	0x3d414c93	0.047192167
41	0xbde6fa7e	-0.11278246
42	0xbdba46f7	-0.09095567
43	0xbd8f042c	-0.069832176
44	0x3c3d36f4	0.011548746
45	0xbd9a842a	-0.075447395
46	0xbaac02c9	-0.0013123389
47	0x3c8bb311	0.017053159
48	0xbd2dd309	-0.042437587
49	0xbd6196ed	-0.055075575
50	0x3e6ddaa9	0.23227943
51	0x3e10f31f	0.14155243
52	0x3d601e3b	0.05471633
53	0x3d1023f1	0.035190526
54	0xbda4ddf6	-0.08050148
55	0xbe5c0a80	-0.2148838
56	0xbd5872c5	-0.052843828
57	0x3e2434bf	0.16035746
58	0x3bbee73b	0.0058259047
59	0xbd53e380	-0.051730633
60	0x3ddb6a3a	0.107136205
61	0xbd86ef22	-0.0658858
62	0xbd26dd41	-0.040738348
63	0x3d2c443d	0.042057265
64	0xbe2993d7	-0.16560303
65	0x3b877c42	0.0041346857
66	0xbcbc1eb8	-0.022963867
67	0x3dc53f56	0.09631221
68	0xbe3f4207	-0.18677531
69	0x3dcebbb1	0.10094393
70	0x3cf6f53d	0.030146236
71	0x3c8afcbe	0.01696622
72	0x3deb0de9	0.114772625
73	0xbd3e8be1	-0.046520118
74	0x3e0addd6	0.13561186
75	0x3c4aa8e8	0.012369372
76	0x3db7b7af	0.08970582
77	0xbd4bf48f	-0.049793776
78	0xbd02962c	-0.031881496
79	0xbdc6c0b2	-0.097047225
80	0xbd040b19	-0.032237146
81	0x3c842889	0.01613261
82	0xbd54873a	-0.051886775
83	0xbda23982	-0.07921125
84	0x3df2d443	0.11856892
85	0x3e139028	0.1441046
86	0xbbc393c9	-0.005968545
87	0x3cc12f2b	0.023582062
88	0xbdac2eaa	-0.08407338
89	0xbc5438b8	-0.012952976
90	0xbdae23f1	-0.08502949
91	0x3d5d436c	0.054019377
92	0xbe18ae53	-0.1491025
93	0xbd79513f	-0.060868498
94	0x3dfa8093	0.12231555
95	0xbd847f12	-0.06469549
96	0xbc1744f3	-0.009232747
97	0x3dcafc43	0.09911396
98	0x3c13abe0	0.009013146
99	0x3d42882d	0.04749315
100	0xbd12b6ca	-0.035818852
101	0x3d3ab1ba	0.04557965
102	0x3dc4166d	0.0957459
103	0x3d064abb	0.032786112
104	0x3d403bb1	0.046931926
105	0x3dc7ad6b	0.09749874
106	0x3d12a8bd	0.035805453
107	0x3d064d7d	0.032788742
108	0xbcc0cd2e	-0.023535337
109	0x3d355a4e	0.044275574
110	0xbc3e059b	-0.011598016
111	0x3d3d31c3	0.046190035
112	0xbe18653f	-0.14882372
113	0x3d02a0e5	0.031891722
114	0x3d535ad1	0.05160028
115	0xbc888311	-0.01666406
116	0xbe63dbe3	-0.22251849
117	0x3cd55ce6	0.026045274
118	0x3da26260	0.0792892
119	0x3c2dda4e	0.01061113
120	0x3ddfa688	0.10920435
121	0x3d551eb4	0.052031234
122	0x3e80fb5f	0.2519178
123	0xbb9f405e	-0.004859968
124	0xbd5efe4f	-0.054441746
125	0xbe14d3f3	-0.14533977
126	0xbd4b0234	-0.049562648
127	0xbe2b687e	-0.1673908
128	0xbd635788	-0.0555034
129	0xbd88b7f4	-0.06675711
130	0xbccd4756	-0.02505843
131	0x3e1dbd2a	0.15404192
132	0x3daab8fb	0.083360635
133	0xbd8cc692	-0.06873812
134	0x3cf7c67d	0.030246014
135	0xbd0716dd	-0.03298079
136	0xbd4844fc	-0.048893914
137	0xbdf0c610	-0.117565274
138	0x3d8628a7	0.065507226
139	0x3d388e00	0.045057297
140	0xbdf960b3	-0.12176647
141	0xbc962bbf	-0.018331407
142	0xbd5c5785	-0.053794403
143	0xbc1e805d	-0.009674159
144	0x3e311345	0.17292507
145	0x3d2eaad7	0.042643394
146	0xbe1ed324	-0.15510231
147	0xbe4a95e4	-0.19783741
148	0x3d1d1ddf	0.038358565
149	0xbcd666df	-0.0261721
150	0x3dc1a8ae	0.09456001
151	0xbe001ff5	-0.1251219
152	0xbde55d3e	-0.11199425
153	0xba429b76	-0.0007423678
154	0xbd833fc8	-0.0640865
155	0xbd5b5a84	-0.05355312
156	0xbd97cc45	-0.07412008
157	0x3d90e23a	0.07074399
158	0xbca0d9e2	-0.019635145
159	0x3be29d1c	0.0069157016
160	0xbd81d137	-0.06338733
161	0x3c25ac18	0.010111831
162	0x3d24d240	0.040239573
163	0x3c8413c0	0.016122699
164	0xbd824fac	-0.063628525
165	0x3d8a4774	0.0675191
166	0x3c2362fa	0.009972328
167	0xbcbcd243	-0.02304948
168	0xbdbe1296	-0.09280889
169	0xbc5c1b1d	-0.013434199
170	0x3da023a7	0.078193
171	0xbd8306bf	-0.06397771
172	0x3c87d0e7	0.016579105
173	0xbd60e547	-0.054906156
174	0xbd5cd106	-0.053910278
175	0x3d229f0e	0.039702468
176	0xbc7e2994	-0.015512843
177	0xbe04b94d	-0.12961312
178	0x3d99ebb3	0.07515659
179	0x3d5f6016	0.054534994
180	0xbddbf183	-0.10739424
181	0x3bee0581	0.0072638397
182	0x3d802d8d	0.06258688
183	0xbd978bde	-0.073997244
184	0x3d96e1d6	0.073672935
185	0xbd850085	-0.0649424
186	0xbd438f08	-0.047743827
187	0x3d0ad95c	0.033898696
188	0xbc86bec9	-0.016448395
189	0x3d464884	0.048409
190	0x3dcbcdb0	0.09951341
191	0xbd800367	-0.06250649
192	0x3dbfa71e	0.09358047
193	0xbe1c8342	-0.15284446
194	0xbb8e8a8c	-0.004350012
195	0xbc9e736e	-0.01934215
196	0x3de9eccc	0.114221185
197	0xbda0f46d	-0.078591205
198	0xbda00630	-0.0781368
199	0x3db6076b	0.088881336
200	0xbc0886ff	-0.008332967
201	0x3d191011	0.037368838
202	0xbdfb7a25	-0.122791566
203	0x3d5ad9b9	0.053430293
204	0xbda3d01c	-0.07998678
205	0xbdd7a32f	-0.10529172
206	0xbdc0c774	-0.09413043
207	0xbd7deded	-0.06199448
208	0x3e034fe1	0.1282344
209	0x3d0cf73a	0.03441546
210	0xbe371e19	-0.17882575
211	0x3d959898	0.073044956
212	0x3d55ac50	0.052166283
213	0xbcc824d4	-0.024431624
214	0xbd8c5eca	-0.06854017
215	0x3d5a5cf1	0.053311292
216	0xbe1d493a	-0.15359965
217	0x3c4d81a6	0.012543118
218	0xbe6f1cd7	-0.23350845
219	0x3d2420f7	0.0400705
220	0xbd6f2c2c	-0.058391735
221	0x3d4e3a06	0.050348304
222	0x3cec40d7	0.028839512
223	0x3e8574a7	0.2606556
224	0x3e0fea0c	0.14054126
225	0xbda1ce3c	-0.07900664
226	0xbd10d771	-0.03536171
227	0xbd98a179	-0.074526735
228	0x3e02a270	0.12757277
229	0x3d911dcc	0.070857614
230	0xbd3a8ca2	-0.045544274
231	0xbe192e47	-0.1495906
232	0xbe0d6bcb	-0.13810651
233	0x3d4346ab	0.047674816
234	0xbe0f2942	-0.13980582
235	0xbca86793	-0.0205572
236	0xbe39439d	-0.18092199
237	0x3ddc11ce	0.107455835
238	0xbd907139	-0.070528455
239	0xbd4ad1f0	-0.04951662
240	0x3e136d3c	0.14397138
241	0xbd00c741	-0.031440023
242	0x3d54c5bc	0.051946387
243	0xbbc6a459	-0.0060620722
244	0xbd67aaba	-0.056559302
245	0xbc8cf144	-0.017204888
246	0xbdee60e2	-0.11639573
247	0xbd09dc0a	-0.03365711
248	0xbe01fd0d	-0.12694187
249	0xbdb8eb67	-0.090292744
250	0xbcd414b2	-0.025888775
251	0xbaeb9a31	-0.001797503
252	0x3e4e47c5	0.20144565
253	0xbe1c8adb	-0.15287344
254	0xbdbe34bc	-0.09287402
255	0x3d83d713	0.064375065

network_body._body_endoder.seq_layers.2.bias f4 [128]
0	0xbd32cfd8	-0.043655246
1	0xbc69f6f0	-0.014280066
2	0xbb62cf2c	-0.0034608347
3	0xbc8e4511	-0.017366918
4	0xbd2d9fa2	-0.042388566
5	0xbc19e5f0	-0.0093932
6	0xbd5d1c6c	-0.053982183
7	0xbcc75e5e	-0.02433699
8	0xbd035300	-0.032061577
9	0xbc63dd35	-0.01390772
10	0xbd6c9dca	-0.057767667
11	0xbd079d49	-0.033108983
12	0xbcd8652e	-0.026415434
13	0xbd2c9617	-0.042135324
14	0xbd370203	-0.044679653
15	0xbd7a8674	-0.06116338
16	0xbc5e4516	-0.013566276
17	0xbd1357c1	-0.03597236
18	0xbbc817ac	-0.0061063375
19	0x3b77b18b	0.0037795033
20	0xbd2f0410	-0.042728484
21	0xbd9bd176	-0.07608311
22	0xbce1067a	-0.027468909
23	0xbcdece9c	-0.027198128
24	0xbc77ae47	-0.015117235
25	0xbcc2ff8f	-0.0238035
26	0xbd74cdc8	-0.05976656
27	0xbd0c3fe5	-0.034240622
28	0xbd172700	-0.036902428
29	0x3c33e547	0.010979957
30	0xbc4916c4	-0.012273494
31	0xbc8b1397	-0.016977115
32	0xbca896d2	-0.02057973
33	0xbd22bb30	-0.039729297
34	0xbca86dd9	-0.020560192
35	0xbc97194a	-0.018444676
36	0xbcb3900f	-0.021919278
37	0xbc82cb75	-0.015966156
38	0xbd5be941	-0.053689245
39	0xbd1f81ed	-0.038942266
40	0xbd1c19bd	-0.038110483
41	0xbd8004fb	-0.0625095
42	0xbd12c0cb	-0.035828393
43	0xbd0d31d5	-0.03447135
44	0xbc623474	-0.013806451
45	0xbcaad986	-0.020855676
46	0xbc59e149	-0.013298341
47	0xbc4d177f	-0.012517809
48	0xbd17dff7	-0.037078824
49	0xbccfda08	-0.02537252
50	0xbcfefd21	-0.03112656
51	0xbb8ae877	-0.0042391378
52	0xbcc19957	-0.023632688
53	0xbd215b81	-0.039393906
54	0xbcee367c	-0.029078715
55	0xbc5fc570	-0.013657913
56	0xbc470d9b	-0.01214924
57	0xbd5fd438	-0.054645747
58	0xbd08e476	-0.033421002
59	0x3aab15e2	0.0013052786
60	0xbd970534	-0.07374039
61	0xbcbe71f0	-0.023247689
62	0xbd3bc740	-0.045844316
63	0xbc1798f6	-0.009252777
64	0xbcb8ec01	-0.022573473
65	0xbc5b0780	-0.013368487
66	0xbd08480c	-0.033271834
67	0xbc9ccb3d	-0.01913988
68	0xbc71cef7	-0.014758817
69	0xbbb35763	-0.005473064
70	0xbd0afa74	-0.033930257
71	0xbcfbfb6b	-0.030759534
72	0xbcd28058	-0.025695965
73	0xbdabcecc	-0.08389053
74	0xbcbf53be	-0.023355361
75	0xbcacf9d0	-0.021115214
76	0xbd239525	-0.039937157
77	0xbcafcf56	-0.02146117
78	0xb9b06404	-0.00033643853
79	0xbcb3eea9	-0.021964388
80	0xbcf5c642	-0.030001763
81	0xbca4580b	-0.020061513
82	0xbcd4c549	-0.02597298
83	0xbc84049a	-0.016115475
84	0xbc74e006	-0.0149459895
85	0xbd27abbd	-0.040935267
86	0xbcbbb1cc	-0.022911929
87	0xbcc69207	-0.024239553
88	0xb930de47	-0.00016867473
89	0xbd105185	-0.035233993
90	0xbc5a75f3	-0.013333785
91	0xbda0f9d6	-0.078601524
92	0xbd1febc4	-0.039043203
93	0xbc919a7a	-0.017773855
94	0xbc93ad8e	-0.018027093
95	0xbcfa4146	-0.030548703
96	0xbd0eb0aa	-0.03483645
97	0xbcd90c62	-0.026495162
98	0xba17abfb	-0.000578582
99	0xbd81307d	-0.063080765
100	0xbcd913d3	-0.02649871
101	0xbca7c2da	-0.020478655
102	0xbd10925f	-0.03529584
103	0xbbd120f9	-0.0063821045
104	0xbd3ba90b	-0.04581551
105	0xbc851aa0	-0.016248047
106	0xbd184cfa	-0.037182786
107	0xbd07290c	-0.03299813
108	0xbc23f8ab	-0.0100080175
109	0xbcaac136	-0.020844083
110	0xbb15193d	-0.002275064
111	0xbb7bfc2b	-0.0038449864
112	0xbd000604	-0.031255737
113	0xbcc1f762	-0.023677532
114	0x3b56de5a	0.003278634
115	0xbd389c13	-0.04507072
116	0xbd283be0	-0.041072726
117	0xbcf6a172	-0.03010628
118	0xbcad37fd	-0.021144861
119	0xbd086a34	-0.03330441
120	0xbcf29ab8	-0.029614791
121	0xbd05c4c0	-0.03265834
122	0xbc8f5b41	-0.017499568
123	0xbbf9bb6e	-0.0076212203
124	0xbbc32944	-0.005955847
125	0xbd06979e	-0.032859437
126	0x3b5d0d9a	0.003373003
127	0xbd5ba83a	-0.05362723

action_model._continuous_distribution.log_sigma f4 [1, 4]
0	0xbf5d9492	-0.86554825
1	0xbf699ca1	-0.9125462
2	0xbf88802a	-1.0664113
3	0xbfafa7ad	-1.3723046

action_model._continuous_distribution.mu.weight f4 [4, 128]
0	0x3c8bb7b5	0.017055372
1	0x3a3b9eff	0.0007157176
2	0x3cde06a0	0.027102768
3	0xb83b1b0d	-4.4609467e-05
4	0x3c8a043a	0.016847719
5	0x3c2a7019	0.010402703
6	0x3b34317c	0.0027495315
7	0xbb5385d2	-0.0032275808
8	0x3ca9f229	0.020745354
9	0x3c30ae15	0.010783692
10	0xbc96b77d	-0.01839804
11	0x3bc1f991	0.005919643
12	0xbc537204	-0.012905601
13	0x3aa724b4	0.0012752027
14	0x3c92f479	0.01793884
15	0xbcbe01b2	-0.023194168
16	0x3c277ea4	0.010223065
17	0xbbb9e9d4	-0.0056736264
18	0x3c135640	0.008992732
19	0x3cb856ae	0.02250227
20	0xbc2b5b59	-0.010458791
21	0xbbe5f59f	-0.0070178057
22	0x3b411755	0.002946337
23	0x3d265542	0.040608652
24	0x3cfb55be	0.030680533
25	0x3b83061e	0.003998532
26	0x3d666bc2	0.05625511
27	0x3cdda557	0.02705638
28	0xbbbcc06e	-0.005760244
29	0x3de1914e	0.11014043
30	0x3d811a27	0.06303816
31	0x3c3c18c9	0.011480519
32	0xbbe59890	-0.0070067123
33	0xba99d48b	-0.0011736316
34	0x3be47550	0.0069719926
35	0x3c7b7881	0.015348555
36	0xbbd8cd9a	-0.0066163065
37	0x3c6df5b5	0.014523913
38	0x3cd4ada7	0.02596171
39	0x3c28eb6a	0.010310033
40	0x3b7e8f4b	0.0038842733
41	0xbc1a9f68	-0.0094374195
42	0xbb9866f0	-0.004650943
43	0x3c37e7af	0.011224671
44	0x3cb153ed	0.021646464
45	0x3a246f0c	0.0006272651
46	0x3bfbf4f4	0.007689113
47	0xbb03d25c	-0.0020114398
48	0x3d31815a	0.04333625
49	0x3b9d56a5	0.0048015886
50	0x3bdecd9b	0.0067994124
51	0x3cce566a	0.02518769
52	0xbae9e571	-0.0017844868
53	0x3c8f2be7	0.017476989
54	0x3c4d3d29	0.012526789
55	0xbc12c0f1	-0.008957134
56	0x3c8ad1a3	0.016945666
57	0x3c38f61e	0.011289148
58	0xb9e00f1c	-0.00042735867
59	0x3d12bf52	0.03582699
60	0x3bb14423	0.005409734
61	0x3bab5caa	0.0052295523
62	0x3c2f2fc1	0.010692538
63	0x3ca8ac60	0.020590007
64	0x3c2ef357	0.010678134
65	0x3d9520be	0.07281636
66	0x3aa9cc77	0.0012954612
67	0xbc135c2c	-0.008994143
68	0xbbb76578	-0.005596813
69	0x3a95e0d0	0.0011434797
70	0x3ba28f28	0.004960913
71	0x3ca7ad8a	0.020468492
72	0x3b8f3f8c	0.004371589
73	0xbd52ddb7	-0.051480975
74	0x3b9e1de5	0.004825341
75	0x3bcf63e6	0.0063290475
76	0x3d021a00	0.031763077
77	0x3be88965	0.007096457
78	0x3cb74aa2	0.022374455
79	0xbc547291	-0.012966768
80	0xbb78cdcf	-0.0037964468
81	0x3c37cefa	0.011218781
82	0xbb1eb903	-0.0024219162
83	0x3a7632f5	0.00093917485
84	0x3b7d2abc	0.0038630208
85	0x3c495ac4	0.012289707
86	0xbc5505ac	-0.013001841
87	0x3c087f9c	0.008331206
88	0x3b1706a3	0.0023044727
89	0x3b94affa	0.0045375796
90	0x3cb7b240	0.022423863
91	0xbc855a0e	-0.016278293
92	0x3b317264	0.0027076239
93	0x3c14ade9	0.009074667
94	0x3b840780	0.0040292144
95	0x3c1e62d7	0.00966712
96	0x3aa3ae7b	0.0012487912
97	0x3c95bbc2	0.018278006
98	0x3ccc8b3d	0.024968738
99	0x3ca1867f	0.019717453
100	0x3b70f7df	0.0036768836
101	0x3c1dd664	0.009633634
102	0xbbd3a1bf	-0.0064584906
103	0xbc256403	-0.010094645
104	0xbb169d84	-0.002298207
105	0x3bf8eeed	0.0075968415
106	0x3d00d98d	0.031457473
107	0x3c8beb2b	0.01707991
108	0x3bdbe49d	0.0067106024
109	0x3bdd947a	0.0067620846
110	0xbd0b44f3	-0.034001302
111	0xbc07ce97	-0.008289001
112	0xbb446863	-0.0029969446
113	0x3bd9adf4	0.0066430513
114	0x3ca3dba9	0.020002203
115	0x3badb399	0.0053009507
116	0x3c1e39f0	0.009657368
117	0x3c08a0eb	0.008339147
118	0xbc815a74	-0.015790202
119	0x3c14d938	0.009084992
120	0x3a32167d	0.0006793512
121	0x3b67eeb3	0.0035390079
122	0xbab01b83	-0.0013435934
123	0xbb699bbc	-0.0035645803
124	0x3d0cf9f9	0.03441808
125	0x3ba5ad54	0.0050560627
126	0xbba334b3	-0.0049806475
127	0x3b613320	0.0034362748
128	0x3ccfe7cc	0.025379084
129	0xbc36feae	-0.011169119
130	0x3b5f16bb	0.0034040648
131	0xbb0f8ba2	-0.0021903296
132	0xbca2a242	-0.019852761
133	0xbd1298f5	-0.035790402
134	0xbb5af6db	-0.0033411297
135	0x3b355d47	0.0027674006
136	0x3c1dacf9	0.009623759
137	0x3c7ab3b4	0.015301634
138	0xbd314350	-0.043277085
139	0xbb053b34	-0.0020329477
140	0xbc37bff8	-0.0112152025
141	0xbc23f097	-0.010006092
142	0xbc9257cb	-0.017864129
143	0x3b8fd6c9	0.004389618
144	0xbc166aab	-0.009180705
145	0xbcdd8f4c	-0.027045868
146	0x3c3da76c	0.011575561
147	0xbd095ca3	-0.03353561
148	0xbc89e3c6	-0.016832244
149	0x3b70fb29	0.0036770797
150	0xbb445018	-0.0029954966
151	0x3c2d0946	0.010561293
152	0xb7789ec6	-1.4818919e-05
153	0x3c06ba06	0.008223062
154	0xbce296f9	-0.02765988
155	0xbc624576	-0.013810506
156	0xbd3220c4	-0.04348828
157	0xbdb12c75	-0.08651058
158	0xbcbb56ba	-0.022868503
159	0xbc9141d7	-0.01773159
160	0x3b77698c	0.003775212
161	0xbb736ae5	-0.0037142572
162	0xbc3ff8c2	-0.011717023
163	0xbcb0ecc6	-0.021597277
164	0xbc18335d	-0.00928959
165	0xbb701d38	-0.003663851
166	0xbcf45f5d	-0.029830629
167	0xbb4cc205	-0.0031243574
168	0xbb132976	-0.0022455133
169	0xbb5c8085	-0.003364594
170	0xbb8b555d	-0.0042521195
171	0xbc30f52c	-0.010800641
172	0x3c5ddcd3	0.013541418
173	0x3b21d3ae	0.0024692821
174	0xbc22c91a	-0.009935642
175	0x3be95f0c	0.007121926
176	0xbc96ef0f	-0.018424539
177	0xbc0ab477	-0.008465878
178	0xbc066383	-0.008202436
179	0xbccb0786	-0.02478386
180	0xbc65563b	-0.01399761
181	0x3c12e865	0.00896654
182	0x37d6b3fe	2.5594603e-05
183	0xbc942434	-0.01808367
184	0xbc36e66a	-0.011163333
185	0xbc1b4f03	-0.009479287
186	0x3c978cb2	0.018499706
187	0x3bb94954	0.0056544933
188	0xbcf0d743	-0.02939952
189	0xbb75dd88	-0.0037516076
190	0x3a8fa749	0.0010959889
191	0xbc317cad	-0.010832948
192	0xbc4231c7	-0.011852688
193	0xbd915707	-0.07096677
194	0x3c1636e9	0.009168365
195	0x3a13b0a3	0.0005633926
196	0xbb0b1269	-0.002122069
197	0x3b89b968	0.0042030104
198	0x3b3e4a22	0.0029035886
199	0xbc98baa6	-0.018643688
200	0xbbcdcd29	-0.0062805605
201	0xbd21f152	-0.03953678
202	0xbc2c2b7f	-0.010508417
203	0xbc2b3f8a	-0.010452161
204	0xbcbb8e2f	-0.022894947
205	0x3b726360	0.0036985502
206	0xbb15f0ea	-0.0022879192
207	0x3c232274	0.009956945
208	0xbb94ef30	-0.004545115
209	0x3bb68ac9	0.0055707437
210	0xbc49c8fa	-0.012315983
211	0xba2d3b68	-0.00066082785
212	0x3b57f36b	0.0032951485
213	0x3d54aeea	0.051924624
214	0xbd1f27a9	-0.038856182
215	0xbbf1751a	-0.007368696
216	0xbcf0580b	-0.029338857
217	0x3bb2964b	0.005450045
218	0xbc1ffa50	-0.009764269
219	0xbc56cae6	-0.013109898
220	0xbaf7ecdb	-0.0018915193
221	0xbb5c9e11	-0.003366355
222	0xb8acef8e	-8.24622e-05
223	0xbbdefe79	-0.006805238
224	0x3a8cf51b	0.00107542
225	0xbc87bc5f	-0.016569315
226	0x3c057d92	0.008147614
227	0xb99f4cbe	-0.0003038402
228	0x3b104c7f	0.0022018251
229	0xbc1110f1	-0.008854137
230	0xbc41c552	-0.01182683
231	0xbbcb3593	-0.006201455
232	0xbc97862b	-0.018496593
233	0x3a44adbd	0.00075026957
234	0x3b3a639b	0.0028440717
235	0xbc6233c3	-0.013806286
236	0x3ba1259c	0.0049178135
237	0x3b8cbf6a	0.0042952793
238	0x3a7c352b	0.000962096
239	0xbbda85ad	-0.0066687674
240	0xbb8e90e3	-0.004350768
241	0xbc60a40a	-0.013710985
242	0xbcd5a05c	-0.026077442
243	0xbc980972	-0.018559191
244	0xbaa998c4	-0.0012939204
245	0xbb318017	-0.0027084404
246	0xbc0b8165	-0.008514737
247	0x3ac06a4f	0.001468012
248	0xbd1bfa8c	-0.038080737
249	0x3c1f81db	0.00973555
250	0x3c4d0f19	0.012515807
251	0x39d7691d	0.0004108631
252	0x3ca0aea2	0.019614521
253	0x3a3344ee	0.00068385794
254	0xbcfca26b	-0.030839166
255	0xbc4e45f3	-0.012589919

action_model._continuous_distribution.mu.bias f4 [4]
0	0x3e2a4426	0.16627559
1	0xbe1a5ace	-0.15073702
2	0x3dd48bda	0.10378237
3	0xbd0aba4d	-0.033869077

exp_avg f4 [128, 6]
0	0x39e9f752	0.0004462549
1	0x00000000	0.0
2	0x378b998e	1.6641596e-05
3	0xb8d4ca3a	-0.000101466154
4	0x2d0f01de	8.1290235e-12
5	0x374f7c72	1.2367136e-05
6	0x9e36ba3b	-9.673511e-21
7	0x00000000	0.0
8	0x9bda0e06	-3.6074137e-22
9	0x1d26a317	2.2054233e-21
10	0x915f959c	-1.76377e-28
11	0x9ba36c14	-2.7035932e-22
12	0xae8ca5e9	-6.3959345e-11
13	0x00000000	0.0
14	0xac27d710	-2.385151e-12
15	0x2d66aeb8	1.3112782e-11
16	0xa171ee6e	-8.1969535e-19
17	0x2c0a5479	1.9657871e-12
18	0x154cdd92	4.137226e-26
19	0x00000000	0.0
20	0x12f47914	1.5428413e-27
21	0x943aab20	-9.424349e-27
22	0x087a70ac	7.5364084e-34
23	0x12b5cf74	1.1473847e-27
24	0xa8589d94	-1.2024578e-14
25	0x00000000	0.0
26	0xa6013f50	-4.484167e-16
27	0x27450c2e	2.7345845e-15
28	0x9b8466ea	-2.1904075e-22
29	0xa5c00dba	-3.3315992e-16
30	0x80000004	-6e-45
31	0x00000000	0.0
32	0x80000004	-6e-45
33	0x00000004	6e-45
34	0x00000004	6e-45
35	0x00000004	6e-45
36	0x398a2f56	0.0002635668
37	0x00000000	0.0
38	0x3724e69a	9.828853e-06
39	0xb87b942c	-5.998106e-05
40	0x2ca8ecf5	4.8011547e-12
41	0x36f5382d	7.3081087e-06
42	0xbd6fa64e	-0.05850821
43	0x00000000	0.0
44	0xbb0efdb3	-0.0021818697
45	0x3c5a5b04	0.013327364
46	0xb0927b28	-1.0657901e-09
47	0xbad4aa4c	-0.0016225069
48	0x2803c373	7.314342e-15
49	0x00000000	0.0
50	0x259d3ce1	2.7276412e-16
51	0xa6f05a8e	-1.667789e-15
52	0x1b219855	1.3366829e-22
53	0x25708215	2.0860755e-16
54	0x06231991	3.0675676e-35
55	0x00000000	0.0
56	0x03c2a1f6	1.143948e-36
57	0x8514550c	-6.974547e-36
58	0x0000018d	5.56e-43
59	0x039097c5	8.498404e-37
60	0x2db91414	2.1040981e-11
61	0x00000000	0.0
62	0x2b5cdc49	7.846541e-13
63	0xacaae8da	-4.8575423e-12
64	0x20e245c6	3.8332061e-19
65	0x2b259b89	5.8835624e-13
66	0x2a599034	1.9323502e-13
67	0x00000000	0.0
68	0x2801d01c	7.206065e-15
69	0xa945e933	-4.3945055e-14
70	0x1d84fb3c	3.519988e-21
71	0x27c0e922	5.354347e-15
72	0x1e5ca3aa	1.1680548e-20
73	0x00000000	0.0
74	0x1c03a5ed	4.355872e-22
75	0x9d48d748	-2.6581077e-21
76	0x1186dc97	2.1277421e-28
77	0x1bc3b66f	3.237794e-22
78	0xba6d6552	-0.00090559304
79	0x00000000	0.0
80	0xb80da56f	-3.377109e-05
81	0x3958322b	0.00020618054
82	0xad911a82	-1.6496363e-11
83	0xb7d2a236	-2.5109486e-05
84	0x172d2902	5.5951074e-25
85	0x00000000	0.0
86	0x14cea353	2.0865104e-26
87	0x961e0cdf	-1.27672e-25
88	0x0a53ae7e	1.0192099e-32
89	0x1499d868	1.5534409e-26
90	0x22a1846f	4.3779357e-18
91	0x00000000	0.0
92	0x2040be7c	1.6326059e-19
93	0xa193c312	-1.0012742e-18
94	0x15c572da	7.974887e-26
95	0x200f8cf8	1.2159214e-19
96	0x2e81ac10	5.896805e-11
97	0x00000000	0.0
98	0x2c1abdfb	2.1990177e-12
99	0xad6bc109	-1.3401066e-11
100	0x219e84ea	1.0741679e-18
101	0x2be5da8d	1.6332089e-12
102	0xae8131b9	-5.875073e-11
103	0x00000000	0.0
104	0xac1a2c02	-2.1909146e-12
105	0x2d6b35de	1.3370164e-11
106	0xa19def5b	-1.0702091e-18
107	0xabe52a4d	-1.628317e-12
108	0x9b34008a	-1.4889425e-22
109	0x00000000	0.0
110	0x98d6cd7d	-5.5525194e-24
111	0x1a1e16de	3.2692106e-23
112	0x8e468e37	-2.4473858e-30
113	0x97c12e04	-1.2483949e-24
114	0x3d330c37	0.04371282
115	0x00000000	0.0
116	0x3ad5a9eb	0.001630125
117	0xbc22f4fe	-0.009946106
118	0x305ae100	7.962768e-10
119	0x3a9ecfbb	0.0012116352
120	0x21aa38ec	1.1534715e-18
121	0x00000000	0.0
122	0x1f4b21cd	4.301488e-20
123	0xa09a03e4	-2.609119e-19
124	0x14d0170f	2.1011728e-26
125	0x1f169ad1	3.1891797e-20
126	0xae0f54e5	-3.2589837e-11
127	0x00000000	0.0
128	0xabab0adf	-1.2153298e-12
129	0x2d020994	7.391771e-12
130	0xa12f3796	-5.9365874e-19
131	0xab7da37b	-9.011053e-13
132	0x16176dba	1.2232306e-25
133	0x00000000	0.0
134	0x13b4b473	4.5616325e-27
135	0x950a0794	-2.7874856e-26
136	0x09391d95	2.2282474e-33
137	0x13866566	3.3926342e-27
138	0x2e96a649	6.8507484e-11
139	0x00000000	0.0
140	0x2c33c67a	2.5547607e-12
141	0xad892402	-1.5591087e-11
142	0x21b829cf	1.2479392e-18
143	0x2c059fc3	1.8989122e-12
144	0x2e8d5e6b	6.4287096e-11
145	0x00000000	0.0
146	0x2c28b342	2.3973744e-12
147	0xad80bdc7	-1.4636193e-11
148	0x21acd15e	1.1710592e-18
149	0x2bfad932	1.7823852e-12
150	0x38769060	5.878543e-05
151	0x00000000	0.0
152	0x36131dd3	2.1922067e-06
153	0xb7609327	-1.3385702e-05
154	0x2b96b488	1.0708249e-12
155	0x35dacae0	1.630131e-06
156	0xb7840485	-1.573773e-05
157	0x00000000	0.0
158	0xb51d8a88	-5.868865e-07
159	0x3670cb74	3.5881212e-06
160	0xaaa162b9	-2.8667848e-13
161	0xb4ea6fa2	-4.366712e-07
162	0x2eabaf85	7.807358e-11
163	0x00000000	0.0
164	0x2c4ce0d9	2.911496e-12
165	0xad9c652b	-1.7780074e-11
166	0x21d1e107	1.4221955e-18
167	0x2c18509c	2.1645246e-12
168	0xb65db553	-3.303711e-06
169	0x00000000	0.0
170	0xb4044934	-1.2320089e-07
171	0x3548cc65	7.480324e-07
172	0xa98783b3	-6.0180505e-14
173	0xb3c42fff	-9.135692e-08
174	0x3b680668	0.003540421
175	0x00000000	0.0
176	0x390a7114	0.0001320283
177	0xba53624a	-0.00080636574
178	0x2e8dd220	6.449263e-11
179	0x38cdf402	9.820612e-05
180	0xaffe8e30	-4.630336e-10
181	0x00000000	0.0
182	0xad97e282	-1.7267302e-11
183	0x2ee8885e	1.0574362e-10
184	0xa31b9791	-8.434662e-18
185	0xad6224ae	-1.2854757e-11
186	0xa9326b10	-3.96168e-14
187	0x00000000	0.0
188	0xa6d4e99e	-1.4773777e-15
189	0x28226da4	9.016581e-15
190	0x9c5a1c00	-7.216634e-22
191	0xa69e3d50	-1.0980071e-15
192	0x3bd11797	0.006380986
193	0x00000000	0.0
194	0x39798445	0.00023795765
195	0xbac01d33	-0.001465714
196	0x2eff9b63	1.162366e-10
197	0x393a7912	0.00017783444
198	0x0b4a13bb	3.8918628e-32
199	0x00000000	0.0
200	0x08f12538	1.451341e-33
201	0x8a3866bc	-8.8786e-33
202	0x0007b83f	7.08944e-40
203	0x08b379b2	1.0801781e-33
204	0x3a69912a	0.0008909876
205	0x00000000	0.0
206	0x380b5c9c	3.322643e-05
207	0xb954d913	-0.00020298762
208	0x2d8ec36c	1.6230316e-11
209	0x37cf5038	2.4713678e-05
210	0xafb2bda5	-3.2512762e-10
211	0x00000000	0.0
212	0xad554c28	-1.2124558e-11
213	0x2ea3b9fb	7.4454186e-11
214	0xa2da80f4	-5.9225553e-18
215	0xad1ef502	-9.035663e-12
216	0x0000016d	5.11e-43
217	0x00000000	0.0
218	0x0000000d	1.8e-44
219	0x80000034	-7.3e-44
220	0x00000004	6e-45
221	0x80000043	-9.4e-44
222	0x2fa99e32	3.0853325e-10
223	0x00000000	0.0
224	0x2d4a692e	1.1505725e-11
225	0xae9a6ed8	-7.022799e-11
226	0x22cf59f8	5.620272e-18
227	0x2d167668	8.552804e-12
228	0xaf408381	-1.7509018e-10
229	0x00000000	0.0
230	0xace5bbaf	-6.5294085e-12
231	0x2e2e5ae1	3.9643736e-11
232	0xa26b5736	-3.1894608e-18
233	0xacaa3745	-4.8378268e-12
234	0x3d1fd578	0.03902194
235	0x00000000	0.0
236	0x3abebc36	0.0014551941
237	0xbc1179ad	-0.008879107
238	0x30436400	7.1082695e-10
239	0x3a8dc5e8	0.0010816427
240	0xaebbf58c	-8.5473933e-11
241	0x00000000	0.0
242	0xac604c48	-3.187466e-12
243	0x2dab0c6d	1.9445967e-11
244	0xa1e5c5cf	-1.5570003e-18
245	0xac26aa02	-2.3684392e-12
246	0xab25e75d	-5.8940857e-13
247	0x00000000	0.0
248	0xa8c5fa82	-2.1980034e-14
249	0x2a16cda1	1.3394018e-13
250	0x9e4acf93	-1.0736716e-20
251	0xa893087b	-1.6323956e-14
252	0x3c086df6	0.008326998
253	0x00000000	0.0
254	0x39a2ce56	0.0003105278
255	0xbaf889ea	-0.0018962

exp_avg_sq f4 [128, 6]
0	0x3aa4cfaf	0.0012574102
1	0x00000000	0.0
2	0x35eab2f9	1.7486446e-06
3	0x3837a096	4.3780157e-05
4	0x20c267e1	3.293362e-19
5	0x37d96ca9	2.5919015e-05
6	0x1e27ea87	8.8894055e-21
7	0x00000000	0.0
8	0x20f7925f	4.1940288e-19
9	0x1dd4404c	5.6182414e-21
10	0x060dae24	2.664709e-35
11	0x1d504ab3	2.756719e-21
12	0x3255900d	1.2430985e-08
13	0x00000000	0.0
14	0x2d980fbb	1.7287385e-11
15	0x2fa1c4b4	2.9425495e-10
16	0x18400426	2.4817513e-24
17	0x2fcdeb8f	3.7456657e-10
18	0x1d6889d5	3.0776202e-21
19	0x00000000	0.0
20	0x2031fc5b	1.507598e-19
21	0x1d09626f	1.8182688e-21
22	0x05500eb5	9.782814e-36
23	0x1ca83059	1.1129805e-21
24	0x1ec9bd7d	2.1360073e-20
25	0x00000000	0.0
26	0x21a719f2	1.1323228e-18
27	0x1e60fe4b	1.1911048e-20
28	0x06b2e63f	6.7294474e-35
29	0x1e236602	8.650243e-21
30	0x1e704a9a	1.27209215e-20
31	0x00000000	0.0
32	0x21662b62	7.798445e-19
33	0x1dc46a47	5.1990656e-21
34	0x06378e08	3.4522823e-35
35	0x1e066bc8	7.1161896e-21
36	0x39326ce5	0.00017015969
37	0x00000000	0.0
38	0x347e15f6	2.3663583e-07
39	0x36ed1305	7.0653646e-06
40	0x1f66d60b	4.8881447e-20
41	0x3624819b	2.4513345e-06
42	0x3e9f5d2c	0.31125772
43	0x00000000	0.0
44	0x39e2f0fd	0.0004328563
45	0x3c8365bf	0.016039727
46	0x24ed4a0f	1.02907826e-16
47	0x3990b418	0.000276
48	0x21047f5f	4.4891914e-19
49	0x00000000	0.0
50	0x1c3cb018	6.243158e-22
51	0x1e3153ff	9.387672e-21
52	0x05309f90	8.304787e-36
53	0x1e8d357a	1.4951073e-20
54	0x0975a211	2.9567006e-33
55	0x00000000	0.0
56	0x06c599aa	7.4328953e-35
57	0x09627f7b	2.7263701e-33
58	0x000001f4	7e-43
59	0x06616335	4.2390682e-35
60	0x24242a82	3.5597837e-17
61	0x00000000	0.0
62	0x1f69ce67	4.95104e-20
63	0x216362b4	7.7041224e-19
64	0x08b55d3d	1.09154615e-33
65	0x21a9ef9a	1.1515307e-18
66	0x1d2ad22e	2.2607973e-21
67	0x00000000	0.0
68	0x1fc9076f	8.513911e-20
69	0x1d08e7f1	1.8119361e-21
70	0x0552d307	9.912912e-36
71	0x1bc4ea6e	3.2576977e-22
72	0x12254e0e	5.216103e-28
73	0x00000000	0.0
74	0x0f841e7e	1.302795e-29
75	0x118629ee	2.1167313e-28
76	0x000001f4	7e-43
77	0x11bb7b5c	2.9579424e-28
78	0x3bf6d36b	0.007532527
79	0x00000000	0.0
80	0x372fbef8	1.0475276e-05
81	0x39850048	0.00025367946
82	0x22147416	2.0119196e-18
83	0x39253dc0	0.0001575863
84	0x1cb2c5d1	1.1830186e-21
85	0x00000000	0.0
86	0x1f5da0f8	4.693172e-20
87	0x1c90f1a9	9.591588e-22
88	0x04ced26b	4.8623606e-36
89	0x1b453df9	1.6315483e-22
90	0x1e01d29f	6.8727586e-21
91	0x00000000	0.0
92	0x209b84a2	2.634579e-19
93	0x1d899f11	3.642807e-21
94	0x05ffeb20	2.4066456e-35
95	0x1d4b4c72	2.6906348e-21
96	0x2132b910	6.0553674e-19
97	0x00000000	0.0
98	0x1ce9e544	1.547791e-21
99	0x1f1432e5	3.1382318e-20
100	0x0785ac53	2.01129e-34
101	0x1c09cd6b	4.5594994e-22
102	0x20fcda7b	4.283504e-19
103	0x00000000	0.0
104	0x210dd3c9	4.8052954e-19
105	0x1f0295e4	2.7652557e-20
106	0x0767ed08	1.7448166e-34
107	0x1d8508f0	3.521405e-21
108	0x1e2dc3d7	9.1990425e-21
109	0x00000000	0.0
110	0x211a861c	5.235472e-19
111	0x1da84a9f	4.4546386e-21
112	0x05ffa55c	2.4040828e-35
113	0x1da605da	4.3945885e-21
114	0x3e7ec368	0.24879229
115	0x00000000	0.0
116	0x39b565c2	0.00034598826
117	0x3c520840	0.01281935
118	0x24bd9fab	8.223617e-17
119	0x39666eae	0.0002197574
120	0x1f716bf2	5.1123025e-20
121	0x00000000	0.0
122	0x1f98d834	6.473218e-20
123	0x1f58f9b6	4.5946335e-20
124	0x08077719	4.0765083e-34
125	0x1d4045c1	2.544705e-21
126	0x219f187b	1.0780739e-18
127	0x00000000	0.0
128	0x1ce290ef	1.499289e-21
129	0x1f1a684c	3.269704e-20
130	0x071ed316	1.1948631e-34
131	0x1ee6064c	2.4354802e-20
132	0x13d2afa7	5.318466e-27
133	0x00000000	0.0
134	0x112866e7	1.3284572e-28
135	0x13c25582	4.9056802e-27
136	0x00008bc6	5.0141e-41
137	0x10c2d13c	7.6841884e-29
138	0x213f3390	6.478156e-19
139	0x00000000	0.0
140	0x1c8823c8	9.008974e-22
141	0x1f1ac39f	3.2772582e-20
142	0x07896ef4	2.0678681e-34
143	0x1ca4ff2c	1.091857e-21
144	0x2100771e	4.3525737e-19
145	0x00000000	0.0
146	0x1d0b687e	1.8450518e-21
147	0x1ed4e3b4	2.2540549e-20
148	0x07400673	1.444637e-34
149	0x1bc9f108	3.3408423e-22
150	0x3bd969b0	0.0066349134
151	0x00000000	0.0
152	0x371acd9a	9.226986e-06
153	0x395ad5e1	0.00020869776
154	0x21f96537	1.6899688e-18
155	0x39222bab	0.00015465792
156	0x35c61673	1.4758683e-06
157	0x00000000	0.0
158	0x310d0afe	2.0524449e-09
159	0x3314d20c	3.4649972e-08
160	0x1aa2970f	6.724568e-23
161	0x334430b7	4.5679112e-08
162	0x2126b5d8	5.6483656e-19
163	0x00000000	0.0
164	0x1cd185ab	1.3865012e-21
165	0x1f5e7316	4.7105525e-20
166	0x07ea9cd5	3.5300584e-34
167	0x1cd120c6	1.3838932e-21
168	0x36254dd1	2.463221e-06
169	0x00000000	0.0
170	0x316b665b	3.4255183e-09
171	0x33aa4bab	7.930006e-08
172	0x1c4644a1	6.5601405e-22
173	0x336efaca	5.5641785e-08
174	0x3c063585	0.008191471
175	0x00000000	0.0
176	0x373f1e8d	1.13916e-05
177	0x39b55647	0.00034587292
178	0x2231707a	2.4047518e-18
179	0x38e92c40	0.00011118548
180	0x22d556aa	5.7825525e-18
181	0x00000000	0.0
182	0x1e19e3e2	8.146878e-21
183	0x20b313ce	3.0336885e-19
184	0x092281aa	1.9561008e-33
185	0x1dad20a4	4.582647e-21
186	0x1c80a124	8.511983e-22
187	0x00000000	0.0
188	0x19d792e2	2.2289804e-23
189	0x1c6b4492	7.7843603e-22
190	0x051e0370	7.429756e-36
191	0x1965bc3a	1.18770346e-23
192	0x3b3db79e	0.0028948556
193	0x00000000	0.0
194	0x3687152c	4.0257783e-06
195	0x391cd92c	0.00014958222
196	0x218d8ba5	9.591495e-19
197	0x36229084	2.4224e-06
198	0x1e98e607	1.6188763e-20
199	0x00000000	0.0
200	0x21777377	8.383967e-19
201	0x1e34957b	9.5600325e-21
202	0x068dea15	5.338226e-35
203	0x1de4a36d	6.0520076e-21
204	0x3af5f247	0.0018764221
205	0x00000000	0.0
206	0x362f1e95	2.6094833e-06
207	0x38b1020c	8.440399e-05
208	0x213810f6	6.236407e-19
209	0x37b5ceaa	2.1673117e-05
210	0x22244009	2.2260044e-18
211	0x00000000	0.0
212	0x1d71f87b	3.2024546e-21
213	0x200bf3ed	1.1854466e-19
214	0x08802992	7.713493e-34
215	0x1d3db67f	2.510829e-21
216	0x1d2bc1be	2.2731824e-21
217	0x00000000	0.0
218	0x2000372d	1.0860278e-19
219	0x1ce16cb0	1.4917346e-21
220	0x05271bae	7.857386e-36
221	0x1c45a403	6.539381e-22
222	0x23545065	1.1509567e-17
223	0x00000000	0.0
224	0x1e972c25	1.6006005e-20
225	0x212fd698	5.957632e-19
226	0x099ea46e	3.8191745e-33
227	0x1e239b4b	8.661262e-21
228	0x2370da7f	1.30566944e-17
229	0x00000000	0.0
230	0x1eab7ea2	1.8157703e-20
231	0x21478697	6.760195e-19
232	0x09b3f81c	4.3326003e-33
233	0x1e3970b9	9.817129e-21
234	0x3e48c3b6	0.19605908
235	0x00000000	0.0
236	0x398ef309	0.00027265426
237	0x3c258702	0.010102989
238	0x249575c8	6.481798e-17
239	0x3935e468	0.00017346593
240	0x2187de65	9.206823e-19
241	0x00000000	0.0
242	0x1f03eb06	2.7934736e-20
243	0x1f6335d7	4.8113655e-20
244	0x07cc8f1b	3.0778618e-34
245	0x1c75566f	8.1175413e-22
246	0x1ec80472	2.1177662e-20
247	0x00000000	0.0
248	0x21a4d875	1.1170368e-18
249	0x1e4b631c	1.0767226e-20
250	0x06a3babc	6.1588167e-35
251	0x1e2fac3b	9.300039e-21
252	0x3bf494be	0.0074640205
253	0x00000000	0.0
254	0x372e25a9	1.0379977e-05
255	0x39c9ba26	0.000384764

exp_avg f4 [128]
0	0xb664cfc1	-3.4095576e-06
1	0x1ab2b3a6	7.390931e-23
2	0x2b098ca8	4.8867377e-13
3	0x91c85a20	-3.160998e-28
4	0x24d3d7e0	9.187237e-17
5	0x00000004	6e-45
6	0xb60723fe	-2.0137518e-06
7	0x39ea5eb0	0.00044702506
8	0xa480dc4c	-5.588435e-17
9	0x829f81b4	-2.3437396e-37
10	0xaa35003b	-1.607611e-13
11	0xa6d4c52e	-1.4763901e-15
12	0x9ad7c740	-8.924382e-23
13	0x36e82a6b	6.919077e-06
14	0x93a95867	-4.274877e-27
15	0x9f1df57b	-3.34491e-20
16	0xaafda175	-4.5053861e-13
17	0x2afcb224	4.4887802e-13
18	0x17b00956	1.137609e-24
19	0xb9af1a64	-0.00033398264
20	0x9e2678da	-8.812958e-21
21	0x2a8c2c85	2.4899887e-13
22	0x929417ad	-9.34595e-28
23	0xab1354a4	-5.2342354e-13
24	0xab0a4115	-4.911777e-13
25	0xb4f121c2	-4.491431e-07
26	0x34011bf3	1.2024229e-07
27	0xab27e737	-5.9651193e-13
28	0x32d8d2df	2.5241603e-08
29	0xb7e2e9d4	-2.7050184e-05
30	0x2c78f284	3.5377543e-12
31	0x25ae7cce	3.026876e-16
32	0xb84c7c50	-4.8753165e-05
33	0x87c5a002	-2.973531e-34
34	0xb6e46bd9	-6.8074846e-06
35	0x2c2ecd8e	2.4840993e-12
36	0x80000004	-6e-45
37	0xac25e192	-2.3573127e-12
38	0x2bbc45b9	1.3377555e-12
39	0xb99c5002	-0.0002981425
40	0x2b37d175	6.530534e-13
41	0x27a23fa8	4.503305e-15
42	0xb8856c83	-6.362146e-05
43	0xba0897d6	-0.00052106136
44	0xb6241ffb	-2.445652e-06
45	0x3622f6ca	2.4283531e-06
46	0xb82f70b9	-4.1828232e-05
47	0x30e146c7	1.6391021e-09
48	0x39808b66	0.00024517922
49	0x38db757d	0.00010464618
50	0xabdd7448	-1.5735269e-12
51	0x14fa6440	2.528309e-26
52	0x1705be82	4.321507e-25
53	0xa97a2631	-5.5544277e-14
54	0xb91adc09	-0.00014768554
55	0xb995e588	-0.0002859051
56	0x80000004	-6e-45
57	0x9e591213	-1.1491622e-20
58	0x8ce37654	-3.5046104e-31
59	0xb9d4b285	-0.00040568798
60	0xa3dcf97a	-2.3958105e-17
61	0xaeede5ca	-1.0818331e-10
62	0x2c2278a8	2.3088562e-12
63	0xba0c36e4	-0.00053487555
64	0x27695dd3	3.2386108e-15
65	0xb63cc984	-2.813148e-06
66	0x3995d4df	0.00028578096
67	0xb98c0756	-0.00026708347
68	0x3503ab04	4.9050163e-07
69	0x8aa82d10	-1.6194762e-32
70	0x00000004	6e-45
71	0x235ce974	1.19756595e-17
72	0x2c0b6e77	1.9814408e-12
73	0x805cb5b9	-8.514055e-39
74	0x29920485	6.4844865e-14
75	0x2c3c10d2	2.6725744e-12
76	0xac525a98	-2.9893085e-12
77	0x00f2a2c4	2.228258e-38
78	0x22c4e779	5.3370988e-18
79	0x80001fb5	-1.1374e-41
80	0x213682b1	6.1836967e-19
81	0x064a9f8b	3.810919e-35
82	0x2a111f12	1.2889367e-13
83	0x2b892667	9.745094e-13
84	0x391a41c5	0.00014711086
85	0xa9150600	-3.308985e-14
86	0xb9f33f55	-0.00046395758
87	0xb910a54f	-0.00013794492
88	0x1c38d73c	6.1158677e-22
89	0x00000004	6e-45
90	0xb9273755	-0.00015946974
91	0x319543c0	4.344173e-09
92	0xb9f7ad33	-0.00047240555
93	0xb68aeeae	-4.1405065e-06
94	0xb8735db5	-5.8022986e-05
95	0xab065cad	-4.7734977e-13
96	0xaa967c56	-2.6731628e-13
97	0xb55aa948	-8.1457665e-07
98	0x2918c930	3.3925282e-14
99	0xb8986dea	-7.268398e-05
100	0xabfee71f	-1.8111934e-12
101	0xaa452e8d	-1.7513265e-13
102	0x30adbc56	1.2640935e-09
103	0x328140a9	1.504698e-08
104	0x80000004	-6e-45
105	0xaa0182a5	-1.1502828e-13
106	0x2c43164f	2.772355e-12
107	0x2e23a7a3	3.72108e-11
108	0x80000004	-6e-45
109	0x2c0ff756	2.0458821e-12
110	0xb7c974c8	-2.4015448e-05
111	0x00000004	6e-45
112	0xb7b74d2e	-2.185124e-05
113	0xb994468c	-0.0002828132
114	0xb69b15e1	-4.621907e-06
115	0x39b73580	0.0003494434
116	0x29dca01f	9.797739e-14
117	0xb92848cf	-0.00016048852
118	0x2d0e66a5	8.094557e-12
119	0x2725e3b3	2.3021786e-15
120	0xb9a638a8	-0.000317042
121	0xa755ae4a	-2.965417e-15
122	0x36257f74	2.4661103e-06
123	0x00009b79	5.5773e-41
124	0xb73f8b45	-1.1416913e-05
125	0xb5752a39	-9.1331054e-07
126	0x951a9e58	-3.1224964e-26
127	0x2850ffaa	1.1601758e-14

exp_avg_sq f4 [128]
0	0x339da124	7.3401935e-08
1	0x1934498b	9.320634e-24
2	0x2b4c419d	7.2566416e-13
3	0x1879ac9a	3.2269637e-24
4	0x19d89a7b	2.239627e-23
5	0x1980ffa1	1.3338137e-23
6	0x322aa671	9.933147e-09
7	0x37986b4e	1.816978e-05
8	0x19fd7462	2.6206594e-23
9	0x0483dbc5	3.099978e-36
10	0x1d1d079d	2.0782713e-21
11	0x18361ec5	2.3538483e-24
12	0x0d317898	5.4687495e-31
13	0x34ec120a	4.397155e-07
14	0x17bff1b6	1.2404102e-24
15	0x1905c693	6.9160406e-24
16	0x1a2b1527	3.5379058e-23
17	0x1a268fd9	3.4444195e-23
18	0x193a9169	9.64534e-24
19	0x3773a959	1.4523358e-05
20	0x1a819034	5.358612e-23
21	0x1a9829ae	6.2933064e-23
22	0x0ee2328d	5.576198e-30
23	0x1a36de98	3.7816528e-23
24	0x19f5f668	2.5431929e-23
25	0x34cff051	3.8731608e-07
26	0x2ebd749e	8.61544e-11
27	0x1a8249c5	5.388592e-23
28	0x2f1e19c4	1.437917e-10
29	0x35005c5d	4.781812e-07
30	0x1bcec92f	3.4209853e-22
31	0x1788c5b6	8.838703e-25
32	0x34357320	1.6898821e-07
33	0x19a42a2f	1.697424e-23
34	0x33eb3a79	1.09536764e-07
35	0x1b228410	1.3442998e-22
36	0x1838692c	2.383454e-24
37	0x1c4b0fe3	6.71876e-22
38	0x1c665c1f	7.621968e-22
39	0x37400414	1.1445041e-05
40	0x1a83712b	5.436316e-23
41	0x19d62a0d	2.2144066e-23
42	0x34e9ec3a	4.357151e-07
43	0x380033f6	3.056597e-05
44	0x32677ea2	1.3474763e-08
45	0x33f7db0e	1.15416796e-07
46	0x348f9bba	2.6749132e-07
47	0x28ca705f	2.2475238e-14
48	0x36b277e6	5.3187714e-06
49	0x35ee0620	1.7734164e-06
50	0x1b836c07	2.1741943e-22
51	0x1958015e	1.1167214e-23
52	0x139c1183	3.9397204e-27
53	0x1944b94b	1.0170382e-23
54	0x35c8641a	1.4930295e-06
55	0x3741c741	1.1550089e-05
56	0x19096255	7.102592e-24
57	0x1780f16e	8.332752e-25
58	0x100af176	2.7401716e-29
59	0x375efa32	1.3290484e-05
60	0x15224ef4	3.2777922e-26
61	0x2261d6a4	3.0606816e-18
62	0x1c8a0d3f	9.135498e-22
63	0x38259ba9	3.9484035e-05
64	0x15ac36ab	6.95565e-26
65	0x330024ec	2.9835903e-08
66	0x371f4651	9.49351e-06
67	0x371f24c8	9.485702e-06
68	0x2ecabc59	9.219354e-11
69	0x145d89b4	1.1184806e-26
70	0x0c1bc043	1.1998622e-31
71	0x1a5069dc	4.3098904e-23
72	0x1d0ae134	1.8380575e-21
73	0x0166fd34	4.2425993e-38
74	0x1a0cb037	2.9093667e-23
75	0x1c085237	4.5104886e-22
76	0x31938f04	4.294522e-09
77	0x1a16668b	3.1102107e-23
78	0x1c056b4d	4.414469e-22
79	0x19d9c501	2.2516843e-23
80	0x1a1f3eb9	3.2931096e-23
81	0x081a5a10	4.6448557e-34
82	0x21df058e	1.5112538e-18
83	0x1b792997	2.0610236e-22
84	0x358884da	1.0171455e-06
85	0x196e0c3d	1.2306783e-23
86	0x37dcd166	2.6323552e-05
87	0x3626e95b	2.4871758e-06
88	0x18f24c4a	6.2632566e-24
89	0x17a1fd3f	1.0468309e-24
90	0x35f7e199	1.8468592e-06
91	0x338044b6	5.972963e-08
92	0x37dc66c9	2.6273907e-05
93	0x345c4eb4	2.0517729e-07
94	0x35765626	9.1767504e-07
95	0x330cd12d	3.2786534e-08
96	0x1a428235	4.022344e-23
97	0x331daf72	3.6713978e-08
98	0x1d13d61a	1.9565976e-21
99	0x34d8c96e	4.0379695e-07
100	0x1b8371fc	2.1745793e-22
101	0x188f5595	3.705105e-24
102	0x30ee690a	1.7346633e-09
103	0x3382018d	6.053879e-08
104	0x0563be21	1.070841e-35
105	0x1a4d0c24	4.2402814e-23
106	0x1c2281bc	5.376898e-22
107	0x253ae96e	1.6212017e-16
108	0x18caf726	5.2465332e-24
109	0x1dd66148	5.6745915e-21
110	0x343589d6	1.6907083e-07
111	0x19d01609	2.1515596e-23
112	0x3398745a	7.099216e-08
113	0x373c3c94	1.1219778e-05
114	0x31878fd0	3.9453667e-09
115	0x37566861	1.2779697e-05
116	0x1661a841	1.8228447e-25
117	0x3629ded1	2.5312659e-06
118	0x1d895903	3.6355634e-21
119	0x1a6aa43d	4.8522736e-23
120	0x377cc676	1.5066578e-05
121	0x19e23b10	2.3391707e-23
122	0x33c4f8df	9.1722306e-08
123	0x000001f4	7e-43
124	0x32b0a4d8	2.0564059e-08
125	0x30d65eb5	1.5597467e-09
126	0x121ce678	4.9508995e-28
127	0x25e60336	3.9900816e-16
