Assets/results/OuiTankRemaster/TankLearningAI/TankLearningAI-2499948.pt (torch, 787494 bytes, 58 tensors)

discrete_act_size_vector f4 [1, 5]
00000000: 0000 4040 0000 0040 0000 4040 0000 0040
00000010: 0000 0040
3.0 2.0 3.0 2.0 2.0

network_body._body_endoder.seq_layers.0.weight f4 [128, 110]
00000000: 1e6c 86be bd5a 41be 7c29 273e 3c26 523d
00000010: 2e18 44be 9cd5 1d3c 6faf 263c 172d a73d
00000020: b448 5b3c 8cf8 d93d f065 303d d21c d3bc
00000030: 6cab b73d ca19 5ebd 43dd edbd 4383 9e3b
00000040: b6a7 62bd 24fc b8bd e4a7 843d 13a3 223e
00000050: 4b9e 813d 2de5 0bbe 04f9 343c 2fc7 40be
00000060: f7ca 98bc 0276 1a3d ac66 26bd 05c1 09bd
00000070: 2e81 77bc 1a76 543d 70a7 ea3b 2d1f 163e
00000080: 9622 db3d 9926 21be 97aa 253d 67a3 fabd
00000090: 6a35 83be 9a71 49bd 6c21 01be 6548 2cbd
000000a0: 2d16 983d d6ca 94bd 43bc a53d 8ec0 2ebe
000000b0: af3f 133e 48c0 fdbd 2457 f23c 7ef9 2b3e
000000c0: f20a bbbd 5f4c 41bd 7996 63be ea97 383e
000000d0: 9d8e 22be ca52 053d bf1f 3dbd a6ca a83d
000000e0: 4e3c b93d 47e2 073e 4e6c cd3c 86da c2bb
000000f0: 110d 913d 8113 17bd 9a35 d33d 52b9 0c3d
00000100: b85c ee3c 6d3b debd e5bc 433c df5e a9bd
00000110: d74d 933c db29 1ebe 1fa2 8d3e 20f4 4cbd
00000120: 9002 693d afe2 86be d31c 3f3e 0b91 27be
00000130: 2b7e 923d daf6 573d a1f4 023e 8710 80be
00000140: 2a5d b43d 0483 173e ad44 adbd 4ee9 99ba
00000150: 84c1 653e 3621 ab3d ff50 193d 0b65 3b3d
00000160: 37a4 493e 0de4 1fbe 053d 79bd fb56 2ebe
00000170: e2cc 03be 71c6 d23d 3079 77bd a1cc 19bc
00000180: 8392 063e f0f3 87bc f196 453e db9b c5bd
00000190: a17b edba 0991 813c 61e7 3b3d 1a93 a93d
000001a0: f556 113d 937b db3d 2f20 86be e831 3abc
000001b0: 714f 7bbe 6a8d 66bd 1f51 b73d aec1 b03d
000001c0: 24f4 5fbd 515a 9e3c 80a9 07bd 94f2 c13c
000001d0: b354 c5bd a9f4 04be d6bf 08be c2e0 9e3e
000001e0: f787 3fbd edee ed3a 5af4 b43d 2dfb 693d
000001f0: d291 dcbc e0c7 6e3e 211b 73bd 5307 96bd
00000200: 47f8 4c3d cd67 e3bb 9ea5 2abe 63bb a9bd
00000210: d8c4 f33d 000a 07be e465 df3b ecf1 d93c
00000220: 6bc6 4ebd ac23 64bd 9024 dcbc 7dc2 0d3e
00000230: 6fc4 0ebe 2ccb a83d b9da 34bd 70df 8a3c
00000240: 2f72 f53d 5b6f 093d 2995 f1bd 8fc8 333e
00000250: 6b1f 4cbe 8390 1ebe 890d 0ebe a7b6 e63d
00000260: 8e5b e1bd f7be d03d bd62 d43c dde5 d8bc
00000270: 382f 0a3b 2d4e f4bd abc4 353e 15d3 b4bd
00000280: 8390 4b3d f5b8 063d be3b 2abe 75ae bb3d
00000290: b9bc 833d 4335 493d edd8 793d 5dc3 923d
000002a0: bb44 1a3e e6aa 47be c105 20bc 1003 8dbe
000002b0: 2c29 0e3e a11b d0bc fe4e 3f3d 47fd aebc
000002c0: 31a9 26be d005 e83c f0cc c4bc 2bd5 9e3d
000002d0: 0a70 a3bd e87b 1dbd 7308 56bd 94d0 f0bd
000002e0: 01bb 083e 8ad0 b93c 84be 6abd e561 bb3d
000002f0: 62f5 18be 4387 45be 2b97 6ebd 8b7b 2f3d
00000300: 04d6 0a3d e965 113d ba9f 4c3d e5b3 c1bc
00000310: 472b 66ba 2aff 5c3e 011f ce3d 27ab a2bc
00000320: 784f ffbc 9571 02be b68d acbd e41e 0d3e
00000330: a0ff 0b3e 8a46 bbbc 1efa fdbc 6918 03bc
00000340: 77d6 343d 73d6 c93d 07de d43d 5023 ce3c
00000350: 1e87 e53d 5ded 91bd 3f73 c43d 9b07 ce3c
00000360: 087e 8bbe dcc3 f73d 4099 9dbb 0b12 963d
00000370: 2874 4dbc 5274 c6bd fc00 2abe 7c7d debc
00000380: 9b88 63bd 174e 18be 4ec1 35be cc21 25bc
00000390: 17f8 6cbb f528 04bd 6164 eb3a 8d34 163e
000003a0: 2cd2 26be 4f0c 47be 6dbd 043d ad73 11bd
000003b0: 5834 503d 98c6 1dbe a1ad ba3d 5530 873d
000003c0: ee54 ac3d 50f8 57bd f7f1 a03d 92f3 d13c
000003d0: eb00 013d 22a2 c2bd 67e2 51bb 97d4 19bd
000003e0: 0510 96bd f4f6 c53d 38d7 58be 5d38 d93a
000003f0: aa48 52bd e2e8 763d 4a2b 38bd bb53 0dbc
-0.26254362 -0.1888227 0.16324419 0.051305994 -0.19149849 0.009633448 0.010173663 0.08162897
0.013384033 0.1064311 0.043065965 -0.025770579 0.08968243 -0.054223813 -0.11614468 0.004837425
-0.055335723 -0.09032467 0.06477335 0.1588252 0.0632902 -0.13661642 0.011045698 -0.18825983
-0.018651469 0.037710197 -0.04062526 -0.033631343 -0.015106482 0.051870443 0.0071610734 0.1466033
0.10699956 -0.1573738 0.04044589 -0.12238198 -0.2562669 -0.049180605 -0.12610406 -0.04206123
0.07426105 -0.072652504 0.08092549 -0.17065641 0.14379762 -0.1239019 0.029582568 0.16794392
-0.09132947 -0.047191974 -0.2222537 0.180267 -0.15874715 0.032549657 -0.046172854 0.08241777
0.09044705 0.13269912 0.025076058 -0.00594646 0.0708257 -0.036883835 0.10312958 0.034356423
0.029096946 -0.10851178 0.011946891 -0.08270048 0.017981453 -0.15445654 0.2766275 -0.050037503
0.05688721 -0.2634482 0.1866334 -0.16363923 0.07152971 0.05272565 0.12788631 -0.2501261
0.08806832 0.14796072 -0.084603645 -0.0011742504 0.22437102 0.08355944 0.03743076 0.04575066
0.19691549 -0.15614338 -0.06084921 -0.17025368 -0.12871125 0.10291756 -0.060418308 -0.009387166
0.13141827 -0.01659581 0.19295861 -0.09648868 -0.0018118509 0.015816228 0.045874957 0.082800105
0.03548332 0.10716929 -0.2619643 -0.011364438 -0.24542023 -0.056287207 0.089510195 0.086306915
-0.05467619 0.019330176 -0.033120632 0.02367524 -0.09635296 -0.12983955 -0.1335443 0.31030852
-0.046760526 0.001815287 0.08835669 0.057124306 -0.026925001 0.23318434 -0.059352044 -0.07325616
0.050041463 -0.0069398643 -0.1666474 -0.08287694 0.11902779 -0.13187408 0.006817566 0.026604615
-0.050482195 -0.05569808 -0.026872903 0.13843723 -0.13942121 0.08241877 -0.044153903 0.016952246
0.119846694 0.033553462 -0.11796028 0.17556976 -0.1993386 -0.15484814 -0.13872351 0.11265307
-0.11003791 0.10192674 0.025925988 -0.026476795 0.0021085273 -0.11928973 0.17750804 -0.08829323
0.049698364 0.032891233 -0.16624352 0.091641344 0.0643248 0.04912306 0.060997892 0.07166169
0.15065281 -0.19498786 -0.009766997 -0.275414 0.13882893 -0.0254038 0.046706192 -0.021361006
-0.16275479 0.028323084 -0.024023503 0.07755502 -0.07980354 -0.038448244 -0.05225415 -0.11758533
0.13352586 0.022682447 -0.057310596 0.09149531 -0.14937356 -0.1928988 -0.058249634 0.04284243
0.033895507 0.03549758 0.049957015 -0.02364535 -0.00087802525 0.21581712 0.10064507 -0.019857002
-0.031165823 -0.1273864 -0.08425467 0.13781315 0.13671732 -0.022860784 -0.031003054 -0.008001425
0.044149842 0.09855356 0.10393911 0.025163323 0.11207412 -0.071253516 0.09592294 0.025150111
-0.27244592 0.12097904 -0.0048095286 0.0732766 -0.012539901 -0.09690155 -0.16601938 -0.027159445
-0.0555502 -0.14873539 -0.17749521 -0.010078859 -0.0036158615 -0.032265622 0.0017958992 0.14668484
-0.16291112 -0.19438289 0.032407213 -0.035510708 0.05083117 -0.15407789 0.09115148 0.066010155
0.084146366 -0.052727044 0.07858651 0.025628839 0.031495016 -0.09503581 -0.0032025815 -0.037556257
-0.07327274 0.09666243 -0.2117585 0.0016572584 -0.05133883 0.060280688 -0.04496316 -0.00862592

network_body._body_endoder.seq_layers.0.bias f4 [128]
00000000: af3e 9cb9 0cb3 3fbc cf9b 09b5 01ed 65bc
00000010: fc09 c19e 5c30 27bc 78ae 959a 3b55 b91f
00000020: c1d5 793c 0b88 debc fa4b 403a 1d44 8c98
00000030: bb01 3b3c 5dc1 2bbc 6433 ef9d 3a2e 19bc
00000040: 88f0 30bb a5ad f99b 4535 8227 a8aa 3ebc
00000050: 0000 0000 799c 5583 3ded 25bc 0000 0000
00000060: aa12 b039 42e5 7cbc 0000 0000 03f3 8dbb
00000070: 0000 0000 ca03 91bc 5359 b1bc fa07 ad2e
00000080: 7e38 c73b 98ba a2ba bbab 19bc 7361 c9b1
00000090: 29d9 8eb6 9b33 a2bc 6bd2 2289 c91b 9903
000000a0: 48d1 970b 0a91 5cbc cb98 2bbb f7e3 8fb6
000000b0: c75c 570c 0000 0000 c129 bdbb cba4 44bc
000000c0: 0418 44bc e656 88bc 0314 07bd b0ed 1cbb
000000d0: b41c 38a5 991f 73bc f00e 2fbb 356b 669c
000000e0: fedc 34bc 5134 56bc 1827 84bc 88b1 713b
000000f0: f456 53b9 03ba 4abc 0000 0000 0425 4e9c
00000100: 0000 0000 48dc 45bc cfae 0687 0000 0000
00000110: 21a7 22bd eda4 91bb 6ca5 0dbc d797 0439
00000120: a251 db85 f3b8 0535 8a73 d139 2a8d 770d
00000130: d374 96bc 3770 5dbc 7cb7 a83c fca6 370e
00000140: c54f 8fbb a45f 15bc 0000 0000 0000 0000
00000150: a982 8a03 0000 0000 0000 0000 a0ba 53b5
00000160: d3fc 6311 e246 99bb 4116 a4bb 5910 a68a
00000170: 0000 0000 4a87 f215 6294 67bb f0be c3bc
00000180: 0695 0bbc a44b b5b5 8068 6a3b 9da2 1ebd
00000190: 8478 91ba 6170 84b6 4bf1 dd1b 7536 f0bb
000001a0: a049 8da4 f8dc a439 0e8b 07a3 6c10 bbba
000001b0: 1b12 e9bb 0000 0000 67c7 53bd 0000 0000
000001c0: 0000 0000 15d1 a6bb 79e9 c1bb 1497 dcbc
000001d0: 1a54 4024 8cf1 b6bc 363f c0bc 0000 0000
000001e0: 35cb 05bc 5f35 f83b c0b9 143c 211e 899d
000001f0: ebdb 1ebd cb3d 9b99 5dc1 81bc ea28 d3bc
-0.00029801342 -0.011700403 -5.126321e-07 -0.014033557 -2.04388e-20 -0.010204401 -6.1906825e-23 7.849155e-20
0.015248717 -0.02716448 0.000733554 -3.625793e-24 0.011413987 -0.010483113 -6.331591e-21 -0.0093494
-0.0026998837 -4.130581e-22 3.6140003e-15 -0.011637367 0.0 -6.2774696e-37 -0.010127363 0.0
0.00033583242 -0.015435519 0.0 -0.004331948 0.0 -0.017702002 -0.021649038 7.868546e-11
0.0060797324 -0.0012415228 -0.009379323 -5.8609486e-09 -4.2572105e-06 -0.019799998 -1.9598979e-33 8.998911e-37
5.8477976e-32 -0.013462314 -0.00261836 -4.2882707e-06 1.6590917e-31 0.0 -0.0057727997 -0.01200218
-0.011968616 -0.016642999 -0.03297807 -0.0023945384 -1.5969181e-16 -0.014839076 -0.0026711784 -7.623918e-22
-0.011039017 -0.013073997 -0.016131923 0.0036879499 -0.0002015492 -0.01237345 0.0 -6.8207524e-22
0.0 -0.012076445 -1.0132411e-34 0.0 -0.039710168 -0.0044447095 -0.008645397 0.00012645066
-2.0624648e-35 4.98155e-07 0.0003994967 7.628267e-31 -0.018366253 -0.013515524 0.020595305 2.2636892e-30
-0.004373523 -0.009117041 0.0 0.0 8.140909e-37 0.0 0.0 -7.88752e-07
1.798505e-28 -0.0046776393 -0.0050075357 -1.5991368e-32 0.0 9.795647e-26 -0.0035336246 -0.023894757
-0.008519417 -1.3507565e-06 0.0035767853 -0.0387293 -0.0011098539 -3.946989e-06 3.6717315e-22 -0.0073307105
-6.127373e-17 0.00031445152 -7.347811e-18 -0.0014271862 -0.007112754 0.0 -0.051703837 0.0
0.0 -0.0050908425 -0.0059177247 -0.026927508 4.17046e-17 -0.022331975 -0.023467641 0.0
-0.008166124 0.0075747217 0.009077489 -3.629475e-21 -0.03878395 -1.6051582e-23 -0.015839273 -0.025776345

network_body._body_endoder.seq_layers.2.weight f4 [128, 128]
00000000: 4796 92bd 1603 da3d 9b9e 10be 9d89 e9bd
00000010: 350d 333d c1db 983d 8e9f 9a3c 6879 a43d
00000020: bf02 32bc 40e2 aebc 8f90 61bd 9e59 693d
00000030: 3d50 8cbd d026 ad3d 97c8 533a ff7e bd3d
00000040: 3397 0a3e ad58 27bb bfa3 61bd e923 443d
00000050: bcd0 93bd 109d e5bc eb24 c23c d713 c3bd
00000060: 2552 1fbb ea0d 9e3c 850e 0bbe 98f5 2e3d
00000070: b419 edbb 49db 5dbc bb22 b83d 1cde 953b
00000080: 202c 64bd 05e2 92bd 6d0f 083d 3d99 16bd
00000090: 86ce 103e 73aa e33d 6858 363c fdea 40bd
000000a0: bfed aa3b 5c24 103d f074 073e ca4e 17bc
000000b0: fc04 623e 133f f1bc 9de6 e13d 3450 dfbc
000000c0: d321 4f3d abb7 1cbd e19d a1bc f89d 173d
000000d0: 2dcc a2bd aa80 b33d 338d 243c de8f 84bd
000000e0: 0c62 65bd 2681 2a3d 4298 a63d 48bd b5bd
000000f0: e614 c1bd 862b 2f3e 5914 bbbd 4605 68bd
00000100: c29d 2dbd 4083 cbbd 9bd2 b2bb 4a9f 09bd
00000110: aec2 7c3d 80b4 4bbd 590b bd3d 12b3 e43c
00000120: 99a7 1c3e d36f e13c 9f07 33be 194e 3ebe
00000130: c272 733d 5cfe 13bb fe94 95bd a683 03bd
00000140: a605 193e c865 d83d 52f0 bfbd 2d2a 10bd
00000150: 4d9e 7f3c 068e 5dbd e038 1b3d fc4c 68bd
00000160: 8659 3ebd 4602 3dbd 0908 90bd 7be9 3b3d
00000170: 1805 b53a 2f81 443c fc4b 023c d207 bc3c
00000180: b99a 80bc eaca c03c 1d36 3dbd 3806 74bd
00000190: b74e c53d fba8 433d a1ab 1d3d 9a16 2f3e
000001a0: f645 e2bd aa5d 7ebd 5769 8bbc de6a 7e3d
000001b0: eac7 343d 7b4a a63d f2fa d43c f670 35be
000001c0: 5faf 1cbd a7f2 e93d 829b 84bd 9aa2 97bd
000001d0: a8c4 e73c 0061 bbbd d495 bdbd 92a8 c8bd
000001e0: 5643 71bd fcaf 0f3e 9041 733d 7794 66bd
000001f0: d5ae b93d 638b 0bbe 54f6 77be ba4b d2bb
00000200: ef96 783d 02e2 05be aa20 39bd a1df a8bd
00000210: bb7c 94bd 031a fdbc 2dd1 70bd 3f52 1d3d
00000220: 6bed 84bd 1409 3ebe eaa1 523d 386c d43d
00000230: e0fe 4ebe 972a 59be aa11 b1bd 31d4 05bc
00000240: ced1 443e fdeb 113e dc0d 83bd 68c6 983d
00000250: be3b 923c 8ece d7bd 80ed 13be d944 04be
00000260: a83a a53d dfaf 99bd d66d 123d c575 d4bc
00000270: 4ddd 143e 5977 22bd bb8b 5b3d 28fb 75bc
00000280: 8703 3f3e d073 e53d c05f e53d cfb4 2ebd
00000290: c703 6ebd e2f4 bbbd b287 9e3c 9a04 12be
000002a0: 888c 5abd 739a a33d bc20 183d f4f0 bf3b
000002b0: f192 02bd 5b3e f83d 33cb 913d ee57 c6bc
000002c0: 616c 3f3e 1bc3 9cbc 2dde 903e 7d45 89bc
000002d0: f891 493c 7903 7dbd e591 85bd e248 03be
000002e0: 4bc6 88bd b1ac 1cbd ff26 cb3c 7988 23bd
000002f0: 34b6 523e bd78 833d 1fa8 bb3b 4c6a 1dbe
00000300: f2c7 59bd 3352 43b8 1432 e13b f0bc e83d
00000310: 467f 5abd 2da1 0fbc 797b 73bd 1f86 1f3d
00000320: 0f83 04be 575e d9bd 7fe8 ca3d 8cec 03be
00000330: bac2 763d c848 5bbd b72a 2c3d c6b9 c6bd
00000340: 3546 923a d877 b83d c983 173d 5c83 8abd
00000350: 3c51 05bd caa8 ba3c 8545 7f3d 0b96 6e3d
00000360: 6120 4a3e 0638 533d 0419 64bc 110f ff3d
00000370: 6b19 04bd b1bf 7fbd b668 483d a913 dbbd
00000380: 3335 8ebb ecf4 2c3d 840e bebd 8ecf 6ebc
00000390: 6b65 c3bb d0b5 a03d af5d 53bc 1c79 b53d
000003a0: 4ba9 7a3c a90a 183c c9a2 e03b 68fe f8bd
000003b0: 3b37 40bd c305 f03d fc93 4b3d 9159 debc
000003c0: ed00 fc3c b426 dd3d bc52 a9be f939 22be
000003d0: 8dba a23c 6daa 233d 8d69 56bd 2a5f ffbd
000003e0: 8b41 bc3d 5541 293e a1db 95bd b0df 033e
000003f0: 91da 45bd 75dd 88bc 2704 7c3d 986a 8f3d
-0.071575694 0.1064512 -0.14123003 -0.11403201 0.043713767 0.0746379 0.01887491 0.08030969
-0.0108649125 -0.021348119 -0.055069502 0.05697023 -0.06851242 0.084546685 0.00080789014 0.09252738
0.1353424 -0.0025535033 -0.0550878 0.04788581 -0.07217547 -0.028028995 0.023699244 -0.095252685
-0.0024310437 0.019293744 -0.13579758 0.042714685 -0.00723573 -0.013541051 0.08990999 0.0045735966
-0.055706143 -0.07172016 0.033217836 -0.036767233 0.14141282 0.11116495 0.011129476 -0.047099102
0.00521633 0.035190925 0.13228202 -0.009235093 0.22072214 -0.029449021 0.11030314 -0.027259924
0.050569367 -0.038261097 -0.019728603 0.037015885 -0.079491 0.08764775 0.01004343 -0.06472753
-0.056001708 0.04162707 0.081345096 -0.08873993 -0.09427814 0.17106447 -0.091347404 -0.056645654
-0.042386778 -0.09937143 -0.005457235 -0.033599176 0.0617091 -0.049732685 0.0923068 0.027917419
0.15298308 0.027519142 -0.17483376 -0.1858448 0.059435613 -0.002258203 -0.07303809 -0.03210797
0.14943561 0.10566288 -0.09372009 -0.035196472 0.015601707 -0.054090522 0.037896037 -0.056714043
-0.046472095 -0.046144746 -0.070327826 0.04587696 0.0013810722 0.01199369 0.007952686 0.022952948
-0.015698778 0.023534257 -0.046194185 -0.059576243 0.09634154 0.047768574 0.038493756 0.17098466
-0.110485 -0.062101044 -0.017018003 0.062113635 0.044135965 0.08119675 0.025998566 -0.17718872
-0.038253184 0.114232354 -0.06474973 -0.07404061 0.028292015 -0.09149361 -0.09257093 -0.09797777
-0.058902107 0.14031976 0.059388697 -0.05629393 0.0906655 -0.1362739 -0.2421506 -0.0064177187
0.060690816 -0.13074496 -0.045197167 -0.08245779 -0.07250353 -0.030896192 -0.058793236 0.038408514
-0.064905964 -0.1855815 0.051423945 0.103722036 -0.20214415 -0.21207653 -0.08645947 -0.008168266
0.19220659 0.14250179 -0.06399128 0.07459718 0.017850753 -0.10537444 -0.14446068 -0.12916888
0.080678284 -0.07504248 0.03574928 -0.025935063 0.14537545 -0.0396646 0.053600054 -0.015013494
0.1865369 0.1120373 0.111999035 -0.0426529 -0.05810907 -0.09177567 0.019351814 -0.14259568
-0.053356677 0.07988443 0.037140593 0.0058575813 -0.031878415 0.12121268 0.07118835 -0.02421185
0.18693687 -0.019136002 0.28294507 -0.016756767 0.012302868 -0.06177089 -0.06521968 -0.12820771
-0.066784464 -0.03825063 0.024798868 -0.039925072 0.20577317 0.064195134 0.0057268287 -0.1537258
-0.0531692 -4.6568177e-05 0.006872425 0.11364162 -0.053344034 -0.008766455 -0.059443925 0.038946267
-0.1294062 -0.10613697 0.09907626 -0.12883204 0.0602443 -0.053536206 0.042032924 -0.09703402
0.0011159839 0.090072334 0.036990914 -0.06763336 -0.032548174 0.022785563 0.06232216 0.05824856
0.19738914 0.0515671 -0.01392198 0.124540456 -0.032250803 -0.06243867 0.048927985 -0.10697109
-0.004339838 0.042225763 -0.092801124 -0.014575852 -0.0059630177 0.07847178 -0.012900754 0.088609904
0.015299152 0.009279885 0.006855343 -0.12157899 -0.046927672 0.11719849 0.049701676 -0.027142318
0.03076216 0.10798398 -0.33070934 -0.15842427 0.019864345 0.039957453 -0.052346755 -0.12469323
0.09192189 0.16528828 -0.073172815 0.12878299 -0.048304144 -0.016707161 0.061527397 0.07002753

network_body._body_endoder.seq_layers.2.bias f4 [128]
00000000: 2e04 ccbb 6e78 24a8 f62e 660f 6077 9fb7
00000010: 6702 2dbc 3992 34bc 3e0b 4abb 0eb7 78bc
00000020: 71ba acbb de23 0ebc a48a 18bb baa3 33ba
00000030: e25d a1bb eb9a e8b7 f450 5bae 1001 f8b9
00000040: 1d11 4cbc 9006 aebb a34f cdb9 9eda 8a97
00000050: e8d8 f3b4 8bcf a021 9e6c c3bb a6ba b135
00000060: 38ec 32bc 3580 a6bc d3ef 88bc 494a f0bb
00000070: 9723 38bc d25c 808e e562 35bc dd54 371e
00000080: 55a7 aebc cdf7 dba3 54f4 d5bb aaeb ecbb
00000090: 429e 51ba fc33 18bc 7f98 0410 0f0a 4c2a
000000a0: fe94 a4bc e033 41bc 0eaa a3bb ddaa 1812
000000b0: 54c6 7bbc add9 55bc 0838 0abb 1d8e 71bc
000000c0: e309 8abb 8242 53bb c535 a9b9 92ed d3b9
000000d0: e946 28bc b0f6 a8bc 9a21 a6bb 3613 5abc
000000e0: 81b5 cebb b6d6 233b 9a3b 23bc 568c fbb7
000000f0: 067a 9138 6ba4 9892 0000 0000 2c9d a6b0
00000100: d46f 87bc 310e 0dbc a5c3 3e2e 77a7 3320
00000110: ff82 d8bb a897 38bb ecf3 60bc ce17 1dbc
00000120: e115 e2b0 c5ea a9ba 48d0 07bb 591d c1bc
00000130: 12be b2bc a0bd 30bc 29f9 27bc 88fe 2096
00000140: 5342 de28 a05b 8c2f 84c4 03b9 5d67 b2b9
00000150: 54db 27bc e5fa 64bc fc66 a0bb 2356 ffa2
00000160: a868 0635 0fe8 adbb bda3 a6bc 2d72 ad21
00000170: e1a0 24bc 88f9 04b7 468b 4ebc 1a41 912f
00000180: 2512 06bc c7b5 97bc 95de 1ebc 91db 4922
00000190: a3a5 02bc e54d 2730 5756 29b0 39d5 7fbc
000001a0: 9595 c6a5 c0a1 d931 96e3 c030 e74b 39bc
000001b0: df9b 4835 07cc 93bb 99ed 90bb 31ad 74bc
000001c0: 18d5 18bc 3f37 8eb3 e5ab 23bc 4a79 1bbc
000001d0: 33c2 82ba cefc 6dbb 6d48 86bc d6bc afbb
000001e0: 2d7d 8bbb c4cf 35bc fcd4 3abc 150e c2bb
000001f0: a5d9 a4ac 5df6 d0bc 73fd 54b2 af5d 2abc
-0.006226084 -9.129943e-15 1.134892e-29 -1.9009865e-05 -0.010559655 -0.01102119 -0.0030829455 -0.015180362
-0.005271249 -0.008675544 -0.0023275996 -0.0006852705 -0.004924522 -2.7728694e-05 -4.9866736e-11 -0.00047303038
-0.012455252 -0.005310841 -0.0003915998 -8.973228e-25 -4.5420097e-07 1.0896958e-18 -0.005963876 1.324185e-06
-0.010920577 -0.020324806 -0.01671592 -0.007333074 -0.011238954 -3.164382e-30 -0.011070942 9.705489e-21
-0.021320025 -2.3848975e-17 -0.0065293703 -0.007230242 -0.00079962995 -0.009289738 2.614989e-29 1.812233e-13
-0.020090576 -0.011792153 -0.0049946373 4.817335e-28 -0.015367109 -0.013052386 -0.0021090526 -0.014743355
-0.0042126044 -0.0032235687 -0.00032274253 -0.0004042206 -0.010270813 -0.020625442 -0.0050699236 -0.013310244
-0.006308258 0.0024999804 -0.009962941 -2.998688e-05 6.9368674e-05 -9.633081e-28 0.0 -1.2122761e-09
-0.016532816 -0.0086093405 4.3374766e-11 1.5217299e-19 -0.006607413 -0.0028166566 -0.0137300305 -0.009588195
-1.6449883e-09 -0.0012963644 -0.002072351 -0.023573564 -0.021819148 -0.010787398 -0.0102522755 -1.3005013e-25
2.4675715e-14 2.5530955e-10 -0.00012566341 -0.00034027817 -0.010245163 -0.013975834 -0.004895089 -6.920909e-18
5.0071185e-07 -0.0053072046 -0.020341748 1.1753158e-18 -0.010048122 -7.925912e-06 -0.012606448 2.6421604e-10
-0.008183037 -0.018519295 -0.009696622 2.7356817e-18 -0.007974061 6.086494e-10 -6.160454e-10 -0.015614801
-3.4448886e-16 6.33392e-09 1.4034522e-09 -0.0113096 7.473263e-07 -0.004510406 -0.004422855 -0.01493387
-0.009328149 -6.6224395e-08 -0.009989713 -0.009489367 -0.0009976089 -0.0036314013 -0.016391957 -0.005363087
-0.0042568655 -0.0110968985 -0.0114033185 -0.005922089 -4.6853237e-12 -0.0255081 -1.2397652e-08 -0.0103983125

action_model._discrete_distribution.branches.0.weight f4 [3, 128]
00000000: 558d 87bb 1a09 00bc 9b96 5e39 f61f 9bbb
00000010: 1788 e43b 6f90 703c 7a45 f2bb dd1e 25bb
00000020: 13b0 d03c d258 083c 82af 4f3c 59d9 ab3b
00000030: 7b10 05bc 9db2 273c 373c d1bb 8c1c a93c
00000040: 57fb b6bc f740 4dbb 17a7 aaba 938f f6bb
00000050: 7e48 e1bb 9b52 df3b 32e3 343c 841b 173a
00000060: e0d4 f53b 5648 f1bc 844d d4bc 1e5f 3c3d
00000070: 776c 7c3c 489a f0b9 2eef 3a3b 1918 283c
00000080: 5af6 e9ba 13e9 c039 dc3b 873b 6b9b ed3a
00000090: 6615 35bc 94ee 4c3c 78f2 003c f296 693c
000000a0: 70b0 09bb 00cf 56bc 1481 1a3a 2513 2c3c
000000b0: 2b1e 2b3b 3f52 1d3c f276 143c 4c86 9cbb
000000c0: ddad 103c c0ef c13d a4b1 053c cc9d c83a
000000d0: f9c7 adba dae8 06bb d9ba 70bc bbb6 bf3b
000000e0: 762c 083b c89c bbbd 9e4e b5bb 7e5b 93bc
000000f0: 8eb8 703a 4f3c ab3c 73a4 1fbb 4415 013c
00000100: 363b 97ba 1013 c1bc 5018 c63b dfe9 033b
00000110: 7337 d6b9 d320 203c 1b69 033c b939 34bc
00000120: ee65 a9ba 5abd 00bc fbae 3abc 9528 bcba
00000130: 4e15 653a 4b11 faba 07cd cebb eff5 ffba
00000140: a5f8 0abc 7b63 453c 19a5 b739 f8b2 36bc
00000150: 84bc 78bb c8a2 11bb 8e38 4ebb 5512 edbb
00000160: f8bf 74bb d133 fbbb 65cf 153c e21b 803b
00000170: 6470 013c 9919 8c3b 7e49 4b3b 7924 84ba
00000180: 6948 45ba b618 dc3b a0ac c2bc 50b9 893c
00000190: 45cb 2fbc 1dec 993c b959 1a3c 35c7 4fbc
000001a0: 6299 97ba 3e72 ad3a 17c7 033c 9a20 a139
000001b0: a8bf 3eb9 646d c2bb e14d 04bb cdaf 68bc
000001c0: 69cf 1d3c 989b 67bb ca12 8c3b e967 9abb
000001d0: bc1e a93b 88cc c23b ddd1 3fbc 7253 8b3c
000001e0: bea4 153b 0f50 9bbb 78b0 423c 0859 823c
000001f0: 39af 233c 1808 02bc 065b 033b a4e2 533d
00000200: 1509 74ba f532 61bc 9396 803c c80f a43c
00000210: d326 133c 71b3 bbbb 664a 3abc 5dcf 4cbc
00000220: c8bb 35ba 36db 26bc 5daa 563b 3ec3 c6bc
00000230: 677e 8c3c b0c4 a1ba ce29 1fbb 0654 0ebb
00000240: 2a22 b43b 3579 c43b 2f5f 0ebc 0971 31bc
00000250: 2eb2 b93b 3af4 81bb 4d2b 343c 454b f4bb
00000260: 2a48 3ab9 de59 d43c a538 213c e1b9 c2bc
00000270: 8202 bfbc 69f8 c03b b2bf ffbb eb6b d3bb
00000280: 3c8f 283b abed 87ba 2753 d5bb e8f7 99ba
00000290: 6bec 7dbc 3194 28bc 3027 53b9 6b91 4fbc
000002a0: 3516 04bc 5b57 42ba f01e 833d 2ad7 cfbb
000002b0: bad2 ed3b 912d 59bc ab40 7abc 23dc 313c
000002c0: 5cb4 4939 7d2b eabd 83f3 12bc c3de 26bc
000002d0: 7036 42bc 03a7 f73c 9fc4 9d3c 5c5c 383b
000002e0: 71a8 1ebc 429d 093d f04c ab3a a409 9dbb
000002f0: c387 b4ba 2243 7b3b 3997 4a3b c4f0 4ebb
00000300: 944f daba 532a 39bd fa4f af3b 50ec a1bb
00000310: 1e72 fbbb 5a76 a8bb 1660 073c c159 823c
00000320: 3408 e0bc 02c9 3eb9 74d9 95bc e910 5bbb
00000330: c07b 123b d6aa 8ebb ee4d a93c 88d1 283c
00000340: cd2d 623a 0338 353a 664e 873b 243b b53c
00000350: 37ad f53b 00ee 3ebc 481f 25bc 32e4 073c
00000360: f9d3 4a3c 0bad 9bbc 3b1c 863b 4502 183c
00000370: 8fe5 3c3a b11c 8339 1f89 0ebd c1b6 b63a
00000380: 7c36 a4bb cc02 1b3c 12b8 acbc af50 543b
00000390: 5df4 81bc a57d 91bb 51e5 30bb f02e 983c
000003a0: d34f 89ba 0f33 313b 95ac afbb 5e15 4b3b
000003b0: 1adc c9bb ba55 f2bb e211 c23b 6b44 8b3b
000003c0: dfb5 00bd a3e0 51b9 7364 d8bb 07e4 b2ba
000003d0: 6e27 53bc ef18 d3bb fcce 843c 23ba 46bb
000003e0: 097d dabb c194 04bc 338c 84bb 64ab 2dbc
000003f0: 43dc 6cb8 f6c8 953c 19f5 e2bb 0c25 11bd
-0.004136721 -0.00781467 0.00021227675 -0.0047340347 0.006974231 0.014682873 -0.007393536 -0.0025195398
0.025474584 0.008321958 0.012676122 0.0052444157 -0.008121605 0.010235456 -0.006385352 0.020643495
-0.022336645 -0.003131924 -0.0013019767 -0.0075244396 -0.006875097 0.0068152673 0.011040496 0.0005764293
0.0075021833 -0.029453438 -0.025915869 0.04598915 0.015406719 -0.00045891316 0.002852391 0.010259652
-0.0017849908 0.00036794748 0.004127009 0.0018127983 -0.011052465 0.012508053 0.007870309 0.01425718
-0.0021009706 -0.013110876 0.0005893868 0.010502611 0.002611051 0.0096021285 0.009061562 -0.0047767516
0.008830515 0.09469557 0.008160029 0.0015305816 -0.0013258449 -0.0020585568 -0.014692985 0.0058506406
0.0020778454 -0.09160763 -0.0055330535 -0.017987963 0.0009182774 0.02090278 -0.0024359494 0.007878605
-0.0011538032 -0.02356866 0.0060453787 0.0020128412 -0.00040858574 0.009773451 0.008020665 -0.01100009
-0.0012924054 -0.007857645 -0.011394258 -0.0014355356 0.00087388314 -0.001907864 -0.0063110623 -0.001952825
-0.008482133 0.012047644 0.00035027487 -0.011151068 -0.003795416 -0.002222227 -0.0031466815 -0.0072348514
-0.0037345868 -0.007666089 0.009143685 0.003909574 0.007900331 0.0042755124 0.0031019147 -0.001008167
-0.00075257436 0.006716813 -0.023763955 0.016811997 -0.010729616 0.018789345 0.009420806 -0.012681772
-0.0011566097 0.0013232899 0.008043072 0.00030732603 -0.0001819121 -0.0059334505 -0.002018802 -0.01420207
0.00963197 -0.0035340544 0.004274701 -0.004712094 0.0051611345 0.005944792 -0.01170775 0.017007563
0.002283379 -0.0047397683 0.011882894 0.015911594 0.009990507 -0.0079365 0.0020043268 0.051729813
-0.00093092147 -0.013745059 0.0156968 0.020027056 0.008981424 -0.005728178 -0.011370277 -0.012500611
-0.00069325836 -0.0101841 0.0032755353 -0.02426302 0.017150117 -0.0012341943 -0.0024286392 -0.0021717562
0.0054972367 0.0059958943 -0.008689686 -0.010830172 0.0056669926 -0.0039658817 0.010996652 -0.007455262
-0.00017765225 0.025921758 0.009840165 -0.023770275 -0.023316626 0.005888988 -0.0078048343 -0.006452074
0.002572014 -0.0010370513 -0.0065101567 -0.0011746855 -0.015498261 -0.010289238 -0.00020137127 -0.012668948
-0.008061935 -0.00074135297 0.06402385 -0.006342788 0.0072577866 -0.013255493 -0.015274207 0.010855707
0.00019236043 -0.11434076 -0.0089691905 -0.0101849465 -0.011853799 0.030231005 0.019258795 0.0028131222
-0.009683714 0.03359724 0.0013069194 -0.004792409 -0.001377337 0.0038339575 0.003091289 -0.0031576613
-0.0016655796 -0.04520638 0.00535011 -0.0049415007 -0.007673516 -0.0051410617 0.008262655 0.015911939
-0.027347662 -0.00018194693 -0.018292166 -0.0033426827 0.0022351593 -0.0043538613 0.020667043 0.010303862
0.00086280407 0.00069129484 0.004129219 0.022122927 0.0074974555 -0.011653423 -0.010078259 0.008294152
0.01237964 -0.019003412 0.004092721 0.009277885 0.0007205838 0.00025007644 -0.034798738 0.0013939963
-0.005011378 0.009461116 -0.021083865 0.0032396724 -0.015863592 -0.004440027 -0.0026992152 0.018577069
-0.001047606 0.002703849 -0.0053611496 0.0030988078 -0.0061602714 -0.0073954733 0.005922542 0.0042500994
-0.031423446 -0.00020015477 -0.0066037714 -0.001364828 -0.012887819 -0.0064421813 0.01621198 -0.0030323348
-0.0066677374 -0.008092106 -0.0040450334 -0.010599945 -5.647192e-05 0.018284302 -0.0069261906 -0.03543572

action_model._discrete_distribution.branches.0.bias f4 [3]
00000000: a432 f8bc 3c50 af3b dc02 823c
-0.030297585 0.005350141 0.015870504

action_model._discrete_distribution.branches.1.weight f4 [2, 128]
00000000: 373a bf3b 1bee 0ebb 8f41 a8ba 5a36 89bc
00000010: ede5 81ba 10c2 f13a 32d1 08bc 93c4 953b
00000020: 91c1 dfbb 59e3 593c cdbb 943b a411 d23b
00000030: 89d0 a43b 5b4f 64bb 5358 2b3c 2e4b e23b
00000040: 1874 7cbb 4620 12bb a6be 2cbc cbbf 3abc
00000050: 9f80 1dbc f0a3 12bc 77c1 af3b c98a 1bbb
00000060: 7f23 753c 29d5 1c3c 5fc6 3b3b 1053 febb
00000070: 5052 63bc ec4a 403c 1ed2 ed3a 5fe5 c03b
00000080: e465 95ba 31e0 433c 0ebf ccba f34a 7e3a
00000090: 0d12 1ebb a7e1 d4bb 7177 02bc 6a4f 713a
000000a0: 09bb 93ba e9ff 71bb e6d7 bfbb a200 843b
000000b0: 14b2 17bc 4765 43bc 1e5a fc3b 731b f7b9
000000c0: 1073 38bc 6ffd 5d3c 57b4 343c 822d da39
000000d0: ed6e 2e3c df00 583b 5b8c bd3a 19e0 933b
000000e0: d864 2d3c b99a 9b3c 884a 2a3b c946 c8bb
000000f0: 439e 91bb eabb a4bb e0fb d7bb 3869 77bc
00000100: 2f1e 943b 65aa 153c 433c 1bbc 7dc4 fb3a
00000110: 005f 563c 87b2 a0bb 0f10 363c 617b 9d3a
00000120: 3659 373c 1235 cbbb 5af2 133c 6b31 dd3b
00000130: 6218 463b 67c6 18bc 9fb8 b7ba 921b 49bc
00000140: 20c6 ecbb a4da 92bc f982 47bb 0686 cfb9
00000150: 8614 fd3b e537 2dbc baac 5ebc 0f65 243c
00000160: 3e07 81bb 83d3 673b 70c6 05bc 5729 003b
00000170: 6419 5339 bf20 e0bb 4d95 4fba f142 ae3b
00000180: db1d 72bb 66e5 70bb 629c 313c c0ad a43c
00000190: 7343 f9ba 26ad dbbb 8105 bb3a 643a 87ba
000001a0: b7fe 913b 1265 78bc 8df7 173b a3ae 463c
000001b0: ca74 443c a6f4 f23b 77b2 fe3b 2114 0a3b
000001c0: fa30 eb3a 365b 0c3c f076 5f3b 3b9d ba3b
000001d0: e593 d03b 46b9 163b e582 943c 8ba6 51bb
000001e0: a5d7 43bb fa6e 72bc eef7 203c 0082 d63b
000001f0: b286 d8bb b452 e33b 0223 99bb f5b1 7c3c
00000200: cf1e a03b 3bb4 8d3b b2fb 4d3c d6be 30bb
00000210: 294f 8e3b 777d 833c dd03 1fbc b5f9 a53b
00000220: 9761 ebbb 185b 88bb c73b db3b 77bd d8bb
00000230: 129c c7bb 2208 f6bb c3d7 7f3b be63 8a3c
00000240: b99e 4fbc eab7 3cbc 039e c2bb d31d 8cbb
00000250: c71a 313c 8e89 2fbc d6d9 a83a e8f8 38bc
00000260: 978a 65bb 14e3 eebb 9c41 31bc 9bdc 71bb
00000270: d47b 7439 3f98 92bb 52bb 70bb a5f2 73ba
00000280: 6df8 afbb 7058 5bba 962e 883c 6ed9 37bc
00000290: 59fd f339 a284 0f3c 9faa 423c 0a97 bb3c
000002a0: 7192 323c d384 1bbb 8e92 acbb 4f0a 023c
000002b0: b24c a039 24c0 1abb 2a34 fdbb 7636 65bb
000002c0: 1170 2c3c e716 e038 a012 f7bb 0ad2 8d3a
000002d0: 793f 343c 1d9e 80ba 3215 873c 7de7 c3ba
000002e0: 092f a23b 6279 c5bc 3b13 43bb 672c 003c
000002f0: de52 56bb 885c e53b 8c28 aabb a1fa 3bbc
00000300: 17b0 813b d0e7 56bc ddf3 1139 5f33 8d3a
00000310: 0d88 aebb e764 61bb 087d b43b 97fd 833b
00000320: 08b5 603c c194 ca3b 7296 66b8 e0bd 1a3b
00000330: 3e81 54bb f2df fdbb d3c5 4c3c 7115 37bc
00000340: c110 8f3b 1559 303b 7ffe b5b9 fb4f 593b
00000350: f2b4 b83b ba2e c73a 64c5 83bc f7b6 453b
00000360: dbd8 53bc 54fa a03b 2be5 38bb db02 6a3b
00000370: 472b 09bc 9213 bb3c 6cd9 0bbc 6265 68bc
00000380: 99a3 75ba 5c01 173c 22e1 34bc f5f2 c2bb
00000390: 8c42 c039 dc66 273c e06d 003c b7b1 ecbb
000003a0: 1005 313c a8f9 5fbc 751b 283c 95e9 393c
000003b0: be39 f639 b3e9 97bc b3be 0cbc 1691 8b3b
000003c0: 7255 edbb 5a68 11ba 4a80 8b3b f5ba f43b
000003d0: 0e5b 253b 481e 313c 08ea 66bb b2b7 9db9
000003e0: 8049 ecbb 3505 ac3a a920 573c 9b9e 7a3b
000003f0: 4d38 5b3c 37ce 8e39 a8aa d23b 68e7 41bc
0.005835797 -0.0021809402 -0.0012836921 -0.01674955 -0.0009910442 0.0018444676 -0.008350657 0.0045705526
-0.006828495 0.013298833 0.004538989 0.0064107943 0.005029742 -0.0034837339 0.01045807 0.006905935
-0.0038521346 -0.0022297068 -0.010543501 -0.011398266 -0.009613185 -0.008950219 0.005363639 -0.0023733845
0.014962076 0.009572306 0.0028652174 -0.0077613667 -0.013874605 0.011736613 0.0018144285 0.005886718
-0.0011398164 0.011955307 -0.0015620904 0.00097004994 -0.0024119646 -0.0064966264 -0.007963047 0.0009205254
-0.0011270951 -0.0036926216 -0.0058545945 0.0040283957 -0.009258766 -0.011926002 0.0077011725 -0.00047131962
-0.011257902 0.013549193 0.0110293245 0.00041614106 0.010646564 0.0032959504 0.0014461385 0.0045127985
0.010583125 0.018994676 0.0025984365 -0.006111954 -0.004443915 -0.005027284 -0.006591305 -0.01510077
0.0045201997 0.0091348635 -0.009474817 0.0019208338 0.013084173 -0.0049040946 0.011112227 0.0012014919
0.011190703 -0.006201395 0.009029949 0.006750276 0.0030226936 -0.009324647 -0.0014016813 -0.01227464
-0.007225767 -0.017926522 -0.0030443056 -0.00039581972 0.007723394 -0.010572408 -0.013590986 0.01003386
-0.003937631 0.0035373874 -0.008164987 0.001955589 0.00020131987 -0.006839841 -0.0007918671 0.0053180386
-0.0036944065 -0.0036757826 0.010840507 0.020102382 -0.0019017294 -0.0067039905 0.0014268608 -0.0010317084
0.004455413 -0.015160816 0.0023188323 0.012126598 0.011990735 0.0074144183 0.0077727395 0.0021069127
0.0017943673 0.008566668 0.0034097992 0.005695013 0.0063652867 0.0022998615 0.018128822 -0.0031990136
-0.0029883173 -0.014796967 0.009824736 0.006546259 -0.006607854 0.006937349 -0.0046733627 0.015423288
0.004886485 0.0043244637 0.012572216 -0.0026969216 0.0043429327 0.016051037 -0.009705511 0.005065168
-0.0071832645 -0.00416125 0.0066904756 -0.006614383 -0.006091603 -0.0075082937 0.0039038516 0.016893264
-0.01267212 -0.011518458 -0.0059392466 -0.0042760163 0.010809607 -0.010713948 0.0012882303 -0.011289813
-0.0035025233 -0.0072902534 -0.010818865 -0.0036905173 0.00023315783 -0.0044737156 -0.0036732745 -0.0009305871
-0.005370191 -0.0008367365 0.016623776 -0.011221273 0.0004653733 0.0087596495 0.0118815 0.02289917
0.010899172 -0.0023730292 -0.005266494 0.007937028 0.0003057472 -0.002361306 -0.0077271657 -0.0034975088
0.010524766 0.00010685418 -0.007540062 0.0010820043 0.011001461 -0.0009812746 0.016489599 -0.0014946308
0.0049494547 -0.024105731 -0.00297661 0.007823086 -0.0032703201 0.006999556 -0.005192822 -0.011473329
0.003957759 -0.013116792 0.00013919124 0.0010772756 -0.005326277 -0.0034392418 0.005508069 0.004028033
0.013715036 0.0061822836 -5.4976386e-05 0.002361171 -0.0032425667 -0.0077476436 0.012498337 -0.011174546
0.004366011 0.0026908566 -0.00034712625 0.0033159244 0.0056368047 0.0015196421 -0.016085334 0.003016887
-0.01293012 0.004912654 -0.0028212767 0.0035707268 -0.0083721345 0.02283648 -0.008535724 -0.014184328
-0.0009370386 0.009216633 -0.011040004 -0.005949373 0.00036670675 0.010217395 0.007838696 -0.0072233337
0.01080443 -0.0136703625 0.0102604525 0.011347194 0.00046963798 -0.018544054 -0.008590388 0.004259239
-0.007242852 -0.00055468606 0.0042572366 0.007468576 0.0025231275 0.010810442 -0.0035234708 -0.00030082237
-0.0072109103 0.001312411 0.013130345 0.003824151 0.013380122 0.00027237993 0.006429035 -0.011834957

action_model._discrete_distribution.branches.1.bias f4 [2]
00000000: 0b87 773c 0c87 77bc
0.01510788 -0.015107881

action_model._discrete_distribution.branches.2.weight f4 [3, 128]
00000000: 1a6c e53b 8341 863c 5b4b 3e3b 444d 0a3c
00000010: a0f3 1cbc 1d37 803c d6e3 683b ed2f e5b9
00000020: b9e0 a93b fa5b 2bb9 54dd d4bb a41e a43c
00000030: 6a48 353b 6a20 61bb 69d8 a13a c01a e5bb
00000040: e364 923b 687f cb3b 21d0 a5bc 008b 7cbb
00000050: 7342 8f3b 6d58 7bbb fc33 12ba 3c97 61bb
00000060: dc3c a5bb 6a27 673b 5344 493b d651 3a3b
00000070: 4b1a eebb 0b40 a93a c0a3 ae3b 886d bfbb
00000080: 9a55 64bb f937 06bb e0ba 003c b101 d6bb
00000090: 117a 1f3b 5885 fcba cbc7 92b9 ed3c e2ba
000000a0: c636 aabb 3467 07bc 2c7c a13b 666c 9cbc
000000b0: e704 81bb 3762 96bb b0de fb37 5900 333b
000000c0: 0a7e 8dbb 170f 283b 1418 843b cf0f 733a
000000d0: dec0 ecba 6542 e33b 0058 c13b 1f75 9aba
000000e0: 2625 63bc 198f 5b3b 2980 16bb cdfd 073c
000000f0: 6000 3f3b 5545 103a 1d2f 533c e60f 423c
00000100: 7bb6 81bb 5630 df3a 0479 803b d3bd e33b
00000110: 26e8 8e3a 8a09 60ba 1170 9a3b 4ac1 a73b
00000120: 1b00 413c bbbc 903a 821a 96bb 24e1 ab3b
00000130: 6240 ecba 843c fd3b f4af 0ebc 92b6 10bc
00000140: 5bcd c0bc b364 ba3b 3b0a 9d3b 833b 8a3b
00000150: 15b4 943c 5a22 273c d047 9438 cbcc 8c36
00000160: b366 993b 08a6 743a 2538 4b3b ca06 503c
00000170: 5499 a5bb 4234 943b 3d9c 18bc 2866 ca3b
00000180: 2103 c3ba b525 043b 508b 223b c20b eb3a
00000190: 5e18 1fb8 14b2 b7bb fef6 96bb 1951 ab3b
000001a0: 0bdd 18bc 198b 3a3c 6684 ea3b 9c0a dfbb
000001b0: 43c3 f9b9 adfd 343a d65e 843a 43b6 17bc
000001c0: b87c 56bb 72a6 283c 571e f23b c5f2 1c3c
000001d0: 74ab 43bc 47de 1dbb ee4c 64ba 68c6 f8b8
000001e0: 7e0e b6bb f144 853a c8ba 9a3c c8e9 293b
000001f0: daae 09bc 8881 4fbb 7956 6cba 3762 8bbb
00000200: aa3a 483b 9a6c 91bb 0b33 da3b 1104 b9bb
00000210: ae70 f2bb c72b 273b eae3 a7bb cdbf 92ba
00000220: 2940 083c 7c8c 75bb d214 c0bb f0fe 9f3c
00000230: 14ab 3e3c a461 ffb7 834c 073a a222 5e3a
00000240: ee0f 533b 0dbf f53b cec6 fbbb 50e3 e7bb
00000250: 98ca 1ebb cd40 de3a 9f03 f8bb b93f 51bc
00000260: 9241 7abc 67c7 af3a 18c2 a03a 2d0d 98bc
00000270: 6642 c8bb 4fbd 353c 279a cebb cd84 a53b
00000280: a746 acbb b276 113c 6721 023c bd00 ec3b
00000290: 7ef7 19b9 8a9a 2dbb df71 53bc 57a3 b83b
000002a0: 6d65 afba c0c0 57bb 90fb b73c bf2c dbb9
000002b0: 32fe 2ebc f370 d5bb 26bd a6bb aa93 2d3c
000002c0: 4d6a 28bb 695a abbc 4aad c43b cb18 e8bb
000002d0: a4d8 48bb df01 163c db73 01b9 c3ee 40b9
000002e0: 9d6d 613b d377 d33b f31a 88bb 11d0 673a
000002f0: 370a 05bc 45da 2cbb b2ff 6e3c f900 f63b
00000300: 3776 acbb 56d5 8dbc d7ff 4b3c f39c cdb8
00000310: 5777 4ebb 9ac1 6f3c 254f b8ba b3a4 85bc
00000320: 9213 063c 09c5 3ebc c128 bd3b 3573 5bb9
00000330: 3f93 ebbb 3072 8aba 3540 223c faf6 b53b
00000340: 3579 b53a 78d7 4ebb 213c ec3b 5357 26bc
00000350: 5af0 f6bb e323 2e3c 7e8f cabc 2c63 1b3c
00000360: 064d 9dbc 82f9 1cbc 39cd 453a b7b0 0d3b
00000370: da8c a4bb 1f63 a6bb d7fc ccbc f44a 0a3c
00000380: a2d3 a63b a2db 163c d905 51bc cf48 71bc
00000390: 94b1 b93b 68a5 693c e512 caba e82b 113c
000003a0: 910f b0ba 6e8c 043c ea2b a53b 360b b2bb
000003b0: 20c2 2cbc 5ca5 0a3a feb0 603b 91dc a6ba
000003c0: 1fc7 53bc fe53 793b 7756 9c3b ba32 5e3c
000003d0: 88d0 32bc 9466 1e3c cac8 c039 77e5 003b
000003e0: 211c f33a 1009 2bbc 504b 323b 67b5 993b
000003f0: 7be7 ab3c e79d 1b3c b6a5 3b3b 0650 3d3c
0.007001412 0.01638866 0.0029036615 0.008441273 -0.009579569 0.01565128 0.0035536191 -0.0004371399
0.0051842597 -0.00016342095 -0.006496111 0.020034142 0.002766157 -0.0034351596 0.001234782 -0.0069917142
0.004467593 0.0062102564 -0.020240845 -0.0038535 0.004371935 -0.0038352266 -0.0005577204 -0.0034422418
-0.0050426554 0.0035271295 0.003071089 0.0028430126 -0.007266318 0.0012912763 0.005329579 -0.0058419146
-0.0034841062 -0.002048014 0.0078570545 -0.0065309634 0.0024334232 -0.0019265814 -0.00027996147 -0.0017260589
-0.005194518 -0.008264352 0.0049281325 -0.019094657 -0.003937352 -0.004589345 3.0025229e-05 0.002731344
-0.0043180035 0.002564376 0.0040311906 0.000927207 -0.001806285 0.006935405 0.005900383 -0.0011784172
-0.013863837 0.003350204 -0.0022964573 0.008300257 0.002914451 0.00055034953 0.012889651 0.011844611
-0.003958521 0.0017027955 0.003920676 0.006950119 0.0010902926 -0.00085463433 0.0047130664 0.0051194774
0.01177981 0.0011042574 -0.0045807967 0.0052453447 -0.0018024559 0.0077281613 -0.008708943 -0.008832591
-0.023535421 0.005688274 0.0047924793 0.00421852 0.018152276 0.010201061 7.070566e-05 4.196166e-06
0.004681432 0.0009332602 0.0031008807 0.012696931 -0.0050536785 0.004522831 -0.009314594 0.0061767288
-0.0014878252 0.0020164077 0.0024802275 0.0017932581 -3.7931248e-05 -0.0056059454 -0.0046070805 0.0052281735
-0.0093300445 0.0113857025 0.0071568964 -0.0068066847 -0.00047638462 0.0006904256 0.0010099064 -0.009259763
-0.0032728147 0.01029359 0.0073888707 0.009579365 -0.011942733 -0.0024088786 -0.0008708973 -0.000118625176
-0.005555927 0.0010167641 0.018887892 0.0025926698 -0.008403504 -0.00316629 -0.0009015571 -0.0042536515
0.0030552545 -0.004437995 0.006658917 -0.0056462367 -0.0073986864 0.002550827 -0.005123605 -0.0011196077
0.008316078 -0.0037467768 -0.005861857 0.019530743 0.011637468 -3.0443836e-05 0.00051612424 0.00084737886
0.003220554 0.0074995817 -0.0076836115 -0.0070766583 -0.0024229642 0.0016956568 -0.007568791 -0.01277154
-0.015274422 0.0013410867 0.0012264876 -0.01856097 -0.006111431 0.011092498 -0.0063049975 0.0050512315
-0.005257446 0.008878397 0.007942534 0.0072022364 -0.00014683415 -0.0026489818 -0.012905567 0.005634706
-0.0013381668 -0.0032921284 0.022458822 -0.00041804273 -0.010680722 -0.0065137087 -0.005088466 0.010594288
-0.0025698126 -0.020917134 0.006002103 -0.0070830337 -0.0030646706 0.00915572 -0.00012345558 -0.00018399493
0.003439761 0.006453493 -0.004153603 0.0008842955 -0.008120111 -0.0026375216 0.01458733 0.00750744
-0.0052631157 -0.01731364 0.012451134 -9.804396e-05 -0.0031504238 0.014633561 -0.0014061673 -0.016313886
0.008183377 -0.0116436565 0.0057726805 -0.00020928385 -0.007189184 -0.0010562595 0.009903003 0.0055531235
0.0013845327 -0.0031561535 0.0072093164 -0.010152656 -0.0075359764 0.010628673 -0.024726626 0.009484094
-0.019201767 -0.009580972 0.0007545534 0.0021620223 -0.0050216736 -0.005077734 -0.025022907 0.008440722
0.0050911466 0.009207638 -0.012757742 -0.014726832 0.005666921 0.014260627 -0.0015417008 0.008860566
-0.0013432374 0.008090122 0.0050406354 -0.0054334654 -0.01054433 0.00052889227 0.0034285183 -0.0012730529
-0.012925892 0.0038044448 0.0047710496 0.013561899 -0.010913976 0.009668011 0.00036770693 0.0019668022
0.0018547812 -0.010439172 0.0027205534 0.0046908143 0.020984402 0.009498096 0.0028632707 0.011554724

action_model._discrete_distribution.branches.2.bias f4 [3]
00000000: 2b2b 1e3b dd52 1dbb 177d 9d3a
0.0024134617 -0.002400569 0.0012015429

action_model._discrete_distribution.branches.3.weight f4 [2, 128]
00000000: 995a e23b 270c d83b e780 05bb e306 d53a
00000010: 159e 22bb d0f1 aabc 99e2 23bc d592 cebb
00000020: 2cc1 c23b 2ec8 673c 9db2 113b 219b ac3a
00000030: 0f2f 18bc 935d 483b 77ed 20bc 3770 a7bb
00000040: 6175 f9bb 7b28 483a e2c9 acbb c093 483c
00000050: 0e06 5a3c a70f 3e3c 6235 45bc 629b 7e3b
00000060: 5b01 f43b dc89 7c3b 2506 c63b f112 ff3b
00000070: c3a3 0bbc 36bc 94bc 006f 21bc 30be 32bb
00000080: cd03 77bb 628b 4c3b f9f7 2339 5d2e 89bb
00000090: fadb 39bb e040 b43a 6e71 3bbc 59f3 0e3c
000000a0: 5129 94ba 2594 953b 98b2 6f3c 030f 18bb
000000b0: e195 033c 73e4 8cbb c968 69bc 9c1f 46bc
000000c0: b6b5 c53a dd97 1bbc 35f4 dcbb 3318 43bb
000000d0: b299 bfbb e6af e53b fd58 b43a 1955 b23b
000000e0: ac17 343b 0343 143a a59c f43b 5ef8 253c
000000f0: 3760 61bc 2958 32bc e7a5 a7bc 2e09 50bc
00000100: 2f76 48b9 5c23 02bc 13b8 753c c81e 7fbc
00000110: 60cb 553c 3a8a c93b d1f5 25bc 80dd 66bb
00000120: 9f53 91b8 e183 2a3a 2f51 95bb a04b 163c
00000130: c297 ec3a 8296 b6b7 5b1b 433c 5bb5 50bb
00000140: da8a 6abb df28 3cbc 832f 723b 5bf3 473a
00000150: f959 7ebb 5262 0c3c 50c1 79bc ffdf 33ba
00000160: efb2 06bb 8f54 d13b 06ce 7c39 f7e8 27bc
00000170: 2eca 1d3a 9c3c 79bc 3d02 45bc eca6 1a3a
00000180: 1a59 8d3b 418f 42bb 8442 32bc c8f2 d03b
00000190: 08b3 e3bb f8b2 34bb 867b 643c a985 f03b
000001a0: bf26 8eba 83a4 ef3b 85b1 b93b c2d6 36bc
000001b0: 752b 6abb 7c2b aabc 2da4 ab3b 63b9 5c3b
000001c0: 70f3 233b 251a 483c d4ff 8ebb 4a34 a3ba
000001d0: bd68 29bb 2457 53bb d5ab 1bbc 7855 b4bb
000001e0: c8a5 16ba 10f4 233c 660f a5b9 cce3 b5b8
000001f0: 82b1 52bc 8d5f ddbb 5d59 743b 493b 9abc
00000200: 5226 893c 1fea 6cbb bf4c a93b 981e fa3b
00000210: 8fdd b83a a23a 293c 5241 413b 554d bcbb
00000220: 636a 63bc bf78 7e3c 3495 c43b f6af 05bc
00000230: f5b1 833c 5919 62bb a436 173c e78c ebbb
00000240: 8191 20bc 994a 2dba a4c3 93bc c5ac 7d3a
00000250: 9c1e 9c3b a0b7 e1bb 835b a7ba ba8a 7ebc
00000260: 0866 b83b 5db7 17bb afd2 ab3b b9cb f9bb
00000270: 94ad 49bb f7c7 74bc 1096 b8bb eb39 4dba
00000280: d1d0 90bb f22d 5dbc dc1f cab9 da30 0cbc
00000290: 716c b03b 41fe e8ba 98c3 163d 5a2f 3339
000002a0: 80ba 843a c61d 433b cca2 09bb 9aa4 32bb
000002b0: 681d c03b b63f 033c 8a10 8ebb cb5f 7fbc
000002c0: 1ef5 78bc 6e0f 683c 69e6 0abc e9fd e53b
000002d0: 4082 2ebb e837 d6bb 96cc 393b d2a6 873b
000002e0: f275 903b 3bb8 36ba e3f6 a33b 82fb 8c3b
000002f0: 4695 dc3a 28bc 943b e3eb b73c 32a6 10bc
00000300: bb44 d53b 451a 3ebb cd90 6a39 adb4 20bc
00000310: a236 243c ffb6 16bc 2a3b a0bb 57e5 d73b
00000320: 9190 4fbc 6fd5 00bc ccaf 9c3b 00e4 6e3b
00000330: 2f01 183b 2ef1 a03b bfed 343c 9be5 5ebc
00000340: 8292 33bc 276e 573b 559e 57bc 9a2d 53bc
00000350: 0b24 c23b 74f7 af3b 675e 0a3c 544f c5b9
00000360: a788 9b3b 7fcf f13b f877 58ba acca 37b9
00000370: 9bb2 5d3b 263f 6bbc e48c dcbb fbf6 caba
00000380: 0832 bdbb 5919 67b9 8797 14bc a4c2 2fbc
00000390: d1bc 893a 61f0 c53b a135 98bb c39e 443b
000003a0: c251 9cb8 05b6 74bb c61a df3b 99de fbba
000003b0: dce5 58bc 3769 30bb 531d c93b e140 aa3b
000003c0: 86fa b43b 75df f7bb eb30 19bb 447d d43a
000003d0: aa75 abbc 8245 403a b2a3 33bc aa75 0f3b
000003e0: 769b 93bb ddf6 cebb 2974 c1bb 1925 cf3b
000003f0: ee49 2ebc 9267 afbb faa1 46bc 4d08 2b3c
0.0069077727 0.0065932455 -0.0020371021 0.0016252663 -0.0024813463 -0.020867258 -0.010002756 -0.006304125
0.005943438 0.014146848 0.0022231706 0.0013168791 -0.009288563 0.0030573353 -0.009822241 -0.0051098126
-0.0076128696 0.00076354266 -0.0052730897 0.012242258 0.013307108 0.0116004115 -0.012036653 0.003884994
0.0074464506 0.003853432 0.006043213 0.0077842404 -0.008522931 -0.018156152 -0.009853125 -0.0027274005
-0.0037691474 0.0031211008 0.00015637268 -0.004186435 -0.0028359876 0.0013752244 -0.011440618 0.008725011
-0.0011303817 0.0045647793 0.014629982 -0.0023202307 0.008031339 -0.004299694 -0.014246174 -0.012092497
0.0015084061 -0.009496656 -0.006742979 -0.0029769063 -0.0058471793 0.007009494 0.0013759431 0.0054422733
0.002747993 0.00056557375 0.0074649625 0.010130016 -0.01375585 -0.010885277 -0.02046485 -0.012697501
-0.00019117513 -0.007943001 0.0149975 -0.015571304 0.013048977 0.006150511 -0.010129408 -0.003522724
-6.9297144e-05 0.0006504637 -0.004556797 0.009173304 0.0018050598 -2.1766176e-05 0.0119083775 -0.0031846378
-0.0035788328 -0.011484354 0.0036954589 0.00076275103 -0.0038810952 0.008568363 -0.015243843 -0.0006861686
-0.002055343 0.006388254 0.00024109342 -0.010248414 0.0006019202 -0.015212204 -0.012024459 0.0005899507
0.0043136002 -0.0029687437 -0.010880116 0.006376598 -0.0069488324 -0.0027572494 0.013945466 0.0073401523
-0.0010845287 0.0073133125 0.005666914 -0.011159601 -0.0035731469 -0.020772688 0.005238077 0.0033679835
0.0025016926 0.012213265 -0.004363993 -0.0012451496 -0.0025849782 -0.0032247985 -0.009501417 -0.0055033527
-0.0005746749 0.0100069195 -0.00031482725 -8.673183e-05 -0.012859704 -0.0067557753 0.003728471 -0.018827097
0.016741905 -0.003615029 0.0051666196 0.0076330416 0.0014104116 0.010328921 0.0029488397 -0.0057465234
-0.013880345 0.015531718 0.0059992317 -0.008159628 0.016076067 -0.0034499972 0.009229336 -0.0071884277
-0.009800316 -0.0006610542 -0.018037625 0.0009676929 0.004764391 -0.006888345 -0.0012768361 -0.015536005
0.0056273974 -0.0023150065 0.0052436213 -0.0076231626 -0.0030773627 -0.014940253 -0.005633123 -0.000782876
-0.004419424 -0.013499724 -0.0003855218 -0.008556569 0.005384021 -0.0017775969 0.036807626 0.0001708841
0.0010126382 0.0029772385 -0.0021001576 -0.0027258755 0.0058628805 0.008010795 -0.0043354677 -0.015586804
-0.015195159 0.014163835 -0.008477786 0.007018794 -0.0026627928 -0.0065374263 0.0028350702 0.0041397596
0.0044085914 -0.00069702015 0.0050037964 0.004302443 0.0016829155 0.0045390315 0.022451347 -0.008828687
0.0065084375 -0.0029007357 0.00022369921 -0.009808701 0.010022791 -0.009198903 -0.0048898654 0.0065886187
-0.012668745 -0.0078633865 0.004781699 0.0036451817 0.0023194065 0.0049115634 0.011043011 -0.013604547
-0.010960223 0.0032872052 -0.013160308 -0.01288929 0.005924707 0.005370075 0.008445359 -0.00037633872
0.004746515 0.007379472 -0.0008257623 -0.00017527741 0.003382838 -0.0143583175 -0.0067306627 -0.0015484983
-0.0057737865 -0.0002203932 -0.00906933 -0.010727558 0.0010508542 0.0060406183 -0.004645065 0.0030001856
-7.453888e-05 -0.0037339937 0.0068086116 -0.001921612 -0.0132383965 -0.0026918182 0.006137529 0.0051957224
0.005523029 -0.00756448 -0.0023375105 0.0016211648 -0.02093013 0.0007334576 -0.010964321 0.0021890202
-0.0045046164 -0.0063160495 -0.00590374 0.006321561 -0.010637743 -0.0053529227 -0.012123579 0.010438991

action_model._discrete_distribution.branches.3.bias f4 [2]
00000000: 453b 88ba 5d3b 883a
-0.001039364 0.0010393668
