Assets/results/OuiTankRemaster/TankLearningAI/TankLearningAI-18947.onnx (onnx, 143120 bytes, 15 tensors)

discrete_act_size_vector f4 [1, 5]
000000 00 00 40 40 00 00 00 40 00 00 40 40 00 00 00 40
       3.0 2.0 3.0 2.0
000010 00 00 00 40
       2.0

network_body._body_endoder.seq_layers.0.weight f4 [128, 110]
000000 bd 99 97 bb b7 06 2f be 1e 19 ad bd 05 cc 60 bd
       -0.0046264813 -0.17092405 -0.08452056 -0.05488207
000010 d8 f3 39 3e ce 3c 1d 3e 77 87 cf bc 09 29 18 3e
       0.18159425 0.15355226 -0.02533315 0.14859404
000020 2f 08 de 3d 0f 18 3f bd f7 87 b5 3b aa 63 31 3d
       0.10841405 -0.046653803 0.00553989 0.043307938
000030 94 8c c6 3d ff 63 82 bd 89 4c ac bd c2 d4 7b bb
       0.09694782 -0.06366729 -0.084130354 -0.0038426374
000040 a4 c6 f8 3d 0b 90 b5 bd de 2f 0c 3e ae 44 42 3d
       0.12147263 -0.08865365 0.13690135 0.04742878
000050 6e c0 22 bd 31 e6 c9 bd ea 2c 94 3d 28 91 9d 3d
       -0.039734297 -0.09858359 0.07235129 0.07693702
000060 b8 16 1e 3e f8 26 1a bc 4e 45 47 3c 1c 54 9c bc
       0.15438354 -0.009408705 0.01216252 -0.019083075
000070 af 11 f3 3b f9 92 25 3d b4 4a 44 3d 44 eb 41 3d
       0.0074178795 0.040423367 0.047922805 0.047343507
000080 e4 37 7b 3b 51 24 4a 3d 6f 55 3c 3d ec 89 87 3b
       0.0038332874 0.04935104 0.045979913 0.0041363146
000090 eb ad f7 3d e0 a8 11 be de 63 53 bd 22 2b ec 3d
       0.12093719 -0.14224577 -0.051608913 0.115316644
0000a0 d2 94 d2 3d 7b 28 49 3c f6 cf 01 be 1c ed 32 be
       0.102822915 0.012277718 -0.12676987 -0.17473263
0000b0 88 41 9b 3d 78 2b 58 3d ee 9b 04 3e 76 3a 50 3d
       0.075808585 0.05277583 0.12950107 0.050837003
0000c0 31 b7 07 be f5 fe 3b bd c5 b2 7e 3e b6 ad 83 3c
       -0.13253476 -0.045897443 0.24872883 0.016074043
0000d0 98 b0 6b be 14 52 31 bd 60 c2 14 3e 6a 27 7f 3d
       -0.23016584 -0.043291166 0.14527273 0.062293448
0000e0 fa 79 b3 bd 8d 3c 73 3d 0c 3e 32 3d 35 44 20 3d
       -0.087634996 0.059383918 0.043516204 0.039127547
0000f0 23 2c 51 be 14 32 1e be 4c 17 2d 3d c7 a3 ca bd
       -0.20426993 -0.15448791 0.042258546 -0.09894519
000100 80 99 22 bd 82 1c c6 3d f4 d8 4e bd 96 3c ea bd
       -0.03969717 0.09673406 -0.05049987 -0.11437337
000110 b4 db ba 3d a2 f9 33 be 0d 27 2e be c6 e6 1d b9
       0.09123936 -0.17575696 -0.17007084 -0.00015058657
000120 c5 19 0b 3d ca ff 8b 3c a3 c0 94 bd c7 d3 bb bd
       0.033960123 0.017089743 -0.07263305 -0.09171253
000130 0a 6e fe 3c 8c 0e 97 bd 03 71 d3 bd 4b ba 07 bd
       0.03105833 -0.073758215 -0.1032429 -0.033136647
000140 ff 9e 46 be 06 58 87 bd 96 12 b9 bd e8 04 19 be
       -0.1939659 -0.06608586 -0.09036748 -0.14943278
000150 58 51 fb 3c 67 30 7a 3c 00 6c a6 3d fe 36 54 be
       0.030678436 0.015270329 0.08126068 -0.20724103
000160 c9 36 53 3d 04 9f 2a 3d 8e 03 2a 3e 31 82 0d 3e
       0.05156592 0.041655555 0.16602919 0.13819195
000170 56 82 03 3d 55 ce a6 3d 31 0d 40 be 6f aa cb bd
       0.03210672 0.081448235 -0.18755032 -0.09944617
000180 dd 20 e5 3c 30 ad ab 3d fa 7b ef bd 6b dc 50 3c
       0.027969772 0.08382642 -0.116935685 0.012747864
000190 8d d8 2f be 2a 43 a8 bd ee 02 c5 bd de d6 e4 bd
       -0.17172451 -0.082159355 -0.096196994 -0.11173795
0001a0 5c 7a 7f bd 71 7e 35 bd 66 f9 ca 3d 66 ce 19 3e
       -0.06237255 -0.044310037 0.0991085 0.15020141
0001b0 22 f1 f8 bd bf 31 99 3b e4 50 1d 3d 27 fa 56 bd
       -0.121553674 0.0046751196 0.03840722 -0.052484658
0001c0 e0 26 a0 bc a6 5d 8d be a4 d9 2d 3e 06 a4 2e 3e
       -0.019549787 -0.2761051 0.16977555 0.17054757
0001d0 dc 56 78 bd 90 94 00 be c5 7e d3 bd 0d 27 b2 bd
       -0.06062971 -0.12556672 -0.10326914 -0.086988546
0001e0 04 a7 3a 3d 46 ac 2a 3d bf 09 88 3e 5f ba 38 bd
       0.045569435 0.0416682 0.26569936 -0.045099612
0001f0 75 53 f8 3c 89 a9 27 be 2d 48 a1 bd 26 cf 02 3d
       0.030313233 -0.16373266 -0.078750946 0.031935833
000200 88 8f f7 3d 1c 79 dc bc a0 d5 96 3d 9b e4 8f bc
       0.12087923 -0.026913218 0.073649645 -0.017565062
000210 4b bc 94 3c 5b 17 83 bc 7d ff 2c bd 07 6c 32 3c
       0.018156191 -0.016002348 -0.04223584 0.010890014
000220 6c de 96 3d b4 32 eb 3c b3 f2 a7 bd 25 73 95 3c
       0.07366642 0.0287107 -0.08200588 0.018243382
000230 9a aa 02 be 46 61 3c bd 6b 20 bf bd 96 a1 e0 bc
       -0.12760392 -0.045991205 -0.09332355 -0.0274208
000240 61 27 88 3d c5 5e 13 bb a8 c8 ae 3d a0 e3 44 3d
       0.06648136 -0.0022486907 0.08534366 0.048068643
000250 93 91 80 3d f5 1a c8 bb 54 1c b1 3d a8 1f 81 bd
       0.06277766 -0.006106729 0.08647981 -0.06304866
000260 0c 38 c7 bd f1 ce a0 3d dd c5 e7 bd 58 b2 13 bd
       -0.09727487 0.07851971 -0.11317036 -0.036058754
000270 27 d1 d3 bd 31 5d 2f bd 48 bb 1b 3e 37 dd c3 3b
       -0.10342627 -0.042813484 0.15208161 0.0059772986
000280 4a d4 b4 3d 9a 4f c6 3d 0b 29 8f 3e d5 e4 fb bc
       0.088295534 0.096831515 0.27961 -0.030748764
000290 c2 4c 98 3c 8b 3c 6b bd bb 0c 85 bd 0d ea bf 3d
       0.018591288 -0.057430785 -0.06496569 0.093708135
0002a0 30 c6 c2 bd 11 58 b1 3d d6 44 c0 bd 54 4e 15 bd
       -0.095104575 0.086593755 -0.093881294 -0.036451653
0002b0 82 37 e9 bd a2 d7 ab bd a0 86 9c 3d a8 5a 48 3d
       -0.113875404 -0.08390738 0.07642865 0.04891458
0002c0 b4 e7 a6 3d 3f ab 77 bc 50 b0 b7 3a c6 4f bb bd
       0.081496626 -0.015116512 0.0014014337 -0.09146075
0002d0 4f 08 c6 3c 15 3b c1 bd 72 2d 2d bc 8b 1a 6d bd
       0.024173884 -0.09435097 -0.010569917 -0.05788664
0002e0 61 8d 80 bd 4b 91 57 bd d3 10 7e 3c 0a 28 0a 3e
       -0.06276966 -0.052628797 0.015506941 0.13491836
0002f0 8e e3 71 3b dc 8b a5 3d 82 20 ec 3d 88 48 8f bd
       0.0036909315 0.08083317 0.11529638 -0.06996256
000300 ad 54 b1 3d 90 a7 8a bd aa 50 d5 3c dd 2c 22 bd
       0.08658729 -0.06770241 0.02603944 -0.039593566
000310 68 ce 12 be b6 3f de bd 40 01 2f bd 6c e3 a7 3c
       -0.1433655 -0.10851996 -0.0427258 0.020494185
000320 92 54 56 3d 01 62 ba 3d 99 9f 63 bd 01 63 c0 3c
       0.052326746 0.09100724 -0.055572126 0.023484709
000330 40 36 03 3d ee 36 ac bc cc 36 81 bd a5 d4 49 bd
       0.03203416 -0.021022286 -0.0630928 -0.04927506
000340 ea 3b 58 bd 2e 8c 08 be 9a 54 2c be 20 2a 8b bb
       -0.052791514 -0.13334724 -0.16829148 -0.004246965
000350 2c b7 cd 3d ed f8 69 3c 3a 60 a9 bd 8d b3 0d 3d
       0.10044703 0.01428054 -0.08270307 0.03459506
000360 65 f8 a5 bc f2 37 31 3d 06 9a 8f ba bd f8 a8 bd
       -0.020260045 0.043266244 -0.0010955937 -0.08250568
000370 8c 4a 04 bd ff 67 cc bc aa 06 67 bd 2e eb 2b bc
       -0.032297656 -0.024951933 -0.05640284 -0.010493083
000380 d4 61 a2 3c ca fe 04 3e c0 93 d9 bd 22 d0 de bd
       0.019822039 0.1298782 -0.10623884 -0.10879542
000390 64 87 2a bb 88 ed 5d 3e 6f d5 fe bd 28 4d 05 be
       -0.002602064 0.21672642 -0.12443053 -0.13017714
0003a0 95 70 ec 3c 01 36 9b bc f4 58 9a be b3 12 8e 3d
       0.028862277 -0.01894665 -0.3014599 0.0693716
0003b0 80 98 cf bd 80 f5 0e 3e 1e 1b b0 bd 91 fa b6 bd
       -0.10136509 0.13960838 -0.08598922 -0.089345105
0003c0 0a 1e a5 3c ed 55 8e bc a9 14 35 bd 71 9b ff bc
       0.020155925 -0.017374957 -0.044209156 -0.03120205
0003d0 46 a6 02 3d 62 35 ee bc 39 ba 48 3d 23 14 ec b8
       0.031896852 -0.02907819 0.04900572 -0.00011257108
0003e0 7a dc 1d 3c 8c 60 29 3b ea 3f 28 bd 3a 96 8b be
       0.009635085 0.00258449 -0.04107658 -0.2726305
0003f0 3b 63 84 bb de 2c 31 3e 5f 2b 10 be 2e e7 e2 3d
       -0.0040401495 0.17302272 -0.14079045 0.1107925

network_body._body_endoder.seq_layers.0.bias f4 [128]
000000 8b 0d 4e 31 06 01 f3 9c 0d 4a aa b8 ff 62 15 bb
       2.9984644e-09 -1.6080656e-21 -8.120025e-05 -0.0022794602
000010 ee 81 21 b8 39 1e 88 24 b3 e7 12 b9 93 59 40 b9
       -3.8506398e-05 5.90318e-17 -0.0001400996 -0.00018343916
000020 e8 91 9a ba 00 00 00 00 9c 39 06 b8 53 50 24 ba
       -0.0011792751 0.0 -3.2001743e-05 -0.0006268073
000030 de c1 d4 38 e4 27 b6 a8 00 00 00 00 e1 e6 6f a2
       0.00010145058 -2.0223359e-14 0.0 -3.2512766e-18
000040 d2 66 60 ba 00 00 00 00 4b cb 78 ba f1 41 8f 39
       -0.00085602433 0.0 -0.0009490742 0.00027324216
000050 05 77 0e 38 3f 49 d5 37 97 05 f7 b9 26 6a bb b8
       3.3966284e-05 2.5425687e-05 -0.00047115676 -8.9366265e-05
000060 ab ae 95 ba 26 e5 3a ba 98 7d 01 ba bf 82 b7 b9
       -0.0011419853 -0.00071294827 -0.00049396744 -0.00035001893
000070 c0 a6 3e b9 00 00 00 00 bd ad 33 ba 17 57 44 1d
       -0.00018181931 0.0 -0.0006854197 2.5985408e-21
000080 f4 60 76 ba 23 d7 de a0 38 d9 3a 39 ed d7 f9 b9
       -0.00093986024 -3.7750628e-19 0.00017819263 -0.00047653858
000090 95 f3 fe b9 e2 01 65 37 4d b1 89 b8 7c a3 81 39
       -0.00048628138 1.3649902e-05 -6.565694e-05 0.00024726603
0000a0 d6 8f 00 ba 9c b4 25 8c c4 50 b7 37 0a e0 dc 91
       -0.0004904246 -1.2765488e-31 2.185291e-05 -3.4847955e-28
0000b0 3c 16 20 26 da 2a b4 b9 81 ef 02 ba 00 00 00 00
       5.5541284e-16 -0.00034364202 -0.00049947953 0.0
0000c0 f2 5a 67 b9 7f cd ce 8c dc 51 9c b9 f1 46 4e 0a
       -0.00022063756 -3.1863004e-31 -0.0002981563 9.931882e-33
0000d0 00 00 00 00 15 57 6d b8 e9 22 cd 39 13 8e 87 ab
       0.0 -5.6586305e-05 0.00039126657 -9.63176e-13
0000e0 8a ee 94 b9 95 fc 76 b9 97 01 f2 36 91 7e a3 b9
       -0.00028406485 -0.00023554482 7.212347e-06 -0.00031184082
0000f0 44 b6 e3 99 91 bc 16 39 33 15 46 ba bc e5 d0 b9
       -2.3544866e-23 0.00014375361 -0.00075562595 -0.00039844017
000100 12 9f 58 ba a1 86 fa b9 00 00 00 00 b4 c6 9d 30
       -0.00082634494 -0.00047784022 0.0 1.1479728e-09
000110 00 00 00 00 b7 41 40 8d 43 cd e6 ba de a1 a0 b9
       0.0 -5.924367e-31 -0.001760878 -0.0003063818
000120 00 00 00 00 ae d3 52 39 09 9c 8d b9 cb 76 1c 30
       0.0 0.00020106017 -0.0002700987 5.6921284e-10
000130 4a 5e 6f 38 75 d6 e1 10 28 77 13 15 00 00 00 00
       5.7069854e-05 8.9077275e-29 2.978041e-26 0.0
000140 d1 2d 4b 1d ef 59 51 89 65 3e ca 14 cf 68 0f ba
       2.6890513e-21 -2.5199746e-33 2.0421398e-26 -0.0005470635
000150 38 db a0 b9 8c cb 14 06 de c0 20 39 62 0b 85 b9
       -0.0003068091 2.798525e-35 0.00015330638 -0.00025376218
000160 ba 32 ec b9 f8 47 a0 39 03 64 d8 39 00 00 00 00
       -0.00045051222 0.000305712 0.00041273245 0.0
000170 2d 4e 5d ba 87 b1 b1 37 0b 2e ab 39 00 00 00 00
       -0.000844213 2.1182712e-05 0.00032649966 0.0
000180 11 b3 8d aa 00 00 00 00 39 60 44 b9 ca cc 89 03
       -2.5170884e-13 0.0 -0.00018727862 8.099154e-37
000190 fa 74 5c ba 56 16 ac aa a1 9b 4b ba 33 81 83 ba
       -0.0008409765 -3.0568836e-13 -0.0007767026 -0.0010033011
0001a0 00 00 00 00 d2 1d 64 30 d5 a7 94 39 f2 09 62 b8
       0.0 8.2988294e-10 0.00028353804 -5.389186e-05
0001b0 c8 cb 51 89 c2 b1 4d ba 00 00 00 00 3c a2 9c 39
       -2.5253277e-33 -0.00078466174 0.0 0.00029875513
0001c0 27 39 96 ba 82 0a 0b 38 19 80 0d ba 8f 80 8c b8
       -0.0011461125 3.314997e-05 -0.0005397811 -6.699666e-05
0001d0 ef 09 e3 37 45 ee 2a bb 7e 2b 6a 39 6c d9 61 ba
       2.7065134e-05 -0.002608196 0.00022332181 -0.0008615467
0001e0 65 35 3b 8a ca 3c d7 39 e1 6f 4a 30 6a 5e 94 39
       -9.013765e-33 0.00041053287 7.364616e-10 0.00028299104
0001f0 ca c1 84 ae 6b 5f f7 39 00 00 00 00 8a c7 9b 25
       -6.037089e-11 0.00047182603 0.0 2.7023427e-16

network_body._body_endoder.seq_layers.2.weight f4 [128, 128]
000000 3f 51 ab bd 18 bd 8c 3d 06 de ad 3d d5 c1 50 3d
       -0.08365106 0.06872004 0.08489613 0.050966103
000010 c9 be d6 3d db 59 8c 3d 13 0d 46 be 43 42 3a bd
       0.10485608 0.06853076 -0.19340925 -0.04547335
000020 ca 6f b1 bc 6e cd 38 3e 0e 1f 65 3e 42 8f 60 bd
       -0.02165975 0.18047115 0.22375128 -0.05482412
000030 2f 03 41 3c 7a f5 c9 bd 55 bf 84 bd da d1 9f 3d
       0.011780544 -0.09861274 -0.06481806 0.07803698
000040 a5 7a 84 3c 60 a5 cc bd eb 8d e4 bd 1e fe 65 3d
       0.016171763 -0.0999248 -0.11159881 0.05615055
000050 e3 a8 c1 bd 37 8d 1f bb 57 71 85 ba c1 bb 65 3e
       -0.09456041 -0.0024345645 -0.0010180873 0.22434904
000060 f8 f4 1f 3e 09 dc b2 3d 2d f4 98 bc 5c 05 86 3c
       0.15620792 0.087333746 -0.01867112 0.016359977
000070 20 e2 9d bd ed 83 78 bb a9 78 f7 3d 75 e8 2e be
       -0.077091455 -0.003792043 0.12083561 -0.17080863
000080 29 35 b5 3d 01 0b 33 be f4 b5 20 3c e3 d6 e8 3a
       0.0884803 -0.17484666 0.009809006 0.0017764237
000090 ae a4 2a 3d 61 6d 5a bd 86 7d 26 3e df 2e 54 3c
       0.041660957 -0.053326968 0.16258821 0.012950628
0000a0 30 b7 11 3c af 2e 58 3a c6 c0 bb bd 82 ff 93 bc
       0.008893773 0.00082467025 -0.09167628 -0.018066172
0000b0 c8 66 bb bd f2 42 ec bc cc d2 0a 3d 1e 55 ee 3d
       -0.09150463 -0.028840516 0.033892438 0.116373286
0000c0 e2 ff 07 3e fe 31 3d bd 67 c6 04 3e 86 64 21 bd
       0.13281205 -0.046190254 0.1296631 -0.039402507
0000d0 26 61 85 3d af 56 98 3d 00 d9 1f be bf 11 fb bb
       0.0651267 0.074384086 -0.15610123 -0.0076620276
0000e0 67 65 6b 3d 3a 7a bd bd 56 0f c7 3d ae 08 2b bd
       0.05746975 -0.092518285 0.09719722 -0.041756324
0000f0 27 b5 09 be 45 93 a6 bd 27 e7 ff bd 17 f8 88 bd
       -0.1344801 -0.08133558 -0.12495261 -0.066879444
000100 70 68 10 3e a5 37 b2 3d 64 72 c8 3d 42 32 8f bc
       0.1410234 0.087020196 0.09787443 -0.01748002
000110 e1 44 b1 3d ce 1c 4c 3d 2c d2 b9 bd 75 4e b7 bd
       0.08655716 0.049832158 -0.0907329 -0.08950511
000120 68 eb b1 bb c4 80 ec 3c da c8 df bd fe a5 b6 3b
       -0.005429674 0.028869994 -0.10926981 0.005573987
000130 5e 2f fd bd 82 ee 51 3c 09 5a 4f bd 34 2f 3e 3c
       -0.1236255 0.012813212 -0.050622974 0.011607934
000140 ca 48 08 3d fb a9 17 bd ca 06 3b bd d1 7c 41 be
       0.033272542 -0.03702734 -0.04566077 -0.1889527
000150 4f 98 b6 3d ca 01 42 3d 0d 6a 6b be 8f 8c 04 3d
       0.08915769 0.047364987 -0.22989674 0.03236061
000160 f0 b0 ea bd 22 f0 4f bd f6 87 18 3e 9b 14 4d 3d
       -0.114595294 -0.050766118 0.14895615 0.05006848
000170 d8 e1 98 bd 9b b4 58 be 58 89 5a bc 0e 07 32 3d
       -0.07464951 -0.21162646 -0.013338409 0.04346376
000180 4d db fc bd 39 1e 93 3d 00 7f 97 bc d8 80 19 3d
       -0.12346516 0.07183499 -0.018493176 0.03747639
000190 2e e1 68 bd df e5 67 3d 9b a8 77 bc 4b 05 17 3e
       -0.056855373 0.056615707 -0.015115882 0.14748113
0001a0 38 82 bd bd 85 0a 92 3c 07 6f a5 bd 45 64 d1 bd
       -0.09253353 0.017827282 -0.080778174 -0.10224203
0001b0 77 b5 c2 3d 55 14 9d 3d d6 11 ee bc 63 83 22 bd
       0.09507268 0.07669894 -0.02906124 -0.03967608
0001c0 c7 1e 27 bc fa 13 a0 bc 96 1c 5b 3c e8 49 8b 3c
       -0.010200209 -0.019540776 0.013373515 0.017003015
0001d0 db 18 3b bd c1 dd 3e bd 6b a7 a8 3d 67 fb a8 bd
       -0.045678 -0.0465982 0.082350574 -0.08251076
0001e0 a9 7e 8a bd 9b 62 39 b9 f5 67 2c 3e 9b 2d 09 3e
       -0.0676244 -0.00017679708 0.16836531 0.13396303
0001f0 e3 69 23 3d 20 f6 25 3d 45 7c bf bd 8c 21 c5 3d
       0.039895903 0.040517926 -0.093498744 0.09625539
000200 92 7f c5 3d b1 bd a8 3d 16 56 5f 3d 42 80 02 3d
       0.09643473 0.08239306 0.054525457 0.031860597
000210 89 17 ce 3c d9 87 8b bc 3a d6 b9 bc a3 9d 57 3d
       0.025157707 -0.01703255 -0.022685159 0.05264057
000220 3e e0 de 3d d5 96 05 be c9 cc 94 bd e0 1b 8e bd
       0.108826146 -0.13045819 -0.07265622 -0.069389105
000230 a1 2d 3b bd 11 9a 1e bd 60 1a 06 3d 60 6d de bc
       -0.045697812 -0.038721148 0.032739997 -0.027151763
000240 3d f2 63 3d 9c 89 8c 3b 2b 92 36 3e 01 3b fd 3d
       0.05565094 0.0042888653 0.17829196 0.1236477
000250 c3 4a 62 3e 93 40 17 bc 5b 2b 27 be 10 a7 da 3c
       0.22098832 -0.009231704 -0.16325133 0.02669099
000260 53 42 30 bb 32 e6 1b 3e 9e d6 e6 3d a3 fd 60 be
       -0.0026895 0.15224531 0.11271404 -0.21971755
000270 d9 0c 7a 3d 65 e8 59 bd 98 26 3c 3e ff 58 89 3c
       0.06104741 -0.053200144 0.18374097 0.01676607
000280 51 93 e5 3d c8 00 5a 3d 78 d1 59 3d 7d 47 ec bd
       0.11209739 0.0532234 0.05317828 -0.11537073
000290 12 4c 47 3c 54 23 7f bd 2e 9f 27 be 4a a7 c3 3c
       0.012164133 -0.06228955 -0.16369316 0.02388348
0002a0 79 48 2e be 5a a1 f2 3d 1d c1 89 bd c9 dc b1 3d
       -0.17019834 0.118471816 -0.067262866 0.086846896
0002b0 da 57 06 3d 89 ac 9d bd bd 62 e8 3b 7d 0c d7 bd
       0.032798626 -0.07698924 0.0070918486 -0.10500429
0002c0 10 3e 0a 3c bc ac f7 bd b5 13 86 bd bb 61 65 bd
       0.008437648 -0.12093493 -0.065467276 -0.056001406
0002d0 28 71 c1 bd ea 6f 84 3d a4 44 46 bd e9 58 0d 3d
       -0.09445411 0.064666584 -0.048405305 0.03450862
0002e0 96 34 47 3e 29 42 78 3d 62 16 ef bd 52 4d 25 3d
       0.19453654 0.06060997 -0.11674191 0.04035694
0002f0 73 68 21 bd 3b c3 30 bd 27 c0 3f bd e5 f6 f4 bd
       -0.03940625 -0.043154936 -0.04681411 -0.11961154
000300 5f 95 47 3d 6d 67 cd 3d ee 5f 76 bb ab 47 51 3e
       0.048726436 0.100294925 -0.00375938 0.20437495
000310 f1 f0 29 3e fb 52 ba bc ef f4 dc 3d 44 0a a2 bd
       0.16595818 -0.022744646 0.10788905 -0.07912114
000320 af a5 9d 3c 2d 2f 95 bd 61 3c 50 be cd 49 07 bc
       0.019244043 -0.07284389 -0.20335533 -0.008257342
000330 a6 40 2e be 1d 61 0b be 17 8e 72 bd ec fd 9a bc
       -0.17016849 -0.13611265 -0.05921754 -0.018919908
000340 1e 51 9b 3d bf c8 da bd 9d f0 82 bb b0 37 94 bc
       0.07583831 -0.106828205 -0.0039959685 -0.01809296
000350 2f a8 43 3d d4 36 1c 3d 79 11 0b be 5c b9 55 bd
       0.047767814 0.038138226 -0.13580884 -0.052178726
000360 2f d8 ab bb d7 0e cd bd 3d 24 26 3e a0 0d fe 3b
       -0.005244277 -0.10012596 0.16224761 0.007753089
000370 cb 85 84 3c 09 68 4c bd 62 ce 46 bd ef 90 1a 3e
       0.016177079 -0.049903903 -0.048536666 0.1509435
000380 f8 19 60 bc 7b c9 47 3c f7 5b 0a bd 2f e6 32 3d
       -0.013678066 0.012194033 -0.03377911 0.04367655
000390 da 3d 11 3e ad 3c 0e bd 7c aa 27 bd 6e f6 9d bd
       0.14183751 -0.034725834 -0.04093407 -0.07713018
0003a0 bf 6a 2b bc 59 d6 cc 3d 9f b9 1a be fc 93 f4 bc
       -0.010462462 0.10001821 -0.15109871 -0.02985572
0003b0 0b 3f 81 bc 18 b2 2b 3d 65 0e 13 3d ff db a6 bc
       -0.015777132 0.04191789 0.0359024 -0.020368574
0003c0 f1 5c 84 3d ee e6 50 b9 02 7d 89 3d a8 da b9 bd
       0.0646304 -0.00019922454 0.067132965 -0.090749085
0003d0 1d 6c d0 3d d6 90 21 3e 62 30 2d 3e 8f 6f 0a bd
       0.10176871 0.15777907 0.16912988 -0.033797797
0003e0 3b fb 41 bd d2 3f 29 3e aa e2 01 bd 82 62 91 bd
       -0.047358733 0.16528252 -0.031710304 -0.07098867
0003f0 be 5c f6 3c d1 fa 13 3e e7 1e 78 bc e4 af 02 bb
       0.03007352 0.14451148 -0.015144086 -0.0019941265

network_body._body_endoder.seq_layers.2.bias f4 [128]
000000 10 91 57 ba 21 8c 84 b7 4f 0c dc b8 37 58 58 ba
       -0.0008223215 -1.5800879e-05 -0.0001049271 -0.0008252891
000010 c9 ed 85 39 6b 53 06 ba 20 4f 73 ba 64 ed 84 b8
       0.000255449 -0.00051241246 -0.0009281505 -6.338468e-05
000020 7e 18 4d ba fa 95 6a 39 e9 c9 80 39 35 aa 31 90
       -0.0007823779 0.0002237185 0.00024564497 -3.5038218e-29
000030 ca fc db b9 3d 97 ae b3 bc c1 7d 96 ee 54 d1 a1
       -0.00041959278 -8.1300165e-08 -2.0498309e-25 -1.4184872e-18
000040 26 f8 7f b9 e7 d8 c3 b9 0e 66 d2 b9 17 7b 80 ba
       -0.00024411138 -0.00037354903 -0.00040130358 -0.0009802309
000050 19 df ba b6 31 6c ad b8 32 eb e1 0c 68 72 64 b8
       -5.569204e-06 -8.269435e-05 3.4808292e-31 -5.4465985e-05
000060 ef cf 53 a7 24 33 a9 b9 be bd be b9 21 90 34 37
       -2.9394853e-15 -0.00032272295 -0.00036380993 1.0762394e-05
000070 73 d4 c8 b9 8f b0 0b ba 85 8c c8 b8 ea 95 da a7
       -0.0003830526 -0.00053287385 -9.562917e-05 -6.066969e-15
000080 36 e1 16 2f 72 95 b5 ba a1 11 b0 b9 77 72 86 9d
       1.3722432e-10 -0.0013853742 -0.0003358247 -3.558786e-21
000090 85 d6 36 29 ba c1 ac ba bc bc 01 35 6b 1f 60 ae
       4.0598184e-14 -0.0013180294 4.833089e-07 -5.0959608e-11
0000a0 9c 88 c1 91 ec fa 8a b9 2f cc 35 b8 50 67 e3 38
       -3.0534223e-28 -0.00026508362 -4.3343924e-05 0.00010843447
0000b0 0c 3a c7 b9 db 92 21 30 68 ca 73 34 20 66 ab ba
       -0.00037999486 5.8780153e-10 2.2704774e-07 -0.00130767
0000c0 f6 31 86 b9 86 bf 37 ba f9 1a 08 bb c8 3d 59 b9
       -0.00025595695 -0.0007009435 -0.002076803 -0.00020717748
0000d0 73 0b 9f ba 7e b5 98 ba de 41 e1 8a 1e 45 22 9d
       -0.001213415 -0.0011650769 -2.1691488e-32 -2.1476254e-21
0000e0 e5 2c 43 b9 bc 13 92 39 5d a7 a6 b0 3c c6 a7 39
       -0.00018613374 0.00027861993 -1.2125657e-09 0.00032000418
0000f0 64 4a 09 16 6e 83 8f 11 d4 b9 9a ba 37 87 23 b8
       1.1090245e-25 2.2642422e-28 -0.0011804649 -3.8988157e-05
000100 94 dc 44 b9 00 00 00 00 ac 4f 58 10 d6 a4 0c 10
       -0.00018774188 0.0 4.2659866e-29 2.7737117e-29
000110 71 cf 67 b8 a3 3e 37 91 e9 00 04 39 95 84 ce 85
       -5.5267887e-05 -1.4455456e-28 0.0001258884 -1.942085e-35
000120 da f9 1f ba 8f f5 f0 ac 71 49 2a 11 a0 8f 2d 25
       -0.00061025994 -6.8484727e-12 1.3433266e-28 1.505402e-16
000130 dd 60 79 25 c8 eb c3 27 0c 9d 3d 28 ba 0e 08 38
       2.1630126e-16 5.4379007e-15 1.0525662e-14 3.2438642e-05
000140 8a b6 47 ae 56 58 b0 ba 85 87 b1 b8 88 e0 07 ba
       -4.540949e-11 -0.001345406 -8.46526e-05 -0.0005183299
000150 6a c9 2c 39 7d 48 69 ba 85 f3 4a 98 d9 e8 d7 b9
       0.00016478231 -0.0008899046 -2.6230834e-24 -0.0004118148
000160 00 00 00 00 3e 90 cc ba 35 83 29 ba 36 b7 76 b9
       0.0 -0.0015606952 -0.000646639 -0.0002352864
000170 52 90 30 ba d5 9e de 39 75 d0 24 2d 42 04 e9 ba
       -0.00067353726 0.0004246148 9.3686075e-12 -0.0017777758
000180 ee e7 36 ba 86 2d 32 ba 53 d1 5b ba 73 54 be a1
       -0.0006977309 -0.00067969447 -0.0008385379 -1.2897254e-18
000190 9f 74 57 ba 45 a4 b9 3a a3 65 e5 a3 56 b6 0d 8e
       -0.0008218977 0.0014163336 -2.4871275e-17 -1.7467383e-30
0001a0 7a 27 9a 23 f0 65 19 b9 00 00 00 00 3c d8 58 ba
       1.6713432e-17 -0.00014629192 0.0 -0.00082719675
0001b0 6e 97 23 32 bc 89 03 98 7a 7f d0 38 d2 04 a7 90
       9.52228e-09 -1.7000891e-24 9.941957e-05 -6.587731e-29
0001c0 16 65 93 ba 79 0f eb b8 51 3f b7 ba 5d dc e3 38
       -0.0011245336 -0.00011208555 -0.0013980662 0.00010865249
0001d0 2d 23 9a b5 54 35 4e 2a 2d ca f3 b7 49 da 20 ba
       -1.1484132e-06 1.8314977e-13 -2.9062003e-05 -0.00061360426
0001e0 2c 72 43 b9 62 b2 b7 ac 2e 67 17 96 d0 41 2d b4
       -0.00018639182 -5.2209773e-12 -1.2230241e-25 -1.6135823e-07
0001f0 ab 6b 12 b9 00 00 00 00 68 b8 3c 98 0f 84 1e 91
       -0.00013963754 0.0 -2.4391532e-24 -1.2504696e-28

action_model._discrete_distribution.branches.0.weight f4 [3, 128]
000000 d1 8e de 3b ba e4 9f bc 20 3b bb 39 49 bc a9 3b
       0.0067919274 -0.019518245 0.0003571147 0.005179916
000010 77 7f 46 bc d9 91 32 bc 34 ae 3d bc 76 b6 b7 3b
       -0.012115351 -0.010899031 -0.011577178 0.005606468
000020 78 9b fe ba cc c2 31 bc a4 43 ad 3a f8 b1 9d bc
       -0.0019424995 -0.010849666 0.0013219011 -0.019249901
000030 ff 3b bc bc 14 f4 55 3c 87 81 7f bb fd 0b e0 3a
       -0.022977827 0.013058681 -0.0038987116 0.0017093417
000040 45 0b eb bb 5f fa eb ba 1a a8 6e 3c 05 5a df 3b
       -0.0071729743 -0.0018003694 0.014566446 0.006816151
000050 f4 0d fa bb 0e 2f ab 3b 7c 7c 96 bb 21 b3 74 bc
       -0.007631058 0.005224115 -0.0045924764 -0.014935286
000060 4b 06 52 38 58 3a c7 bb 37 e3 59 3c 58 77 0e b8
       5.0073762e-05 -0.006079953 0.013298801 -3.3966586e-05
000070 2a 25 48 bc fa 90 04 3c a6 ff bb bb ba 20 2f bc
       -0.012215892 0.008091206 -0.005737263 -0.010688955
000080 21 a5 a2 bc 6b 53 82 3b f8 fe 01 bc d4 a4 82 3c
       -0.01985413 0.0039772294 -0.007934324 0.015947737
000090 b3 d6 fe ba 58 84 aa 3c d9 bc 09 3b 22 20 75 3c
       -0.0019442647 0.02081506 0.0021017103 0.014961274
0000a0 d7 a9 31 3b 93 76 08 bd 27 4c 9a 3c 00 d0 83 3c
       0.002710929 -0.033316206 0.01883514 0.016090393
0000b0 17 d8 40 bc 3d fe 23 bb 08 09 48 3a 38 05 ba 3b
       -0.01177027 -0.0025023364 0.00076307403 0.0056768917
0000c0 6d 70 07 bc 4d db 8d 3c 4b 79 0d 3c 5c b2 87 3b
       -0.0082665505 0.017316485 0.0086348755 0.004141135
0000d0 17 b7 f8 ba 99 16 5b 3c a1 32 b7 3a 17 1b fd bb
       -0.0018975463 0.013372087 0.001397688 -0.0077241766
0000e0 3f 84 53 bc 91 9d ee ba 94 1a bb 3a a0 1a 51 3c
       -0.012909948 -0.0018204917 0.0014274889 0.012762696
0000f0 37 c3 f2 bb 12 e1 f0 bb 3c c2 9d bb 17 47 65 3c
       -0.0074085253 -0.007351049 -0.0048144143 0.013994
000100 52 f5 7c 3c ec 64 30 3c 28 3b ae bb bd 3d 08 bc
       0.015439348 0.010766249 -0.0053171106 -0.008315501
000110 57 97 46 ba aa c7 e8 bb cc 50 a8 bb 9f 47 0a 3b
       -0.0007575652 -0.00710388 -0.005136585 0.0021099818
000120 c1 9c 0d 3c 9b 86 03 bc 2e c5 a1 3b 8d 16 8f bb
       0.00864333 -0.008027698 0.0049368357 -0.004366702
000130 9f c6 0e bc ff b0 16 bc f2 8e 11 3c 96 42 ad b9
       -0.008714347 -0.009197473 0.0088841785 -0.00033046742
000140 b2 6e c2 ba ff 72 05 bc c0 71 8f bb 9c 32 30 bb
       -0.0014834015 -0.008145093 -0.0043775737 -0.0026885634
000150 c7 0f 1c bc 0b 83 63 3a b0 90 2b 3c d1 0d b5 ba
       -0.009525246 0.000867889 0.010471508 -0.0013813322
000160 98 5e af 3a 8f 72 39 bc 20 45 4d 3b 29 81 50 bb
       0.0013379632 -0.011318817 0.003132172 -0.0031815267
000170 dd 82 89 3c 7c 9d 0d 3a 3f 6a 88 3a 1a 0e f0 bb
       0.016786033 0.000540219 0.001040764 -0.0073259
000180 7c 0b 2e bc 15 7a 94 3b de 97 96 bb 93 11 63 bb
       -0.010622855 0.004531155 -0.0045957407 -0.0034647926
000190 6d 09 55 bc 0e 86 34 bc c5 4b 16 bc 08 9e bc 3b
       -0.013002736 -0.011018289 -0.009173338 0.0057561435
0001a0 5a ac 89 ba 52 ba c1 bb aa 94 50 bc 7d 28 36 3b
       -0.0010503635 -0.0059121037 -0.012730757 0.002779513
0001b0 42 ac 18 3c 7a 44 93 3c 58 52 4b 3b 80 54 56 bc
       0.009318413 0.017976988 0.0031024422 -0.01308167
0001c0 af 20 5e bb 60 d4 45 3b a5 ea 9d bc 57 1d bd 3b
       -0.0033893993 0.00301864 -0.019276926 0.00577132
0001d0 82 88 41 3c 01 41 9c 3c fd 80 41 3b a1 78 36 bb
       0.011812331 0.019073965 0.0029526346 -0.0027842897
0001e0 50 4f 70 bc ef 48 ee bb ab 8c ac 3b a6 c2 1c 3c
       -0.014667347 -0.007271878 0.0052657924 0.009567892
0001f0 18 aa cb 3b 56 a5 85 ba d3 97 f6 bb 7e c4 91 b9
       0.006215345 -0.0010196369 -0.007525423 -0.00027802953
000200 a0 09 45 3b 4d cd 3f bb b4 e8 08 3b 7b 18 b1 3b
       0.0030065551 -0.0029266656 0.0020890655 0.0054045296
000210 c9 8d f5 3a f2 a7 81 3a a8 e2 0b bc 38 88 43 bc
       0.0018734272 0.000989197 -0.008537926 -0.011934333
000220 a8 3f d3 bb cc 13 69 3c fc 01 bd bb 43 d3 79 bc
       -0.0064467974 0.014225911 -0.005768059 -0.015248123
000230 8f b6 51 37 ec 97 0f 3c 78 f8 a0 bb f0 1d 89 bb
       1.2499876e-05 0.008764248 -0.0049124323 -0.004184477
000240 d4 db 1a 3b 81 ce 2d 3b 40 53 e8 bb 57 4f 4d 3a
       0.0023629563 0.002652079 -0.0070900023 0.0007831952
000250 66 a7 f9 b8 71 f9 2d 3c fd 20 ce bb 47 9e 1d 3b
       -0.000119044256 0.0106185535 -0.0062905536 0.002405064
000260 c3 cc 7f bb 70 ee 08 3c d5 2e 4f 3b 66 34 3d bb
       -0.003903196 0.008357629 0.0031613607 -0.0028870343
000270 38 7e 3e 3c c0 a4 3a bb ec 5b 0a bc 04 c3 33 bc
       0.011626773 -0.0028479546 -0.008444767 -0.010971788
000280 66 85 18 3c b3 4b 93 39 36 a3 ff 3b 55 1e 8d 3c
       0.009309148 0.00028094425 0.0078014387 0.017226378
000290 f7 94 60 3c 0b f7 98 3b 25 d7 8f 3b 72 92 3c bc
       0.013707391 0.0046681217 0.004389661 -0.011509525
0002a0 d6 d3 b8 3b 64 e6 ba 3b a0 0e 36 3b 73 04 a1 bb
       0.005640487 0.0057037342 0.0027779713 -0.0049138605
0002b0 c8 f9 bd bb 98 11 4c 3c e2 74 35 bc f5 3c bc bb
       -0.0057975985 0.012455367 -0.01107523 -0.0057445713
0002c0 a6 bc bb 39 00 a7 ad bb 57 1a 9e 3b 79 b5 be 3b
       0.00035807973 -0.005299449 0.0048249173 0.005819973
0002d0 ea af 88 bc 9e 7e b7 3b 63 74 92 3c c3 d3 65 3c
       -0.016685445 0.0055998107 0.017877763 0.014027539
0002e0 b4 a0 4a bc 8e 80 72 3c c1 ea cd 3b d2 93 c2 3b
       -0.012367416 0.014801158 0.0062840884 0.0059380317
0002f0 5f c1 49 bb 9d e5 a6 39 84 43 46 3b e5 34 b8 bb
       -0.0030785424 0.00031833063 0.0030252645 -0.00562154
000300 11 24 38 bc 0b c0 7a 3c 3a 66 84 3c 97 0e 03 bb
       -0.011239068 0.015304576 0.016162027 -0.001999771
000310 b8 1f 84 bc ea c5 ec bb 5b e3 97 3b e5 75 65 3b
       -0.016128406 -0.0072257416 0.004635257 0.0035012898
000320 39 9a 7e b9 62 e0 72 3b 72 0a 02 bc 76 7b a5 bc
       -0.0002428078 0.0037060012 -0.007937061 -0.020200472
000330 bb 5e 8a ba 4f d3 9e 3a 55 ca 46 bb b5 de 83 bc
       -0.0010556796 0.0012117418 -0.0030333002 -0.016097406
000340 2f 5f 90 bb 2e d6 22 3c e9 ab 34 bc 6e e4 22 3c
       -0.004405878 0.00993876 -0.011027315 0.009942157
000350 ac 2d c4 bb 72 ec 9e bb 54 5d 4c 3b b8 8b 49 ba
       -0.00598689 -0.004849964 0.0031183558 -0.0007688361
000360 f7 86 38 bb c6 5d 14 3c 84 bf 1f bc 42 ab 57 bc
       -0.0028156617 0.00905556 -0.009750251 -0.01316339
000370 f1 39 d9 3b c4 66 3c 3c 3a 6b 0f 3c be 7c 18 bb
       0.0066292216 0.011499111 0.008753592 -0.0023267712
000380 73 c8 14 3c 19 9f 0a 3c 0a 12 18 bb 42 50 86 3b
       0.009080994 0.008460783 -0.0023204111 0.004098923
000390 1f 56 2e bc 78 ae de 3b d0 69 15 3b f7 a6 96 bc
       -0.01064065 0.0067957006 0.0022798665 -0.018390162
0003a0 3f a1 31 bc 74 17 b1 3b 93 73 d4 3a 87 f9 17 3c
       -0.010841667 0.005404407 0.001620876 0.009275801
0003b0 f1 36 d0 3b 6a 68 de ba ca 55 84 3c e7 09 01 3c
       0.006354206 -0.0016968374 0.016154189 0.007875896
0003c0 8d 35 90 bb 82 ce 14 3b cb 39 a7 bc 6c e4 2f bc
       -0.004400915 0.0022706096 -0.0204133 -0.010735612
0003d0 f5 75 cd 3b 5f 6f 78 3b b5 74 9f 3b 55 a9 84 3b
       0.006270165 0.003790818 0.0048662075 0.0040485063
0003e0 72 ff 70 3c 1f 4d a6 bb 52 3a fa bb 49 22 6a 3c
       0.01470934 -0.0050751115 -0.007636347 0.014290401
0003f0 d5 9a 7b bc 52 7f 11 bc b0 75 5f 3b a1 1f 84 3b
       -0.015356739 -0.008880453 0.0034097247 0.004032091

action_model._discrete_distribution.branches.0.bias f4 [3]
000000 d4 ef bc 39 d5 19 14 38 34 06 61 b7
       0.0003603684 3.5310008e-05 -1.3412489e-05

action_model._discrete_distribution.branches.1.weight f4 [2, 128]
000000 90 3c 28 b8 de f4 44 3c 17 51 dc 3b 56 8c 67 bb
       -4.0110725e-05 0.0120212715 0.006723534 -0.003533145
000010 0a 8f 77 3c 49 fd e0 3a 62 60 84 bc fc 14 92 ba
       0.015109787 0.0017165329 -0.01615924 -0.001114517
000020 bc 7e 09 bc ee 02 bb bb 32 b7 c2 3c d7 9e 37 bb
       -0.008392032 -0.0057071364 0.023768995 -0.002801826
000030 db 90 e2 bb 19 32 07 3c 02 98 34 3c f4 c3 99 bb
       -0.006914241 0.00825169 0.01102257 -0.004692549
000040 45 4d 84 bb f7 c6 12 bb 9a b1 12 bc f0 4b 22 bc
       -0.0040375316 -0.0022396424 -0.008953476 -0.0099058
000050 7b 52 66 3b 0b 46 c7 3b 10 c2 e4 3b 4c c5 19 3b
       0.0035144377 0.006081348 0.006981142 0.0023463545
000060 73 07 af 3b 26 39 2c bb 20 69 e3 bb 15 de 42 bb
       0.005341464 -0.002627918 -0.006940022 -0.0029734422
000070 bc ce 9a bb 06 ed 82 bb 48 0a d9 3b 2d 67 4e 3a
       -0.0047243517 -0.0039955406 0.00662354 0.0007873651
000080 84 19 44 bc 03 2d c3 bb 97 44 62 3b c4 e1 1b bc
       -0.011968974 -0.0059562935 0.0034525746 -0.009514276
000090 a7 dd 74 bc 90 66 30 3c 17 b9 e1 3b 34 54 d7 3b
       -0.014945424 0.01076664 0.0068885195 0.006571317
0000a0 18 b1 e4 bb 18 ae 1a bc f1 d9 1f 3b 54 38 1b 3c
       -0.006979119 -0.009440921 0.0024391378 0.009473879
0000b0 0c c3 16 bc 48 e5 5d bc 72 77 87 ba c0 f3 0a 3c
       -0.009201776 -0.013543434 -0.001033528 0.008480966
0000c0 eb 3a b0 bb 41 6b 91 3b 10 fd 60 3b 5f 92 88 3b
       -0.0053781173 0.0044378345 0.0034330525 0.0041678394
0000d0 8a 4d c5 38 82 48 20 bc b3 9d 4a bb 6b 40 2d 3c
       9.408135e-05 -0.009782912 -0.003091675 0.0105744405
0000e0 39 4a 00 3c 6b 19 ec 3b dc 53 1c bb b5 eb f9 3b
       0.007830196 0.0072051785 -0.0023853695 0.0076269754
0000f0 af 0c da 39 02 20 05 3b 61 cc 69 3c 91 d4 e4 3b
       0.0004158965 0.0020313268 0.014269919 0.0069833477
000100 40 90 48 3c 2b f1 ad 3b 52 3c 7f 3b 3a 10 e3 ba
       0.012241423 0.0053082905 0.0038945866 -0.0017323561
000110 62 a1 1e bc 0a 0a 48 bc 91 51 cb 3b 18 f7 51 bb
       -0.009682031 -0.012209425 0.006204792 -0.0032038148
000120 ac f5 74 bb 15 1b a1 ba a0 99 7f bb d7 03 c5 bb
       -0.0037377877 -0.0012291396 -0.003900148 -0.0060124206
000130 1a 01 0a 3c d5 9a 80 bb 33 86 a5 3c 31 e2 52 bb
       0.008423114 -0.0039247074 0.020205593 -0.0032178278
000140 49 b7 11 bb 3b 99 70 ba a3 fa 46 bc ee 5a 85 bc
       -0.002223449 -0.00091781066 -0.012144717 -0.01627871
000150 b5 d7 03 3c 89 76 38 bc 3d 8d de 3b 3d 49 bf 3a
       0.008047034 -0.01125873 0.0067917393 0.001459397
000160 81 8d 0e 3c d1 be 5e bb 6e 37 33 3c 8a 54 a4 bb
       0.008700729 -0.0033988247 0.010938508 -0.0050149607
000170 67 22 2e 3c 77 16 a6 3c 2c 05 bc 3a 39 77 df 3b
       0.010628319 0.020274384 0.0014344803 0.0068196324
000180 28 81 52 bc 00 d4 0f 3c 20 11 02 b9 91 3b 99 3b
       -0.012848176 0.008778572 -0.00012404146 0.0046762903
000190 c4 d1 c9 bb b9 73 ff 3b 8f b8 c9 ba 46 1f 8f ba
       -0.006159039 0.0077957776 -0.0015390086 -0.0010919354
0001a0 f6 b1 a0 ba b9 ee b6 3b aa 48 37 bb 4d 0b ce 3a
       -0.0012260068 0.005582657 -0.0027966895 0.0015719921
0001b0 a5 b1 b7 ba f5 bd 1e bc 8b ef ec 3b 90 49 aa 3b
       -0.0014014734 -0.009688844 0.007230704 0.0051967576
0001c0 9e b1 01 3c e4 13 a4 ba 8e d4 00 3c 97 87 4e 3c
       0.007915882 -0.0012518135 0.007863177 0.012605569
0001d0 d4 c0 aa 3a 8b 4b 6a 3b 69 be b0 3b ad ff 2f bb
       0.0013027438 0.0035750594 0.0053937924 -0.0026855276
0001e0 8f da 0b 3b 0b cc 81 3c a0 ce 66 3c 82 a4 eb 3a
       0.0021339988 0.015844366 0.014087349 0.0017978104
0001f0 f2 98 0c bc 0f 89 1f 3c a2 61 54 3b 88 0a 94 3c
       -0.008581387 0.009737267 0.0032406827 0.018071428
000200 5d 4d 8a 3a 6b 25 47 3b 3e 61 a6 b9 e5 41 9a 3c
       0.001055162 0.0030387293 -0.00031734438 0.01883025
000210 99 59 40 bc 95 b7 b9 37 1b fb 3e bb 9e b4 50 3c
       -0.011740112 2.2139206e-05 -0.002914137 0.012738375
000220 52 4c 0f 3c fd 3e 9e bc 66 ce bb 3b e4 a8 80 3b
       0.0087462235 -0.019317145 0.0057313917 0.0039263833
000230 f3 10 e9 3a a8 04 81 3c 0a ed 71 bb 30 b3 ab bb
       0.001778154 0.01574929 -0.0036914968 -0.0052398667
000240 fc 95 89 3b f0 79 f2 bb ba 26 fa 39 91 15 e5 3a
       0.0041987877 -0.00739979 0.0004771257 0.0017477741
000250 4f 77 15 bc 8e 86 2f 3b 9a 4d 52 3b fb 15 c8 3a
       -0.009122684 0.0026783082 0.0032089711 0.001526534
000260 05 5c e0 bb e8 34 7d 3c b0 df 1f 3c fc b4 81 bc
       -0.006846907 0.015454508 0.009757921 -0.01583337
000270 a7 2c f4 ba 33 f1 96 3c e0 58 e5 b8 f2 61 7e 3b
       -0.001862903 0.01842556 -0.00010936125 0.0038815704
000280 9e 9c 33 bc 9f e9 80 bb 76 c1 4f 3c c1 77 95 bb
       -0.010962633 -0.0039341 0.012680402 -0.004561395
000290 31 fa 02 bc 29 55 ac bb 59 e4 17 3c 5e 72 95 bb
       -0.007994221 -0.0052591753 0.009270751 -0.004560753
0002a0 af 58 3f ba 00 df 0e ba 00 c0 b0 bb 3e 4a 12 bc
       -0.00072992867 -0.00054500997 -0.005393982 -0.0089288335
0002b0 8c 8e c4 bb 2e 5d 55 bb 3e 1e 24 bb b7 e0 aa bb
       -0.005998438 -0.003255676 -0.002504244 -0.0052147764
0002c0 65 44 01 3b ec 6f 6a 3c 3a 81 6f bb 8a 21 a9 ba
       0.0019724604 0.014308911 -0.003654553 -0.0012903672
0002d0 ea 89 4b 3c 06 69 ff bb 2f af 35 3c 68 f0 5b bc
       0.012423018 -0.007794502 0.01108913 -0.013424017
0002e0 14 16 ab 3b 63 fb 84 bc af 62 8e ba c3 e3 10 bc
       0.005221138 -0.016233152 -0.001086315 -0.008843365
0002f0 5b e8 72 3c 4a 1e 55 3c f5 ff 85 ba cf db 8e bb
       0.014825906 0.01300771 -0.0010223376 -0.0043596993
000300 e1 07 70 3c 86 a4 0b bc c0 99 8f 3b 7b a7 f4 bb
       0.014650316 -0.008523112 0.004382342 -0.0074662543
000310 75 16 91 bc 82 78 19 bc d9 b8 06 bc f1 0a 22 3b
       -0.017710904 -0.00936711 -0.008222782 0.002472576
000320 2a 64 13 3c a3 85 2d bc 40 99 e9 3a 24 e3 2d 3c
       0.008996049 -0.0105909435 0.0017822161 0.010613237
000330 f7 3e b7 3c cf f4 b8 3b 9a 6a 57 bc 44 48 82 bc
       0.022368891 0.005644418 -0.013147974 -0.0159036
000340 73 6d 71 bc ae ef 74 bc f1 bb 2c 3c ac 34 85 bb
       -0.014735567 -0.014949722 0.010542856 -0.004065117
000350 93 ca e6 bb b1 63 f9 ba d8 cb 55 bc 69 2d 25 3b
       -0.0070431917 -0.0019026903 -0.013049088 0.0025204069
000360 e0 9c e5 3b e2 1f d4 bb 06 4f 98 3b 45 fb bf bb
       0.0070072263 -0.0064735273 0.004648092 -0.005858811
000370 66 07 ff bb f2 5d 5c bc 60 de 8d 3b cc a9 53 3b
       -0.0077828644 -0.013450133 0.0043294877 0.0032297252
000380 49 17 0b bc 00 b9 92 3c 57 f5 19 3c c3 f0 df 3b
       -0.008489438 0.01791048 0.0093968725 0.006834121
000390 5e a3 45 3b 3e 4a d5 3a 25 39 65 bb 40 13 78 3b
       0.003015719 0.0016272736 -0.0034976688 0.003785327
0003a0 62 31 9f 3b 4a dd c9 ba d8 db f5 3b b0 b4 d6 3b
       0.004858182 -0.0015401032 0.007503014 0.0065523013
0003b0 37 4b b3 bc ea 8a 6a ba 9d d2 f2 bb b3 12 36 bc
       -0.021886451 -0.00089470914 -0.007410361 -0.011112857
0003c0 dc 0f 60 3b 22 f1 6a bb 07 13 79 b6 37 4f 1e bc
       0.003418914 -0.0035849293 -3.7114967e-06 -0.009662441
0003d0 17 21 f3 bb 01 e2 17 3b aa 7a 1d 3c 52 e2 d8 3b
       -0.007419716 0.002317548 0.009611765 0.0066187764
0003e0 fd 8b 02 3b a9 31 93 bc d2 82 45 bb 5e e2 25 bc
       0.0019919865 -0.017968016 -0.003013779 -0.010124771
0003f0 80 20 2f bc 8f 8e 63 bc 17 56 b3 38 6a 49 39 bc
       -0.010688901 -0.013888969 8.5514206e-05 -0.011309007

action_model._discrete_distribution.branches.1.bias f4 [2]
000000 e3 55 cd 39 e6 55 cd b9
       0.00039164638 -0.00039164646

action_model._discrete_distribution.branches.2.weight f4 [3, 128]
000000 35 e4 26 3b 56 b7 c0 3a c2 64 c5 bb 2c b1 83 3b
       0.0025465612 0.0014703076 -0.006023974 0.0040189233
000010 8b 44 15 bc c1 81 25 bc 9b f1 1f 3c e9 d3 06 3c
       -0.00911058 -0.0101017365 0.009762193 0.008229234
000020 60 e4 48 bc ed a9 2c bc 0a 9e 15 3b 7b bf ee ba
       -0.01226148 -0.01053856 0.0022829794 -0.0018215025
000030 68 a1 f1 3b 78 cd 34 3c 8b e9 d3 3c fa 60 1a ba
       0.0073739775 0.011035316 0.025868198 -0.00058890844
000040 62 29 7d bb 71 08 7b 3b 35 09 ff ba e3 6c 0a 3c
       -0.0038629402 0.0038304592 -0.00194577 0.008448812
000050 70 b9 7a bb 73 16 1c 3c 55 4b 28 bc a2 3a 25 bc
       -0.0038257502 0.009526837 -0.010271867 -0.01008478
000060 ed ef 31 3c af 4f c3 3a 7f b1 f0 3b 8d 3f eb 3b
       0.010860425 0.0014901067 0.007345378 0.0071792067
000070 5d 4f 9c bb 36 b7 8d ba 83 76 2f bc 58 26 53 ba
       -0.004770203 -0.0010812047 -0.010709408 -0.0008054725
000080 30 6d 71 3a 44 54 1f 3c 4f 31 a9 bb 53 eb 0f 3b
       0.00092096906 0.00972468 -0.0051633487 0.0021960333
000090 ea b1 89 3c 7f f2 33 3b 2d 2b 33 3c 67 63 18 bb
       0.016808469 0.0027457771 0.010935587 -0.0023252608
0000a0 71 df 94 3a 90 87 8e 38 9c 5f ef 3b 0d da 39 bb
       0.0011358095 6.796338e-05 0.0073050987 -0.0028358728
0000b0 9e b9 90 bc 12 7c 39 3b e9 cb 49 3c cb 48 d6 ba
       -0.017666634 0.0028302711 0.012316682 -0.0016348598
0000c0 93 d1 9d 3c 5f df 30 3c 0b 99 0a 3c 6f 4f 78 3b
       0.019264972 0.010795443 0.00845934 0.0037889143
0000d0 42 f4 3b 3c 47 ae 25 3b d3 fb 11 3c 62 72 6b 3a
       0.01147181 0.002528088 0.008910137 0.0008981583
0000e0 97 a5 19 bc e8 50 af 3b 78 e9 cc ba cc 0f 73 3b
       -0.009377859 0.005350221 -0.0015633544 0.0037088273
0000f0 c0 be d6 3b 18 7a 1a bc 7b 31 84 3b d8 1d 52 ba
       0.006553501 -0.0094285235 0.004034219 -0.00080153113
000100 1d 66 0a bc 9a 77 5c bc cd 1b ff bc 8e 83 25 bc
       -0.008447197 -0.01345625 -0.031141186 -0.010102166
000110 41 ae 8b 3b a0 9b 73 bc 00 42 87 bb 03 b1 42 ba
       0.004262716 -0.014868647 -0.004127741 -0.00074268895
000120 ad d7 f3 3b 72 44 8a bc 9d 16 6d bb dd 26 7f 3c
       0.007441482 -0.01687834 -0.0036176809 0.015573231
000130 e0 8a ce 3b d3 c1 94 bb b7 48 61 3b 0b 79 f4 3a
       0.0063031763 -0.004539707 0.0034375617 0.0018651796
000140 b0 73 15 bc b5 fc 19 bc 50 ab 39 3b d7 bf 75 bc
       -0.00912182 -0.009398629 0.002833087 -0.014999351
000150 d0 6f 03 3b f1 20 03 bc 58 aa 0a bc e8 ca 39 3c
       0.002005566 -0.008003459 -0.008463465 0.0113398805
000160 b1 a2 1b bb 6a 33 8b bb af 54 33 bc 15 9a 5b 3b
       -0.0023748095 -0.0042480724 -0.010945483 0.0033508588
000170 b1 62 b0 3a 77 3e 9d 3b 65 7d 91 3b 41 5e be 3b
       0.0013457147 0.004798706 0.004439997 0.005809576
000180 fb ff 5f 3c d0 c5 8c 3b b5 d8 e1 3c 0b aa 5a 3c
       0.01367187 0.004296042 0.027569154 0.013346205
000190 41 33 e2 bb 29 ef 99 3c 5b 77 db bb 3f ab 61 3c
       -0.0069030826 0.018790798 -0.006697578 0.013773738
0001a0 30 ca 14 3c b1 2e 16 3c 37 cc 95 bb 0c 8c 6f b9
       0.009081408 0.009166406 -0.0045714634 -0.00022844988
0001b0 4b e2 c8 3a cb ea 8c 3c f8 aa 14 bc f3 4a 33 3b
       0.001532623 0.017201802 -0.009073965 0.0027357906
0001c0 e8 c2 f2 bb eb bc 03 bc 30 21 2f 3c 28 14 5a bc
       -0.0074084885 -0.008040647 0.010689065 -0.01331047
0001d0 d5 a6 ca 3b 17 60 9b 3a d4 5d 0a bb 17 84 d9 b9
       0.0061844387 0.0011854199 -0.0021113055 -0.0004148788
0001e0 58 fb f6 3b 3b 42 b6 bb bb 0c 1f bb f4 95 24 3b
       0.0075372867 -0.0055620945 -0.0024269063 0.0025113793
0001f0 13 c1 39 bc e5 a1 da 3b de 01 34 bc 13 7f 65 3c
       -0.011337536 0.0066721314 -0.010986773 0.014007348
000200 b3 4b b3 3c c8 a4 38 39 02 f4 9a 3c f5 27 35 3b
       0.021886682 0.00017608993 0.01891518 0.0027642224
000210 d4 2d b6 3b 6a 7f 43 bb de ce fb 3b 23 89 da ba
       0.0055596624 -0.0029830583 0.0076845726 -0.001667295
000220 b3 c0 24 3c 58 f7 9d bb 5a e1 47 3b 27 a1 ec 3b
       0.010055709 -0.0048207454 0.003049931 0.0072213593
000230 91 15 a3 3b 67 b6 36 3c 25 35 90 bb 2e ee a3 3b
       0.004976936 0.011151887 -0.0044008666 0.0050027585
000240 6a 08 98 3c 6a 50 ac 3c 64 65 31 bb a4 b5 18 bc
       0.0185587 0.021034438 -0.002706849 -0.00932065
000250 e0 90 03 bc 35 23 49 bc f7 25 94 3b 42 f6 8f 3c
       -0.008030146 -0.01227646 0.0045211273 0.01757348
000260 c9 39 b3 bb 3d 0c 9d 3a 7a 67 e5 3a e8 68 3b 3a
       -0.005469535 0.0011981797 0.0017502152 0.0007149116
000270 17 35 5e 38 85 3e 30 ba 64 c0 aa 3b a7 9b 74 bb
       5.297837e-05 -0.00067231833 0.005210923 -0.0037324221
000280 91 70 7d bc 60 f7 c9 bb 53 e4 34 3b 3a 91 51 bb
       -0.015468732 -0.0061635226 0.0027601912 -0.003197743
000290 97 03 0d bc 0f 97 b3 bc 3d 83 85 ba 7d ba 84 bb
       -0.008606813 -0.021922616 -0.0010186207 -0.0040505514
0002a0 85 cc 6b 3c 6b 23 df bb f8 6e 80 3b 8f 3e e0 3b
       0.014392023 -0.006809642 0.0039194785 0.006843395
0002b0 dc 36 5d bc f8 95 c9 3b c7 07 c4 3b 8b 78 d2 3b
       -0.013501849 0.006151911 0.0059823724 0.0064230612
0002c0 23 e3 84 bb b3 1c d2 b9 b0 61 44 3b a4 47 be 3b
       -0.004055397 -0.00040075704 0.0029965453 0.00580688
0002d0 4d 8e 21 bb ab 8a a4 3a 03 51 31 3a 03 28 49 bb
       -0.0024651468 0.0012553533 0.0006764086 -0.0030694015
0002e0 81 b7 eb ba 67 2d 8c bb 0a 6f c1 bb b8 7a 1d 3c
       -0.0017983766 -0.0042778733 -0.0059031295 0.009611778
0002f0 c0 72 cd 3b cf 4f b1 bb 9e 5a 44 3c 41 65 40 bc
       0.006269783 -0.0054111253 0.011984495 -0.011742891
000300 c7 3a 9d bb 78 74 d1 39 00 ef 33 bc 1e 98 41 3c
       -0.0047982666 0.00039950362 -0.010982275 0.011816053
000310 fe b9 15 39 f7 a2 b5 bc 64 b2 1c bb b9 ee 84 39
       0.00014279035 -0.022172434 -0.002391004 0.00025354864
000320 81 28 36 ba 2b 21 80 39 13 99 41 bc 13 c4 52 bb
       -0.00069487846 0.00024438775 -0.011816281 -0.0032160326
000330 b8 1c 92 bb 86 c8 21 bc 94 ea 00 3c aa a3 b2 3c
       -0.00445899 -0.009874469 0.007868428 0.021806557
000340 55 d0 40 3c 1e b2 b4 bb 54 c8 6a bc 70 53 fa 3b
       0.01176842 -0.0055143973 -0.0143299885 0.007639341
000350 e1 d4 9f 3b fb cf 81 3c 27 b2 8d bb 6d 3e 02 bc
       0.004877672 0.015846243 -0.004324216 -0.007949454
000360 cb ee 6c 3c be 24 47 3c 24 6e 2a bc 2e 51 68 3c
       0.01446123 0.012154756 -0.010402236 0.014179511
000370 fc 53 2d 3b 5f ae 3d 3c 0b 84 33 bb 47 c4 a3 bb
       0.0026447764 0.011577218 -0.0027391936 -0.0049977633
000380 21 08 5e 3b f0 3e ba b8 55 7e be bb 67 bc ec ba
       0.0033879357 -8.880894e-05 -0.0058134 -0.0018061519
000390 72 5f 1a bb 6a 66 ac 3b aa c6 18 bc b1 b0 90 ba
       -0.0023555425 0.005261232 -0.009324709 -0.0011038986
0003a0 3d 73 c2 3c 21 cf 27 bc 24 f0 3d bb 11 e4 8c 3c
       0.02373659 -0.0102422545 -0.0028982246 0.017198594
0003b0 cf 00 36 3b 3a c5 41 bc b4 30 cc 3b 9a 8a 8f 3a
       0.0027771478 -0.011826808 0.006231392 0.0010951341
0003c0 2a 71 af ba 47 3b da bb 06 ed c5 ba 18 77 1d 3b
       -0.0013385166 -0.0066598984 -0.0015100546 0.0024027284
0003d0 45 04 c1 3a 22 63 82 3c 22 4b 45 bb 85 78 1c 39
       0.0014726004 0.01591641 -0.0030104597 0.00014922216
0003e0 30 7b 3c bc 5e 30 30 bb a5 72 76 bb e2 24 cb bb
       -0.01150398 -0.0026884298 -0.0037604955 -0.006199465
0003f0 4b 01 aa ba 80 5e fc 39 65 45 18 bc 9a 8e fd 3b
       -0.0012970356 0.00048135594 -0.009293889 0.0077379467

action_model._discrete_distribution.branches.2.bias f4 [3]
000000 7c 08 da ba 3f ac da 3a 30 11 2a 3b
       -0.0016634609 0.0016683413 0.0025950186
