Assets/results/OuiTankRemaster/TankLearningAI/TankLearningAI-12999959.onnx (onnx, 143120 bytes, 15 tensors)

discrete_act_size_vector f4 [1, 5]
0	0x40400000	3.0
1	0x40000000	2.0
2	0x40400000	3.0
3	0x40000000	2.0
4	0x40000000	2.0

network_body._body_endoder.seq_layers.0.weight f4 [128, 110]
0	0x3d283841	0.041069273
1	0x3d880de5	0.06643275
2	0xbd560026	-0.052246235
3	0x3ddc0442	0.107429996
4	0x3e2318d0	0.15927434
5	0xbd28933f	-0.04115605
6	0xbc13c03e	-0.009018002
7	0x3bb5a43a	0.005543259
8	0xbcda22b8	-0.026627883
9	0x3da7815a	0.08178969
10	0xbe6d056b	-0.23146598
11	0xbe0474c2	-0.12935165
12	0xbd9a00bd	-0.07519672
13	0xbd10d514	-0.035359457
14	0xbcc46f24	-0.023978777
15	0xbe0f913e	-0.14020249
16	0x3e14a847	0.14517318
17	0xbde711d9	-0.11282701
18	0xbcf03863	-0.029323762
19	0xbdca66a0	-0.098828554
20	0xbc556d3d	-0.013026533
21	0xbdbf46ff	-0.09339713
22	0xbd014a68	-0.0315651
23	0x3d0ebfb5	0.034850795
24	0x3d9bbd3f	0.07604455
25	0xbba74a88	-0.0051053204
26	0x3dc169b5	0.0944399
27	0x3e60a8b2	0.21939352
28	0xbbd5eeb8	-0.0065287016
29	0xbddfada8	-0.10921794
30	0x3da4d8d4	0.08049169
31	0x3af53e68	0.0018710615
32	0x3d4f60c4	0.050629392
33	0xbc15ec12	-0.009150522
34	0xbc6853a3	-0.014180097
35	0x3de637c8	0.11241108
36	0xbdc49dfb	-0.09600445
37	0xbdcea8b0	-0.10090768
38	0x3d274597	0.04083785
39	0xbd6ac5f4	-0.05731769
40	0x3e359185	0.17731293
41	0x3d987aad	0.074452735
42	0x3db2f6b4	0.08738461
43	0xbd04a785	-0.03238632
44	0xbd9f4a83	-0.07777884
45	0xbe6a7e61	-0.22899772
46	0xbe1f0f24	-0.1553312
47	0xbd8657da	-0.06559725
48	0x3cff0bea	0.03113361
49	0xbd602acf	-0.054728325
50	0x3d8df733	0.06931915
51	0x3d0585f1	0.03259844
52	0x3caeb787	0.021327747
53	0x3cf4f978	0.029904112
54	0xbe5e884f	-0.21731685
55	0x3cecfa5a	0.02892797
56	0xbe1f3f9c	-0.15551609
57	0xbcec7b38	-0.028867349
58	0x3d96cffd	0.07363889
59	0xbcc262f8	-0.023728833
60	0xbdd1bcd2	-0.10241093
61	0xbd5a458e	-0.05328899
62	0x3db1f4a3	0.08689239
63	0xbda6db92	-0.081473485
64	0xbd21788c	-0.039421603
65	0xbb52c381	-0.0032159986
66	0xbe39a43b	-0.18129055
67	0x3e1fe3d3	0.15614252
68	0x3c28802a	0.010284463
69	0xbe0bb0fb	-0.13641731
70	0x3d98fc13	0.07469954
71	0xbde77891	-0.11302293
72	0xbe0dccad	-0.13847609
73	0xbcefb671	-0.0292618
74	0x3d1a53aa	0.037677445
75	0xbd34ca0b	-0.044137996
76	0xbb5bdfe8	-0.0033550207
77	0xbda5ea27	-0.08101302
78	0x3d55026d	0.052004267
79	0x3dbcf699	0.09226722
80	0x3dd3890f	0.10328876
81	0xbe24e9f6	-0.16104874
82	0xbe06790a	-0.1313211
83	0xbd9c9e58	-0.07647389
84	0xbe4fc5ba	-0.2029027
85	0x3d939e48	0.07207924
86	0x3dec65d9	0.115428634
87	0x3de0cb82	0.10976316
88	0xbb3215cf	-0.0027173643
89	0x3e6b446b	0.22975318
90	0x3d2ace6f	0.041700777
91	0x3da30eaa	0.07961781
92	0x3e14125d	0.1446013
93	0xbda73971	-0.08165253
94	0x3c7905a1	0.015199096
95	0xbcb8e8a7	-0.022571875
96	0xbdecee3c	-0.11568877
97	0x3cb3758c	0.021906637
98	0x3e51dfb8	0.20495498
99	0xbe6a85a5	-0.22902544
100	0x3d81ff4b	0.063475214
101	0x3dd52d6a	0.10409053
102	0xbd9fdfe9	-0.07806379
103	0x3b566d02	0.0032718782
104	0xbe354120	-0.17700624
105	0xbb7ecbf6	-0.0038878894
106	0x3d515f26	0.05111613
107	0x3dc87dcf	0.09789621
108	0xbdfdc7bf	-0.12391614
109	0x3d6b7ecf	0.05749398
110	0xbd41f86f	-0.047356065
111	0x3cd60a5e	0.02612799
112	0x3c81cdf1	0.01584527
113	0xbd378f30	-0.04481429
114	0xbe0bbc97	-0.1364616
115	0x3cfcab2a	0.030843336
116	0xbd5e39a0	-0.054254174
117	0x3d580a0e	0.052743964
118	0xbdee3f18	-0.11633128
119	0xbd88713b	-0.06662222
120	0x3e43b92b	0.19113605
121	0xbca4b6c9	-0.02010669
122	0xbcee8951	-0.029118212
123	0xbd40c835	-0.047065932
124	0x3c1a1b8c	0.009405982
125	0x3cfba7af	0.030719606
126	0x3da9d467	0.08292466
127	0x3e16ca78	0.14725673
128	0xbd3deb63	-0.04636706
129	0x3d4623e8	0.048374087
130	0xbe2dd273	-0.16974811
131	0xbb888203	-0.004165889
132	0xbdc97537	-0.0983681
133	0xbe04407c	-0.12915224
134	0x3e2338d1	0.15939642
135	0x3dcd4d17	0.10024469
136	0xbdbc6d15	-0.09200493
137	0xbdbb4343	-0.091436885
138	0xbc9803a8	-0.018556431
139	0xbd95c578	-0.07313055
140	0x3ddb99bb	0.10722681
141	0x3e01e8f7	0.12686525
142	0x3e2bef44	0.16790491
143	0x3c1a0335	0.009400179
144	0xbdabe873	-0.083939455
145	0xbe06e700	-0.13174057
146	0xbdc4e18a	-0.09613331
147	0x3c1e02b0	0.009644195
148	0xbd00ff0c	-0.03149323
149	0x3d14c6a6	0.03632226
150	0xbde35096	-0.11099355
151	0xbc9c77c1	-0.019100072
152	0xbdc12d41	-0.094324596
153	0xbe136dcc	-0.14397353
154	0x3e488003	0.19580083
155	0x3b8482bd	0.0040439055
156	0x3e092fe0	0.13397169
157	0xbcd0b70b	-0.025477907
158	0x3ce1777d	0.027522797
159	0x3ca696e6	0.020335626
160	0xbd012dcb	-0.031537812
161	0x3ca2b44a	0.01986136
162	0xbc7c55f9	-0.015401357
163	0x3dd03468	0.10166246
164	0xbcb965d2	-0.02263156
165	0x3dbe8eee	0.093046054
166	0x3c7e8067	0.015533543
167	0xbe03666e	-0.12832043
168	0xbcb765ca	-0.022387404
169	0x3dd517f9	0.10404963
170	0xbe0bfb3d	-0.13670059
171	0xbd0fe2ae	-0.035128288
172	0xbc0b0a09	-0.008486279
173	0x3d833b1f	0.06407761
174	0x3ddb4b2c	0.10707697
175	0x3d652e6e	0.055952482
176	0x3dbe74df	0.09299635
177	0x3dadc867	0.08485489
178	0xbddda714	-0.10822883
179	0x3aa23d49	0.0012377884
180	0x3d5b6bb7	0.05356952
181	0xbdedb0e9	-0.116060086
182	0x3d1d870a	0.03845886
183	0xbc14c5e7	-0.009080387
184	0xbcc057b7	-0.023479326
185	0xbd2d7b48	-0.0423539
186	0xbddbb195	-0.107272305
187	0xbe32f589	-0.17476477
188	0x3d843748	0.064558566
189	0xbca82573	-0.02052567
190	0x3d941c68	0.072319806
191	0xbdb7387d	-0.08946321
192	0xbdbb1e78	-0.09136671
193	0xbd8d808f	-0.06909286
194	0x3df54eb3	0.11977901
195	0x3ce646c6	0.02810992
196	0x3e33a225	0.17542322
197	0xbd710549	-0.05884293
198	0x3de3b311	0.111181386
199	0x3e1e9c4f	0.15489314
200	0xbcc1d08e	-0.023659017
201	0x3d082230	0.03323573
202	0x3cf3c312	0.029756103
203	0x3d0574c7	0.03258207
204	0xbe02f2ce	-0.12787935
205	0x3dccdccb	0.100030504
206	0x3b8465ff	0.004040479
207	0x3bbeb0ea	0.0058194296
208	0x3e0bae4a	0.13640705
209	0xbd73727c	-0.059435353
210	0xbdf58769	-0.11988718
211	0x3d7e7148	0.062119752
212	0x3c29131b	0.0103194965
213	0x3c653b6b	0.013991217
214	0xbdc78739	-0.097425885
215	0xbd8a789d	-0.067612864
216	0x3cc3ea9e	0.023915585
217	0x3e09fef5	0.13476165
218	0x3cf7af06	0.030234825
219	0x3dad030a	0.08447845
220	0x3d9ae50f	0.07563221
221	0x3db9fac5	0.090810336
222	0xbd509d82	-0.05093146
223	0x3dbae847	0.09126335
224	0xbd905644	-0.07047704
225	0xbd5ec644	-0.0543883
226	0xbe21670c	-0.15761966
227	0xbd8963b1	-0.06708468
228	0xbd6f2d93	-0.058393072
229	0x3d37b918	0.044854254
230	0xbc727718	-0.014798902
231	0x3dad6e61	0.08468319
232	0x3e30ce86	0.17266282
233	0xbd4033c3	-0.046924364
234	0xbc82193c	-0.015881173
235	0x3cf77ca2	0.030210797
236	0xbd5d9789	-0.054099593
237	0xbe1277aa	-0.1430346
238	0x3e57138b	0.21003549
239	0x3d955d0d	0.07293139
240	0xbcbcea42	-0.023060922
241	0xbd13f98e	-0.036126666
242	0xbdc2d41c	-0.09513113
243	0xbe4f7f28	-0.2026335
244	0x3d6f052e	0.05835455
245	0xbb6898fa	-0.0035491572
246	0xbcf70acc	-0.030156516
247	0xbcdc9267	-0.026925279
248	0xbd08c07b	-0.03338669
249	0xbd9bf4a0	-0.07615018
250	0xbe34574c	-0.17611426
251	0x3cebf761	0.028804483
252	0xbbcf21a4	-0.006321149
253	0xbd19030a	-0.037356414
254	0x3dca0579	0.09864325
255	0xbd887025	-0.06662015

network_body._body_endoder.seq_layers.0.bias f4 [128]
0	0x00000000	0.0
1	0x10ce1fe5	8.1301815e-29
2	0xb126c65b	-2.4268931e-09
3	0xa244f996	-2.6695083e-18
4	0x27487c6e	2.782303e-15
5	0xbc927e6b	-0.017882546
6	0xbd476a63	-0.048685443
7	0xbc7fbd7c	-0.015609141
8	0x00000000	0.0
9	0xbc016df8	-0.007899754
10	0xbcc51bec	-0.024061166
11	0xaf3d9379	-1.7241843e-10
12	0xbc4c6605	-0.012475495
13	0xa3bab736	-2.0243753e-17
14	0xbd7125b9	-0.058873866
15	0xbd25fb92	-0.04052312
16	0xac8ad1a0	-3.945469e-12
17	0xbb1cf0e4	-0.0023947293
18	0xbc6deafe	-0.014521359
19	0x00000000	0.0
20	0xbd38d4f2	-0.045124955
21	0xbc2832d7	-0.010266027
22	0x3b6a800b	0.0035781886
23	0xbb51cf02	-0.0032014255
24	0x00000000	0.0
25	0xbc16b37b	-0.009198065
26	0x00000000	0.0
27	0x00000000	0.0
28	0xbc23ce1c	-0.009997871
29	0xbbf0e33d	-0.0073513077
30	0xa77169bf	-3.3502794e-15
31	0xa4283e04	-3.6481722e-17
32	0xbdc334d4	-0.095315605
33	0xbc94c311	-0.018159421
34	0x3c857bf9	0.016294466
35	0x92167d7c	-4.7486326e-28
36	0xbc9e28f6	-0.019306641
37	0x933ea0aa	-2.4060585e-27
38	0xbc483483	-0.012219551
39	0xbc67ba79	-0.01414358
40	0xbcc0f997	-0.023556514
41	0xbbbb839d	-0.0057224766
42	0x0941442a	2.326358e-33
43	0x05115513	6.833493e-36
44	0x3b025da7	0.0019892247
45	0xbd584e92	-0.052809305
46	0xadde6ddf	-2.528727e-11
47	0x883684fd	-5.492496e-34
48	0xbcb3a3d2	-0.021928702
49	0x1e9b96ae	1.6473583e-20
50	0x00000000	0.0
51	0xbc8a1d11	-0.016859563
52	0xbc96cf50	-0.018409401
53	0xbc294353	-0.010330993
54	0x3b88d9f7	0.004176374
55	0x3c2d8a18	0.010592006
56	0xbb04578e	-0.0020193788
57	0x3b2fe7c6	0.0026841029
58	0xbd09e527	-0.033665802
59	0xbbe945bf	-0.00711891
60	0xba8f74d0	-0.0010944847
61	0x3b36e0d3	0.0027905002
62	0xbb969233	-0.004595065
63	0xb69af957	-4.6185846e-06
64	0xbc19ed8e	-0.009395016
65	0xbd356d26	-0.044293545
66	0xbce3bc46	-0.027799737
67	0xbbc52df3	-0.0060174405
68	0xbc4be54f	-0.012444808
69	0xbbdcb8e6	-0.006735909
70	0xbce7d275	-0.028298596
71	0x00000000	0.0
72	0xbd72c83b	-0.059272986
73	0xbc1728a8	-0.009226002
74	0xad4691eb	-1.1287397e-11
75	0x3c299cc6	0.010352319
76	0x91c68413	-3.132029e-28
77	0xbd8f489d	-0.06996272
78	0xbb1ff369	-0.0024406558
79	0xbc8cc56a	-0.017183978
80	0x3afabb91	0.0019129385
81	0x87a5f1bc	-2.496852e-34
82	0x3b6c8ba9	0.0036093986
83	0xbd5fb38f	-0.0546146
84	0x1342b3a3	2.457481e-27
85	0x34577ff8	2.006999e-07
86	0x2c2724ca	2.375255e-12
87	0x3bd6b840	0.006552726
88	0x24439e35	4.241789e-17
89	0xb91c7952	-0.00014922515
90	0x00000000	0.0
91	0xbce9b8ff	-0.028530596
92	0x342a7090	1.5873434e-07
93	0xac3e7601	-2.706613e-12
94	0xbce9dc38	-0.028547391
95	0xbd027ea3	-0.03185905
96	0x3c08cdb9	0.008349829
97	0xbc21a192	-0.0098651815
98	0xa93f89f9	-4.2530192e-14
99	0xb9099328	-0.00013120158
100	0x913af2f4	-1.4747679e-28
101	0xbca0cd6c	-0.019629203
102	0xbd35abe4	-0.04435338
103	0xbc60730a	-0.013699302
104	0xbc6b66c3	-0.014367762
105	0xbc751662	-0.01495895
106	0xbcb996eb	-0.022654971
107	0xbd55247c	-0.052036747
108	0xbcbde404	-0.023180015
109	0xbc4d77c5	-0.012540762
110	0x2f176578	1.3769419e-10
111	0x04e9c22e	5.4956363e-36
112	0x08842874	7.9539715e-34
113	0xbc852558	-0.016253158
114	0xbbf909bd	-0.007600038
115	0xbc167417	-0.009182951
116	0xbce5199c	-0.027966313
117	0x84ea9b97	-5.5156022e-36
118	0x3c1c5122	0.009540828
119	0xbc0df17f	-0.008663534
120	0x00000000	0.0
121	0x00000000	0.0
122	0x24eda34e	1.03059015e-16
123	0xbd3ee2d0	-0.046603024
124	0xbc4e66de	-0.012597768
125	0xbc88f29d	-0.01671725
126	0x90cf9957	-8.188336e-29
127	0x3b9b5e4c	0.0047414657

network_body._body_endoder.seq_layers.2.weight f4 [128, 128]
0	0x3bda6649	0.0066650254
1	0xbcf89c99	-0.03034811
2	0x3b86a1e7	0.0041086557
3	0xbd965d88	-0.073420584
4	0x3d861dd8	0.06548661
5	0x3cc5946e	0.024118628
6	0xbda70c4c	-0.08156642
7	0x3d399932	0.045312114
8	0x3d26730e	0.04063707
9	0x3db9ec8e	0.09078322
10	0xbdcb493b	-0.09926077
11	0x3e06e541	0.13173391
12	0xbc63a3d7	-0.013894043
13	0x3e089557	0.13338219
14	0xbdca7531	-0.09885634
15	0xbd81f41a	-0.06345387
16	0x3caa832e	0.020814504
17	0xbe029699	-0.12752761
18	0xbda34a75	-0.07973186
19	0x3d8d027f	0.06885242
20	0xbdbb8d5e	-0.09157823
21	0x3db11979	0.08647437
22	0xbd0ee589	-0.03488687
23	0x3acaa7d2	0.0015461391
24	0x3ddba4f1	0.107248195
25	0xbe0c3e3c	-0.13695616
26	0xbe012500	-0.1261177
27	0x3c875e31	0.016524406
28	0x3d1c2477	0.038120713
29	0xbe23ce07	-0.15996562
30	0xbd4d9a9c	-0.050196275
31	0xbde23fb2	-0.11047305
32	0xbdbe8563	-0.09302785
33	0x3bfca4b8	0.0077100657
34	0xbd5a1be7	-0.053249266
35	0x3dd9ae5e	0.10628961
36	0xbe0c634d	-0.13709755
37	0xbd4e9805	-0.050437946
38	0x3d977f60	0.07397342
39	0xbe097a3e	-0.13425538
40	0xbe0d68eb	-0.13809554
41	0x3d657056	0.056015335
42	0xbd955a0b	-0.07292565
43	0x3dfde495	0.12397114
44	0x3d5830b9	0.05278084
45	0xbd6ff686	-0.058584712
46	0x3e37746a	0.17915502
47	0x3c8cc336	0.017182928
48	0x3df3aee5	0.11898593
49	0x3d31a703	0.043372165
50	0xbe563376	-0.20918068
51	0x3e2e1092	0.16998509
52	0xbe032bbb	-0.1280965
53	0xbd5b90d7	-0.053604927
54	0xbdcb15ec	-0.09916291
55	0xbd8d909c	-0.06912348
56	0x3ce55478	0.02799438
57	0xbd3a5fa7	-0.045501377
58	0xbbd5dd81	-0.0065266495
59	0x3da745ed	0.08167634
60	0xbcff2a8c	-0.031148218
61	0x3cfa7beb	0.030576667
62	0xbd062a87	-0.0327554
63	0x3bcfde70	0.0063436553
64	0x3ccfc4c7	0.025362385
65	0xbd8cf9cc	-0.068835825
66	0x3e5119f2	0.20420054
67	0x3cfb3af9	0.030667769
68	0xbc3b0ff0	-0.011417374
69	0x3dbe949e	0.0930569
70	0xbdd30591	-0.10303796
71	0xbd0043e7	-0.031314757
72	0xbd31b9bc	-0.04339002
73	0xbdf298a7	-0.118455224
74	0x3dd4d43d	0.10392044
75	0x3dcd0fae	0.10012756
76	0x3d765f4b	0.060149472
77	0xbd8dafb3	-0.069182776
78	0x3c3cbcee	0.011519654
79	0xbe3edc9f	-0.18638848
80	0xbdd51307	-0.1040402
81	0x3dca9410	0.09891522
82	0x3cc8ed4e	0.024527218
83	0x3df30f8c	0.118682
84	0x3db21eba	0.08697267
85	0x3ab549b6	0.0013831172
86	0xbd25965b	-0.040426593
87	0xbe0dd603	-0.1385117
88	0xbd8a7874	-0.06761256
89	0x3cbc8f1c	0.023017459
90	0xbde3810e	-0.111085996
91	0xbd876e34	-0.066128165
92	0xbcd96a24	-0.02653987
93	0xbd90c956	-0.07069652
94	0xbd8f8572	-0.070078745
95	0xbdb625f2	-0.08893956
96	0xbd59bfe4	-0.053161517
97	0xbd8003b7	-0.062507086
98	0x3d0955c7	0.03352907
99	0xbe146583	-0.14491849
100	0xbc98c116	-0.018646758
101	0x3d537230	0.05162257
102	0xbc3b6116	-0.011436721
103	0xbd9fc6fa	-0.07801624
104	0x3df90821	0.121597536
105	0xbe08b9e3	-0.1335216
106	0xbd338143	-0.043824445
107	0x3c004919	0.007829928
108	0x3d54f14c	0.05198793
109	0xbd2fef6e	-0.042952947
110	0xbce1cac1	-0.0275625
111	0xbe50f3a1	-0.20405437
112	0x3e0fc667	0.14040528
113	0xb8f3aabd	-0.000116189454
114	0x3dc75b3a	0.09734197
115	0xbcca2828	-0.024677351
116	0x3dc9acdc	0.098474234
117	0x3e0c2307	0.13685237
118	0x3e5da8d4	0.21646434
119	0xbd49bf48	-0.049254686
120	0xbdbf1990	-0.093310475
121	0x3dc014ab	0.09378942
122	0x3e1ac50a	0.15114227
123	0xbe1f792a	-0.15573564
124	0x3daaad90	0.08333886
125	0xbdc3c8c0	-0.095597744
126	0x3db0580d	0.08610544
127	0xbd5d986b	-0.054100435
128	0x3d0bb80f	0.03411108
129	0x3d61b9b1	0.05510873
130	0xbb87f714	-0.004149327
131	0xbca1e239	-0.019761192
132	0xbdd3c74f	-0.103407495
133	0x3d960186	0.07324509
134	0xbd832824	-0.064041406
135	0x3cf3aceb	0.02974554
136	0xbca2d2ac	-0.019875847
137	0x3c8f62cb	0.017503163
138	0x3d3e9442	0.04652811
139	0x3d96f518	0.07370967
140	0xbd50d7ff	-0.05098724
141	0x3d0b36b2	0.03398771
142	0x3d526fde	0.051376216
143	0x3c03b8d4	0.008039672
144	0x3d150ef0	0.0363912
145	0x3cf07298	0.029351518
146	0xbc54c329	-0.012985983
147	0xbca4d80f	-0.020122556
148	0xbe02736e	-0.12739345
149	0xbdf46de2	-0.11935021
150	0x3d54061d	0.051763643
151	0x3da5640e	0.080757245
152	0x3e2494e9	0.1607243
153	0x3c34921a	0.011021161
154	0xbd16fb3f	-0.0368607
155	0x3bda7f35	0.0066679963
156	0x3ce848ec	0.028355084
157	0x3ca4b62a	0.020106394
158	0x3d0b2433	0.03397007
159	0xbd919299	-0.071080394
160	0xbc737440	-0.014859259
161	0xbd1a5345	-0.03767707
162	0x3e952031	0.29126123
163	0xbc6ae399	-0.01433649
164	0xbd2681bd	-0.04065107
165	0x3d165c62	0.036709197
166	0xbd5ddd5b	-0.05416618
167	0x3d3729e5	0.044717688
168	0x3d844cc9	0.06459958
169	0x3b04c03d	0.0020256185
170	0xbdbc67f1	-0.09199513
171	0x3e04fc02	0.12986758
172	0xbd0cdc54	-0.03438981
173	0x3c78acfc	0.015177961
174	0x3e1c55ac	0.15267056
175	0x3d68f95a	0.056878425
176	0x3b026810	0.0019898452
177	0x3da5dfac	0.08099303
178	0x3d5e58ae	0.05428379
179	0xbe5f24db	-0.21791403
180	0xbe10bb2c	-0.141339
181	0xbd142ddf	-0.03617656
182	0xbdaf9e16	-0.085750744
183	0xbd9ee1d8	-0.0775792
184	0xbd2a3391	-0.041553084
185	0xbbbafa3d	-0.0057061003
186	0xbe241389	-0.16023077
187	0x3d17c0b4	0.03704901
188	0x3e4aeb5a	0.19816342
189	0xbcbcdd56	-0.02305476
190	0x3d00caf8	0.031443566
191	0xbcdd0056	-0.0269777
192	0x3d1750eb	0.036942404
193	0x3c9341ca	0.017975707
194	0xbdb8fb8a	-0.09032352
195	0x3cdd7eee	0.027038064
196	0x3e0721b2	0.13196447
197	0xbd97c559	-0.07410688
198	0xbdfc37db	-0.12315341
199	0x3c800a80	0.015630007
200	0x3d5df91e	0.054192655
201	0x3e15cce2	0.14628938
202	0xbdd7ed22	-0.10543276
203	0xbda41c6a	-0.08013232
204	0x3b1ed0df	0.0024233384
205	0x3cf856b5	0.030314783
206	0xbe0634e8	-0.1310612
207	0xbe2511da	-0.16120091
208	0xbdd92fcf	-0.10604822
209	0xbdead3ed	-0.11466203
210	0x3ce56e5f	0.02800673
211	0x3e0a4c89	0.13505758
212	0xbdeedb99	-0.11662979
213	0xbd20b907	-0.039238956
214	0xbd0f8d7e	-0.035047047
215	0x3e0277aa	0.1274096
216	0x3dafc9c6	0.08583407
217	0x3c740748	0.014894314
218	0xbda0f712	-0.07859625
219	0xba9489d7	-0.0011332583
220	0xbd4f4f07	-0.050612476
221	0x3d9b750f	0.075906865
222	0x3e02116d	0.1270196
223	0xbd3fa589	-0.046788726
224	0x3d55b074	0.052170232
225	0x3b30a53d	0.0026953958
226	0x3b30629d	0.0026914247
227	0xbd75b40c	-0.05998616
228	0xbd818c4e	-0.06325589
229	0xbd246e42	-0.040144213
230	0x3e208eed	0.15679522
231	0xbe0e4c1f	-0.13896225
232	0xbaf21c6a	-0.0018471603
233	0x3d9b3cd9	0.07579965
234	0xbbdf7437	-0.006819274
235	0xbe09424c	-0.13404197
236	0x3dae9747	0.085249476
237	0x3e192dd4	0.14958888
238	0x3deeeb65	0.11665992
239	0xbc7df5a6	-0.015500462
240	0x3d3ff297	0.04686221
241	0x3d26ccae	0.04072254
242	0xbda6fd50	-0.08153784
243	0x3c28cb18	0.010302328
244	0xbd914dbb	-0.07094904
245	0xbdb14a00	-0.086566925
246	0x3c5c6a72	0.013453113
247	0xbe39ab3e	-0.1813173
248	0xbdbfe20d	-0.09369288
249	0x3e03374d	0.12814064
250	0xbcabf4a7	-0.020990683
251	0xbcc13c30	-0.02358827
252	0xbdf0d0fb	-0.1175861
253	0x3d2f6e9b	0.04283009
254	0x3cd31f82	0.02577186
255	0x3cd554f1	0.02604148

network_body._body_endoder.seq_layers.2.bias f4 [128]
0	0x8d83167f	-8.078914e-31
1	0xb771bd7a	-1.4408835e-05
2	0xbce564dd	-0.028002197
3	0xbc9ca968	-0.019123748
4	0xbccca925	-0.024982998
5	0xbc277bc0	-0.010222375
6	0xbc711150	-0.0147136
7	0x00000000	0.0
8	0xbbde60d4	-0.006786445
9	0xb99bf543	-0.00029746638
10	0x2af8e0d0	4.4209645e-13
11	0xb6b4621c	-5.3758395e-06
12	0xa50e1fc1	-1.2327295e-16
13	0xbbd52884	-0.006505074
14	0x359b906e	1.1590434e-06
15	0x258c1829	2.43025e-16
16	0xbc772182	-0.0150836725
17	0xbc7abe58	-0.015304171
18	0xbbc84e3a	-0.006112841
19	0xbc44e368	-0.0120171085
20	0xbc3f75d9	-0.011685812
21	0xbc874130	-0.016510576
22	0xbca60d06	-0.020269882
23	0xbbea4b24	-0.0071500707
24	0xb48f50b3	-2.6694542e-07
25	0xba40875e	-0.000734439
26	0x0fa6ea10	1.6459021e-29
27	0xbabb333a	-0.0014282234
28	0xba859f49	-0.0010194565
29	0xbc21cf5c	-0.0098760985
30	0xbc5ea3f0	-0.01358889
31	0xb74979c5	-1.2008885e-05
32	0xbc1b21e8	-0.009468533
33	0x0adf2bd9	2.1490613e-32
34	0x249253a7	6.345912e-17
35	0xa7458aa0	-2.741439e-15
36	0xbce15874	-0.027507998
37	0xbc9a002f	-0.018798916
38	0xa5cc7d2b	-3.5473176e-16
39	0xbcac2cc7	-0.021017445
40	0xbce79adc	-0.028272085
41	0x2d741904	1.3875349e-11
42	0xae7ecfd0	-5.7937488e-11
43	0xbcbda8a9	-0.023151712
44	0xbca4514c	-0.020058297
45	0xba0d137c	-0.00053816265
46	0xbc6cdc8f	-0.014456882
47	0xbbae978c	-0.0053281244
48	0xbbbc1b30	-0.0057405457
49	0x083e33f9	5.723714e-34
50	0xbc524ee2	-0.01283619
51	0x2c1f544a	2.2642049e-12
52	0xbc2bbd75	-0.010482182
53	0xbc78b29c	-0.015179303
54	0xba2dda3a	-0.00066319446
55	0xbc7830b6	-0.015148332
56	0xbc609c7d	-0.013709185
57	0xbb067ffc	-0.0020523062
58	0xb85586b6	-5.0908617e-05
59	0xbcfa5eca	-0.030562777
60	0x34d6cd67	4.0010056e-07
61	0xbc718ed8	-0.014743529
62	0xbc980e71	-0.018561574
63	0xba836671	-0.0010025037
64	0xbbcc01a1	-0.00622578
65	0xbbf0f7ce	-0.0073537594
66	0xbca5a879	-0.020221936
67	0xbc1a576c	-0.009420257
68	0xaa9eec05	-2.823021e-13
69	0xbc860d47	-0.016363753
70	0xbccb0df2	-0.024786923
71	0xbc98748f	-0.018610267
72	0xa2bbbc1b	-5.0885616e-18
73	0x9c0a5fca	-4.5784174e-22
74	0xbca22937	-0.019795043
75	0xb98e9da2	-0.00027201796
76	0xa6229de4	-5.641902e-16
77	0xbc744646	-0.014909333
78	0xbce6a160	-0.028153121
79	0xbbf0c4ab	-0.0073476634
80	0xba33a234	-0.0006852478
81	0xbbdd2c93	-0.0067496984
82	0xbcb6674f	-0.022266058
83	0xbc38d6db	-0.011281694
84	0xb36636ec	-5.3601e-08
85	0xbc49027c	-0.012268659
86	0xbc45ff90	-0.012084857
87	0x26960fc9	1.0412619e-15
88	0xbcd02607	-0.025408758
89	0xbb050295	-0.0020295728
90	0xbc5aa889	-0.013345846
91	0xbb5b477a	-0.0033459351
92	0xbc9a678d	-0.018848205
93	0xbc2bb510	-0.01048018
94	0xbc5b7a44	-0.01339585
95	0xa9a6315b	-7.380443e-14
96	0xaeb90959	-8.4144865e-11
97	0x21053152	4.512743e-19
98	0xbbf9a3ec	-0.007618418
99	0xbc7e32f5	-0.015515079
100	0xbc2ba34d	-0.010475946
101	0x22592bff	2.9432275e-18
102	0xbbebfdb4	-0.0072018746
103	0xbc9dccac	-0.019262634
104	0xbcc697e3	-0.024242347
105	0x8d08fda9	-4.221357e-31
106	0x1947522c	1.0304653e-23
107	0xaf8cb087	-2.5591282e-10
108	0xbbf3e957	-0.0074435878
109	0x317d1f47	3.6834125e-09
110	0xb0b23872	-1.2967247e-09
111	0xbc2e9695	-0.010656019
112	0xbbd62406	-0.006535056
113	0xbce39099	-0.02777891
114	0xbc43ad2b	-0.011943142
115	0x25017866	1.1229759e-16
116	0xbc915587	-0.017740978
117	0xbc35bf42	-0.011092963
118	0xbc831d3e	-0.016005155
119	0x23908d13	1.5672259e-17
120	0xbc428392	-0.011872189
121	0xbcae32da	-0.021264482
122	0xaba82abd	-1.194898e-12
123	0xbc2ddaed	-0.010611278
124	0xbbfee482	-0.007778705
125	0x2c125f4f	2.0800755e-12
126	0x2fad95b4	3.1574887e-10
127	0x23bec38a	2.0682655e-17

action_model._discrete_distribution.branches.0.weight f4 [3, 128]
0	0x3bcb20cc	0.006198978
1	0xbb30558d	-0.002690646
2	0x3ca18a97	0.019719405
3	0xbc3df816	-0.011594793
4	0x3c095185	0.008381252
5	0xbc32d5e6	-0.010915255
6	0x3b1ac94f	0.0023618524
7	0x3b533b87	0.0032231526
8	0xbc06da33	-0.008230734
9	0xbb312c3b	-0.002703442
10	0x3a8c0897	0.0010683712
11	0x3bdfd994	0.0068313573
12	0x3ba77d5f	0.005111381
13	0xba9b7ef6	-0.0011863399
14	0x3c3c1148	0.01147873
15	0x3aab01fa	0.0013046854
16	0x3b4a2fd0	0.0030851252
17	0xbb9f3021	-0.0048580323
18	0x3c2a1847	0.010381765
19	0x3be95211	0.007120379
20	0x3bf2ec0c	0.007413393
21	0xbcaed850	-0.02134338
22	0x38eb0575	0.0001120669
23	0xbc0c5733	-0.008565712
24	0x3bdaf876	0.006682451
25	0xbbc84063	-0.006111191
26	0xbc6a869f	-0.014314323
27	0xbc05c751	-0.0081651965
28	0xbc03c202	-0.008041861
29	0x3ba7d327	0.005121607
30	0x3ae08775	0.0017130213
31	0x3a8c5a79	0.0010708115
32	0x3c0887b1	0.008333133
33	0xba685ba5	-0.0008863754
34	0x3c94f601	0.01818371
35	0x3c26db33	0.010184097
36	0xbb07c919	-0.0020719229
37	0xbb971cb6	-0.004611577
38	0xbc55bc00	-0.013045311
39	0x3b8824a5	0.004154759
40	0x3b9e7271	0.00483542
41	0xbc8c3b01	-0.017117979
42	0xbc59f2ed	-0.013302547
43	0x3b1f6c29	0.0024325943
44	0xbca0716c	-0.019585334
45	0x3a4cee5e	0.0007817502
46	0x3ccddc0e	0.025129344
47	0xbc33ec6b	-0.010981659
48	0x3a5b4e1c	0.0008365826
49	0xbb48a9a3	-0.003061869
50	0x3b9b4bcb	0.00473926
51	0x3c903d92	0.017607484
52	0xbb2cef66	-0.002638781
53	0x3c1ea7e2	0.009683581
54	0x3bba4624	0.005684631
55	0xbb02c186	-0.0019951775
56	0xbbe9bd34	-0.0071331505
57	0x3b4f8439	0.0031664504
58	0xbbbe20f5	-0.0058022686
59	0xbba9761f	-0.005171552
60	0x3b2ae39c	0.0026075607
61	0xb9a9e4e7	-0.00032404737
62	0xb827707a	-3.9920655e-05
63	0xbb74fd9b	-0.0037382606
64	0x3a64b262	0.0008724091
65	0xbc1f7eb2	-0.009734796
66	0xbce33466	-0.027734946
67	0x390aeabc	0.00013248151
68	0x3c5d05aa	0.01349012
69	0xbc9af662	-0.018916313
70	0x3ca73435	0.020410636
71	0xbb8c1406	-0.004274848
72	0xba41f6ae	-0.0007399124
73	0xbb5c912f	-0.0033655872
74	0xbccea8d9	-0.025226997
75	0xb90d80f0	-0.00013494841
76	0xbb14491c	-0.0022626584
77	0xbcaeb810	-0.021328002
78	0xbb9cf8b5	-0.0047903904
79	0xba68bcc9	-0.0008878229
80	0xbc31c126	-0.010849273
81	0x3c4827ad	0.012216491
82	0x3c28b5b3	0.010297227
83	0xbbdbbab9	-0.0067056087
84	0x3c9a176c	0.018809997
85	0x3bd5b4d2	0.0065217996
86	0x3a93a3b4	0.0011263997
87	0xbbc732d5	-0.0060790577
88	0x3c5f7d8e	0.013640774
89	0x3c1b3f08	0.009475477
90	0xbbd5b811	-0.0065221866
91	0xbc991cb3	-0.018690443
92	0x3cb99938	0.022656068
93	0xbb4dbdc3	-0.0031393624
94	0xbb6137c9	-0.0034365526
95	0x3ad6e345	0.0016394636
96	0xba50a876	-0.0007959673
97	0x3b9aaa9e	0.004720046
98	0xbb4cd592	-0.0031255228
99	0xbc6270f5	-0.013820876
100	0xbaf7e82c	-0.0018913797
101	0x3b84f985	0.0040580654
102	0xb9c1bf0c	-0.0003695417
103	0x3bd80392	0.0065922225
104	0xbc1e2597	-0.009652517
105	0xbb924377	-0.004463609
106	0x3bc67ce3	0.006057368
107	0x3b1fe4ab	0.0024397771
108	0x3b14d871	0.0022712017
109	0x3b3e6a1d	0.0029054948
110	0xbbcdea3b	-0.006284026
111	0xbbc9fcf8	-0.0061641894
112	0xbd0dd6b7	-0.034628596
113	0x3bb0569d	0.005381419
114	0x3cb26244	0.021775372
115	0x3c23b070	0.009990796
116	0xbb98b6e3	-0.0046604737
117	0xbbbf7888	-0.005843226
118	0x3c68bcb8	0.01420515
119	0x3c31870a	0.0108354185
120	0xb97f742f	-0.00024361977
121	0x3a55cc87	0.0008155782
122	0xbc6a4d23	-0.014300617
123	0x3c96bf2a	0.018401701
124	0xbc9469fa	-0.01811694
125	0xbbd1a14f	-0.0063974033
126	0xba903ee4	-0.0011005071
127	0xbbe31e5d	-0.00693111
128	0x3bc25976	0.0059310747
129	0x3c040677	0.008058182
130	0x3bb340c7	0.0054703685
131	0xbc343ec9	-0.011001297
132	0x3c56fe44	0.013122145
133	0x3d14f454	0.036365822
134	0x3c882d07	0.016623033
135	0xbc0b057b	-0.008485193
136	0x39cabab4	0.00038667547
137	0xbaa0ab78	-0.0012258133
138	0xbc2412d6	-0.010014256
139	0xbc21d585	-0.009877567
140	0xb9de29da	-0.00042374321
141	0xbc22b229	-0.009930172
142	0xba583652	-0.00082478405
143	0x3c328f8f	0.010898485
144	0xbbaa4530	-0.005196236
145	0xbd1853e5	-0.037189383
146	0xbd214038	-0.039367884
147	0xbc068133	-0.008209514
148	0x3c885de7	0.016646339
149	0xbccaca7e	-0.024754759
150	0xbbb72b3a	-0.00558987
151	0xbbc71cc6	-0.006076428
152	0x3c2c2bcf	0.010508492
153	0xbaf2e35e	-0.0018530895
154	0x3b47bed3	0.003047873
155	0x3c38a145	0.011268918
156	0xbc4d2521	-0.012521059
157	0x3a74cddf	0.00093385385
158	0x3afbe5ec	0.0019218302
159	0x3b5878c5	0.0033030969
160	0x3cd03e58	0.025420353
161	0xbb988563	-0.004654573
162	0x3c0c9145	0.008579557
163	0xbbf7b69f	-0.007559612
164	0x3b608705	0.0034260165
165	0xb7f176d6	-2.8784776e-05
166	0xba2234dc	-0.0006187686
167	0x3af932f5	0.0019012379
168	0xba1c6539	-0.0005966011
169	0xbc1213a5	-0.008915816
170	0xbbccb30f	-0.0062469314
171	0x3c860648	0.016360417
172	0xbcb02af4	-0.021504857
173	0x3ab71f5e	0.001397114
174	0xbc87ba17	-0.016568227
175	0x3b05d9ff	0.0020424125
176	0xbc52f91c	-0.012876775
177	0x3b07b910	0.002070967
178	0xbb7b3e2f	-0.0038336625
179	0xbb9e2645	-0.0048263394
180	0x3c470a90	0.012148514
181	0x39eeaf26	0.00045525393
182	0x3a13f517	0.0005644126
183	0x3c789afa	0.015173668
184	0xbc125a0a	-0.0089326
185	0xbbc83949	-0.0061103445
186	0xba452606	-0.00075206195
187	0xbcc7703b	-0.024345508
188	0xbbbb8261	-0.0057223295
189	0xbbc38820	-0.005967155
190	0x3c3b03bd	0.0114144655
191	0x3c331bad	0.010931891
192	0x3c845866	0.016155433
193	0x3cc463df	0.023973403
194	0x3a5313e8	0.00080519775
195	0xbc154433	-0.009110498
196	0xbbb82ec9	-0.0056208116
197	0xbc3092e1	-0.010777206
198	0x3c840c03	0.016119009
199	0x3c0c3001	0.008556367
200	0x3c3733cf	0.011181786
201	0xbcaa3693	-0.020777976
202	0x3b9ffa1d	0.0048821107
203	0x3b795a21	0.0038048106
204	0x3c39adc9	0.0113329375
205	0x3bfcf591	0.0077197035
206	0xbbf78774	-0.007553989
207	0x39bd55e9	0.00036112897
208	0x3c174b73	0.009234297
209	0x3bdf85da	0.0068213763
210	0x3c09403d	0.008377132
211	0xbcae67f8	-0.02128981
212	0xbaa02b78	-0.0012219986
213	0xbc45e041	-0.012077392
214	0x3d06d9f8	0.032922715
215	0x3b2960cb	0.0025845047
216	0x3b41ab79	0.0029551669
217	0xbc750dd8	-0.014956914
218	0x3c45e133	0.012077617
219	0x3b3a3647	0.00284137
220	0x3c61625c	0.013756361
221	0xbc39b1b4	-0.011333872
222	0x3c08c1ee	0.008347018
223	0x3c1381d7	0.009003124
224	0x3a453019	0.0007522121
225	0xb932c3de	-0.00017048369
226	0xbcc125db	-0.023577621
227	0xbc887756	-0.016658466
228	0x3cdd1b3c	0.026990525
229	0x3c09b83c	0.008405741
230	0x3cae16b4	0.02125106
231	0xba9fe3cc	-0.0012198626
232	0xbb1d94d0	-0.0024044998
233	0xbcce0302	-0.025147919
234	0x3c924fb6	0.017860275
235	0xbc1395c2	-0.009007873
236	0xbbab1549	-0.0052210432
237	0x3b9b1d8c	0.004733747
238	0xbb16aa60	-0.0022989735
239	0x3c392391	0.011299984
240	0xbcea68a8	-0.028614357
241	0x3a959e93	0.0011415057
242	0xbd120c6c	-0.035656378
243	0xbbb98073	-0.0056610643
244	0xb9bd619c	-0.00036121614
245	0xba2cedfb	-0.0006596741
246	0x3caf3b36	0.021390539
247	0x3b7eba45	0.003886835
248	0x3ce6ba27	0.028164936
249	0x3b8650a4	0.0040989686
250	0x3b9dfa61	0.0048211073
251	0xbb8c80e1	-0.0042878245
252	0x3ce6d44c	0.028177403
253	0xbc242dcd	-0.010020685
254	0xbc079fe4	-0.008277867
255	0x3c37dfbe	0.011222778

action_model._discrete_distribution.branches.0.bias f4 [3]
0	0x3d96ebb1	0.07369173
1	0x3de8ef44	0.11373761
2	0xbe2f65f7	-0.1712874

action_model._discrete_distribution.branches.1.weight f4 [2, 128]
0	0x3b8306aa	0.003998597
1	0x3b741885	0.003724606
2	0xbc1867ef	-0.009302123
3	0x3bd765d8	0.00657342
4	0xbd3b891b	-0.04578505
5	0xbc945426	-0.018106531
6	0x3954f531	0.00020309236
7	0x3bdb83e2	0.0066990713
8	0x3a68f051	0.00088859076
9	0x3b930b73	0.004487449
10	0xbc61a6ad	-0.013772649
11	0xbbaca2dc	-0.005268438
12	0x3c154765	0.00911126
13	0xbbdb4392	-0.0066914046
14	0xbc10aac8	-0.00882978
15	0xbbb7a887	-0.005604807
16	0x3900dfa3	0.00012290342
17	0x3bc13cf7	0.00589716
18	0x3bf4b497	0.007467817
19	0xbc36dfd4	-0.011161763
20	0xbbb12841	-0.00540641
21	0x3c59bf99	0.013290309
22	0x3ba37cb2	0.00498923
23	0xbbfa6285	-0.007641139
24	0xbb18e5de	-0.002333037
25	0xbc33f670	-0.010984048
26	0xbb73e9eb	-0.0037218283
27	0x3cb231c5	0.021752248
28	0xbc0dc001	-0.008651734
29	0xbc235f54	-0.009971458
30	0xbc3bfc03	-0.0114736585
31	0x3c1549f2	0.009111868
32	0x3c0d767f	0.008634209
33	0x3ba17f69	0.0049285186
34	0x3b9e0cad	0.0048232884
35	0x3c3c9378	0.011509769
36	0xbbe48d4a	-0.006974851
37	0xbbb23608	-0.00543857
38	0x3c6f70bd	0.014614281
39	0x3ac4d906	0.0015018291
40	0x3c0ef5a6	0.008725559
41	0xbb8d6993	-0.004315564
42	0xbb7852c9	-0.003789114
43	0x3c0bc06a	0.008529762
44	0xbb6f4b0e	-0.0036513242
45	0xbc84eb3f	-0.016225455
46	0x3c88430f	0.016633539
47	0xbb8fc576	-0.004387553
48	0x3c143ebf	0.009048163
49	0xbc23f1a3	-0.010006341
50	0x3d38b781	0.045096878
51	0xbc63ecd3	-0.013911444
52	0x3cccfd7d	0.025023216
53	0xbc09f099	-0.008419179
54	0x3bd314ad	0.0064416737
55	0xba94cfa3	-0.0011353384
56	0xbb3e9207	-0.0029078738
57	0x39e2c374	0.00043251703
58	0x3b34852d	0.00275452
59	0xbc93abe8	-0.018026307
60	0xbbcc9040	-0.006242782
61	0xba66496a	-0.0008784743
62	0xbc5983bf	-0.01327604
63	0x3bb9f994	0.005675504
64	0xbc9e46a5	-0.019320795
65	0x3c62cc36	0.013842633
66	0xbc1d83e0	-0.009613961
67	0xb83486c7	-4.3040865e-05
68	0xbb60052b	-0.0034182768
69	0xbc900064	-0.017578311
70	0xbb03e53e	-0.0020125653
71	0x3c8fdc6b	0.017561158
72	0x3acdecf5	0.0015710877
73	0xba7ff460	-0.0009763893
74	0xbc02fcb7	-0.007994822
75	0xbb8059bc	-0.003916947
76	0x3a4176a9	0.00073800475
77	0xbb07573d	-0.0020651363
78	0xbc0de2a6	-0.008659994
79	0x3c93f5ad	0.018061483
80	0xbc10929b	-0.008824016
81	0x3c0a1700	0.008428335
82	0x3bb8d838	0.0056410097
83	0xbb93f7d2	-0.0045156265
84	0xbc026b27	-0.007960117
85	0x3c7ec238	0.015549235
86	0x3b97b91d	0.0046302215
87	0x3c7658da	0.015035832
88	0xbca34402	-0.01992989
89	0xbc4009a0	-0.011721045
90	0xb738644c	-1.0990607e-05
91	0x3c041673	0.008061993
92	0x3ca32cdf	0.019918857
93	0x3c84f559	0.016230272
94	0x3b8075fb	0.0039203144
95	0xbb8b7062	-0.0042553404
96	0xbc8cca0a	-0.017186183
97	0x3b8e83df	0.0043492164
98	0xbb939498	-0.0045037977
99	0xbb61fd4a	-0.0034483247
100	0xbb8b37f4	-0.0042486135
101	0x3ba4f9d5	0.005034665
102	0xbbab1be9	-0.005221833
103	0x3b9d8025	0.004806536
104	0x3b84fcbf	0.00405845
105	0xbc39b12e	-0.011333747
106	0xbc8a530a	-0.0168853
107	0x3c531cca	0.012885282
108	0xbb80ac37	-0.0039267796
109	0x3ad9fdee	0.0016631463
110	0x3aa5d6bd	0.0012652498
111	0x3b388488	0.0028155167
112	0xbc78e201	-0.015190602
113	0xbba7ea27	-0.0051243487
114	0xbb9a24d1	-0.004704096
115	0xbaf03d00	-0.0018328726
116	0x3c4f5536	0.012654593
117	0x39a1b2d5	0.00030841553
118	0x3b9064b5	0.0044065365
119	0xbc155332	-0.009114074
120	0x3c3c5d11	0.011496798
121	0x3b6fefa0	0.0036611333
122	0xbbe65b20	-0.007029906
123	0x3ca45cf9	0.020063864
124	0xbbdf0af4	-0.0068067256
125	0xbc29793f	-0.010343849
126	0xbc134752	-0.008989172
127	0xbbec99e0	-0.0072204918
128	0xbb249120	-0.0025110915
129	0x38f0f074	0.0001148888
130	0x3bc5de4e	0.0060384637
131	0x3b0f1a65	0.00218358
132	0x3d2e3fff	0.0425415
133	0xbaf0315c	-0.0018325257
134	0x3b89c8a2	0.0042048255
135	0xbb6e1bcb	-0.0036332484
136	0x39ae4aeb	0.00033243684
137	0xbb5bcb72	-0.003353801
138	0xbb929d0f	-0.0044742892
139	0x3b9deca2	0.0048194686
140	0x3bb8a480	0.0056348443
141	0xbbc392b0	-0.0059684142
142	0x3c0052e8	0.007832266
143	0xbc214ea4	-0.00984541
144	0x3a9b3f15	0.0011844361
145	0x3bb0ffb7	0.0054015773
146	0x3c11f5c4	0.008908693
147	0xbbcc813f	-0.0062409933
148	0xbbf37b0f	-0.007430441
149	0xbc0aff2b	-0.008483688
150	0xbbbd24e3	-0.0057722195
151	0x3b60167f	0.0034193096
152	0x3a9ca4a0	0.0011950918
153	0xbbbe9b9d	-0.0058168904
154	0xbc39775f	-0.011319964
155	0x3cac1768	0.021007255
156	0xbabc02bc	-0.0014344077
157	0xbc20c8c4	-0.009813491
158	0x3b905a29	0.004405279
159	0x3bf51a15	0.007479916
160	0x3a3ee3f5	0.0007281893
161	0x3a77e027	0.00094557035
162	0x3c32118d	0.010868442
163	0xbb348846	-0.0027547046
164	0xbbd8d5e7	-0.006617296
165	0x3b7d8156	0.0038681827
166	0x3bc9a005	0.006153109
167	0xbc1f6598	-0.009728812
168	0xbb3dcba7	-0.0028960498
169	0x3a8833d0	0.0010391418
170	0xb9fa3e0a	-0.00047729939
171	0xbc5599d4	-0.013037164
172	0x3c834257	0.016022844
173	0x3c9c47a5	0.019077132
174	0xbb15762f	-0.0022806039
175	0xbbc3009b	-0.005951
176	0x3ba8223a	0.0051310332
177	0x3ae398a3	0.0017364215
178	0xbc85efbe	-0.01634967
179	0x3b1ffbfb	0.0024411667
180	0xbabd554c	-0.0014444976
181	0x3bbea881	0.005818427
182	0xbbf141c1	-0.007362575
183	0xbcb0fda0	-0.021605313
184	0x3a7def69	0.0009686859
185	0x3bcd8c91	0.0062728603
186	0x3c28418d	0.010269535
187	0xbc03c4bb	-0.00804251
188	0x3a395eb7	0.00070713036
189	0xbb50dd9a	-0.0031870366
190	0x3b306dec	0.0026920987
191	0xbcac7c7b	-0.02105545
192	0x3b5396e5	0.0032285985
193	0xbc0e9b4c	-0.008704018
194	0xbc32d0bd	-0.010914025
195	0x3b959ddc	0.0045659374
196	0x3bb23f67	0.005439687
197	0x3b7fec6a	0.0039050826
198	0x3c87c345	0.016572604
199	0xbc5f1ea7	-0.013618148
200	0x3c02e741	0.007989706
201	0xbb8fe757	-0.0043915915
202	0xbb5c85e3	-0.0033649139
203	0x3b9d020a	0.004791503
204	0x3bf2f02f	0.007413886
205	0x3c4c65fa	0.012475485
206	0x3c40d07a	0.011768455
207	0xbce597e7	-0.028026534
208	0x3ca770af	0.020439474
209	0x3cae2c9a	0.021261502
210	0x3bb49ac7	0.005511615
211	0xbc13e249	-0.009026119
212	0xbc36e408	-0.011162765
213	0xbbbd9c0c	-0.0057864245
214	0x3a8483cf	0.0010110083
215	0x3abe05e9	0.0014497611
216	0x3ccace98	0.024756715
217	0xb9c000d2	-0.00036621705
218	0x3c83e482	0.016100172
219	0xbbf7ed3b	-0.007566122
220	0x3a63a05b	0.00086832576
221	0x3c2f076b	0.010682921
222	0xbbbdb25c	-0.0057890844
223	0xbbc87755	-0.006117741
224	0xbb17538c	-0.002309057
225	0xbc175ae0	-0.009237975
226	0xbc5476b3	-0.012967753
227	0x3c07f096	0.008297106
228	0xbb3d7921	-0.002891131
229	0x3bb5b092	0.0055447305
230	0x3c709453	0.014683801
231	0xbb501df6	-0.003175614
232	0x3c4527cb	0.012033413
233	0x3b3cc6fa	0.0028805123
234	0xbc42b764	-0.011884544
235	0x3b995c63	0.004680203
236	0xba46538c	-0.000756555
237	0x3c48d448	0.012257643
238	0x3b71345d	0.0036804893
239	0xbc10d138	-0.008838944
240	0x3c9988ab	0.018741926
241	0x3907a434	0.00012935774
242	0xbc718b9d	-0.014742759
243	0xbb965c5a	-0.004588646
244	0xbc12e61b	-0.008965994
245	0xbcaebca3	-0.021330183
246	0xbb5c5497	-0.0033619755
247	0x3c6983c8	0.0142526105
248	0x3a4f31d9	0.0007903851
249	0x3b089fdc	0.0020847237
250	0x3b6229d0	0.0034509785
251	0x3c03dbd4	0.008048017
252	0x3b528ca8	0.0032127295
253	0xbcdf0e17	-0.027228398
254	0x3b05db5a	0.0020424933
255	0x3b979447	0.0046258303

action_model._discrete_distribution.branches.1.bias f4 [2]
0	0x3e425d9a	0.18981019
1	0xbe425d9c	-0.18981022

action_model._discrete_distribution.branches.2.weight f4 [3, 128]
0	0x3ba87dab	0.005141934
1	0xbb28eb13	-0.002577488
2	0x3baa6a14	0.005200634
3	0x3c40242b	0.011727373
4	0x3c8be468	0.017076686
5	0xbc52e16f	-0.01287113
6	0xbb7b90ab	-0.003838579
7	0xbb163302	-0.0022918587
8	0xbac9d027	-0.0015397117
9	0x3bd4b570	0.0064913556
10	0xbc0936ed	-0.008374912
11	0x3b0b64da	0.002126983
12	0x3c8dbed0	0.0173029
13	0x3af6cc30	0.0018829163
14	0x3bd46791	0.0064820726
15	0xbba0d978	-0.004908737
16	0x3c707506	0.014676338
17	0x3ba736e3	0.0051029786
18	0x3b97ada7	0.0046288553
19	0x3b4ed038	0.0031557214
20	0xbc136895	-0.008997102
21	0xbc6763b4	-0.014122892
22	0xbbf390cb	-0.007433032
23	0xba52bb2e	-0.0008038756
24	0xbc0afa09	-0.008482465
25	0xbbb74566	-0.0055929897
26	0xbbd3dfe8	-0.0064659007
27	0x3c13974e	0.009008242
28	0xbb9384cd	-0.004501915
29	0xbc9f6393	-0.01945666
30	0x3b4d84f6	0.0031359768
31	0xbc30f7ec	-0.010801297
32	0xbba35845	-0.004984888
33	0x3c6b18b8	0.014349155
34	0xbc0157e7	-0.007894493
35	0xbc374c0f	-0.011187567
36	0x3c2c6c57	0.010523877
37	0xbc7a90ff	-0.015293359
38	0x3bb0a45b	0.0053906864
39	0xbc248ccc	-0.010043334
40	0x3bc29e4c	0.0059392806
41	0xbc0a41b2	-0.008438515
42	0xbb0eda16	-0.002179747
43	0x3cc6506c	0.02420827
44	0xbb9f837a	-0.004867968
45	0x3c8a2c74	0.0168669
46	0x3c63fe97	0.013915679
47	0x3b472008	0.0030384082
48	0xbc81c4b7	-0.015840871
49	0x3bbea579	0.0058180657
50	0x3bc552d7	0.006021838
51	0x3ab5d5d7	0.0013872933
52	0xba1e1114	-0.00060297665
53	0x3c0e877b	0.008699293
54	0xba8bceae	-0.0010666454
55	0x3b9c296a	0.004765679
56	0x3ba4a244	0.0050242264
57	0x3b514f58	0.0031938162
58	0x3c3e5bab	0.011618535
59	0x3cb28fc1	0.021797063
60	0xbaa7377c	-0.0012757624
61	0x3bad9169	0.0052968753
62	0xbbdb8883	-0.006699623
63	0xbb5ede90	-0.003400717
64	0x3c263d0c	0.010146391
65	0x3b9ca7ce	0.004780746
66	0xb8dbfe4e	-0.00010490102
67	0xbb32bb6b	-0.0027272354
68	0x3c6a735d	0.014309731
69	0x3c9f1d1a	0.019423056
70	0x3bf054f1	0.0073343446
71	0xbc343728	-0.010999478
72	0x3b68a23f	0.0035497097
73	0x3c28bc68	0.010298826
74	0xbb7889de	-0.0037923972
75	0x3ba3fd9b	0.0050045974
76	0xbc280eb5	-0.010257413
77	0x3bc67650	0.0060565844
78	0x3a84dc70	0.0010136496
79	0x3b62f650	0.0034631677
80	0xba3224e5	-0.0006795659
81	0xbaa93683	-0.0012909923
82	0x3c08b5c1	0.008344115
83	0x365ddc47	3.3059785e-06
84	0x3bcbc043	0.0062179877
85	0xbc3678a4	-0.011137161
86	0x3c43b89c	0.01194587
87	0xbbfd68ea	-0.007733454
88	0x3bdc9f7c	0.006732879
89	0xbb8b3716	-0.00424851
90	0x3c1b0e13	0.009463805
91	0xbc036767	-0.0080202585
92	0xbc8794d6	-0.016550463
93	0x3c304446	0.010758465
94	0x3c454028	0.012039222
95	0xbb0e3fa5	-0.0021705416
96	0xbbe1d1f3	-0.006891483
97	0x39f90d6d	0.00047502984
98	0x3c20b7cf	0.009809448
99	0x39c2b273	0.00037135519
100	0x3c863542	0.016382817
101	0x3ba52630	0.0050399527
102	0x3945eff8	0.0001887678
103	0xba6fff83	-0.00091552007
104	0x3b072d9b	0.0020626548
105	0x3b619988	0.0034423787
106	0x3bece9f0	0.007230036
107	0x3ccb070b	0.024783632
108	0x3b3634ab	0.0027802389
109	0x3bb2b7fb	0.005454061
110	0xbb780585	-0.0037845087
111	0xbc1d1329	-0.009587088
112	0x3c65a860	0.0140171945
113	0x3c660418	0.014039062
114	0xbc8f601c	-0.017501883
115	0xbbdcd230	-0.0067389235
116	0x3b108350	0.0022050925
117	0x3bb5fd7c	0.0055538993
118	0xbb1126f8	-0.0022148471
119	0x3c85c30c	0.016328357
120	0x3be4b295	0.0069792964
121	0xba9e97c5	-0.0012099674
122	0xbc7ac112	-0.015304821
123	0x3c34ad87	0.0110277
124	0x3d4a5c55	0.04940446
125	0x3b433187	0.002978416
126	0xba4937c3	-0.00076758506
127	0xbb406a06	-0.002936007
128	0x3be4dc5a	0.0069842758
129	0x3b108c67	0.0022056343
130	0xb9f3d252	-0.00046505273
131	0x3a9598ee	0.0011413374
132	0x3c5810dc	0.013187613
133	0xbc0d6f57	-0.0086325025
134	0x3c0ac055	0.008468707
135	0x3c0882cc	0.008331966
136	0xba886d34	-0.0010408522
137	0xbb21dac8	-0.0024697054
138	0xba2fae27	-0.0006701671
139	0xbbc4b4eb	-0.0060030124
140	0xbaf6c293	-0.0018826298
141	0xbcbf2f6c	-0.023338042
142	0x3a8e64b2	0.001086375
143	0x3bbb3e03	0.0057141795
144	0xbbdefeb6	-0.0068052663
145	0x3bcf18f1	0.006320112
146	0x3c3b6509	0.011437663
147	0xbad3180b	-0.0016105188
148	0x3a6b29b8	0.0008970755
149	0xbbe0e518	-0.0068632476
150	0xba429fb5	-0.0007424311
151	0x3b319c09	0.002710106
152	0x3c33df47	0.010978526
153	0xbb62f855	-0.003463288
154	0x3c015f15	0.0078962045
155	0x3b961872	0.004580551
156	0x3af628be	0.0018780453
157	0xbb68ae14	-0.003550415
158	0x396a18bb	0.00022325192
159	0xbc0a7bc9	-0.008452364
160	0x3c88e72b	0.016711792
161	0xbace4e8b	-0.001573996
162	0x3ba6570b	0.0050762943
163	0xb988c27b	-0.0002608484
164	0x3b97e064	0.0046349037
165	0xbb5bea54	-0.0033556418
166	0x3ba9b61e	0.0051791808
167	0xbb2b2349	-0.002611356
168	0x39fdaac2	0.00048383145
169	0x3bbe74b1	0.0058122505
170	0xbb18729d	-0.0023261674
171	0xbc2b0f8a	-0.0104407165
172	0xbc068a50	-0.008211687
173	0x3c39df1f	0.0113447
174	0x3af9fa7c	0.0019071843
175	0x3c221cd6	0.00989457
176	0x3c5d0186	0.013489133
177	0xbace7535	-0.0015751483
178	0xbce46410	-0.027879745
179	0xbc039282	-0.008030536
180	0x38d7c32a	0.00010288351
181	0xbb9e2b70	-0.0048269555
182	0xbc1e0391	-0.009644405
183	0x3c0a90c8	0.00845737
184	0xbbe8c28b	-0.0071032695
185	0xbc17d5af	-0.009267255
186	0xba09a568	-0.00052507827
187	0x3c1d5e6e	0.009605033
188	0x3c24c3c2	0.010056438
189	0xbb490b9a	-0.003067708
190	0x3b1d1349	0.0023967794
191	0xbc1b61cf	-0.009483769
192	0xbba9ddd1	-0.0051839133
193	0xba4a175d	-0.000770917
194	0x3af90fc3	0.001900189
195	0x3b9b1fef	0.0047340314
196	0xbb2e56d1	-0.002660204
197	0xbc97016c	-0.018433295
198	0x3c574f78	0.013141505
199	0x3b529748	0.0032133628
200	0xbc0bd196	-0.008533856
201	0x3bb14b60	0.0054105967
202	0x3c9b38eb	0.018948039
203	0xbc2f6326	-0.010704791
204	0xbbccb436	-0.0062470688
205	0x3c4329f1	0.011911855
206	0x3ae25732	0.0017268418
207	0xbc0ea28f	-0.008705749
208	0xbc4e00e1	-0.012573452
209	0xbc439301	-0.011936904
210	0x3bd38230	0.0064547285
211	0x3aa68334	0.0012703897
212	0x3b4553cf	0.0030109768
213	0x3a26fc6f	0.0006370013
214	0x3cbb3730	0.022853464
215	0x3bb40cab	0.005494674
216	0xbc45ccb8	-0.012072735
217	0xbc455403	-0.012043956
218	0xbc275124	-0.0102122165
219	0x3b9c59c0	0.004771441
220	0x3c3c529c	0.011494305
221	0x3c87cb05	0.0165763
222	0x3c75ce02	0.015002729
223	0x3c80e440	0.015733838
224	0x3c270816	0.010194799
225	0xbbcdd543	-0.0062815263
226	0xbc8efab8	-0.017453536
227	0x3bafd15f	0.005365535
228	0x3c82b374	0.01595471
229	0x3b4032e9	0.002932722
230	0x3c9ef48a	0.019403715
231	0x3b6faa78	0.0036570113
232	0x3c305f1a	0.0107648615
233	0x3a9402d0	0.0011292342
234	0x3bed4a87	0.0072415504
235	0xbc4e1e98	-0.012580536
236	0xbabb4d65	-0.0014290033
237	0xbb1fb248	-0.0024367739
238	0xbc7d0019	-0.015441918
239	0xbb98a3fb	-0.00465822
240	0x3bcdaf8a	0.0062770294
241	0x3c907451	0.017633589
242	0x3ca02110	0.019547015
243	0xbc8b3ee4	-0.016997762
244	0xbc024d7a	-0.007953042
245	0x3a9a9fd1	0.0011796897
246	0xbb31c5f2	-0.0027126041
247	0x3b2bf95c	0.002624116
248	0xbb435955	-0.0029807885
249	0x3c31912f	0.010837837
250	0xbc4120b2	-0.01178758
251	0xba550d46	-0.0008127283
252	0x3b82a49e	0.003986909
253	0x3a8a458f	0.0010549295
254	0xbc8fd996	-0.017559808
255	0xbbf6579a	-0.007517767

action_model._discrete_distribution.branches.2.bias f4 [3]
0	0xbcd59830	-0.026073545
1	0x3b7bbf87	0.003841372
2	0x3cfb8f2f	0.030707924

action_model._discrete_distribution.branches.3.weight f4 [2, 128]
0	0x3b18296e	0.0023218053
1	0xba9e3d37	-0.0012072687
2	0xbb05ce83	-0.002041728
3	0x3b0c943b	0.0021450657
4	0x3ab378d7	0.0013692629
5	0xbb85d41e	-0.004084124
6	0xbca6f904	-0.020382412
7	0x3bd425df	0.006474241
8	0x3a4a68fe	0.00077213335
9	0x3bdc8bba	0.006730524
10	0xbc61ab93	-0.013773817
11	0x3c1b7e4c	0.009490561
12	0xbb84b8e2	-0.00405036
13	0xbb29b891	-0.0025897364
14	0x3bf9088e	0.0075998968
15	0xbbb5da9a	-0.005549741
16	0x3b79b668	0.0038103107
17	0xbb152d83	-0.0022762723
18	0xbbf9b0e1	-0.0076199626
19	0xbcdcff11	-0.026977094
20	0x3bfe67cc	0.0077638384
21	0x3be18150	0.0068818703
22	0x3bc5c63e	0.006035595
23	0x3cfa0a57	0.030522509
24	0x3bb39907	0.0054808888
25	0xbb47e593	-0.0030501827
26	0xbb103a1b	-0.002200729
27	0xbb678d82	-0.0035332148
28	0xbb409be7	-0.00293898
29	0x3c172c4c	0.00922687
30	0xbc43c761	-0.011949391
31	0xbb9f7258	-0.0048659258
32	0x3c518f82	0.012790563
33	0xbbd459db	-0.006480438
34	0x3b8576d5	0.004073004
35	0x3cac730b	0.02105095
36	0xba052f41	-0.0005080589
37	0x3bac7359	0.005262774
38	0x3c49bb2f	0.012312694
39	0xbc2e1f0d	-0.01062752
40	0xbb0bd5ff	-0.0021337268
41	0xbc05f1cb	-0.008175324
42	0x3b067287	0.002051504
43	0xbc28f1d9	-0.010311567
44	0x38c5ed7b	9.437926e-05
45	0xbc6a6dc3	-0.014308396
46	0x3ce8f15d	0.028435403
47	0xbb09ee3c	-0.002104654
48	0xbbccb756	-0.0062474413
49	0xbc0968c3	-0.008386794
50	0xbc3326af	-0.010934516
51	0x3b9a2367	0.0047039273
52	0x3c5fbfa4	0.0136565305
53	0xb986f4f8	-0.00025740988
54	0xbb96568a	-0.004587953
55	0x3ca6ae3c	0.020346753
56	0x3bb96eac	0.005658945
57	0xbaa18bad	-0.0012324952
58	0x3c2e9dd9	0.010657751
59	0x3c97fc95	0.018553058
60	0xbb017b26	-0.001975724
61	0x3a274c7b	0.0006381941
62	0x3b7250ef	0.003697451
63	0x3b8c3a2c	0.0042793956
64	0xba2188d1	-0.000616205
65	0xbaf5e97b	-0.0018761599
66	0xba9c98db	-0.001194741
67	0x3c58e039	0.013237053
68	0x3bf25a4f	0.0073960195
69	0xbc936a6c	-0.017995082
70	0xbc2ae68a	-0.010430941
71	0x3c770068	0.01507578
72	0xbadb6a7a	-0.0016740107
73	0x3b933774	0.0044926945
74	0xbaac3b96	-0.0013140317
75	0xbc1b190d	-0.009466422
76	0xbc8e76de	-0.017390665
77	0x3b9ea701	0.0048416858
78	0x3bdafeae	0.006683192
79	0xbc83db34	-0.016095735
80	0xbc12eed1	-0.008968071
81	0x3c267003	0.010158542
82	0xbbe226da	-0.006901604
83	0xbbe1c7c7	-0.0068902704
84	0x3bec2702	0.0072067985
85	0x3bd14c33	0.0063872575
86	0x3ba9023f	0.0051577385
87	0x3c347107	0.011013276
88	0x39ac50dc	0.0003286664
89	0xbc2e17f6	-0.01062583
90	0x3b9cad27	0.0047813836
91	0x3c1025a3	0.008798036
92	0xbc0beb70	-0.008540019
93	0xbb1f8bb8	-0.0024344753
94	0xb95dede3	-0.00021164822
95	0x3ad20378	0.0016022762
96	0xba9ac80c	-0.0011808886
97	0x3b1c7ea6	0.00238792
98	0x3cbde55e	0.02318066
99	0xba2cfa86	-0.000659861
100	0x3c417917	0.011808655
101	0x3b8fe89f	0.0043917443
102	0x3c68f099	0.014217519
103	0x3a8eefc3	0.0010905195
104	0x3c8eb21b	0.017418912
105	0xbc83c182	-0.016083483
106	0xbc0ec95b	-0.008714999
107	0xbb45c362	-0.0030176272
108	0x3ba82913	0.0051318496
109	0xbc1b09dc	-0.0094628
110	0xbbdfbbf8	-0.0068278275
111	0xba23c30e	-0.0006247022
112	0xbb1c8cf6	-0.002388773
113	0x3b9ca5fc	0.004780529
114	0xbcb8771f	-0.022517739
115	0xbc15e2d5	-0.009148319
116	0xbc055ac5	-0.008139317
117	0xbc096b4e	-0.0083874
118	0xbb6dfda7	-0.0036314519
119	0xbc4f0058	-0.012634359
120	0x3c68a37c	0.014199134
121	0x3b905562	0.0044047097
122	0xbc5ce9ef	-0.0134835085
123	0xbba96e07	-0.005170587
124	0xbb6c79c4	-0.003608332
125	0xbbb9b802	-0.0056676874
126	0x3c23c95f	0.009996741
127	0xb98677ee	-0.00025647826
128	0x3a7ad402	0.0009568335
129	0xb9bd7d49	-0.00036142234
130	0xbb70c09b	-0.0036735896
131	0x3bca8b53	0.0061811595
132	0xbc173aee	-0.0092303585
133	0xbc8ae6da	-0.016955782
134	0x3b1e044f	0.0024111455
135	0x3c2077c3	0.009794178
136	0x3aa0576c	0.0012233085
137	0xbaac88f5	-0.0013163375
138	0x3bb819d7	0.0056183147
139	0x3c122ac0	0.008921325
140	0x3b9b12bb	0.0047324575
141	0xbbbc3477	-0.005743559
142	0x3bacbea5	0.00527175
143	0xbc4846b7	-0.012223891
144	0x3c6965ff	0.014245509
145	0x3960580b	0.00021395103
146	0xbbc26d5b	-0.0059334463
147	0x3ceb78a3	0.028744048
148	0xbba7f4ca	-0.0051256167
149	0xbc3a24b1	-0.011361287
150	0x3bf1d086	0.0073795943
151	0xbcda2d31	-0.026632877
152	0x3a02a051	0.00049829955
153	0xbc9e20bf	-0.019302724
154	0x39205eb9	0.00015294076
155	0xbc21a166	-0.009865141
156	0x3cc8b473	0.024500107
157	0xbc64c67c	-0.013963338
158	0xbbe44a44	-0.006966861
159	0x3b8ee55f	0.0043608393
160	0xbce668d9	-0.028126167
161	0x3bd31d17	0.0064426768
162	0xbca44e8a	-0.020056982
163	0xbbb0d4e7	-0.0053964737
164	0x3a58d5fd	0.0008271633
165	0x3b8c12e9	0.004274715
166	0x3bd7b337	0.0065826434
167	0xbc2c1bc1	-0.010504664
168	0xbad385c0	-0.0016137883
169	0xbc15cb90	-0.009142771
170	0xbba72012	-0.0051002586
171	0xbbbf4e80	-0.0058382154
172	0x3bc21f05	0.005924108
173	0xbb2c56b4	-0.0026296796
174	0xbc75bab0	-0.014998123
175	0x3c397abc	0.011320766
176	0xbc608cef	-0.013705476
177	0xbb8da866	-0.004323053
178	0x3ba0aeda	0.0049036564
179	0x3bc556ee	0.0060223257
180	0x3c8e1a21	0.017346444
181	0xbbc752d0	-0.00608287
182	0xbb910cd7	-0.0044265795
183	0xbcdebbcd	-0.02718916
184	0x3c6044ea	0.013688305
185	0x3c11f16c	0.008907657
186	0x3c91461f	0.017733632
187	0x3bcca901	0.006245733
188	0x3a5074da	0.00079519826
189	0x3baa2a6b	0.005193045
190	0x3c37f749	0.011228391
191	0x3b54e1e9	0.0032483286
192	0x3cc56be6	0.024099302
193	0xbbaad179	-0.0052129594
194	0x3b2fff08	0.0026854891
195	0xbc80e79d	-0.015735442
196	0x3b26dc49	0.002546089
197	0x3bb9e2f0	0.005672805
198	0x3b818c85	0.003953519
199	0xbc9c6c07	-0.01909448
200	0x3c1498a3	0.009069595
201	0x3986692c	0.0002563683
202	0xbb4438d9	-0.002994111
203	0x3b869925	0.0041076117
204	0x3bf5993b	0.007495073
205	0xbb94b577	-0.004538234
206	0x3c3f3205	0.01166964
207	0x3bb3694c	0.005475199
208	0xbb3c0cf2	-0.002869424
209	0x3c22aa29	0.009928265
210	0xbb62acc8	-0.003458785
211	0xbb812bd3	-0.003941992
212	0xbba6fea2	-0.0050962726
213	0xbc9f08d3	-0.019413387
214	0xbc8da358	-0.017289802
215	0xba82a13c	-0.0009966264
216	0x3b1f15ba	0.0024274425
217	0xba481800	-0.0007632971
218	0x3b805d48	0.00391737
219	0xbaab83b5	-0.0013085516
220	0x3c9153aa	0.01774009
221	0x3bc52754	0.006016651
222	0x3b688ef9	0.003548561
223	0x3b9032ed	0.004400602
224	0x3be99d8d	0.007129377
225	0xb9b3057f	-0.00034145635
226	0xbcb2e833	-0.021839237
227	0x3b84107e	0.0040302863
228	0xbc0e29fb	-0.008677001
229	0xbb802ef8	-0.003911849
230	0xbbb6b305	-0.00557554
231	0xbc097047	-0.008388585
232	0xbc0b41d2	-0.0084995795
233	0x3c341530	0.01099138
234	0x3b9a12ac	0.004701933
235	0xbb2c8296	-0.0026322952
236	0x392213ca	0.00015456896
237	0xbcad5cc9	-0.021162407
238	0x3c694120	0.014236718
239	0xbbb31c6c	-0.0054660346
240	0x3c9a842b	0.01886185
241	0xba5123b7	-0.0007978039
242	0x3ce4645e	0.02787989
243	0x3a1200fc	0.00055696047
244	0x3b9b017b	0.004730401
245	0xb76e9953	-1.4221604e-05
246	0xbc337b60	-0.010954708
247	0xbc339268	-0.010960199
248	0xbc394deb	-0.011310081
249	0x3b8633d4	0.004095534
250	0xbbf4505f	-0.00745587
251	0x3c7dc70c	0.015489351
252	0xb6e3731e	-6.7785286e-06
253	0x3c18026e	0.009277923
254	0xbb0e5703	-0.0021719343
255	0x3beff0d2	0.007322409

action_model._discrete_distribution.branches.3.bias f4 [2]
0	0xbbe94860	-0.0071192235
1	0x3be94842	0.0071192095
