Assets/results/OuiTankRemaster/TankLearningAI/TankLearningAI-10999971.onnx (onnx, 143120 bytes, 15 tensors)

discrete_act_size_vector f4 [1, 5]
000000 00 00 40 40 00 00 00 40 00 00 40 40 00 00 00 40
       3.0 2.0 3.0 2.0
000010 00 00 00 40
       2.0

network_body._body_endoder.seq_layers.0.weight f4 [128, 110]
000000 41 38 28 3d e5 0d 88 3d 26 00 56 bd 42 04 dc 3d
       0.041069273 0.06643275 -0.052246235 0.107429996
000010 d0 18 23 3e 3f 93 28 bd 3e c0 13 bc 3a a4 b5 3b
       0.15927434 -0.04115605 -0.009018002 0.005543259
000020 b8 22 da bc 5a 81 a7 3d 6b 05 6d be c2 74 04 be
       -0.026627883 0.08178969 -0.23146598 -0.12935165
000030 bd 00 9a bd 14 d5 10 bd 24 6f c4 bc 3e 91 0f be
       -0.07519672 -0.035359457 -0.023978777 -0.14020249
000040 47 a8 14 3e d9 11 e7 bd 63 38 f0 bc a0 66 ca bd
       0.14517318 -0.11282701 -0.029323762 -0.098828554
000050 3d 6d 55 bc ff 46 bf bd 68 4a 01 bd b5 bf 0e 3d
       -0.013026533 -0.09339713 -0.0315651 0.034850795
000060 3f bd 9b 3d 88 4a a7 bb b5 69 c1 3d b2 a8 60 3e
       0.07604455 -0.0051053204 0.0944399 0.21939352
000070 b8 ee d5 bb a8 ad df bd d4 d8 a4 3d 68 3e f5 3a
       -0.0065287016 -0.10921794 0.08049169 0.0018710615
000080 c4 60 4f 3d 12 ec 15 bc a3 53 68 bc c8 37 e6 3d
       0.050629392 -0.009150522 -0.014180097 0.11241108
000090 fb 9d c4 bd b0 a8 ce bd 97 45 27 3d f4 c5 6a bd
       -0.09600445 -0.10090768 0.04083785 -0.05731769
0000a0 85 91 35 3e ad 7a 98 3d b4 f6 b2 3d 85 a7 04 bd
       0.17731293 0.074452735 0.08738461 -0.03238632
0000b0 83 4a 9f bd 61 7e 6a be 24 0f 1f be da 57 86 bd
       -0.07777884 -0.22899772 -0.1553312 -0.06559725
0000c0 ea 0b ff 3c cf 2a 60 bd 33 f7 8d 3d f1 85 05 3d
       0.03113361 -0.054728325 0.06931915 0.03259844
0000d0 87 b7 ae 3c 78 f9 f4 3c 4f 88 5e be 5a fa ec 3c
       0.021327747 0.029904112 -0.21731685 0.02892797
0000e0 9c 3f 1f be 38 7b ec bc fd cf 96 3d f8 62 c2 bc
       -0.15551609 -0.028867349 0.07363889 -0.023728833
0000f0 d2 bc d1 bd 8e 45 5a bd a3 f4 b1 3d 92 db a6 bd
       -0.10241093 -0.05328899 0.08689239 -0.081473485
000100 8c 78 21 bd 81 c3 52 bb 3b a4 39 be d3 e3 1f 3e
       -0.039421603 -0.0032159986 -0.18129055 0.15614252
000110 2a 80 28 3c fb b0 0b be 13 fc 98 3d 91 78 e7 bd
       0.010284463 -0.13641731 0.07469954 -0.11302293
000120 ad cc 0d be 71 b6 ef bc aa 53 1a 3d 0b ca 34 bd
       -0.13847609 -0.0292618 0.037677445 -0.044137996
000130 e8 df 5b bb 27 ea a5 bd 6d 02 55 3d 99 f6 bc 3d
       -0.0033550207 -0.08101302 0.052004267 0.09226722
000140 0f 89 d3 3d f6 e9 24 be 0a 79 06 be 58 9e 9c bd
       0.10328876 -0.16104874 -0.1313211 -0.07647389
000150 ba c5 4f be 48 9e 93 3d d9 65 ec 3d 82 cb e0 3d
       -0.2029027 0.07207924 0.115428634 0.10976316
000160 cf 15 32 bb 6b 44 6b 3e 6f ce 2a 3d aa 0e a3 3d
       -0.0027173643 0.22975318 0.041700777 0.07961781
000170 5d 12 14 3e 71 39 a7 bd a1 05 79 3c a7 e8 b8 bc
       0.1446013 -0.08165253 0.015199096 -0.022571875
000180 3c ee ec bd 8c 75 b3 3c b8 df 51 3e a5 85 6a be
       -0.11568877 0.021906637 0.20495498 -0.22902544
000190 4b ff 81 3d 6a 2d d5 3d e9 df 9f bd 02 6d 56 3b
       0.063475214 0.10409053 -0.07806379 0.0032718782
0001a0 20 41 35 be f6 cb 7e bb 26 5f 51 3d cf 7d c8 3d
       -0.17700624 -0.0038878894 0.05111613 0.09789621
0001b0 bf c7 fd bd cf 7e 6b 3d 6f f8 41 bd 5e 0a d6 3c
       -0.12391614 0.05749398 -0.047356065 0.02612799
0001c0 f1 cd 81 3c 30 8f 37 bd 97 bc 0b be 2a ab fc 3c
       0.01584527 -0.04481429 -0.1364616 0.030843336
0001d0 a0 39 5e bd 0e 0a 58 3d 18 3f ee bd 3b 71 88 bd
       -0.054254174 0.052743964 -0.11633128 -0.06662222
0001e0 2b b9 43 3e c9 b6 a4 bc 51 89 ee bc 35 c8 40 bd
       0.19113605 -0.02010669 -0.029118212 -0.047065932
0001f0 8c 1b 1a 3c af a7 fb 3c 67 d4 a9 3d 78 ca 16 3e
       0.009405982 0.030719606 0.08292466 0.14725673
000200 63 eb 3d bd e8 23 46 3d 73 d2 2d be 03 82 88 bb
       -0.04636706 0.048374087 -0.16974811 -0.004165889
000210 37 75 c9 bd 7c 40 04 be d1 38 23 3e 17 4d cd 3d
       -0.0983681 -0.12915224 0.15939642 0.10024469
000220 15 6d bc bd 43 43 bb bd a8 03 98 bc 78 c5 95 bd
       -0.09200493 -0.091436885 -0.018556431 -0.07313055
000230 bb 99 db 3d f7 e8 01 3e 44 ef 2b 3e 35 03 1a 3c
       0.10722681 0.12686525 0.16790491 0.009400179
000240 73 e8 ab bd 00 e7 06 be 8a e1 c4 bd b0 02 1e 3c
       -0.083939455 -0.13174057 -0.09613331 0.009644195
000250 0c ff 00 bd a6 c6 14 3d 96 50 e3 bd c1 77 9c bc
       -0.03149323 0.03632226 -0.11099355 -0.019100072
000260 41 2d c1 bd cc 6d 13 be 03 80 48 3e bd 82 84 3b
       -0.094324596 -0.14397353 0.19580083 0.0040439055
000270 e0 2f 09 3e 0b b7 d0 bc 7d 77 e1 3c e6 96 a6 3c
       0.13397169 -0.025477907 0.027522797 0.020335626
000280 cb 2d 01 bd 4a b4 a2 3c f9 55 7c bc 68 34 d0 3d
       -0.031537812 0.01986136 -0.015401357 0.10166246
000290 d2 65 b9 bc ee 8e be 3d 67 80 7e 3c 6e 66 03 be
       -0.02263156 0.093046054 0.015533543 -0.12832043
0002a0 ca 65 b7 bc f9 17 d5 3d 3d fb 0b be ae e2 0f bd
       -0.022387404 0.10404963 -0.13670059 -0.035128288
0002b0 09 0a 0b bc 1f 3b 83 3d 2c 4b db 3d 6e 2e 65 3d
       -0.008486279 0.06407761 0.10707697 0.055952482
0002c0 df 74 be 3d 67 c8 ad 3d 14 a7 dd bd 49 3d a2 3a
       0.09299635 0.08485489 -0.10822883 0.0012377884
0002d0 b7 6b 5b 3d e9 b0 ed bd 0a 87 1d 3d e7 c5 14 bc
       0.05356952 -0.116060086 0.03845886 -0.009080387
0002e0 b7 57 c0 bc 48 7b 2d bd 95 b1 db bd 89 f5 32 be
       -0.023479326 -0.0423539 -0.107272305 -0.17476477
0002f0 48 37 84 3d 73 25 a8 bc 68 1c 94 3d 7d 38 b7 bd
       0.064558566 -0.02052567 0.072319806 -0.08946321
000300 78 1e bb bd 8f 80 8d bd b3 4e f5 3d c6 46 e6 3c
       -0.09136671 -0.06909286 0.11977901 0.02810992
000310 25 a2 33 3e 49 05 71 bd 11 b3 e3 3d 4f 9c 1e 3e
       0.17542322 -0.05884293 0.111181386 0.15489314
000320 8e d0 c1 bc 30 22 08 3d 12 c3 f3 3c c7 74 05 3d
       -0.023659017 0.03323573 0.029756103 0.03258207
000330 ce f2 02 be cb dc cc 3d ff 65 84 3b ea b0 be 3b
       -0.12787935 0.100030504 0.004040479 0.0058194296
000340 4a ae 0b 3e 7c 72 73 bd 69 87 f5 bd 48 71 7e 3d
       0.13640705 -0.059435353 -0.11988718 0.062119752
000350 1b 13 29 3c 6b 3b 65 3c 39 87 c7 bd 9d 78 8a bd
       0.0103194965 0.013991217 -0.097425885 -0.067612864
000360 9e ea c3 3c f5 fe 09 3e 06 af f7 3c 0a 03 ad 3d
       0.023915585 0.13476165 0.030234825 0.08447845
000370 0f e5 9a 3d c5 fa b9 3d 82 9d 50 bd 47 e8 ba 3d
       0.07563221 0.090810336 -0.05093146 0.09126335
000380 44 56 90 bd 44 c6 5e bd 0c 67 21 be b1 63 89 bd
       -0.07047704 -0.0543883 -0.15761966 -0.06708468
000390 93 2d 6f bd 18 b9 37 3d 18 77 72 bc 61 6e ad 3d
       -0.058393072 0.044854254 -0.014798902 0.08468319
0003a0 86 ce 30 3e c3 33 40 bd 3c 19 82 bc a2 7c f7 3c
       0.17266282 -0.046924364 -0.015881173 0.030210797
0003b0 89 97 5d bd aa 77 12 be 8b 13 57 3e 0d 5d 95 3d
       -0.054099593 -0.1430346 0.21003549 0.07293139
0003c0 42 ea bc bc 8e f9 13 bd 1c d4 c2 bd 28 7f 4f be
       -0.023060922 -0.036126666 -0.09513113 -0.2026335
0003d0 2e 05 6f 3d fa 98 68 bb cc 0a f7 bc 67 92 dc bc
       0.05835455 -0.0035491572 -0.030156516 -0.026925279
0003e0 7b c0 08 bd a0 f4 9b bd 4c 57 34 be 61 f7 eb 3c
       -0.03338669 -0.07615018 -0.17611426 0.028804483
0003f0 a4 21 cf bb 0a 03 19 bd 79 05 ca 3d 25 70 88 bd
       -0.006321149 -0.037356414 0.09864325 -0.06662015

network_body._body_endoder.seq_layers.0.bias f4 [128]
000000 00 00 00 00 cd e0 6c 10 c3 5b 0a b1 04 a6 44 a2
       0.0 4.6715974e-29 -2.0133804e-09 -2.6650841e-18
000010 e6 6d 48 27 47 7c 92 bc 38 b6 2c bd bd bd 7f bc
       2.7815152e-15 -0.017881526 -0.042165965 -0.015609202
000020 00 00 00 00 36 3b 43 bc 99 f5 da bc 97 d1 49 b1
       0.0 -0.011915972 -0.026728438 -2.9368488e-09
000030 f1 8d 58 bc b0 6c 88 a4 be f4 6f bd 22 74 36 bd
       -0.013217435 -5.916472e-17 -0.058583014 -0.044544347
000040 f4 84 63 ac fc c0 67 3a ea 0b 9d bc 00 00 00 00
       -3.2332444e-12 0.00088407076 -0.01917072 0.0
000050 75 6d 23 bd 6a e7 a1 bb 33 c6 0a 3c 07 e1 56 39
       -0.03989931 -0.004940917 0.008470106 0.0002049246
000060 00 00 00 00 0c 80 a8 bc 00 00 00 00 00 00 00 00
       0.0 -0.02056887 0.0 0.0
000070 6b 89 59 bc ce e3 f0 bb 6c 1b 6b a7 d0 bf 17 a4
       -0.013277392 -0.007351375 -3.2627667e-15 -3.2905377e-17
000080 da 1c b4 bd 7f 91 40 bc 82 1d 69 3c 62 8c 34 93
       -0.087945655 -0.011753439 0.014228227 -2.2788408e-27
000090 80 44 9d bc aa a0 3e 93 3d 3b 83 bc 10 86 66 bc
       -0.019197702 -2.4060585e-27 -0.016019458 -0.014070049
0000a0 7e 2c 89 bc 53 3c 83 bb 79 40 1e 09 55 6e 01 05
       -0.016744848 -0.004004994 1.9048873e-33 6.085816e-36
0000b0 6a 51 64 bb 91 b2 41 bd 64 4e ae 2d c5 90 3f 88
       -0.0034838566 -0.047289435 1.9816322e-11 -5.7647148e-34
0000c0 73 96 a2 bc 44 81 99 1e 00 00 00 00 1f fb 58 bc
       -0.01984713 1.6252968e-20 0.0 -0.013243466
0000d0 c2 3a 5f bc de 42 4a bc 5b 3a f0 3b a4 e2 e0 3b
       -0.013624849 -0.012345044 0.0073311753 0.006862955
0000e0 67 aa 09 3b 08 c9 fb ba fa 01 ec bc f5 e0 e2 bb
       0.0021006109 -0.0019209692 -0.028809536 -0.0069237896
0000f0 d0 74 8f ba dc c0 0b ba ff 4f dd b9 ec 3d 97 b6
       -0.0010944847 -0.00053311675 -0.00042212007 -4.5073593e-06
000100 31 88 63 bc b8 fc 02 bd 4b d2 e3 bc dc 93 89 bb
       -0.013887451 -0.031979293 -0.027810236 -0.0041985344
000110 a2 6b 03 bd fe 45 19 bc 98 9d ba bc 00 00 00 00
       -0.03208507 -0.009355066 -0.022780225 0.0
000120 89 9a 5e bd d5 9a ab bb b5 2e 23 ad fc 17 62 3c
       -0.054346595 -0.0052369633 -9.275848e-12 0.013799664
000130 2d 41 8f 91 60 ba 79 bd b2 9e f2 bb 12 2b ac bc
       -2.260159e-28 -0.060968757 -0.007404172 -0.021016631
000140 57 31 83 bb 32 18 a9 87 ba 0b 44 3c fa 1c 39 bd
       -0.0040036845 -2.5442515e-34 0.011965686 -0.04519365
000150 a3 b3 42 13 37 9c 60 34 00 26 27 2c fa cf 0b 3b
       2.457481e-27 2.0918456e-07 2.3753222e-12 0.002133368
000160 35 9e 43 24 25 83 1c b9 00 00 00 00 7e ce e2 bc
       4.241789e-17 -0.00014926174 0.0 -0.027686354
000170 32 08 d9 33 19 95 3e ac b2 1d f8 bc 99 a6 cc bc
       1.0106341e-07 -2.708339e-12 -0.030287597 -0.024981784
000180 53 53 3d 3c 75 41 59 bc 34 38 15 a9 28 93 09 b9
       0.011555511 -0.013260235 -3.3133395e-14 -0.00013120158
000190 67 38 2c 91 0d f3 84 bc c9 84 19 bd e3 69 60 bc
       -1.3585788e-28 -0.016229177 -0.03748015 -0.01369712
0001a0 d8 d3 8a bc b3 66 a2 bb b6 ab d6 bc be c5 4f bd
       -0.016946718 -0.0049560904 -0.026204925 -0.05072569
0001b0 fb 58 de bc 16 3e 81 bc eb 05 1b 2f 48 f5 c9 04
       -0.027142039 -0.015776675 1.409927e-10 4.7480128e-36
0001c0 a8 c6 84 08 1f 97 26 bc ca b1 04 3c 36 4f bc bb
       7.991165e-34 -0.010167866 0.008099029 -0.0057467474
0001d0 de 75 fd bc b1 ce ca 84 2b e5 58 3c 80 52 23 bb
       -0.030939993 -4.7679788e-36 0.013238232 -0.0024921
0001e0 00 00 00 00 00 00 00 00 57 ac f1 24 29 16 05 bd
       0.0 0.0 1.04809044e-16 -0.032491837
0001f0 7b 7d 3f bc 3d 9b 9f bc 22 8b cd 90 20 f6 6d 3a
       -0.011687632 -0.019483203 -8.107261e-29 0.0009077508

network_body._body_endoder.seq_layers.2.weight f4 [128, 128]
000000 49 66 da 3b 99 9c f8 bc e7 a1 86 3b 88 5d 96 bd
       0.0066650254 -0.03034811 0.0041086557 -0.073420584
000010 d8 1d 86 3d 6e 94 c5 3c 4c 0c a7 bd 32 99 39 3d
       0.06548661 0.024118628 -0.08156642 0.045312114
000020 0e 73 26 3d 8e ec b9 3d 3b 49 cb bd 41 e5 06 3e
       0.04063707 0.09078322 -0.09926077 0.13173391
000030 d7 a3 63 bc 57 95 08 3e 31 75 ca bd 1a f4 81 bd
       -0.013894043 0.13338219 -0.09885634 -0.06345387
000040 2e 83 aa 3c 99 96 02 be 75 4a a3 bd 7f 02 8d 3d
       0.020814504 -0.12752761 -0.07973186 0.06885242
000050 5e 8d bb bd 79 19 b1 3d 89 e5 0e bd d2 a7 ca 3a
       -0.09157823 0.08647437 -0.03488687 0.0015461391
000060 f1 a4 db 3d 3c 3e 0c be 00 25 01 be 31 5e 87 3c
       0.107248195 -0.13695616 -0.1261177 0.016524406
000070 77 24 1c 3d 07 ce 23 be 9c 9a 4d bd b2 3f e2 bd
       0.038120713 -0.15996562 -0.050196275 -0.11047305
000080 63 85 be bd b8 a4 fc 3b e7 1b 5a bd 5e ae d9 3d
       -0.09302785 0.0077100657 -0.053249266 0.10628961
000090 4d 63 0c be 05 98 4e bd 60 7f 97 3d 3e 7a 09 be
       -0.13709755 -0.050437946 0.07397342 -0.13425538
0000a0 eb 68 0d be 56 70 65 3d 0b 5a 95 bd 95 e4 fd 3d
       -0.13809554 0.056015335 -0.07292565 0.12397114
0000b0 b9 30 58 3d 86 f6 6f bd 6a 74 37 3e 36 c3 8c 3c
       0.05278084 -0.058584712 0.17915502 0.017182928
0000c0 e5 ae f3 3d 03 a7 31 3d 76 33 56 be 92 10 2e 3e
       0.11898593 0.043372165 -0.20918068 0.16998509
0000d0 bb 2b 03 be d7 90 5b bd ec 15 cb bd 9c 90 8d bd
       -0.1280965 -0.053604927 -0.09916291 -0.06912348
0000e0 78 54 e5 3c a7 5f 3a bd 81 dd d5 bb ed 45 a7 3d
       0.02799438 -0.045501377 -0.0065266495 0.08167634
0000f0 8c 2a ff bc eb 7b fa 3c 87 2a 06 bd 70 de cf 3b
       -0.031148218 0.030576667 -0.0327554 0.0063436553
000100 c7 c4 cf 3c cc f9 8c bd f2 19 51 3e f9 3a fb 3c
       0.025362385 -0.068835825 0.20420054 0.030667769
000110 f0 0f 3b bc 9e 94 be 3d 91 05 d3 bd e7 43 00 bd
       -0.011417374 0.0930569 -0.10303796 -0.031314757
000120 bc b9 31 bd a7 98 f2 bd 3d d4 d4 3d ae 0f cd 3d
       -0.04339002 -0.118455224 0.10392044 0.10012756
000130 4b 5f 76 3d b3 af 8d bd ee bc 3c 3c 9f dc 3e be
       0.060149472 -0.069182776 0.011519654 -0.18638848
000140 07 13 d5 bd 10 94 ca 3d 4e ed c8 3c 8c 0f f3 3d
       -0.1040402 0.09891522 0.024527218 0.118682
000150 ba 1e b2 3d b6 49 b5 3a 5b 96 25 bd 03 d6 0d be
       0.08697267 0.0013831172 -0.040426593 -0.1385117
000160 74 78 8a bd 1c 8f bc 3c 0e 81 e3 bd 34 6e 87 bd
       -0.06761256 0.023017459 -0.111085996 -0.066128165
000170 24 6a d9 bc 56 c9 90 bd 72 85 8f bd f2 25 b6 bd
       -0.02653987 -0.07069652 -0.070078745 -0.08893956
000180 e4 bf 59 bd b7 03 80 bd c7 55 09 3d 83 65 14 be
       -0.053161517 -0.062507086 0.03352907 -0.14491849
000190 16 c1 98 bc 30 72 53 3d 16 61 3b bc fa c6 9f bd
       -0.018646758 0.05162257 -0.011436721 -0.07801624
0001a0 21 08 f9 3d e3 b9 08 be 43 81 33 bd 19 49 00 3c
       0.121597536 -0.1335216 -0.043824445 0.007829928
0001b0 4c f1 54 3d 6e ef 2f bd c1 ca e1 bc a1 f3 50 be
       0.05198793 -0.042952947 -0.0275625 -0.20405437
0001c0 67 c6 0f 3e bd aa f3 b8 3a 5b c7 3d 28 28 ca bc
       0.14040528 -0.000116189454 0.09734197 -0.024677351
0001d0 dc ac c9 3d 07 23 0c 3e d4 a8 5d 3e 48 bf 49 bd
       0.098474234 0.13685237 0.21646434 -0.049254686
0001e0 90 19 bf bd ab 14 c0 3d 0a c5 1a 3e 2a 79 1f be
       -0.093310475 0.09378942 0.15114227 -0.15573564
0001f0 90 ad aa 3d c0 c8 c3 bd 0d 58 b0 3d 6b 98 5d bd
       0.08333886 -0.095597744 0.08610544 -0.054100435
000200 0f b8 0b 3d b1 b9 61 3d 14 f7 87 bb 39 e2 a1 bc
       0.03411108 0.05510873 -0.004149327 -0.019761192
000210 4f c7 d3 bd 86 01 96 3d 9b dd 82 bd eb ac f3 3c
       -0.103407495 0.07324509 -0.06389924 0.02974554
000220 ac d2 a2 bc cb 62 8f 3c 8e 13 3f 3d 18 f5 96 3d
       -0.019875847 0.017503163 0.04664951 0.07370967
000230 74 c6 50 bd b2 36 0b 3d de 6f 52 3d c6 96 04 3c
       -0.05097051 0.03398771 0.051376216 0.008092588
000240 f0 0e 15 3d 5d a0 f0 3c a6 ce 53 bc 0f d8 a4 bc
       0.0363912 0.029373342 -0.012927687 -0.020122556
000250 c3 5d 02 be cb 50 f4 bd c6 73 54 3d 16 70 a5 3d
       -0.1273108 -0.119294725 0.051868223 0.08078019
000260 e9 94 24 3e 58 ad 34 3c 3f fb 16 bd 35 7f da 3b
       0.1607243 0.0110276565 -0.0368607 0.0066679963
000270 9f 7d e8 3c 2a b6 a4 3c 33 24 0b 3d 99 92 91 bd
       0.028380213 0.020106394 0.03397007 -0.071080394
000280 68 29 73 bc 52 13 1a bd 5d 28 95 3e 99 e3 6a bc
       -0.014841415 -0.03761608 0.29132357 -0.01433649
000290 bd 81 26 bd 62 5c 16 3d 18 a6 5d bd e5 29 37 3d
       -0.04065107 0.036709197 -0.054113477 0.044717688
0002a0 c8 4e 84 3d cb cd 04 3b f1 67 bc bd 02 fc 04 3e
       0.06460339 0.0020264264 -0.09199513 0.12986758
0002b0 18 cf 0c bd 74 10 7a 3c ac 55 1c 3e 5a f9 68 3d
       -0.034377187 0.015262712 0.15267056 0.056878425
0002c0 13 68 02 3b ac df a5 3d ae 58 5e 3d db 24 5f be
       0.001989846 0.08099303 0.05428379 -0.21791403
0002d0 11 a1 10 be dc f9 13 bd eb 7f af bd 9c c1 9e bd
       -0.14123942 -0.036126956 -0.0856932 -0.07751772
0002e0 13 ff 29 bd 22 bf ba bb 43 06 24 be b4 c0 17 3d
       -0.041503023 -0.0056990543 -0.16018014 0.03704901
0002f0 5a eb 4a 3e fb 2e bc bc 55 ea 00 3d 56 00 dd bc
       0.19816342 -0.02297162 0.031473476 -0.0269777
000300 eb 50 17 3d 33 92 93 3c 8a fb b8 bd f5 80 dd 3c
       0.036942404 0.01801405 -0.09032352 0.02703903
000310 a7 23 07 3e 04 a5 97 bd c7 32 fc bd 80 0a 80 3c
       0.13197194 -0.07404521 -0.123143725 0.015630007
000320 e1 28 5e 3d 45 d0 15 3e 22 ed d7 bd 6f 16 a4 bd
       0.054238204 0.1463023 -0.10543276 -0.08012091
000330 df d0 1e 3b 5f 88 f8 3c e8 34 06 be 2a 03 25 be
       0.0024233384 0.030338464 -0.1310612 -0.16114488
000340 27 29 d9 bd ed d3 ea bd a9 9e e5 3c 9f 4d 0a 3e
       -0.10603552 -0.11466203 0.028029757 0.13506173
000350 99 db ee bd 07 b9 20 bd 7e 8d 0f bd 3e 7c 02 3e
       -0.11662979 -0.039238956 -0.035047047 0.12742707
000360 c6 c9 af 3d 48 07 74 3c 12 f7 a0 bd d7 89 94 ba
       0.08583407 0.014894314 -0.07859625 -0.0011332583
000370 07 4f 4f bd 0f 75 9b 3d 78 21 02 3e a9 a0 3f bd
       -0.050612476 0.075906865 0.1270808 -0.046784077
000380 35 c1 55 3d b4 21 33 3b 9d 62 30 3b 0c b4 75 bd
       0.05218621 0.002733332 0.0026914247 -0.05998616
000390 4e 8c 81 bd 54 fe 23 bd 2f 99 20 3e 1f 4c 0e be
       -0.06325589 -0.040037468 0.15683435 -0.13896225
0003a0 04 65 ea ba 94 6c 9b 3d 04 d9 dd bb 27 40 09 be
       -0.0017882888 0.07589069 -0.006770255 -0.13403378
0003b0 ae c0 ae 3d 79 3e 19 3e 65 eb ee 3d a6 f5 7d bc
       0.085328445 0.14965238 0.11665992 -0.015500462
0003c0 97 f2 3f 3d 4b d3 26 3d 7c fb a6 bd 3c cb 28 3c
       0.04686221 0.04072885 -0.081534356 0.010302361
0003d0 c3 26 91 bd 00 4a b1 bd 51 53 5d 3c f8 a1 39 be
       -0.07087471 -0.086566925 0.013508634 -0.18128192
0003e0 0d e2 bf bd 4d 37 03 3e a7 f4 ab bc 98 2c c1 bc
       -0.09369288 0.12814064 -0.020990683 -0.023580834
0003f0 fb d0 f0 bd 57 8d 2f 3d 82 1f d3 3c 21 7d d5 3c
       -0.1175861 0.0428594 0.02577186 0.026060643

network_body._body_endoder.seq_layers.2.bias f4 [128]
000000 5c a9 78 8b d8 18 62 b7 70 07 ba bc 1c dc 9a bc
       -4.7890474e-32 -1.3476434e-05 -0.022708625 -0.018903784
000010 83 5f a6 bc f4 cd 25 bc 50 11 71 bc 00 00 00 00
       -0.020309215 -0.010119904 -0.0147136 0.0
000020 79 39 de bb 60 15 9c b9 ff 9d f8 2a e7 ad be b6
       -0.0067817536 -0.00029770564 4.4163281e-13 -5.682686e-06
000030 8e 5c 0d a5 bb c5 d5 bb 7d 8a 94 35 3b 64 8d 25
       -1.2261159e-16 -0.0065238154 1.1067165e-06 2.452752e-16
000040 3c 84 32 bc a0 bd 7a bc b4 fd 1f bc 68 e3 44 bc
       -0.010895785 -0.015303999 -0.009765077 -0.0120171085
000050 a4 77 3f bc 66 a7 86 bc 17 0d a6 bc 48 bc e9 bb
       -0.011686239 -0.016437244 -0.020269914 -0.0071330406
000060 26 4e da 2f 5e 87 40 ba 53 03 c9 0f 10 07 aa ba
       3.9709497e-10 -0.000734439 1.982141e-29 -0.0012972075
000070 49 9f 85 ba 9f d0 21 bc f0 a3 5e bc 0b 84 b2 34
       -0.0010194565 -0.009876399 -0.01358889 3.3251158e-07
000080 95 b3 1a bc b5 49 22 06 35 53 92 24 32 6d aa a6
       -0.00944223 3.0522965e-35 6.3458365e-17 -1.1825717e-15
000090 2b 4f e1 bc 12 fd 99 bc 7c 1d dd a5 2f 27 ac bc
       -0.02750357 -0.018797431 -3.8357368e-16 -0.021014778
0000a0 44 87 e7 bc 65 cb 77 2d ce cf 7e ae 7b 78 a8 bc
       -0.028262742 1.4085487e-11 -5.793748e-11 -0.020565262
0000b0 62 6b a4 bc 30 e7 0b ba ab 93 3b bc 6e 6e ae bb
       -0.020070735 -0.0005336879 -0.011448781 -0.005323223
0000c0 11 e7 12 b7 29 7f 73 06 b4 4b 52 bc c7 96 97 2b
       -8.7560775e-06 4.5796643e-35 -0.012835432 1.0771044e-12
0000d0 76 e7 27 bc 98 9f 78 bc 3a da 2d ba 2e 4e 35 bc
       -0.010248056 -0.015174769 -0.00066319446 -0.011066003
0000e0 51 33 60 bc c3 e2 d3 ba ea 09 55 b8 38 96 e7 bc
       -0.01368411 -0.0016165603 -5.079239e-05 -0.028269872
0000f0 d7 38 42 b3 40 8e 71 bc 53 f5 95 bc 71 66 83 ba
       -4.522084e-08 -0.014743388 -0.018305456 -0.0010025037
000100 a1 01 cc bb a9 f7 f0 bb 78 a8 a5 bc 7b 56 1a bc
       -0.00622578 -0.007353742 -0.020221934 -0.009420033
000110 8f bf aa 28 47 0d 86 bc 50 3f a1 bc 8d 10 40 bc
       1.8956867e-14 -0.016363753 -0.01968351 -0.011722696
000120 13 15 62 21 e3 78 04 9c ca 95 a0 bc 9d 52 2c b4
       7.659967e-19 -4.383138e-22 -0.019602675 -1.6048803e-07
000130 d7 28 8f 23 f2 b4 73 bc 60 a1 e6 bc 93 c0 f0 bb
       1.5521387e-17 -0.014874684 -0.028153121 -0.0073471754
000140 87 a2 33 ba 95 2c dd bb dd 6a b6 bc 6b d4 38 bc
       -0.00068525266 -0.0067496994 -0.022267753 -0.011281113
000150 e2 46 66 b3 ee e9 48 bc bc 74 45 bc 6b a1 77 25
       -5.3615516e-08 -0.012262804 -0.012051757 2.1478525e-16
000160 07 a8 a6 bc 65 8c 8f b9 6d 32 5a bc ae a2 55 b9
       -0.020343794 -0.00027379688 -0.0133176865 -0.00020373866
000170 b6 68 9a bc 19 b5 2b bc 6c 77 5b bc 45 cd 07 a6
       -0.018848758 -0.010480189 -0.013395172 -4.7115726e-16
000180 3b cb dd aa 35 29 02 9e 4c c6 f5 bb ad 45 7e bc
       -3.9398506e-13 -6.890664e-21 -0.0075004455 -0.015519542
000190 ae d0 27 bc 6c 9a 57 22 82 0a ec bb e2 c4 9d bc
       -0.010242624 2.9219684e-18 -0.007203401 -0.01925892
0001a0 e3 97 c6 bc a9 fd 08 8d df 8c 23 94 86 ae 4b 2d
       -0.024242347 -4.221357e-31 -8.257179e-27 1.1577966e-11
0001b0 22 03 f4 bb 37 1c 07 2e d0 3f b2 b0 95 96 2e bc
       -0.0074466625 3.0720506e-11 -1.2969341e-09 -0.010656019
0001c0 7b 1d e4 bb 57 f5 e3 bc 83 d3 f8 bb 51 b7 11 20
       -0.006961522 -0.027826948 -0.0075935735 1.2342632e-19
0001d0 a5 30 91 bc 42 bf 35 bc 7e e4 82 bc 72 4e 10 23
       -0.01772339 -0.011092963 -0.015978094 7.822867e-18
0001e0 a5 d6 41 bc ca 2a ae bc 03 5e b1 28 fb 24 d9 bb
       -0.01183096 -0.021260638 1.9691719e-14 -0.006626723
0001f0 ba e3 64 bb 9a 51 12 2c e7 20 55 ad 3c 5a bd a1
       -0.0034925775 2.0793146e-12 -1.2114954e-11 -1.2831023e-18

action_model._discrete_distribution.branches.0.weight f4 [3, 128]
000000 cc 20 cb 3b ea cb 2e bb d0 e5 a1 3c c6 01 28 bc
       0.006198978 -0.0026671835 0.019762903 -0.010254329
000010 30 ae e1 3a ac 90 29 bc 6a c9 1a 3b 87 3b 53 3b
       0.001721805 -0.010349434 0.0023618587 0.0032231526
000020 74 a0 06 bc f4 81 2f bb 97 08 8c 3a 53 c0 df 3b
       -0.008216966 -0.002678034 0.0010683712 0.0068283468
000030 5f 7d a7 3b 51 29 9c ba 80 0c 3c 3c fa 01 ab 3a
       0.005111381 -0.0011914169 0.01147759 0.0013046854
000040 98 e7 cb ba 82 3a 9f bb cf d7 b7 3a 1e 52 e9 3b
       -0.0015556691 -0.0048592696 0.0014026108 0.007120385
000050 a0 ed f2 3b ef 22 b0 bc ff fa e9 38 ef d6 06 bc
       0.007413581 -0.021501033 0.000111570575 -0.008229955
000060 27 3b db 3b 6a 40 c8 bb 9f 86 6a bc a6 b8 a6 bb
       0.006690401 -0.0061111944 -0.014314323 -0.00508793
000070 02 c2 03 bc a5 bb a7 3b dc 87 e0 3a 14 7c c5 3a
       -0.008041861 0.0051188045 0.0017130333 0.0015066885
000080 3b 18 09 3c a5 5b 68 ba 01 f6 94 3c 33 db 26 3c
       0.008367593 -0.0008863754 0.01818371 0.010184097
000090 22 8a 07 bb a0 ee 95 bb 00 bc 55 bc 18 a4 86 3b
       -0.0020681699 -0.0045755655 -0.013045311 0.004108917
0000a0 8b f2 9d 3b 01 3b 8c bc ed f2 59 bc b2 ec 21 3c
       0.004820173 -0.017117979 -0.013302547 0.009883093
0000b0 09 80 a0 bc 8e a7 5f 3a a4 7b 87 3c 05 33 36 bc
       -0.019592302 0.00085317425 0.016538449 -0.011120562
0000c0 d3 26 21 bc a3 a9 48 bb 86 65 9b 3b 92 3d 90 3c
       -0.009835917 -0.003061869 0.004742327 0.017607484
0000d0 dc 40 33 bb 92 ea 1d 3c 24 46 ba 3b 98 40 0e 3c
       -0.0027351892 0.009638445 0.005684631 0.008682393
0000e0 6f 2a e6 bb 85 1b 0a 3c f8 cc be bb 41 60 ad bb
       -0.0070241014 0.008429413 -0.005822774 -0.0052910154
0000f0 e5 6e 2b 3b 66 1f a6 b9 62 a2 ae ba 9b fd 74 bb
       0.0026158628 -0.0003168538 -0.001332354 -0.0037382606
000100 24 d1 64 3a b4 6b 1f bc 6a 34 e3 bc db 2f 02 39
       0.0008728674 -0.009730268 -0.027734954 0.00012415594
000110 aa 05 5d 3c 62 f6 9a bc c5 3e 55 3c b2 30 2b bb
       0.01349012 -0.018916313 0.013015454 -0.0026121554
000120 ae f6 41 ba 2f 91 5c bb 0a 2b cd bc 18 3c 6b ba
       -0.0007399124 -0.0033655872 -0.025044937 -0.0008973493
000130 1c 49 14 bb f3 a8 9d bc b5 f8 9c bb 24 14 69 ba
       -0.0022626584 -0.0192456 -0.0047903904 -0.0008891246
000140 73 c0 31 bc 76 1f 48 3c b7 65 30 3c 07 be da bb
       -0.010849106 0.012214532 0.010766438 -0.006675485
000150 6c 17 9a 3c f1 20 d9 3b b6 ac 99 3a d5 32 c7 bb
       0.018809997 0.0066262414 0.0011724446 -0.0060790577
000160 03 da ef 3b 53 0d 34 3c 7c 48 ae bb 63 c4 0d bc
       0.00731969 0.010989505 -0.0053186994 -0.008652779
000170 82 97 b9 3c c3 ca 4d bb e1 ce 5e bb 45 e3 d6 3a
       0.022655252 -0.0031401373 -0.003399782 0.0016394636
000180 af a8 50 ba 9e aa 9a 3b 92 e4 27 bb 3c 97 5e bc
       -0.0007959706 0.004720046 -0.0025618416 -0.013585862
000190 9f 16 5a ba 85 f9 84 3b e0 96 c0 b9 ad 1b db 3b
       -0.0008319411 0.0040580654 -0.00036733504 0.006686649
0001a0 97 25 1e bc 77 43 92 bb e3 7c c6 3b ab e4 1f 3b
       -0.009652517 -0.004463609 0.006057368 0.0024397771
0001b0 1b 3d 17 3b 6e 75 3e 3b 3b ea cd bb ba fc c9 bb
       0.0023077193 0.0029061693 -0.006284026 -0.0061641606
0001c0 ea 63 6b bc 5e 61 a9 3b 7d be 10 3c 70 b0 23 3c
       -0.014367083 0.005169078 0.008834478 0.009990796
0001d0 47 04 97 bb 75 78 bf bb cc c0 68 3c 0a 87 31 3c
       -0.004608664 -0.005843217 0.014206123 0.0108354185
0001e0 9e dc 35 b9 d8 60 38 3a 23 4d 6a bc a8 53 41 3c
       -0.00017343691 0.0007033474 -0.014300617 0.01179973
0001f0 7c 3e 33 bc 4f a1 d1 bb cd 3e 90 ba 5d 1e e3 bb
       -0.01094019 -0.0063974033 -0.0011005044 -0.00693111
000200 76 59 c2 3b 91 da 04 3c a0 e6 05 3a f5 47 14 bc
       0.0059310747 0.008108751 0.0005107913 -0.009050359
000210 ff 99 97 3c 00 73 1a 3d 03 2d 88 3c 7b 05 0b bc
       0.018506048 0.03770733 0.016623026 -0.008485193
000220 f9 fe 79 3a 31 a3 9e ba d6 12 24 bc 21 5a 21 bc
       0.000953659 -0.0012103078 -0.010014256 -0.009848149
000230 da 29 de b9 e6 b4 21 bc 46 97 58 ba 8f 8f 32 3c
       -0.00042374321 -0.00986979 -0.00082622876 0.010898485
000240 92 60 33 bc 2c 53 18 bd da d9 ef bc 2d 7f 06 bc
       -0.010948317 -0.037188694 -0.029278684 -0.008209032
000250 db 5b 88 3c 49 8c d3 bc ae 24 b7 bb 5b 41 c5 bb
       0.016645363 -0.02582373 -0.0055890894 -0.006019754
000260 64 47 2c 3c 3a e2 f2 ba d3 be 47 3b 53 ca 6e 3c
       0.010515068 -0.0018530556 0.003047873 0.014574605
000270 21 25 4d bc fa 98 77 3a bb e5 fb 3a d3 22 82 3b
       -0.012521059 0.00094450975 0.0019218245 0.0039714365
000280 a3 d5 d2 3c 63 85 98 bb 45 91 0c 3c 9f b6 f7 bb
       0.025736636 -0.004654573 0.008579557 -0.007559612
000290 61 74 5b 3b 47 16 78 b8 dc 34 22 ba e0 c8 f8 3a
       0.0033486115 -5.9148555e-05 -0.0006187686 0.0018980764
0002a0 f0 f2 f0 b9 a5 13 12 bc 0f b3 cc bb 38 7e c7 3b
       -0.0004595737 -0.008915816 -0.0062469314 0.0060880445
0002b0 c1 28 af bc 82 39 bc 3a 67 d4 03 3c c3 0e 27 3b
       -0.021381738 0.00143604 0.008046246 0.0025490976
0002c0 8d 40 ec 3b 10 b9 07 3b 41 28 7b bb 45 26 9e bb
       0.0072098435 0.002070967 -0.0038323554 -0.0048263394
0002d0 e5 f4 4a 3c 52 87 a2 38 17 f5 13 3a c1 ae 9f 3c
       0.012387489 7.749967e-05 0.0005644126 0.019492509
0002e0 8f 58 11 bc 90 0f 99 ba 9c 71 49 ba 22 22 84 bc
       -0.008871212 -0.0011677612 -0.00076844706 -0.016129557
0002f0 c2 c2 b9 bb 3b 81 c3 bb a5 6a 81 3c ad 1b 33 3c
       -0.005668969 -0.005966333 0.015797922 0.010931891
000300 77 58 84 3c b9 68 c4 3c ab 8b 53 3a b1 78 15 bc
       0.016155465 0.023975717 0.00080698234 -0.009123013
000310 c9 2e b8 bb e1 92 30 bc b8 e2 11 3c 5a fd ae 3b
       -0.0056208116 -0.010777206 0.008904152 0.0053402605
000320 cf 33 37 3c 93 36 aa bc 16 51 0a 3c c7 8b 28 3c
       0.011181786 -0.020777976 0.008442184 0.010287232
000330 c9 ad 39 3c eb 63 40 3c 74 87 f7 bb ff 30 c0 39
       0.0113329375 0.011742572 -0.007553989 0.000366576
000340 3a 4c 17 3c 8a 76 df 3b 44 bd 18 3c d9 40 ae bc
       0.009234482 0.006819551 0.009322468 -0.021271156
000350 78 2b a0 ba 64 d1 47 bc 91 eb 06 3d cb 60 29 3b
       -0.0012219986 -0.012195919 0.032939497 0.0025845047
000360 ab 2c 1b 3c 49 34 13 bc d9 a0 6f 3c dd 81 b3 ba
       0.009471099 -0.008984634 0.014625751 -0.0013695318
000370 6b 5d 61 3c 77 72 39 bc 8f 6f 09 3c d7 81 13 3c
       0.013755183 -0.011318794 0.008388414 0.009003124
000380 0a 31 45 3a de c3 32 b9 d4 c3 b8 bc a5 a9 86 bc
       0.0007522261 -0.00017048369 -0.022554316 -0.016438315
000390 5f ad e8 3c 3c b8 09 3c 86 37 ae 3c 95 3d 6d ba
       0.028402982 0.008405741 0.02126671 -0.0009050009
0003a0 d0 94 1d bb 02 03 ce bc b6 4f 92 3c c2 95 13 bc
       -0.0024044998 -0.025147919 0.017860275 -0.009007873
0003b0 6a 1c a6 bb 11 20 9b 3b 60 aa 16 bb df 23 39 3c
       -0.005069305 0.004734047 -0.0022989735 0.011300056
0003c0 9d f6 d7 bc 6f 34 ac 3a 95 b8 a4 bc 73 80 b9 bb
       -0.026362712 0.0013138185 -0.020107547 -0.0056610643
0003d0 71 aa 36 b9 a2 ec 2c ba d7 4b b0 3c 45 ba 7e 3b
       -0.00017420367 -0.00065965403 0.021520538 0.003886835
0003e0 50 4a ee 3c 79 20 86 3b 61 fa 9d 3b 80 51 18 bc
       0.02908817 0.0040932265 0.0048211073 -0.009296775
0003f0 96 0b fc 3b cd 2d 24 bc e4 9f 07 bc be df 37 3c
       0.007691811 -0.010020685 -0.008277867 0.011222778

action_model._discrete_distribution.branches.0.bias f4 [3]
000000 20 f0 cc 3d 5f 04 27 3d 29 41 03 be
       0.10006738 0.040775653 -0.12817825

action_model._discrete_distribution.branches.1.weight f4 [2, 128]
000000 aa 06 83 3b 04 08 77 3b 92 26 1e bb d4 d6 9b 3b
       0.003998597 0.0037693987 -0.0024131876 0.004755834
000010 7c 47 cc bc a3 cf 98 bc 24 f4 54 39 e2 83 db 3b
       -0.02493643 -0.018653696 0.00020308845 0.0066990713
000020 56 5c 9d 3a da ed 92 3b ad a6 61 bc 6b 7a ac bb
       0.0012005668 0.0044839205 -0.013772649 -0.005263617
000030 65 47 15 3c af 0d db bb d2 a4 10 bc 87 a8 b7 bb
       0.00911126 -0.006684981 -0.008828359 -0.005604807
000040 7f 3f 3c bb 1b 49 c1 3b 38 fa b3 bb 8c df 36 bc
       -0.002872437 0.0058986074 -0.005492475 -0.011161696
000050 64 28 b1 bb e8 64 5b 3c 47 86 a3 3b ff a8 f8 bb
       -0.0054064263 0.013390757 0.0049903723 -0.0075885053
000060 b3 36 19 bb 70 f6 33 bc eb e9 73 bb ad 96 97 3c
       -0.002337855 -0.010984048 -0.0037218283 0.018504465
000070 01 c0 0d bc 6f 4d 23 bc 03 fc 3b bc e1 01 1a 3c
       -0.008651734 -0.009967192 -0.0114736585 0.009399862
000080 61 eb 0b 3c 69 7f a1 3b ad 0c 9e 3b 78 93 3c 3c
       0.008540005 0.0049285186 0.0048232884 0.011509769
000090 42 52 e6 bb fb fe b4 bb bd 70 6f 3c 5d 6f d1 3a
       -0.007028849 -0.00552356 0.014614281 0.0015978623
0000a0 c7 46 11 3c 93 69 8d bb c9 52 78 bb 75 a5 a3 ba
       0.008866972 -0.004315564 -0.003789114 -0.0012485223
0000b0 45 98 6c bb 93 6c 85 bc 26 2d b0 3b d4 3f 7c bb
       -0.0036101502 -0.016287124 0.005376476 -0.0038490193
0000c0 23 11 66 3c a3 f1 23 bc ec b6 38 3d d3 ec 63 bc
       0.014042172 -0.010006341 0.045096323 -0.013911444
0000d0 a4 7b cf 3c 0f 92 0a bc ad 14 d3 3b eb 2c 29 3a
       0.025327511 -0.008457675 0.0064416737 0.00064535317
0000e0 6d d2 49 bb d0 5f 9a 3b 06 fd 34 3b f1 1e 5a bc
       -0.003079559 0.004711129 0.0027616634 -0.013313041
0000f0 5c 4a cc bb b9 06 5f ba 4b 59 4c bc 94 f9 b9 3b
       -0.0062344503 -0.00085077767 -0.012472461 0.005675504
000100 93 46 9e bc 24 c7 62 3c 1c 84 1d bc 49 d1 02 b8
       -0.019320762 0.013841424 -0.009614017 -3.1189327e-05
000110 2b 05 60 bb 64 00 90 bc c0 05 ac 3b 7f 3f f9 3b
       -0.0034182768 -0.017578311 0.005249709 0.0076064463
000120 f5 ec cd 3a 60 f4 7f ba 9f 57 00 bc cf 9c 7b bb
       0.0015710877 -0.0009763893 -0.0078333905 -0.0038393026
000130 a9 76 41 3a e2 c2 90 3a a6 e2 0d bc 11 fb 93 3c
       0.00073800475 0.0011044408 -0.008659994 0.018064054
000140 c5 91 10 bc cd 1a 0a 3c de 3c b8 3b f1 ee 91 bb
       -0.008823817 0.008429241 0.0056224903 -0.004453533
000150 27 6b 02 bc 9c 61 7e 3c a7 40 97 3b da 58 76 3c
       -0.007960117 0.015526202 0.0046158615 0.015035832
000160 b3 a4 06 bc 82 5e 5e bc e3 0c 10 3a 4d 30 8b bb
       -0.008217978 -0.013572337 0.00054950843 -0.0042477013
000170 cc 35 a3 3c 45 f9 84 3c 3b c7 81 3b 62 70 8b bb
       0.019923113 0.016232142 0.0039605177 -0.0042553404
000180 0a ca 8c bc df 83 8e 3b e2 57 ae bb fd 9f 68 bb
       -0.017186183 0.0043492164 -0.005320535 -0.003549575
000190 55 9b b6 bb d5 f9 a4 3b b5 a8 a9 bb 43 ac b0 3b
       -0.0055727162 0.005034665 -0.005177582 0.005391629
0001a0 bf fc 84 3b 2e b1 39 bc 0a 53 8a bc ca 1c 53 3c
       0.00405845 -0.011333747 -0.0168853 0.012885282
0001b0 e2 0d 7b bb 97 f5 d9 3a bd d6 a5 3a df 83 38 3b
       -0.0038307835 0.0016628978 0.0012652498 0.0028154773
0001c0 d5 66 15 bc 0a 7e aa bb d3 8f 31 bc 00 3d f0 ba
       -0.009118755 -0.0052030133 -0.010837513 -0.0018328726
0001d0 92 6b 53 3c 31 b1 a1 39 9f d7 8f 3b 32 53 15 bc
       0.012904065 0.0003084033 0.0043897177 -0.009114074
0001e0 06 ef 39 3c ab e3 88 3b 20 5b e6 bb 6e cb a9 3c
       0.011348492 0.0041775308 -0.007029906 0.020726886
0001f0 7f 05 9f ba 3f 79 29 bc 52 47 13 bc e0 99 ec bb
       -0.0012132375 -0.010343849 -0.008989172 -0.0072204918
000200 20 91 24 bb c4 ff 92 38 bc f2 5e ba e6 1b 83 3b
       -0.0025110915 7.0094626e-05 -0.0008504798 0.0040011285
000210 40 b5 b1 3c a1 78 a8 ba aa c8 89 3b cb 1b 6e bb
       0.021692872 -0.0012853333 0.004204829 -0.0036332484
000220 90 a1 ab 37 38 90 5b bb 0f 9d 92 bb 31 c4 9d 3b
       2.0460022e-05 -0.003350271 -0.0044742892 0.0048146476
000230 80 a4 b8 3b 93 c8 c3 bb f2 4c 00 3c a4 4e 21 bc
       0.0056348443 -0.005974838 0.007830845 -0.00984541
000240 8d f6 88 3b 93 f3 b0 3b a3 26 b3 3c 5d 82 cc bb
       0.004179782 0.00540013 0.02186901 -0.0062411265
000250 ec 7a f3 bb 7a a4 0c bc 78 2e bd bb 92 a3 5c 3b
       -0.007430425 -0.008584136 -0.005773362 0.0033666831
000260 bf 46 9d 3a bd 9b be bb 5f 77 39 bc 80 b2 c6 3c
       0.0011999233 -0.0058169053 -0.011319964 0.024255037
000270 bc 02 bc ba a9 da 20 bc 35 5a 90 3b 38 aa eb 3b
       -0.0014344077 -0.009817758 0.0044052848 0.0071919225
000280 89 96 57 3a 27 e0 77 3a 8d 11 32 3c 46 88 34 bb
       0.00082240306 0.00094557035 0.010868442 -0.0027547046
000290 ef 10 d7 bb ad 89 81 3b 05 a0 c9 3b 7a f8 20 bc
       -0.006563298 0.00395318 0.006153109 -0.009824866
0002a0 e9 0f 47 bb d0 33 88 3a 0a 3e fa b9 e5 92 55 bb
       -0.0030374473 0.0010391418 -0.00047729939 -0.0032588777
0002b0 f4 eb 82 3c f9 c8 9c 3c a8 11 13 3c 2d a6 d4 bb
       0.015981652 0.0191388 0.008976378 -0.0064895363
0002c0 d4 b4 0f 39 a3 98 e3 3a c0 ee 85 bc fb fb 1f 3b
       0.00013704906 0.0017364215 -0.016349196 0.0024411667
0002d0 66 36 e5 ba 10 eb bf 3b c1 41 f1 bb f7 93 bf bc
       -0.0017487525 0.005856879 -0.007362575 -0.023385985
0002e0 6f 78 95 3a 02 b2 02 3b af 23 28 3c c2 fd 50 bc
       0.001140369 0.0019942527 0.010262414 -0.012755813
0002f0 85 30 37 3a 4e ae 52 bb 98 87 f7 3a 7b 7c ac bc
       0.0006988126 -0.003214735 0.0018885015 -0.02105545
000300 c8 98 53 3b 3a 96 0e bc 81 d0 32 bc 7f 3a 95 3b
       0.003228711 -0.008702809 -0.010913969 0.0045540924
000310 67 3f b2 3b 6a ec 7f 3b 48 8b 18 3c 46 16 70 bb
       0.005439687 0.0039050826 0.009310551 -0.003663437
000320 41 e7 02 3c 57 e7 8f bb b8 19 67 bb db 76 9a 3b
       0.007989706 -0.0043915915 -0.0035263132 0.0047138757
000330 2f f0 f2 3b d0 77 18 3c 7a d0 40 3c 4b 9d e5 bc
       0.007413886 0.009305909 0.011768455 -0.028029105
000340 9a 70 a7 3c be 2a ae 3c 22 36 b5 3b 3e e7 14 bc
       0.020439435 0.021260615 0.005530135 -0.009088336
000350 08 e4 36 bc 7a da bc bb e7 65 86 3a e9 05 be 3a
       -0.011162765 -0.005763349 0.0010253758 0.0014497611
000360 dd b9 55 3c 7d a7 c2 3a 25 9a 7e 3c 2f 70 9b 3b
       0.013044802 0.0014850941 0.015539681 0.004743598
000370 04 75 62 3a 8b ff 2e 3c 99 03 bf bb 55 77 c8 bb
       0.00086386525 0.010681043 -0.0058292863 -0.006117741
000380 8c 53 17 bb e0 5a 17 bc fe 14 47 bc 46 99 09 3c
       -0.002309057 -0.009237975 -0.012151001 0.00839836
000390 63 64 cd ba 92 b0 b5 3b 9c da 6f 3c 03 76 76 bb
       -0.0015670176 0.0055447305 0.014639523 -0.0037606962
0003a0 cb 27 45 3c fa c6 3c 3b 64 b7 42 bc 63 5c 99 3b
       0.012033413 0.0028805123 -0.011884544 0.004680203
0003b0 07 7d 5f ba 12 d5 48 3c 5d 34 71 3b ff d0 10 bc
       -0.00085254054 0.012257831 0.0036804893 -0.008838891
0003c0 4f 96 4f 3c 8e 1d 5a 39 34 0e 0d bc 5a 5c 96 bb
       0.012670114 0.0002080111 -0.008609343 -0.004588646
0003d0 77 fc 16 bc a3 bc ae bc 68 3a 5b bb c8 83 69 3c
       -0.009215466 -0.021330183 -0.003345156 0.0142526105
0003e0 da 13 76 3a 75 90 cd 3a d0 29 62 3b 28 fe f1 3b
       0.00093871134 0.001568331 0.0034509785 0.007385034
0003f0 74 06 1c bb 17 0e df bc 5a db 05 3b 47 94 97 3b
       -0.0023807557 -0.027228398 0.0020424933 0.0046258303

action_model._discrete_distribution.branches.1.bias f4 [2]
000000 a4 e6 c0 3d a4 e6 c0 bd
       0.09418991 -0.09418991

action_model._discrete_distribution.branches.2.weight f4 [3, 128]
000000 ab 7d a8 3b 30 de 28 bb 13 65 3f 3c d9 e4 88 3c
       0.005141934 -0.00257672 0.011681813 0.016710686
000010 dd 16 97 3c e3 a0 34 bc a0 90 7b bb 02 33 16 bb
       0.01844352 -0.0110246865 -0.0038385764 -0.0022918587
000020 94 45 be ba 0b 77 d4 3b ed 36 09 bc a9 d8 0a 3b
       -0.0014516586 0.0064839176 -0.008374912 0.0021186268
000030 d0 be 8d 3c 4f ac f4 3a 62 67 d4 3b 78 d9 a0 bb
       0.0173029 0.0018667075 0.0064820508 -0.004908737
000040 8b 9c 04 3c 5f 2a a7 3b 50 49 55 3c 8e ce 4e 3b
       0.008093963 0.0051014866 0.013017967 0.0031556222
000050 f8 69 13 bc 5a 60 6c bc 47 8d f3 bb 97 0c 91 ba
       -0.008997433 -0.014427269 -0.007432613 -0.0011066374
000060 89 f2 0a bc 63 45 b7 bb e8 df d3 bb 86 8d f4 3b
       -0.008480676 -0.0055929883 -0.0064659007 0.00746316
000070 cd 84 93 bb fd 53 9f bc 5e 85 4d 3b 5e bb 2f bc
       -0.004501915 -0.019449228 0.003136001 -0.010725824
000080 b4 79 a5 bb b8 18 6b 3c e7 57 01 bc 0f 4c 37 bc
       -0.0050499085 0.014349155 -0.007894493 -0.011187567
000090 85 02 2c 3c 01 c5 7a bc 5b a4 b0 3b 4a d4 24 bc
       0.010498648 -0.015305758 0.0053906864 -0.010060379
0000a0 08 9a c3 3b b2 41 0a bc 16 da 0e bb b9 a5 64 3c
       0.0059692897 -0.008438515 -0.002179747 0.013955527
0000b0 b4 7a a0 bb 63 0d 8a 3c d3 be 44 3c cd d3 4e 3b
       -0.00489744 0.016852086 0.012008387 0.0031559349
0000c0 ec 56 d4 ba 79 a5 be 3b f6 2d c5 3b d7 d5 b5 3a
       -0.0016200221 0.0058180657 0.006017442 0.0013872933
0000d0 a1 44 13 ba 38 dc 06 3c ae ce 8b ba 5a f0 bc 3b
       -0.00056178315 0.008231215 -0.0010666454 0.005765957
0000e0 37 cd ad 3b 3c 73 c2 3b a4 5d 3e 3c 55 93 5b 3c
       0.0053040045 0.005934147 0.011619005 0.013401826
0000f0 61 83 a9 ba 32 b6 ad 3b 5c 33 fb bb 90 de 5e bb
       -0.0012932831 0.0053012604 -0.0076660346 -0.003400717
000100 8b 3d 26 3c 45 a4 9c 3b aa 12 dc b8 e1 9b 32 bb
       0.010146509 0.0047803246 -0.00010493894 -0.0027253556
000110 5d 73 6a 3c 1a 1d 9f 3c bd db 60 3a 19 cc e4 bb
       0.014309731 0.019423056 0.00085776654 -0.006982338
000120 3f a2 68 3b 68 bc 28 3c ef d5 83 bb 4b a6 57 3b
       0.0035497097 0.010298826 -0.0040233056 0.0032905515
000130 b5 0e 28 bc 7d 9f fd 3b 70 dc 84 3a b0 ff 62 3b
       -0.010257413 0.0077399598 0.0010136496 0.0034637265
000140 aa 15 32 ba 82 31 a9 ba 88 8b 04 3c b1 24 bf 37
       -0.00067933893 -0.0012908431 0.0080899075 2.278606e-05
000150 43 c0 cb 3b 98 81 37 bc 9d dd 43 3c ea 68 fd bb
       0.0062179877 -0.011200331 0.011954692 -0.007733454
000160 87 35 2f 3b 82 fa da bb c3 68 16 3c 74 27 54 bc
       0.0026734786 -0.006682695 0.009180251 -0.0129488595
000170 0d 96 87 bc 4f 3c 30 3c 5e 67 44 3c a5 3f 0e bb
       -0.016551042 0.010756566 0.011987535 -0.0021705416
000180 f3 d1 e1 bb 6d 0d f9 39 9d 35 29 3c 31 29 cc 39
       -0.006891483 0.00047502984 0.010327724 0.00038940602
000190 30 b9 8d 3c 30 26 a5 3b 24 af 51 39 b7 3e 52 ba
       0.017300218 0.0050399527 0.00019997038 -0.00080202095
0001a0 9b 2d 07 3b 88 99 61 3b f0 e9 ec 3b 0b 07 cb 3c
       0.0020626548 0.0034423787 0.007230036 0.024783632
0001b0 eb 5a 36 3b 36 b7 b2 3b 85 05 78 bb 29 13 1d bc
       0.0027825187 0.0054539694 -0.0037845087 -0.009587088
0001c0 a0 5e cc 3b f5 84 60 3c 5d c3 51 bb 30 d2 dc bb
       0.006236866 0.013703574 -0.0032007315 -0.0067389235
0001d0 86 be 14 3b 95 fd b5 3b e3 da 12 bb 0c c3 85 3c
       0.0022696569 0.005553911 -0.0022408299 0.016328357
0001e0 fe f0 e3 3b 9d 09 9e ba 12 c1 7a bc 53 19 2f 3c
       0.0069562187 -0.0012057308 -0.015304821 0.01068719
0001f0 7f 9a e0 3c 87 31 43 3b 57 37 49 ba 06 6a 40 bb
       0.02741742 0.002978416 -0.0007675788 -0.002936007
000200 5a dc e4 3b f2 54 10 3b 34 a1 4b bc fa 3a f3 b9
       0.0069842758 0.0022023288 -0.012428571 -0.00046392513
000210 a1 e6 78 3c ac f3 0d bc 55 c0 0a 3c cc 82 08 3c
       0.015191705 -0.008664053 0.008468707 0.008331966
000220 6e a9 81 ba 50 a5 21 bb 27 ae 2f ba c3 2f c4 bb
       -0.0009892413 -0.0024665184 -0.0006701671 -0.005987139
000230 93 c2 f6 ba d5 e0 be bc 38 70 8e 3a 03 3e bb 3b
       -0.0018826298 -0.023300568 0.0010867184 0.0057141795
000240 cc 33 0d bc 0f 20 cf 3b 4c 10 af bb df 0e d3 ba
       -0.008618306 0.0063209604 -0.005342519 -0.0016102454
000250 10 68 6b 3a a6 17 e7 bb b1 4d 42 ba 54 16 34 3b
       0.0008980045 -0.0070523797 -0.00074120896 0.002747913
000260 22 f6 33 3c 89 f7 62 bb 15 5f 01 3c cc 4f e9 3b
       0.010983976 -0.0034632406 0.0078962045 0.007120108
000270 be 28 f6 3a ef 18 69 bb c6 19 6a 39 2f 49 0a bc
       0.0018780453 -0.003556784 0.0002232558 -0.0084403
000280 02 ae 89 3c 8b 4e ce ba 0b 57 a6 3b 7b c2 88 b9
       0.016806606 -0.001573996 0.0050762943 -0.0002608484
000290 dc 78 98 3b 0d 5f 5a bb 1e b6 a9 3b 85 bb 2a bb
       0.0046530794 -0.0033320815 0.0051791808 -0.0026051712
0002a0 82 cb 0e 3a b1 74 be 3b 9d 72 18 bb 14 4e 41 3a
       0.0005447195 0.0058122505 -0.0023261674 0.0007374
0002b0 3c fb 02 bc 5f 77 3a 3c 07 a3 a1 3b 45 8b 24 3c
       -0.007994469 0.011380999 0.0049327645 0.01004297
0002c0 62 2a 7b 3a 35 75 ce ba 60 63 e4 bc 82 92 03 bc
       0.00095812057 -0.0015751483 -0.027879417 -0.008030536
0002d0 53 31 59 38 18 55 a7 bb 91 03 1e bc 5a 02 20 3c
       5.178277e-05 -0.0051065795 -0.009644405 0.009766186
0002e0 9d 32 e9 bb e4 b3 b0 bb 8e fc 09 ba 69 d5 fa 39
       -0.0071166293 -0.0053925384 -0.0005263769 0.0004784272
0002f0 ca 17 25 3c db 5c 49 bb f8 99 bb b9 cf 61 1b bc
       0.010076473 -0.0030725512 -0.00035782135 -0.009483769
000300 38 dd a9 bb 3b 57 4a ba 85 1c f9 3a dc 39 9b 3b
       -0.005183842 -0.0007718687 0.0019005692 0.004737122
000310 d1 56 2e bb 6c 01 97 bc f0 f7 c9 3b e7 f6 49 3a
       -0.002660204 -0.018433295 0.0061635897 0.0007704333
000320 96 d1 0b bc 60 4b b1 3b 68 64 ad 3c f2 d7 05 bc
       -0.008533856 0.0054105967 0.021166041 -0.008169161
000330 36 b4 cc bb a0 7d 28 3c 32 57 e2 3a 4d 9d 0e bc
       -0.0062470688 0.010283858 0.0017268418 -0.008704496
000340 d3 00 4e bc 69 93 43 bc fb 50 e1 3b 45 82 a3 3a
       -0.012573439 -0.011937001 0.0068761087 0.0012474736
000350 cf 53 45 3b 59 09 1f 3a d2 3f bb 3c ab 0c b4 3b
       0.0030109768 0.00060667616 0.02285758 0.005494674
000360 4b af 6b 3a 13 9d 6f bc 41 1f fa bb 6e 76 c3 3a
       0.0008990659 -0.014624852 -0.0076331203 0.0014912614
000370 cf 4e 3c 3c fd d4 87 3c 39 1d 76 3c 40 e4 80 3c
       0.011493399 0.016581053 0.015021616 0.015733838
000380 16 08 27 3c 43 d5 cd bb 07 2a 90 bc be 48 b0 3b
       0.010194799 -0.0062815263 -0.017598165 0.0053797653
000390 19 9d 89 3c e9 32 40 3b 8e 1b 9f 3c b4 62 79 3b
       0.016798543 0.002932722 0.019422319 0.0038053216
0003a0 1a 5f 30 3c d0 02 94 3a 87 4a ed 3b 98 1e 4e bc
       0.0107648615 0.0011292342 0.0072415504 -0.012580536
0003b0 b0 9c ae ba 00 b2 1f bb 19 00 7d bc e3 a2 98 bb
       -0.0013321843 -0.002436757 -0.015441918 -0.0046580895
0003c0 1f 4d 99 bb cf 95 95 3c 10 5f db 3b e4 3e 8b bc
       -0.004678383 0.01825991 0.006694682 -0.016997762
0003d0 28 05 03 bc 6f a0 9a 3a 0c 46 2f bb 5c f9 2b 3b
       -0.007996835 0.001179708 -0.0026744632 0.002624116
0003e0 f4 a0 3a bb 09 8e 36 3c b2 20 41 bc 8b 93 39 3b
       -0.0028477283 0.011142262 -0.01178758 0.0028316702
0003f0 3a d5 62 3c 8f 45 8a 3a 96 d9 8f bc 9a 57 f6 bb
       0.0138447825 0.0010549295 -0.017559808 -0.007517767

action_model._discrete_distribution.branches.2.bias f4 [3]
000000 85 66 2a bc 05 c7 ca bc ec b5 31 3d
       -0.010400419 -0.024753103 0.043386385
