Assets/results/OuiTankRemaster/TankLearningAI/TankLearningAI-11999971.pt (torch, 787585 bytes, 58 tensors)

discrete_act_size_vector f4 [1, 5]
00000000: 0000 4040 0000 0040 0000 4040 0000 0040
00000010: 0000 0040
3.0 2.0 3.0 2.0 2.0

network_body._body_endoder.seq_layers.0.weight f4 [128, 110]
00000000: 4138 283d e50d 883d 2600 56bd 4204 dc3d
00000010: d018 233e 3f93 28bd 3ec0 13bc 3aa4 b53b
00000020: b822 dabc 5a81 a73d 6b05 6dbe c274 04be
00000030: bd00 9abd 14d5 10bd 246f c4bc 3e91 0fbe
00000040: 47a8 143e d911 e7bd 6338 f0bc a066 cabd
00000050: 3d6d 55bc ff46 bfbd 684a 01bd b5bf 0e3d
00000060: 3fbd 9b3d 884a a7bb b569 c13d b2a8 603e
00000070: b8ee d5bb a8ad dfbd d4d8 a43d 683e f53a
00000080: c460 4f3d 12ec 15bc a353 68bc c837 e63d
00000090: fb9d c4bd b0a8 cebd 9745 273d f4c5 6abd
000000a0: 8591 353e ad7a 983d b4f6 b23d 85a7 04bd
000000b0: 834a 9fbd 617e 6abe 240f 1fbe da57 86bd
000000c0: ea0b ff3c cf2a 60bd 33f7 8d3d f185 053d
000000d0: 87b7 ae3c 78f9 f43c 4f88 5ebe 5afa ec3c
000000e0: 9c3f 1fbe 387b ecbc fdcf 963d f862 c2bc
000000f0: d2bc d1bd 8e45 5abd a3f4 b13d 92db a6bd
00000100: 8c78 21bd 81c3 52bb 3ba4 39be d3e3 1f3e
00000110: 2a80 283c fbb0 0bbe 13fc 983d 9178 e7bd
00000120: adcc 0dbe 71b6 efbc aa53 1a3d 0bca 34bd
00000130: e8df 5bbb 27ea a5bd 6d02 553d 99f6 bc3d
00000140: 0f89 d33d f6e9 24be 0a79 06be 589e 9cbd
00000150: bac5 4fbe 489e 933d d965 ec3d 82cb e03d
00000160: cf15 32bb 6b44 6b3e 6fce 2a3d aa0e a33d
00000170: 5d12 143e 7139 a7bd a105 793c a7e8 b8bc
00000180: 3cee ecbd 8c75 b33c b8df 513e a585 6abe
00000190: 4bff 813d 6a2d d53d e9df 9fbd 026d 563b
000001a0: 2041 35be f6cb 7ebb 265f 513d cf7d c83d
000001b0: bfc7 fdbd cf7e 6b3d 6ff8 41bd 5e0a d63c
000001c0: f1cd 813c 308f 37bd 97bc 0bbe 2aab fc3c
000001d0: a039 5ebd 0e0a 583d 183f eebd 3b71 88bd
000001e0: 2bb9 433e c9b6 a4bc 5189 eebc 35c8 40bd
000001f0: 8c1b 1a3c afa7 fb3c 67d4 a93d 78ca 163e
00000200: 63eb 3dbd e823 463d 73d2 2dbe 0382 88bb
00000210: 3775 c9bd 7c40 04be d138 233e 174d cd3d
00000220: 156d bcbd 4343 bbbd a803 98bc 78c5 95bd
00000230: bb99 db3d f7e8 013e 44ef 2b3e 3503 1a3c
00000240: 73e8 abbd 00e7 06be 8ae1 c4bd b002 1e3c
00000250: 0cff 00bd a6c6 143d 9650 e3bd c177 9cbc
00000260: 412d c1bd cc6d 13be 0380 483e bd82 843b
00000270: e02f 093e 0bb7 d0bc 7d77 e13c e696 a63c
00000280: cb2d 01bd 4ab4 a23c f955 7cbc 6834 d03d
00000290: d265 b9bc ee8e be3d 6780 7e3c 6e66 03be
000002a0: ca65 b7bc f917 d53d 3dfb 0bbe aee2 0fbd
000002b0: 090a 0bbc 1f3b 833d 2c4b db3d 6e2e 653d
000002c0: df74 be3d 67c8 ad3d 14a7 ddbd 493d a23a
000002d0: b76b 5b3d e9b0 edbd 0a87 1d3d e7c5 14bc
000002e0: b757 c0bc 487b 2dbd 95b1 dbbd 89f5 32be
000002f0: 4837 843d 7325 a8bc 681c 943d 7d38 b7bd
00000300: 781e bbbd 8f80 8dbd b34e f53d c646 e63c
00000310: 25a2 333e 4905 71bd 11b3 e33d 4f9c 1e3e
00000320: 8ed0 c1bc 3022 083d 12c3 f33c c774 053d
00000330: cef2 02be cbdc cc3d ff65 843b eab0 be3b
00000340: 4aae 0b3e 7c72 73bd 6987 f5bd 4871 7e3d
00000350: 1b13 293c 6b3b 653c 3987 c7bd 9d78 8abd
00000360: 9eea c33c f5fe 093e 06af f73c 0a03 ad3d
00000370: 0fe5 9a3d c5fa b93d 829d 50bd 47e8 ba3d
00000380: 4456 90bd 44c6 5ebd 0c67 21be b163 89bd
00000390: 932d 6fbd 18b9 373d 1877 72bc 616e ad3d
000003a0: 86ce 303e c333 40bd 3c19 82bc a27c f73c
000003b0: 8997 5dbd aa77 12be 8b13 573e 0d5d 953d
000003c0: 42ea bcbc 8ef9 13bd 1cd4 c2bd 287f 4fbe
000003d0: 2e05 6f3d fa98 68bb cc0a f7bc 6792 dcbc
000003e0: 7bc0 08bd a0f4 9bbd 4c57 34be 61f7 eb3c
000003f0: a421 cfbb 0a03 19bd 7905 ca3d 2570 88bd
0.041069273 0.06643275 -0.052246235 0.107429996 0.15927434 -0.04115605 -0.009018002 0.005543259
-0.026627883 0.08178969 -0.23146598 -0.12935165 -0.07519672 -0.035359457 -0.023978777 -0.14020249
0.14517318 -0.11282701 -0.029323762 -0.098828554 -0.013026533 -0.09339713 -0.0315651 0.034850795
0.07604455 -0.0051053204 0.0944399 0.21939352 -0.0065287016 -0.10921794 0.08049169 0.0018710615
0.050629392 -0.009150522 -0.014180097 0.11241108 -0.09600445 -0.10090768 0.04083785 -0.05731769
0.17731293 0.074452735 0.08738461 -0.03238632 -0.07777884 -0.22899772 -0.1553312 -0.06559725
0.03113361 -0.054728325 0.06931915 0.03259844 0.021327747 0.029904112 -0.21731685 0.02892797
-0.15551609 -0.028867349 0.07363889 -0.023728833 -0.10241093 -0.05328899 0.08689239 -0.081473485
-0.039421603 -0.0032159986 -0.18129055 0.15614252 0.010284463 -0.13641731 0.07469954 -0.11302293
-0.13847609 -0.0292618 0.037677445 -0.044137996 -0.0033550207 -0.08101302 0.052004267 0.09226722
0.10328876 -0.16104874 -0.1313211 -0.07647389 -0.2029027 0.07207924 0.115428634 0.10976316
-0.0027173643 0.22975318 0.041700777 0.07961781 0.1446013 -0.08165253 0.015199096 -0.022571875
-0.11568877 0.021906637 0.20495498 -0.22902544 0.063475214 0.10409053 -0.07806379 0.0032718782
-0.17700624 -0.0038878894 0.05111613 0.09789621 -0.12391614 0.05749398 -0.047356065 0.02612799
0.01584527 -0.04481429 -0.1364616 0.030843336 -0.054254174 0.052743964 -0.11633128 -0.06662222
0.19113605 -0.02010669 -0.029118212 -0.047065932 0.009405982 0.030719606 0.08292466 0.14725673
-0.04636706 0.048374087 -0.16974811 -0.004165889 -0.0983681 -0.12915224 0.15939642 0.10024469
-0.09200493 -0.091436885 -0.018556431 -0.07313055 0.10722681 0.12686525 0.16790491 0.009400179
-0.083939455 -0.13174057 -0.09613331 0.009644195 -0.03149323 0.03632226 -0.11099355 -0.019100072
-0.094324596 -0.14397353 0.19580083 0.0040439055 0.13397169 -0.025477907 0.027522797 0.020335626
-0.031537812 0.01986136 -0.015401357 0.10166246 -0.02263156 0.093046054 0.015533543 -0.12832043
-0.022387404 0.10404963 -0.13670059 -0.035128288 -0.008486279 0.06407761 0.10707697 0.055952482
0.09299635 0.08485489 -0.10822883 0.0012377884 0.05356952 -0.116060086 0.03845886 -0.009080387
-0.023479326 -0.0423539 -0.107272305 -0.17476477 0.064558566 -0.02052567 0.072319806 -0.08946321
-0.09136671 -0.06909286 0.11977901 0.02810992 0.17542322 -0.05884293 0.111181386 0.15489314
-0.023659017 0.03323573 0.029756103 0.03258207 -0.12787935 0.100030504 0.004040479 0.0058194296
0.13640705 -0.059435353 -0.11988718 0.062119752 0.0103194965 0.013991217 -0.097425885 -0.067612864
0.023915585 0.13476165 0.030234825 0.08447845 0.07563221 0.090810336 -0.05093146 0.09126335
-0.07047704 -0.0543883 -0.15761966 -0.06708468 -0.058393072 0.044854254 -0.014798902 0.08468319
0.17266282 -0.046924364 -0.015881173 0.030210797 -0.054099593 -0.1430346 0.21003549 0.07293139
-0.023060922 -0.036126666 -0.09513113 -0.2026335 0.05835455 -0.0035491572 -0.030156516 -0.026925279
-0.03338669 -0.07615018 -0.17611426 0.028804483 -0.006321149 -0.037356414 0.09864325 -0.06662015

network_body._body_endoder.seq_layers.0.bias f4 [128]
00000000: 0000 0000 4239 3b0f 2990 0fb1 3bbf 44a2
00000010: de80 4827 bb7d 92bc 8eef 4fbd 94bd 7fbc
00000020: 0000 0000 3629 00bc c940 babc b2ca 3231
00000030: 55ea 1cbc c6cc 3aa5 6dd8 70bd b00d 22bd
00000040: 8c35 69ac be22 8ebb 0aea 86bc 0000 0000
00000050: b4c2 1ebd 0363 36bc b458 3a3b e0af 8ebb
00000060: 0000 0000 34b0 37bc 0000 0000 0000 0000
00000070: 2ae3 10bc 4de4 f0bb ce93 7ca7 92ca 1da4
00000080: 4fa9 c7bd b929 8dbc 9b04 903c 86c7 fd92
00000090: 4591 9cbc aaa0 3e93 d999 39bc c200 66bc
000000a0: 9a64 9abc 1bdd 32bb ed11 8a09 cb86 0905
000000b0: d2a7 083b c330 59bd c516 352e 6ae8 2788
000000c0: a734 a4bc eb89 961e 0000 0000 ef8b 79bc
000000d0: 96c6 96bc 7b54 04bc 0ce7 763b d6a7 3d3c
000000e0: 8154 2cbb 0951 2d3b f25e 0bbd 1b16 e6bb
000000f0: d074 8fba 7b77 903b 0dd1 b3bb 2e94 82b6
00000100: 7d87 37bc d657 2dbd 46bc e3bc 9c72 6cbb
00000110: 2111 aabc 84a4 a3bb c9dc dfbc 0000 0000
00000120: 7717 74bd f44b 1ebc 1d99 2dad f1a2 123c
00000130: 7a8d 8691 3677 90bd 448e ebbb eee2 87bc
00000140: cc33 3d3b d407 a987 e059 103c a0da 61bd
00000150: a3b3 4213 48f0 7f34 e224 272c e7ad af3b
00000160: 359e 4324 7b81 1cb9 0000 0000 5130 e6bc
00000170: cde8 e933 f587 3eac 26c3 dbbc 346f e0bc
00000180: 66bf f13b a156 17bc d918 3fa9 2893 09b9
00000190: 41b3 3191 e25e abbc 63cc 2abd 5f72 60bc
000001a0: 85e1 56bc bc8c 2abc 25d8 b2bc 4355 45bd
000001b0: cbcd bdbc 9fd6 3abc 8b58 192f 5226 da04
000001c0: 4dde 8508 a44b 8fbc dd3d c7bb e617 debb
000001d0: 3943 d5bc bbff da84 49a4 0a3c b943 efbb
000001e0: 0000 0000 0000 0000 45f1 f024 dedf 1cbd
000001f0: be22 42bc 1e4a 85bc a3ee cd90 4ed3 dd3b
0.0 9.230839e-30 -2.0891184e-09 -2.666419e-18 2.7825435e-15 -0.017882219 -0.050765567 -0.015609164
0.0 -0.007822325 -0.02273597 2.6017628e-09 -0.0095773535 -1.6202308e-16 -0.05880015 -0.039563835
-3.3141016e-12 -0.0043376377 -0.01646902 0.0 -0.038759902 -0.011132005 0.002843422 -0.004354462
0.0 -0.011211444 0.0 0.0 -0.008843223 -0.0073514343 -3.505215e-15 -3.4215532e-17
-0.0974909 -0.017231809 0.017580321 -1.6015731e-27 -0.019112239 -2.4060585e-27 -0.011328184 -0.014038267
-0.018846799 -0.0027292434 3.323915e-33 6.4664666e-36 0.0020851982 -0.05302502 4.117486e-11 -5.0527936e-34
-0.020044638 1.593891e-20 0.0 -0.015231117 -0.01840524 -0.008076782 0.0037674336 0.01157566
-0.0026295485 0.0026446006 -0.034026094 -0.007021678 -0.0010944847 0.0044087744 -0.0054875673 -3.8915523e-06
-0.0112017365 -0.042320095 -0.027799737 -0.0036079055 -0.02076012 -0.004993977 -0.027326958 0.0
-0.05959269 -0.009661663 -9.8679094e-12 0.008949981 -2.1228664e-28 -0.07053988 -0.0071885902 -0.0165877
0.0028869985 -2.5432895e-34 0.00881049 -0.055140138 2.457481e-27 2.383614e-07 2.3752601e-12 0.005361307
4.241789e-17 -0.00014925555 0.0 -0.028099211 1.0892254e-07 -2.7076095e-12 -0.026826452 -0.027396776
0.007377553 -0.009236963 -4.243207e-14 -0.00013120158 -1.4018075e-28 -0.020919267 -0.041698825 -0.013699143
-0.0131152915 -0.01040953 -0.021831581 -0.048177015 -0.023169419 -0.011403709 1.3946726e-10 5.1286745e-36
8.056909e-34 -0.017492123 -0.0060803727 -0.0067777513 -0.02603303 -5.1486405e-36 0.00846202 -0.0073017743
0.0 0.0 1.04492135e-16 -0.038299434 -0.0118491035 -0.016270693 -8.122592e-29 0.0067695742

network_body._body_endoder.seq_layers.2.weight f4 [128, 128]
00000000: 4966 da3b 999c f8bc e7a1 863b 885d 96bd
00000010: d81d 863d 6e94 c53c 4c0c a7bd 3299 393d
00000020: 0e73 263d 8eec b93d 3b49 cbbd 41e5 063e
00000030: d7a3 63bc 5795 083e 3175 cabd 1af4 81bd
00000040: 2e83 aa3c 9996 02be 754a a3bd 7f02 8d3d
00000050: 5e8d bbbd 7919 b13d 89e5 0ebd d2a7 ca3a
00000060: f1a4 db3d 3c3e 0cbe 0025 01be 315e 873c
00000070: 7724 1c3d 07ce 23be 9c9a 4dbd b23f e2bd
00000080: 6385 bebd b8a4 fc3b e71b 5abd 5eae d93d
00000090: 4d63 0cbe 0598 4ebd 607f 973d 3e7a 09be
000000a0: eb68 0dbe 5670 653d 0b5a 95bd 95e4 fd3d
000000b0: b930 583d 86f6 6fbd 6a74 373e 36c3 8c3c
000000c0: e5ae f33d 03a7 313d 7633 56be 9210 2e3e
000000d0: bb2b 03be d790 5bbd ec15 cbbd 9c90 8dbd
000000e0: 7854 e53c a75f 3abd 81dd d5bb ed45 a73d
000000f0: 8c2a ffbc eb7b fa3c 872a 06bd 70de cf3b
00000100: c7c4 cf3c ccf9 8cbd f219 513e f93a fb3c
00000110: f00f 3bbc 9e94 be3d 9105 d3bd e743 00bd
00000120: bcb9 31bd a798 f2bd 3dd4 d43d ae0f cd3d
00000130: 4b5f 763d b3af 8dbd eebc 3c3c 9fdc 3ebe
00000140: 0713 d5bd 1094 ca3d 4eed c83c 8c0f f33d
00000150: ba1e b23d b649 b53a 5b96 25bd 03d6 0dbe
00000160: 7478 8abd 1c8f bc3c 0e81 e3bd 346e 87bd
00000170: 246a d9bc 56c9 90bd 7285 8fbd f225 b6bd
00000180: e4bf 59bd b703 80bd c755 093d 8365 14be
00000190: 16c1 98bc 3072 533d 1661 3bbc fac6 9fbd
000001a0: 2108 f93d e3b9 08be 4381 33bd 1949 003c
000001b0: 4cf1 543d 6eef 2fbd c1ca e1bc a1f3 50be
000001c0: 67c6 0f3e bdaa f3b8 3a5b c73d 2828 cabc
000001d0: dcac c93d 0723 0c3e d4a8 5d3e 48bf 49bd
000001e0: 9019 bfbd ab14 c03d 0ac5 1a3e 2a79 1fbe
000001f0: 90ad aa3d c0c8 c3bd 0d58 b03d 6b98 5dbd
00000200: 0fb8 0b3d b1b9 613d 14f7 87bb 39e2 a1bc
00000210: 4fc7 d3bd 8601 963d d20f 83bd ebac f33c
00000220: acd2 a2bc cb62 8f3c 1ec3 3e3d 18f5 963d
00000230: 76d2 50bd b236 0b3d de6f 523d ea04 043c
00000240: f00e 153d 2c75 f03c d372 54bc 0fd8 a4bc
00000250: ac6c 02be c867 f4bd 9027 543d 5666 a53d
00000260: e994 243e e2a7 343c 3ffb 16bd 357f da3b
00000270: 585a e83c 2ab6 a43c 3324 0b3d 9992 91bd
00000280: b572 73bc ed43 1abd f722 953e 99e3 6abc
00000290: bd81 26bd 625c 163d 81c6 5dbd e529 373d
000002a0: c94c 843d 79cd 043b f167 bcbd 02fc 043e
000002b0: 8cd4 0cbd 5a14 793c ac55 1c3e 5af9 683d
000002c0: 1068 023b acdf a53d ae58 5e3d db24 5fbe
000002d0: c4b2 10be 8e1c 14bd 6b95 afbd 1ed5 9ebd
000002e0: ed22 2abd 84ca babb f20f 24be b4c0 173d
000002f0: 5aeb 4a3e 88a1 bcbc aad0 003d 5600 ddbc
00000300: eb50 173d 734d 933c 8afb b8bd 0381 dd3c
00000310: 3221 073e 64b9 97bd 0a37 fcbd 800a 803c
00000320: b309 5e3d 2ccd 153e 22ed d7bd 521b a4bd
00000330: dfd0 1e3b 7d5f f83c e834 06be 3b0c 25be
00000340: af2a d9bd edd3 eabd 9278 e53c 894c 0a3e
00000350: 99db eebd 07b9 20bd 7e8d 0fbd df79 023e
00000360: c6c9 af3d 4807 743c 12f7 a0bd d789 94ba
00000370: 074f 4fbd 0f75 9b3d b117 023e 89a5 3fbd
00000380: c1b3 553d e8ec 313b 9d62 303b 0cb4 75bd
00000390: 4e8c 81bd 644c 24bd 3391 203e 1f4c 0ebe
000003a0: 1d35 efba fc4b 9b3d 8fc9 debb 1642 09be
000003b0: 9ca6 ae3d 3c34 193e 65eb ee3d a6f5 7dbc
000003c0: 97f2 3f3d e6cb 263d 50fd a6bd 18cb 283c
000003d0: 123f 91bd 004a b1bd 3ea7 5c3c 45a9 39be
000003e0: 0de2 bfbd 4d37 033e a7f4 abbc 5d3c c1bc
000003f0: fbd0 f0bd ab7c 2f3d 821f d33c 3e61 d53c
0.0066650254 -0.03034811 0.0041086557 -0.073420584 0.06548661 0.024118628 -0.08156642 0.045312114
0.04063707 0.09078322 -0.09926077 0.13173391 -0.013894043 0.13338219 -0.09885634 -0.06345387
0.020814504 -0.12752761 -0.07973186 0.06885242 -0.09157823 0.08647437 -0.03488687 0.0015461391
0.107248195 -0.13695616 -0.1261177 0.016524406 0.038120713 -0.15996562 -0.050196275 -0.11047305
-0.09302785 0.0077100657 -0.053249266 0.10628961 -0.13709755 -0.050437946 0.07397342 -0.13425538
-0.13809554 0.056015335 -0.07292565 0.12397114 0.05278084 -0.058584712 0.17915502 0.017182928
0.11898593 0.043372165 -0.20918068 0.16998509 -0.1280965 -0.053604927 -0.09916291 -0.06912348
0.02799438 -0.045501377 -0.0065266495 0.08167634 -0.031148218 0.030576667 -0.0327554 0.0063436553
0.025362385 -0.068835825 0.20420054 0.030667769 -0.011417374 0.0930569 -0.10303796 -0.031314757
-0.04339002 -0.118455224 0.10392044 0.10012756 0.060149472 -0.069182776 0.011519654 -0.18638848
-0.1040402 0.09891522 0.024527218 0.118682 0.08697267 0.0013831172 -0.040426593 -0.1385117
-0.06761256 0.023017459 -0.111085996 -0.066128165 -0.02653987 -0.07069652 -0.070078745 -0.08893956
-0.053161517 -0.062507086 0.03352907 -0.14491849 -0.018646758 0.05162257 -0.011436721 -0.07801624
0.121597536 -0.1335216 -0.043824445 0.007829928 0.05198793 -0.042952947 -0.0275625 -0.20405437
0.14040528 -0.000116189454 0.09734197 -0.024677351 0.098474234 0.13685237 0.21646434 -0.049254686
-0.093310475 0.09378942 0.15114227 -0.15573564 0.08333886 -0.095597744 0.08610544 -0.054100435
0.03411108 0.05510873 -0.004149327 -0.019761192 -0.103407495 0.07324509 -0.06399502 0.02974554
-0.019875847 0.017503163 0.046572797 0.07370967 -0.05098196 0.03398771 0.051376216 0.008057812
0.0363912 0.029352747 -0.012966829 -0.020122556 -0.12736768 -0.11933857 0.051795542 0.0807616
0.1607243 0.0110263545 -0.0368607 0.0066679963 0.028363392 0.020106394 0.03397007 -0.071080394
-0.014858891 -0.037662435 0.2912824 -0.01433649 -0.04065107 0.036709197 -0.054144386 0.044717688
0.06459958 0.0020264073 -0.09199513 0.12986758 -0.034382388 0.015202606 0.15267056 0.056878425
0.0019898452 0.08099303 0.05428379 -0.21791403 -0.14130694 -0.036160044 -0.08573421 -0.07755493
-0.041537214 -0.0057004113 -0.16021708 0.03704901 0.19816342 -0.023026243 0.031448998 -0.0269777
0.036942404 0.017981267 -0.09032352 0.027039057 0.13196257 -0.07408407 -0.12315185 0.015630007
0.05420847 0.14629048 -0.10543276 -0.080130234 0.0024233384 0.03031897 -0.1310612 -0.16117947
-0.106038444 -0.11466203 0.028011594 0.13505758 -0.11662979 -0.039238956 -0.035047047 0.12741803
0.08583407 0.014894314 -0.07859625 -0.0011332583 -0.050612476 0.075906865 0.1270435 -0.046788726
0.05217338 0.0027149264 0.0026914247 -0.05998616 -0.06325589 -0.040111914 0.15680389 -0.13896225
-0.0018250082 0.07582852 -0.00679893 -0.13404116 0.08527872 0.14961332 0.11665992 -0.015500462
0.04686221 0.040721796 -0.08153784 0.010302328 -0.07092108 -0.086566925 0.013467608 -0.18130977
-0.09369288 0.12814064 -0.020990683 -0.023588354 -0.1175861 0.042843502 0.02577186 0.026047345

network_body._body_endoder.seq_layers.2.bias f4 [128]
00000000: 6b17 0a8c 1599 6cb7 0602 babc 68a9 9cbc
00000010: 9811 a5bc fdf8 25bc 5011 71bc 0000 0000
00000020: 1154 debb 4216 9cb9 b3a7 f82a 1c0a beb6
00000030: 8b0b 0ea5 1885 d5bb b44c 9635 f429 8c25
00000040: 8221 77bc d8bd 7abc fec9 adbb 68e3 44bc
00000050: e075 3fbc d51c 87bc 060d a6bc e92f eabb
00000060: f69d 5831 5e87 40ba 12e1 b20f f090 bbba
00000070: 499f 85ba 5ccf 21bc f0a3 5ebc ccec c9b6
00000080: 9fb4 1abc 8f4a 3007 b053 9224 fac9 57a7
00000090: 9959 e1bc 0c01 9abc c7c9 dfa5 cc2c acbc
000000a0: 4b99 e7bc a200 782d d0cf 7eae 2b09 bdbc
000000b0: 9269 a4bc 86ac 0cba 8fdc 6cbc 2094 aebb
000000c0: 1770 04b9 97ca 5f08 914b 52bc 9494 a42b
000000d0: 2ec5 2bbc a59f 78bc 3ada 2dba a5a0 2ebc
000000e0: 3f47 60bc 508b 06bb dd13 55b8 4ba8 e7bc
000000f0: 56c2 dfb3 d88e 71bc 900e 98bc 7166 83ba
00000100: a101 ccbb a9f7 f0bb 78a8 a5bc 2756 1abc
00000110: aa33 c3ab 470d 86bc aa0d cbbc 715a 98bc
00000120: 6828 4723 1eed 399c 91c4 a0bc 89fb 6fb4
00000130: b701 33a3 dab7 73bc 60a1 e6bc 68c4 f0bb
00000140: 34a2 33ba 952c ddbb 216a b6bc dbd6 38bc
00000150: d736 66b3 e900 49bc 2972 45bc 34f7 b625
00000160: 274d a9bc 9eb4 08bb 2691 5abc 5032 5bbb
00000170: 8367 9abc 19b5 2bbc f679 5bbc f643 a1a9
00000180: 7568 0b2b ab34 159d c44e f6bb ef43 7ebc
00000190: 8f0c 2bbc 6aad 5722 4f01 ecbb 78cb 9dbc
000001a0: e397 c6bc a9fd 088d e2ad f216 3f52 862e
000001b0: c104 f4bb 6cc0 3e2f 9f3c b2b0 9596 2ebc
000001c0: 45fd f3bb 618d e3bc 2aad 43bc 4852 4323
000001d0: c254 91bc 42bf 35bc daea 82bc f76b 8b23
000001e0: bfe7 41bc e02a aebc 5614 802a 12d9 2dbc
000001f0: b725 fbbb bd43 122c 227a 602f 52be 65a3
-1.063818e-31 -1.4102338e-05 -0.022706043 -0.019123748 -0.02014999 -0.010130164 -0.0147136 0.0
-0.006784924 -0.00029771222 4.4170014e-13 -5.663618e-06 -1.2320448e-16 -0.00651611 1.1198194e-06 2.4314557e-16
-0.0150836725 -0.015304051 -0.0053036204 -0.0120171085 -0.011685818 -0.01649324 -0.020269882 -0.0071468246
3.1521927e-09 -0.000734439 1.7638849e-29 -0.0014310163 -0.0010194565 -0.0098760985 -0.01358889 -6.0178336e-06
-0.0094424775 1.3262679e-34 6.345918e-17 -2.9946736e-15 -0.027508544 -0.018799327 -3.8821063e-16 -0.021017455
-0.028271338 1.4097308e-11 -5.7937488e-11 -0.02307566 -0.020069871 -0.0005366284 -0.014456882 -0.0053277165
-0.00012630258 6.7344765e-34 -0.012835399 1.169414e-12 -0.010484023 -0.015174781 -0.00066319446 -0.010658418
-0.013688861 -0.0020529814 -5.0801656e-05 -0.02827849 -1.0419596e-07 -0.014743529 -0.018561631 -0.0010025037
-0.00622578 -0.007353742 -0.020221934 -0.009419954 -1.3869923e-12 -0.016363753 -0.024786789 -0.018597813
1.0796368e-17 -6.151783e-22 -0.01962498 -2.2350117e-07 -9.7039726e-18 -0.014875377 -0.028153121 -0.007347632
-0.0006852478 -0.0067496994 -0.022267403 -0.011281694 -5.3600925e-08 -0.012268283 -0.012051144 3.1739479e-16
-0.020666672 -0.002085961 -0.01334027 -0.0033446737 -0.018848186 -0.010480189 -0.013395777 -7.1616256e-14
4.9527683e-13 -1.9747215e-21 -0.007516714 -0.015519126 -0.010440006 2.9229738e-18 -0.0072023044 -0.01926206
-0.024242347 -4.221357e-31 3.9206944e-25 6.108224e-11 -0.007446856 1.7348761e-10 -1.2968434e-09 -0.010656019
-0.0074459636 -0.027777376 -0.011943141 1.0588395e-17 -0.017740611 -0.011092963 -0.015981127 1.5116135e-17
-0.011835038 -0.021260679 2.2751478e-13 -0.010610836 -0.007664408 2.078545e-12 2.0416072e-10 -1.2454417e-17

action_model._discrete_distribution.branches.0.weight f4 [3, 128]
00000000: cc20 cb3b 6014 2fbb f8f6 a13c 8cf7 3dbc
00000010: 1741 e13a c2aa 2bbc 4fc9 1a3b 873b 533b
00000020: cb79 07bc d8c2 2fbb 9708 8c3a 07c5 df3b
00000030: 5f7d a73b 8719 9cba d00c 3c3c fa01 ab3a
00000040: c62f 4a3b bf39 9fbb 142c 0338 1e52 e93b
00000050: 32f2 f23b 8aca afbc ebd6 ea38 5932 06bc
00000060: f935 db3b 6a40 c8bb 9f86 6abc 891e 02bc
00000070: 02c2 03bc e5d2 a73b dc87 e03a 8a41 ba3a
00000080: 9fda 083c a55b 68ba 01f6 943c 33db 263c
00000090: 5fa3 06bb e663 95bb 00bc 55bc abc1 873b
000000a0: f7fe 9d3b 013b 8cbc edf2 59bc 0338 5f3b
000000b0: 5d81 a0bc dd1d 563a 0edc cd3c 969e 33bc
000000c0: 26e2 34bc a3a9 48bb df65 9b3b 923d 903c
000000d0: 528e 2dbb 190b 243c 2446 ba3b 74da ef3b
000000e0: 7030 e6bb feef 4f3b d9c7 bebb 0474 babb
000000f0: 246c 2b3b 6ed4 a9b9 c8bc 35b7 9bfd 74bb
00000100: 0ccd 643a d16b 1fbc 6a34 e3bc 6282 0239
00000110: aa05 5d3c 62f6 9abc 2734 a73c 2851 8cbb
00000120: aef6 41ba 2f91 5cbb 1884 ccbc f45e 6bba
00000130: 1c49 14bb 2ddf 9dbc b5f8 9cbb 07c8 68ba
00000140: 26c1 31bc 761f 483c b785 2f3c 0ab7 dbbb
00000150: 6c17 9a3c 668b d93b 0e90 993a d532 c7bb
00000160: 2299 033b 19bb 0e3c dc59 94bb 77cb 98bc
00000170: 349a b93c bdcd 4dbb b73f 5fbb 45e3 d63a
00000180: afa8 50ba 9eaa 9a3b df2e 2dbb 757d 5fbc
00000190: 6ece 73ba 85f9 843b 28b8 c2b9 7d8f d73b
000001a0: 9725 1ebc 7743 92bb e37c c63b abe4 1f3b
000001b0: 329d 193b 6975 3e3b 3bea cdbb bafc c9bb
000001c0: ce34 33bd 585c b03b 3562 b23c 70b0 233c
000001d0: 9efb 98bb 7578 bfbb 53af 683c 0a87 313c
000001e0: 30c7 66b9 a744 4b3a 234d 6abc 60b4 963c
000001f0: 6eef 93bc 4fa1 d1bb de3e 90ba 5d1e e3bb
00000200: 7659 c23b b133 043c 61c1 003a b73c 34bc
00000210: 1eac 993c 8f9f 193d 072d 883c 7b05 0bbc
00000220: 95ec 323a 86dd 9eba d612 24bc fe5f 21bc
00000230: da29 deb9 51da 21bc c4a5 58ba 8f8f 323c
00000240: 3045 aabb 2c53 18bd 1d61 c1bc 2d7f 06bc
00000250: ed5d 883c 2786 cbbc 1a28 b7bb 7345 c1bb
00000260: 1543 2c3c 43e2 f2ba d3be 473b 26ef 3a3c
00000270: 2125 4dbc 83e6 743a bbe5 fb3a f60b 6a3b
00000280: 51b6 d23c 6385 98bb 4591 0c3c 9fb6 f7bb
00000290: 3a8e 613b 848c 27b6 dc34 22ba 2723 f73a
000002a0: 9c78 08ba a513 12bc 0fb3 ccbb 9b8c 8b3c
000002b0: 452f afbc bf7d b83a 17ba 87bc 0f64 0c3b
000002c0: 695d a4ba 10b9 073b 7c22 7bbb 4526 9ebb
000002d0: 869a 463c a8ba 3c3a 17f5 133a bcbc b13c
000002e0: d06f 11bc 3818 c8bb 8dcb 49ba 535f 85bc
000002f0: 5396 b9bb 6d81 c3bb 6d3a 3b3c ad1b 333c
00000300: 6f58 843c b968 c43c 0f87 533a 9d75 15bc
00000310: c92e b8bb e192 30bc 540d 843c d8f4 0b3c
00000320: cf33 373c 9336 aabc 1c51 f63b 7c84 283c
00000330: c9ad 393c ce9c 403c 7487 f7bb 0641 be39
00000340: 734b 173c c076 df3b ddc7 173c f267 aebc
00000350: 782b a0ba 30ff 45bc f1eb 063d cb60 293b
00000360: c9f4 553c edf2 20bc 0bdd 753c 4dd7 3a3b
00000370: 0c61 613c d573 39bc ae25 093c d781 133c
00000380: 0a31 453a dec3 32b9 d449 b9bc 76d4 86bc
00000390: 9d0c e03c 3cb8 093c 3a21 ae3c 9d28 96ba
000003a0: d094 1dbb 0203 cebc b64f 923c c295 13bc
000003b0: 2bb7 a6bb 1120 9b3b 60aa 16bb df23 393c
000003c0: 17c6 f2bc f20e 973a 6c0c 12bd 7380 b9bb
000003d0: dc01 c8b9 a2ec 2cba d937 b03c 45ba 7e3b
000003e0: 63e3 ed3c 67d3 873b 61fa 9d3b 00a6 8cbb
000003f0: 983f e73c cd2d 24bc e49f 07bc bedf 373c
0.006198978 -0.0026715025 0.019771084 -0.011594664 0.0017185536 -0.010477724 0.0023618524 0.0032231526
-0.008268784 -0.0026819017 0.0010683712 0.0068289074 0.005111381 -0.0011909463 0.011477664 0.0013046854
0.003085123 -0.004859179 3.1273885e-05 0.007120385 0.007414126 -0.021458883 0.00011198021 -0.008190715
0.0066897837 -0.0061111944 -0.014314323 -0.00794185 -0.008041861 0.005121576 0.0017130333 0.0014210206
0.008352905 -0.0008863754 0.01818371 0.010184097 -0.0020544154 -0.004559028 -0.013045311 0.00414296
0.004821654 -0.017117979 -0.013302547 0.0034060485 -0.019592935 0.0008167902 0.025129344 -0.010963103
-0.011040246 -0.003061869 0.0047423686 0.017607484 -0.0026482535 0.0100124115 0.005684631 0.007319743
-0.007024817 0.003172874 -0.0058221635 -0.0056900997 0.0026156986 -0.00032392464 -1.0832395e-05 -0.0037382606
0.0008728064 -0.009730295 -0.027734954 0.00012446337 0.01349012 -0.018916313 0.02041061 -0.0042821355
-0.0007399124 -0.0033655872 -0.024965331 -0.00089786877 -0.0022626584 -0.019271458 -0.0047903904 -0.0008879904
-0.010849273 0.012214532 0.010713032 -0.0067051696 0.018809997 0.006638932 0.0011715905 -0.0060790577
0.0020080288 0.0087116 -0.0045273136 -0.018651707 0.022656538 -0.0031403147 -0.0034065077 0.0016394636
-0.0007959706 0.004720046 -0.0026425642 -0.013640751 -0.0009300475 0.0040580654 -0.0003713977 0.0065783844
-0.009652517 -0.004463609 0.006057368 0.0024397771 0.0023439643 0.002906168 -0.006284026 -0.0061641606
-0.04375153 0.005382102 0.021775344 0.009990796 -0.004668667 -0.005843217 0.014201957 0.0108354185
-0.00022008712 0.00077540654 -0.014300617 0.018396556 -0.018058505 -0.0063974033 -0.0011005064 -0.00693111
0.0059310747 0.008068965 0.0004911628 -0.011000804 0.01875883 0.037505683 0.016623033 -0.008485193
0.00068254146 -0.0012120462 -0.010014256 -0.0098495465 -0.00042374321 -0.009878711 -0.0008264447 0.010898485
-0.005196236 -0.037188694 -0.023605878 -0.008209032 0.01664635 -0.024844242 -0.0055894973 -0.0058981716
0.0105140405 -0.0018530566 0.003047873 0.0114095565 -0.012521059 0.000934221 0.0019218245 0.0035712696
0.0257217 -0.004654573 0.008579557 -0.007559612 0.003441705 -2.496673e-06 -0.0006187686 0.0018855081
-0.00052059605 -0.008915816 -0.0062469314 0.01703482 -0.021384845 0.0014075561 -0.016568227 0.0021421944
-0.0012540045 0.002070967 -0.0038320115 -0.0048263394 0.012121802 0.0007199445 0.0005644126 0.02169644
-0.008876756 -0.0061064027 -0.0007697873 -0.016280806 -0.005663672 -0.0059663565 0.011427504 0.010931891
0.01615545 0.023975717 0.00080691365 -0.0091222795 -0.0056208116 -0.010777206 0.016119637 0.008542262
0.011181786 -0.020777976 0.007516993 0.010285493 0.0113329375 0.011756135 -0.007553989 0.0003628807
0.009234297 0.006819576 0.00926396 -0.0212898 -0.0012219986 -0.012084767 0.032939855 0.0025845047
0.01305885 -0.009823543 0.015006314 0.0028509677 0.013756048 -0.01131912 0.0083708 0.009003124
0.0007522261 -0.00017048369 -0.022618212 -0.016458731 0.027349764 0.008405741 0.021256078 -0.0011456195
-0.0024044998 -0.025147919 0.017860275 -0.009007873 -0.0050877533 0.004734047 -0.0022989735 0.011300056
-0.029635472 0.001152484 -0.035656378 -0.0056610643 -0.00038148358 -0.00065965403 0.021511005 0.003886835
0.02903909 0.004145074 0.0048211073 -0.0042922497 0.028228566 -0.010020685 -0.008277867 0.011222778

action_model._discrete_distribution.branches.0.bias f4 [3]
00000000: c58a a73d a660 783d b8bc 03be
0.08180765 0.060639046 -0.12864959

action_model._discrete_distribution.branches.1.weight f4 [2, 128]
00000000: aa06 833b 8812 743b 0867 21bb c165 d73b
00000010: 0a54 cdbc 36c5 95bc 5af5 5439 e283 db3b
00000020: d2f4 723a 43e1 923b ada6 61bc 0d7b acbb
00000030: 6547 153c 621c dbbb c6a7 10bc 87a8 b7bb
00000040: 21e0 0039 cf45 c13b 20be ea3b 8cdf 36bc
00000050: 6e29 b1bb 048c 5b3c 837d a33b 88dd fcbb
00000060: 311a 19bb 70f6 33bc ebe9 73bb 6e85 b13c
00000070: 01c0 0dbc 405f 23bc 03fc 3bbc 3566 133c
00000080: af6d 0c3c 697f a13b ad0c 9e3b 7893 3c3c
00000090: abea e4bb 64f3 b2bb bd70 6f3c bd17 c73a
000000a0: 4da8 0f3c 9369 8dbb c952 78bb a7b4 043c
000000b0: 1fb7 6cbb f3f4 84bc 0f43 883c fa41 90bb
000000c0: 71bc 443c a3f1 23bc ecb6 383d d3ec 63bc
000000d0: 9129 cd3c 44bc 09bc ad14 d33b 9d6b 3b3b
000000e0: 0d31 48bb 7647 e239 a8e8 343b 146e 5abc
000000f0: 8a3b ccbb 664e 66ba 4a8f 59bc 94f9 b93b
00000100: 6f46 9ebc 32c7 623c 1c84 1dbc 3965 1cb8
00000110: 2b05 60bb 6400 90bc d7da 03bb 94d2 8f3c
00000120: f5ec cd3a 60f4 7fba 08b3 06bc 7c5e 7bbb
00000130: a976 413a 9ea5 9a3a a6e2 0dbc b3f5 933c
00000140: 9b92 10bc cd1a 0a3c c85a bc3b 3ef9 93bb
00000150: 276b 02bc bc7f 7e3c 2f54 973b da58 763c
00000160: f7a8 10bc dc50 30bc b66d 4f3a 59de 033c
00000170: cc2c a33c 47f9 843c 6bee 7f3b 6270 8bbb
00000180: 0aca 8cbc df83 8e3b f3ea a8bb b73d 67bb
00000190: 3002 a2bb d5f9 a43b 5838 aabb e8f5 9e3b
000001a0: bffc 843b 2eb1 39bc 0a53 8abc ca1c 533c
000001b0: 150c 80bb 8df5 d93a bdd6 a53a df83 383b
000001c0: a40a 4ebc f3c4 a7bb b224 9abb 003d f0ba
000001d0: 1189 4f3c 39b1 a139 9923 903b 3253 15bc
000001e0: 23cf 393c 47eb 7d3b 205b e6bb 8363 a43c
000001f0: 7ec3 e0bb 3f79 29bc 5247 13bc e099 ecbb
00000200: 2091 24bb 5cae f138 cef0 51ba 131a 0f3b
00000210: cec1 b23c 591f d9ba a2c8 893b cb1b 6ebb
00000220: c341 9a39 1e77 5bbb 0f9d 92bb d3c4 9d3b
00000230: 80a4 b83b e0b9 c3bb e64f 003c a44e 21bc
00000240: 143f 9b3a dff6 b03b 19f1 163c 5d82 ccbb
00000250: e279 f3bb 96cb 0cbc b425 bdbb c20c 653b
00000260: 1b0d 9d3a bd9b bebb 5f77 39bc bfc3 ac3c
00000270: bc02 bcba d8c8 20bc 355a 903b 8be1 f83b
00000280: 3670 4f3a 27e0 773a 8d11 323c 4688 34bb
00000290: 8678 d8bb 31fc 7e3b 05a0 c93b 7cad 1fbc
000002a0: 0196 40bb d033 883a 0a3e fab9 118e 4ebc
000002b0: cfef 823c 5951 9c3c 8476 15bb 1784 c2bb
000002c0: 9e4d 0e3b a398 e33a c0ee 85bc fbfb 1f3b
000002d0: 4016 c0ba b73f be3b c141 f1bb ffb7 d1bc
000002e0: b235 923a 6994 cd3b ce28 283c 9fae 50bc
000002f0: 51ba 363a 4cdc 50bb 049c 303b 7b7c acbc
00000300: 2a97 533b 4896 0ebc 81d0 32bc ad6d 953b
00000310: 673f b23b 6aec 7f3b 6ac2 873c ef0a 5fbc
00000320: 41e7 023c 57e7 8fbb 46ac 4dbb 9757 9a3b
00000330: 2ff0 f23b 6a3b 173c 7ad0 403c ed97 e5bc
00000340: af70 a73c be2a ae3c 3818 b13b 13e2 13bc
00000350: 08e4 36bc 0617 bdbb be17 863a e905 be3a
00000360: 21be 5f3c b2c5 adba 08a4 7a3c cc7c f7bb
00000370: 8c9c 633a 79ff 2e3c 9733 bdbb 5577 c8bb
00000380: 8c53 17bb e05a 17bc 88cb 49bc b540 093c
00000390: 9ae4 0fbb 92b0 b53b 6222 703c 7209 53bb
000003a0: cb27 453c fac6 3c3b 64b7 42bc 635c 993b
000003b0: 0e54 4bba 12d5 483c 5d34 713b ffd0 10bc
000003c0: 0d1d 843c acfa 0239 9f8b 71bc 5a5c 96bb
000003d0: f619 13bc a3bc aebc 50d2 5bbb c883 693c
000003e0: d210 783a 6b48 f53a d029 623b d3ce 033c
000003f0: 90fd 553b 170e dfbc 5adb 053b 4794 973b
0.003998597 0.003724249 -0.0024628062 0.0065734093 -0.025064487 -0.018282514 0.00020309296 0.0066990713
0.00092680485 0.0044824197 -0.013772649 -0.0052636922 0.00911126 -0.006686733 -0.008829063 -0.005604807
0.00012290526 0.0058982144 0.007163778 -0.011161696 -0.00540655 0.013400082 0.0049893274 -0.0077168383
-0.0023361559 -0.010984048 -0.0037218283 0.02167007 -0.008651734 -0.00997144 -0.0114736585 0.008996536
0.0085710725 0.0049285186 0.0048232884 0.011509769 -0.0069859824 -0.0054611433 0.014614281 0.001518957
0.008768153 -0.004315564 -0.003789114 0.0080997115 -0.003611989 -0.016230082 0.016633539 -0.0044023963
0.012007819 -0.010006341 0.045096323 -0.013911444 0.025044234 -0.008406702 0.0064416737 0.0028598078
-0.0030546815 0.00043159322 0.0027604494 -0.013331909 -0.0062326835 -0.0008785486 -0.013278792 0.005675504
-0.019320695 0.013841437 -0.009614017 -3.728757e-05 -0.0034182768 -0.017578311 -0.0020119452 0.017556466
0.0015710877 -0.0009763893 -0.008221395 -0.0038355878 0.00073800475 0.0011798625 -0.008659994 0.018061494
-0.008824016 0.008429241 0.0057481267 -0.004515796 -0.007960117 0.015533384 0.0046181898 0.015035832
-0.008829347 -0.010761466 0.00079127715 0.008048617 0.019918822 0.016232146 0.003905202 -0.0042553404
-0.017186183 0.0043492164 -0.0051549613 -0.0035284588 -0.0049441084 0.005034665 -0.005194705 0.0048510917
0.00405845 -0.011333747 -0.0168853 0.012885282 -0.0039076903 0.0016628966 0.0012652498 0.0028154773
-0.012575779 -0.0051199137 -0.0047040815 -0.0018328726 0.0126669565 0.00030840354 0.004398775 -0.009114074
0.011340889 0.0038744973 -0.007029906 0.020066982 -0.006859242 -0.010343849 -0.008989172 -0.0072204918
-0.0025110915 0.000115242525 -0.00080086 0.002183561 0.021820929 -0.0016565128 0.0042048255 -0.0036332484
0.00029422165 -0.0033487747 -0.0044742892 0.004814723 0.0056348443 -0.0059730858 0.007831549 -0.00984541
0.001184436 0.005400523 0.009212756 -0.0062411265 -0.007430301 -0.008593461 -0.005772317 0.0034950231
0.0011982055 -0.0058169053 -0.011319964 0.021089433 -0.0014344077 -0.00981351 0.0044052848 0.007595246
0.0007913144 0.00094557035 0.010868442 -0.0027547046 -0.0066061644 0.0038907642 0.006153109 -0.009745952
-0.0029386284 0.0010391418 -0.00047729939 -0.012607113 0.01598349 0.019081758 -0.0022806237 -0.0059361565
0.0021713744 0.0017364215 -0.016349196 0.0024411667 -0.0014655069 0.0058059352 -0.007362575 -0.025600431
0.0011154918 0.0062737954 0.010263635 -0.012736945 0.00069705123 -0.0031869588 0.0026948461 -0.02105545
0.0032286146 -0.008702822 -0.010913969 0.0045601935 0.005439687 0.0039050826 0.016572196 -0.013613447
0.007989706 -0.0043915915 -0.00313832 0.0047101486 0.007413886 0.009230474 0.011768455 -0.028026545
0.020439474 0.021260615 0.0054044984 -0.009026068 -0.011162765 -0.005770567 0.0010230464 0.0014497611
0.01365617 -0.001325777 0.015297897 -0.0075527187 0.000868269 0.010681027 -0.0057739723 -0.006117741
-0.002309057 -0.009237975 -0.012316592 0.008377244 -0.0021956326 0.0055447305 0.014656635 -0.0032201675
0.012033413 0.0028805123 -0.011884544 0.004680203 -0.00077563606 0.012257831 0.0036804893 -0.008838891
0.016127134 0.00012491149 -0.014742761 -0.004588646 -0.008978358 -0.021330183 -0.0033542104 0.0142526105
0.00094629556 0.0018713599 0.0034509785 0.008044916 0.0032652356 -0.027228398 0.0020424933 0.0046258303

action_model._discrete_distribution.branches.1.bias f4 [2]
00000000: 2276 273e 2476 27be
0.16353658 -0.16353661

action_model._discrete_distribution.branches.2.weight f4 [3, 128]
00000000: ab7d a83b 6845 29bb 4741 3f3c 4224 403c
00000010: dc8f 963c c3b2 40bc ab90 7bbb 0233 16bb
00000020: c9fe d2ba df9d d43b ed36 09bc 21e9 0a3b
00000030: d0be 8d3c bc14 f53a 0267 d43b 78d9 a0bb
00000040: 0675 703c d229 a73b c7f9 2d3c 89ce 4e3b
00000050: 3269 13bc 1fc0 69bc 4e91 f3bb 8cf2 6aba
00000060: 36fd 0abc 6345 b7bb e8df d3bb 3a5b 133c
00000070: cd84 93bb e463 9fbc 5e85 4d3b 4be3 31bc
00000080: f2de a5bb b818 6b3c e757 01bc 0f4c 37bc
00000090: 8559 2c3c c0c6 7abc 5ba4 b03b dea7 24bc
000000a0: a242 c23b b241 0abc 16da 0ebb ae46 c43c
000000b0: 44a5 a0bb dd32 8a3c 97fe 633c 5ece 473b
000000c0: caee 9bbc 79a5 be3b 252e c53b d7d5 b53a
000000d0: 1c5a 1dba b46b 0b3c aece 8bba b8ae bc3b
000000e0: 2fdd aa3b 5792 513b 8c5f 3e3c 6212 633c
000000f0: 0d86 a9ba 1290 ad3b c2ab dbbb 90de 5ebb
00000100: 183d 263c b0a4 9c3b d816 dcb8 91ac 32bb
00000110: 5d73 6a3c 1a1d 9f3c dd50 f03b c633 34bc
00000120: 3fa2 683b 68bc 283c 3a6b 93bb 337a 573b
00000130: b50e 28bc 6d74 fd3b 70dc 843a 74f1 623b
00000140: e624 32ba 9232 a9ba 11f3 023c cd2e 5a36
00000150: 43c0 cb3b 964e 37bc a6d3 433c ea68 fdbb
00000160: 4a0b 943b f691 abbb 5cc8 163c 4a71 03bc
00000170: fb94 87bc ef3a 303c 7d12 453c a53f 0ebb
00000180: f3d1 e1bb 6d0d f939 7d72 293c d26c e039
00000190: be7c 893c 3026 a53b 6e01 4139 72ae 71ba
000001a0: 9b2d 073b 8899 613b f0e9 ec3b 0b07 cb3c
000001b0: 968c 343b 36b7 b23b 8505 78bb 2913 1dbc
000001c0: 0045 d13c c9f4 653c 1c60 8fbc 30d2 dcbb
000001d0: 6ae3 103b 95fd b53b 2274 13bb 0cc3 853c
000001e0: e021 e13b eaad a8ba 12c1 7abc 36ab 343c
000001f0: bd75 4a3d 8731 433b c137 49ba 066a 40bb
00000200: 5adc e43b 47ef 103b b859 4bbc 7baa 953a
00000210: 5a51 793c e8cd 0bbc 55c0 0a3c cc82 083c
00000220: 24eb 60ba 2cb1 21bb 27ae 2fba 173e c4bb
00000230: 93c2 f6ba 79f2 bebc e172 8e3a 033e bb3b
00000240: b6fe debb c51f cf3b 90ea 913b e30e d3ba
00000250: 503e 6b3a 0431 e6bb 1b78 42ba 50d5 2c3b
00000260: bdfb 333c 89f7 62bb 155f 013c 8c79 963b
00000270: be28 f63a 7caa 68bb cc19 6a39 ac5c 0abc
00000280: d2ad 893c 8b4e ceba 0b57 a63b 7bc2 88b9
00000290: 43d0 973b 9f7f 5bbb 1eb6 a93b ac55 2abb
000002a0: a021 103a b174 be3b 9d72 18bb f0f9 2fbc
000002b0: e7e6 02bc 519c 3a3c 59fb f93a 1eb0 233c
000002c0: 7cb5 9a3b 3575 ceba 6063 e4bc 8292 03bc
000002d0: a098 e338 0c01 a8bb 9103 1ebc cdee 423c
000002e0: aaeb e8bb 61b9 17bc ea03 0aba 1bbc 2d3a
000002f0: b41a 253c 9006 49bb 94c8 1c3b cf61 1bbc
00000300: a6dc a9bb 4057 4aba bf1c f93a d440 9b3b
00000310: d156 2ebb 6c01 97bc d451 573c 5877 523b
00000320: 96d1 0bbc 604b b13b b31a ad3c 5bd6 05bc
00000330: 36b4 ccbb aaa4 283c 3257 e23a d19c 0ebc
00000340: e100 4ebc 6993 43bc fd6f e33b c883 a63a
00000350: cf53 453b a219 213a 5540 bb3c ab0c b43b
00000360: 5233 803b a4d6 2cbc 4fda f4bb 950d 9d3b
00000370: 4252 3c3c 46d5 873c d5dc 753c 40e4 803c
00000380: 1608 273c 43d5 cdbb 23ce 8fbc 9c43 b03b
00000390: 0bb0 883c e932 403b 6c2b 9f3c acd3 793b
000003a0: 1a5f 303c d002 943a 874a ed3b 981e 4ebc
000003b0: 0858 afba 02b2 1fbb 1900 7dbc e3a2 98bb
000003c0: d435 ccba 2185 903c 1721 a03c e43e 8bbc
000003d0: d235 02bc 6fa0 9a3a 844b 2fbb 5cf9 2b3b
000003e0: 577c 38bb a083 363c b220 41bc 0b01 55ba
000003f0: 7edc 803b 8f45 8a3a 96d9 8fbc 9a57 f6bb
0.005141934 -0.0025828723 0.011673278 0.011727395 0.018379144 -0.01176137 -0.003838579 -0.0022918587
-0.001609766 0.0064885463 -0.008374912 0.0021196085 0.0173029 0.0018698196 0.006482006 -0.004908737
0.014676338 0.005101421 0.010618634 0.003155621 -0.0089972485 -0.014266997 -0.007433093 -0.0008962534
-0.008483222 -0.0055929883 -0.0064659007 0.008993918 -0.004501915 -0.019456811 0.003136001 -0.0108574135
-0.0050619775 0.014349155 -0.007894493 -0.011187567 0.01051939 -0.015306175 0.0053906864 -0.010049788
0.0059283534 -0.008438515 -0.002179747 0.023959484 -0.0049025137 0.016869957 0.013915679 0.0030487995
-0.019034762 0.0058180657 0.0060174637 0.0013872933 -0.0006002502 0.008509565 -0.0010666454 0.005758133
0.0052143554 0.0031978094 0.01161946 0.013859363 -0.0012933627 0.0052967155 -0.0067038247 -0.003400717
0.010146402 0.0047803745 -0.000104946725 -0.0027263502 0.014309731 0.019423056 0.0073338584 -0.010998672
0.0035497097 0.010298826 -0.0044988664 0.0032879233 -0.010257413 0.0077348263 0.0010136496 0.003462878
-0.00067956594 -0.0012908748 0.007992522 3.2511773e-06 0.0062179877 -0.01118817 0.011952316 -0.007733454
0.0045179473 -0.0052359058 0.009203043 -0.008022616 -0.016550532 0.010756238 0.012028334 -0.0021705416
-0.006891483 0.00047502984 0.010342238 0.00042805687 0.016783115 0.0050399527 0.00018406447 -0.0009219415
0.0020626548 0.0034423787 0.007230036 0.024783632 0.0027549616 0.0054539694 -0.0037845087 -0.009587088
0.025545597 0.014035412 -0.017501883 -0.0067389235 0.0022108206 0.005553911 -0.002249964 0.016328357
0.0068704933 -0.0012869213 -0.015304821 0.011027148 0.04942869 0.002978416 -0.00076758495 -0.002936007
0.0069842758 0.0022115277 -0.012411527 0.0011418605 0.01521715 -0.008532979 0.008468707 0.008331966
-0.00085799606 -0.0024672253 -0.0006701671 -0.005988847 -0.0018826298 -0.02330898 0.0010867977 0.0057141795
-0.0068052663 0.006320926 0.004453011 -0.0016102459 0.0008973824 -0.007024886 -0.000741841 0.0026372261
0.010985312 -0.0034632406 0.0078962045 0.0045921262 0.0018780453 -0.0035502007 0.00022325589 -0.008444946
0.016806517 -0.001573996 0.0050762943 -0.0002608484 0.004632981 -0.0033492816 0.0051791808 -0.0025991006
0.00054981746 0.0058122505 -0.0023261674 -0.010740742 -0.007989622 0.011389808 0.00190721 0.00999072
0.0047213417 -0.0015751483 -0.027879417 -0.008030536 0.00010852632 -0.005127078 -0.009644405 0.011897755
-0.0071081715 -0.009260506 -0.00052648655 0.0006627456 0.010077167 -0.0030674078 0.0023923265 -0.009483769
-0.005183774 -0.000771869 0.0019005759 0.0047379527 -0.002660204 -0.018433295 0.013142068 0.0032114591
-0.008533856 0.0054105967 0.021130895 -0.008168782 -0.0062470688 0.010293165 0.0017268418 -0.00870438
-0.012573452 -0.011937001 0.0069408403 0.0012704069 0.0030109768 0.0006145482 0.022857824 0.005494674
0.003912368 -0.010549221 -0.0074723135 0.004792879 0.011494221 0.016581189 0.015006264 0.015733838
0.010194799 -0.0062815263 -0.017554348 0.0053791534 0.016685506 0.002932722 0.019429885 0.003812055
0.0107648615 0.0011292342 0.0072415504 -0.012580536 -0.0013377676 -0.0024367576 -0.015441918 -0.0046580895
-0.0015580007 0.017641606 0.019547028 -0.016997762 -0.007947402 0.001179708 -0.0026747892 0.002624116
-0.0028150284 0.01113978 -0.01178758 -0.00081254606 0.0039325347 0.0010549295 -0.017559808 -0.007517767

action_model._discrete_distribution.branches.2.bias f4 [3]
00000000: 8037 c5bb 9a27 09bd 3278 3f3d
-0.006018579 -0.033485033 0.046745487

action_model._discrete_distribution.branches.3.weight f4 [2, 128]
00000000: 6e29 183b 6776 9eba 602f 3b3b 128f 0c3b
00000010: 208f 043c c0fe 8bbb 04f9 a6bc df25 d43b
00000020: 5fd3 263a 8f8c dc3b 93ab 61bc b161 1b3c
00000030: e2b8 84bb f635 2abb 3906 f93b 9ada b5bb
00000040: 68b6 793b 3d42 15bb 41a3 87bb 1fff dcbc
00000050: 5a67 fe3b 63ae e13b d1c3 c53b dcd5 f93c
00000060: 7a7d b33b b0e5 47bb 1b3a 10bb 4006 69bb
00000070: e79b 40bb e72a 173c 61c7 43bc 4322 a0bb
00000080: 3123 513c db59 d4bb d576 853b 0b73 ac3c
00000090: 3441 09ba 8b39 ac3b 2fbb 493c 6649 2ebc
000000a0: fa66 10bb cbf1 05bc 8772 063b 0d44 2abc
000000b0: f059 8d38 863d 6bbc 5df1 e83c 9c3c 0dbb
000000c0: 276a abbb c368 09bc f02d 33bc 6723 9a3b
000000d0: 65aa 5f3c 5cf1 beb9 8a56 96bb d083 503c
000000e0: e477 b23b 58de a1ba 44a9 2e3c a082 373c
000000f0: b8d4 01bb ff3e 273a 8105 723b 2c3a 8c3b
00000100: c08c 21ba 43f6 f5ba d1a6 9cba e9d8 583c
00000110: 4f5a f23b 6c6a 93bc a4e7 2abc f2c0 763c
00000120: 7a6a dbba 7437 933b ccf0 01bb 8b3e 30bc
00000130: de76 8ebc ecd6 123a aefe da3b 22de 83bc
00000140: d1ee 12bc 8d6f 263c 2b09 ebbb 2dc8 e1bb
00000150: 0227 ec3b 739c d03b 7554 a83b 0771 343c
00000160: 5130 f43b ac62 36bc 3bd8 5f3b 8826 103c
00000170: c9eb 0bbc 89b7 1fbb 9a3c 64b9 7803 d23a
00000180: 0dc8 9aba a67e 1c3b 5140 ba3c 8f80 2eba
00000190: f459 3d3c 9fe8 8f3b 1894 683c 81e1 843a
000001a0: 1bb2 8e3c 82c1 83bc 5bc9 0ebc 62c3 45bb
000001b0: eb7c a53b 8309 1bbc f8bb dfbb fcc1 23ba
000001c0: d50f 0fbc d88c 9c3b 1f77 b8bc d5e2 15bc
000001d0: 9955 05bc 586b 09bc 1a6a 6fbb 5800 4fbc
000001e0: 9c04 673c 3497 8a3b efe9 5cbc b268 a9bb
000001f0: 9d2e 70bb 02b8 b9bb 5fc9 233c ee77 86b9
00000200: 02d4 7a3a b598 bcb9 b06f 0cbc 0d8e ca3b
00000210: 83ad 82bc 2a5c 89bc 4f04 1e3b c377 203c
00000220: 6022 b23a cf8b acba d719 b83b 5b47 123c
00000230: bb12 9b3b b9f5 bbbb fac0 ac3b b746 48bc
00000240: ff65 693c e4a3 6139 8b3d 1abc b178 eb3c
00000250: 58f4 a7bb 4a3b 3abc f3d2 f13b b6f8 d9bc
00000260: 2a7c 033a bf20 9ebc b95e 2039 2043 21bc
00000270: 73b4 c83c 17c5 64bc 434a e4bb 4a95 8f3b
00000280: 8f32 e6bc 171d d33b 8a4e a4bc e7d4 b0bb
00000290: f0e7 5c3a b74c 8c3b 37b3 d73b 68f1 2bbc
000002a0: c663 caba 90cb 15bc 1220 a7bb efa9 bcbb
000002b0: 4301 c33b 2d18 29bb b0ba 75bc 5d4e 3a3c
000002c0: bb33 71bc 66a8 8dbb a9bd a03b ee56 c53b
000002d0: d224 8e3c fed2 c3bb d70c 91bb 784f a0bc
000002e0: 52c0 633c e7fb 113c 5240 913c 01cb 5e3c
000002f0: f7da 513a 0b2c aa3b 1e0a 383c e9e1 543b
00000300: fb6b c53c 3ece aabb e905 303b fde3 80bc
00000310: 49dc 263b f0e2 b93b 1b8f 813b 4c4c 9cbc
00000320: a398 143c 2c69 8639 eb65 18bb 2ee4 b03b
00000330: 3b99 f53b 4695 86b9 0532 3f3c 7a74 b33b
00000340: f20c 3cbb 9faa 223c 18e8 50bb 6d2b 81bb
00000350: a2fe a6bb ffdc 9ebc 0078 8dbc 3ca1 82ba
00000360: 4ee0 99bb c9da 86b9 301e ad3b 128b abba
00000370: eb53 913c 243d c53b e4f3 683b ed32 903b
00000380: 8d9d e93b 7f05 b3b9 2643 afbc 4241 843b
00000390: d80a 0abc f82e 80bb 0dfa b5bb 7e2e 08bc
000003a0: d241 0bbc 3015 343c ac12 9a3b 9682 2cbb
000003b0: 7f99 7739 f35c adbc 2041 693c 991c b3bb
000003c0: 957a ce3c 895a 50ba 5e64 e43c fc00 123a
000003d0: 47f7 9a3b d919 6eb7 5120 33bc 6892 33bc
000003e0: 0baf 37bc 02f2 8b3b 5f50 f4bb 58c4 7d3c
000003f0: 9dc7 5038 6e02 183c 0357 0ebb d2f0 ef3b
0.0023218053 -0.001208973 0.0028562173 0.0021447581 0.008090764 -0.004272312 -0.020382412 0.006474241
0.0006363894 0.006730623 -0.013773817 0.009483741 -0.00405036 -0.0025972105 0.0075996188 -0.005549741
0.0038103107 -0.0022775077 -0.0041393344 -0.02697712 0.0077637853 0.0068872436 0.006035306 0.030497484
0.0054776045 -0.0030501895 -0.002200729 -0.0035556704 -0.00293898 0.009226537 -0.011949391 -0.004886897
0.012764738 -0.006480438 0.004073004 0.02105095 -0.0005235851 0.005255883 0.012312694 -0.010637617
-0.0022034035 -0.008175324 0.002051504 -0.010392201 6.740156e-05 -0.01435793 0.028435403 -0.0021551019
-0.00523116 -0.008386794 -0.010936245 0.0047039273 0.013651465 -0.0003641945 -0.004587953 0.012726739
0.005446421 -0.0012349589 0.010660473 0.011200577 -0.0019810628 0.00063799316 0.003692955 0.0042793956
-0.0006162636 -0.0018765408 -0.0011951571 0.013235309 0.0073960195 -0.017995082 -0.010431204 0.01506065
-0.0016740107 0.0044926945 -0.0019827364 -0.010757099 -0.017390665 0.0005601484 0.006683192 -0.016097132
-0.008968071 0.010158432 -0.0071727238 -0.006890318 0.0072067985 0.0063663065 0.005137021 0.011013276
0.007452049 -0.011131924 0.0034155983 0.008798249 -0.008540102 -0.002437087 -0.0002176635 0.0016022762
-0.0011808887 0.00238792 0.022735747 -0.000665673 0.011557091 0.0043917443 0.014195465 0.0010138006
0.017418912 -0.016083483 -0.008714999 -0.0030176272 0.005050292 -0.009462717 -0.0068278275 -0.00062468625
-0.008731802 0.004777532 -0.022517739 -0.009148319 -0.008138084 -0.008387409 -0.0036531747 -0.012634359
0.01410022 0.0042294506 -0.0134835085 -0.0051699514 -0.0036648877 -0.0056676874 0.009996741 -0.00025647826
0.0009568335 -0.0003597193 -0.00857155 0.0061814846 -0.015951877 -0.01676758 0.0024111455 0.009794178
0.0013590567 -0.0013164225 0.0056183147 0.008928145 0.0047324575 -0.0057360795 0.005272028 -0.012223891
0.014245509 0.00021518726 -0.009414087 0.028744074 -0.0051255636 -0.011366675 0.0073798834 -0.026607852
0.00050157553 -0.019302724 0.00015294076 -0.009842664 0.024500107 -0.0139630055 -0.0069668605 0.0043818103
-0.02810028 0.0064426768 -0.020056982 -0.0053964737 0.00084268954 0.004281606 0.0065826434 -0.010494567
-0.0015441112 -0.009142771 -0.0051002586 -0.0057575624 0.005951078 -0.0025801763 -0.014998123 0.011371222
-0.014721806 -0.004323053 0.0049054218 0.0060223257 0.017351542 -0.00597608 -0.0044265795 -0.019569144
0.013900833 0.008910156 0.017730866 0.013598205 0.00080053456 0.0051932386 0.011232881 0.0032483286
0.02409934 -0.0052125743 0.0026858991 -0.015733713 0.002546089 0.005672805 0.003953827 -0.01907935
0.009069595 0.0002563683 -0.0023254107 0.005398295 0.007495073 -0.0002566969 0.01166964 0.0054765316
-0.002869424 0.009928375 -0.003187662 -0.0039419443 -0.0050962726 -0.019392489 -0.017269135 -0.0009966264
-0.0046959287 -0.0002572148 0.0052831396 -0.0013087711 0.01774021 0.0060192514 0.003554576 0.004400602
0.007129377 -0.00034145635 -0.021394324 0.0040360996 -0.008425437 -0.003911849 -0.00555349 -0.008311866
-0.0084995795 0.01099138 0.004701933 -0.0026322952 0.00023612937 -0.021162486 0.014236718 -0.0054660556
0.025204936 -0.0007948061 0.02787989 0.00055696047 0.004729185 -1.4191924e-05 -0.010932998 -0.010960199
-0.011211167 0.004270793 -0.00745587 0.0154887065 4.977697e-05 0.009277923 -0.0021719343 0.007322409

action_model._discrete_distribution.branches.3.bias f4 [2]
00000000: dc4d b23c e04d b2bc
0.021765642 -0.02176565
