Assets/results/OuiTankRemaster/TankLearningAI/TankLearningAI-1499952.onnx (onnx, 143120 bytes, 15 tensors)

discrete_act_size_vector f4 [1, 5]
0	0x40400000	3.0
1	0x40000000	2.0
2	0x40400000	3.0
3	0x40000000	2.0
4	0x40000000	2.0

network_body._body_endoder.seq_layers.0.weight f4 [128, 110]
0	0xbdd36fd3	-0.10324063
1	0xbe044a55	-0.1291898
2	0x3e27297c	0.16324419
3	0x3d42354b	0.047414105
4	0xbe4ebe26	-0.20189723
5	0xbc56a688	-0.013101228
6	0x3c26af6f	0.010173663
7	0x3dabb4b0	0.08384073
8	0x3d7de0bf	0.061981913
9	0x3dbf5988	0.093432486
10	0x3d3065f0	0.043065965
11	0x3c1db596	0.009625813
12	0x3db7ab6c	0.08968243
13	0xbce32a97	-0.02773027
14	0xbdf23b3c	-0.11827704
15	0x3bd8406a	0.0065994756
16	0xbcdf7463	-0.027277177
17	0xbdb8fc24	-0.09032467
18	0x3d58dd95	0.052945692
19	0x3e2265a2	0.15859082
20	0x3d7ae9bc	0.061258063
21	0xbd530e36	-0.051527224
22	0x3c34f904	0.011045698
23	0xbe25dd75	-0.1619776
24	0xbcaa0fdf	-0.020759521
25	0x3d2c96e1	0.042136077
26	0xbccfbcdb	-0.025358608
27	0xbd09c105	-0.033631343
28	0x3d2491f4	0.040178254
29	0x3d464f74	0.048415616
30	0x3b846d49	0.004041348
31	0x3e1bc5d9	0.15212192
32	0x3ddb2296	0.10699956
33	0xbe19c068	-0.15014803
34	0x3d1cebe2	0.038310893
35	0xbdcb195e	-0.09916948
36	0xbe50f029	-0.20404114
37	0xbd49719a	-0.049180605
38	0xbdaee230	-0.085392356
39	0xbd368c15	-0.044567186
40	0x3d8cd2eb	0.06876167
41	0xbe0fd562	-0.14046243
42	0x3da7405a	0.08166571
43	0xbe302ea4	-0.17205292
44	0x3dc89a8e	0.09795104
45	0x3db1291d	0.0865042
46	0x3d311d46	0.043240808
47	0x3e2b44f8	0.16725528
48	0xbdcdc7eb	-0.10047897
49	0xbd406f32	-0.046981044
50	0xbe67c974	-0.22635442
51	0x3db1b78c	0.08677587
52	0xbe1b4763	-0.1516395
53	0x3d92ffac	0.07177672
54	0x3b69d338	0.0035678875
55	0x3b8966c4	0.004193159
56	0x3da45745	0.08024458
57	0x3dffc81f	0.12489342
58	0x3c4d6890	0.012537137
59	0xbb18df78	-0.0023326557
60	0x3d5a3257	0.053270664
61	0xbb8e85f0	-0.0043494627
62	0x3dd62023	0.10455348
63	0x3d5bd71a	0.053671934
64	0x3d5c8008	0.053833038
65	0xbdc9d9b9	-0.098559804
66	0x3cf19ab4	0.029492714
67	0xbdab54e4	-0.08365801
68	0x3cb662cc	0.022263907
69	0xbe02a744	-0.1275912
70	0x3dfa47e7	0.122207455
71	0x3c00f004	0.007869724
72	0x3d93bd9b	0.07213899
73	0xbdeb4021	-0.11486841
74	0x3c9e1edf	0.01930183
75	0xbdcdf31f	-0.10056137
76	0x3d95a6a7	0.07307177
77	0x3d66dd64	0.05636348
78	0x3d2cf156	0.042222343
79	0xbe07508e	-0.13214323
80	0x3d32bc9e	0.04363691
81	0x3e5c1383	0.21491818
82	0xbdacc611	-0.08436216
83	0x3d50c7ed	0.050971914
84	0x3e6d78e7	0.23190652
85	0x3d9c6b95	0.07637707
86	0x3ceeaf2b	0.029136261
87	0x3d4a628d	0.04941039
88	0x3d92076e	0.07130323
89	0xbe35e547	-0.17763244
90	0xbbe095b2	-0.0068537826
91	0xbe4e4513	-0.20143537
92	0xbe000d84	-0.12505156
93	0xbcb9eaa5	-0.022694895
94	0xbda7bf00	-0.08190727
95	0x3d36b716	0.044608198
96	0x3dcd48c5	0.10023645
97	0xbc82f065	-0.01598377
98	0x3e4596f1	0.19295861
99	0xbdc6dcbd	-0.09710071
100	0xbaed7ba1	-0.0018118509
101	0x3c819109	0.015816228
102	0x3d3be761	0.045874957
103	0x3d585597	0.052816
104	0x3d1156f5	0.03548332
105	0x3dd8bca1	0.10582853
106	0xbe36d817	-0.17855869
107	0xbc3a31e8	-0.011364438
108	0xbde1bfc6	-0.11022906
109	0xbd5ff028	-0.05467239
110	0xbcf7d613	-0.030253446
111	0x3c9fbb4f	0.019498495
112	0xbd5ff424	-0.05467619
113	0x3d661d03	0.05618001
114	0xbde29966	-0.11064415
115	0xbcfd1054	-0.030891575
116	0xbdc554b3	-0.09635296
117	0xbdbc12fd	-0.09183309
118	0xbe0a8812	-0.13528469
119	0x3e7a6d60	0.24455786
120	0xbd3f87f7	-0.046760526
121	0x3c8f266b	0.017474374
122	0x3db4f45a	0.08835669
123	0x3d1d6beb	0.038432997
124	0xbcb0de52	-0.021590386
125	0x3e7184b3	0.23585777
126	0xbd9c2035	-0.076233305
127	0xbd960753	-0.07325616
128	0x3ce0818d	0.027405525
129	0xbb1746cb	-0.0023082967
130	0xbe245488	-0.16047871
131	0xbd8c1ee3	-0.06841829
132	0x3df3c4d8	0.11902779
133	0xbdf78324	-0.1208556
134	0x3c1e35fa	0.009656424
135	0x3cca9523	0.024729317
136	0xbd8cc370	-0.06873214
137	0xbd6423ac	-0.05569808
138	0xbd278fc5	-0.040908594
139	0x3e12497d	0.14285846
140	0xbe0bdf13	-0.13659315
141	0x3da88d1f	0.08230042
142	0xbd34dab9	-0.044153903
143	0x3d0d4ed8	0.03449902
144	0x3dfc3738	0.1231522
145	0x3ccee163	0.025253957
146	0xbe00538e	-0.12531874
147	0x3e33c88f	0.17556976
148	0xbe425173	-0.18976383
149	0xbe1aef32	-0.15130308
150	0xbe103f75	-0.14086707
151	0x3dbefdcc	0.09325752
152	0xbde11ac6	-0.10991435
153	0x3d935dea	0.07195647
154	0x3d032746	0.032019876
155	0xbcaa6aeb	-0.020802936
156	0xbbf2c071	-0.0074081947
157	0xbdfc91ac	-0.12332472
158	0x3e3e2ef1	0.18572594
159	0xbda8bdd0	-0.08239329
160	0x3d1baaec	0.0380048
161	0x3c88d93d	0.01670515
162	0xbe249e7c	-0.16076082
163	0x3db6ac99	0.08919639
164	0x3de4fe03	0.111812614
165	0xbca76399	-0.020433234
166	0x3d3c9454	0.046039894
167	0x3d834f92	0.06411661
168	0x3dd894f1	0.10575283
169	0xbe3cf7b4	-0.18453866
170	0xbcac2f15	-0.021018544
171	0xbe727e43	-0.23680978
172	0x3e0e9248	0.1392299
173	0xbd14b955	-0.03630956
174	0x3da7329c	0.0816395
175	0xbd4d3046	-0.050094865
176	0xbe233d90	-0.15941453
177	0x3cd7d17f	0.026345013
178	0xbd2b8ea6	-0.041884087
179	0x3dc2e370	0.095160365
180	0xbde6c5de	-0.11268209
181	0x3bb49fec	0.0055122282
182	0xbd729bbf	-0.059230562
183	0xbdad48ef	-0.084611766
184	0x3dd56d28	0.104212105
185	0x3d16097e	0.036630146
186	0xbd51afa2	-0.051192887
187	0x3db5190b	0.08842667
188	0xbe14d67b	-0.14534943
189	0xbe4b68f0	-0.19864249
190	0xbd2d4c5b	-0.042309146
191	0x3db9b665	0.09067992
192	0x3d0ab5ae	0.03386467
193	0x3d0e7537	0.034779754
194	0xbaa0c3b0	-0.0012265351
195	0x3b88e0f1	0.0041772057
196	0x3b90573d	0.004404931
197	0x3e599fb3	0.21252327
198	0x3d8fd2a7	0.070226006
199	0xbd8fac9e	-0.07015346
200	0x3c893f8f	0.01675394
201	0xbdfb0962	-0.12257649
202	0xbdb34cb0	-0.08754861
203	0x3ddbf15e	0.107393965
204	0x3db0fd66	0.08642082
205	0x3ccd4866	0.025058936
206	0xbcd69314	-0.02619318
207	0xbc40c65f	-0.011766045
208	0x3d34d677	0.044149842
209	0x3dd18c27	0.1023181
210	0x3dd4de07	0.10393911
211	0x3cce2350	0.025163323
212	0x3de5871e	0.11207412
213	0xbda0e7a4	-0.07856682
214	0x3dc4733f	0.09592294
215	0x3ceab8ed	0.028652633
216	0xbe44f6d0	-0.19234776
217	0x3df7c3dc	0.12097904
218	0x3d3d924f	0.04628211
219	0x3d72d914	0.059289053
220	0xbc4d7428	-0.012539901
221	0xbdc67452	-0.09690155
222	0xbe2a00fc	-0.16601938
223	0xbcde7d7c	-0.027159445
224	0xbd63889b	-0.0555502
225	0xbe184e17	-0.14873539
226	0xbe35c14e	-0.17749521
227	0xbc2521cc	-0.010078859
228	0xbb6cf81a	-0.0036158622
229	0xbd0428f5	-0.032265622
230	0x3aeb6461	0.0017958992
231	0x3e16348d	0.14668484
232	0xbe26d22c	-0.16291112
233	0xbe470c4f	-0.19438289
234	0x3d04bd6d	0.032407213
235	0xbd1173ad	-0.035510708
236	0x3d503458	0.05083117
237	0xbe1dc698	-0.15407789
238	0x3dbaada1	0.09115148
239	0x3d873055	0.066010155
240	0x3dac54ee	0.084146366
241	0xbd57f850	-0.052727044
242	0x3da0f1f7	0.07858651
243	0x3cd1f392	0.025628839
244	0x3d0100eb	0.031495016
245	0xbdc2a222	-0.09503581
246	0xbb51e2e4	-0.0032026106
247	0xbd19d497	-0.037556257
248	0xbd961005	-0.07327274
249	0x3dc5f6f4	0.09666243
250	0xbe58d738	-0.2117585
251	0x3ad9383c	0.0016572545
252	0xbd5248aa	-0.05133883
253	0x3d76e8e2	0.060280688
254	0xbd382b4a	-0.04496316
255	0xbc0d53bb	-0.00862592

network_body._body_endoder.seq_layers.0.bias f4 [128]
0	0xba6e9a14	-0.0009101939
1	0xbc020b4c	-0.007937264
2	0xb52e7229	-6.4986176e-07
3	0xbbbfe470	-0.0058560893
4	0x9e5f2469	-1.1813051e-20
5	0xbbe52b3d	-0.00699368
6	0x9a9372ba	-6.0983126e-23
7	0x1ff05c15	1.0179629e-19
8	0x3c828039	0.015930282
9	0xbca8c067	-0.020599557
10	0x3abda559	0.0014468833
11	0x9819db78	-1.988559e-24
12	0x3c631176	0.0138591435
13	0xbc0b5c9c	-0.0085059665
14	0x9de1f9c9	-5.9815276e-21
15	0xbbdf1b57	-0.006808679
16	0xbb31ec58	-0.0027148928
17	0x9ba73bf9	-2.766659e-22
18	0x27982115	4.2224343e-15
19	0xbc2e9b51	-0.0106571475
20	0x00000000	0.0
21	0x82570918	-1.5798315e-37
22	0xbc0a4e70	-0.0084415525
23	0x00000000	0.0
24	0x3953308b	0.00020140612
25	0xbc24a557	-0.010049186
26	0x00000000	0.0
27	0xbb64ed83	-0.0034931607
28	0x00000000	0.0
29	0xbc7406e1	-0.014894218
30	0xbc9541ab	-0.01821979
31	0x2ead04b6	7.867966e-11
32	0x3bcca00d	0.0062446655
33	0x3a835d2e	0.0010022277
34	0xbc10954d	-0.008824659
35	0xb1c9630a	-5.8611294e-09
36	0xb68e8664	-4.247575e-06
37	0xbc8c93a5	-0.017160246
38	0x891ecf31	-1.911598e-33
39	0x886104f8	-6.7714315e-34
40	0x0b943883	5.7092556e-32
41	0xbc3092c1	-0.010777176
42	0xba8d38fc	-0.0010774429
43	0xb6d4e897	-6.3451694e-06
44	0x0d1667a9	4.6347095e-31
45	0x00000000	0.0
46	0xbb76c31d	-0.0037652918
47	0xbbec5b52	-0.0072130347
48	0xbc45ffc6	-0.012084907
49	0xbc5e8cf4	-0.0135834105
50	0xbd06967b	-0.032858353
51	0xbb414387	-0.0029489712
52	0xa5e64c2d	-3.9950259e-16
53	0xbc5ed673	-0.013600933
54	0xbb2d9beb	-0.002649064
55	0x9be70275	-3.8217332e-22
56	0xbc0c6b33	-0.00857048
57	0xbc20a556	-0.009805044
58	0xbc624598	-0.013810538
59	0x3b7939e0	0.003802888
60	0xba4514f7	-0.00075180776
61	0x3ad0db6f	0.0015934537
62	0x00000000	0.0
63	0x9c47f7ed	-6.6164013e-22
64	0x00000000	0.0
65	0xbbf09e8f	-0.0073431204
66	0x86e8e859	-8.7610105e-35
67	0x00000000	0.0
68	0xbd1f7ef1	-0.03893942
69	0xbb9c76f0	-0.0047749206
70	0xbbc05610	-0.0058696344
71	0x3b240223	0.0025025688
72	0x85c2aaff	-1.8306486e-35
73	0x35f7138b	1.8408622e-06
74	0x3a93c145	0.0011272809
75	0x0cfa86d5	3.8599748e-31
76	0xbc5bde84	-0.013419751
77	0xbc57bb0d	-0.013167155
78	0x3c9abd6e	0.018889155
79	0x0e37df25	2.2663932e-30
80	0xbb94d720	-0.0045422465
81	0xbbcd1d80	-0.00625962
82	0x00000000	0.0
83	0x00000000	0.0
84	0x03451888	5.7921257e-37
85	0x00000000	0.0
86	0x00000000	0.0
87	0xb4d93a84	-4.0461975e-07
88	0x1131c427	1.4023282e-28
89	0xbb39ed2b	-0.0028370123
90	0xbb972970	-0.004613094
91	0x8aa61059	-1.5991368e-32
92	0x00000000	0.0
93	0x15a588f0	6.685902e-26
94	0xba069070	-0.0005133217
95	0xbc8cc64a	-0.017184395
96	0xbc02b240	-0.007977068
97	0xb5afe33b	-1.3104649e-06
98	0x3bb2953c	0.005449919
99	0xbd036f2e	-0.03208845
100	0xba672b23	-0.00088183786
101	0x3564b75b	8.5203436e-07
102	0x1bdded29	3.6714644e-22
103	0xbbd08e8b	-0.0063646487
104	0xa487dfcc	-5.8926044e-17
105	0x3b0ada91	0.0021187405
106	0xa303a79f	-7.137019e-18
107	0xbabfb079	-0.0014624737
108	0xbb96915e	-0.004594966
109	0x00000000	0.0
110	0xbd2dcfde	-0.042434566
111	0x00000000	0.0
112	0x00000000	0.0
113	0xbad65582	-0.0016352388
114	0xbb57ff64	-0.003295862
115	0xbc97d337	-0.018533332
116	0x23cc6fd3	2.2165084e-17
117	0xbca9055c	-0.020632438
118	0xbca3870a	-0.019961853
119	0x00000000	0.0
120	0xbc0596b9	-0.008153611
121	0x3bcbb7ee	0.0062169945
122	0x3c1e190d	0.009649527
123	0x9d82e5ae	-3.4648197e-21
124	0xbd1960ba	-0.03744576
125	0x999b3dbf	-1.6051563e-23
126	0xbc032056	-0.008003315
127	0xbca69438	-0.020334348

network_body._body_endoder.seq_layers.2.weight f4 [128, 128]
0	0xbd91ca59	-0.07118673
1	0x3ddafc1f	0.106926195
2	0xbe109e9b	-0.14123003
3	0xbde89049	-0.11355645
4	0x3d330d35	0.043713767
5	0x3d9976a7	0.07493334
6	0x3c9a9f8e	0.01887491
7	0x3da47968	0.08030969
8	0xbc22e780	-0.009942889
9	0xbcabc5fb	-0.020968428
10	0xbd5f12af	-0.054461177
11	0x3d69599e	0.05697023
12	0xbd8ad107	-0.0677815
13	0x3dae307f	0.08505344
14	0x3a53c897	0.00080789014
15	0x3dbd69f9	0.09248728
16	0x3e0a9733	0.1353424
17	0xbb2758ad	-0.0025535033
18	0xbd61a3bf	-0.0550878
19	0x3d45bdbf	0.04827666
20	0xbd93d0bc	-0.07217547
21	0xbce59d10	-0.028028995
22	0x3cc3616b	0.023850163
23	0xbdc313d7	-0.095252685
24	0xbafd440f	-0.0019322651
25	0x3ca07d5e	0.01959103
26	0xbe0b0e85	-0.13579758
27	0x3d3113d8	0.043231815
28	0xbbed19b4	-0.00723573
29	0xbc564591	-0.013078109
30	0x3db905be	0.09034298
31	0x3b95de1c	0.0045735966
32	0xbd61c2a0	-0.05511725
33	0xbd91d71e	-0.071211085
34	0x3d0804d1	0.03320772
35	0xbd16993d	-0.036767233
36	0x3e10ce86	0.14141282
37	0x3de4a06f	0.11163413
38	0x3c365868	0.011129476
39	0xbd40eafd	-0.047099102
40	0x3baaedbf	0.00521633
41	0x3d11feff	0.035643574
42	0x3e080e22	0.13286641
43	0xbc174eca	-0.009235093
44	0x3e6204fc	0.22072214
45	0xbcf13f13	-0.029449021
46	0x3de1e68a	0.110303
47	0xbcdd3eba	-0.02700745
48	0x3d50dd04	0.050992027
49	0xbd1ad2ee	-0.037798814
50	0xbc9e4283	-0.019318825
51	0x3d198c6b	0.03748743
52	0xbda2cc2d	-0.079491
53	0x3db45c92	0.08806719
54	0x3c247487	0.010037548
55	0xbd848fde	-0.06472753
56	0xbd6419f8	-0.05568883
57	0x3d2a99bf	0.04165053
58	0x3da76274	0.08173075
59	0xbdb4786e	-0.08812033
60	0xbdbff217	-0.09372347
61	0x3e2f8c6e	0.17143413
62	0xbdbb1459	-0.091347404
63	0xbd680546	-0.056645654
64	0xbd2d9dc2	-0.042386778
65	0xbdca802d	-0.09887729
66	0xbbb2d29b	-0.005457235
67	0xbd099f4a	-0.033599176
68	0x3d7e7b10	0.06212908
69	0xbd496196	-0.04916533
70	0x3dbe216a	0.09283717
71	0x3cea6d24	0.028616495
72	0x3e1ca799	0.15298308
73	0x3ce16fcb	0.027519127
74	0xbe328064	-0.1743179
75	0xbe3e4e19	-0.1858448
76	0x3d756c78	0.059917897
77	0xbafa7d0b	-0.0019110752
78	0xbd90c75e	-0.07069276
79	0xbd0383a6	-0.03210797
80	0x3e1905a6	0.14943561
81	0x3dd95b9a	0.10613175
82	0xbdbff052	-0.09372009
83	0xbd102a2d	-0.035196472
84	0x3c7f9e4d	0.015601707
85	0xbd5d8e06	-0.054090522
86	0x3d1b38e0	0.037896037
87	0xbd684cfc	-0.056714043
88	0xbd3e5986	-0.046472095
89	0xbd3d124a	-0.04616002
90	0xbd8eb0be	-0.06967305
91	0x3d3be97b	0.04587696
92	0x3ab50518	0.0013810722
93	0x3c44812f	0.01199369
94	0x3c0259f4	0.007956017
95	0x3cbc14a3	0.02295906
96	0xbc78d32f	-0.015187069
97	0x3cc0caea	0.023534257
98	0xbd3a5b04	-0.045496956
99	0xbd72d5cd	-0.059285928
100	0x3dc52626	0.09626417
101	0x3d43a8fb	0.047768574
102	0x3d1daba1	0.038493756
103	0x3e2fad9b	0.17156069
104	0xbde245f6	-0.110485
105	0xbd7ca9ea	-0.06168548
106	0xbc8b6957	-0.017018003
107	0x3d7e66fc	0.062109932
108	0x3d369cc9	0.044583116
109	0x3da64a7b	0.08119675
110	0x3cd6b566	0.026209544
111	0xbe3570f6	-0.17718872
112	0xbd1caf5f	-0.038253184
113	0x3de89b98	0.11357802
114	0xbd837b62	-0.06420018
115	0xbd96c8ad	-0.073624946
116	0x3ce7c4a8	0.028292015
117	0xbdba6e23	-0.09103038
118	0xbdbca3a3	-0.09210899
119	0xbdc8a892	-0.09797777
120	0xbd714356	-0.058902107
121	0x3e107f24	0.14111
122	0x3d75e5be	0.060033552
123	0xbd669477	-0.05629393
124	0x3dba77ec	0.091049045
125	0xbe0b8b63	-0.1362739
126	0xbe777ae1	-0.24167968
127	0xbbc53d4e	-0.006019271
128	0x3d7896ef	0.060690816
129	0xbe05e202	-0.13074496
130	0xbd3920aa	-0.045197167
131	0xbda8dfa1	-0.08245779
132	0xbd947cbb	-0.07250353
133	0xbcfd1a03	-0.030896192
134	0xbd70d12d	-0.058793236
135	0x3d1d523f	0.038408514
136	0xbd84ed6b	-0.064905964
137	0xbe3e0914	-0.1855815
138	0x3d52a1ea	0.051423945
139	0x3dd46c38	0.103722036
140	0xbe4efee0	-0.20214415
141	0xbe592a97	-0.21207653
142	0xbdb111aa	-0.08645947
143	0xbc05d431	-0.008168266
144	0x3e44d1ce	0.19220659
145	0x3e11ebfd	0.14250179
146	0xbd830ddc	-0.06399128
147	0x3d98c668	0.07459718
148	0x3c923bbe	0.017850753
149	0xbdd7ce8e	-0.10537444
150	0xbe13ed80	-0.14446068
151	0xbe0444d9	-0.12916888
152	0x3da53aa8	0.080678284
153	0xbd99afdf	-0.07504248
154	0x3d126dd6	0.03574928
155	0xbcd475c5	-0.025935063
156	0x3e14dd4d	0.14537545
157	0xbd227759	-0.0396646
158	0x3d5b8bbb	0.053600054
159	0xbc75fb28	-0.015013494
160	0x3e3f0387	0.1865369
161	0x3de573d0	0.1120373
162	0x3de55fc0	0.111999035
163	0xbd2eb4cf	-0.0426529
164	0xbd6e03c7	-0.05810907
165	0xbdbbf4e2	-0.09177567
166	0x3c9e87b2	0.019351814
167	0xbe12049a	-0.14259568
168	0xbd5a8c88	-0.053356677
169	0x3da39a73	0.07988443
170	0x3d1820bc	0.037140593
171	0x3bbff0f4	0.0058575813
172	0xbd0292f1	-0.031878415
173	0x3df83e5b	0.12121268
174	0x3d91cb33	0.07118835
175	0xbcc657ee	-0.02421185
176	0x3e3f6c61	0.18693687
177	0xbc9cc31b	-0.019136002
178	0x3e90de2d	0.28294507
179	0xbc89457d	-0.016756767
180	0x3c4991f8	0.012302868
181	0xbd7d0379	-0.06177089
182	0xbd8591e5	-0.06521968
183	0xbe0348e2	-0.12820771
184	0xbd88c64b	-0.066784464
185	0xbd1cacb1	-0.03825063
186	0x3ccb26ff	0.024798868
187	0xbd238879	-0.039925072
188	0x3e52b634	0.20577317
189	0x3d8378bd	0.064195134
190	0x3bbba81f	0.0057268287
191	0xbe1d6a4c	-0.1537258
192	0xbd59c7f2	-0.0531692
193	0xb8435233	-4.6568177e-05
194	0x3be13214	0.006872425
195	0x3de8bcf0	0.11364162
196	0xbd5a7f46	-0.053344034
197	0xbc0fa12d	-0.008766455
198	0xbd737b79	-0.059443925
199	0x3d1f861f	0.038946267
200	0xbe04830f	-0.1294062
201	0xbdd95e57	-0.10613697
202	0x3dcae87f	0.09907626
203	0xbe03ec8c	-0.12883204
204	0x3d76c2ba	0.0602443
205	0xbd5b48c8	-0.053536206
206	0x3d2c2ab7	0.042032924
207	0xbdc6b9c6	-0.09703402
208	0x3a924635	0.0011159839
209	0x3db877d8	0.090072334
210	0x3d1783c9	0.036990914
211	0xbd8a835c	-0.06763336
212	0xbd05513c	-0.032548174
213	0x3cbaa8ca	0.022785563
214	0x3d7f4585	0.06232216
215	0x3d6e960b	0.05824856
216	0x3e4a2061	0.19738914
217	0x3d533806	0.0515671
218	0xbc641904	-0.01392198
219	0x3dff0f11	0.124540456
220	0xbd04196b	-0.032250803
221	0xbd7fbfb1	-0.06243867
222	0x3d4868b6	0.048927985
223	0xbddb13a9	-0.10697109
224	0xbb8e3533	-0.004339838
225	0x3d2cf4ec	0.042225763
226	0xbdbe0e84	-0.092801124
227	0xbc6ecf8e	-0.014575852
228	0xbbc3656b	-0.0059630177
229	0x3da0b5d0	0.07847178
230	0xbc535daf	-0.012900754
231	0x3db5791c	0.088609904
232	0x3c7aa94b	0.015299152
233	0x3c180aa9	0.009279885
234	0x3be0a2c9	0.006855343
235	0xbdf8fe68	-0.12157899
236	0xbd40373b	-0.046927672
237	0x3df005c3	0.11719849
238	0x3d4b93fc	0.049701676
239	0xbcde5991	-0.027142318
240	0x3cfc00ed	0.03076216
241	0x3ddd26b4	0.10798398
242	0xbea952bc	-0.33070934
243	0xbe2239f9	-0.15842427
244	0x3ca2ba8d	0.019864345
245	0x3d23aa6d	0.039957453
246	0xbd56698d	-0.052346755
247	0xbdff5f2a	-0.12469323
248	0x3dbc418b	0.09192189
249	0x3e294155	0.16528828
250	0xbd95dba1	-0.073172815
251	0x3e03dfb0	0.12878299
252	0xbd45da91	-0.048304144
253	0xbc88dd75	-0.016707161
254	0x3d7c0427	0.061527397
255	0x3d8f6a98	0.07002753

network_body._body_endoder.seq_layers.2.bias f4 [128]
0	0xbbba38f6	-0.00568306
1	0xa4cd159c	-8.8941186e-17
2	0x0f283197	8.29259e-30
3	0xb78a8320	-1.6511942e-05
4	0xbc05ff13	-0.00817849
5	0xbb9e6455	-0.004833738
6	0xbb4a16e8	-0.0030836407
7	0xbc753290	-0.014965668
8	0xbaec00f0	-0.001800565
9	0xbbe83e7a	-0.007087526
10	0xbb188aa3	-0.0023275993
11	0xb808b9f3	-3.2598105e-05
12	0xbb762cbb	-0.0037563283
13	0x34b1d0e0	3.3120796e-07
14	0xadc54a28	-2.2429239e-11
15	0xb9f80109	-0.00047303017
16	0xbc2460d2	-0.010032849
17	0xbb846929	-0.0040408564
18	0xb9ce658a	-0.00039367034
19	0x15bbd064	7.585748e-26
20	0xb18ef9bd	-4.161136e-09
21	0x21a7b76b	1.136491e-18
22	0xbbb5b0fd	-0.0055447803
23	0x3018dee8	5.5614047e-10
24	0xbbeee4c8	-0.0072904564
25	0xbc9e339d	-0.01931172
26	0xbc803cf2	-0.015654061
27	0xbbe82e1b	-0.0070855743
28	0xbc495600	-0.01228857
29	0x8e05c1fc	-1.6486916e-30
30	0xbc298c0c	-0.010348331
31	0x1aba9469	7.7167567e-23
32	0xbc91ef20	-0.017814219
33	0xa25234b1	-2.8488202e-18
34	0xbbb65c43	-0.0055651977
35	0xbbdedddd	-0.0068013505
36	0xba519e42	-0.00079962995
37	0xbc1f1547	-0.009709663
38	0x12726df0	7.6497244e-28
39	0x2732b74c	2.4801828e-15
40	0xbc821d12	-0.015883002
41	0xbc3b9c7f	-0.011450886
42	0xbbf44cd0	-0.007455446
43	0x8e5fb10d	-2.7572119e-30
44	0xbc5a4fff	-0.013324737
45	0xbc30fb16	-0.010802051
46	0x3a957bb1	0.0011404661
47	0xbc6297e2	-0.013830157
48	0xbb7750bd	-0.0037737333
49	0xbb07d43a	-0.0020725862
50	0xb9a95053	-0.00032294038
51	0xb6bbf69b	-5.601743e-06
52	0xbc129cfb	-0.00894856
53	0xbc968096	-0.018371861
54	0xba92c94d	-0.0011198908
55	0xbc3a225d	-0.011360732
56	0xbbc11f63	-0.005893634
57	0xbbb38029	-0.0054779244
58	0xbc07db0b	-0.00829197
59	0xb801001c	-3.07561e-05
60	0x3990a8a0	0.00027591456
61	0x92bae3b0	-1.179438e-27
62	0x00000000	0.0
63	0x2e3528d7	4.119091e-11
64	0xbc821288	-0.015877977
65	0xbc0b0bfa	-0.008486742
66	0x2ea3586b	7.428088e-11
67	0x9e97da71	-1.6078092e-20
68	0xbbde244c	-0.0067792293
69	0xbb3507a0	-0.0027622953
70	0xbc4fc1f8	-0.012680523
71	0xbbc26869	-0.005932857
72	0xae9eb26c	-7.216702e-11
73	0xbaa9edd1	-0.0012964552
74	0xbb0740d3	-0.0020638003
75	0xbcaf725c	-0.021416835
76	0xbca6d233	-0.020363903
77	0xbc115c12	-0.008872049
78	0xbc27ebab	-0.010249059
79	0x9230b81d	-5.5762745e-28
80	0x27a89639	4.679224e-15
81	0x2b0aad20	4.926771e-13
82	0xb9039c33	-0.00012551322
83	0xb9b2675d	-0.00034027817
84	0xbc27db54	-0.010245163
85	0xbc5918f4	-0.013250578
86	0xbb958438	-0.004562881
87	0x9f9607c8	-6.3540344e-20
88	0x350c5604	5.2279233e-07
89	0xbbade80f	-0.0053072046
90	0xbc971cbb	-0.018446317
91	0x1e58506e	1.1451577e-20
92	0xbc1cb250	-0.009563997
93	0xb704f91b	-7.9258125e-06
94	0xbc4a8df6	-0.012362948
95	0x2f6650d9	2.0947101e-10
96	0xbbef95df	-0.007311567
97	0xbc80ca0a	-0.01572134
98	0xbc212b8f	-0.009837045
99	0x22308665	2.3923596e-18
100	0xbc02a9d8	-0.007975064
101	0xae30187a	-4.0039506e-11
102	0xb026e2c6	-6.071271e-10
103	0xbc417ac7	-0.011809058
104	0x253e83dd	1.652455e-16
105	0xb1ac289d	-5.010476e-09
106	0x29e436df	1.01347526e-13
107	0xbc266e7d	-0.010158178
108	0x357ec836	9.491372e-07
109	0xbb913f95	-0.0044326284
110	0xbb582f14	-0.0032987045
111	0xbc535393	-0.012898344
112	0xbc3ae5b2	-0.011407303
113	0xb33539fa	-4.2195076e-08
114	0xbc0f1a84	-0.008734349
115	0xbbfddfc9	-0.0077476245
116	0xba8156c5	-0.0009867778
117	0xbb65e9d6	-0.0035082004
118	0xbc64c132	-0.013962077
119	0xbb808a4e	-0.003922737
120	0xbb8b78fd	-0.0042563663
121	0xbc1dd8ba	-0.009634191
122	0xbc19eb15	-0.009394427
123	0xbba7d382	-0.0051216492
124	0xac89dbc5	-3.9181735e-12
125	0xbcccb51e	-0.024988707
126	0xb0e2afbd	-1.6493612e-09
127	0xbbc76516	-0.0060850484

action_model._discrete_distribution.branches.0.weight f4 [3, 128]
0	0xbb89d6aa	-0.004206498
1	0xbc00091a	-0.00781467
2	0x395e969b	0.00021227675
3	0xbba12c61	-0.0049186205
4	0x3bd73e8a	0.0065687345
5	0x3c3dcdc7	0.011584706
6	0xbbf294c0	-0.0074029863
7	0xbb27fd09	-0.0025632998
8	0x3c9b75ed	0.01897713
9	0x3bc2befc	0.0059431773
10	0x3c4faf10	0.0126760155
11	0x3a2b6bc9	0.00065391936
12	0xbc0b1237	-0.0084882295
13	0x3c2b600c	0.010459911
14	0xbbd13c37	-0.006385352
15	0x3ca91c8c	0.020643495
16	0xbc4c7360	-0.012478679
17	0xbb8a3611	-0.004217871
18	0xba939a40	-0.001126118
19	0xbbf68f93	-0.0075244396
20	0xbbe14b85	-0.0068754577
21	0x3bdf529b	0.0068152673
22	0x3c34acd2	0.011027532
23	0x3a16c24f	0.0005751
24	0x3c15e5fc	0.009149071
25	0xbbd30910	-0.0064402893
26	0xbadcff9e	-0.0016860848
27	0x3d3bb7a3	0.045829426
28	0x3c568a44	0.0130944885
29	0xb9f09a48	-0.00045891316
30	0x3b3aea41	0.0028520974
31	0x3c281819	0.010259652
32	0x3b646b5b	0.0034854028
33	0x39c0e913	0.00036794748
34	0x3ae4a183	0.0017443154
35	0x3b8898c6	0.0041686026
36	0xbc351566	-0.011052465
37	0x3c445379	0.011982792
38	0x3c00f278	0.007870309
39	0x3c6996f2	0.01425718
40	0xbaaf350a	-0.0013367247
41	0xbc574a60	-0.013140291
42	0x3c507059	0.012722098
43	0x3c2c1325	0.010502611
44	0x3b255ca7	0.0025232227
45	0x3c1d5aff	0.009604215
46	0x3c05e8b7	0.008173159
47	0xbb9abbea	-0.004722108
48	0x3c116a2c	0.008875411
49	0x3d8040b4	0.06262341
50	0x3c05ac13	0.0081587015
51	0x38d627b4	0.000102117105
52	0xbaa97f82	-0.0012931677
53	0x3b24e22a	0.0025159218
54	0xbc7f64d2	-0.015588002
55	0x3baf63ab	0.0053524575
56	0x3b058173	0.0020371347
57	0xbc80af73	-0.01570866
58	0xbbc559a6	-0.00602265
59	0xbc938106	-0.01800586
60	0x3a729d67	0.0009255022
61	0x3cab3c4f	0.02090278
62	0xbb1fa473	-0.0024359494
63	0x3c0114ea	0.007878521
64	0xbaa59574	-0.0012633041
65	0xbb4bae8a	-0.0031079375
66	0x3bc61850	0.0060453787
67	0x3b03e9df	0.0020128412
68	0xbaa2ccd1	-0.0012420659
69	0x3c2035d9	0.009778463
70	0x3c0b13e6	0.008488631
71	0xbb94f43c	-0.0045457166
72	0xbaa96cc2	-0.0012926089
73	0xbc00be89	-0.007857927
74	0xbc33e0f2	-0.010978924
75	0xbabd65c9	-0.001444989
76	0x3af12079	0.0018396518
77	0xbb0469c0	-0.0020204633
78	0xb97bf9d8	-0.000240303
79	0xbafff5ef	-0.001952825
80	0xbc0af8a5	-0.008482133
81	0x3c45637b	0.012047644
82	0x39bf2011	0.0003645425
83	0xbc36b2f8	-0.011151068
84	0xbb78bc84	-0.003795416
85	0xbb0fe68a	-0.002195748
86	0xbb7caab8	-0.0038553905
87	0xbbed1255	-0.0072348514
88	0xbb74c6c6	-0.0037349924
89	0xbbfb33d1	-0.007666089
90	0x3c0f431d	0.008744028
91	0x3b801be2	0.003909574
92	0x3c048b98	0.008089922
93	0x3b8c1999	0.0042755124
94	0x3bb7d77a	0.0056104036
95	0xba842446	-0.0010081611
96	0xba13a1aa	-0.0005631695
97	0x3bdbae5a	0.006704134
98	0x3a34afce	0.0006892652
99	0x3c89b950	0.016811997
100	0xbc2fc2dd	-0.010727611
101	0x3c99ec1d	0.018789345
102	0x3c1a59b9	0.009420806
103	0xba69c744	-0.00089179375
104	0xba979962	-0.0011566097
105	0x3aad7770	0.0013234448
106	0x3c03c717	0.008043072
107	0x3992c02e	0.00027990475
108	0xb9352a3a	-0.00017277236
109	0xbb972a97	-0.0046132314
110	0xbbcb49d0	-0.0062038675
111	0xbc21290a	-0.009836445
112	0x3c021f5e	0.007942049
113	0xbb67c83d	-0.0035367154
114	0x3b969452	0.004595318
115	0xba1f227f	-0.0006070509
116	0x3afd71e5	0.0019336311
117	0x3bd235e3	0.006415115
118	0xbb1b46b8	-0.0023693275
119	0x3c9d4fee	0.019203153
120	0x3b15a6e6	0.0022835075
121	0xbba0676f	-0.0048951427
122	0x3c3508c0	0.011049449
123	0x3c7f0bfe	0.015566824
124	0x3c23af39	0.009990507
125	0x379292ba	1.7472881e-05
126	0x3b03609b	0.0020046595
127	0x3c3def48	0.011592694
128	0xba9341c2	-0.0011234807
129	0xbc6132f5	-0.013745059
130	0x3c809693	0.0156968
131	0x3ca458bf	0.020061849
132	0x3c1ab2b7	0.009442023
133	0xbb32b19f	-0.0027266515
134	0xbc3a3b00	-0.011366606
135	0xbc4ccde9	-0.012500265
136	0xbba2c72b	-0.0049675903
137	0xbbc8f715	-0.00613297
138	0x3b56a668	0.0032752994
139	0xbcaa752f	-0.02080783
140	0x3c948630	0.018130392
141	0x39507a15	0.00019881905
142	0xbb1f29ce	-0.0024286392
143	0xbb0e5406	-0.0021717562
144	0xb964baac	-0.00021813315
145	0x3b8d0be8	0.004304398
146	0xbc14c2fd	-0.009079692
147	0xbc317109	-0.010830172
148	0x3bba2f8e	0.0056819385
149	0xbb81f43a	-0.0039658817
150	0x3c2af86c	0.010435205
151	0xbbf2e263	-0.0074122413
152	0xba8ebccd	-0.0010890007
153	0x3c8ef074	0.017448641
154	0x3b0ccd1f	0.0021484566
155	0xbcc2d8b3	-0.02378497
156	0xbc57ed45	-0.013179128
157	0x3bc0f869	0.005888988
158	0xbc0282e7	-0.00796578
159	0xbbd36beb	-0.006452074
160	0x3a89af6c	0.001050455
161	0xba87edab	-0.0010370513
162	0xbba5a8ff	-0.0050555463
163	0xbb8f6314	-0.0043758247
164	0xbc7dec6b	-0.015498261
165	0xbc2f61e9	-0.010704496
166	0xb9532730	-0.00020137127
167	0xbc4f916b	-0.012668948
168	0xbc0b6a1d	-0.008509186
169	0xba3c0112	-0.00071717903
170	0x3cd06a08	0.025441185
171	0xbbcfd72a	-0.006342788
172	0x3bf24c6a	0.007394363
173	0xbc56bfb2	-0.013107227
174	0xbc869918	-0.016430423
175	0x3c1acaaa	0.009447733
176	0x390ae56c	0.00013246172
177	0xbd218285	-0.039431114
178	0xbc12c9e3	-0.008959266
179	0x3abd10b1	0.001442453
180	0xbc4f81de	-0.01266524
181	0x3cb7087a	0.02234291
182	0x3c23fb7c	0.010008689
183	0x3b71956f	0.003686275
184	0xbc211b45	-0.009833162
185	0x3c23e425	0.010003124
186	0x3ab45b19	0.0013760059
187	0xbb9afad1	-0.0047296067
188	0xbabb3b48	-0.0014284635
189	0x3b7b4322	0.0038339575
190	0x3b4a9739	0.003091289
191	0xbb4ee44f	-0.0031569188
192	0xbab8cb07	-0.0014098593
193	0xbc90ccb5	-0.017675737
194	0x3baf4ffa	0.00535011
195	0xbba1ec50	-0.0049415007
196	0xbb850767	-0.0040597203
197	0xbba6e1fd	-0.005092858
198	0x3c2014d7	0.009770594
199	0x3bfffdf5	0.0078122565
200	0xbce00b85	-0.027349243
201	0xb9417201	-0.00018448384
202	0xbc9a2e58	-0.018820927
203	0xbb54cfee	-0.0032472569
204	0x3b5389e1	0.0032278227
205	0xbb99bc5d	-0.004691644
206	0xba01e9eb	-0.0004955816
207	0x3c28d188	0.010303862
208	0x3a622dcd	0.00086280407
209	0x3a353b36	0.0006913425
210	0x3b86aee8	0.004110206
211	0x3cb53b24	0.022122927
212	0x3bf5ad37	0.0074974555
213	0xbc40c202	-0.011765005
214	0xbbe1022b	-0.0068667135
215	0x3c07e432	0.008294152
216	0x3c4acd96	0.012378117
217	0xbc9bad0b	-0.019003412
218	0x3b968707	0.004593733
219	0x3c180245	0.009277885
220	0x3a01ca46	0.00049511006
221	0x39831fcd	0.0002500996
222	0xbbfcc343	-0.0077137067
223	0x3ab6b691	0.0013939907
224	0xbbacf341	-0.0052780216
225	0x3c1dbd46	0.009627646
226	0xbc5ed250	-0.013599947
227	0x3b5450af	0.0032396724
228	0xbc81f3c3	-0.015863305
229	0xbb917dd2	-0.004440048
230	0xbb30e551	-0.0026992152
231	0x3c4b95bb	0.012425835
232	0xba894fd3	-0.001047606
233	0x3b311ec5	0.0027026397
234	0xbbafac43	-0.0053611114
235	0x3b5a183d	0.0033278607
236	0xbbca1199	-0.0061666486
237	0xbc184978	-0.00929486
238	0xbc801d5f	-0.015639005
239	0x3b0edff1	0.002180096
240	0xbbd01db1	-0.0063511957
241	0xb94471e7	-0.00018734449
242	0xbbe6634f	-0.0070308815
243	0xbbee501b	-0.007272733
244	0xbbb94cc1	-0.0056549017
245	0xbbf90a3c	-0.007600097
246	0x3c0a393a	0.008436495
247	0x3a858266	0.0010185956
248	0xbbda7e08	-0.006667856
249	0xbc096c9e	-0.008387713
250	0xbb88906c	-0.004167607
251	0xbc31761a	-0.01083138
252	0xb86cdc43	-5.647192e-05
253	0x3bd3847a	0.0064550014
254	0xbbe2fca1	-0.0069270884
255	0xbc0f65ea	-0.008752326

action_model._discrete_distribution.branches.0.bias f4 [3]
0	0xbb8d6fa9	-0.0043162894
1	0xb954763f	-0.00020261946
2	0x3c03f2b7	0.008053473

action_model._discrete_distribution.branches.1.weight f4 [2, 128]
0	0x3bbf1baa	0.0058321552
1	0xbb0eee1b	-0.0021809402
2	0xbaa8418f	-0.0012836921
3	0xbc89388d	-0.016750598
4	0xba8d0097	-0.0010757622
5	0x3bac18dc	0.005251987
6	0xbc08cff7	-0.008350364
7	0x3b96b0de	0.004598721
8	0xbbe6cc3e	-0.0070433905
9	0x3c656d3f	0.014003097
10	0x3b94bbcd	0.004538989
11	0xbb5e238c	-0.00338957
12	0x3ba4e964	0.005032705
13	0xbb5c40d4	-0.0033607977
14	0x3c2b5853	0.01045807
15	0x3be24833	0.0069055795
16	0xbc090a8a	-0.008364329
17	0xbaf92b16	-0.0019010033
18	0xbc2c5190	-0.010517493
19	0xbc3abfcb	-0.011398266
20	0xbc1d7f69	-0.0096128965
21	0xbc12a3f0	-0.008950219
22	0x3bb012e0	0.005373344
23	0xbb1abd1f	-0.002361126
24	0x3c8524b2	0.01625285
25	0x3aaf2c69	0.0013364676
26	0xba2d1d67	-0.00066038076
27	0xbbfd8186	-0.0077363877
28	0xbc9c649a	-0.01909094
29	0x3c404aec	0.011736613
30	0x3af006ea	0.0018312607
31	0x3bc0e55f	0.005886718
32	0xbadc72ef	-0.0016818921
33	0x3c43e031	0.011955307
34	0x3a9248f2	0.0011160655
35	0x3b234f41	0.0024919065
36	0xbb1e120d	-0.0024119646
37	0xbbec3a08	-0.0072090663
38	0xbc027771	-0.007963047
39	0x3a714f6a	0.0009205254
40	0xbb56db5a	-0.0032784552
41	0xbb71e522	-0.0036910255
42	0xbbbd55bc	-0.0057780426
43	0x3b8400a2	0.0040283957
44	0xbc22b560	-0.0099309385
45	0xbc44663f	-0.011987268
46	0x3b5e9d7d	0.0033968382
47	0xba0802ff	-0.0005188435
48	0xbc38d0eb	-0.011280279
49	0x3c77b58d	0.015118969
50	0x3c34bbd2	0.011031108
51	0xbbca4a35	-0.006173397
52	0x3c2ec0f5	0.010666122
53	0x3b50f44f	0.00318839
54	0x3c835c7e	0.016035315
55	0x3b9d3eb5	0.004798735
56	0x3c2d8d3f	0.010592758
57	0x3c237b9c	0.009978201
58	0x3b298adb	0.0025870118
59	0xbbc6eef4	-0.006070966
60	0xbb979ad1	-0.00462661
61	0xbba4bbea	-0.005027284
62	0xbbd7fbe0	-0.006591305
63	0xbc77680a	-0.015100488
64	0x3b956e2b	0.004560252
65	0x3aa00203	0.0012207631
66	0xbc1b3c43	-0.009474817
67	0x3afbc47d	0.0019208338
68	0x3c5c6b7d	0.013453362
69	0xbba10f04	-0.00491512
70	0x3c35e369	0.011101582
71	0x3b157a32	0.002280843
72	0x3c37591b	0.011190678
73	0xbbcb2ccd	-0.006200409
74	0x3c12ce0b	0.008960257
75	0x3bda632b	0.006664654
76	0x3a8339e3	0.0010011758
77	0xbc18fbd0	-0.0093373805
78	0xbbc0954b	-0.005877172
79	0xbc491b92	-0.01227464
80	0xbbecc620	-0.007225767
81	0xbc92daa4	-0.017926522
82	0xbb479683	-0.0030454702
83	0xb9cf8641	-0.00039582144
84	0x3bfd1486	0.007723394
85	0xbc2d0bdc	-0.0105619095
86	0xbc4fea07	-0.012690074
87	0x3c24650f	0.01003386
88	0xbb810759	-0.0039376435
89	0x3b67d383	0.0035373874
90	0xbc11d5a6	-0.008901035
91	0x3b002957	0.001955589
92	0x395730a8	0.00020522124
93	0xbbe020bf	-0.006839841
94	0xbb98e990	-0.0046665147
95	0x3bae42f1	0.0053180386
96	0xbb746c5e	-0.0037296037
97	0xbb731c68	-0.003709579
98	0xba4e5ea7	-0.00078723807
99	0x3ca4adc0	0.020102382
100	0xbaf951ce	-0.0019021572
101	0xbbdbacf6	-0.006703968
102	0x3abb0581	0.0014268608
103	0xbbe814e7	-0.00708257
104	0x3b91feb7	0.004455413
105	0xbc7864bc	-0.015160736
106	0x3b17f782	0.0023188298
107	0x3c46a058	0.01212319
108	0x3c448c5a	0.011996353
109	0x3bf5f01f	0.0075054313
110	0x3c012db0	0.007884428
111	0xbb0310e3	-0.001999908
112	0x3ad449d2	0.0016196317
113	0x3c0c56dc	0.008565631
114	0x3b603b95	0.00342152
115	0x3bda2135	0.0066567906
116	0x3c2d7cb9	0.010588818
117	0x3b1c597c	0.0023857048
118	0x3ca02eff	0.01955366
119	0xbb3d8bf5	-0.0028922532
120	0xbb43d798	-0.0029883143
121	0xbc6f3359	-0.014599645
122	0x3c30a105	0.010780578
123	0x3bd73472	0.0065675313
124	0xbbd886b2	-0.006607854
125	0x3bbeb295	0.0058196285
126	0xbb991f93	-0.0046729534
127	0x3c7bcb10	0.015368238
128	0x3ba03d5c	0.004890127
129	0x3b8db43b	0.0043244637
130	0x3c4dfbb2	0.012572216
131	0xbb30acef	-0.0026958545
132	0x3b9115d5	0.0044276514
133	0x3c4f26b7	0.012643508
134	0xbc1f0518	-0.009705804
135	0x3ba50d6a	0.0050369995
136	0xbbe456eb	-0.0069683692
137	0xbb9f6f27	-0.0048655453
138	0x3bdb3bc7	0.0066904756
139	0x3b50cbe0	0.00318598
140	0xbbc7b4ed	-0.006094566
141	0xbbfa0f5c	-0.0076312255
142	0x3b7fd7c3	0.0039038516
143	0x3c8a6470	0.016893595
144	0xbc05b15a	-0.00815996
145	0xbc421aaa	-0.0118471775
146	0xbbc3782a	-0.0059652524
147	0xbb8c1dd3	-0.0042760163
148	0x3c311991	0.010809318
149	0xbc2f898e	-0.010713948
150	0x3aa79415	0.0012785221
151	0xbc392c85	-0.011302118
152	0xbb9d1131	-0.004793309
153	0x3a77e2a7	0.0009456076
154	0xbbeefc2f	-0.007293246
155	0xbb737f90	-0.003715489
156	0x3bb29185	0.005449476
157	0xbb92983f	-0.0044737156
158	0xbb71d5b5	-0.003690106
159	0xba73f2a5	-0.0009305871
160	0xbb9e3535	-0.00482812
161	0xba5b5870	-0.0008367365
162	0x3c647c5f	0.013945668
163	0xbc50c894	-0.012743134
164	0x39f3fd66	0.00046537368
165	0x3c1b30d2	0.009472089
166	0x3c42aa9f	0.0118815
167	0x3cbb970a	0.02289917
168	0x3c55d20c	0.013050567
169	0xbb1b9f9a	-0.0023746253
170	0xbbaf14d9	-0.0053430614
171	0x3c020a4f	0.007937028
172	0x3a802de0	0.0009779297
173	0xbb16bc0f	-0.0023000275
174	0xbb6051a6	-0.0034228354
175	0xbb62192f	-0.0034499874
176	0x3c2ccdec	0.0105471425
177	0xbabfc026	-0.0014629408
178	0xbbf72148	-0.007541809
179	0x3bfb618f	0.007671542
180	0x3c33ed71	0.010981903
181	0xba6509dc	-0.0008737126
182	0x3af91760	0.0019004159
183	0xbae96230	-0.0017805751
184	0x3ba1de6f	0.004939846
185	0xbc7738fb	-0.015089269
186	0xbb42538e	-0.0029651853
187	0x3bff00ee	0.0077820932
188	0xbb4a59e3	-0.003087633
189	0x3be55c88	0.006999556
190	0xbbaa288c	-0.005192822
191	0xbc3bfbcf	-0.01147361
192	0x3b806022	0.00391771
193	0xbbaa7b4a	-0.0052026855
194	0x3911f3db	0.00013919121
195	0x3a8d335f	0.0010772756
196	0xbbbaa0e7	-0.0056954506
197	0xbb60ac0b	-0.0034282233
198	0x3bb4d648	0.0055187084
199	0x3b413eb0	0.0029486828
200	0x3c60b523	0.013715061
201	0x3bca8c7c	0.006181298
202	0x3776bf11	1.4707229e-05
203	0x3b205a7d	0.0024467998
204	0xbaa00b9b	-0.001221049
205	0xbbfd74f2	-0.0077348882
206	0x3c8b0cb7	0.016973836
207	0xbc371571	-0.011174546
208	0x3b8f10c1	0.004366011
209	0x3b305915	0.0026908566
210	0xb9b56188	-0.00034595677
211	0x3b594ffb	0.0033159244
212	0x3bb8b4f2	0.0056368047
213	0x3ac5cf11	0.0015091618
214	0xbc8b26c6	-0.016986262
215	0x3b45b6f7	0.003016887
216	0xbc53d8da	-0.012930119
217	0x3ba0fa54	0.004912654
218	0xbb08a815	-0.0020852138
219	0x3b6a02db	0.0035707268
220	0xbc093b9a	-0.0083760265
221	0x3cbb1392	0.02283648
222	0xbb98bbe2	-0.0046610693
223	0xbc686562	-0.014184328
224	0xba6c6973	-0.00090183987
225	0x3c178f0a	0.009250412
226	0x3a1a12db	0.00058774435
227	0xbbc2f2f5	-0.005949373
228	0x39c07bca	0.00036713324
229	0x3c2766db	0.010217394
230	0x3c006de0	0.007838696
231	0xba99ad57	-0.0011724633
232	0x3c310510	0.01080443
233	0xbc5ff9fe	-0.013670443
234	0x3c281b75	0.0102604525
235	0x3c39f7e0	0.011350602
236	0x39f34836	0.00046402373
237	0xbc98a88a	-0.018635053
238	0xbc0e9322	-0.008702071
239	0x3c0911cf	0.008366062
240	0xbbe79b84	-0.0070680995
241	0xba1123de	-0.00055366557
242	0x3b8b1e0c	0.004245525
243	0x3bd53715	0.0065068104
244	0xbadee062	-0.0017004127
245	0x3c2fb63f	0.010724603
246	0xbba22554	-0.0049482975
247	0xba1f4605	-0.00060758024
248	0xbbec4988	-0.007210914
249	0x3a922790	0.0011150707
250	0x3c477792	0.012174504
251	0x3b793991	0.0038028697
252	0x3c5b384d	0.013380122
253	0x3ab6346a	0.0013901119
254	0x3bd2a739	0.006428626
255	0xbc410068	-0.011779882

action_model._discrete_distribution.branches.1.bias f4 [2]
0	0x3bd53648	0.006506715
1	0xbbd53643	-0.0065067126

action_model._discrete_distribution.branches.2.weight f4 [3, 128]
0	0x3be5459d	0.006996824
1	0x3c864183	0.01638866
2	0x3b3e4b5b	0.0029036615
3	0x3c09f30f	0.008419766
4	0xbc179927	-0.009252823
5	0x3c0a122a	0.008427182
6	0x3b68db84	0.0035531232
7	0xb9deabb4	-0.00042471068
8	0x3bf96ad9	0.007611614
9	0x38d3159a	0.00010065288
10	0xbbd4dd67	-0.00649612
11	0x3cce860e	0.025210407
12	0x3b368352	0.002784927
13	0xb9a4e021	-0.00031447507
14	0x3aa1d869	0.001234782
15	0xbbe51ac0	-0.0069917142
16	0x3c510a40	0.012758791
17	0x3be6387a	0.0070257755
18	0xbca64405	-0.020296106
19	0xbb7c8b00	-0.0038535
20	0x3b8f26ad	0.004368624
21	0xbb7b586d	-0.0038352266
22	0xba32230f	-0.0006795385
23	0xbb641ffa	-0.0034809099
24	0xbb7ed4a3	-0.0038884066
25	0x3b21044e	0.0024569216
26	0x3ba32b38	0.0049795173
27	0x3b433b0a	0.0029789829
28	0xbc2dd59c	-0.0106100105
29	0x3aa9400b	0.0012912763
30	0x3baf0cb3	0.00534209
31	0xbbbf6d88	-0.0058419146
32	0x3a54026d	0.00080875197
33	0xbb0637f9	-0.002048014
34	0x3be97f02	0.007125736
35	0xbbceb9fc	-0.006308792
36	0x3b1f7a19	0.002433425
37	0xbb81cea6	-0.003961402
38	0xb992c7cb	-0.00027996147
39	0xbae23ced	-0.0017260589
40	0xbbb2c834	-0.005455995
41	0xbc07c034	-0.008285571
42	0x3aeb1772	0.0017936064
43	0xbc9c6c66	-0.019094657
44	0xbb959c15	-0.0045657256
45	0xbb99c06d	-0.0046921284
46	0x38ac6b4e	8.221586e-05
47	0x3b0cf821	0.00215102
48	0xbb8d5095	-0.0043125846
49	0xbc4eac53	-0.0126143275
50	0x3b83f98f	0.0040275524
51	0xbbff8276	-0.0077975346
52	0xbaec0fa4	-0.0018010032
53	0x3be476ba	0.006972161
54	0x3a849000	0.0010113716
55	0xba946a28	-0.0011323141
56	0xbc634fb2	-0.013873981
57	0x3a5b2e1f	0.00083610596
58	0xbb2c2924	-0.002626964
59	0x3c066536	0.0082028415
60	0x3b3f336b	0.0029174935
61	0x3a104555	0.00055034953
62	0x3c532f1d	0.012889651
63	0x3c420bdd	0.011843649
64	0xbb7f3fbf	-0.0038947908
65	0x3ae307f0	0.0017321091
66	0x3b807904	0.003920676
67	0x3be3bdd3	0.006950119
68	0x3a515012	0.00079846487
69	0xba601b4b	-0.0008548989
70	0x3b6c766f	0.0036081334
71	0xb9700855	-0.00022891288
72	0x3c40ff48	0.011779614
73	0x3a90a8b0	0.0011036601
74	0xbb98aeb5	-0.0046594986
75	0x3badc14d	0.0053025843
76	0x3af28a12	0.0018504283
77	0x3bfb8c86	0.007676664
78	0xbbbcda84	-0.005763354
79	0xbc10b692	-0.008832591
80	0xbcc0cd5b	-0.023535421
81	0x3bba64ab	0.00568827
82	0x3b9bd609	0.0047557396
83	0x3b8a3b83	0.00421852
84	0x3c94b415	0.018152276
85	0x3c270862	0.01019487
86	0xbbcdd909	-0.006281976
87	0x368ccccb	4.196166e-06
88	0x3b996b8f	0.0046820114
89	0x3a74a608	0.0009332602
90	0x3b42e6c0	0.0029739588
91	0x3c5006ca	0.012696931
92	0xbba41f98	-0.005008649
93	0x3b943442	0.004522831
94	0xbc195b73	-0.009360182
95	0x3bca6628	0.0061767288
96	0xbad7d4b3	-0.0016466588
97	0x3b0485f3	0.0020221442
98	0x3b803d3b	0.0039135492
99	0x3aeb0bc2	0.0017932581
100	0xb81a72dc	-3.6823432e-05
101	0xbbb7b231	-0.005605959
102	0xbb96f6fe	-0.0046070805
103	0xbb4b1ee7	-0.003099376
104	0xbc18dd0b	-0.0093300445
105	0x3c3a8b5a	0.011385763
106	0x3bea8435	0.0071568736
107	0xbbe04fbd	-0.006845443
108	0xb9f81454	-0.00047317392
109	0x3a47f690	0.0007627988
110	0x3b12d979	0.0022407456
111	0xbc2dea7e	-0.010614989
112	0xbb3cdbe9	-0.00288176
113	0x3c289bd3	0.010291058
114	0x3bf235b9	0.007391658
115	0x3c9bcff0	0.01902005
116	0xbc36e4dc	-0.011162963
117	0xbb15608b	-0.002279314
118	0x3ae6c4bf	0.0017606242
119	0xbab3c0b3	-0.0013714045
120	0xbbb60e62	-0.005555914
121	0x3a949dd8	0.0011338545
122	0x3c9182a5	0.017762491
123	0x3b27c857	0.002560159
124	0xbc09aeda	-0.008403504
125	0xbbd2e002	-0.006435395
126	0xba6c544b	-0.0009015246
127	0xbc13f8e5	-0.009031509
128	0x3b485169	0.0030566102
129	0xbb916c9a	-0.004437995
130	0x3bda330b	0.006658917
131	0xbbbabf0d	-0.0056990446
132	0xbbfa7dfc	-0.007644413
133	0x3c371d49	0.011176416
134	0xbba7b047	-0.0051174494
135	0xba927ee7	-0.0011176736
136	0x3baf330a	0.0053466605
137	0xbb72a218	-0.0037022885
138	0xbbc016aa	-0.0058620768
139	0x3c58887d	0.013216135
140	0x3c43e5b4	0.011956621
141	0xb930aa59	-0.00016848127
142	0x3a074c7a	0.0005161237
143	0x3a5e22a2	0.00084737886
144	0xbb9460d1	-0.004528143
145	0x3bf7c077	0.0075607854
146	0xbbfee51c	-0.007778777
147	0xbbe7e350	-0.0070766583
148	0xbb1e4e0e	-0.002415541
149	0x3ade40cd	0.0016956568
150	0xbbfc53fa	-0.0077004405
151	0xbc5021a0	-0.012703329
152	0xbc82f14a	-0.015984196
153	0x3a8a219c	0.0010538581
154	0xbb779d4f	-0.0037782972
155	0xbc9ce967	-0.019154264
156	0xba5c8cf4	-0.00084133376
157	0x3c35bd4f	0.011092498
158	0xbbcf74a7	-0.0063310447
159	0x3ba584cd	0.0050512315
160	0xbb976d9b	-0.0046212203
161	0x3c1176b2	0.008878397
162	0x3c1fa8e8	0.00974486
163	0x3be9846c	0.0071263816
164	0xb919f888	-0.00014683802
165	0xbb44314b	-0.0029936607
166	0xbc5371df	-0.012905567
167	0x3bb8a357	0.005634706
168	0xba8b5401	-0.0010629894
169	0xbb570bb6	-0.0032813377
170	0x3b08bdae	0.002086501
171	0xb9db2cbf	-0.00041804273
172	0xbc307b3c	-0.010771569
173	0xbbdf38e8	-0.0068122037
174	0xbbf99d1d	-0.0076176063
175	0x3c4409b0	0.0119652
176	0xbb269bb5	-0.0025422398
177	0x3c5c2001	0.013435365
178	0x3bc4ecfa	0.006009695
179	0xbbc4d759	-0.0060071168
180	0xbb485c7c	-0.0030572703
181	0x3b1b48cc	0.0023694513
182	0x3b593983	0.0033145852
183	0xb9d3bd6a	-0.0004038618
184	0x3b5fa1c1	0.0034123512
185	0x3bd4dfce	0.006496406
186	0xbb809dcc	-0.003925061
187	0x3a892737	0.0010463957
188	0xbc0551e5	-0.008137201
189	0xbb2cda45	-0.0026375216
190	0x3c6effb2	0.01458733
191	0x3bf60b08	0.0075086392
192	0xbbad6b9e	-0.00529237
193	0xbbd79a96	-0.0065797074
194	0x3c4bffd7	0.012451134
195	0xb8cd9cf3	-9.804396e-05
196	0xbb26724c	-0.0025397716
197	0x3c6fef3a	0.014644438
198	0x3a9ee423	0.0012122433
199	0xbc0f3480	-0.008740544
200	0x3c060faa	0.008182446
201	0xbc3ec6af	-0.01164405
202	0x3bd27d05	0.006423595
203	0xb9344690	-0.00017192424
204	0xbc32c6ea	-0.010911683
205	0xba870e36	-0.0010303918
206	0xbbc386ac	-0.005966982
207	0x3bb5f6fa	0.0055531235
208	0x3ab57935	0.0013845327
209	0xbb4ed7ad	-0.0031561658
210	0x3bed13fa	0.0072350474
211	0xbc265753	-0.010152656
212	0xbbf6f05a	-0.0075359764
213	0x3c2e1689	0.01062549
214	0xbc6d961d	-0.014501122
215	0x3c1b632c	0.009484094
216	0xbc9d502a	-0.019203264
217	0xbc1cf982	-0.009580972
218	0x3a841005	0.0010075575
219	0x3b0db0b7	0.0021620223
220	0xbba5487f	-0.0050440426
221	0xbba6631f	-0.005077734
222	0xbc6b4138	-0.014358811
223	0x3c0a4af4	0.008440722
224	0x3b972239	0.004612234
225	0x3c182186	0.009285336
226	0x38b9700e	8.842359e-05
227	0xbc7148cf	-0.014726832
228	0x3bb9aae0	0.005666122
229	0x3c69a563	0.014260623
230	0xbaca12e5	-0.0015417008
231	0x3c11af67	0.008891917
232	0xbab00f91	-0.0013432374
233	0x3c048a76	0.008089652
234	0x3ba52be3	0.005040632
235	0xbbaf2e8b	-0.0053461245
236	0xbc2cd5b6	-0.0105489995
237	0x398e342e	0.00027123227
238	0xbc365b2d	-0.011130136
239	0x3be9de18	0.0071370713
240	0xbbc55b9a	-0.0060228826
241	0x3b7987e3	0.003807538
242	0x3b9d0758	0.004792135
243	0x3c39f1eb	0.011349182
244	0xbc318240	-0.010834277
245	0x3c151831	0.009100006
246	0xbb5e904c	-0.003396052
247	0x3b91691c	0.004437579
248	0x3af31c46	0.0018547855
249	0xbc2e0c1c	-0.010623004
250	0x3b9bf586	0.0047594933
251	0x3b9ad7c6	0.004725429
252	0x3cabe77b	0.020984402
253	0x3c1d2af5	0.009592761
254	0x3b3ba522	0.0028632362
255	0x3c943443	0.018091327

action_model._discrete_distribution.branches.2.bias f4 [3]
0	0x3a086db9	0.0005204338
1	0xbaedaa07	-0.0018132337
2	0x3b1125c1	0.0022147747

action_model._discrete_distribution.branches.3.weight f4 [2, 128]
0	0x3be3a7ef	0.0069475095
1	0x3bd80c27	0.0065932455
2	0xbb0580e7	-0.0020371021
3	0x3ad26dd6	0.0016054462
4	0xbb1fc53d	-0.0024379038
5	0xbc064cd8	-0.008197032
6	0xbc23ddc7	-0.010001606
7	0xbbd0c066	-0.006370592
8	0xbb4775c6	-0.0030435189
9	0x3c678cb3	0.014132666
10	0x3b11b330	0.0022232048
11	0xbc1ae5ad	-0.009454173
12	0xbc18c6bf	-0.0093247285
13	0x3a303615	0.0006721926
14	0xbc20ed77	-0.009822241
15	0xbba77037	-0.0051098126
16	0xbc098ab7	-0.008394889
17	0xb91dc560	-0.00015046215
18	0xbbb65c5c	-0.0055652093
19	0x3c4893c0	0.012242258
20	0x3c5a124f	0.013310029
21	0x3c3e0fa7	0.0116004115
22	0xbc45fd7a	-0.012084359
23	0x3b809b8b	0.003924792
24	0x3bce81d2	0.006302097
25	0x3b48b646	0.0030626222
26	0x3be6ab4a	0.007039462
27	0x3bfc07f2	0.007691377
28	0xbbce7076	-0.0063000275
29	0xbc94bc36	-0.018156152
30	0xbc213c6f	-0.009841069
31	0xbb32be30	-0.0027274005
32	0xbc3cac46	-0.011515683
33	0x3b4c8b62	0.0031211008
34	0xb912d372	-0.00014002415
35	0xbb8369cf	-0.004010416
36	0xbb39dbe5	-0.0028359827
37	0x3b123f48	0.002231555
38	0xbc3b716e	-0.011440618
39	0x3c0ef359	0.008725011
40	0xbb7ef71f	-0.003890462
41	0x3b9569af	0.0045597176
42	0x3c029d91	0.007972137
43	0xbb180f03	-0.0023202307
44	0x3c02a8bc	0.0079748
45	0xbb931432	-0.0044884915
46	0xbc50f22e	-0.012753053
47	0xbc45f98f	-0.012083425
48	0x3ace6f5d	0.0015749742
49	0x3b43f6cd	0.0029901743
50	0xbbdcd70a	-0.006739502
51	0x3ae54daf	0.0017494465
52	0xbbc29fe7	-0.005939472
53	0x3beb7cbb	0.0071865
54	0x3bb65961	0.005564854
55	0x3bbdf3e8	0.005796898
56	0x3b382be9	0.0028102344
57	0xbb88d3d0	-0.0041756406
58	0x3c00cd53	0.007861453
59	0x3c272276	0.010201087
60	0xbc613399	-0.013745212
61	0xbc325829	-0.010885277
62	0xbca7a5e7	-0.02046485
63	0xbc500a97	-0.012697837
64	0xb981e739	-0.00024777072
65	0xbc32359e	-0.010877041
66	0x3c75b813	0.0149975
67	0xbc7f1ec8	-0.015571304
68	0x3c53124b	0.012882779
69	0x3bc9c99a	0.006158066
70	0xbbe43931	-0.0069648256
71	0x3b3af600	0.0028527975
72	0xb8908d53	-6.892779e-05
73	0x3a2a6d1b	0.00065012433
74	0xbb8b909b	-0.0042591817
75	0x3c1a662d	0.009423775
76	0xb9baf01f	-0.0003565559
77	0x388fdd97	6.860046e-05
78	0x3bea9b39	0.0071596173
79	0xbb50b55b	-0.0031846378
80	0xbb6a8ada	-0.0035788328
81	0xbc3c28df	-0.011484354
82	0x3b759887	0.0037474947
83	0x3a47f380	0.0007627532
84	0xbb7e59f9	-0.0038810952
85	0x3c0c658a	0.008569131
86	0xbc3936f7	-0.011304609
87	0xba33dfff	-0.0006861686
88	0xbb069ef9	-0.0020541532
89	0x3bd1548f	0.006388254
90	0xb947a6e8	-0.00019040296
91	0xbc27e8f7	-0.010248414
92	0x3a27a86e	0.00063956424
93	0xbc793c9c	-0.015212204
94	0xbc49091a	-0.012270236
95	0x3a1aa715	0.0005899531
96	0x3b8821e6	0.0041544316
97	0xbb44d5d5	-0.003003468
98	0xbc2f05f9	-0.010682576
99	0x3bd0f2c8	0.006376598
100	0xbbe3ae98	-0.0069483034
101	0xbb34b2f4	-0.0027572485
102	0x3c647b86	0.013945466
103	0x3c201da4	0.009772692
104	0xba8e26bf	-0.0010845287
105	0x3befa5af	0.007313452
106	0x3bb9b12c	0.0056668725
107	0xbc36e6c2	-0.011163415
108	0xbb69baf2	-0.0035664407
109	0xbca950e2	-0.02066845
110	0x3bd9480d	0.0066309036
111	0x3a7949c8	0.00095095905
112	0x3b927622	0.004469649
113	0x3c4818b9	0.012212926
114	0xbb8bb0fd	-0.004263042
115	0xb85e23ad	-5.296215e-05
116	0xba0a64dd	-0.0005279312
117	0xbb4a2f10	-0.0030850805
118	0xbc639711	-0.0138909975
119	0xbb92e71e	-0.0044831177
120	0xba16a577	-0.0005746702
121	0x3c28de0a	0.0103068445
122	0x3acde622	0.0015708844
123	0xb8701ec5	-5.7249115e-05
124	0xbc52b182	-0.012859704
125	0xbc2a5419	-0.010396027
126	0x3b74591b	0.0037284556
127	0xbcb0d912	-0.021587882
128	0x3c88d304	0.016702183
129	0xbb6cea1f	-0.003615029
130	0x3ba94cbf	0.0051666196
131	0x3bfac4e8	0.0076528676
132	0x3ab32bfe	0.0013669727
133	0xbb197078	-0.0023412984
134	0x3b412df3	0.002947685
135	0xbbba1fc4	-0.0056800563
136	0xbba058a6	-0.00489338
137	0x3c7eb435	0.015545894
138	0x3bc494cd	0.0059991837
139	0x3b2b2461	0.0026114213
140	0x3c83fdc6	0.01611222
141	0xba8b9280	-0.0010648519
142	0x3c1736a4	0.009229336
143	0xbbeb8ce7	-0.0071884277
144	0xbc13c17c	-0.009018298
145	0x39849e62	0.00025295006
146	0xbc915ef4	-0.017745472
147	0x3a7dacc5	0.0009676929
148	0x3b9c0605	0.00476146
149	0xbbe1b7a0	-0.006888345
150	0xbaa11ae2	-0.0012291337
151	0xbc7f31bd	-0.015575823
152	0x3bdde590	0.0067717507
153	0xbac7c806	-0.0015242107
154	0x3b8b2d87	0.0042473706
155	0xbbf6c0a9	-0.007530291
156	0xbbadade1	-0.005300269
157	0xbc74c7f7	-0.014940253
158	0xbbb8fb47	-0.005645189
159	0xba4d39eb	-0.000782876
160	0x3b5a0b88	0.0033271033
161	0xbc5d2df2	-0.013499724
162	0xb8bae844	-8.912434e-05
163	0xbc0f130e	-0.00873257
164	0x3bb06c6c	0.0053840186
165	0xbb2c9df5	-0.0026339267
166	0x3d16c398	0.036807626
167	0x39332f5a	0.0001708841
168	0x3b773fa5	0.0037727144
169	0x3b4372b3	0.0029823005
170	0x3b9558a7	0.0045576873
171	0xbb32a49a	-0.0027258755
172	0x3bc1f7a7	0.005919415
173	0x3c06578f	0.0081995865
174	0xbbbefdcf	-0.005828596
175	0xbc7f85e1	-0.015595884
176	0xbc7a0c3f	-0.015261709
177	0x3adbd02b	0.0016770413
178	0xbc0af4e4	-0.008481238
179	0x3b163cd5	0.0022924442
180	0xbb2875a6	-0.002570489
181	0xbbdc04c1	-0.006714434
182	0xbab17324	-0.0013538343
183	0x3b781008	0.0037851352
184	0x3b8e6bcb	0.004346346
185	0x3b84851a	0.0040441873
186	0x3b96f8e9	0.004607309
187	0x3b8aa74a	0.004231368
188	0x3adb3092	0.0016722849
189	0x3b94bc28	0.0045390315
190	0x3cb7ebe3	0.022451347
191	0xbc10a4c9	-0.00882835
192	0x3bd71f6c	0.006565025
193	0x380ba7e5	3.3296546e-05
194	0x396a90aa	0.0002236987
195	0xbc20b4ad	-0.009808701
196	0x3c26efb6	0.0101889875
197	0xbc16d69d	-0.009206441
198	0xbc03f6cb	-0.0080544455
199	0x395f7393	0.00021309992
200	0xbc4f9217	-0.012669108
201	0xbc00d3f2	-0.007863032
202	0x3b92ef38	0.0044840835
203	0x3b5e79b4	0.0033947052
204	0x3b92d57e	0.0044810167
205	0x3b9dfb15	0.004821191
206	0x3c815dc8	0.015791789
207	0xbc5ee59b	-0.013604547
208	0xbc339282	-0.010960223
209	0x3b576dff	0.003287196
210	0xbc587885	-0.013212328
211	0xbc532d9a	-0.01288929
212	0x3bc2240b	0.005924707
213	0x3baff0fb	0.0053693033
214	0x3b93a817	0.004506122
215	0xb9c54f54	-0.00037633872
216	0x3b9b7ea6	0.0047453223
217	0x3bf1cf7f	0.007379472
218	0xb9ceb5a6	-0.0003942672
219	0xb937caac	-0.00017527741
220	0x3b5b3b10	0.0033451952
221	0xbc6b3f26	-0.0143583175
222	0xbbd47f32	-0.0064848894
223	0xbacaf6fd	-0.0015484985
224	0xbbb7fad3	-0.0056146174
225	0xb942b08d	-0.00018567052
226	0xbc17d415	-0.009266873
227	0xbc2fc2a4	-0.010727558
228	0x3a89ab17	0.0010503259
229	0x3bc5f059	0.0060406146
230	0xbb9835a1	-0.004645065
231	0x3a14cd6d	0.0005676363
232	0xb89c51c2	-7.453888e-05
233	0xbb74b840	-0.0037341267
234	0x3bdf1b1f	0.006808653
235	0xbafb5ecf	-0.0019178035
236	0xbc5901fc	-0.013245102
237	0xbb373e2a	-0.0027960637
238	0x3b9b7970	0.004744701
239	0x3bf9743f	0.0076127346
240	0x3b68fc6b	0.0035550843
241	0xbbf7dca6	-0.007564145
242	0xbb1fcea3	-0.002438464
243	0x39e0e870	0.0004289779
244	0xbcbc4fa7	-0.0229872
245	0x3a1ba544	0.0005937407
246	0xbbd77108	-0.0065747537
247	0x3a9931bf	0.0011687799
248	0xbb939b8a	-0.0045046257
249	0xbbd8ca8a	-0.0066159414
250	0xbbff3e97	-0.0077894437
251	0x3bce2ddd	0.0062920884
252	0xbc2e49ee	-0.010637743
253	0xbae07c2a	-0.0017126848
254	0xbc46a200	-0.012123585
255	0x3c5843e4	0.01319978

action_model._discrete_distribution.branches.3.bias f4 [2]
0	0xbb95fe97	-0.0045774686
1	0x3b95fe9a	0.00457747
