Assets/results/OuiTankRemaster/TankLearningAI/TankLearningAI-2999962.pt (torch, 787494 bytes, 58 tensors)

discrete_act_size_vector f4 [1, 5]
3.0 2.0 3.0 2.0 2.0
00000000: 0000 4040 0000 0040 0000 4040 0000 0040
00000010: 0000 0040

network_body._body_endoder.seq_layers.0.weight f4 [128, 110]
-0.30525875 -0.20269695 0.16324419 0.057328627 -0.21724455 -0.021616988 0.010173663 0.082523845
0.012254863 0.09604698 0.043065965 -0.021484561 0.08968243 -0.062484268 -0.11508291 0.004837425
-0.06797846 -0.09032467 0.076142676 0.15962386 0.0632902 -0.14408664 0.011045698 -0.21448164
-0.017202102 0.037710197 -0.053745303 -0.033631343 -0.012810908 0.05275147 0.0071610734 0.15248814
0.10699956 -0.17481676 0.041893512 -0.12238198 -0.26770106 -0.049180605 -0.13705024 -0.04086745
0.07426105 -0.059143115 0.08092549 -0.20495813 0.15138544 -0.19468671 0.024939867 0.16794392
-0.08936875 -0.046358056 -0.2222537 0.20185353 -0.15874715 -0.0057467576 -0.035743173 0.032694317
0.08306783 0.13269912 0.044194464 -0.0058520557 0.0708257 -0.027679423 0.10312958 0.00032248645
0.04131018 -0.16817845 0.0055089486 -0.08270048 0.024733372 -0.15242387 0.2694404 -0.044344943
0.05688721 -0.3022082 0.1956137 -0.16397381 0.07622656 0.05272565 0.15005939 -0.32572946
0.10991194 0.15035738 -0.084603645 -0.027854161 0.14784501 0.09475539 0.041567486 0.04575066
0.21137114 -0.265977 -0.04906604 -0.1682511 -0.12871125 0.11737299 -0.17025194 0.0023960194
0.13342084 -0.01754344 0.19295861 -0.09554111 -0.0018118509 0.015816228 0.045874957 0.07161202
0.03548332 0.108087085 -0.2548795 -0.011364438 -0.270073 -0.06024896 0.12158512 0.09231455
-0.05467619 0.020880751 -0.024312127 0.022814166 -0.09635296 -0.118913315 -0.13015106 0.28518283
-0.046760526 0.002202605 0.08835669 0.059680484 -0.026799869 0.23318434 -0.059171423 -0.07325616
0.04244307 -0.006358416 -0.1666474 -0.0832614 0.11902779 -0.13789333 0.0074368957 0.026604615
-0.049956437 -0.05569808 -0.029883904 0.13895206 -0.13942121 0.08038718 -0.044153903 0.006732221
0.12069678 0.033553462 -0.10991987 0.17556976 -0.19953796 -0.15448253 -0.13872351 0.10760371
-0.11003791 0.09469722 0.026494483 -0.027421514 0.0032769835 -0.11928973 0.17025763 -0.08757552
0.049698364 0.024216825 -0.16624352 0.07234901 0.065564394 0.048013885 0.061812952 0.07166169
0.11788625 -0.19275464 -0.009766997 -0.27321732 0.13882893 -0.07488533 0.048153404 -0.011809027
-0.15860717 0.028323084 -0.06149005 0.083390705 -0.08709364 -0.03987085 -0.05225415 -0.20039497
0.12092604 0.04831576 -0.04929536 0.09149531 -0.19087026 -0.19358416 -0.053787537 0.045689072
0.033895507 0.041979715 0.050011806 -0.03088228 -0.0010097848 0.21581712 0.11970735 -0.028398879
-0.03183071 -0.12769005 -0.08425467 0.15687576 0.12817554 -0.023525618 -0.03130669 -0.008319662
0.044149842 0.098871835 0.10393911 0.025163323 0.11207412 -0.0710313 0.09592294 0.025460996
-0.2731494 0.12097904 0.0039568404 0.07015221 -0.012539901 -0.09690155 -0.16601938 -0.027159445
-0.0555502 -0.14873539 -0.17749521 -0.010078859 -0.0036158552 -0.032265622 0.0017958992 0.14668484
-0.16291112 -0.19438289 0.032407213 -0.035510708 0.05083117 -0.15407789 0.09115148 0.066010155
0.084146366 -0.052727044 0.07858651 0.025628839 0.031495016 -0.09503581 -0.0032025794 -0.037556257
-0.07327274 0.09666243 -0.2117585 0.0016572557 -0.05133883 0.060280688 -0.04496316 -0.00862592
00000000: e04a 9cbe ca8f 4fbe 7c29 273e 6cd1 6a3d
00000010: 5b75 5ebe 1c16 b1bc 6faf 263c 4302 a93d
00000020: 9fc8 483c 47b4 c43d f065 303d 6400 b0bc
00000030: 6cab b73d 81ef 7fbd 97b0 ebbd 4383 9e3b
00000040: 4a38 8bbd 24fc b8bd b1f0 9b3d 7074 233e
00000050: 4b9e 813d 738b 13be 04f9 343c 13a1 5bbe
00000060: 6ceb 8cbc 0276 1a3d 0924 5cbd 05c1 09bd
00000070: d8e4 51bc ed11 583d 70a7 ea3b da25 1c3e
00000080: 9622 db3d 2a03 33be 8898 2b3d 67a3 fabd
00000090: 1d10 89be 9a71 49bd e656 0cbe a164 27bd
000000a0: 2d16 983d 0d40 72bd 43bc a53d 8be0 51be
000000b0: c904 1b3e f45b 47be b14e cc3c 7ef9 2b3e
000000c0: f706 b7bd f2e1 3dbd 7996 63be b1b2 4e3e
000000d0: 9d8e 22be 4c4f bcbb 6f67 12bd 7aea 053d
000000e0: 771f aa3d 47e2 073e 4105 353d 9ac2 bfbb
000000f0: 110d 913d f5bf e2bc 9a35 d33d 6613 a939
00000100: dd34 293d f936 2cbe 6984 b43b df5e a9bd
00000110: a49d ca3c 0115 1cbe 18f4 893e 0ba3 35bd
00000120: 9002 693d 08bb 9abe f54e 483e c0e8 27be
00000130: ac1c 9c3d daf6 573d 2ba9 193e 03c6 a6be
00000140: 8319 e13d 49f7 193e ad44 adbd 692e e4bc
00000150: af64 173e 1d0f c23d ab42 2a3d 0b65 3b3d
00000160: ad71 583e 232e 88be 79f9 48bd 044a 2cbe
00000170: e2cc 03be 4061 f03d 8656 2ebe 8906 1d3b
00000180: 799f 083e 43b7 8fbc f196 453e 0fab c3bd
00000190: a17b edba 0991 813c 61e7 3b3d 53a9 923d
000001a0: f556 113d c35c dd3d 917f 82be e831 3abc
000001b0: 0247 8abe 9dc7 76bd 9f01 f93d 690f bd3d
000001c0: 24f4 5fbd 1c0e ab3c 3a2a c7bc c6e4 ba3c
000001d0: b354 c5bd d388 f3bd 5246 05be 7c03 923e
000001e0: f787 3fbd 9459 103b 5af4 b43d 8673 743d
000001f0: 668b dbbc e0c7 6e3e bc5d 72bd 5307 96bd
00000200: c9d8 2d3d 425a d0bb 9ea5 2abe f484 aabd
00000210: d8c4 f33d e933 0dbe 34b1 f33b ecf1 d93c
00000220: 1f9f 4cbd ac23 64bd 17cf f4bc 7349 0e3e
00000230: 6fc4 0ebe 09a2 a43d b9da 34bd f799 dc3b
00000240: e02f f73d 5b6f 093d ab1d e1bd 8fc8 333e
00000250: ae53 4cbe ab30 1ebe 890d 0ebe 555f dc3d
00000260: 8e5b e1bd 9ef0 c13d f50a d93c 15a3 e0bc
00000270: a9c2 563b 2d4e f4bd 0458 2e3e cb5a b3bd
00000280: 8390 4b3d 5d62 c63c be3b 2abe b82b 943d
00000290: a046 863d 35aa 443d 942f 7d3d 5dc3 923d
000002a0: 596e f13d 7961 45be c105 20bc 24e3 8bbe
000002b0: 2c29 0e3e 7b5d 99bd 813c 453d a67a 41bc
000002c0: eb69 22be d005 e83c fedc 7bbd bfc8 aa3d
000002d0: 265e b2bd 9e4f 23bd 7308 56bd 5734 4dbe
000002e0: 12a8 f73d bfe6 453d eee9 49bd e561 bb3d
000002f0: 7e73 43be ed3a 46be 5250 5cbd 7724 3b3d
00000300: 04d6 0a3d ecf2 2b3d 2ed9 4c3d d6fc fcbc
00000310: c15a 84ba 2aff 5c3e 2129 f53d c4a4 e8bc
00000320: eb60 02bd 2ec1 02be b68d acbd 0aa4 203e
00000330: 7340 033e ccb8 c0bc 723b 00bd 314f 08bc
00000340: 77d6 343d 517d ca3d 07de d43d 5023 ce3c
00000350: 1e87 e53d dc78 91bd 3f73 c43d 9493 d03c
00000360: 3dda 8bbe dcc3 f73d 62a8 813b f6ab 8f3d
00000370: 2874 4dbc 5274 c6bd fc00 2abe 7c7d debc
00000380: 9b88 63bd 174e 18be 4ec1 35be cc21 25bc
00000390: fcf7 6cbb f528 04bd 6164 eb3a 8d34 163e
000003a0: 2cd2 26be 4f0c 47be 6dbd 043d ad73 11bd
000003b0: 5834 503d 98c6 1dbe a1ad ba3d 5530 873d
000003c0: ee54 ac3d 50f8 57bd f7f1 a03d 92f3 d13c
000003d0: eb00 013d 22a2 c2bd 5ee2 51bb 97d4 19bd
000003e0: 0510 96bd f4f6 c53d 38d7 58be 4638 d93a
000003f0: aa48 52bd e2e8 763d 4a2b 38bd bb53 0dbc

network_body._body_endoder.seq_layers.0.bias f4 [128]
0.0006495577 -0.011382214 -5.2127854e-07 -0.018060328 -2.4107037e-20 -0.013211433 -6.2972564e-23 6.704663e-20
0.01794521 -0.030307978 -0.00660751 -3.72692e-24 0.012592095 -0.01076014 -6.367132e-21 -0.009064338
-0.0027070683 -4.698052e-22 3.709402e-15 -0.015464295 0.0 -8.6133965e-37 -0.008665668 0.0
0.0010094056 -0.012747901 0.0 -0.0052225445 0.0 -0.019069124 -0.027342899 7.868839e-11
0.0057521323 2.7404263e-05 -0.010223702 -5.860905e-09 -4.261612e-06 -0.021308256 -1.9922754e-33 6.021481e-34
5.907979e-32 -0.014967013 -0.0032186124 -4.090476e-06 2.1981168e-31 0.0 -0.006358955 -0.011789357
-0.012882068 -0.01679229 -0.034170765 -0.0041523683 -1.7134641e-16 -0.020119341 -0.0037010228 -7.875349e-22
-0.011112985 -0.015025009 -0.01638623 0.0009910703 -0.0028465043 -0.011462508 0.0 -6.866311e-22
0.0 -0.011713502 -1.0156036e-34 0.0 -0.042589307 -0.0045013637 -0.009030467 -0.0019892056
-2.0858183e-35 2.8885902e-06 -0.0012598231 9.596061e-31 -0.018397644 -0.015909718 0.019042775 2.2644471e-30
-0.0042250995 -0.0088139875 0.0 0.0 9.308852e-37 0.0 0.0 -9.346995e-07
1.5144597e-28 -0.005999996 -0.0055055963 -1.5991368e-32 0.0 1.0002612e-25 -0.0041525955 -0.024520114
-0.009642574 -1.3722135e-06 0.0039749644 -0.04216648 -0.0020069983 -4.1160606e-06 3.681913e-22 -0.010903798
-6.165507e-17 0.0008371091 -7.292301e-18 -0.0014369765 -0.007299164 0.0 -0.05546094 0.0
0.0 -0.00497241 -0.00927304 -0.025414461 4.8221946e-17 -0.023436738 -0.029361002 0.0
-0.00819923 0.009121535 0.008933191 -3.5460583e-21 -0.04038666 -1.6052106e-23 -0.018497609 -0.025428964
00000000: 1447 2a3a 777c 3abc fded 0bb5 41f3 93bc
00000010: 3daf e39e c474 58bc 2142 989a 334f 9e1f
00000020: d501 933c 7048 f8bc d083 d8bb a12d 9098
00000030: 134f 4e3c 4c4b 30bc 1f8b f09d 9782 14bc
00000040: 1269 31bb 6bfd 0d9c 32a5 8527 f45d 7dbc
00000050: 0000 0000 a28c 9283 72fa 0dbc 0000 0000
00000060: 084e 843a 92dc 50bc 0000 0000 e121 abbb
00000070: 0000 0000 da36 9cbc 37fe dfbc a009 ad2e
00000080: 627c bc3b 35e2 e537 5081 27bc 1161 c9b1
00000090: f8fe 8eb6 a78e aebc 0383 2589 1819 4808
000000a0: 4161 990b 3438 75bc 5bef 52bb ec40 89b6
000000b0: 7baa 8e0c 0000 0000 c85e d0bb 2628 41bc
000000c0: 4f0f 53bc fc8f 89bc a5f6 0bbd 9710 88bb
000000d0: 898c 45a5 51d1 a4bc dc8c 72bb 9004 6e9c
000000e0: 3d13 36bc 752b 76bc 6a3c 86bc cde6 813a
000000f0: 6b8c 3abb 3ecd 3bbc 0000 0000 8285 4f9c
00000100: 0000 0000 fde9 3fbc 33ff 0687 0000 0000
00000110: 2072 2ebd 2d80 93bb 86f4 13bc 555d 02bb
00000120: 60cd dd85 9ad9 4136 a620 a5ba 7ab4 9b0d
00000130: a8b6 96bc 1955 82bc 98ff 9b3c bab6 370e
00000140: b472 8abb 8b68 10bc 0000 0000 0000 0000
00000150: c561 9e03 0000 0000 0000 0000 0fe8 7ab5
00000160: 07fb 3f11 9d9b c4bb 4a68 b4bb 5910 a68a
00000170: 0000 0000 16a7 f715 7f12 88bb 68de c8bc
00000180: e3fb 1dbc e62c b8b5 6b40 823b c2b6 2cbd
00000190: d887 03bb b11c 8ab6 d88e de1b d8a5 32bc
000001a0: bb2a 8ea4 7171 5b3a eb84 06a3 ee58 bcba
000001b0: d32d efbb 0000 0000 032b 63bd 0000 0000
000001c0: 0000 0000 99ef a2bb f3ed 17bc fd31 d0bc
000001d0: 6d62 5e24 67fe bfbc 7c86 f0bc 0000 0000
000001e0: 1056 06bc 7e72 153c 855c 123c 5ff7 859d
000001f0: 7b6c 25bd 173f 9b99 4c88 97bc 6750 d0bc

network_body._body_endoder.seq_layers.2.weight f4 [128, 128]
-0.07147781 0.10645996 -0.14123003 -0.11402212 0.043713767 0.07461801 0.01887491 0.08030969
-0.0108435415 -0.02134637 -0.055111494 0.05697023 -0.06850606 0.08456389 0.00080789014 0.09252699
0.1353424 -0.0025535033 -0.0550878 0.047899283 -0.07217547 -0.028028995 0.023737492 -0.095252685
-0.0024113401 0.019299326 -0.13579758 0.04270339 -0.00723573 -0.013529299 0.08991757 0.0045735966
-0.055684257 -0.07170177 0.03321854 -0.036767233 0.14141282 0.1111784 0.011129476 -0.047099102
0.00521633 0.035199665 0.13227437 -0.009235093 0.22072214 -0.029449021 0.110303134 -0.027257867
0.05056359 -0.038249787 -0.019719671 0.037042085 -0.079491 0.08765451 0.01002289 -0.06472753
-0.055998787 0.041615263 0.08136261 -0.08870633 -0.09429004 0.17106584 -0.091347404 -0.056645654
-0.042386778 -0.09935464 -0.005457235 -0.033599176 0.06171777 -0.0497142 0.09232421 0.027896164
0.15298308 0.027519142 -0.174815 -0.1858448 0.05945181 -0.0022556095 -0.072929814 -0.03210797
0.14943561 0.105678745 -0.09372009 -0.035196472 0.015601707 -0.054090522 0.037896037 -0.056714043
-0.046472095 -0.046144836 -0.07029868 0.04587696 0.0013810722 0.01199369 0.007952698 0.022951426
-0.015690774 0.023534257 -0.046160854 -0.059576865 0.09638085 0.047768574 0.038493756 0.17098816
-0.110485 -0.062067773 -0.017018003 0.062113684 0.04413107 0.08119675 0.025993884 -0.17718872
-0.038253184 0.11423156 -0.064738534 -0.07402837 0.028292015 -0.09148387 -0.092562445 -0.09797777
-0.058902107 0.1403911 0.059413932 -0.05629393 0.09067723 -0.1362739 -0.24214578 -0.006403552
0.060690816 -0.13074496 -0.045197167 -0.08245779 -0.07250353 -0.030896192 -0.058793236 0.038408514
-0.064905964 -0.1855815 0.051423945 0.103722036 -0.20214415 -0.21207653 -0.08645947 -0.008168266
0.19220659 0.14250179 -0.06399128 0.07459718 0.017850753 -0.10537444 -0.14446068 -0.12916888
0.080678284 -0.07504248 0.03574928 -0.025935063 0.14537545 -0.0396646 0.053600054 -0.015013494
0.1865369 0.1120373 0.111999035 -0.0426529 -0.05810907 -0.09177567 0.019351814 -0.14259568
-0.053356677 0.07988443 0.037140593 0.0058575813 -0.031878415 0.12121268 0.07118835 -0.02421185
0.18693687 -0.019136002 0.28294507 -0.016756767 0.012302868 -0.06177089 -0.06521968 -0.12820771
-0.066784464 -0.03825063 0.024798868 -0.039925072 0.20577317 0.064195134 0.0057268287 -0.1537258
-0.0531692 -4.6568177e-05 0.006872425 0.11364162 -0.053344034 -0.008766455 -0.059443925 0.038946267
-0.1294062 -0.10613697 0.09907626 -0.12883204 0.0602443 -0.053536206 0.042032924 -0.09703402
0.0011159839 0.090072334 0.036990914 -0.06763336 -0.032548174 0.022785563 0.06232216 0.05824856
0.19738914 0.0515671 -0.01392198 0.124540456 -0.032250803 -0.06243867 0.048927985 -0.10697109
-0.004339838 0.042225763 -0.092801124 -0.014575852 -0.0059630177 0.07847178 -0.012900754 0.088609904
0.015299152 0.009279885 0.006855343 -0.12157899 -0.046927672 0.11719849 0.049701676 -0.027142318
0.03076216 0.10798398 -0.33070934 -0.15842427 0.019864345 0.039957453 -0.052346755 -0.12469323
0.09192189 0.16528828 -0.073172815 0.12878299 -0.048304144 -0.016707161 0.061527397 0.07002753
00000000: f562 92bd ae07 da3d 9b9e 10be 6e84 e9bd
00000010: 350d 333d 54d1 983d 8e9f 9a3c 6879 a43d
00000020: 1ca9 31bc 95de aebc 97bc 61bd 9e59 693d
00000030: e84c 8cbd d52f ad3d 97c8 533a ca7e bd3d
00000040: 3397 0a3e ad58 27bb bfa3 61bd 0a32 443d
00000050: bcd0 93bd 109d e5bc 2175 c23c d713 c3bd
00000060: 9307 1ebb 9f19 9e3c 850e 0bbe c0e9 2e3d
00000070: b419 edbb fea9 5dbc b426 b83d 1cde 953b
00000080: 2d15 64bd 61d8 92bd 2a10 083d 3d99 16bd
00000090: 86ce 103e 80b1 e33d 6858 363c fdea 40bd
000000a0: bfed aa3b 862d 103d ef72 073e ca4e 17bc
000000b0: fc04 623e 133f f1bc 9ce6 e13d e44b dfbc
000000c0: c41b 4f3d cfab 1cbd 268b a1bc 71b9 173d
000000d0: 2dcc a2bd 3584 b33d 0c37 243c de8f 84bd
000000e0: fc5e 65bd c474 2a3d 71a1 a63d aaab b5bd
000000f0: 231b c1bd e22b 2f3e 5914 bbbd 4605 68bd
00000100: c29d 2dbd 727a cbbd 9bd2 b2bb 4a9f 09bd
00000110: c6cb 7c3d 1ea1 4bbd 7a14 bd3d 7f86 e43c
00000120: 99a7 1c3e d36f e13c b402 33be 194e 3ebe
00000130: be83 733d d9d2 13bb 3a5c 95bd a683 03bd
00000140: a605 193e 196e d83d 52f0 bfbd 2d2a 10bd
00000150: 4d9e 7f3c 068e 5dbd e038 1b3d fc4c 68bd
00000160: 8659 3ebd 5e02 3dbd c1f8 8fbd 7be9 3b3d
00000170: 1805 b53a 2f81 443c 084c 023c a104 bc3c
00000180: f089 80bc eaca c03c 2a13 3dbd df06 74bd
00000190: 5363 c53d fba8 433d a1ab 1d3d 8517 2f3e
000001a0: f645 e2bd c73a 7ebd 5769 8bbc eb6a 7e3d
000001b0: c8c2 343d 7b4a a63d 20f1 d43c f670 35be
000001c0: 5faf 1cbd 3cf2 e93d a395 84bd 309c 97bd
000001d0: a8c4 e73c e55b bbbd 6191 bdbd 92a8 c8bd
000001e0: 5643 71bd afc2 0f3e 065c 733d 7794 66bd
000001f0: fcb4 b93d 638b 0bbe 10f5 77be e3d4 d1bb
00000200: ef96 783d 02e2 05be aa20 39bd a1df a8bd
00000210: bb7c 94bd 031a fdbc 2dd1 70bd 3f52 1d3d
00000220: 6bed 84bd 1409 3ebe eaa1 523d 386c d43d
00000230: e0fe 4ebe 972a 59be aa11 b1bd 31d4 05bc
00000240: ced1 443e fdeb 113e dc0d 83bd 68c6 983d
00000250: be3b 923c 8ece d7bd 80ed 13be d944 04be
00000260: a83a a53d dfaf 99bd d66d 123d c575 d4bc
00000270: 4ddd 143e 5977 22bd bb8b 5b3d 28fb 75bc
00000280: 8703 3f3e d073 e53d c05f e53d cfb4 2ebd
00000290: c703 6ebd e2f4 bbbd b287 9e3c 9a04 12be
000002a0: 888c 5abd 739a a33d bc20 183d f4f0 bf3b
000002b0: f192 02bd 5b3e f83d 33cb 913d ee57 c6bc
000002c0: 616c 3f3e 1bc3 9cbc 2dde 903e 7d45 89bc
000002d0: f891 493c 7903 7dbd e591 85bd e248 03be
000002e0: 4bc6 88bd b1ac 1cbd ff26 cb3c 7988 23bd
000002f0: 34b6 523e bd78 833d 1fa8 bb3b 4c6a 1dbe
00000300: f2c7 59bd 3352 43b8 1432 e13b f0bc e83d
00000310: 467f 5abd 2da1 0fbc 797b 73bd 1f86 1f3d
00000320: 0f83 04be 575e d9bd 7fe8 ca3d 8cec 03be
00000330: bac2 763d c848 5bbd b72a 2c3d c6b9 c6bd
00000340: 3546 923a d877 b83d c983 173d 5c83 8abd
00000350: 3c51 05bd caa8 ba3c 8545 7f3d 0b96 6e3d
00000360: 6120 4a3e 0638 533d 0419 64bc 110f ff3d
00000370: 6b19 04bd b1bf 7fbd b668 483d a913 dbbd
00000380: 3335 8ebb ecf4 2c3d 840e bebd 8ecf 6ebc
00000390: 6b65 c3bb d0b5 a03d af5d 53bc 1c79 b53d
000003a0: 4ba9 7a3c a90a 183c c9a2 e03b 68fe f8bd
000003b0: 3b37 40bd c305 f03d fc93 4b3d 9159 debc
000003c0: ed00 fc3c b426 dd3d bc52 a9be f939 22be
000003d0: 8dba a23c 6daa 233d 8d69 56bd 2a5f ffbd
000003e0: 8b41 bc3d 5541 293e a1db 95bd b0df 033e
000003f0: 91da 45bd 75dd 88bc 2704 7c3d 986a 8f3d

network_body._body_endoder.seq_layers.2.bias f4 [128]
-0.0062092557 -1.1881862e-14 1.3606892e-29 -1.6356275e-05 -0.009812084 -0.011026004 -0.0030830074 -0.015777018
-0.005278752 -0.0092477985 -0.0023275996 -0.0006852705 -0.005033969 -3.8447663e-05 -6.086763e-11 -0.00047303116
-0.014079749 -0.0064422074 -0.0079008015 1.9102449e-22 -7.202531e-07 -3.3276507e-19 -0.0060951076 8.058407e-06
-0.011430968 -0.027672818 -0.020225393 -0.0076988563 -0.012067266 -1.3669134e-30 -0.0111438595 -7.572451e-20
-0.021645704 -3.5727678e-17 -0.0063908133 -0.01234395 -0.00079962995 -0.0115479855 4.8278827e-26 1.96285e-13
-0.020610653 -0.011661304 -0.0048994427 1.3047438e-27 -0.015975844 -0.013023608 -0.0020310115 -0.016291646
-0.0045901085 -0.003498523 -0.00032249108 -0.00040418148 -0.01026681 -0.020529266 -0.0050699236 -0.014310024
-0.0070166523 -0.00686663 -0.009956999 -3.1548974e-05 5.9022903e-05 7.225346e-28 0.0 -2.3077108e-08
-0.017050702 -0.008390537 3.7190594e-11 3.1209132e-18 -0.008433706 -0.0027380525 -0.01593375 -0.009598638
9.1255975e-10 -0.0012962712 -0.002078266 -0.024362275 -0.022512684 -0.010900589 -0.0108309155 -1.6657514e-24
8.37876e-14 1.896303e-10 -0.00013200616 -0.00034027817 -0.010245163 -0.013477125 -0.004698615 -6.171768e-18
7.2132525e-07 -0.0053072046 -0.020381976 4.7065762e-18 -0.010120226 -7.925912e-06 -0.012005096 1.8467938e-10
-0.009676948 -0.019290736 -0.0088574365 -8.735914e-18 -0.0079714805 7.670488e-10 -6.058621e-10 -0.017233836
-4.17796e-16 5.5666725e-09 1.5038008e-09 -0.011924791 7.4502356e-07 -0.0045334855 -0.00439038 -0.016350757
-0.008726374 -7.23905e-08 -0.010110357 -0.009568724 -0.0010036374 -0.0036312146 -0.017249204 -0.0058569377
-0.004256873 -0.011102511 -0.012332187 -0.0062907836 -4.5301774e-12 -0.026969673 -1.3233642e-08 -0.01120231
00000000: 0377 cbbb 6b0b 56a8 83fd 890f d534 89b7
00000010: ddc2 20bc 6aa6 34bc 480c 4abb ce3e 81bc
00000020: 62f9 acbb 1484 17bc a48a 18bb baa3 33ba
00000030: fef3 a4bb dd42 21b8 6ed9 85ae 2b01 f8b9
00000040: bfae 66bc 2719 d3bb 5d72 01bc 37ef 661b
00000050: 6b57 41b5 096e c4a0 78b9 c7bb 9832 0737
00000060: f448 3bbc 1bb2 e2bc b9af a5bc b046 fcbb
00000070: c8b5 45bc 5ccb dd8d bc94 36bc a8cc b29f
00000080: 5552 b1bc ccc3 24a4 076a d1bb 473e 4abc
00000090: 429e 51ba c333 3dbc af10 6f15 4dff 5c2a
000000a0: acd7 a8bc 0e0f 3fbc 818b a0bb b2be ce12
000000b0: c6df 82bc f960 55bc b81a 05bb 0f76 85bc
000000c0: 9f68 96bb 7a47 65bb 0514 a9b9 52e8 d3b9
000000d0: 1f36 28bc fe2c a8bc 9a21 a6bb 9774 6abc
000000e0: f2eb e5bb 7801 e1bb ae22 23bc 7453 04b8
000000f0: 5c8f 7738 f9fa 6412 0000 0000 193b c6b2
00000100: eaad 8bbc 7778 09bc e390 232e 6248 6622
00000110: 872d 0abc e670 33bb 7f87 82bc 9b43 1dbc
00000120: afd7 7a30 a5e7 a9ba 8533 08bb 6593 c7bc
00000130: 856c b8bc 6298 32bc 2774 31bc 9be1 0098
00000140: 43ac bc29 2f80 502f 226b 0ab9 5d67 b2b9
00000150: 54db 27bc 29cf 5cbc d7f6 99bb b3b2 e3a2
00000160: 18a1 4135 0fe8 adbb 1af8 a6bc 5ba4 ad22
00000170: 4ecf 25bc 88f9 04b7 06b1 44bc a00e 4b2f
00000180: 108c 1ebc 9b07 9ebc c81e 11bc 3026 21a3
00000190: d09a 02bc 43d8 5230 c189 26b0 f92d 8dbc
000001a0: cfd7 f0a5 f844 bf31 49ae ce30 3360 43bc
000001b0: a1fd 4735 a28d 94bb 2ddd 8fbb 06f2 85bc
000001c0: 11f9 0ebc 1975 9bb3 e9a5 25bc 23c6 1cbc
000001d0: 7c8c 83ba acf9 6dbb 344e 8dbc 8eeb bfbb
000001e0: 3d7d 8bbb 4ee7 35bc f10c 4abc eb22 cebb
000001f0: 3664 9fac 81ef dcbc 2c5a 63b2 e589 37bc

action_model._discrete_distribution.branches.0.weight f4 [3, 128]
-0.0042635873 -0.00781467 0.00021227675 -0.0048673064 0.0068148356 0.014683007 -0.0073951893 -0.002686228
0.025470074 0.008204683 0.012676122 0.0052444157 -0.008198768 0.010039969 -0.006385352 0.020643495
-0.020344093 -0.0037311865 0.0062907236 -0.0075244396 -0.0068761446 0.0068152673 0.010995453 0.0018495478
0.0074428334 -0.02530052 -0.025719365 0.045711365 0.014952346 -0.00045891316 0.00284405 0.010259652
-0.0017005721 0.00036794748 0.0034767094 0.009800179 -0.011052465 0.011091907 0.007870309 0.01425718
-0.003233749 -0.013140867 0.014561599 0.010502611 0.001777121 0.0096050445 0.009019067 -0.004691067
0.00870776 0.10362751 0.008160476 0.0015309002 -0.001329354 0.0063273665 -0.014692985 0.0054838443
0.0020361943 -0.021580692 -0.0055429484 -0.017699575 0.0009159698 0.02090278 -0.0024359494 0.007878317
-0.0011658629 0.02083068 0.0060453787 0.0020128412 -0.0005718194 0.00983066 0.010707935 -0.010970786
-0.001292952 -0.00785767 -0.0113996025 -0.001284293 0.00477811 -0.001927129 -0.013926964 -0.001952825
-0.008482133 0.012047644 0.00035908516 -0.011151068 -0.003795416 -0.002198789 0.015657803 -0.0072348514
-0.0037479717 -0.007666089 0.009128764 0.003909574 0.007913282 0.0042755124 0.028834155 -0.0010081573
-0.0005732125 0.006733493 0.017364327 0.016811997 -0.010664603 0.018789345 0.009420806 -0.0043117353
-0.0011566097 0.0013232912 0.008043037 0.00031758292 -0.00018191748 -0.0058222474 -0.0035879484 -0.0141713945
0.022969365 -0.0035336048 0.0043672686 -0.0048491536 0.004697473 0.0063350415 0.0053902217 0.01543662
0.0022833834 -0.0047400505 0.0074366415 0.01582542 0.009990507 0.0018280467 0.002004358 0.051196907
-0.0006340012 -0.013745059 0.0156968 0.020133438 0.0090402765 -0.0057233204 -0.011370111 -0.012367855
-0.00069188135 -0.01025093 0.0032755593 -0.02426302 0.01709085 -0.002584048 -0.0024286392 -0.0021717562
0.0053039193 0.0066532088 -0.008948426 -0.010830172 0.0056492724 -0.0039658817 0.011077612 -0.00931052
-0.000112560534 0.02556705 0.009707323 -0.023640687 -0.019449659 0.005888988 -0.007792596 -0.006452074
0.0026049335 -0.0010370513 -0.0060024657 0.015028717 -0.015498261 -0.008817688 -0.00020137127 -0.012668948
-0.0068703876 -0.00070937263 0.07055361 -0.006342788 0.0077159954 -0.013249819 -0.0152840335 0.010740532
0.0003795666 -0.13039795 -0.0089867795 -0.010186148 -0.011851142 0.030601025 0.019258795 0.0025482352
-0.0093878815 0.03022326 0.0013230279 -0.005544312 -0.0013722507 0.0038339575 0.003091289 -0.0031590173
-0.0018774576 -0.05011548 0.00535011 -0.0049415007 -0.008703085 -0.0052245287 0.0053038024 0.015914258
-0.027346969 -0.00018187429 -0.018308414 -0.0034681389 0.0032667087 -0.0043194434 0.032616068 0.010303862
0.00086280407 0.0006912914 0.004133215 0.022122927 0.0074974555 -0.011648079 -0.0020316897 0.008294152
0.012397432 -0.019003412 0.0041104476 0.009277885 0.0007213971 0.00025007644 -0.038169418 0.0013939925
-0.0049643563 0.00939774 -0.025242515 0.0032396724 -0.015913798 -0.004440027 -0.0026992152 0.01693597
-0.001047606 0.002703934 -0.005361185 0.003020499 -0.0061602537 -0.0072088237 0.0062106405 0.004211563
-0.03344491 -0.0002014164 -0.006595414 -0.0011270845 -0.013125678 -0.0062168404 0.013899611 -0.0067825755
-0.006667737 -0.008092003 -0.0014714815 -0.010438209 -5.647192e-05 0.016771613 -0.0069261785 -0.035068024
00000000: 90b5 8bbb 1a09 00bc 9b96 5e39 ed7d 9fbb
00000010: fc4e df3b ff90 703c 5853 f2bb 6d0b 30bb
00000020: 9ea6 d03c ef6c 063c 82af 4f3c 59d9 ab3b
00000030: 2054 06bc af7e 243c 373c d1bb 8c1c a93c
00000040: a8a8 a6bc ec86 74bb 6a22 ce3b 938f f6bb
00000050: 4851 e1bb 9b52 df3b 4626 343c 876c f23a
00000060: 03e3 f33b 0943 cfbc 6bb1 d2bc d73b 3b3d
00000070: affa 743c 489a f0b9 3e63 3a3b 1918 283c
00000080: bbe5 deba 13e9 c039 81d9 633b ee90 203c
00000090: 6615 35bc d4ba 353c 78f2 003c f296 693c
000000a0: 4eed 53bb cb4c 57bc c693 6e3c 2513 2c3c
000000b0: 49ee e83a 7a5e 1d3c b5c4 133c 86b7 99bb
000000c0: feaa 0e3c a93a d43d 84b3 053c 7da8 c83a
000000d0: b83d aeba cc55 cf3b d9ba 70bc d2b1 b33b
000000e0: ac71 053b fec9 b0bc 9fa1 b5bb b3fe 90bc
000000f0: b11d 703a 4f3c ab3c 73a4 1fbb 0e14 013c
00000100: decf 98ba 1aa5 aa3c 5018 c63b dfe9 033b
00000110: 26e6 15ba c710 213c 5670 2f3c d0be 33bc
00000120: 4578 a9ba 75bd 00bc 66c5 3abc b955 a8ba
00000130: b191 9c3b b897 fcba ec2d 64bc eff5 ffba
00000140: a5f8 0abc 7b63 453c 9843 bc39 f8b2 36bc
00000150: 84bc 78bb 8f19 10bb cb44 803c 5512 edbb
00000160: 88a0 75bb d133 fbbb d090 153c e21b 803b
00000170: b6a6 013c 9919 8c3b 9b35 ec3c 2524 84ba
00000180: a443 16ba a2a4 dc3b a23f 8e3c 50b9 893c
00000190: 96ba 2ebc 1dec 993c b959 1a3c 7549 8dbb
000001a0: 6299 97ba 4972 ad3a f1c6 033c 4281 a639
000001b0: 1ac1 3eb9 8dc8 bebb c923 6bbb 232f 68bc
000001c0: 402a bc3c 0d94 67bb 4e1b 8f3b a6e5 9ebb
000001d0: 42ed 993b 2e96 cf3b 75a0 b03b e1e9 7c3c
000001e0: d1a4 153b 6d52 9bbb 12af f33b 50a4 813c
000001f0: 39af 233c 129b ef3a 8c5b 033b d9b3 513d
00000200: 1a33 26ba f532 61bc 9396 803c e1ee a43c
00000210: ab1d 143c b18a bbbb b449 3abc 8ba2 4abc
00000220: 5f5f 35ba 84f3 27bc c4aa 563b 3ec3 c6bc
00000230: 1c02 8c3c 2259 29bb ce29 1fbb 0654 0ebb
00000240: 80cc ad3b 2903 da3b 6b9c 12bc 0971 31bc
00000250: 881d b93b 3af4 81bb df7e 353c 278b 18bc
00000260: 7a0e ecb8 fd71 d13c 770b 1f3c 1daa c1bc
00000270: e454 9fbc 69f8 c03b 0859 ffbb eb6b d3bb
00000280: 88b7 2a3b abed 87ba 55b0 c4bb 023b 763c
00000290: 6bec 7dbc 1078 10bc 3027 53b9 6b91 4fbc
000002a0: fd20 e1bb 31f5 39ba 697e 903d 2ad7 cfbb
000002b0: 76d6 fc3b c515 59bc e269 7abc 0ef9 2f3c
000002c0: 9100 c739 0a87 05be 493d 13bc cde3 26bc
000002d0: 4b2b 42bc 00af fa3c 9fc4 9d3c 4b00 273b
000002e0: a1cf 19bc c596 f73c 7369 ad3a 0fad b5bb
000002f0: 18dd b3ba 2243 7b3b 3997 4a3b 8407 4fbb
00000300: 0615 f6ba e445 4dbd fa4f af3b 50ec a1bb
00000310: 6297 0ebc 8632 abbb 85cb ad3b 9e5e 823c
00000320: c006 e0bc 82b5 3eb9 87fb 95bc b749 63bb
00000330: 4716 563b 1e8a 8dbb 6d98 053d 88d1 283c
00000340: cd2d 623a c837 353a ec6f 873b 243b b53c
00000350: 37ad f53b 96d7 3ebc 1926 05bb 32e4 073c
00000360: 991e 4b3c 0bad 9bbc efb0 863b 4502 183c
00000370: 241c 3d3a b11c 8339 8957 1cbd a0b6 b63a
00000380: 0aac a2bb faf8 193c 64c9 cebc af50 543b
00000390: a75d 82bc a57d 91bb 51e5 30bb 4ebd 8a3c
000003a0: d34f 89ba 7c34 313b e1ac afbb 90f3 453b
000003b0: f4db c9bb ff37 ecbb a182 cb3b 2701 8a3b
000003c0: 88fd 08bd 4e33 53b9 581e d8bb aeba 93ba
000003d0: 150d 57bc a3b6 cbbb 32bb 633c 5e40 debb
000003e0: 087d dabb 5294 04bc bade c0ba 0605 2bbc
000003f0: 43dc 6cb8 9f64 893c fff4 e2bb 7da3 0fbd

action_model._discrete_distribution.branches.0.bias f4 [3]
0.0043268283 0.0032314714 0.009757428
00000000: 11c8 8d3b 18c7 533b 9fdd 1f3c

action_model._discrete_distribution.branches.1.weight f4 [2, 128]
0.005810512 -0.0021809402 -0.0012836921 -0.01679256 -0.0010132659 0.0018420893 -0.008351115 0.004487273
-0.0068289423 0.013246032 0.004538989 0.0064107943 0.005025019 -0.0039346195 0.01045807 0.006905754
-0.0038627554 -0.0023690858 -0.016004883 -0.011398266 -0.009615185 -0.008950219 0.0053520785 -0.0025240362
0.014927142 0.011514718 0.0026042222 -0.007786587 -0.005126559 0.011736613 0.001810278 0.005886718
-0.0012369313 0.011955307 -0.0018779105 -0.017715536 -0.0024119646 -0.0061031575 -0.007963047 0.0009205254
-0.0010138617 -0.003703607 0.009764261 0.0040283957 -0.009847009 -0.011930901 0.0076816543 -0.0005232721
-0.011411406 0.013735578 0.011022101 0.00041594022 0.010644176 0.010815408 0.0014461385 0.0043973587
0.010529145 0.029067907 0.0025967208 -0.0061902846 -0.004668795 -0.005027284 -0.006591305 -0.01510194
0.004462478 0.027669797 -0.009474817 0.0019208338 0.012458335 -0.005415978 0.010761976 0.0011995258
0.011190523 -0.006201462 0.008958707 0.006649666 0.00584607 -0.009327976 0.001625755 -0.01227464
-0.007225767 -0.017926522 -0.0031820107 -0.00039582147 0.007723394 -0.010606063 -0.013731377 0.01003386
-0.003942514 0.0035373874 -0.008176883 0.001955589 0.00018989046 -0.006839841 0.015790505 0.0053180386
-0.0037643302 -0.003677109 0.025806688 0.020102382 -0.0019142414 -0.0067039905 0.0014268608 -0.0013258024
0.004455413 -0.015160812 0.0023188156 0.012116762 0.0119907 0.0073895515 0.0075178603 0.002176345
0.017527595 0.008566311 0.0033721952 0.0056766705 0.005571421 0.0022524123 0.029532151 -0.0037329257
-0.0029883173 -0.014798034 0.009972512 0.006508957 -0.006607854 0.014877671 -0.004673385 0.015394032
0.00491177 0.0043244637 0.012572216 -0.0026539187 0.004365156 0.016053377 -0.009705054 0.0051484476
-0.007182817 -0.0041084676 0.0066904756 -0.006614383 -0.00608688 -0.007057404 0.0039038516 0.016893292
-0.012661477 -0.011379079 -0.00047786278 -0.0042760163 0.010811606 -0.010713948 0.0012997917 -0.011139175
-0.003467611 -0.00923267 -0.01055788 -0.0036652922 -0.0085148765 -0.0044737156 -0.0036691267 -0.0009305871
-0.005273077 -0.0008367365 0.016939618 0.0074643074 0.00046537226 0.0083661815 0.0118815 0.02289917
0.010785944 -0.0023620438 -0.020885339 0.007937028 0.0008940024 -0.0023564121 -0.0077076475 -0.003445555
0.01067827 -7.953198e-05 -0.0075328546 0.001082204 0.011003849 -0.008500726 0.016489599 -0.001379195
0.005003455 -0.03417889 -0.0029748944 0.00790142 -0.0030454411 0.006999556 -0.005192822 -0.011472158
0.0040154806 -0.031651683 0.00013919124 0.0010772756 -0.0047004507 -0.0029273548 0.0058583263 0.004030014
0.013715216 0.0061823507 1.627342e-05 0.0024617675 -0.006065943 -0.0077443374 0.009470908 -0.011174546
0.004366011 0.0026908577 -0.00020941914 0.0033159244 0.0056368047 0.0015533034 -0.01594493 0.003016887
-0.01292524 0.004912654 -0.002809365 0.0035707268 -0.008360679 0.02283648 -0.025118127 -0.014184328
-0.0008671176 0.009217953 -0.026006183 -0.005949373 0.00037921962 0.010217395 0.007838696 -0.006929244
0.01080443 -0.013670366 0.010260454 0.01135703 0.00046974845 -0.018519156 -0.008335485 0.0041898233
-0.022976069 -0.0005543193 0.00429484 0.0074869185 0.0033170045 0.010857891 -0.014926795 0.00023308855
-0.0072109103 0.0013134954 0.01298257 0.0038614492 0.013380122 -0.0076679527 0.0064290576 -0.011805701
00000000: 1c66 be3b 1bee 0ebb 8f41 a8ba 8d90 89bc
00000010: 90cf 84ba 4372 f13a 1dd3 08bc f909 933b
00000020: 52c5 dfbb e305 593c cdbb 943b a411 d23b
00000030: eaa8 a43b fbed 80bb 5358 2b3c aa49 e23b
00000040: 4826 7dbb aa42 1bbb ac1c 83bc cbbf 3abc
00000050: 0289 1dbc f0a3 12bc 7d60 af3b 4d6a 25bb
00000060: f990 743c 3aa8 3c3c 99ab 2a3b a026 ffbb
00000070: b2fc a7bb ec4a 403c da46 ed3a 5fe5 c03b
00000080: 8720 a2ba 31e0 433c 3824 f6ba 2c20 91bc
00000090: 0d12 1ebb fffc c7bb 7177 02bc 6a4f 713a
000000a0: 8ee3 84ba 37b8 72bb 47fa 1f3c a200 843b
000000b0: 5955 21bc d379 43bc 63b6 fb3b 322c 09ba
000000c0: e8f6 3abc 310b 613c 0b96 343c 8d12 da39
000000d0: e964 2e3c 1c33 313c 5b8c bd3a b817 903b
000000e0: 6f82 2c3c d21f ee3c bf2d 2a3b dfd7 cabb
000000f0: b1fc 98bb eabb a4bb e0fb d7bb 216e 77bc
00000100: fb39 923b c5ab e23c 433c 1bbc 7dc4 fb3a
00000110: 0b1e 4c3c 8478 b1bb 0053 303c 6839 9d3a
00000120: 7558 373c a235 cbbb 8ac7 123c 71e5 d93b
00000130: 6490 bf3b 5ed4 18bc 4917 d53a 921b 49bc
00000140: 20c6 ecbb a4da 92bc 4889 50bb 4286 cfb9
00000150: 8614 fd3b 0dc5 2dbc 92f9 60bc 0f65 243c
00000160: 3430 81bb 83d3 673b 55f8 05bc 5729 003b
00000170: 551d 4739 bf20 e0bb 175b 813c f142 ae3b
00000180: fbb2 76bb a7fb 70bb 8c68 d33c c0ad a43c
00000190: 48e7 faba 26ad dbbb 8105 bb3a 8cc6 adba
000001a0: b7fe 913b 0e65 78bc 45f7 173b 6285 463c
000001b0: a474 443c 0d24 f23b 6258 f63b 03a1 0e3b
000001c0: 0896 8f3c b659 0c3c 0c00 5d3b 5d03 ba3b
000001d0: 7790 b63b 359d 133b 69ed f13c 1aa4 74bb
000001e0: a5d7 43bb 7473 72bc bf63 233c 1749 d53b
000001f0: b286 d8bb 7ac1 733c 3223 99bb 4037 7c3c
00000200: eaf2 a03b 3bb4 8d3b b2fb 4d3c 5eed 2dbb
00000210: 9509 8f3b 5f82 833c f201 1fbc 4fb4 a83b
00000220: d65d ebbb 53a0 86bb c73b db3b 77bd d8bb
00000230: 7374 c7bb cc41 e7bb c3d7 7f3b cd63 8a3c
00000240: 1572 4fbc 516f 3abc a889 fab9 d31d 8cbb
00000250: 2a23 313c 8e89 2fbc c65d aa3a 1681 36bc
00000260: dc40 63bb a044 17bc f5fa 2cbc 6635 70bb
00000270: fb81 0bbc 3f98 92bb bb75 70bb a5f2 73ba
00000280: c7c9 acbb 7058 5bba f4c4 8a3c 2697 f43b
00000290: 35fd f339 4f12 093c 9faa 423c 0a97 bb3c
000002a0: 87b7 303c 85cc 1abb bb17 abbc 4f0a 023c
000002b0: 7c5b 6a3a 096e 1abb 6f90 fcbb d2ce 61bb
000002c0: e9f3 2e3c 68ca a6b8 2ad6 f6bb bed8 8d3a
000002d0: 7d49 343c a146 0bbc 3215 873c 1bc6 b4ba
000002e0: 06f4 a33b 2aff 0bbd 72f6 42bb f574 013c
000002f0: 0696 47bb 885c e53b 8c28 aabb b8f5 3bbc
00000300: 4b94 833b 32a5 01bd ddf3 1139 5f33 8d3a
00000310: 3d06 9abb ddd8 3fbb 34f7 bf3b 350e 843b
00000320: c9b5 603c 5195 ca3b e782 8837 9b55 213b
00000330: d1c4 c6bb 36c4 fdbb de2b 1b3c 7115 37bc
00000340: c110 8f3b 1a59 303b 8697 5bb9 fb4f 593b
00000350: f2b4 b83b 3798 cb3a f19e 82bc f7b6 453b
00000360: 63c4 53bc 54fa a03b 531d 38bb db02 6a3b
00000370: 3bfb 08bc 9213 bb3c 88c4 cdbc 6265 68bc
00000380: 474f 63ba e606 173c eb0a d5bc f5f2 c2bb
00000390: ffd1 c639 dc66 273c e06d 003c b60e e3bb
000003a0: 1005 313c acf9 5fbc 771b 283c d612 3a3c
000003b0: 9248 f639 7cb5 97bc 8f91 08bc c94a 893b
000003c0: 4f38 bcbc bd4f 11ba bbbb 8c3b d354 f53b
000003d0: 1a62 593b 4ce5 313c 848f 74bc 3b69 7439
000003e0: 8049 ecbb 9829 ac3a d8b4 543c 5e10 7d3b
000003f0: 4d38 5b3c 7343 fbbb d8aa d23b b36c 41bc

action_model._discrete_distribution.branches.1.bias f4 [2]
0.03524431 -0.035244312
00000000: 565c 103d 575c 10bd

action_model._discrete_distribution.branches.2.weight f4 [3, 128]
0.0069619794 0.01638866 0.0029036615 0.008451367 -0.009484392 0.015652258 0.0035538694 -0.00055375916
0.0051843515 -7.689059e-05 -0.006496111 0.020034142 0.002796822 -0.003678844 0.001234782 -0.0069917142
0.004350095 0.0059398143 -0.032343034 -0.0038535 0.004377339 -0.0038352266 -0.0005533218 -0.0037289283
-0.005028292 0.0018558626 0.0026617981 0.002910204 -0.004156715 0.0012912763 0.005328555 -0.0058419146
-0.0033706664 -0.002048014 0.0077989814 -0.006247261 0.0024334232 -0.0012134468 -0.00027996147 -0.0017260589
-0.004262103 -0.008245269 0.00059056265 -0.019094657 -0.0041098143 -0.0045923367 3.0063375e-05 0.0026413247
-0.0044298368 0.0015413476 0.0040367837 0.00092744315 -0.0018083187 0.0062770536 0.005900383 -0.0011123397
-0.013855485 0.0016288891 -0.0022896284 0.008273125 0.0029152157 0.00055034953 0.012889651 0.011845589
-0.003934077 0.00610686 0.003920676 0.006950119 0.0005698558 -0.000869859 0.004779297 0.0051171584
0.011780187 0.0011042625 -0.004464786 0.0052823517 -0.0019820111 0.0077396026 -0.012378021 -0.008832591
-0.023535421 0.005688274 0.0047184685 0.00421852 0.018152276 0.010163905 -0.0155509645 4.196166e-06
0.0046786093 0.0009332602 0.0030991728 0.012696931 -0.0050671017 0.004522831 -0.0047725327 0.0061767288
-0.0014717709 0.0020337487 0.00588436 0.0017932581 -5.8688573e-05 -0.0056059505 -0.0046070805 0.0051388545
-0.0093300445 0.011385683 0.0071568885 -0.006790272 -0.0004765037 0.00063554733 0.0010094023 -0.009406153
0.0017031234 0.010294393 0.0073326044 0.009627522 -0.011831888 -0.0024954418 -0.0011562477 0.0016105572
-0.005555927 0.0010174172 0.022452997 0.002570857 -0.008403504 -0.0022718708 -0.0009015704 -0.004041842
0.0031669568 -0.004437995 0.006658917 -0.00560772 -0.0074026813 0.002553337 -0.0051233564 -0.0011561628
0.008316514 -0.0037302964 -0.005861807 0.019530743 0.0116265 -0.0015687854 0.00051612424 0.00084737863
0.003574259 0.0071152225 -0.00094335125 -0.0070766583 -0.0024322178 0.0016956568 -0.007537596 -0.011980781
-0.015234857 0.0024138638 0.0019358787 -0.018630093 -0.0030817566 0.011092498 -0.006303172 0.0050512315
-0.0064350683 0.008878397 0.0077000675 0.005163387 -0.00014683943 -0.0032958933 -0.012905567 0.005634706
-0.00086263433 -0.0032745677 0.024952814 -0.00041804273 -0.010222314 -0.0065104063 -0.005074559 0.010539419
-0.0025989462 -0.02117917 0.0059977993 -0.0070833387 -0.0030599572 0.0116277775 -0.00012345583 -0.0005658508
0.0034845218 0.0074646706 -0.004148257 0.0009272682 -0.008117555 -0.0026375216 0.01458733 0.007505979
-0.0052874754 -0.015441076 0.012451134 -9.804396e-05 -0.003215269 0.014627347 -0.0035223514 -0.01631318
0.008183932 -0.01164364 0.005464093 3.3879827e-05 -0.004161916 -0.0010446896 0.013306726 0.0055531235
0.0013845327 -0.0031561481 0.007157785 -0.010152656 -0.0075359764 0.01059999 -0.011292727 0.009484094
-0.019201498 -0.009580972 0.0007522148 0.0021620223 -0.005019317 -0.005077734 -0.022508716 0.008440722
0.005377365 0.009168586 -0.0077220607 -0.014726832 0.005676346 0.014260627 -0.0015417008 0.008001418
-0.0013432374 0.008090142 0.005040642 -0.005464319 -0.010544364 0.0005810675 0.0036127234 -0.001271692
-0.010174235 0.0038033521 0.004789775 0.013606551 -0.010962289 0.009810113 -0.00079245854 -0.0010730799
0.0018547816 -0.0104387 0.001772375 0.004703247 0.020984402 0.006487573 0.0028633303 0.011726896
00000000: 5121 e43b 8341 863c 5b4b 3e3b 9a77 0a3c
00000010: 6c64 1bbc 2a39 803c 09e8 683b 262a 11ba
00000020: 7ee1 a93b 5240 a1b8 54dd d4bb a41e a43c
00000030: e34a 373b c318 71bb 69d8 a13a c01a e5bb
00000040: 3e8b 8e3b c6a2 c23b 217a 04bd 008b 7cbb
00000050: c86f 8f3b 6d58 7bbb cc0c 11ba 0961 74bb
00000060: 5fc4 a4bb 6a40 f33a 9071 2e3b 1fb9 3e3b
00000070: 0d35 88bb 0b40 a93a 299b ae3b 886d bfbb
00000080: 66e6 5cbb f937 06bb 998e ff3b d3b5 ccbb
00000090: 117a 1f3b 850c 9fba cbc7 92b9 ed3c e2ba
000000a0: 1ca9 8bbb 2a17 07bc fdcf 1a3a 666c 9cbc
000000b0: 9fab 86bb 507b 96bb 9b30 fc37 131a 2d3b
000000c0: 2a28 91bb 0b07 ca3a ff46 843b a81f 733a
000000d0: 1b05 edba beaf cd3b 0058 c13b edcb 91ba
000000e0: 1e02 63bc 7380 d53a 970d 16bb 008c 073c
000000f0: 340d 3f3b 5545 103a 1d2f 533c 0014 423c
00000100: 6ee9 80bb 0e1c c83b 0479 803b d3bd e33b
00000110: 6062 153a 4007 64ba a69b 9c3b d6ad a73b
00000120: af01 413c e7bc 903a 574d 92bb 9417 ad3b
00000130: a1e4 01bb 7e9c fd3b 2fcd 4abc 92b6 10bc
00000140: 5bcd c0bc b364 ba3b 629d 9a3b 833b 8a3b
00000150: 15b4 943c 8286 263c 79c9 7ebc cbcc 8c36
00000160: 054f 993b 08a6 743a 7e1b 4b3b ca06 503c
00000170: ee09 a6bb 4234 943b e862 9cbb 2866 ca3b
00000180: 70e8 c0ba a448 053b 97d1 c03b c20b eb3a
00000190: 6028 76b8 1fb2 b7bb fef6 96bb d663 a83b
000001a0: 0bdd 18bc 048b 3a3c 5584 ea3b ee80 debb
000001b0: 3ed3 f9b9 dc9a 263a ec4d 843a 441c 1abc
000001c0: 573b df3a d0a9 283c 5846 f03b c1bc 1d3c
000001d0: 89da 41bc 918a 23bb 3c8d 97ba 5519 d33a
000001e0: 7e0e b6bb db5a 853a 59ef b73c d37b 283b
000001f0: daae 09bc abe3 14bb 5e57 6cba 6e71 84bb
00000200: b88c 4f3b 9a6c 91bb 0b33 da3b f7c0 b7bb
00000210: 3192 f2bb e355 273b d4e1 a7bb 638a 97ba
00000220: fd41 083c fd77 74bb 6714 c0bb f0fe 9f3c
00000230: 137d 3e3c b49f cdba 834c 073a 9e22 5e3a
00000240: 1e3e 6a3b d026 e93b 3b4b 77ba 50e3 e7bb
00000250: d865 1fbb cd40 de3a f0fd f6bb 0a4b 44bc
00000260: 9f9b 79bc ea31 1e3b 4fbd fd3a 239e 98bc
00000270: 4cf7 49bb 4fbd 353c d78a cebb cd84 a53b
00000280: 44dd d2bb b276 113c d950 fc3b a131 a93b
00000290: e9f8 19b9 eaff 57bb df71 53bc 57a3 b83b
000002a0: 6922 62ba 219a 56bb d869 cc3c bf2c dbb9
000002b0: 7e7b 27bc 3f55 d5bb 7c48 a6bb 87ad 2c3c
000002c0: 1553 2abb f07f adbc 3089 c43b 5a1b e8bb
000002d0: 9089 48bb 6f82 3e3c ec73 01b9 9b55 14ba
000002e0: 935c 643b 329a f43b 1aee 87bb ea13 733a
000002f0: 7eff 04bc 45da 2cbb b2ff 6e3c b7f4 f53b
00000300: 8f42 adbb 91fc 7cbc d7ff 4b3c f39c cdb8
00000310: 43b7 52bb 8aa7 6f3c 40d7 66bb 38a3 85bc
00000320: e615 063c f7c4 3ebc 220c b33b 301a 0e38
00000330: af60 88bb f7ed 88ba 7404 5a3c faf6 b53b
00000340: 3579 b53a 61d7 4ebb da8b ea3b 5357 26bc
00000350: 5af0 f6bb 95ab 2d3c 2105 39bc 2c63 1b3c
00000360: 764c 9dbc 82f9 1cbc 4830 453a b7b0 0d3b
00000370: 1579 a4bb 1f63 a6bb 3364 b8bc f44a 0a3c
00000380: 9b34 b03b d637 163c 5709 fdbb cf48 71bc
00000390: a400 ba3b 68a5 693c e512 caba 6118 033c
000003a0: 910f b0ba 848c 043c f82b a53b 080e b3bb
000003b0: 45c2 2cbc c852 183a 71c3 6c3b e7ae a6ba
000003c0: d6b1 26bc a941 793b 8bf3 9c3b 03ee 5e3c
000003d0: 2c9b 33bc 99ba 203c febc 4fba 96a6 8cba
000003e0: 251c f33a 1507 2bbc 094f e83a b21d 9a3b
000003f0: 7be7 ab3c b595 d43b b6a6 3b3b 2b22 403c

action_model._discrete_distribution.branches.2.bias f4 [3]
0.003488759 -0.0008688431 -0.0009959831
00000000: aaa3 643b 13c3 63ba a68b 82ba

action_model._discrete_distribution.branches.3.weight f4 [2, 128]
0.006742812 0.0065932455 -0.0020371021 0.00159237 -0.0024288793 -0.020870678 -0.010002467 -0.006558131
0.0059430487 0.014230092 0.0022231645 0.0013168786 -0.009257423 0.0028409606 -0.009822241 -0.0051098126
-0.0086965235 -4.687524e-06 -0.007051275 0.012242258 0.01330888 0.0116004115 -0.0120665785 0.0035741203
0.007441352 0.003817868 0.0059674555 0.0077364966 -0.0034424637 -0.018156152 -0.009858175 -0.0027274005
-0.0036234264 0.0031211008 -0.0002084489 -0.0078849625 -0.0028359876 0.00049419486 -0.011440618 0.008725011
-0.00076095277 0.0045467685 0.006594817 -0.0023202307 0.008105794 -0.0042947754 -0.0143414 -0.012022165
0.0010928429 0.00012357977 -0.006743935 -0.0029769565 -0.005861508 0.0022495298 0.0013759431 0.0054536476
0.0027012986 0.0023141888 0.0074643334 0.010265371 -0.013758947 -0.010885277 -0.02046485 -0.012697311
-0.00016307275 0.0022579257 0.0149975 -0.015571304 0.013363594 0.006133534 -0.00726927 -0.0035152533
-6.933136e-05 0.0006503357 -0.004447289 0.009445696 0.0027059803 -2.3728006e-05 0.0031248592 -0.0031846378
-0.0035788328 -0.011484354 0.0037418085 0.0007627492 -0.0038810952 0.008545853 -0.0038011833 -0.0006861686
-0.0020606522 0.006388254 0.00022842117 -0.010248414 0.00062055205 -0.015212204 -0.0026489922 0.0005899471
0.004122697 -0.0029428732 -0.0009801912 0.006376598 -0.0069342726 -0.0027572515 0.013945466 0.010401052
-0.0010845287 0.007313261 0.0056668273 -0.011132993 -0.0035730377 -0.020764949 0.004928689 0.003464649
0.010687526 0.012213254 -0.0043074293 -0.0013064825 -0.0027711631 -0.0032430196 -0.009270721 -0.0036814762
-0.0005746695 0.010004606 0.002255525 -0.00019684056 -0.012859704 -0.0068387426 0.0037284654 -0.018799366
0.016906844 -0.003615029 0.0051666196 0.007665937 0.0013579463 0.010332268 0.0029485533 -0.0054925173
-0.013879961 0.015448473 0.0059992406 -0.008159628 0.01604492 -0.0032336232 0.009229336 -0.0071884277
-0.008716666 0.00010717561 -0.016259432 0.0009676929 0.004762627 -0.006888345 -0.0012469055 -0.015225119
0.005632496 -0.002279441 0.0053193797 -0.0075754183 -0.008157827 -0.014940253 -0.0056280675 -0.000782876
-0.0045651416 -0.013499724 -2.0700367e-05 -0.0048580416 0.005384021 -0.0008965667 0.036807626 0.0001708841
0.00064320996 0.0029952491 0.0059350054 -0.0027258755 0.005788411 0.00800587 -0.0042402265 -0.015657147
-0.0147795845 0.004543611 -0.008476837 0.0070188385 -0.0026484588 -0.0017774687 0.0028350702 0.0041283853
0.0044552837 -0.0024456365 0.005004426 0.00416708 0.0016860148 0.0045390315 0.022451347 -0.008828877
0.006480338 -0.013101663 0.0002236995 -0.009808701 0.009708173 -0.009181927 -0.0077499878 0.006581156
-0.012668692 -0.007863283 0.0046721906 0.0033728015 0.0014184869 0.0049135247 0.019826522 -0.013604547
-0.010960223 0.003287199 -0.013206649 -0.01288929 0.005924707 0.005392603 -0.0029972969 -0.00037633872
0.0047518243 0.007379472 -0.000813089 -0.00017527741 0.0033642054 -0.0143583175 -0.01610614 -0.001548497
-0.005582883 -0.00024626535 -0.018969284 -0.010727558 0.0010362875 0.006040619 -0.004645065 -6.0696733e-05
-7.453888e-05 -0.0037339444 0.006808698 -0.0019482205 -0.013238511 -0.0026995542 0.0064469175 0.005099056
-0.0026628214 -0.007564475 -0.0023940727 0.0016824977 -0.020743934 0.00075167645 -0.011195017 0.00036714296
-0.0045046196 -0.0063137296 -0.008474091 0.0064316746 -0.010637743 -0.0052699423 -0.012123579 0.010411236
00000000: cff2 dc3b 270c d83b e780 05bb 12b7 d03a
00000010: d52d 1fbb fcf8 aabc 63e1 23bc 97e5 d6bb
00000020: e8bd c23b 5525 693c 83b2 113b 1d9b ac3a
00000030: 72ac 17bc 692f 3a3b 77ed 20bc 3770 a7bb
00000040: dd7b 0ebc 8649 9db6 620e e7bb c093 483c
00000050: 7d0d 5a3c a70f 3e3c e6b2 45bc ca3b 6a3b
00000060: 96d6 f33b 3235 7a3b a58a c33b 7082 fd3b
00000070: f59a 61bb 36bc 94bc 2f84 21bc 30be 32bb
00000080: 0277 6dbb 628b 4c3b 1393 5ab9 ee2f 01bc
00000090: fadb 39bb db8c 013a 6e71 3bbc 59f3 0e3c
000000a0: ad7a 47ba 0ffd 943b 5619 d83b 030f 18bb
000000b0: 2ace 043c 30bb 8cbb 31f8 6abc 9df8 44bc
000000c0: b93d 8f3a 3195 0139 3afc dcbb 0b19 43bb
000000d0: e511 c0bb d96c 133b fd58 b43a 83b4 b23b
000000e0: 4508 313b a5a9 173b 5e97 f43b 1630 283c
000000f0: 356d 61bc 2958 32bc e7a5 a7bc 6208 50bc
00000100: 82fe 2ab9 b5f9 133b 13b8 753c c81e 7fbc
00000110: faf2 5a3c d0fb c83b 0e33 eebb 2a60 66bb
00000120: fe65 91b8 4a7b 2a3a 90ba 91bb 1fc2 1a3c
00000130: d156 313b 810b c7b7 70ca 4c3b 5bb5 50bb
00000140: da8a 6abb df28 3cbc 2139 753b 3bf3 473a
00000150: f959 7ebb e803 0c3c 461d 79bb ffdf 33ba
00000160: 020c 07bb 8f54 d13b 5784 6f39 f7e8 27bc
00000170: 8bac 223a 9c3c 79bc b79a 2dbb aea6 1a3a
00000180: b017 873b 38dd 40bb c279 80ba c8f2 d03b
00000190: e538 e3bb 01b3 34bb 867b 643c 2d69 2a3c
000001a0: bf26 8eba 14a4 ef3b cbb0 b93b 2867 36bc
000001b0: a029 6abb 411b aabc d780 a13b 2a0f 633b
000001c0: bc1a 2f3c 1a1a 483c 5625 8dbb 473e abba
000001d0: 679c 35bb d788 54bb 39e4 17bc ec44 71bb
000001e0: 6ba5 16ba 5cea 233c 6ed1 133b fc66 4eb9
000001f0: 82b1 52bc 8817 e0bb 4559 743b 2101 9abc
00000200: 3980 8a3c 1fea 6cbb bf4c a93b 8a32 fb3b
00000210: 1efd b13a ac48 293c 843c 413b 93fa b3bb
00000220: c768 63bc 981b 7d3c 4795 c43b f6af 05bc
00000230: a370 833c 32eb 53bb a436 173c e78c ebbb
00000240: 59d0 0ebc 78c3 e038 8032 85bc c5ac 7d3a
00000250: d00f 9c3b a0b7 e1bb 356f a3ba c772 79bc
00000260: cd90 b83b ad62 15bb 314e ae3b 373b f8bb
00000270: 68a8 05bc f7c7 74bc a76b b8bb eb39 4dba
00000280: 2f97 95bb f22d 5dbc b3a5 adb7 3530 9fbb
00000290: 716c b03b 9307 6bba 98c3 163d 5a2f 3339
000002a0: 179d 283a f14b 443b 6f7a c23b 9aa4 32bb
000002b0: b6ac bd3b 0d2b 033c 99f1 8abb 6b43 80bc
000002c0: 1226 72bc 92e2 943b 6ee2 0abc 49fe e53b
000002d0: c491 2dbb f4f9 e8ba 96cc 393b 6847 873b
000002e0: a1fd 913b f946 20bb 2bfc a33b 008c 883b
000002f0: 45fd dc3a 28bc 943b e3eb b73c fea6 10bc
00000300: 0459 d43b 5ca8 56bc e190 6a39 adb4 20bc
00000310: 070f 1f3c cb6f 16bc 9cf3 fdbb bda6 d73b
00000320: 5890 4fbc 00d5 00bc 2d19 993b 380a 5d3b
00000330: 86ec b93a a201 a13b 3b6b a23c 9be5 5ebc
00000340: 8292 33bc 0c6e 573b b360 58bc 9a2d 53bc
00000350: 0b24 c23b 6fb4 b03b 4c6e 44bb 544f c5b9
00000360: 31b5 9b3b 7fcf f13b 7b25 55ba acca 37b9
00000370: 007a 5c3b 263f 6bbc 06f1 83bc f0f6 caba
00000380: 9ef0 b6bb 2d1d 81b9 7965 9bbc a4c2 2fbc
00000390: 0ad4 873a 63f0 c53b a135 98bb 9f94 7eb8
000003a0: c251 9cb8 31b5 74bb 801b df3b 6f5b ffba
000003b0: 57e6 58bc 01eb 30bb aa40 d33b fb15 a73b
000003c0: bb82 2ebb 6adf f7bb e0e5 1cbb 4187 dc3a
000003d0: 2fef a9bc 270c 453a 4e6b 37bc 187d c039
000003e0: 7d9b 93bb 67e3 cebb ead6 0abc ccc0 d23b
000003f0: ee49 2ebc 7baf acbb faa1 46bc e493 2a3c

action_model._discrete_distribution.branches.3.bias f4 [2]
0.002010842 -0.002010839
00000000: 55c8 033b 48c8 03bb
