Assets/results/OuiTankRemaster/TankLearningAI/TankLearningAI-12499954.pt (torch, 787585 bytes, 58 tensors)

discrete_act_size_vector f4 [1, 5]
000000 00 00 40 40 00 00 00 40 00 00 40 40 00 00 00 40
       3.0 2.0 3.0 2.0
000010 00 00 00 40
       2.0

network_body._body_endoder.seq_layers.0.weight f4 [128, 110]
000000 41 38 28 3d e5 0d 88 3d 26 00 56 bd 42 04 dc 3d
       0.041069273 0.06643275 -0.052246235 0.107429996
000010 d0 18 23 3e 3f 93 28 bd 3e c0 13 bc 3a a4 b5 3b
       0.15927434 -0.04115605 -0.009018002 0.005543259
000020 b8 22 da bc 5a 81 a7 3d 6b 05 6d be c2 74 04 be
       -0.026627883 0.08178969 -0.23146598 -0.12935165
000030 bd 00 9a bd 14 d5 10 bd 24 6f c4 bc 3e 91 0f be
       -0.07519672 -0.035359457 -0.023978777 -0.14020249
000040 47 a8 14 3e d9 11 e7 bd 63 38 f0 bc a0 66 ca bd
       0.14517318 -0.11282701 -0.029323762 -0.098828554
000050 3d 6d 55 bc ff 46 bf bd 68 4a 01 bd b5 bf 0e 3d
       -0.013026533 -0.09339713 -0.0315651 0.034850795
000060 3f bd 9b 3d 88 4a a7 bb b5 69 c1 3d b2 a8 60 3e
       0.07604455 -0.0051053204 0.0944399 0.21939352
000070 b8 ee d5 bb a8 ad df bd d4 d8 a4 3d 68 3e f5 3a
       -0.0065287016 -0.10921794 0.08049169 0.0018710615
000080 c4 60 4f 3d 12 ec 15 bc a3 53 68 bc c8 37 e6 3d
       0.050629392 -0.009150522 -0.014180097 0.11241108
000090 fb 9d c4 bd b0 a8 ce bd 97 45 27 3d f4 c5 6a bd
       -0.09600445 -0.10090768 0.04083785 -0.05731769
0000a0 85 91 35 3e ad 7a 98 3d b4 f6 b2 3d 85 a7 04 bd
       0.17731293 0.074452735 0.08738461 -0.03238632
0000b0 83 4a 9f bd 61 7e 6a be 24 0f 1f be da 57 86 bd
       -0.07777884 -0.22899772 -0.1553312 -0.06559725
0000c0 ea 0b ff 3c cf 2a 60 bd 33 f7 8d 3d f1 85 05 3d
       0.03113361 -0.054728325 0.06931915 0.03259844
0000d0 87 b7 ae 3c 78 f9 f4 3c 4f 88 5e be 5a fa ec 3c
       0.021327747 0.029904112 -0.21731685 0.02892797
0000e0 9c 3f 1f be 38 7b ec bc fd cf 96 3d f8 62 c2 bc
       -0.15551609 -0.028867349 0.07363889 -0.023728833
0000f0 d2 bc d1 bd 8e 45 5a bd a3 f4 b1 3d 92 db a6 bd
       -0.10241093 -0.05328899 0.08689239 -0.081473485
000100 8c 78 21 bd 81 c3 52 bb 3b a4 39 be d3 e3 1f 3e
       -0.039421603 -0.0032159986 -0.18129055 0.15614252
000110 2a 80 28 3c fb b0 0b be 13 fc 98 3d 91 78 e7 bd
       0.010284463 -0.13641731 0.07469954 -0.11302293
000120 ad cc 0d be 71 b6 ef bc aa 53 1a 3d 0b ca 34 bd
       -0.13847609 -0.0292618 0.037677445 -0.044137996
000130 e8 df 5b bb 27 ea a5 bd 6d 02 55 3d 99 f6 bc 3d
       -0.0033550207 -0.08101302 0.052004267 0.09226722
000140 0f 89 d3 3d f6 e9 24 be 0a 79 06 be 58 9e 9c bd
       0.10328876 -0.16104874 -0.1313211 -0.07647389
000150 ba c5 4f be 48 9e 93 3d d9 65 ec 3d 82 cb e0 3d
       -0.2029027 0.07207924 0.115428634 0.10976316
000160 cf 15 32 bb 6b 44 6b 3e 6f ce 2a 3d aa 0e a3 3d
       -0.0027173643 0.22975318 0.041700777 0.07961781
000170 5d 12 14 3e 71 39 a7 bd a1 05 79 3c a7 e8 b8 bc
       0.1446013 -0.08165253 0.015199096 -0.022571875
000180 3c ee ec bd 8c 75 b3 3c b8 df 51 3e a5 85 6a be
       -0.11568877 0.021906637 0.20495498 -0.22902544
000190 4b ff 81 3d 6a 2d d5 3d e9 df 9f bd 02 6d 56 3b
       0.063475214 0.10409053 -0.07806379 0.0032718782
0001a0 20 41 35 be f6 cb 7e bb 26 5f 51 3d cf 7d c8 3d
       -0.17700624 -0.0038878894 0.05111613 0.09789621
0001b0 bf c7 fd bd cf 7e 6b 3d 6f f8 41 bd 5e 0a d6 3c
       -0.12391614 0.05749398 -0.047356065 0.02612799
0001c0 f1 cd 81 3c 30 8f 37 bd 97 bc 0b be 2a ab fc 3c
       0.01584527 -0.04481429 -0.1364616 0.030843336
0001d0 a0 39 5e bd 0e 0a 58 3d 18 3f ee bd 3b 71 88 bd
       -0.054254174 0.052743964 -0.11633128 -0.06662222
0001e0 2b b9 43 3e c9 b6 a4 bc 51 89 ee bc 35 c8 40 bd
       0.19113605 -0.02010669 -0.029118212 -0.047065932
0001f0 8c 1b 1a 3c af a7 fb 3c 67 d4 a9 3d 78 ca 16 3e
       0.009405982 0.030719606 0.08292466 0.14725673
000200 63 eb 3d bd e8 23 46 3d 73 d2 2d be 03 82 88 bb
       -0.04636706 0.048374087 -0.16974811 -0.004165889
000210 37 75 c9 bd 7c 40 04 be d1 38 23 3e 17 4d cd 3d
       -0.0983681 -0.12915224 0.15939642 0.10024469
000220 15 6d bc bd 43 43 bb bd a8 03 98 bc 78 c5 95 bd
       -0.09200493 -0.091436885 -0.018556431 -0.07313055
000230 bb 99 db 3d f7 e8 01 3e 44 ef 2b 3e 35 03 1a 3c
       0.10722681 0.12686525 0.16790491 0.009400179
000240 73 e8 ab bd 00 e7 06 be 8a e1 c4 bd b0 02 1e 3c
       -0.083939455 -0.13174057 -0.09613331 0.009644195
000250 0c ff 00 bd a6 c6 14 3d 96 50 e3 bd c1 77 9c bc
       -0.03149323 0.03632226 -0.11099355 -0.019100072
000260 41 2d c1 bd cc 6d 13 be 03 80 48 3e bd 82 84 3b
       -0.094324596 -0.14397353 0.19580083 0.0040439055
000270 e0 2f 09 3e 0b b7 d0 bc 7d 77 e1 3c e6 96 a6 3c
       0.13397169 -0.025477907 0.027522797 0.020335626
000280 cb 2d 01 bd 4a b4 a2 3c f9 55 7c bc 68 34 d0 3d
       -0.031537812 0.01986136 -0.015401357 0.10166246
000290 d2 65 b9 bc ee 8e be 3d 67 80 7e 3c 6e 66 03 be
       -0.02263156 0.093046054 0.015533543 -0.12832043
0002a0 ca 65 b7 bc f9 17 d5 3d 3d fb 0b be ae e2 0f bd
       -0.022387404 0.10404963 -0.13670059 -0.035128288
0002b0 09 0a 0b bc 1f 3b 83 3d 2c 4b db 3d 6e 2e 65 3d
       -0.008486279 0.06407761 0.10707697 0.055952482
0002c0 df 74 be 3d 67 c8 ad 3d 14 a7 dd bd 49 3d a2 3a
       0.09299635 0.08485489 -0.10822883 0.0012377884
0002d0 b7 6b 5b 3d e9 b0 ed bd 0a 87 1d 3d e7 c5 14 bc
       0.05356952 -0.116060086 0.03845886 -0.009080387
0002e0 b7 57 c0 bc 48 7b 2d bd 95 b1 db bd 89 f5 32 be
       -0.023479326 -0.0423539 -0.107272305 -0.17476477
0002f0 48 37 84 3d 73 25 a8 bc 68 1c 94 3d 7d 38 b7 bd
       0.064558566 -0.02052567 0.072319806 -0.08946321
000300 78 1e bb bd 8f 80 8d bd b3 4e f5 3d c6 46 e6 3c
       -0.09136671 -0.06909286 0.11977901 0.02810992
000310 25 a2 33 3e 49 05 71 bd 11 b3 e3 3d 4f 9c 1e 3e
       0.17542322 -0.05884293 0.111181386 0.15489314
000320 8e d0 c1 bc 30 22 08 3d 12 c3 f3 3c c7 74 05 3d
       -0.023659017 0.03323573 0.029756103 0.03258207
000330 ce f2 02 be cb dc cc 3d ff 65 84 3b ea b0 be 3b
       -0.12787935 0.100030504 0.004040479 0.0058194296
000340 4a ae 0b 3e 7c 72 73 bd 69 87 f5 bd 48 71 7e 3d
       0.13640705 -0.059435353 -0.11988718 0.062119752
000350 1b 13 29 3c 6b 3b 65 3c 39 87 c7 bd 9d 78 8a bd
       0.0103194965 0.013991217 -0.097425885 -0.067612864
000360 9e ea c3 3c f5 fe 09 3e 06 af f7 3c 0a 03 ad 3d
       0.023915585 0.13476165 0.030234825 0.08447845
000370 0f e5 9a 3d c5 fa b9 3d 82 9d 50 bd 47 e8 ba 3d
       0.07563221 0.090810336 -0.05093146 0.09126335
000380 44 56 90 bd 44 c6 5e bd 0c 67 21 be b1 63 89 bd
       -0.07047704 -0.0543883 -0.15761966 -0.06708468
000390 93 2d 6f bd 18 b9 37 3d 18 77 72 bc 61 6e ad 3d
       -0.058393072 0.044854254 -0.014798902 0.08468319
0003a0 86 ce 30 3e c3 33 40 bd 3c 19 82 bc a2 7c f7 3c
       0.17266282 -0.046924364 -0.015881173 0.030210797
0003b0 89 97 5d bd aa 77 12 be 8b 13 57 3e 0d 5d 95 3d
       -0.054099593 -0.1430346 0.21003549 0.07293139
0003c0 42 ea bc bc 8e f9 13 bd 1c d4 c2 bd 28 7f 4f be
       -0.023060922 -0.036126666 -0.09513113 -0.2026335
0003d0 2e 05 6f 3d fa 98 68 bb cc 0a f7 bc 67 92 dc bc
       0.05835455 -0.0035491572 -0.030156516 -0.026925279
0003e0 7b c0 08 bd a0 f4 9b bd 4c 57 34 be 61 f7 eb 3c
       -0.03338669 -0.07615018 -0.17611426 0.028804483
0003f0 a4 21 cf bb 0a 03 19 bd 79 05 ca 3d 25 70 88 bd
       -0.006321149 -0.037356414 0.09864325 -0.06662015

network_body._body_endoder.seq_layers.0.bias f4 [128]
000000 00 00 00 00 a6 0e 61 10 f6 31 1e b1 3a ef 44 a2
       0.0 4.438471e-29 -2.3020426e-09 -2.6689599e-18
000010 7b 93 48 27 4d 7e 92 bc 60 b0 4f bd 56 bd 7f bc
       2.7835525e-15 -0.01788249 -0.050705314 -0.015609106
000020 00 00 00 00 41 aa 0b bc 71 95 bf bc 79 6b 91 30
       0.0 -0.008524478 -0.023386689 1.0580684e-09
000030 32 d1 37 bc e9 c4 e1 a4 7e fa 70 bd b0 dd 23 bd
       -0.01121931 -9.7911774e-17 -0.058832638 -0.04000634
000040 4c 29 80 ac 5b 73 62 bb 9e 06 87 bc 00 00 00 00
       -3.6425637e-12 -0.003455362 -0.016482648 0.0
000050 a4 87 25 bd dd 46 2f bc 0f e6 55 3b 34 77 80 bb
       -0.04041256 -0.0106980475 0.0032638346 -0.00392046
000060 00 00 00 00 c8 c1 27 bc 00 00 00 00 00 00 00 00
       0.0 -0.010239072 0.0 0.0
000070 68 1a 23 bc e4 e5 f0 bb c7 e8 76 a7 fa d2 27 a4
       -0.009955026 -0.007351624 -3.4265547e-15 -3.6391057e-17
000080 8a 06 c6 bd 1c 48 89 bc be 1b 86 3c ea b3 8b 92
       -0.09669216 -0.016758017 0.01637065 -8.8164855e-28
000090 8f d8 9d bc aa a0 3e 93 4f cc 46 bc 31 aa 66 bc
       -0.019268302 -2.4060585e-27 -0.012133672 -0.014078663
0000a0 53 ec bc bc 9e dd 95 bb a3 c1 6e 09 2f 6a 0d 05
       -0.023061907 -0.004573538 2.8739255e-33 6.649291e-36
0000b0 65 06 0c 3b 41 e8 57 bd ca 22 95 2b 3c 25 2e 88
       0.0021366116 -0.05271173 1.0596743e-12 -5.240499e-34
0000c0 d4 66 ac bc 0e b6 9e 1e 00 00 00 00 f4 23 85 bc
       -0.021045126 1.6804197e-20 0.0 -0.016252495
0000d0 5d 6a 93 bc cb c1 1a bc 00 76 7e 3b fa de 2c 3c
       -0.017995054 -0.009445618 0.0038827658 0.010551209
0000e0 ba 87 0c bb 5b 04 40 3b bd 38 0a bd 61 95 e8 bb
       -0.0021443204 0.002929947 -0.033745516 -0.0070978855
0000f0 d0 74 8f ba 2c 5a 5e 3b 3d ff a0 bb 83 72 8f b6
       -0.0010944847 0.0033928258 -0.0049132393 -4.275063e-06
000100 2b 3d 3d bc 4f ae 3f bd 46 bc e3 bc b5 cb a5 bb
       -0.011550228 -0.046797093 -0.027799737 -0.005059684
000110 27 ca 3b bc c0 17 b9 bb 12 bb e1 bc 00 00 00 00
       -0.011461771 -0.005648583 -0.027555022 0.0
000120 84 d4 75 bd 18 2f 0d bc 00 cc 3f ad d7 15 21 3c
       -0.060017124 -0.008617185 -1.090239e-11 0.009831867
000130 d9 4d bb 91 6a 1b 97 bd 4d fc 3b bb 82 e9 8b bc
       -2.9551375e-28 -0.07378276 -0.0028684319 -0.017079119
000140 44 19 1f 3b 99 48 a7 87 85 e8 ed 3b 8b 00 5f bd
       0.0024276534 -2.5170036e-34 0.0072603845 -0.054443877
000150 a3 b3 42 13 cd a3 75 34 ca 24 27 2c c7 cd c5 3b
       2.457481e-27 2.2876993e-07 2.375255e-12 0.0060364935
000160 35 9e 43 24 4c 7d 1c b9 00 00 00 00 f2 92 e9 bc
       4.241789e-17 -0.00014923996 0.0 -0.028512452
000170 94 15 17 34 f7 84 3e ac e6 56 e1 bc 40 dd 00 bd
       1.4070821e-07 -2.7074434e-12 -0.027507257 -0.031461
000180 37 41 fa 3b 62 98 25 bc 70 4f 3e a9 28 93 09 b9
       0.0076371687 -0.010107132 -4.2257376e-14 -0.00013120158
000190 96 9e 37 91 8f c9 a4 bc 56 53 28 bd d8 72 60 bc
       -1.4485023e-28 -0.020115642 -0.0410951 -0.013699256
0001a0 70 f5 66 bc d5 db 42 bc f0 ca b8 bc 87 1b 4f bd
       -0.014096603 -0.011893232 -0.022557706 -0.05056336
0001b0 5c 4c c2 bc 0f c5 47 bc b8 6c 18 2f fc ec e1 04
       -0.023718052 -0.0121929785 1.3862944e-10 5.311488e-36
0001c0 34 b4 85 08 e1 82 89 bc 64 a9 09 bc c0 b1 05 bc
       8.047012e-34 -0.01678604 -0.008402202 -0.008160055
0001d0 4c 93 df bc 65 c6 e2 84 fc 36 16 3c ab a0 f8 bb
       -0.027291916 -5.331454e-36 0.009168383 -0.0075875125
0001e0 00 00 00 00 00 00 00 00 a8 27 ef 24 1b d3 3a bd
       0.0 0.0 1.0371691e-16 -0.045611482
0001f0 e3 ed 49 bc d9 c9 8c bc 54 9d ce 90 b2 96 d0 3b
       -0.012324783 -0.017186092 -8.1495076e-29 0.0063656205

network_body._body_endoder.seq_layers.2.weight f4 [128, 128]
000000 49 66 da 3b 99 9c f8 bc e7 a1 86 3b 88 5d 96 bd
       0.0066650254 -0.03034811 0.0041086557 -0.073420584
000010 d8 1d 86 3d 6e 94 c5 3c 4c 0c a7 bd 32 99 39 3d
       0.06548661 0.024118628 -0.08156642 0.045312114
000020 0e 73 26 3d 8e ec b9 3d 3b 49 cb bd 41 e5 06 3e
       0.04063707 0.09078322 -0.09926077 0.13173391
000030 d7 a3 63 bc 57 95 08 3e 31 75 ca bd 1a f4 81 bd
       -0.013894043 0.13338219 -0.09885634 -0.06345387
000040 2e 83 aa 3c 99 96 02 be 75 4a a3 bd 7f 02 8d 3d
       0.020814504 -0.12752761 -0.07973186 0.06885242
000050 5e 8d bb bd 79 19 b1 3d 89 e5 0e bd d2 a7 ca 3a
       -0.09157823 0.08647437 -0.03488687 0.0015461391
000060 f1 a4 db 3d 3c 3e 0c be 00 25 01 be 31 5e 87 3c
       0.107248195 -0.13695616 -0.1261177 0.016524406
000070 77 24 1c 3d 07 ce 23 be 9c 9a 4d bd b2 3f e2 bd
       0.038120713 -0.15996562 -0.050196275 -0.11047305
000080 63 85 be bd b8 a4 fc 3b e7 1b 5a bd 5e ae d9 3d
       -0.09302785 0.0077100657 -0.053249266 0.10628961
000090 4d 63 0c be 05 98 4e bd 60 7f 97 3d 3e 7a 09 be
       -0.13709755 -0.050437946 0.07397342 -0.13425538
0000a0 eb 68 0d be 56 70 65 3d 0b 5a 95 bd 95 e4 fd 3d
       -0.13809554 0.056015335 -0.07292565 0.12397114
0000b0 b9 30 58 3d 86 f6 6f bd 6a 74 37 3e 36 c3 8c 3c
       0.05278084 -0.058584712 0.17915502 0.017182928
0000c0 e5 ae f3 3d 03 a7 31 3d 76 33 56 be 92 10 2e 3e
       0.11898593 0.043372165 -0.20918068 0.16998509
0000d0 bb 2b 03 be d7 90 5b bd ec 15 cb bd 9c 90 8d bd
       -0.1280965 -0.053604927 -0.09916291 -0.06912348
0000e0 78 54 e5 3c a7 5f 3a bd 81 dd d5 bb ed 45 a7 3d
       0.02799438 -0.045501377 -0.0065266495 0.08167634
0000f0 8c 2a ff bc eb 7b fa 3c 87 2a 06 bd 70 de cf 3b
       -0.031148218 0.030576667 -0.0327554 0.0063436553
000100 c7 c4 cf 3c cc f9 8c bd f2 19 51 3e f9 3a fb 3c
       0.025362385 -0.068835825 0.20420054 0.030667769
000110 f0 0f 3b bc 9e 94 be 3d 91 05 d3 bd e7 43 00 bd
       -0.011417374 0.0930569 -0.10303796 -0.031314757
000120 bc b9 31 bd a7 98 f2 bd 3d d4 d4 3d ae 0f cd 3d
       -0.04339002 -0.118455224 0.10392044 0.10012756
000130 4b 5f 76 3d b3 af 8d bd ee bc 3c 3c 9f dc 3e be
       0.060149472 -0.069182776 0.011519654 -0.18638848
000140 07 13 d5 bd 10 94 ca 3d 4e ed c8 3c 8c 0f f3 3d
       -0.1040402 0.09891522 0.024527218 0.118682
000150 ba 1e b2 3d b6 49 b5 3a 5b 96 25 bd 03 d6 0d be
       0.08697267 0.0013831172 -0.040426593 -0.1385117
000160 74 78 8a bd 1c 8f bc 3c 0e 81 e3 bd 34 6e 87 bd
       -0.06761256 0.023017459 -0.111085996 -0.066128165
000170 24 6a d9 bc 56 c9 90 bd 72 85 8f bd f2 25 b6 bd
       -0.02653987 -0.07069652 -0.070078745 -0.08893956
000180 e4 bf 59 bd b7 03 80 bd c7 55 09 3d 83 65 14 be
       -0.053161517 -0.062507086 0.03352907 -0.14491849
000190 16 c1 98 bc 30 72 53 3d 16 61 3b bc fa c6 9f bd
       -0.018646758 0.05162257 -0.011436721 -0.07801624
0001a0 21 08 f9 3d e3 b9 08 be 43 81 33 bd 19 49 00 3c
       0.121597536 -0.1335216 -0.043824445 0.007829928
0001b0 4c f1 54 3d 6e ef 2f bd c1 ca e1 bc a1 f3 50 be
       0.05198793 -0.042952947 -0.0275625 -0.20405437
0001c0 67 c6 0f 3e bd aa f3 b8 3a 5b c7 3d 28 28 ca bc
       0.14040528 -0.000116189454 0.09734197 -0.024677351
0001d0 dc ac c9 3d 07 23 0c 3e d4 a8 5d 3e 48 bf 49 bd
       0.098474234 0.13685237 0.21646434 -0.049254686
0001e0 90 19 bf bd ab 14 c0 3d 0a c5 1a 3e 2a 79 1f be
       -0.093310475 0.09378942 0.15114227 -0.15573564
0001f0 90 ad aa 3d c0 c8 c3 bd 0d 58 b0 3d 6b 98 5d bd
       0.08333886 -0.095597744 0.08610544 -0.054100435
000200 0f b8 0b 3d b1 b9 61 3d 14 f7 87 bb 39 e2 a1 bc
       0.03411108 0.05510873 -0.004149327 -0.019761192
000210 4f c7 d3 bd 86 01 96 3d 1c 1d 83 bd eb ac f3 3c
       -0.103407495 0.07324509 -0.064020365 0.02974554
000220 ac d2 a2 bc cb 62 8f 3c 6b ab 3e 3d 18 f5 96 3d
       -0.019875847 0.017503163 0.046550196 0.07370967
000230 68 d6 50 bd b2 36 0b 3d de 6f 52 3d e2 d8 03 3c
       -0.050985724 0.03398771 0.051376216 0.008047314
000240 f0 0e 15 3d ff 6f f0 3c 42 a2 54 bc 0f d8 a4 bc
       0.0363912 0.029350279 -0.012978138 -0.020122556
000250 99 70 02 be 52 6c f4 bd e7 14 54 3d ad 64 a5 3d
       -0.12738265 -0.11934723 0.051777747 0.08075843
000260 e9 94 24 3e b2 a1 34 3c 3f fb 16 bd 35 7f da 3b
       0.1607243 0.011024879 -0.0368607 0.0066679963
000270 1f 51 e8 3c 2a b6 a4 3c 33 24 0b 3d 99 92 91 bd
       0.028358994 0.020106394 0.03397007 -0.071080394
000280 b9 78 73 bc 3a 4e 1a bd 6a 21 95 3e 99 e3 6a bc
       -0.0148603255 -0.03767226 0.29127055 -0.01433649
000290 bd 81 26 bd 62 5c 16 3d 6e d1 5d bd e5 29 37 3d
       -0.04065107 0.036709197 -0.054154806 0.044717688
0002a0 c9 4c 84 3d 23 c6 04 3b f1 67 bc bd 02 fc 04 3e
       0.06459958 0.00202597 -0.09199513 0.12986758
0002b0 bf d7 0c bd 91 d7 78 3c ac 55 1c 3e 5a f9 68 3d
       -0.03438544 0.015188114 0.15267056 0.056878425
0002c0 10 68 02 3b ac df a5 3d ae 58 5e 3d db 24 5f be
       0.0019898452 0.08099303 0.05428379 -0.21791403
0002d0 61 b7 10 be 91 26 14 bd a4 9a af bd 84 db 9e bd
       -0.14132454 -0.036169592 -0.08574417 -0.07756713
0002e0 f5 2b 2a bd e5 e0 ba bb 34 12 24 be b4 c0 17 3d
       -0.041545827 -0.005703079 -0.16022569 0.03704901
0002f0 5a eb 4a 3e eb c1 bc bc d4 cb 00 3d 56 00 dd bc
       0.19816342 -0.023041686 0.031444386 -0.0269777
000300 eb 50 17 3d e9 41 93 3c 8a fb b8 bd ea 7f dd 3c
       0.036942404 0.017975764 -0.09032352 0.027038533
000310 f5 20 07 3e a2 bf 97 bd 8c 37 fc bd 80 0a 80 3c
       0.13196166 -0.07409598 -0.12315282 0.015630007
000320 42 01 5e 3d 7e cc 15 3e 22 ed d7 bd e4 1b a4 bd
       0.05420042 0.14628789 -0.10543276 -0.08013132
000330 df d0 1e 3b 5c 59 f8 3c e8 34 06 be 1b 0f 25 be
       0.0024233384 0.030316047 -0.1310612 -0.16119044
000340 b7 2c d9 bd ed d3 ea bd 69 72 e5 3c 89 4c 0a 3e
       -0.10604232 -0.11466203 0.028008657 0.13505758
000350 99 db ee bd 07 b9 20 bd 7e 8d 0f bd f2 78 02 3e
       -0.11662979 -0.039238956 -0.035047047 0.1274145
000360 c6 c9 af 3d 48 07 74 3c 12 f7 a0 bd d7 89 94 ba
       0.08583407 0.014894314 -0.07859625 -0.0011332583
000370 07 4f 4f bd 0f 75 9b 3d 6c 14 02 3e 89 a5 3f bd
       -0.050612476 0.075906865 0.12703103 -0.046788726
000380 99 b1 55 3d 00 65 31 3b 9d 62 30 3b 0c b4 75 bd
       0.052171323 0.0027068257 0.0026914247 -0.05998616
000390 4e 8c 81 bd 95 60 24 bd 8e 8f 20 3e 1f 4c 0e be
       -0.06325589 -0.04013117 0.15679762 -0.13896225
0003a0 9b a4 f0 ba f3 43 9b 3d 4a 1a df bb 73 42 09 be
       -0.0018359603 0.0758132 -0.006808554 -0.13404255
0003b0 81 9e ae 3d 29 31 19 3e 65 eb ee 3d a6 f5 7d bc
       0.08526326 0.1496016 0.11665992 -0.015500462
0003c0 97 f2 3f 3d f4 ca 26 3d 50 fd a6 bd 18 cb 28 3c
       0.04686221 0.040720895 -0.08153784 0.010302328
0003d0 b3 46 91 bd 00 4a b1 bd da 81 5c 3c c0 aa 39 be
       -0.07093563 -0.086566925 0.013458693 -0.18131542
0003e0 0d e2 bf bd 4d 37 03 3e a7 f4 ab bc ee 3b c1 bc
       -0.09369288 0.12814064 -0.020990683 -0.023588147
0003f0 fb d0 f0 bd 17 76 2f 3d 82 1f d3 3c 9e 58 d5 3c
       -0.1175861 0.04283723 0.02577186 0.026043233

network_body._body_endoder.seq_layers.2.bias f4 [128]
000000 22 e7 ff 8c a2 7a 6f b7 13 13 ba bc 68 a9 9c bc
       -3.942808e-31 -1.4274063e-05 -0.022714173 -0.019123748
000010 14 3a a4 bc 3f 3a 27 bc 50 11 71 bc 00 00 00 00
       -0.020047225 -0.010206758 -0.0147136 0.0
000020 0b 58 de bb 45 02 9c b9 fb e6 f8 2a 14 63 b9 b6
       -0.006785398 -0.0002975633 4.4213925e-13 -5.524964e-06
000030 6a 19 0e a5 bf 59 d5 bb 0f 2d 99 35 5e 22 8c 25
       -1.2325147e-16 -0.0065109427 1.1412502e-06 2.4309417e-16
000040 82 21 77 bc e7 bd 7a bc 21 42 c1 bb 68 e3 44 bc
       -0.0150836725 -0.015304065 -0.0058977758 -0.0120171085
000050 ee 75 3f bc 9e 37 87 bc 06 0d a6 bc a3 22 ea bb
       -0.0116858315 -0.016506013 -0.020269882 -0.0071452423
000060 83 a5 46 b4 5e 87 40 ba d8 01 a1 0f ed 8e bb ba
       -1.85004e-07 -0.000734439 1.5876536e-29 -0.0014309563
000070 49 9f 85 ba 5c cf 21 bc f0 a3 5e bc 4f 64 09 b7
       -0.0010194565 -0.0098760985 -0.01358889 -8.189191e-06
000080 73 0c 1b bc 5b a3 a4 0a 9e 53 92 24 68 ee 59 a7
       -0.009463417 1.5854073e-32 6.345906e-17 -3.024404e-15
000090 99 59 e1 bc fa 00 9a bc 8a 85 d9 a5 ce 2c ac bc
       -0.027508544 -0.018799294 -3.773399e-16 -0.021017458
0000a0 2f 9a e7 bc 92 e8 75 2d d0 cf 7e ae 75 90 bc bc
       -0.028271763 1.3978279e-11 -5.7937488e-11 -0.023018101
0000b0 93 61 a4 bc 90 da 0c ba 8f dc 6c bc cf 96 ae bb
       -0.020066058 -0.00053731445 -0.014456882 -0.0053280364
0000c0 a7 1c bc bb e7 56 3b 08 3d 54 52 bc b6 58 19 2c
       -0.0057407203 5.637542e-34 -0.012837467 2.1791852e-12
0000d0 9a bf 2b bc ff a3 78 bc 3a da 2d ba f0 30 78 bc
       -0.010482693 -0.015175818 -0.00066319446 -0.015148386
0000e0 0c 4e 60 bc 88 87 06 bb e7 5d 55 b8 eb 62 fa bc
       -0.013690483 -0.002052756 -5.087061e-05 -0.030564746
0000f0 fc d0 ec 33 d8 8e 71 bc 95 0e 98 bc 71 66 83 ba
       1.10276204e-07 -0.014743529 -0.01856164 -0.0010025037
000100 a1 01 cc bb 7a f7 f0 bb 78 a8 a5 bc 15 57 1a bc
       -0.00622578 -0.0073537203 -0.020221934 -0.009420176
000110 84 5c 1d ac 47 0d 86 bc b6 0d cb bc 8f 74 98 bc
       -2.2362398e-12 -0.016363753 -0.024786811 -0.018610267
000120 41 f6 cb 23 d9 1c 37 9c c2 8b a1 bc e3 89 c0 36
       2.2113597e-17 -6.0586906e-22 -0.019719962 5.738098e-06
000130 ed f4 cd a5 17 6f 74 bc 60 a1 e6 bc 93 c4 f0 bb
       -3.57278e-16 -0.014919064 -0.028153121 -0.007347652
000140 34 a2 33 ba 95 2c dd bb 2f 69 b6 bc db d6 38 bc
       -0.0006852478 -0.0067496994 -0.022266952 -0.011281694
000150 d7 36 66 b3 f7 04 49 bc f9 ad 45 bc 56 d1 ee 25
       -5.3600925e-08 -0.01226925 -0.012065404 4.142827e-16
000160 55 67 a9 bc 71 9f 08 bb ea e7 5a bc be 6f 5b bb
       -0.020679155 -0.0020846988 -0.013360957 -0.0033483352
000170 5f 67 9a bc 2d b5 2b bc 02 7a 5b bc 46 c6 a4 a9
       -0.01884812 -0.010480207 -0.013395788 -7.317458e-14
000180 8e 90 4d ae 2d c8 41 20 62 d9 f5 bb fc 40 7e bc
       -4.6739994e-11 1.6413968e-19 -0.0075027207 -0.015518423
000190 b7 df 2b bc fa 3f 58 22 da 02 ec bb dd cd 9d bc
       -0.0104903495 2.9307328e-18 -0.0072024884 -0.019263202
0001a0 e3 97 c6 bc a9 fd 08 8d 7e 6d 6b 18 04 b2 22 2e
       -0.024242347 -4.221357e-31 3.0428318e-24 3.6992645e-11
0001b0 c9 f7 f3 bb 22 6c 96 30 80 3a b2 b0 95 96 2e bc
       -0.00744531 1.094467e-09 -1.2967831e-09 -0.010656019
0001c0 6c 2c e6 bb 2f 90 e3 bc 2a ad 43 bc 1a 01 7b 24
       -0.0070243385 -0.027778713 -0.011943141 5.4427882e-17
0001d0 f9 54 91 bc 42 bf 35 bc 9c 11 83 bc 9c b9 8e 23
       -0.017740713 -0.011092963 -0.015999608 1.547428e-17
0001e0 9e 4a 42 bc 98 2e ae bc 29 86 c7 aa 12 da 2d bc
       -0.01185861 -0.021262452 -3.5442593e-13 -0.010611074
0001f0 e9 e3 fa bb 6e 67 12 2c 2f 93 74 2f c6 b7 0b a3
       -0.0076565635 2.0805263e-12 2.2243961e-10 -7.574121e-18

action_model._discrete_distribution.branches.0.weight f4 [3, 128]
000000 cc 20 cb 3b 31 b2 2f bb d4 63 a0 3c 4a f8 3d bc
       0.006198978 -0.0026809091 0.019578852 -0.011594841
000010 e6 5d ca 3a bf 47 2f bc 4f c9 1a 3b 87 3b 53 3b
       0.0015439361 -0.010698258 0.0023618524 0.0032231526
000020 f3 3f 08 bc 4d 5e 30 bb 97 08 8c 3a 38 ca df 3b
       -0.008316028 -0.0026911676 0.0010683712 0.0068295263
000030 5f 7d a7 3b 96 00 9c ba 85 0e 3c 3c fa 01 ab 3a
       0.005111381 -0.001190203 0.011478071 0.0013046854
000040 c6 2f 4a 3b ac 3a 9f bb 51 87 11 3c 08 52 e9 3b
       0.003085123 -0.004859289 0.00888236 0.0071203746
000050 a7 f0 f2 3b b0 4c af bc f1 da ea 38 ad 27 09 bc
       0.007413942 -0.021398872 0.000111987705 -0.008371276
000060 f9 1a db 3b 6a 40 c8 bb 9f 86 6a bc 9c ca 02 bc
       0.006686565 -0.0061111944 -0.014314323 -0.007982876
000070 02 c2 03 bc 85 d2 a7 3b d1 87 e0 3a 45 36 a4 3a
       -0.008041861 0.0051215314 0.001713032 0.0012528381
000080 ca 9e 08 3c a5 5b 68 ba 01 f6 94 3c 33 db 26 3c
       0.0083386395 -0.0008863754 0.01818371 0.010184097
000090 09 ac 06 bb 3f e1 95 bb 00 bc 55 bc c8 de 87 3b
       -0.0020549318 -0.0045739706 -0.013045311 0.0041464306
0000a0 c0 af 9d 3b 01 3b 8c bc ed f2 59 bc 34 84 5a 3b
       0.004812211 -0.017117979 -0.013302547 0.003334296
0000b0 8b 87 a0 bc cf 91 53 3a 0e dc cd 3c 3f c1 33 bc
       -0.019595882 0.00080707384 0.025129344 -0.010971366
0000c0 b2 49 5b 3a a3 a9 48 bb a7 59 9b 3b 92 3d 90 3c
       0.00083651685 -0.003061869 0.004740912 0.017607484
0000d0 5e 85 2d bb 68 15 22 3c 24 46 ba 3b c7 b8 02 bb
       -0.0026477198 0.009892799 0.005684631 -0.0019946562
0000e0 d4 23 e7 bb 0b db 4f 3b 60 8c be bb e0 06 a9 bb
       -0.0070538316 0.0031716253 -0.005815074 -0.0051582903
0000f0 45 3b 2b 3b d7 de a9 b9 73 56 8e b7 9b fd 74 bb
       0.0026127857 -0.0003240022 -1.6967975e-05 -0.0037382606
000100 2d c0 64 3a d5 70 1f bc 72 34 e3 bc c7 2e 06 39
       0.0008726146 -0.009731491 -0.027734969 0.00012796662
000110 aa 05 5d 3c 62 f6 9a bc e6 33 a7 3c f5 13 8c bb
       0.01349012 -0.018916313 0.02041049 -0.00427484
000120 ae f6 41 ba 2f 91 5c bb 6f 77 d0 bc a9 b8 6c ba
       -0.0007399124 -0.0033655872 -0.025447575 -0.0009030202
000130 1c 49 14 bb 10 2a 9e bc b5 f8 9c bb 1f c8 68 ba
       -0.0022626584 -0.019307166 -0.0047903904 -0.0008879918
000140 26 c1 31 bc a0 20 48 3c 06 2b 2b 3c 68 b8 db bb
       -0.010849273 0.01221481 0.010447269 -0.0067053325
000150 6c 17 9a 3c 19 ed d8 3b f8 59 97 3a d5 32 c7 bb
       0.018809997 0.006620061 0.0011547199 -0.0060790577
000160 a3 ee 02 3b ba 8d 0e 3c 87 50 bc bb 27 e6 98 bc
       0.0019978664 0.008700782 -0.0057469043 -0.018664433
000170 14 9a b9 3c 6f c6 4d bb 71 b1 60 bb 45 e3 d6 3a
       0.022656478 -0.0031398793 -0.003428545 0.0016394636
000180 b0 a8 50 ba 9e aa 9a 3b 3b 3f 30 bb 25 39 60 bc
       -0.00079597067 0.004720046 -0.0026893157 -0.013685499
000190 30 f3 85 ba 85 f9 84 3b cf 33 c2 b9 e6 75 d7 3b
       -0.001021957 0.0040580654 -0.00037041164 0.006575334
0001a0 97 25 1e bc 77 43 92 bb e3 7c c6 3b ab e4 1f 3b
       -0.009652517 -0.004463609 0.006057368 0.0024397771
0001b0 af 5a 16 3b 55 73 3e 3b 3b ea cd bb bf fc c9 bb
       0.0022942235 0.0029060442 -0.006284026 -0.006164163
0001c0 de 08 0d bd 79 51 b0 3b 35 62 b2 3c 70 b0 23 3c
       -0.034432285 0.005380806 0.021775344 0.009990796
0001d0 f8 07 99 bb 75 78 bf bb e4 b0 68 3c 0a 87 31 3c
       -0.0046701394 -0.005843217 0.01420233 0.0108354185
0001e0 c3 8e 7f b9 93 9d 36 3a 23 4d 6a bc 68 b5 96 3c
       -0.00024371878 0.00069662294 -0.014300617 0.018397048
0001f0 71 f3 93 bc 4f a1 d1 bb de 3e 90 ba 5d 1e e3 bb
       -0.018060418 -0.0063974033 -0.0011005064 -0.00693111
000200 76 59 c2 3b 35 18 04 3c a8 30 b8 39 eb 3d 34 bc
       0.0059310747 0.008062412 0.00035131467 -0.0110010905
000210 67 a0 9b 3c db c1 17 3d 07 2d 88 3c 7b 05 0b bc
       0.018997384 0.03705011 0.016623033 -0.008485193
000220 14 b7 12 3a 02 cc 9f ba d6 12 24 bc 4b 9c 21 bc
       0.0005596739 -0.0012191536 -0.010014256 -0.009863923
000230 da 29 de b9 56 31 22 bc e9 5f 58 ba 8f 8f 32 3c
       -0.00042374321 -0.009899458 -0.0008254038 0.010898485
000240 30 45 aa bb f8 52 18 bd d8 c0 00 bd 12 80 06 bc
       -0.005196236 -0.0371885 -0.03143391 -0.008209245
000250 ec 5d 88 3c 4b d0 ca bc f7 29 b7 bb c5 4a c4 bb
       0.016646348 -0.024757525 -0.0055897194 -0.0059903585
000260 70 34 2c 3c 66 e2 f2 ba d3 be 47 3b 73 4f 3a 3c
       0.010510549 -0.0018530607 0.003047873 0.011371481
000270 21 25 4d bc 9a e5 74 3a bc e5 fb 3a 08 57 60 3b
       -0.012521059 0.00093420746 0.0019218246 0.0034231562
000280 3e be d0 3c 63 85 98 bb 45 91 0c 3c 9f b6 f7 bb
       0.02548134 -0.004654573 0.008579557 -0.007559612
000290 39 81 61 3b 5d f0 37 b7 dc 34 22 ba 54 87 f8 3a
       0.0034409298 -1.0963614e-05 -0.0006187686 0.0018961229
0002a0 6f bf 09 ba a5 13 12 bc 0f b3 cc bb 00 85 8a 3c
       -0.0005254661 -0.008915816 -0.0062469314 0.016909122
0002b0 c1 6e af bc 4c 8a b6 3a 17 ba 87 bc 60 ee 07 3b
       -0.021415116 0.0013926714 -0.016568227 0.0020741448
0002c0 ca f8 52 bc 10 b9 07 3b c4 25 7b bb 45 26 9e bb
       -0.012876699 0.002070967 -0.003832207 -0.0048263394
0002d0 58 dd 46 3c 2a 3b 1e 3a 17 f5 13 3a 8e 9f 78 3c
       0.012137733 0.0006036038 0.0005644126 0.01517476
0002e0 5c d5 11 bc 90 26 c8 bb 93 cb 47 ba 0f 59 c7 bc
       -0.0089009665 -0.0061081126 -0.00076215825 -0.024334459
0002f0 72 74 ba bb 0d 85 c3 bb 70 2a 3b 3c ad 1b 33 3c
       -0.005690151 -0.0059667886 0.011423692 0.010931891
000300 6b 58 84 3c 0f 67 c4 3c 38 77 53 3a 08 52 15 bc
       0.016155442 0.023974923 0.0008066776 -0.009113796
000310 c9 2e b8 bb e1 92 30 bc e2 0c 84 3c 01 30 0c 3c
       -0.0056208116 -0.010777206 0.016119424 0.008556367
000320 cf 33 37 3c 93 36 aa bc e9 42 bb 3b 6f e0 20 3c
       0.011181786 -0.020777976 0.0057147634 0.009819134
000330 c9 ad 39 3c 62 ce 20 3c 74 87 f7 bb a4 a3 bd 39
       0.0113329375 0.0098148305 -0.007553989 0.0003617081
000340 73 4b 17 3c 0f 7b df 3b 72 65 0f 3c f4 67 ae bc
       0.009234297 0.0068200896 0.008752214 -0.021289803
000350 78 2b a0 ba af b1 45 bc 48 e6 06 3d cb 60 29 3b
       -0.0012219986 -0.012066289 0.032934457 0.0025845047
000360 da cf 4e 3c 5b 95 2c bc 07 6e 4f 3c 58 e1 3a 3b
       0.012622798 -0.010533656 0.01266051 0.0028515663
000370 28 62 61 3c 7f 8b 39 bc fd de 08 3c d7 81 13 3c
       0.013756312 -0.011324762 0.008353946 0.009003124
000380 09 31 45 3a de c3 32 b9 35 39 ba bc 3e 42 87 bc
       0.00075222604 -0.00017048369 -0.022732357 -0.016511079
000390 91 84 dc 3c 3c b8 09 3c 8d 24 ae 3c cb 33 9c ba
       0.026918681 0.008405741 0.021257663 -0.0011917291
0003a0 d0 94 1d bb 02 03 ce bc b6 4f 92 3c c2 95 13 bc
       -0.0024044998 -0.025147919 0.017860275 -0.009007873
0003b0 a7 94 a8 bb 70 1f 9b 3b 60 aa 16 bb df 23 39 3c
       -0.005144674 0.0047339723 -0.0022989735 0.011300056
0003c0 86 c5 e8 bc 1c f1 95 3a 6c 0c 12 bd 73 80 b9 bb
       -0.028414499 0.0011439654 -0.035656378 -0.0056610643
0003d0 e2 e3 c0 b9 a2 ec 2c ba 3d 90 af 3c 45 ba 7e 3b
       -0.0003679088 -0.00065965403 0.021431083 0.003886835
0003e0 99 0f e9 3c d4 7a 89 3b 61 fa 9d 3b 90 a0 8c bb
       0.02844982 0.0041955505 0.0048211073 -0.0042916015
0003f0 b4 3b e7 3c cd 2d 24 bc e4 9f 07 bc be df 37 3c
       0.02822671 -0.010020685 -0.008277867 0.011222778

action_model._discrete_distribution.branches.0.bias f4 [3]
000000 2c 7b b9 3d 79 fc b8 3d 62 ca 29 be
       0.09056696 0.0903253 -0.16581109

action_model._discrete_distribution.branches.1.weight f4 [2, 128]
000000 aa 06 83 3b 65 5c 74 3b 9f 4d 27 bb 02 66 d7 3b
       0.003998597 0.0037286517 -0.0025528444 0.0065734396
000010 7e b5 cd bc a4 8e 93 bc 5a f5 54 39 e2 83 db 3b
       -0.025110956 -0.018012352 0.00020309296 0.0066990713
000020 39 78 7e 3a 3b 0c 93 3b ad a6 61 bc 53 88 ac bb
       0.00097072456 0.004487542 -0.013772649 -0.0052652746
000030 65 47 15 3c 31 15 db bb 83 a9 10 bc 87 a8 b7 bb
       0.00911126 -0.006685876 -0.008829477 -0.005604807
000040 21 e0 00 39 b4 43 c1 3b b2 80 b8 3b 9a df 36 bc
       0.00012290526 0.0058979634 0.005630576 -0.011161709
000050 d0 28 b1 bb 07 ed 59 3c 92 7d a3 3b 53 7b fd bb
       -0.0054064766 0.013301141 0.0049893344 -0.0077356487
000060 02 ea 18 bb 70 f6 33 bc eb e9 73 bb ed be b1 3c
       -0.002333284 -0.010984048 -0.0037218283 0.021697486
000070 01 c0 0d bc 91 5f 23 bc 03 fc 3b bc 7c da 14 3c
       -0.008651734 -0.009971515 -0.0114736585 0.009085294
000080 d6 3d 0d 3c 69 7f a1 3b ad 0c 9e 3b 78 93 3c 3c
       0.0086207 0.0049285186 0.0048232884 0.011509769
000090 68 e9 e4 bb 38 a2 b2 bb bd 70 6f 3c df 04 c6 3a
       -0.006985832 -0.005451467 0.014614281 0.0015107653
0000a0 8d 15 0f 3c 93 69 8d bb c9 52 78 bb a7 67 05 3c
       0.008733165 -0.004315564 -0.003789114 0.008142388
0000b0 e3 77 6c bb 43 db 84 bc 0f 43 88 3c dd 97 8f bb
       -0.00360822 -0.016217833 0.016633539 -0.004382117
0000c0 da 3e 14 3c a3 f1 23 bc 4b b6 38 3d d3 ec 63 bc
       0.009048188 -0.010006341 0.045095723 -0.013911444
0000d0 0b 0e cd 3c 95 7d 0c bc ad 14 d3 3b d4 d4 94 ba
       0.02503111 -0.008574863 0.0064416737 -0.0011354932
0000e0 bf 4e 47 bb 5b 9f e2 39 e9 d1 34 3b 7c ad 93 bc
       -0.0030411927 0.00043224808 0.0027590937 -0.01802706
0000f0 e3 2f cc bb 20 4a 66 ba 2f 8b 59 bc 94 f9 b9 3b
       -0.0062312945 -0.0008784849 -0.013277813 0.005675504
000100 73 46 9e bc 5c c9 62 3c 21 84 1d bc e2 c5 2c b8
       -0.019320702 0.013841953 -0.0096140215 -4.119229e-05
000110 2b 05 60 bb 64 00 90 bc 7a dc 03 bb 6b dc 8f 3c
       -0.0034182768 -0.017578311 -0.0020120428 0.017561158
000120 f5 ec cd 3a 60 f4 7f ba 48 91 01 bc 1e 81 79 bb
       0.0015710877 -0.0009763893 -0.007908173 -0.0038071345
000130 a9 76 41 3a 48 8d d1 3a a6 e2 0d bc 12 f6 93 3c
       0.00073800475 0.001598754 -0.008659994 0.018061671
000140 9b 92 10 bc 18 1a 0a 3c c8 87 c2 3b 59 f8 93 bb
       -0.008824016 0.008429073 0.0059365965 -0.0045156893
000150 27 6b 02 bc 4a 3f 7e 3c 7b 70 97 3b da 58 76 3c
       -0.007960117 0.015518019 0.004621563 0.015035832
000160 8e 5d 11 bc 22 18 30 bc bb e9 9a 39 29 0a 04 3c
       -0.008872403 -0.010747941 0.00029547312 0.008059063
000170 b4 2c a3 3c b3 fb 84 3c 4b 5f 80 3b 62 70 8b bb
       0.019918777 0.0162333 0.00391761 -0.0042553404
000180 0a ca 8c bc df 83 8e 3b f0 12 ac bb 8e 25 65 bb
       -0.017186183 0.0043492164 -0.005251281 -0.0034965011
000190 3b 04 9e bb d5 f9 a4 3b c8 a5 aa bb ed c3 9d 3b
       -0.0048222817 0.005034665 -0.005207751 0.004814616
0001a0 bf fc 84 3b 2e b1 39 bc 0a 53 8a bc ca 1c 53 3c
       0.00405845 -0.011333747 -0.0168853 0.012885282
0001b0 40 0a 80 bb 41 f7 d9 3a bd d6 a5 3a fc 83 38 3b
       -0.003907472 0.0016629474 0.0012652498 0.002815484
0001c0 fd f7 78 bc 52 c8 a7 bb b2 24 9a bb 00 3d f0 ba
       -0.015195844 -0.0051203156 -0.0047040815 -0.0018328726
0001d0 98 66 4f 3c 3a b1 a1 39 5d 8a 90 3b 32 53 15 bc
       0.012658738 0.00030840357 0.0044110254 -0.009114074
0001e0 ce e9 3c 3c 4d ee 77 3b 20 5b e6 bb fd 61 a4 3c
       0.011530353 0.0037831247 -0.007029906 0.020066256
0001f0 53 d7 e0 bb 3f 79 29 bc 52 47 13 bc e0 99 ec bb
       -0.006861606 -0.010343849 -0.008989172 -0.0072204918
000200 20 91 24 bb 2a 74 e8 38 74 56 3a ba c8 19 0f 3b
       -0.0025110915 0.00011084259 -0.00071082194 0.0021835435
000210 43 23 b3 3c e1 88 fc ba a2 c8 89 3b cb 1b 6e bb
       0.0218674 -0.0019266867 0.0042048255 -0.0036332484
000220 1f 3b 83 39 1d cd 5b bb 0f 9d 92 bb 19 d2 9d 3b
       0.00025030316 -0.0033539005 -0.0044742892 0.0048163054
000230 80 a4 b8 3b 11 c1 c3 bb a3 51 00 3c a4 4e 21 bc
       0.0056348443 -0.005973943 0.007831964 -0.00984541
000240 14 3f 9b 3a fa f8 b0 3b cb 0f 30 3c 07 82 cc bb
       0.001184436 0.005400774 0.010745953 -0.0062410864
000250 80 7a f3 bb 99 2c 0b bc c3 25 bd bb 30 48 66 3b
       -0.0074303746 -0.00849452 -0.005772324 0.0035138242
000260 d3 ac 9c 3a bd 9b be bb 5f 77 39 bc 40 8a ac 3c
       0.0011953361 -0.0058169053 -0.011319964 0.021062016
000270 bc 02 bc ba 87 c8 20 bc 35 5a 90 3b 10 f9 f5 3b
       -0.0014344077 -0.009813434 0.0044052848 0.007506497
000280 ca 6d 42 3a 27 e0 77 3a 8d 11 32 3c 46 88 34 bb
       0.00074168725 0.00094557035 0.010868442 -0.0027547046
000290 c9 79 d8 bb d1 59 7e 3b 05 a0 c9 3b 22 8b 1f bc
       -0.006606315 0.003881086 0.006153109 -0.009737762
0002a0 11 4b 3e bb d0 33 88 3a 0a 3e fa b9 11 41 4f bc
       -0.0029036442 0.0010391418 -0.00047729939 -0.01264979
0002b0 f3 e7 82 3c a9 37 9c 3c 64 76 15 bb 34 2e c3 bb
       0.015979743 0.01906951 -0.0022806162 -0.0059564356
0002c0 fb 21 a8 3b a3 98 e3 3a 67 ed 85 bc fb fb 1f 3b
       0.005131004 0.0017364215 -0.016348554 0.0024411667
0002d0 f0 5d be ba 6c c2 c3 3b c1 41 f1 bb 38 fd b0 bc
       -0.0014523845 0.0059741046 -0.007362575 -0.02160512
0002e0 2c 71 90 3a ec 8e cd 3b 81 2e 28 3c 94 c1 03 bc
       0.0011020056 0.006273141 0.010264994 -0.008041758
0002f0 6c 5c 36 3a 60 dd 50 bb a5 8b 30 3b 7b 7c ac bc
       0.0006956521 -0.003187023 0.0026938703 -0.02105545
000300 26 96 53 3b 72 98 0e bc 7c d0 32 bc 71 8e 95 3b
       0.003228554 -0.008703338 -0.010913964 0.0045640995
000310 67 3f b2 3b 6a ec 7f 3b 92 c2 87 3c a7 1e 5f bc
       0.005439687 0.0039050826 0.01657227 -0.013618148
000320 41 e7 02 3c 57 e7 8f bb 6c 33 62 bb cf 68 99 3b
       0.007989706 -0.0043915915 -0.0034515513 0.0046816836
000330 2f f0 f2 3b 86 5e 10 3c 7a d0 40 3c 4c 98 e5 bc
       0.007413886 0.008811599 0.011768455 -0.028026722
000340 af 70 a7 3c fc 2a ae 3c 37 eb aa 3b 5a e2 13 bc
       0.020439474 0.02126073 0.005216028 -0.009026134
000350 08 e4 36 bc 23 96 bc bb 7e a6 85 3a e9 05 be 3a
       -0.011162765 -0.0057552024 0.0010196713 0.0014497611
000360 b8 72 60 3c 9e 8b af ba d5 61 81 3c 96 d4 f7 bb
       0.013699226 -0.001339305 0.01579372 -0.007563184
000370 13 a5 63 3a 8f fa 2e 3c ac 9b bd bb 55 77 c8 bb
       0.0008683961 0.010679855 -0.00578638 -0.006117741
000380 8c 53 17 bb e0 5a 17 bc 8e 37 48 bc af ba 08 3c
       -0.002309057 -0.009237975 -0.0122202765 0.00834529
000390 96 e0 17 bb 92 b0 b5 3b 2a 59 70 3c 97 a5 50 bb
       -0.0023174635 0.0055447305 0.014669696 -0.003183698
0003a0 cb 27 45 3c fa c6 3c 3b 64 b7 42 bc 63 5c 99 3b
       0.012033413 0.0028805123 -0.011884544 0.004680203
0003b0 d1 62 4b ba e5 d4 48 3c 5d 34 71 3b ff d0 10 bc
       -0.000775856 0.012257789 0.0036804893 -0.008838891
0003c0 aa 93 99 3c 8d 68 03 39 9f 8b 71 bc 5a 5c 96 bb
       0.01874717 0.00012532082 -0.014742761 -0.004588646
0003d0 7d f7 12 bc a3 bc ae bc c3 9f 5c bb c8 83 69 3c
       -0.008970139 -0.021330183 -0.0033664561 0.0142526105
0003e0 dc 65 46 3a 2f a1 00 3b d0 29 62 3b e7 d1 03 3c
       0.0007568279 0.0019627323 0.0034509785 0.00804565
0003f0 6e 25 56 3b 17 0e df bc 5a db 05 3b 47 94 97 3b
       0.0032676118 -0.027228398 0.0020424933 0.0046258303

action_model._discrete_distribution.branches.1.bias f4 [2]
000000 f6 07 2c 3e f8 07 2c be
       0.16799912 -0.16799915

action_model._discrete_distribution.branches.2.weight f4 [3, 128]
000000 ab 7d a8 3b a1 2d 29 bb 8a d0 3a 3c d2 23 40 3c
       0.005141934 -0.002581455 0.011402259 0.01172729
000010 5f 4a 99 3c de 52 3e bc ab 90 7b bb 02 33 16 bb
       0.01871222 -0.011616437 -0.003838579 -0.0022918587
000020 67 f3 cf ba 81 c4 d4 3b ed 36 09 bc 18 28 0b 3b
       -0.0015865386 0.0064931517 -0.008374912 0.0021233615
000030 d0 be 8d 3c f9 97 f5 3a 2f 69 d4 3b 78 d9 a0 bb
       0.0173029 0.0018737308 0.0064822654 -0.004908737
000040 06 75 70 3c b0 2b a7 3b 09 cc ab 3b bd cf 4e 3b
       0.014676338 0.0051016435 0.0052428287 0.0031556927
000050 d1 68 13 bc f2 9f 68 bc 1a 91 f3 bb c4 74 5a ba
       -0.008997158 -0.01419829 -0.007433069 -0.00083334395
000060 de f2 0a bc 63 45 b7 bb e8 df d3 bb 33 be 13 3c
       -0.008480756 -0.0055929883 -0.0064659007 0.009017515
000070 cd 84 93 bb cf 63 9f bc 59 85 4d 3b 7a 66 30 bc
       -0.004501915 -0.019456772 0.003136 -0.01076662
000080 51 f2 a3 bb b8 18 6b 3c e7 57 01 bc 0f 4c 37 bc
       -0.0050032516 0.014349155 -0.007894493 -0.011187567
000090 15 5d 2c 3c cd ad 7a bc 5b a4 b0 3b de 9b 24 bc
       0.010520239 -0.015300226 0.0053906864 -0.010046927
0000a0 8c bb c1 3b b2 41 0a bc 16 da 0e bb a2 72 c6 3c
       0.00591225 -0.008438515 -0.002179747 0.024224583
0000b0 b4 61 a0 bb ce 30 8a 3c 97 fe 63 3c d4 66 46 3b
       -0.0048944596 0.016868975 0.013915679 0.0030273693
0000c0 b3 c4 81 bc 79 a5 be 3b 9c 2c c5 3b d7 d5 b5 3a
       -0.015840864 0.0058180657 0.0060172807 0.0013872933
0000d0 85 d4 1f ba 15 ad 0c 3c ae ce 8b ba 24 2a 9c 3b
       -0.00060970365 0.008586188 -0.0010666454 0.0047657657
0000e0 fa 24 ab 3b a3 b1 51 3b 2b 64 3e 3c 59 92 b2 3c
       0.005222914 0.003199675 0.011620562 0.0217983
0000f0 99 28 a8 ba 06 91 ad 3b 7f 97 db bb 90 de 5e bb
       -0.0012829482 0.005296829 -0.0067014094 -0.003400717
000100 68 3d 26 3c d0 a8 9c 3b fb 10 dc b8 56 aa 32 bb
       0.010146476 0.004780866 -0.0001049358 -0.0027262173
000110 5d 73 6a 3c 1a 1d 9f 3c cf 52 f0 3b 24 37 34 bc
       0.014309731 0.019423056 0.0073340903 -0.010999475
000120 3f a2 68 3b 68 bc 28 3c 2b a6 82 bb 0c db 5d 3b
       0.0035497097 0.010298826 -0.003987094 0.0033852486
000130 b5 0e 28 bc 71 e6 08 3c 70 dc 84 3a a8 f3 62 3b
       -0.010257413 0.008355723 0.0010136496 0.0034630094
000140 e6 24 32 ba 15 2e a9 ba 03 1c 06 3c 46 68 5c 36
       -0.00067956594 -0.001290741 0.008185389 3.284325e-06
000150 43 c0 cb 3b 22 57 37 bc 83 c1 43 3c ea 68 fd bb
       0.0062179877 -0.011190208 0.011947992 -0.007733454
000160 c5 a6 9d 3b 9a 2b a8 bb 01 de 16 3c cd 49 03 bc
       0.0048111402 -0.005132151 0.009208203 -0.008013201
000170 f4 94 87 bc 51 42 30 3c 4b 41 45 3c a5 3f 0e bb
       -0.016550519 0.010757999 0.012039493 -0.0021705416
000180 f3 d1 e1 bb 6d 0d f9 39 d1 73 2b 3c 67 ca f0 39
       -0.006891483 0.00047502984 0.0104646245 0.0004592717
000190 e5 85 88 3c 30 26 a5 3b 54 0c 3c 39 d6 d1 72 ba
       0.016665408 0.0050399527 0.0001793367 -0.00092628354
0001a0 9b 2d 07 3b 88 99 61 3b f0 e9 ec 3b 0b 07 cb 3c
       0.0020626548 0.0034423787 0.007230036 0.024783632
0001b0 81 a4 34 3b 6c b7 b2 3b 85 05 78 bb 29 13 1d bc
       0.0027563872 0.0054539945 -0.0037845087 -0.009587088
0001c0 92 a1 65 3c 71 fe 65 3c 1c 60 8f bc 30 d2 dc bb
       0.014015572 0.014037714 -0.017501883 -0.0067389235
0001d0 84 af 10 3b 95 fd b5 3b e6 de 11 bb 0c c3 85 3c
       0.0022077272 0.005553911 -0.0022258102 0.016328357
0001e0 b4 a0 e3 3b 7d 60 a2 ba 12 c1 7a bc 2b ae 34 3c
       0.0069466475 -0.0012388375 -0.015304821 0.011027853
0001f0 83 80 4a 3d 87 31 43 3b c1 37 49 ba 06 6a 40 bb
       0.049438965 0.002978416 -0.00076758495 -0.002936007
000200 5a dc e4 3b 09 ef 10 3b 6b 0c 46 bc da 9e 95 3a
       0.0069842758 0.0022115132 -0.012087922 0.0011415139
000210 78 f6 70 3c fe e1 0d bc 55 c0 0a 3c cc 82 08 3c
       0.0147072 -0.008659838 0.008468707 0.008331966
000220 b6 e9 7d ba 83 d4 21 bb 27 ae 2f ba fb 6f c4 bb
       -0.000968601 -0.0024693317 -0.0006701671 -0.0059947944
000230 93 c2 f6 ba a0 03 bf bc 65 62 8e 3a 03 3e bb 3b
       -0.0018826298 -0.023317158 0.0010863064 0.0057141795
000240 b6 fe de bb ca 1d cf 3b 8d 7c 44 3c e1 11 d3 ba
       -0.0068052663 0.00632069 0.011992586 -0.0016103351
000250 e8 28 6b 3a d3 7e e2 bb 98 8f 42 ba ee 12 31 3b
       0.0008970634 -0.0069120913 -0.000742191 0.002701934
000260 3f e7 33 3c 89 f7 62 bb 15 5f 01 3c 8a e8 95 3b
       0.010980426 -0.0034632406 0.0078962045 0.00457484
000270 be 28 f6 3a 65 ac 68 bb 89 19 6a 39 25 08 0b bc
       0.0018780453 -0.0035503146 0.00022325492 -0.0084858285
000280 c2 fe 88 3c 8b 4e ce ba 0b 57 a6 3b 7b c2 88 b9
       0.01672304 -0.001573996 0.0050762943 -0.0002608484
000290 17 be 97 3b 49 2d 5c bb 1e b6 a9 3b fa be 2a bb
       0.004630815 -0.0033596328 0.0051791808 -0.0026053772
0002a0 73 84 03 3a b1 74 be 3b 9d 72 18 bb cb 88 34 bc
       0.000501699 0.0058122505 -0.0023261674 -0.011018942
0002b0 ac 3a 04 bc 62 94 3a 3c b3 fa f9 3a f7 52 22 3c
       -0.008070629 0.011387916 0.0019071907 0.009907476
0002c0 5c 02 5d 3c 35 75 ce ba d9 5d e4 bc 82 92 03 bc
       0.013489332 -0.0015751483 -0.027876781 -0.008030536
0002d0 d7 a4 d4 38 f5 cd 9e bb 91 03 1e bc 25 93 0a 3c
       0.000101396516 -0.0048463293 -0.009644405 0.008457934
0002e0 8e b7 e9 bb b7 c9 17 bc c6 27 0a ba a0 5e 1d 3c
       -0.007132477 -0.009264401 -0.0005270209 0.00960508
0002f0 e5 fb 24 3c 2b 0a 49 bb 17 d8 1c 3b cf 61 1b bc
       0.010069822 -0.0030676227 0.002393251 -0.009483769
000300 af dd a9 bb 2b 48 4a ba 45 1a f9 3a 61 1a 9b 3b
       -0.0051838974 -0.00077164423 0.0019005021 0.004733369
000310 d1 56 2e bb 6c 01 97 bc 0f 51 57 3c 7b 97 52 3b
       -0.002660204 -0.018433295 0.0131418845 0.0032133746
000320 96 d1 0b bc 60 4b b1 3b 23 2a 9f 3c 92 05 08 bc
       -0.008533856 0.0054105967 0.019429272 -0.008302109
000330 36 b4 cc bb 24 be 1f 3c 32 57 e2 3a d4 a0 0e bc
       -0.0062470688 0.009749923 0.0017268418 -0.008705337
000340 e1 00 4e bc 88 93 43 bc b8 89 dd 3b e7 81 a6 3a
       -0.012573452 -0.01193703 0.006760802 0.0012703509
000350 cf 53 45 3b 8a 86 27 3a d2 31 bb 3c ab 0c b4 3b
       0.0030109768 0.00063905923 0.022850905 0.005494674
000360 27 6c 77 3b e3 3f 2f bc d7 96 22 bc 84 26 9d 3b
       0.0037753673 -0.010696384 -0.009923658 0.004795851
000370 44 52 3c 3c 8b cf 87 3c 10 cb 75 3c 40 e4 80 3c
       0.011494223 0.016578456 0.015002027 0.015733838
000380 16 08 27 3c 43 d5 cd bb a0 37 91 bc 1c 6e ae 3b
       0.010194799 -0.0062815263 -0.01772672 0.0053231847
000390 a6 e7 88 3c e9 32 40 3b 76 04 9f 3c d3 7c 71 3b
       0.016712021 0.002932722 0.019411307 0.0036848083
0003a0 1a 5f 30 3c d0 02 94 3a 87 4a ed 3b 98 1e 4e bc
       0.0107648615 0.0011292342 0.0072415504 -0.012580536
0003b0 88 e9 b7 ba 6b b1 1f bb 19 00 7d bc 09 a3 98 bb
       -0.001403139 -0.0024367224 -0.015441918 -0.004658107
0003c0 4c e8 cd 3b d3 7a 90 3c 17 21 a0 3c e4 3e 8b bc
       0.0062837955 0.017636692 0.019547028 -0.016997762
0003d0 3a 58 02 bc 6e a0 9a 3a 1b 5f 31 bb 5c f9 2b 3b
       -0.007955605 0.0011797079 -0.0027064744 0.002624116
0003e0 dd 7f 41 bb 3a 07 33 3c b2 20 41 bc 6c fb 54 ba
       -0.0029525675 0.010927016 -0.01178758 -0.0008124623
0003f0 c5 3c 80 3b 8f 45 8a 3a 96 d9 8f bc 9a 57 f6 bb
       0.0039134943 0.0010549295 -0.017559808 -0.007517767

action_model._discrete_distribution.branches.2.bias f4 [3]
000000 09 47 af bc 10 dd c2 bb 89 2c 0f 3d
       -0.021396177 -0.005946763 0.03495458
