results/ComplexTank3/TankLearningAI/TankLearningAI-116161.pt (torch, 701131 bytes, 58 tensors)

discrete_act_size_vector f4 [1, 5]
0	0x40400000	3.0
1	0x40000000	2.0
2	0x40400000	3.0
3	0x40000000	2.0
4	0x40000000	2.0

network_body._body_endoder.seq_layers.0.weight f4 [128, 82]
0	0x3dcef905	0.101060905
1	0xbc76e2c7	-0.015068716
2	0xbd95397e	-0.072863564
3	0xbd6e28ad	-0.05814426
4	0xbdde12fc	-0.10843465
5	0x3df907f2	0.121597186
6	0xbe7fee2d	-0.249932
7	0x3e149fa1	0.14514019
8	0x3d3f763b	0.046743613
9	0xbe0ac339	-0.13551034
10	0xbce55a71	-0.027997227
11	0x3e20e435	0.15712054
12	0x3e177f53	0.14794664
13	0x3cc37a6c	0.023862086
14	0xbe4e6e57	-0.20159279
15	0xbd69c186	-0.057069324
16	0xbd13712e	-0.03599661
17	0x3dc6f904	0.09715465
18	0xbc5f35d1	-0.013623671
19	0x3bf353b4	0.0074257497
20	0xbbd7cd18	-0.0065857284
21	0x3ceaec44	0.028677113
22	0x3b117d5c	0.0022199964
23	0xbdf94abd	-0.12172458
24	0xbda5f685	-0.081036605
25	0x3df6e9cd	0.12056313
26	0xbd8cfdec	-0.06884369
27	0xbd7e52b3	-0.062090587
28	0x3dd8d025	0.105865754
29	0x3db2ae38	0.08724636
30	0xbdbe33fa	-0.092872575
31	0xbcff0a3e	-0.031132814
32	0x3d53bcd5	0.051693756
33	0xbdc0973c	-0.09403846
34	0x3df20662	0.11817624
35	0xbe865c87	-0.26242468
36	0x3e4a0a8e	0.19730589
37	0x3e327b2b	0.17429797
38	0x3d8fa406	0.07013707
39	0x3cd80547	0.026369704
40	0xbd656835	-0.056007583
41	0x3c5815cd	0.013188791
42	0x3d4474cd	0.047962952
43	0xbcfc8689	-0.03082587
44	0xbd26199c	-0.040551767
45	0xbd1b163e	-0.03786301
46	0xbd905d90	-0.07049096
47	0xbd63faec	-0.05565922
48	0x3d640d22	0.055676587
49	0x3c92a036	0.01789866
50	0xbdd61b81	-0.10454465
51	0x3d0eac4c	0.034832284
52	0xbc9e3d41	-0.019316318
53	0x3e19d6a3	0.15023284
54	0xb93a25b0	-0.00017752382
55	0xbe16716a	-0.14691702
56	0xbd8dd1b0	-0.0692476
57	0xbd344031	-0.04400653
58	0x3e1459b4	0.14487344
59	0xbc0427e1	-0.0080661485
60	0xbe1d2787	-0.1534711
61	0xbc0347aa	-0.0080126915
62	0xbdcf8d09	-0.10134322
63	0xbd4f5b23	-0.050624024
64	0x3e0e3c82	0.1389027
65	0x3e14d267	0.14533387
66	0x3cebd06e	0.02878591
67	0xbe26b7e7	-0.1628109
68	0xbe3aba9e	-0.18235251
69	0x3cdc88a1	0.026920618
70	0x3da49a3a	0.08037229
71	0x3e82ed0b	0.25571474
72	0x3c25f9e0	0.010130376
73	0xbc8042cf	-0.015656857
74	0x3dd2ccc8	0.10292965
75	0xbdbb0aa1	-0.09132887
76	0xbde2923d	-0.11063049
77	0xbe14874b	-0.14504735
78	0x3d2770e7	0.040879156
79	0xbd31907d	-0.043350685
80	0x3cfdc465	0.030977437
81	0x3eacff1f	0.33788392
82	0xbe23cfa3	-0.15997176
83	0x3e93d58e	0.28873867
84	0xbdbeb72e	-0.093122825
85	0x3dba0116	0.090822384
86	0x3d52872f	0.051398452
87	0x3e2ded07	0.1698495
88	0x3e595739	0.21224679
89	0x3c74ba48	0.014936991
90	0xbe0a4719	-0.13503684
91	0x3ebab4cf	0.3646607
92	0x3c63f289	0.013912805
93	0x3e11c1f4	0.14234143
94	0x3d8b6bd7	0.06807678
95	0x3dab5258	0.08365315
96	0xbd579308	-0.052630454
97	0xbdfbbe8b	-0.122922026
98	0x3d094137	0.03350946
99	0xbdc70178	-0.09717077
100	0xbe8138e1	-0.25238708
101	0xbe7cb6cd	-0.24679108
102	0xbbf62597	-0.0075118053
103	0x3d77237e	0.060336582
104	0x3d9e438c	0.07727727
105	0x3e9cd51b	0.30631337
106	0x3e38a22f	0.18030618
107	0x3e3d4a1c	0.18485302
108	0x3bda1070	0.0066547915
109	0xbd9551b9	-0.07290978
110	0xbbdbe46e	-0.0067105806
111	0x3c014505	0.007889991
112	0xbd74814b	-0.059693616
113	0x3dffbe72	0.124874964
114	0xbe10ee45	-0.14153393
115	0xbdc9e168	-0.09857446
116	0xbe06dd6b	-0.13170402
117	0x3dfb7bb9	0.122794576
118	0xbd7f0836	-0.06226369
119	0xbddbb60a	-0.107280806
120	0xbddebe50	-0.10876143
121	0x3a8555d2	0.0010172671
122	0xbe3ac9fd	-0.18241115
123	0x3e3508d2	0.17679146
124	0xbe16d62b	-0.14730136
125	0xbddec6a7	-0.10877734
126	0xbe44e7f4	-0.19229108
127	0x3cc798a0	0.02436477
128	0xbd46aff9	-0.048507664
129	0x3ca5e999	0.02025299
130	0xbe17ff94	-0.14843589
131	0xbc991e29	-0.01869114
132	0x3c07ca8c	0.008288037
133	0xbdfbad91	-0.122889645
134	0xbe2cf173	-0.1688898
135	0xbda4660c	-0.080272764
136	0x3d328989	0.043588195
137	0xbd443869	-0.04790536
138	0x3bf8993a	0.0075866254
139	0xbd83de2d	-0.06438861
140	0xbe0cf4ea	-0.13765302
141	0xbdd4bc3c	-0.10387465
142	0xbe3adb16	-0.18247637
143	0x3d74c390	0.059756815
144	0x3dd28eaa	0.10281117
145	0x3caf6f85	0.021415481
146	0x3dbca8ba	0.092118695
147	0xbdcd803e	-0.10034226
148	0xbc5e9190	-0.0135845095
149	0x3d7280c5	0.059204835
150	0x3e75d9e4	0.240089
151	0x3b237aa8	0.0024944935
152	0x3ddfdb93	0.10930552
153	0xbdccbbee	-0.09996782
154	0xbde94406	-0.113899276
155	0xbd17ee45	-0.037092466
156	0x3d6670cd	0.05625992
157	0xbcba20d5	-0.022720734
158	0xbd975fd2	-0.07391323
159	0x3df75044	0.12075856
160	0xbd5a7144	-0.053330675
161	0xbd60c0ec	-0.054871485
162	0x3e37cc3a	0.17949
163	0x3e046273	0.1292818
164	0x3db10ecd	0.08645401
165	0x3dfd0db2	0.12356128
166	0xbc718b9f	-0.014742761
167	0x3bdc9fc5	0.006732913
168	0xbcc5ba5b	-0.024136713
169	0x3b594a17	0.0033155733
170	0xbde2f102	-0.11081125
171	0x3dd6e1dc	0.10492298
172	0x3da44011	0.08020032
173	0xbd5fe857	-0.054664936
174	0xbc164308	-0.009171255
175	0x3d8da606	0.06916432
176	0x3e48e493	0.19618444
177	0x3d8c9945	0.06865171
178	0xbde88107	-0.11352735
179	0xbd62f28e	-0.0554071
180	0x3ddf596b	0.10905727
181	0x3cf8380b	0.03030016
182	0x3e10b4c0	0.1413145
183	0xbd6b378b	-0.057426017
184	0xbd05ab8b	-0.0326343
185	0x3e0bfc8d	0.13670559
186	0x3d85e73d	0.06538246
187	0x3df6ce82	0.12051107
188	0xbd95a009	-0.07305915
189	0xbe1e587e	-0.15463445
190	0x3cdf9e8f	0.027297286
191	0xbd275318	-0.04085073
192	0xbd38fbd2	-0.04516203
193	0xbc902576	-0.017595988
194	0xbdff7e97	-0.12475317
195	0x3e05d28a	0.13068596
196	0x3b1a7d63	0.0023573271
197	0xbdf8f53f	-0.12156152
198	0x3db550e7	0.088533215
199	0x3da5bece	0.08093034
200	0xbde4e29b	-0.11176034
201	0x3d4a20db	0.04934774
202	0xbd0db44f	-0.034595784
203	0x3e2273f3	0.15864544
204	0xbcbd6b09	-0.023122327
205	0x3d963845	0.07334951
206	0x3d2cdd1d	0.042203058
207	0xbe3c8f17	-0.1841396
208	0xbcc0d3bb	-0.023538461
209	0x3e612804	0.21987921
210	0xbe0fc8ac	-0.14041394
211	0xbd0a716e	-0.03379958
212	0xbdb927ba	-0.0904078
213	0xbe03a831	-0.12857129
214	0x3e03a6d3	0.12856607
215	0xbe545f4e	-0.20739481
216	0x3e32c6c8	0.17458642
217	0xbd9bc2a9	-0.07605488
218	0xbe056601	-0.13027193
219	0x3e05f84a	0.13082996
220	0x3ce33b08	0.02773811
221	0xbd3b3e17	-0.04571351
222	0xbd11b135	-0.03556939
223	0xbe401c82	-0.18760875
224	0xbcfcc5a7	-0.030855967
225	0x3cc1e8fc	0.023670666
226	0xbdb166b7	-0.086621694
227	0x3d61bb86	0.055110477
228	0x3b05a59a	0.0020392896
229	0xbe127114	-0.14300948
230	0x3e1f7f76	0.15575966
231	0x3d99c718	0.07508677
232	0xbd80dc65	-0.06292037
233	0x3d9b4786	0.075820014
234	0x3d33f462	0.043934233
235	0x3b806cec	0.0039192345
236	0x3d841a8f	0.06450378
237	0xbb9741c7	-0.0046159956
238	0xbd8343db	-0.06409427
239	0xbe018b95	-0.12650903
240	0xbb9f4063	-0.0048599704
241	0xbcae8786	-0.021304857
242	0x3e7f7132	0.24945524
243	0xbe2ce4fa	-0.16884223
244	0x3d105b34	0.035243228
245	0x3e7a996d	0.2447259
246	0x3cf09fc9	0.029373066
247	0xbd0bfb23	-0.03417505
248	0x3dbb7a44	0.0915418
249	0x3e0ea1ed	0.13928957
250	0x399349a5	0.00028092894
251	0x3d937b69	0.07201273
252	0x3c91f7c9	0.017818348
253	0x3e245d19	0.16051139
254	0x3cb4b6d2	0.022059832
255	0x3d98d465	0.07462386

network_body._body_endoder.seq_layers.0.bias f4 [128]
0	0xbb5a8c7d	-0.0033347898
1	0x3963ca4e	0.00021723771
2	0xba5f3a20	-0.0008515436
3	0x3a14c485	0.00056750356
4	0x3a9724a9	0.0011531311
5	0x3abb294d	0.0014279276
6	0x3a8420aa	0.0010080535
7	0xbb2e367b	-0.0026582766
8	0x9ab8c140	-7.641283e-23
9	0xba7595ca	-0.00093683286
10	0x3bd3f6cb	0.006468629
11	0x3b2987e7	0.0025868358
12	0x0262fbbf	1.6676105e-37
13	0xbb1c09fa	-0.0023809657
14	0xa44c0ed5	-4.4248012e-17
15	0xba021228	-0.0004961812
16	0xb8668117	-5.4956497e-05
17	0xba08ee5c	-0.00052235066
18	0x00000000	0.0
19	0x3b055cb0	0.0020349436
20	0xbb78645d	-0.0037901618
21	0xb8169d71	-3.5909416e-05
22	0xba7d90c9	-0.0009672759
23	0xbb20935d	-0.0024501898
24	0xbb21bd2f	-0.0024679413
25	0xba021a82	-0.00049630564
26	0x3ac595fc	0.0015074606
27	0xbb36fb71	-0.0027920867
28	0x22216f18	2.1878381e-18
29	0xba01253a	-0.00049265067
30	0x0b2c5108	3.3186956e-32
31	0x3b2a6a42	0.0026003276
32	0xbb2de8b6	-0.0026536412
33	0x3b342945	0.002749042
34	0xb506ade7	-5.017195e-07
35	0xb9484ca1	-0.00019102033
36	0xba5f3e82	-0.00085160893
37	0xbae32f33	-0.0017332792
38	0x27287dfd	2.3382982e-15
39	0x00000000	0.0
40	0xb66255ba	-3.3726524e-06
41	0xbb1be9dd	-0.0023790516
42	0x3af27c43	0.0018500168
43	0x00000000	0.0
44	0x349120ba	2.7032166e-07
45	0xb953c8bd	-0.00020197309
46	0x39276112	0.00015962523
47	0x3ad4d0ae	0.0016236508
48	0x386138f0	5.3697207e-05
49	0xbb146e98	-0.0022648927
50	0xba982555	-0.0011607805
51	0xb95141f7	-0.00019956367
52	0xbae91068	-0.0017781379
53	0xab04f6b6	-4.72382e-13
54	0xa7e0a345	-6.2349507e-15
55	0xb4efb638	-4.46498e-07
56	0x3ac788d7	0.0015223277
57	0x3b007053	0.00195982
58	0x2febd585	4.2897966e-10
59	0x3a6d83dd	0.00090604817
60	0x3ac889b4	0.0015299828
61	0xa4bd137b	-8.1998685e-17
62	0xa9383dfe	-4.0909977e-14
63	0x3ad4993f	0.0016219987
64	0xbac0c19d	-0.0014706139
65	0xbb0cdac7	-0.0021492706
66	0x3aef04c6	0.0018235676
67	0xbb0bb8ed	-0.002131994
68	0x38f184b6	0.00011516495
69	0x00000000	0.0
70	0x33fdf2df	1.18254086e-07
71	0x05281059	7.9023246e-36
72	0x00000000	0.0
73	0x00000000	0.0
74	0x3938e839	0.00017634117
75	0xbb16ac64	-0.0022990936
76	0xba219334	-0.00061635976
77	0x3aa1fd46	0.0012358807
78	0x3b0b2636	0.0021232492
79	0xbad15be8	-0.0015972825
80	0x35b5c900	1.354405e-06
81	0x3ab3a866	0.0013706803
82	0x3b335a8c	0.0027367203
83	0xba9b72d4	-0.0011859783
84	0x3b67b22e	0.0035354006
85	0x3b4050cc	0.0029345034
86	0x3abfa69d	0.0014621798
87	0xbb0c548a	-0.0021412694
88	0xb9a5fa3d	-0.00031657694
89	0x86ed28a3	-8.92092e-35
90	0xb14c96dc	-2.977166e-09
91	0x3ae012d4	0.0017095455
92	0xbac0a887	-0.0014698663
93	0x00000000	0.0
94	0xbb0c5b89	-0.0021416864
95	0xba0a8a5f	-0.0005284901
96	0xa9ff5244	-1.1338546e-13
97	0x3aeca798	0.0018055318
98	0xbaebaced	-0.0017980613
99	0xb4e3150b	-4.2297356e-07
100	0x3afeaec9	0.0019430752
101	0xb8896a1f	-6.552436e-05
102	0x28b8e3d5	2.052691e-14
103	0x3a2ac849	0.000651483
104	0x986abcaa	-3.0339042e-24
105	0x3263b2dc	1.3253807e-08
106	0xba565621	-0.00081762864
107	0xbab2d293	-0.0013643078
108	0x1da581a8	4.3809198e-21
109	0x3b5e8779	0.003395526
110	0x8cdf9da5	-3.445347e-31
111	0x0a9e9902	1.5272402e-32
112	0x39f8c8ca	0.00047451846
113	0x00000000	0.0
114	0xbabf9951	-0.0014617835
115	0xb84cf1a6	-4.8862443e-05
116	0x3b001799	0.0019545315
117	0x3aebf866	0.0018003106
118	0x3b01f155	0.0019827683
119	0x0488f784	3.2200754e-36
120	0xbb32ea25	-0.0027300206
121	0x3ac64cce	0.0015129091
122	0x3b7abd7a	0.003825991
123	0xa29c4159	-4.2353074e-18
124	0x00000000	0.0
125	0x0627d422	3.156506e-35
126	0x348c348b	2.6115262e-07
127	0xbafc37d7	-0.0019242716

network_body._body_endoder.seq_layers.2.weight f4 [128, 128]
0	0xbbddd90a	-0.006770258
1	0xbd8d6cc4	-0.06905511
2	0x3da6f237	0.081516676
3	0x3d93d21f	0.07217812
4	0x3d9fcfce	0.078033075
5	0x3d86ceca	0.06582411
6	0x3ca7063e	0.020388719
7	0xbd97560d	-0.0738946
8	0xbd785cf5	-0.060635526
9	0xbc9980ac	-0.018738113
10	0xbe1171e5	-0.14203604
11	0xbb1d0800	-0.0023961067
12	0xbd7e6121	-0.062104348
13	0x3df18be1	0.11794258
14	0x3d9dfe4a	0.077145174
15	0xbd82fdfe	-0.063961014
16	0xbc199cd0	-0.009375766
17	0x3b8f7c58	0.0043788366
18	0xbd4bdb30	-0.04976958
19	0x3c46e64e	0.01213987
20	0xbe18237f	-0.1485729
21	0xbc2cdf8e	-0.0105513465
22	0x3dd5a385	0.104315795
23	0x3e0abc91	0.13548495
24	0x3b711e57	0.0036791766
25	0xbe0995af	-0.13436006
26	0x3d1d25e5	0.038366217
27	0x3bf072aa	0.007337888
28	0xbdc746dc	-0.09730312
29	0xbdf17b40	-0.11791086
30	0x3cec7b16	0.028867286
31	0xbe01cca7	-0.12675725
32	0x3e28c9c5	0.16483219
33	0x3da74424	0.08167294
34	0x3afeb972	0.0019433929
35	0xbb0934a7	-0.0020935924
36	0xbcbb5290	-0.022866517
37	0x3c7a9083	0.015293243
38	0xbe1cf131	-0.15326382
39	0xbc990244	-0.018677838
40	0xbdade2b4	-0.08490506
41	0x3bf3288b	0.0074206046
42	0x3d729c11	0.059230868
43	0xbba8433d	-0.0051349686
44	0xbd3629fb	-0.04447363
45	0x3e0195e2	0.12654832
46	0x3dbc8a56	0.09206073
47	0x3c90afd2	0.017661963
48	0x3bf7363d	0.0075443075
49	0x3e3f33f9	0.1867217
50	0xbcc8a706	-0.024493705
51	0x3c2a24cc	0.01038475
52	0xbd9845ac	-0.07435164
53	0xbd3344a5	-0.043766636
54	0x3bef658f	0.007305808
55	0x3e3232e0	0.1740222
56	0xbda8e1d0	-0.08246195
57	0xbc939444	-0.018015034
58	0xbc850694	-0.016238488
59	0x3c18ae39	0.009318882
60	0x3e090bbb	0.13383381
61	0x3d984626	0.07435255
62	0xbde0aa20	-0.10969949
63	0xbd4cdb6e	-0.050013952
64	0x3d995cfb	0.07488438
65	0xbb87f4a8	-0.0041490383
66	0xbc65919d	-0.014011768
67	0x3d181324	0.03712763
68	0xbe15e12f	-0.14636682
69	0xb8f41e31	-0.0001164045
70	0xbe2fa227	-0.171517
71	0x3da31db8	0.07964653
72	0x3e3a5584	0.18196684
73	0xbd7deab9	-0.061991427
74	0xbc5604b1	-0.013062642
75	0x3df1131c	0.11771223
76	0x3c02c514	0.007981557
77	0x3d8ee71c	0.06977674
78	0x3e0e963c	0.13924497
79	0x3e011ef4	0.12609464
80	0xbd2163bc	-0.039401755
81	0x3d93e469	0.072213
82	0x3d795af0	0.06087774
83	0xbde4b339	-0.111669965
84	0xbd189794	-0.03725393
85	0xbda34932	-0.07972945
86	0x3d531ec2	0.051543005
87	0xbd1e6181	-0.038667206
88	0xbc52fc4b	-0.012877534
89	0xbc326020	-0.010887176
90	0x3d028f94	0.031875208
91	0xbd54c199	-0.05194244
92	0xbccb7880	-0.024837732
93	0xbc9b72e9	-0.018975692
94	0xbced7252	-0.028985176
95	0x3d5a831d	0.053347696
96	0xbe04b19a	-0.12958375
97	0xbc18aa5e	-0.009317962
98	0xbe3402f0	-0.17579246
99	0x3e235ec6	0.15954122
100	0x3d7a2aa1	0.06107581
101	0xbd370568	-0.04468289
102	0x3bbc81b2	0.0057527656
103	0x3d18b4d9	0.037281845
104	0x3bb529e4	0.0055286754
105	0x3c961707	0.018321527
106	0xbde1c4af	-0.110238425
107	0x3d7c416d	0.061585832
108	0xbc24647a	-0.010033721
109	0x3d3d9850	0.046287835
110	0x3e1cf7be	0.15328881
111	0x3d43e271	0.047823373
112	0xbd8341d9	-0.06409044
113	0x3e49b1c1	0.19696714
114	0x3d8b5eb5	0.06805173
115	0xbdf45188	-0.11929613
116	0xbda3260c	-0.07966241
117	0x3e1ef659	0.15523662
118	0xbd9569c6	-0.07295565
119	0xbe06fe07	-0.13182841
120	0xbdb3c81c	-0.08778402
121	0xbdef7e10	-0.116939664
122	0x3d237ada	0.039912082
123	0x3cf0a17f	0.029373882
124	0x3d8d0526	0.068857476
125	0xbc821d60	-0.015883148
126	0xbcdc6ad2	-0.026906405
127	0x3c9a5d5b	0.018843343
128	0xbe095f60	-0.13415289
129	0xbd654043	-0.055969488
130	0xbdeba721	-0.11506487
131	0xbb617217	-0.0034400278
132	0xbdb055f8	-0.08610147
133	0xbd967921	-0.07347322
134	0x3ce65298	0.028115556
135	0x3d81278f	0.06306373
136	0xbc5d8f45	-0.013522928
137	0x3d7aed2d	0.061261345
138	0xbdd163fe	-0.1022415
139	0xbd2a21af	-0.04153603
140	0x3e05ce26	0.1306692
141	0xbd04cb85	-0.032420654
142	0xbe34eb1a	-0.17667809
143	0x3c0e63cf	0.008690788
144	0x3b9baa81	0.0047505503
145	0x3c998a04	0.018742569
146	0xbda92f7e	-0.082610115
147	0x3dd23f15	0.10265938
148	0x3dd271fb	0.10275646
149	0x3d852cd1	0.06502689
150	0xbc2aff68	-0.01043687
151	0x3da163dc	0.07880375
152	0x3d246490	0.040134966
153	0xbcdca693	-0.026934898
154	0xbd266908	-0.04062751
155	0xbb51c9c2	-0.0032011126
156	0x3cf7c9ee	0.030247655
157	0x3e151f3c	0.14562696
158	0xbdbc080a	-0.09181221
159	0x3e1fb420	0.15596056
160	0xbd16c5c9	-0.036809716
161	0x3c17aefe	0.00925803
162	0x3dea008e	0.11425887
163	0x3ce54cdd	0.027990753
164	0xbdbee870	-0.09321678
165	0x3dae3a08	0.08507162
166	0x3ddf8d2c	0.10915598
167	0x3c847466	0.016168784
168	0xbde47aaa	-0.11156209
169	0x3d8893be	0.066688046
170	0x3c2ebcf0	0.010665163
171	0xbcd48fd5	-0.02594749
172	0xbd9f3262	-0.07773282
173	0xbd784df8	-0.06062123
174	0xbe16ca2e	-0.14725563
175	0xbcbb1947	-0.022839202
176	0xbdc54c4e	-0.096336946
177	0xbd57a893	-0.052651
178	0xbe4af008	-0.19818127
179	0xbb667ff1	-0.0035171474
180	0x3d19d773	0.037558984
181	0xbe115e6c	-0.14196175
182	0xbcc306f0	-0.023807019
183	0xbdf96cba	-0.12178941
184	0xbe1e8448	-0.15480149
185	0x3bc0eeaa	0.005887826
186	0x3d256c4d	0.040386487
187	0xbdfa9aa8	-0.122365296
188	0xbe25fe21	-0.16210224
189	0x3d6f3e53	0.058409046
190	0x3d48dc2a	0.04903809
191	0x3dd4fc93	0.10399737
192	0xbdad8f13	-0.08474555
193	0xbd2188aa	-0.039436974
194	0x3d50c7a9	0.05097166
195	0xbd974c54	-0.07387605
196	0x3d6bf01f	0.057602044
197	0xbce6e144	-0.028183587
198	0xbbd0d63c	-0.006373195
199	0x3d7f1ba0	0.062282205
200	0xbb9f836a	-0.0048679607
201	0xbd16afd0	-0.03678876
202	0x3d9456ce	0.07243119
203	0xbdeb7968	-0.11497766
204	0x3e191a05	0.14951332
205	0x3d84ca0b	0.06483849
206	0x3d698b00	0.057017326
207	0xbd8952e8	-0.06705266
208	0x3dae3ac2	0.08507301
209	0xbd4a46cc	-0.049383923
210	0xbd8457d2	-0.06462063
211	0x3cbaa561	0.022783937
212	0x3e04feb5	0.12987788
213	0xbc929e03	-0.017897611
214	0x3e089c61	0.13340904
215	0xbdfde732	-0.12397613
216	0xbdb5b6ce	-0.08872758
217	0xbe139a5c	-0.14414352
218	0xbc9eda27	-0.019391133
219	0x3c7fce04	0.015613083
220	0xbe18b725	-0.14913614
221	0xbc96586c	-0.01835271
222	0xbda1851f	-0.07886719
223	0x3e0e8725	0.13918741
224	0x3c872c18	0.016500518
225	0xbdd314a9	-0.10306675
226	0xbd815079	-0.06314177
227	0x3dfadd91	0.12249292
228	0xbd224f65	-0.039626498
229	0x3d4ec489	0.0504804
230	0x3d8757ad	0.0660852
231	0xbe313015	-0.17303498
232	0xbdc3a62f	-0.095531814
233	0x3d281c5c	0.04104267
234	0xbcc34dee	-0.02384087
235	0x3b562ef3	0.0032681793
236	0x3c868191	0.016419204
237	0xbbd654d4	-0.006540874
238	0x3e3322eb	0.17493789
239	0xbc09577f	-0.008382677
240	0x3b3baf6f	0.0028638502
241	0x3d8305c6	0.063975856
242	0x3dbf9f7b	0.0935659
243	0x3d41b187	0.047288444
244	0xbd01b6bf	-0.03166842
245	0x3da6c675	0.081433214
246	0x3dff0d05	0.12453655
247	0xba53eecb	-0.0008084594
248	0x3e75c4d5	0.24000867
249	0xbe3cdd47	-0.18443786
250	0x3e15a54e	0.1461384
251	0x3e242a6d	0.16031809
252	0xbd367f24	-0.044554844
253	0x3daeb36e	0.08530317
254	0xbd564655	-0.052313168
255	0xbc1d8639	-0.009614521

network_body._body_endoder.seq_layers.2.bias f4 [128]
0	0x3a69edcb	0.00089236785
1	0xbacb42ad	-0.0015507542
2	0x2d2900ff	9.606759e-12
3	0x3ac4fd47	0.0015029096
4	0xbaf1942c	-0.0018431
5	0x895350fd	-2.5436282e-33
6	0x3ab9be8a	0.0014171165
7	0xbb3280a2	-0.0027237316
8	0xb8bbe629	-8.9597255e-05
9	0xbac8417a	-0.0015278303
10	0xa31c5a9a	-8.4759626e-18
11	0xba608fb7	-0.0008566337
12	0x3a9f7548	0.001216569
13	0xb397c7a5	-7.0678006e-08
14	0x38a2abfa	7.756795e-05
15	0xb4bfe74f	-3.5744822e-07
16	0x3abfbd81	0.001462862
17	0xba9c56b9	-0.0011927701
18	0x88a48d20	-9.903569e-34
19	0x38bddb3b	9.053057e-05
20	0x2e6a65ff	5.329603e-11
21	0xb1dd8d13	-6.447985e-09
22	0xb9e9db6a	-0.000446047
23	0x3b15fa71	0.002288487
24	0x3ae9cd38	0.0017837649
25	0xbae9b901	-0.0017831625
26	0x3abc7964	0.0014379439
27	0x393a4e97	0.0001776762
28	0x399c76d0	0.0002984316
29	0xb961febb	-0.00021552567
30	0x361fa695	2.378981e-06
31	0xbb0327de	-0.0020012776
32	0x3ac756d9	0.0015208378
33	0x394748d8	0.00019005255
34	0x3add95f6	0.0016905654
35	0xbb103e57	-0.0022009814
36	0xb24a1770	-1.1763277e-08
37	0xa0189d2a	-1.2926902e-19
38	0x3a10d370	0.00055246707
39	0x8ebc0598	-4.6350965e-30
40	0xba88e314	-0.0010443651
41	0x3ad7a7e1	0.001645323
42	0x3aa98700	0.001293391
43	0xadca3e6a	-2.2992459e-11
44	0x227ee172	3.4542769e-18
45	0x3a05d1ed	0.0005104829
46	0xba81903d	-0.0009884905
47	0xba28ee7d	-0.0006444229
48	0x3b1520f8	0.0022755247
49	0xbac7e2f5	-0.0015250134
50	0x3ae75743	0.0017649907
51	0xbaaecb66	-0.0013335764
52	0xbaedcc76	-0.0018142599
53	0xba9718ad	-0.001152774
54	0xbaba2933	-0.0014202952
55	0x3029737a	6.1645944e-10
56	0xba878b08	-0.0010341117
57	0x3b126d12	0.0022342843
58	0x39c0e483	0.00036791348
59	0x3a4bad19	0.0007769629
60	0xbacc72e4	-0.0015598205
61	0x9116bfff	-1.1892077e-28
62	0x2a112986	1.2892993e-13
63	0x3b19f611	0.0023492614
64	0x3a9d7ed0	0.0012015942
65	0x3aa09955	0.0012252728
66	0x3a886804	0.0010406976
67	0x27d8d558	6.018335e-15
68	0x3aa5ab78	0.0012639603
69	0xbab3fb4f	-0.0013731512
70	0xbaa7f036	-0.0012812677
71	0x3ad8504c	0.0016503423
72	0xbb04ae7c	-0.0020245602
73	0x3acae12a	0.0015478481
74	0xaa064b26	-1.1927663e-13
75	0xba2d428a	-0.00066093414
76	0x3b0c6493	0.0021422252
77	0x831a5f74	-4.5366107e-37
78	0x3b0ee224	0.002180227
79	0xbb066adf	-0.0020510477
80	0xbaf49aa3	-0.0018661808
81	0x3ae73275	0.0017638939
82	0x3aac1cdb	0.0013131158
83	0x3ad651bc	0.0016351263
84	0x39a0bf15	0.00030659945
85	0x32ec862c	2.753503e-08
86	0xba8dbed9	-0.0010814323
87	0xbb1f4ba8	-0.002430657
88	0xa61879cd	-5.2900665e-16
89	0xb38b2c68	-6.480769e-08
90	0xbb12c75b	-0.0022396657
91	0x32ab609a	1.995095e-08
92	0x396fe6de	0.00022878821
93	0x3ac71319	0.0015188187
94	0x2e1fbbd2	3.6319232e-11
95	0xbab5e88b	-0.0013878507
96	0x3a8c4f6e	0.0010704824
97	0xb494215d	-2.7591423e-07
98	0x39678581	0.00022079611
99	0xa078b910	-2.1067649e-19
100	0xbb06b544	-0.002055482
101	0xb69c18cb	-4.6520486e-06
102	0x9063e944	-4.4947558e-29
103	0xbacdaa97	-0.0015691099
104	0xb9c6ae62	-0.00037895428
105	0x962ddc01	-1.404425e-25
106	0xbaa2cd41	-0.001242079
107	0x239618fc	1.6273614e-17
108	0xbae56d26	-0.0017503842
109	0xb98978a1	-0.00026220552
110	0xbacb0406	-0.001548887
111	0x2a971a8b	2.6841406e-13
112	0x3aec2757	0.0018017095
113	0xba7a4b3c	-0.0009547954
114	0xbab1a859	-0.00135542
115	0xbae46c8c	-0.0017427369
116	0x3adfb32b	0.0017066946
117	0x3a9530f3	0.0011382386
118	0x390c566a	0.00013383632
119	0xbb27503c	-0.002553
120	0x39c136d1	0.0003685267
121	0x3aeedcdf	0.0018223784
122	0xbb4d118c	-0.0031290976
123	0xba964b2d	-0.0011466496
124	0x201f1935	1.3476164e-19
125	0xb95673ad	-0.00020451723
126	0xb78e5252	-1.6966052e-05
127	0xa2dff0f1	-6.0699378e-18

action_model._discrete_distribution.branches.0.weight f4 [3, 128]
0	0xbafbae8d	-0.00192018
1	0xbc886ffe	-0.016654965
2	0xb940b2de	-0.0001837718
3	0xbc35ef36	-0.011104396
4	0x3b8e5502	0.00434363
5	0xbb619115	-0.003441875
6	0xb9b69062	-0.0003482132
7	0xbbb042d0	-0.0053790584
8	0x3c18e87d	0.009332773
9	0xbb50fecf	-0.003189016
10	0xbc3ef4bc	-0.011655029
11	0xba649c06	-0.0008720759
12	0x3c073d99	0.008254432
13	0x3c508e9a	0.012729311
14	0x3a2c9ed1	0.0006584945
15	0x3c0b126e	0.008488281
16	0xbae4c683	-0.0017454181
17	0xbc387b6c	-0.011259895
18	0xbc0ba72f	-0.008523746
19	0xbc142915	-0.009042998
20	0x3c1ad66a	0.009450534
21	0x3c058e46	0.008151596
22	0xb8cea45d	-9.8534605e-05
23	0xbcb654b1	-0.02225718
24	0x3b88d8cc	0.004176235
25	0x3c35e314	0.011101503
26	0xbc2dea8b	-0.010615001
27	0xbb6b90aa	-0.003594438
28	0xbc850761	-0.01623887
29	0xbb32dd92	-0.002729271
30	0xbbc57e46	-0.006027016
31	0xbc02b70f	-0.007978215
32	0x3bd12035	0.006382013
33	0xbba16af5	-0.0049260803
34	0xbc875ae1	-0.016522827
35	0x3ab11e85	0.0013513124
36	0xba01ba6a	-0.00049487373
37	0x3bd3ac8d	0.0064597786
38	0xbc066b72	-0.008204328
39	0xbc092b23	-0.008372101
40	0x3b31c621	0.002712615
41	0xbc6b73ad	-0.014370841
42	0x3baf3176	0.0053464724
43	0xbb92ab14	-0.0044759605
44	0x39af7d3c	0.00033471908
45	0xbc936d28	-0.017996386
46	0xbbfb3e31	-0.007667326
47	0xbc3966e7	-0.011316038
48	0xbb8f30de	-0.004369839
49	0xbb5e5843	-0.003392712
50	0xbbf43d51	-0.0074535985
51	0xbbed9616	-0.0072505577
52	0xbc1be27f	-0.00951445
53	0xbabc6ff4	-0.0014376626
54	0x3c777e9a	0.015105868
55	0x3baaa887	0.0052080783
56	0xbc9e0864	-0.01929111
57	0x3af72504	0.0018855636
58	0x3c1e5c25	0.009665524
59	0x3c000932	0.007814692
60	0xbb8913aa	-0.0041832523
61	0x3c13ccb4	0.009020973
62	0x3c147642	0.009061398
63	0x3c92e1f6	0.017930012
64	0xbc1acc2d	-0.009448093
65	0x3b7298a0	0.003701724
66	0x37920b87	1.7409924e-05
67	0xbc2f2ec9	-0.010692307
68	0x3b013e0b	0.0019720818
69	0x3b950bfb	0.0045485473
70	0x3b962bae	0.0045828437
71	0x3c049177	0.008091322
72	0xbc23d7d1	-0.010000185
73	0x3b517015	0.0031957675
74	0x3c026cd5	0.007960518
75	0x3cb18b93	0.021673
76	0xbc896672	-0.016772483
77	0xbb8eedb0	-0.0043618307
78	0xbab02001	-0.0013437272
79	0xba968b93	-0.0011485688
80	0xbc174561	-0.00923285
81	0xbc0a8a6f	-0.008455857
82	0xbbe683d6	-0.007034759
83	0x3a7c54a6	0.0009625651
84	0xbc12e2fd	-0.008965251
85	0x3b95223a	0.0045511993
86	0xbc0f6f89	-0.008754619
87	0xbc8d7a70	-0.017270297
88	0xbbf704c8	-0.0075384118
89	0xbbe567d0	-0.007000901
90	0xbba18820	-0.0049295574
91	0xbb26a617	-0.0025428587
92	0x3c442037	0.011970571
93	0x3bf6be39	0.0075300005
94	0x3bf68fdb	0.007524473
95	0x3c56e67f	0.013116478
96	0xbb8165a4	-0.003948884
97	0xbc36b5a1	-0.011151702
98	0x3bc40c21	0.005982891
99	0xbcc247e7	-0.023715926
100	0x3c1111b1	0.008854316
101	0x3ba14948	0.004922066
102	0x3b65db7a	0.0035073445
103	0xbb5fd334	-0.0034152986
104	0xbc6b1576	-0.014348378
105	0x3b4fea45	0.003172533
106	0x3c758736	0.01498585
107	0xba93ea4c	-0.0011285036
108	0xbc0b7f98	-0.008514307
109	0xbb023fb2	-0.001987439
110	0x3c12dac1	0.008963288
111	0xbbf7cc4d	-0.0075621963
112	0xbc3bd34e	-0.011463953
113	0xbc68dcc8	-0.014212795
114	0xbb0da88b	-0.0021615352
115	0xbb377c23	-0.0027997575
116	0xbc0ffd0e	-0.00878836
117	0xbc922e77	-0.017844422
118	0x3b48df30	0.0030650608
119	0xbb473228	-0.0030394886
120	0xbc234c26	-0.009966886
121	0x3b8cae05	0.0042932057
122	0x3c6c81b4	0.0144352205
123	0xba8c3c50	-0.0010699127
124	0x3c1f0d4b	0.009707759
125	0xbc95cd4f	-0.018286375
126	0x3b90a8f7	0.0044146734
127	0x38eef68a	0.00011394646
128	0x3babdc2f	0.005244754
129	0x3c57915d	0.013157216
130	0x3bbbabfb	0.005727289
131	0x3c9091e6	0.017647695
132	0x3bed7f81	0.0072478657
133	0x3c64d212	0.0139661
134	0x3c6929d1	0.014231161
135	0x3bd64679	0.0065391627
136	0xbbd494ae	-0.0064874506
137	0x3bfdca24	0.0077450443
138	0x3c55c3ef	0.0130472025
139	0xbb293bde	-0.0025823037
140	0x39a3001e	0.0003108987
141	0x3c480258	0.01220759
142	0x3b582536	0.0032981164
143	0x3c490e7a	0.012271518
144	0x3b35f3ed	0.00277638
145	0x3c37172a	0.011174956
146	0xbb14838f	-0.0022661423
147	0xbc78f835	-0.015195896
148	0xbad182aa	-0.0015984375
149	0x3bac70e8	0.005262483
150	0xbaca6116	-0.0015440311
151	0x3c3626a0	0.011117607
152	0xbc8f5536	-0.017496686
153	0x3b9a24a1	0.0047040735
154	0xb9aa9672	-0.00032537017
155	0xbbdb4ba8	-0.0066923685
156	0xbbb95f5c	-0.0056571197
157	0x3ac4ca2c	0.0015013865
158	0x3bebe173	0.0071985065
159	0xbc4b79c5	-0.012419169
160	0x3c264268	0.010147668
161	0x3bedb6f0	0.007254474
162	0xbb959f39	-0.0045661
163	0xbc6af9da	-0.014341796
164	0x3b00a29a	0.0019628168
165	0x3c2af3c1	0.010434092
166	0x39a53d80	0.00031517074
167	0x39fbca55	0.000480252
168	0x3b9757f1	0.0046186377
169	0x3bb4c828	0.0055170245
170	0xbb305422	-0.0026905616
171	0xbbaea1bd	-0.0053293393
172	0x3c1c6a6e	0.009546859
173	0xbc16012e	-0.009155555
174	0x3c15f18d	0.0091518285
175	0xbbe5c0c4	-0.007011505
176	0x3c683f0c	0.014175188
177	0x3bc4fc66	0.0060115336
178	0x3c2b2a26	0.010447061
179	0x3b9cd9bb	0.0047866977
180	0x3b3b0ba8	0.0028540883
181	0x3bceebb7	0.0063147205
182	0x3bd3cc55	0.0064635673
183	0x3a2b87cd	0.0006543368
184	0x3c3036fc	0.010755297
185	0xbbe29a99	-0.006915402
186	0x3bd52f06	0.00650585
187	0x3c18a11d	0.009315756
188	0x3c884921	0.016636433
189	0xbc2a0332	-0.010376738
190	0xbc2353ff	-0.009968757
191	0x3c3658b1	0.011129544
192	0x3c16c605	0.009202485
193	0x3c1baedc	0.009502139
194	0xbbb0288a	-0.0053759264
195	0xbb511cf2	-0.0031908122
196	0xba95fa83	-0.0011442456
197	0x3c45e279	0.012077921
198	0xbb304e44	-0.0026902119
199	0x3b9c3c64	0.0047679413
200	0x3b9f12a4	0.004854517
201	0x3c0e3440	0.00867945
202	0x3c2fd8f4	0.010732878
203	0x3a9023ec	0.0010997034
204	0x3be74c94	0.0070586894
205	0xbc52e28f	-0.012871399
206	0xbb07ae12	-0.002070312
207	0x3b5d1519	0.00337345
208	0x3a1a120f	0.0005877325
209	0xba882acf	-0.0010388735
210	0xbc0387f8	-0.008028023
211	0xbba45e2f	-0.0050161104
212	0x3b800f96	0.003908108
213	0xbba61d0b	-0.00506938
214	0x3c1e64e1	0.009667606
215	0x382d5818	4.1328458e-05
216	0x3becf287	0.00723106
217	0x3b29e370	0.0025922917
218	0xbb23e87f	-0.0025010405
219	0x3aa41db2	0.0012521057
220	0x3c6ddb63	0.014517638
221	0x3cc2440b	0.023714086
222	0x3bae5879	0.0053206054
223	0x3b89e168	0.0042077787
224	0x3c4ca8b8	0.012491398
225	0x3b627521	0.0034554678
226	0x3bff5e35	0.007793213
227	0x3b11e07d	0.002225905
228	0x3c56b0d9	0.013103687
229	0xbc9f30d7	-0.019432468
230	0x3c5ac18b	0.013351808
231	0x3b842a1f	0.0040333415
232	0xbb50f889	-0.003188642
233	0xbc1bed50	-0.009517029
234	0x3bc9d41e	0.0061593195
235	0xbcf86373	-0.030320859
236	0xbb69ddca	-0.0035685175
237	0xbb722802	-0.0036950116
238	0x3ab2f4b2	0.0013653247
239	0x3b3b2545	0.002855615
240	0x3c262665	0.01014099
241	0x3bd0f079	0.006376323
242	0x3b81a123	0.0039559766
243	0x3c5c1b88	0.013434298
244	0xb9a6cd48	-0.00031814934
245	0xbc2041d0	-0.009781316
246	0x3c72ec28	0.014826812
247	0xbbbfb1d6	-0.005850057
248	0xbb2b1962	-0.0026107659
249	0x3c7f28d0	0.015573695
250	0xbbe32b35	-0.006932641
251	0xbb37cbdb	-0.0028045091
252	0xbb43ea85	-0.0029894423
253	0x3c38a45a	0.011269653
254	0x3a6555de	0.0008748452
255	0xbb18e6c9	-0.0023330918

action_model._discrete_distribution.branches.0.bias f4 [3]
0	0xbb201e85	-0.0024432254
1	0x3b7428db	0.0037255797
2	0xbb38aee7	-0.0028180422

action_model._discrete_distribution.branches.1.weight f4 [2, 128]
0	0xbadfc03b	-0.0017070839
1	0xbc71d074	-0.014759172
2	0x3c9afd6a	0.018919665
3	0x3c237e04	0.009978775
4	0xba92d301	-0.00112018
5	0x3c1ba05f	0.009498685
6	0x3cc38917	0.02386908
7	0xba683129	-0.0008857423
8	0xbc43b801	-0.011945725
9	0xbc0dad24	-0.008647237
10	0x3b87be98	0.0041425936
11	0x3b4ad79b	0.0030951265
12	0xbb8fdb47	-0.0043901536
13	0x3aecc3d2	0.001806373
14	0x3c39556f	0.011311873
15	0xbbebd70d	-0.007197267
16	0xbc1d0a74	-0.009585012
17	0xbbafa1d4	-0.0053598676
18	0xbaaf7ca9	-0.0013388592
19	0x3b2236b8	0.0024751853
20	0x3b68eb77	0.0035540739
21	0x3c51e3ff	0.012810706
22	0x3c85cc87	0.016332878
23	0x3b675f1c	0.0035304492
24	0xbba1fa43	-0.0049431636
25	0x3c4d3e29	0.012527027
26	0x3bd66566	0.0065428494
27	0x3cb460d7	0.022018833
28	0xbb9fbd14	-0.004874835
29	0x3b0ab34e	0.0021164003
30	0x3be28a1f	0.006913438
31	0xbbc6a1cb	-0.0060617677
32	0x3c9a27bf	0.01881778
33	0x3c2c7df9	0.010528081
34	0xbc22922f	-0.009922548
35	0xbbba1ebc	-0.0056799334
36	0x3ab3bb15	0.0013712371
37	0x3b1f3711	0.0024294297
38	0xbc84a481	-0.016191723
39	0x3c53d782	0.012929799
40	0x3b24afc4	0.0025129179
41	0x3c45e9a4	0.01207963
42	0xbb352885	-0.002764256
43	0xbbce442a	-0.006294747
44	0xbac99e3f	-0.0015382244
45	0x3bdbc0a0	0.0067063123
46	0x3c34cd4c	0.011035275
47	0x3bf15b62	0.00736563
48	0x3b2111e1	0.0024577307
49	0xb87674b3	-5.8759655e-05
50	0x3b13c0b2	0.0022545275
51	0x3b444b4b	0.0029952105
52	0xbb82338b	-0.0039734296
53	0x3c117c45	0.008879726
54	0xbc3b6d17	-0.011439583
55	0xbbcbef73	-0.006223613
56	0x3c8b367e	0.016993757
57	0x3bf7af79	0.00755876
58	0x3c572649	0.0131316865
59	0x3b7f4482	0.0038950746
60	0x3c30ce9a	0.010791445
61	0x3b4003d3	0.0029299154
62	0xbc8e7dcc	-0.017393969
63	0xbc2343b2	-0.00996487
64	0xbb88b520	-0.0041719824
65	0xbca00bd0	-0.019536883
66	0xbcbe0777	-0.023196919
67	0x3a29c98c	0.0006476871
68	0x3a892b00	0.0010465086
69	0xbc2ab1fa	-0.0104184095
70	0x3beb00d5	0.00717173
71	0x38a74a55	7.977026e-05
72	0x3bc20263	0.0059206947
73	0x3c1d2c56	0.00959309
74	0x3b111101	0.002213538
75	0x3b701a42	0.0036636745
76	0x3ba23ac5	0.0049508535
77	0xbbe4115a	-0.0069600763
78	0xbaf4cfce	-0.0018677653
79	0x3b52e647	0.0032180713
80	0x3c2298a8	0.009924091
81	0xbc389323	-0.011265549
82	0x3a8b1424	0.0010610861
83	0x3b8ab405	0.004232886
84	0x3ab5757d	0.0013844218
85	0x3c9cd36e	0.019143786
86	0xbb3e80eb	-0.002906854
87	0xbb5d6e09	-0.003378751
88	0xbbc12ceb	-0.005895247
89	0x3abaa307	0.001423926
90	0xbc478dfa	-0.012179846
91	0xbc3f0007	-0.011657721
92	0x3be500a5	0.006988602
93	0x3c1579f8	0.009123318
94	0x3c60081b	0.0136738075
95	0x3bf63d05	0.0075145983
96	0x3a759674	0.00093684276
97	0x3a0fa888	0.000548013
98	0x3c83a896	0.016071599
99	0xbc45b9fb	-0.012068267
100	0xbc7631f3	-0.015026557
101	0x3c546942	0.012964549
102	0x395867db	0.00020638054
103	0xba4524fd	-0.00075204653
104	0xbc643214	-0.013927955
105	0x3b4a51d3	0.0030871525
106	0x3c881a38	0.016614065
107	0x3be49055	0.0069752135
108	0x3a07176f	0.0005153333
109	0x3add8a62	0.0016902203
110	0xb915a8ee	-0.00014272679
111	0xbabd5b6d	-0.0014446803
112	0xb9908030	-0.00027561327
113	0x3c44a733	0.012002754
114	0xbb8adc21	-0.004237667
115	0x3c10a2cd	0.008827877
116	0xbb5ba9d9	-0.0033517985
117	0x3c3aac19	0.01139357
118	0x3c04fd0d	0.008116973
119	0x3c0ff84b	0.008787225
120	0x3c1c930f	0.009556546
121	0x3b900ef2	0.004396313
122	0xbba522e7	-0.005039561
123	0x3acebecc	0.0015773415
124	0x3ba0373a	0.004889396
125	0x3c5dfa03	0.013548377
126	0x379ed859	1.8935812e-05
127	0x3c3784ba	0.011201078
128	0x3c425060	0.011859983
129	0xbb6a7f69	-0.0035781509
130	0x3c694024	0.014236484
131	0xbc042a5e	-0.008066742
132	0xba4b8b37	-0.000776458
133	0x3c56bbeb	0.013106327
134	0xbc5e47cf	-0.013566925
135	0xbc1640ea	-0.00917075
136	0xbc070fa5	-0.008243476
137	0xbbb459e4	-0.00550388
138	0xbc337200	-0.010952473
139	0xbb91cbaf	-0.00444933
140	0x3bf52dd6	0.0074822707
141	0x3b04a4a8	0.0020239744
142	0xbaadb0ef	-0.0013251583
143	0x3bd79a75	0.006579692
144	0xbbee6c2c	-0.0072760787
145	0xbb40f968	-0.0029445533
146	0xbad3de1b	-0.0016164215
147	0x3bb9e974	0.0056735817
148	0x3b84f023	0.004056947
149	0x3ba246c8	0.0049522854
150	0x396b33e4	0.00022430677
151	0x3b18591c	0.0023246473
152	0x3bbb0e74	0.00570851
153	0xbc507d7a	-0.012725228
154	0xbc6f8217	-0.014618418
155	0xbba15229	-0.0049231243
156	0x3ab887fe	0.0014078615
157	0xbc083620	-0.008313686
158	0xbb90ce52	-0.0044191265
159	0xbc05dd74	-0.008170474
160	0xbbce661c	-0.0062987935
161	0x3a84a658	0.0010120375
162	0xbb71b977	-0.0036884227
163	0xbb500e0a	-0.003174665
164	0xba626e8d	-0.0008637689
165	0xbafd2c2d	-0.0019315534
166	0x3b8b3df3	0.0042493283
167	0xbb8bafe6	-0.004262912
168	0xbc74af39	-0.014934354
169	0x3c1209e2	0.008913489
170	0x3c451f4b	0.012031387
171	0xbca0b639	-0.01961814
172	0xbc058635	-0.008149673
173	0xbc5063e1	-0.0127191255
174	0x3c8a5fe4	0.016891427
175	0xbc0986b8	-0.008393936
176	0xbba0ca20	-0.0049069077
177	0xbc5fadc9	-0.013652273
178	0x3b5403d9	0.0032350926
179	0xbb19426e	-0.0023385542
180	0x3a5aa417	0.00083404913
181	0xba9c10c4	-0.0011906852
182	0xbbbacb8f	-0.0057005356
183	0xbbc093a9	-0.0058769775
184	0xbc40f559	-0.011777245
185	0xbae79c9c	-0.0017670575
186	0x3abb89b8	0.0014308011
187	0xbc910e10	-0.0177069
188	0xbc3b677e	-0.011438249
189	0x3c684047	0.014175481
190	0x3b634ca5	0.0034683135
191	0xbc317f00	-0.010833502
192	0x3c56490d	0.01307894
193	0x3b5066b2	0.0031799492
194	0x3c95c627	0.018282963
195	0x3b76bb17	0.0037648135
196	0x38806036	6.121436e-05
197	0xba9ac366	-0.0011807501
198	0x3b45bf18	0.0030173715
199	0xbb786ef6	-0.0037907935
200	0xbc19f332	-0.009396361
201	0xbadbbf40	-0.0016765371
202	0xba4ff9e8	-0.0007933662
203	0x39c879ef	0.0003823782
204	0xbbf25f13	-0.0073965876
205	0xbb0675b9	-0.0020516946
206	0xbc3e6fd8	-0.011623345
207	0x3bc9f83a	0.006163624
208	0xbb1ba5dc	-0.0023749983
209	0xbc3627dd	-0.011117903
210	0xbc33ea9f	-0.010981231
211	0x3afb45d8	0.0019170595
212	0xbbe73352	-0.0070556784
213	0x3b3ed41c	0.0029118126
214	0xbc3c39c3	-0.011488381
215	0xbc2aeb03	-0.010432008
216	0xbc91cb01	-0.017796995
217	0x3a413df1	0.0007371596
218	0xbc232a20	-0.009958774
219	0xbb4d468d	-0.003132257
220	0xbb0a769f	-0.0021127833
221	0xbc057601	-0.00814581
222	0xbc8bde07	-0.017073644
223	0xbcabbbba	-0.020963538
224	0xbbb088ed	-0.0053874166
225	0x3bec7cf1	0.0072170426
226	0xbc25e491	-0.010125295
227	0x3b8e4a88	0.004342381
228	0xbc5beaed	-0.01342271
229	0xbc052f58	-0.008128963
230	0xbb542068	-0.0032367948
231	0x3b48aecc	0.0030621765
232	0x3c32db67	0.010916567
233	0xbc95092b	-0.018192848
234	0xbbb6259b	-0.005558682
235	0x3b8160eb	0.003948321
236	0xba0d239d	-0.000538403
237	0x3b74e98e	0.0037370655
238	0xbb192773	-0.002336946
239	0xb89d57cc	-7.502697e-05
240	0xbb2b4768	-0.002613509
241	0x3c08ca13	0.0083489595
242	0x3c0a55d9	0.008443319
243	0xbca79227	-0.020455433
244	0xbc3cc98e	-0.011522664
245	0xbb2b2f48	-0.002612071
246	0xbc1ad915	-0.00945117
247	0x3ae9250b	0.0017787529
248	0xbc1ac994	-0.009447474
249	0x3c1b0102	0.0094606895
250	0xbad9b36e	-0.001660926
251	0xbbae2470	-0.0053144023
252	0xbb587b0b	-0.0033032324
253	0x3b9a56be	0.0047100475
254	0x3c6724dc	0.014107909
255	0xbc869857	-0.016430063

action_model._discrete_distribution.branches.1.bias f4 [2]
0	0x3b3d157a	0.0028851912
1	0xbb3d1591	-0.0028851966

action_model._discrete_distribution.branches.2.weight f4 [3, 128]
0	0x39c3216b	0.00037218197
1	0x3bfa5049	0.0076389653
2	0xbc118055	-0.008880694
3	0x3bd47c41	0.006484539
4	0xbc8695a3	-0.016428774
5	0x3b7ac667	0.003826523
6	0x3c3ddbec	0.011588078
7	0x3c0c86e0	0.008577079
8	0xb90f3288	-0.00013656367
9	0xbb2896c7	-0.0025724636
10	0x3c0b24ad	0.008492631
11	0x3be6552c	0.0070291962
12	0x3c0d3e7a	0.008620853
13	0x3ac2eeae	0.0014872157
14	0x3a4e1076	0.0007860729
15	0x3c7bd00c	0.015369426
16	0xbb4835be	-0.003054961
17	0xbbbd241f	-0.0057721282
18	0x3b05242d	0.0020315752
19	0xbb354171	-0.0027657414
20	0xbc9c4d49	-0.019079821
21	0x3c76e7cd	0.015069914
22	0x3715706c	8.907267e-06
23	0x3c9b959e	0.018992241
24	0xbc477767	-0.012174464
25	0xbbb85118	-0.0056249015
26	0xbaa288dd	-0.0012400408
27	0x3af0b218	0.0018363623
28	0x3c835405	0.016031275
29	0xbc3a9b3a	-0.011389548
30	0x3baa4dd8	0.005197268
31	0xbbd1564b	-0.0063884608
32	0x3c1f4bdb	0.009722675
33	0xbb4e5be2	-0.0031487872
34	0x3ba52781	0.0050401096
35	0xba54a2a0	-0.0008111391
36	0xbc4636cb	-0.012098025
37	0x3bcb6e7f	0.0062082405
38	0xbcacc547	-0.021090163
39	0xbbd87edd	-0.00660692
40	0x3a295cc7	0.0006460663
41	0x3b05cf1f	0.0020417643
42	0x3a4f9f7e	0.00079201895
43	0xbbd37208	-0.0064528026
44	0xb9f5606d	-0.00046801884
45	0x3c8cbf0e	0.017180946
46	0xbba9cda7	-0.0051819864
47	0xbb8b2b9b	-0.0042471415
48	0x39c90d8b	0.00038347798
49	0x3b6bd29c	0.0035983687
50	0x3c2159c2	0.00984806
51	0xbc2a01d8	-0.010376416
52	0xbbfb01b7	-0.0076601165
53	0xbc41e6c9	-0.011834809
54	0x3ad22652	0.0016033149
55	0x3c179c0d	0.009253514
56	0xbc429291	-0.0118757645
57	0xbb442c9a	-0.0029933811
58	0x3ca04b04	0.01956702
59	0xba9eacdf	-0.0012105963
60	0xbc3479ef	-0.011015399
61	0xbc0497a5	-0.0080927955
62	0xbb0663c8	-0.0020506252
63	0x3c7cc0d0	0.015426829
64	0x3c084a79	0.008318537
65	0x3a6a4170	0.00089361425
66	0x3c2bc638	0.010484271
67	0x3a254636	0.0006304713
68	0xbc6346d5	-0.013871868
69	0xbbc66b77	-0.0060552913
70	0xbbe0b6eb	-0.006857743
71	0x3c160c3d	0.009158191
72	0xbb2dddd0	-0.0026529916
73	0xbc1b1d64	-0.0094674565
74	0xbc6ec40b	-0.0145731075
75	0xbbbba32e	-0.0057262396
76	0x3b674052	0.003528614
77	0x3bc842f9	0.0061114994
78	0x3b989315	0.0046562054
79	0xb90627cd	-0.00012794063
80	0xbc613b37	-0.013747028
81	0x3c0bf52f	0.008542343
82	0x3c95772b	0.0182453
83	0x3c4608f5	0.012087096
84	0x3bbc3ac7	0.0057443115
85	0xbb57aef2	-0.0032910672
86	0x3a8072dc	0.0009799856
87	0xbaec114c	-0.0018010526
88	0xbc036650	-0.008019999
89	0xbbf2a43b	-0.0074048317
90	0xbc0cd259	-0.008595073
91	0xbbd43ef7	-0.0064772326
92	0xba39cbfd	-0.00070875866
93	0xbb1ca09c	-0.0023899442
94	0x3b0bab18	0.0021311697
95	0xbbcc01db	-0.006225807
96	0x3c15c71c	0.00914171
97	0xbc50bdbb	-0.012740548
98	0x3c85be86	0.0163262
99	0x3cab33fa	0.020898808
100	0xbc48b9fc	-0.012251373
101	0x3c434fc3	0.011920872
102	0x3b2587d3	0.002525796
103	0xbc198fdf	-0.00937268
104	0x3c6218d9	0.013799869
105	0xbbb0895a	-0.0053874673
106	0x3c9b4f0a	0.018958587
107	0x3aba62e5	0.0014220147
108	0xbc7ef042	-0.015560212
109	0x3b587e97	0.0033034438
110	0xb9e57b63	-0.00043770214
111	0xb88487bf	-6.319535e-05
112	0xba4a007f	-0.00077057624
113	0x3a5fca6f	0.000853694
114	0x3c993d92	0.018706117
115	0x3b105ed6	0.0022029183
116	0x3aa64e7d	0.0012688186
117	0x3c77c8db	0.015123571
118	0xbc1d374e	-0.009595705
119	0xbc4eeca0	-0.012629658
120	0x3ca964a0	0.020677865
121	0x3c808915	0.015690366
122	0x3bad318b	0.005285447
123	0x3bc49e6b	0.00600033
124	0xbb75e24d	-0.003751892
125	0x3a270ac7	0.00063721504
126	0xbb3c2f5e	-0.0028714756
127	0xbaa373d9	-0.0012470438
128	0x3bbbb3b6	0.0057282103
129	0xbb8e0f84	-0.0043353457
130	0xbc29668b	-0.01033939
131	0x3c16d44b	0.009205888
132	0x3c2662f9	0.010155433
133	0xbc67bead	-0.014144582
134	0x3be403ee	0.0069584763
135	0x39e2bf75	0.00043248726
136	0xbc022e39	-0.007945591
137	0x3af00598	0.0018312214
138	0xbc631f02	-0.013862373
139	0xbb36eea9	-0.0027913249
140	0xbca9f770	-0.02074787
141	0x3be2ae7f	0.006917774
142	0xbbb23160	-0.005438015
143	0x3c15bc2c	0.009139102
144	0xbb4f874e	-0.0031666341
145	0x3c42560a	0.011861334
146	0x3c4df528	0.012570657
147	0xbbcf4ac4	-0.0063260514
148	0x3b1869e2	0.002325647
149	0x3c2809ae	0.010256214
150	0xbb69fb93	-0.0035702928
151	0xbc3acc07	-0.011401183
152	0x3c76aedb	0.015056337
153	0xb8a82f1b	-8.019638e-05
154	0x3a1dbad5	0.0006016915
155	0x3bf30c4e	0.0074172383
156	0x3c211187	0.009830839
157	0xbc740202	-0.014893057
158	0xba427187	-0.00074174296
159	0x3a965d67	0.0011471928
160	0xbbe535f1	-0.0069949557
161	0xbb5cbe73	-0.0033682853
162	0xbbe3f288	-0.006956402
163	0xbb0ae1ef	-0.0021191796
164	0x3bb0e101	0.0053979163
165	0xbae7e8f2	-0.0017693324
166	0xbb22923d	-0.0024806403
167	0x3b4f3fa2	0.0031623621
168	0x3b4c1b1c	0.0031144088
169	0xbc6747cd	-0.01411624
170	0xbc08670e	-0.008325351
171	0x3c4bcfbf	0.012439667
172	0xbbcb44cd	-0.00620327
173	0xbb983eee	-0.0046461737
174	0xbc096d69	-0.008387902
175	0x3b1aa59e	0.002359725
176	0xba9b02a0	-0.0011826344
177	0xbc4a2566	-0.012338018
178	0x3afb45fe	0.001917064
179	0xbc95a49d	-0.01826697
180	0x3b253aad	0.0025211975
181	0x3c5f3e13	0.0136256395
182	0x3ca0d984	0.01963497
183	0x3b3cc5e8	0.0028804485
184	0xbb390cc4	-0.0028236369
185	0x3ad4feff	0.0016250311
186	0x3be86d3a	0.007093099
187	0x3b4f5ce1	0.0031641054
188	0xbae82e32	-0.0017713963
189	0xbb77b58b	-0.0037797417
190	0xbc05f7fc	-0.0081768
191	0xbb82e80d	-0.0039949478
192	0x3bb82481	0.005619586
193	0xba0c1d7a	-0.00053449685
194	0x3ad7e088	0.0016470114
195	0x3b289817	0.0025725418
196	0x3b6f7829	0.0036540127
197	0xbbb2572d	-0.005442521
198	0x3bb37a2c	0.0054772105
199	0xbbb96221	-0.00565745
200	0x3bc51051	0.006013908
201	0x3aa61dda	0.0012673691
202	0xbb9fbc8a	-0.0048747705
203	0xbbd72b83	-0.0065664663
204	0xbc320f15	-0.010867854
205	0xba70b503	-0.0009182246
206	0x3b45a1b5	0.00301562
207	0x3af03ba5	0.0018328322
208	0x3be5eba5	0.0070166164
209	0x3c7ec4ba	0.015549833
210	0x3c31bcab	0.010848205
211	0x3b436432	0.002981436
212	0x3ab95e2b	0.0014142444
213	0x3c2c8991	0.010530845
214	0xbbfde87d	-0.007748662
215	0xbc387c07	-0.011260039
216	0xbc7a1f3d	-0.015266237
217	0xbbf95648	-0.0076091625
218	0xbc2c9718	-0.01053407
219	0xbb5a174b	-0.0033278044
220	0x3c1b71aa	0.009487549
221	0xbc208d60	-0.009799331
222	0xbc4466d2	-0.011987405
223	0x3bf8839f	0.00758405
224	0xbc02d2e4	-0.007984851
225	0x3a75894e	0.00093664683
226	0xbb5c03a0	-0.0033571497
227	0xbc5103cf	-0.012757256
228	0xbc7fe150	-0.0156176835
229	0x3c626ffd	0.013820645
230	0xbb30dcab	-0.0026986997
231	0x3c0ce1a3	0.008598718
232	0xbb8a4048	-0.0042190887
233	0xbb377177	-0.0027991214
234	0x3c0c2306	0.008553272
235	0x3a2151dc	0.00061538606
236	0xbba0ab41	-0.0049032276
237	0x3bcddc8a	0.006282394
238	0x3bf472fd	0.0074599967
239	0xbb72381a	-0.0036959709
240	0x3bacd19b	0.0052740104
241	0xbb3752d4	-0.0027972953
242	0xbb817549	-0.003950749
243	0xbad36e6c	-0.0016130931
244	0xbc4d95a0	-0.01254788
245	0x3a8cc61e	0.0010740196
246	0x3b7ed5a7	0.003888467
247	0xbcd1495b	-0.025547674
248	0x3b0dd91b	0.0021644298
249	0xbc2f3fbd	-0.010696349
250	0xbb7a96f8	-0.0038236957
251	0xb9518fcd	-0.00019985363
252	0x3c89fea9	0.016845064
253	0x3a815a2c	0.0009868792
254	0xbc269eae	-0.010169668
255	0xbb4345c9	-0.0029796234

action_model._discrete_distribution.branches.2.bias f4 [3]
0	0x3ab37558	0.0013691587
1	0xbaafb62e	-0.0013405734
2	0xbb0738f3	-0.002063331

action_model._discrete_distribution.branches.3.weight f4 [2, 128]
0	0xbc295c33	-0.010336923
1	0xbbf919be	-0.0076019457
2	0x3983439d	0.00025036643
3	0x3a964bf9	0.0011466733
4	0x3b6e22b6	0.0036336607
5	0xbb46320d	-0.0030242235
6	0xbb925f5b	-0.0044669337
7	0x3c52993c	0.012853917
8	0x3b84e885	0.004056039
9	0x3b1ae62a	0.0023635724
10	0x3a540d37	0.00080891274
11	0x3bb4f444	0.005522283
12	0xbbad8839	-0.00529578
13	0x3971a6ac	0.00023045641
14	0xb8af07b2	-8.3460836e-05
15	0xbc24f96a	-0.010069231
16	0x3b8e0727	0.0043343487
17	0xbc8d6e28	-0.01726444
18	0x3aeef74a	0.0018231657
19	0xbc2a99f0	-0.010412678
20	0xbc93a65f	-0.018023668
21	0xbc87b6da	-0.016566683
22	0xbc02483b	-0.007951791
23	0xb9d0b467	-0.00039807262
24	0xbbd077a7	-0.00636192
25	0xbbbc91ac	-0.00575467
26	0xbc905a4f	-0.017621187
27	0xbc13fa55	-0.009031852
28	0xbbace608	-0.0052764453
29	0xbcbd2f4d	-0.023093844
30	0xbbaa0bcd	-0.005189395
31	0xbc004ac9	-0.00783033
32	0xbbee9154	-0.007280508
33	0xbc5d8ef2	-0.01352285
34	0xbc68da35	-0.014212181
35	0x3b5dc575	0.0033839617
36	0xbc8a7228	-0.016900137
37	0x3c760903	0.015016797
38	0x3b938bd4	0.004502753
39	0xbb28dd83	-0.0025766797
40	0x3bb5f9d4	0.0055534635
41	0x3b1f2e66	0.002428913
42	0xbafd24ec	-0.0019313372
43	0xbc375ee4	-0.011192057
44	0x3b89263d	0.0041854666
45	0xbbbbb46a	-0.005728294
46	0x39d3a461	0.00040367528
47	0x3b9e5084	0.0048313756
48	0x3b43ba7a	0.0029865787
49	0x3bc50f24	0.006013768
50	0xbbd4f7bf	-0.00649926
51	0x3af1017a	0.0018387281
52	0x3bd611db	0.0065328903
53	0x3c4dd846	0.012563771
54	0x3aa6649c	0.0012694779
55	0x39d3e7bb	0.0004041771
56	0x3b882ea1	0.004155949
57	0xbc6fe435	-0.014641811
58	0xbc19e750	-0.009393528
59	0x3b459093	0.0030145987
60	0x3b6ca496	0.0036108843
61	0xbcbb35e8	-0.022852853
62	0x3cb04ef5	0.021522025
63	0xbbc591a7	-0.006029326
64	0xbc82a323	-0.01594693
65	0xbc9af366	-0.01891489
66	0xbb6d9bd8	-0.003625622
67	0xbb3232c7	-0.002719091
68	0x3b253dbb	0.0025213796
69	0x3b19af9e	0.0023450623
70	0xbb1ce5fc	-0.0023940792
71	0x3b543555	0.0032380421
72	0x39b7ec6b	0.00035080625
73	0xbb9e32c3	-0.0048278286
74	0xbc1f7697	-0.009732864
75	0x3bf8d5ad	0.0075938315
76	0xbc4cbf61	-0.0124968
77	0xb9c78eb8	-0.00038062572
78	0xbbeeea59	-0.00729112
79	0x3cc2097c	0.023686163
80	0xbae3c127	-0.001737629
81	0xbc2d847d	-0.01059067
82	0xbc8ea795	-0.017413894
83	0xbb964414	-0.0045857523
84	0xbc55d8de	-0.013052193
85	0xbb62c8e0	-0.0034604594
86	0x3b68b495	0.0035508026
87	0x3b8acca0	0.004235819
88	0xbc15a275	-0.009132971
89	0xbbfb494c	-0.00766865
90	0xbc428ac9	-0.011873909
91	0x3aabcd3c	0.0013107429
92	0xbbd22277	-0.0064128
93	0xbc3f069a	-0.011659289
94	0xbb889f3f	-0.0041693742
95	0xba946fe6	-0.0011324852
96	0xbc8d400c	-0.017242454
97	0xbbf9cb58	-0.0076231174
98	0xbb155d8d	-0.0022791356
99	0xbb9416c5	-0.004519316
100	0xbb6926f9	-0.0035576208
101	0xbbc083c9	-0.005875085
102	0xba104898	-0.00055039814
103	0x3c72b5e8	0.014813878
104	0xbbd3964f	-0.006457127
105	0xbab51e9f	-0.001381833
106	0x3c639b3e	0.013891993
107	0x3b60c568	0.003429735
108	0x3c4872f6	0.01223444
109	0xbb51729e	-0.0031959186
110	0x3a1bed56	0.00059481466
111	0x3bf919ca	0.0076019512
112	0xba8169fc	-0.0009873505
113	0xbb83202c	-0.004001638
114	0x3c17b10d	0.009258521
115	0x3b880e0a	0.004152064
116	0xbb9cee1a	-0.004789126
117	0xbbd3b896	-0.0064612133
118	0x3ab4e31a	0.0013800592
119	0x3bc4f06b	0.0060101054
120	0xbbc2aced	-0.0059410245
121	0x3b07c105	0.0020714414
122	0x39b211b0	0.00033963984
123	0x3bce8ca3	0.0063033863
124	0xbc4cc7c6	-0.012498802
125	0xbb5cd207	-0.0033694522
126	0xb97aefff	-0.00023931263
127	0xbb69c785	-0.0035671901
128	0x3c4876f6	0.012235394
129	0xbc52305b	-0.012828912
130	0x3b0d45ca	0.002155649
131	0x3c83c44d	0.016084814
132	0xbc03fb5b	-0.008055533
133	0xba5508ff	-0.00081266457
134	0x3c9d2d52	0.01918665
135	0xb8edf698	-0.00011346972
136	0x3c85a461	0.016313734
137	0xb9c79aae	-0.00038071483
138	0x3b8ea867	0.004353571
139	0xbaee394c	-0.0018175035
140	0xbbc800ef	-0.006103627
141	0x3c7c7fd6	0.015411338
142	0x3bf20919	0.0073863384
143	0x3c1f39a9	0.009718337
144	0x3d1ce618	0.038305372
145	0xbb80da14	-0.003932247
146	0x3ca67adf	0.020322261
147	0x3b940983	0.0045177354
148	0xbced1dcd	-0.028944874
149	0x3a3847c0	0.00070297346
150	0xb8c8ffc4	-9.584383e-05
151	0x3bc2dfc8	0.005947087
152	0x3b20a4ec	0.0024512364
153	0xbbd5949e	-0.0065179607
154	0xbadd1d0a	-0.0016869616
155	0x3c503743	0.012708488
156	0xba4598f4	-0.00075377454
157	0xbc53a15f	-0.012916892
158	0xbc8640e2	-0.01638836
159	0x3b1061e0	0.0022030994
160	0xba59c627	-0.000830742
161	0xbb785ce1	-0.0037897157
162	0x3b96ca76	0.004601772
163	0x3bd27d65	0.0064236396
164	0x3b58822c	0.0033036573
165	0x3b0f0d4c	0.0021827994
166	0x3b86ca5d	0.004113479
167	0x3b23488c	0.0024915067
168	0x3b040796	0.0020146123
169	0x3c153374	0.009106506
170	0x3c8220d1	0.015884789
171	0x3c4c5ac4	0.012472812
172	0xbc70ff93	-0.014709371
173	0x3b74dd8e	0.0037363502
174	0xbbd7f84b	-0.006590878
175	0xbb9d6418	-0.004803192
176	0x3ca8e2bf	0.020615933
177	0xbc436b32	-0.011927413
178	0x3bf81f68	0.0075721033
179	0xbaf9d27a	-0.0019059919
180	0xbc56e74e	-0.013116671
181	0x3c2d978c	0.010595214
182	0x3b297d44	0.0025862018
183	0xbb97ee62	-0.0046365717
184	0xbb59f70e	-0.0033258828
185	0x3befff18	0.0073241107
186	0xbb45c42a	-0.0030176737
187	0x3c86d03e	0.01645672
188	0xbbb34eab	-0.0054720244
189	0xbade630f	-0.0016966778
190	0x3c96b385	0.018396148
191	0x3c52ae6b	0.012858967
192	0xba550e3b	-0.00081274257
193	0x3b89e9df	0.004208788
194	0x3b9a3b29	0.0047067595
195	0xbbbd8af7	-0.005784388
196	0x3cc8db18	0.024518535
197	0xbca6e68c	-0.020373605
198	0xba80d2b0	-0.0009828415
199	0x3c1af2b3	0.009457278
200	0xbb0913f2	-0.002091643
201	0xbbdf7970	-0.0068198964
202	0x3a913642	0.0011078792
203	0x3c757422	0.0149813015
204	0xbc3b9ef7	-0.011451474
205	0x3c4eb017	0.012615225
206	0x3b47ad15	0.0030468155
207	0xbc5f76fb	-0.013639207
208	0xbb3c9d8a	-0.0028780424
209	0x3b8269e7	0.0039799097
210	0x3aee8c9e	0.0018199866
211	0x3c9ac490	0.018892556
212	0xbbfd3010	-0.0077266768
213	0xba1439a1	-0.00056543393
214	0xba340dc4	-0.00068685063
215	0xbb98a604	-0.0046584625
216	0x3c41c8db	0.011827673
217	0x3c9238f1	0.017849417
218	0x3b214d2f	0.0024612655
219	0x3b52b12d	0.0032149062
220	0xba2c5711	-0.0006574253
221	0xbb8a18cb	-0.0042143813
222	0x3c6dac82	0.014506461
223	0xbc665f2b	-0.014060776
224	0xbb64ee9e	-0.0034932266
225	0x3c1ed5ed	0.009694559
226	0xbb1a36fe	-0.0023531313
227	0xbb78c372	-0.0037958291
228	0xbc1892b6	-0.009312322
229	0xbbc10fdf	-0.0058917846
230	0x3bdf89c5	0.0068218433
231	0x3b90ca21	0.004418627
232	0xbbc1792e	-0.0059043383
233	0x3b88c761	0.0041741584
234	0xba784b5c	-0.00094716786
235	0xbb6b0aa3	-0.0035864494
236	0xbbe36eae	-0.0069406843
237	0x3bf97027	0.0076122466
238	0xbac0a857	-0.0014698607
239	0x3b4f7135	0.003165317
240	0x3c6ae061	0.014335723
241	0xbb255184	-0.002522559
242	0xbb2df577	-0.0026544014
243	0xbc18fb25	-0.009337221
244	0xb98a5272	-0.00026382838
245	0x3c28023f	0.010254442
246	0x3bae6d94	0.0053231213
247	0x3b8f4958	0.004372757
248	0xbbbc87d4	-0.0057534967
249	0x3c15fd33	0.009154606
250	0xbbac2eb9	-0.005254593
251	0x3c1b8764	0.009492729
252	0xb9f1870a	-0.00046067714
253	0xbb0e1eb6	-0.0021685786
254	0x3c77f6a3	0.015134486
255	0x3c130e5f	0.008975594

action_model._discrete_distribution.branches.3.bias f4 [2]
0	0xbadd2f39	-0.0016875035
1	0x3add302f	0.0016875322
