Assets/results/EvilTank/TankLearningAI.onnx (onnx, 130422 bytes, 7 tensors)

network_body._body_endoder.seq_layers.0.weight f4 [128, 111]
-0.030523557 -0.01368985 0.0020832487 -0.049385715 0.10301264 0.08635741 -0.06779112 0.23309438
-0.0005116422 0.085446246 0.11910886 0.106166504 -0.074268155 0.011163418 -0.09133447 -0.15659088
-0.07666049 -0.17510748 -0.038390215 -0.037894078 -0.09264963 0.036734037 -0.035544194 0.112771116
-0.2153626 0.103164606 0.03963417 -0.049265992 0.03942774 -0.039832935 -0.00013205787 0.0311515
0.07413739 0.10819918 -0.18130355 -0.0869075 0.022781333 -0.02166379 -0.07534507 0.15161352
-0.030942569 -0.05694538 -0.16366401 0.21757379 -0.010814671 -0.057994142 0.035532456 -0.0529552
-0.16666186 -0.023285383 -0.2931382 0.10261662 -0.021351643 -0.16183215 -0.04455171 -0.00907504
-0.18520111 -0.12481137 -0.059587643 0.07368142 -0.059034593 -0.09755183 0.062179197 0.0408291
0.028889285 -0.10196128 0.092161566 -0.07796376 -0.014255199 0.013782194 0.014930932 -0.00011679348
0.1528862 0.08647926 0.14946406 0.014342129 0.13001968 -0.013786552 -0.038846515 0.10163453
-0.11891093 -0.13212173 -0.039315876 -0.17924355 0.1814969 -0.015702887 0.039927218 0.028215649
-0.053741492 0.086672194 -0.11581687 0.06612753 0.14719242 -0.12361669 0.108088546 -0.021359652
-0.12905186 0.03830216 -0.21165663 -0.013495198 0.022298217 -0.087352514 -0.038422737 0.0068959817
-0.074980415 0.17411016 0.1573764 0.069338046 -0.03295504 0.048521716 -0.017952098 0.073420264
0.07476113 -0.044827133 0.05343146 0.057577197 -0.0959989 -0.21323778 -0.08005427 -0.020572511
-0.027080795 0.13550434 -0.003503908 0.13531546 -0.01231183 0.06658218 0.018149864 -0.016117653
0.2715516 0.020947073 -0.09907687 -0.115059316 -0.13250224 -0.103853695 0.10223918 -0.112034686
-0.113026276 0.18945463 -0.093181975 0.09720143 0.10893178 -0.122876175 0.09706041 0.055888258
0.08303092 -0.007419509 0.08043823 0.109608166 0.019822652 0.09331766 -0.11789558 -0.038677566
-0.050211802 -0.112941846 -0.021166926 0.037224595 -0.04053674 0.00788991 -0.07278752 -0.10928184
0.066204295 -0.10599829 -0.05746734 -0.15221603 -0.015732456 0.06996732 0.12914892 -0.09604972
0.06316136 0.017599303 0.041577797 0.21545762 -0.19248877 0.15832749 -0.101203606 -0.10135203
-0.052653503 0.030666534 -0.09660631 0.04811037 0.00073579804 -0.14306945 -0.15001623 0.17236006
-0.17243874 -0.13457572 -0.15334783 0.02964548 0.0014569993 -0.010608359 0.017258763 0.07302209
0.02399097 -0.058168046 0.054772012 0.013881133 0.050739698 0.17468002 0.030202935 -0.04479686
0.011573206 0.14946744 -0.026008965 -0.27757296 0.031124892 -0.023488535 -0.11673169 0.06954716
-0.07753116 -0.03969614 -0.13914205 -0.088379376 -0.09835919 -0.022162475 -0.060580406 0.089036345
0.18205497 0.06585467 0.0073776986 -0.17551321 0.049774516 -0.16921636 -0.11510567 -0.07155871
0.054263067 -0.021523653 0.025410192 0.005224744 0.037992336 -0.08653838 -0.035006545 0.025899261
0.16712402 -0.19715524 -0.03477226 -0.04890416 -0.1550448 0.068338074 0.019690877 0.04753555
0.009232975 0.13727573 -0.050226428 0.1992963 0.14328724 0.028049286 -0.06723229 0.03769722
0.11463392 -0.024860779 0.22870134 -0.017735472 0.11032006 -0.041755047 -0.15623045 -0.09378399
00000000: 8a0c fabc 654b 60bc 1d87 083b ad48 4abd
00000010: 4af8 d23d 27dc b03d 12d6 8abd 4bb0 6e3e
00000020: ba1f 06ba 71fe ae3d 59ef f33d d36d d93d
00000030: e719 98bd c5e6 363c 910d bbbd 5c59 20be
00000040: 2d00 9dbd 604f 33be 0f3f 1dbd d236 1bbd
00000050: 17bf bdbd 6e76 163d ca96 11bd 8bf4 e63d
00000060: 0388 5cbe f747 d33d 7057 223d 23cb 49bd
00000070: fb7e 213d dc27 23bd 0479 0ab9 6e31 ff3c
00000080: 58d5 973d 8897 dd3d a3a7 39be 8ffc b1bd
00000090: eb9f ba3c 4378 b1bc 844e 9abd 9340 1b3e
000000a0: 457b fdbc 8f3f 69bd 8a97 27be aacb 5e3e
000000b0: 0530 31bc 448b 6dbd 7b8a 113d 8de7 58bd
000000c0: 68a9 2abe fdc0 bebc 3616 96be aa28 d23d
000000d0: a4e9 aebc 54b7 25be db7b 36bd 7aaf 14bc
000000e0: 5ca5 3dbe 1b9d ffbd 2c12 74bd 49e6 963d
000000f0: 42ce 71bd 41c9 c7bd 9daf 7e3d 6a3c 273d
00000100: 39a9 ec3c 13d1 d0bd 34bf bc3d 77ab 9fbd
00000110: a38e 69bc b6ce 613c dea0 743c 06ef f4b8
00000120: 338e 1c3e 0a1c b13d 1b0d 193e 40fb 6a3c
00000130: e123 053e fde0 61bc 861d 1fbd c425 d03d
00000140: 9387 f3bd eb4a 07be af09 21bd 9f8b 37be
00000150: 53da 393e 57a3 80bc b98a 233d 8124 e73c
00000160: 0a20 5cbd 3181 b13d 6531 edbd df6d 873d
00000170: 9cb9 163e bf2a fdbd 875d dd3d 70fa aebc
00000180: 2c26 04be bae2 1c3d 84bc 58be f71a 5dbc
00000190: c0aa b63c e0e5 b2bd 2961 1dbd b0f7 e13b
000001a0: 558f 99bd ef49 323e 4727 213e 1b01 8e3d
000001b0: ddfb 06bd b5be 463d 4710 93bc 5d5d 963d
000001c0: 5d1c 993d a89c 37bd f2da 5a3d 11d6 6b3d
000001d0: 129b c4bd 015b 5abe 7ef3 a3bd af87 a8bc
000001e0: 8bd8 ddbc a6c1 0a3e d2a1 65bb 2390 0a3e
000001f0: 8fb7 49bc 3d5c 883d 06af 943c 2b09 84bc
00000200: d008 8b3e 3299 ab3c d0e8 cabd 38a4 ebbd
00000210: abae 07be 3fb1 d4bd c662 d13d 7172 e5bd
00000220: 527a e7bd 6500 423e 31d6 bebd 8b11 c73d
00000230: a017 df3d 81a6 fbbd 9cc7 c63d 16eb 643d
00000240: 1d0c aa3d 5a1f f3bb ccbc a43d 3f7a e03d
00000250: 1d63 a23c 541d bf3d 3d73 f1bd 5e6c 1ebd
00000260: e4aa 4dbd 0e4e e7bd 4366 adbc d178 183d
00000270: da09 26bd ae44 013c a011 95bd 28cf dfbd
00000280: 1e96 873d a215 d9bd e062 6bbd 85de 1bbe
00000290: 5ae1 80bc 074b 8f3d 9d3f 043e b7b5 c4bd
000002a0: be5a 813d 6a2c 903c 7b4d 2a3d eca0 5c3e
000002b0: c71b 45be 9a20 223e d643 cfbd a791 cfbd
000002c0: 33ab 57bd 6238 fb3c 87d9 c5bd 610f 453d
000002d0: 92e2 403a cc80 12be db9d 19be 287f 303e
000002e0: c893 30be 38ce 09be 3707 1dbe 14db f23c
000002f0: c9f8 be3a afce 2dbc 4062 8d3c 9b8c 953d
00000300: b688 c43c 9e41 6ebd 9e58 603d b16d 633c
00000310: 6ed4 4f3d 52df 323e 256c f73c ea7c 37bd
00000320: 8b9d 3d3c fe0d 193e c110 d5bc 0b1e 8ebe
00000330: a1f9 fe3c 076b c0bc 0611 efbd be6e 8e3d
00000340: a8c8 9ebd 6b98 22bd 417b 0ebe 3f00 b5bd
00000350: 8b70 c9bd 148e b5bc 2923 78bd b058 b63d
00000360: 9e6c 3a3e d0de 863d 9fc0 f13b bcb9 33be
00000370: 5de0 4b3d 0e47 2dbe 86bc ebbd 5f8d 92bd
00000380: f342 5e3d 5f52 b0bc 0929 d03c 5434 ab3b
00000390: da9d 1b3d 093b b1bd 0663 0fbd b02a d43c
000003a0: 8f22 2b3e 10e3 49be 5b6d 0ebd ba4f 48bd
000003b0: 10c4 1ebe d5f4 8b3d c34e a13c a3b4 423d
000003c0: e745 173c 0292 0c3e 3aba 4dbd 5414 4c3e
000003d0: e4b9 123e 9ec7 e53c 15b1 89bd 6668 1a3d
000003e0: 30c5 ea3d d5a8 cbbc af30 6a3e fb49 91bc
000003f0: 7cef e13d 5707 2bbd e0fa 1fbe d211 c0bd

network_body._body_endoder.seq_layers.0.bias f4 [128]
-0.005874507 -0.004104606 0.007802114 4.114915e-05 -0.012843189 -0.007079411 0.006154018 -0.00061405054
-0.024062222 -7.397305e-05 -0.0028294802 0.0030955996 -0.018731745 -0.012148552 -0.008103848 -0.0061856653
-0.009195828 0.012401858 -0.018734632 0.030310739 0.00014934012 -0.0016910767 -0.0013264475 -0.0103212
-0.0060132 -0.004804006 -0.00982789 -0.007163115 -0.009520227 -0.005396349 -0.008811374 -2.9701054e-05
-0.013413496 0.00010368845 -0.015103645 -0.002188834 -0.0031291558 6.17162e-05 -0.011435897 -0.009757038
0.0028065084 -0.006006329 -0.0076031815 -0.017794864 -2.1585158e-05 -0.008953726 0.044375807 -0.008817265
0.002281567 0.009372243 -0.0087918155 -0.0063266116 -0.01469501 -0.0018060395 0.007893306 -0.008260828
-0.0028754754 -0.0046635475 -0.011499403 0.009005599 0.0044979984 0.017284436 -0.004289862 -0.008192699
0.015425639 -0.0037328175 0.0044813654 -0.00012181252 -0.005022572 -0.008241953 -0.014155198 -0.017798213
0.0011518593 -0.015079574 0.020569352 -0.0016996907 0.012137416 -0.0017244602 -0.0011037306 0.007772703
-0.012718902 -0.005720409 0.013304406 -0.0083205905 -0.006373446 0.0027846626 0.008304145 0.0024431357
-0.008143881 0.018763626 0.0048062913 -0.010247605 -0.0018911219 -0.0024667545 -0.0033313332 -0.0029068966
-1.5732103e-07 0.0030922552 -0.0021809551 0.0030105973 -0.0056267334 0.0010493073 0.0005446889 -0.007448968
0.0011542548 0.0004691566 -0.027186956 -0.0024589407 -0.014584254 -0.004911785 -0.005477832 0.00017355575
0.011670279 -0.010301761 -0.00087817194 -0.008278011 -0.00051968347 -0.012646413 -0.0015455241 0.0022308864
0.001453613 0.0014941473 0.0055409665 -0.010211137 -0.0095239915 -0.0046880515 -0.0037070788 -0.012401092
00000000: f07e c0bb ee7f 86bb e0a8 ff3b 9097 2c38
00000010: 3d6c 52bc 67fa e7bb a5a7 c93b 3cf8 20ba
00000020: 231e c5bc fb21 9bb8 cd6e 39bb 8bdf 4a3b
00000030: 5173 99bc b80a 47bc 01c6 04bc 1fb1 cabb
00000040: 19aa 16bc 2a31 4b3c 5f79 99bc 3a4e f83c
00000050: 2f98 1c39 1ea7 ddba 31dc adba 401a 29bc
00000060: 610a c5bb ec6a 9dbb 2905 21bc 90b8 eabb
00000070: bafa 1bbc dbd3 b0bb 955d 10bc 8726 f9b7
00000080: 48c4 5bbc 5073 d938 4775 77bc 8a72 0fbb
00000090: 8612 4dbb a26d 8138 a15d 3bbc fcdb 1fbc
000000a0: 66ed 373b bdd0 c4bb 1c24 f9bb 89c6 91bc
000000b0: c611 b5b7 a6b2 12bc 68c3 353d 4a76 10bc
000000c0: 5886 153b 098e 193c 8c0b 10bc 774f cfbb
000000d0: 57c3 70bc a1b8 ecba ed52 013c 6d58 07bc
000000e0: 7972 3cbb acd0 98bb fe67 3cbc 388c 133c
000000f0: f263 933b 1798 8d3c f891 8cbb ac3a 06bc
00000100: d2bb 7c3c 49a2 74bb 6bd8 923b 9975 ffb8
00000110: 6394 a4bb 4209 07bc 34eb 67bc 8fcd 91bc
00000120: fcf9 963a 5110 77bc 0f81 a83c 28c8 deba
00000130: 03dc 463c 4807 e2ba 0eab 90ba 29b2 fe3b
00000140: f162 50bc 4572 bbbb b9fa 593c 1653 08bc
00000150: 57d8 d0bb e37e 363b 1c0e 083c 041d 203b
00000160: ea6d 05bc 2db6 993c 187e 9d3b 92e5 27bc
00000170: 85df f7ba 46a9 21bb 7f52 5abb a281 3ebb
00000180: 13ec 28b4 6fa7 4a3b 5bee 0ebb 714d 453b
00000190: 7660 b8bb e988 893a 74c9 0e3a 7916 f4bb
000001a0: 5d4a 973a 22f9 f539 2eb7 debc 2e26 21bb
000001b0: cbf2 6ebc 0af3 a0bb 637f b3bb 84fc 3539
000001c0: b334 3f3c b8c8 28bc 1f35 66ba 7fa0 07bc
000001d0: 5e3b 08ba e732 4fbc 2f93 caba 1034 123b
000001e0: 2987 be3a 44d7 c33a ff90 b53b 9d4c 27bc
000001f0: 840a 1cbc 3a9e 99bb 76f2 72bb f32d 4bbc

network_body._body_endoder.seq_layers.2.weight f4 [128, 128]
-0.11375286 -0.009048672 -0.008682873 -0.1594115 -0.032848798 -0.19230542 -0.042572446 -0.15566355
0.09859157 -0.06447445 -0.04181265 0.054897614 0.13193274 0.05685857 0.082406245 0.027101101
-0.028331889 0.08505412 -0.0372079 -0.059484858 -0.06536644 0.00630083 0.08644198 0.0657668
-0.1499951 -0.057679974 -0.08976681 -0.18751608 -0.030064061 -0.04169234 0.039379235 -0.06380191
0.029989844 0.08941745 -0.12791352 0.08672886 -0.07866105 0.0002650232 -0.058118302 0.0067944997
-0.017493155 -0.11659903 0.1522097 -0.07340169 0.07026293 -0.010645253 -0.000346495 0.002799384
0.04453616 0.06350764 -0.1569142 -0.16592368 -0.030789057 0.09485595 -0.075862356 -0.015048983
-0.03529842 -0.08058101 0.025787495 0.09524046 -0.0034236473 -0.11261561 -0.061931193 -0.107657686
-0.15907907 0.06896216 -0.109144896 0.03806158 0.014772965 0.004314793 0.04181616 0.046095114
-0.019459698 -0.10426891 -0.06397412 0.11496532 0.013955246 -0.033707134 0.053209 -0.030810725
0.042285576 -0.06368175 0.030322352 -0.014698312 -0.115717284 -0.089771934 0.28045064 0.028624702
-0.011950983 -0.07614965 0.0068189544 0.045347705 0.038877442 -0.065627284 0.06393596 0.08410972
-0.0020621787 0.078779586 -0.11328581 0.1221248 -0.004886675 -0.05223226 0.03319938 0.060755428
0.026043298 -0.10919987 -0.091439806 -0.013236739 0.06634799 -0.08865892 0.05381965 -0.16800013
-0.031296525 -0.04183199 -0.1259566 0.08965206 -0.10609476 -0.05246498 0.033500247 -0.13558652
0.08813948 0.06444584 -0.044930674 0.0806567 -0.11376106 0.03066738 -0.033481974 -0.14831544
-0.012950124 0.0046978355 0.03323005 -0.014084283 0.03613493 -0.058345914 -0.023330878 -0.04596579
-0.11007649 0.10847675 -0.12064721 0.042779054 -0.12024014 0.0037545227 -0.13192973 0.009598295
0.13145867 0.015948333 0.0044631124 -0.042863157 0.04107837 0.00084191596 -0.09364453 0.053719617
0.09967627 -0.08423641 -0.0367715 0.016249886 -0.09489039 0.08003249 -0.18641749 -0.05254226
0.035821415 0.020866655 0.020708049 0.029043557 0.019525407 -0.06364411 -0.060571104 0.05424136
0.0030505224 -0.066676855 0.0862646 0.054722365 -0.058864675 -0.044617508 -0.091971874 -0.03112856
-0.044382893 0.0013721841 0.0008185633 0.099913545 -0.018935174 -0.0027173075 -0.0072934455 0.012995148
0.058420677 0.014088155 0.006654327 0.061240353 -0.021277137 -0.090669945 0.11113563 0.09768132
-0.10097619 0.111478925 -0.06102383 0.044607718 0.034321606 0.05674115 0.00954036 0.0069541987
0.08491008 0.26231334 0.02873454 -0.13007692 0.085770495 0.03742246 -0.027313573 0.06322556
0.03133479 0.031920485 -0.12159254 -0.028226312 0.02383782 -0.007745907 -0.11898156 -0.032529715
0.0022866654 -0.14246267 0.17624874 0.05927393 -0.066162474 0.024089126 0.08874149 0.1261958
-0.078817256 0.14910409 0.029953377 0.1137655 0.04298512 -0.07965768 -0.10496745 -0.013540713
-0.12731478 -0.10995974 -0.061310295 0.101157166 0.047257513 0.09058734 0.08509361 0.11090201
-0.042810705 -0.06163551 0.067501046 -0.028444296 0.0027571297 -0.03600138 -0.05452321 -0.10221436
0.15231635 0.062201366 0.026964283 -0.02623181 -0.06830342 0.18104152 0.010101799 0.06789427
00000000: 42f7 e8bd e240 14bc 9c42 0ebc c53c 23be
00000010: 768c 06bd b6eb 44be 7260 2ebd 4466 1fbe
00000020: 61ea c93d 2e0b 84bd be43 2bbd 52dc 603d
00000030: 6019 073e 88e4 683d 9bc4 a83d 2103 de3c
00000040: 4718 e8bc db30 ae3d 5067 18bd 65a6 73bd
00000050: d7de 85bd 3177 ce3b 7e08 b13d beb0 863d
00000060: 5198 19be d641 6cbd a9d7 b7bd 3704 40be
00000070: e848 f6bc 96c5 2abd 1f4c 213d 93aa 82bd
00000080: 43ad f53c 7f20 b73d c3fb 02be e79e b13d
00000090: 0b19 a1bd d0f2 8a39 750d 6ebd 65a4 de3b
000000a0: ce4d 8fbc 79cb eebd dcdc 1b3e a053 96bd
000000b0: 03e6 8f3d 6d69 2ebc c6a9 b5b9 df75 373b
000000c0: 8c6b 363d 4b10 823d 1eae 20be e6e7 29be
000000d0: 5539 fcbc d643 c23d b95d 9bbd 0290 76bc
000000e0: 1395 10bd a807 a5bd 4c40 d33c 6e0d c33d
000000f0: 455f 60bb 03a3 e6bd 90ab 7dbd a27b dcbd
00000100: a0e5 22be 083c 8d3d 5c87 dfbd 76e6 1b3d
00000110: 4e0a 723c 1b63 8d3b 6c47 2b3d 3bce 3c3d
00000120: f269 9fbc f08a d5bd dd04 83bd f072 eb3d
00000130: 8ba4 643c 7e10 0abd aef1 593d c666 fcbc
00000140: a433 2d3d 946b 82bd 9566 f83c 30d1 70bc
00000150: 2ffd ecbd 59da b7bd 3a97 8f3e 5a7e ea3c
00000160: 0ece 43bc 59f4 9bbd 8971 df3b 84be 393d
00000170: f43d 1f3d 9967 86bd dbf0 823d b841 ac3d
00000180: 9e25 07bb 3157 a13d 6402 e8bd 911c fa3d
00000190: 6720 a0bb 7ff1 55bd 13fc 073d afda 783d
000001a0: c158 d53c 2ea4 dfbd cb44 bbbd e8de 58bc
000001b0: 74e1 873d cf92 b5bd fe71 5c3d 3a08 2cbe
000001c0: c930 00bd 0558 2bbd c4fa 00be 809b b73d
000001d0: 3648 d9bd 85e5 56bd 8e37 093d 31d7 0abe
000001e0: 7982 b43d 2efc 833d 3a09 38bd 572f a53d
000001f0: 8ffb e8bd 283a fb3c 6524 09bd 01e0 17be
00000200: c22c 54bc 4df0 993b 3c1c 083d c4c1 66bc
00000210: 3802 143d 20fc 6ebd 6620 bfbc a046 3cbd
00000220: c86f e1bd 0f29 de3d e215 f7bd 1739 2f3d
00000230: 7640 f6bd 700e 763b 9618 07be 2b42 1d3c
00000240: 1a9d 063e 14a6 823c 4d3f 923b 4791 2fbd
00000250: cb41 283d 06b4 5c3a b4c8 bfbd 1a09 5c3d
00000260: 1223 cc3d 2484 acbd b69d 16bd 7b1e 853c
00000270: e555 c2bd 13e8 a33d 3ae4 3ebe 8e36 57bd
00000280: 7ab9 123d 8cf0 aa3c eda3 a93c c1ec ed3c
00000290: bff3 9f3c d857 82bd 6819 78bd 302c 5e3d
000002a0: 46eb 473b e08d 88bd 7fab b03d 8f24 603d
000002b0: 161c 71bd d9c0 36bd c05b bcbd 5201 ffbc
000002c0: d6ca 35bd dcda b33a da94 563a 799f cc3d
000002d0: f01d 9bbc db14 32bb dbfd eebb 9ae9 543c
000002e0: 854a 6f3d 01d2 663c 8a0c da3b 2ad7 7a3d
000002f0: 644d aebc 2ab1 b9bd 149b e33d 250d c83d
00000300: 9bcc cebd 104f e43d 20f4 79bd 95b6 363d
00000310: d094 0c3d 6869 683d 2c4f 1c3c 0ce0 e33b
00000320: 56e5 ad3d ef4d 863e b364 eb3c e232 05be
00000330: 71a8 af3d 4b48 193d b7c0 dfbc 677c 813d
00000340: e958 003d 0ebf 023d 8205 f9bd de3a e7bc
00000350: 8847 c33c 61d1 fdbb 9bac f3bd e13d 05bd
00000360: e1db 153b bce1 11be 8d7a 343e 38c9 723d
00000370: 3180 87bd 8f56 c53c 19be b53d 7939 013e
00000380: f16a a1bd beae 183e c960 f53c e3fd e83d
00000390: 2a11 303d 9123 a3bd 2df9 d6bd ded9 5dbc
000003a0: ce5e 02be 9232 e1bd 8120 7bbd 7d2b cf3d
000003b0: 1891 413d db85 b93d 8f45 ae3d 9820 e33d
000003c0: 475a 2fbd 8475 7cbd fd3d 8a3d 0304 e9bc
000003d0: f6b0 343b 2f76 13bd bb53 5fbd c355 d1bd
000003e0: d1f8 1b3e dcc6 7e3d 33e4 dc3c 18e4 d6bc
000003f0: aae2 8bbd f362 393e 0482 253c 270c 8b3d

network_body._body_endoder.seq_layers.2.bias f4 [128]
-0.002606529 -0.001240377 -0.0086226 -0.009607005 -0.009022217 -0.0018749434 -0.012630947 -0.005379077
-0.014281424 -0.004094191 -0.008180861 -0.008370207 -0.0006073182 -0.005710812 -0.013359359 0.00014152574
-0.010401447 -0.0073016295 -0.0017506058 -0.004638754 -0.005024822 -0.0017571511 -0.013428428 0.009980329
-0.0034540321 -0.010764996 0.0049593165 0.010088755 0.004121621 -0.00537897 -0.006345722 -0.006398717
-0.0045275586 -0.0043692803 -0.008783036 -0.00027010898 0.0019238093 0.00077259843 -0.006169679 -0.00020040188
-0.004696236 -0.00038733115 -0.009967315 -0.0043262406 -0.009813452 -0.0068545034 -0.006623712 -0.0057022143
-0.0015226849 -0.01182606 -0.010717636 -0.0076883 0.019262413 -0.012134694 -0.013496273 0.019705921
-0.00316976 0.0017433795 -0.0058399243 -0.0029780532 -0.007581568 -0.0027766114 -0.013578698 0.001937879
-0.008250187 -0.0071920366 0.0041804775 -0.0002319196 -0.012307909 -0.0106625175 0.007027498 -0.003624796
-0.012867939 -0.00020111611 -0.0065597957 -0.001945986 -0.008187664 -0.0029694869 -0.008371373 -0.0012026553
-0.012182447 -0.00088837015 -0.004024895 -0.008660511 -0.006561418 -0.015865441 -0.004396448 -0.0006533411
-0.01027557 -0.010345795 -0.0054438137 -0.00040317542 -0.002450033 -0.004557305 0.004629775 -0.008446138
-0.004142079 -0.006217605 -0.0061489223 -0.010919904 -0.007928368 -0.008336161 0.002326391 -0.010887032
-0.003588079 0.0022674622 -0.0137913255 -0.008338937 -0.0074804234 -0.0150894215 -0.0077551934 0.0013428327
-0.0028064428 -0.0033706385 -0.0022743226 -0.003623939 -0.011400764 -0.008408618 0.0011945277 -0.010378133
-0.0017346827 -0.00250886 -0.0025248148 -0.0054138503 -0.0022327995 -0.007641894 -0.0071847676 0.0025777672
00000000: 4dd2 2abb 2594 a2ba ce45 0dbc b366 1dbc
00000010: ecd1 13bc a9c0 f5ba 08f2 4ebc f842 b0bb
00000020: a2fc 69bc 9028 86bb 0509 06bc 3123 09bc
00000030: 6f34 1fba c321 bbbb 37e1 5abc 8766 1439
00000040: d56a 2abc 8242 efbb 9574 e5ba b000 98bb
00000050: 43a7 a4bb 3550 e6ba e902 5cbc 8984 233c
00000060: 0b5d 62bb aa5f 30bc c381 a23b 4e4b 253c
00000070: aa0e 873b 1242 b0bb c6ef cfbb 54ac d1bb
00000080: ea5b 94bb 2e2c 8fbb b9e6 0fbc 6a9d 8db9
00000090: 5428 fc3a 3488 4a3a 052b cabb f822 52b9
000000a0: e2e2 99bb b512 cbb9 f34d 23bc 23c3 8dbb
000000b0: 9ac8 20bc be9b e0bb b90b d9bb a4d9 babb
000000c0: d494 c7ba 17c2 41bc 0699 2fbc 23ee fbbb
000000d0: 35cc 9d3c 98d0 46bc 791f 5dbc 506e a13c
000000e0: c0bb 4fbb 1c82 e43a d65c bfbb 712b 43bb
000000f0: cd6e f8bb cff7 35bb 3079 5ebc 6e00 fe3a
00000100: cb2b 07bc 2dab ebbb 63fc 883b 722f 73b9
00000110: 1da7 49bc d7b1 2ebc ed46 e63b fc8d 6dbb
00000120: 0cd4 52bc b2e2 52b9 8ef3 d6bb 7410 ffba
00000130: 8d25 06bc b99b 42bb 1528 09bc 6aa2 9dba
00000140: e398 47bc 83e1 68ba 44e3 83bb d1e4 0dbc
00000150: 2a01 d7bb 3ef8 81bc 1410 90bb fb44 2bba
00000160: dd5a 28bc 6981 29bc 0562 b2bb 4a61 d3b9
00000170: bc90 20bb 7255 95bb 5eb5 973b ac61 0abc
00000180: 47ba 87bb 0dbd cbbb e67c c9bb 66e9 32bc
00000190: fce5 01bc 6594 08bc 5d76 183b 865f 32bc
000001a0: fa25 6bbb b499 143b 03f5 61bc 09a0 08bc
000001b0: 571e f5bb 9f39 77bc 471f febb fd01 b03a
000001c0: 4cec 37bb eee5 5cbb cd0c 15bb 9b7f 6dbb
000001d0: 45ca 3abc 4dc4 09bc b391 9c3a 0b09 2abc
000001e0: 4b5e e3ba b06b 24bb 5d77 25bb ab66 b1bb
000001f0: 2954 12bb da68 fabb 336e ebbb c2ef 283b

action_model._continuous_distribution.log_sigma f4 [1, 5]
-0.17728706 -0.12993987 -0.032992985 -0.0710634 -0.039288092
00000000: bd8a 35be f50e 05be a723 07bd b089 91bd
00000010: 8dec 20bd

action_model._continuous_distribution.mu.weight f4 [5, 128]
0.043269224 -0.013651835 0.021865513 0.0035122843 -0.011289906 0.011329288 0.019673476 0.01627576
-0.054301724 0.009907815 0.02998348 -0.0003121434 0.0007785551 -0.010695324 0.0034850375 0.0035809095
0.008313933 0.00518563 0.059533454 -0.008459535 -0.013811005 4.5895118e-05 0.0043244353 0.03066897
-0.011138206 -0.00051284715 0.023266144 -0.019066306 -0.005947529 0.02943004 -0.006107078 0.08209766
-0.002299693 0.0016175793 0.00046266813 -0.0044853874 -0.008379258 0.020132395 -0.07125634 -0.017470894
-0.002397713 -0.014141329 0.026737627 -9.389004e-05 0.02404156 0.017890245 -0.0040762224 0.045220904
-0.03346264 0.0035265386 -0.006077079 -0.009982905 0.026866935 -0.014300173 0.017250685 0.011439069
0.008583541 0.027245453 -0.02831509 -0.017619409 -0.0012637574 0.03475687 0.012947352 0.045288343
-0.0020331729 0.012684824 0.021296462 -0.016432667 -0.014837793 0.003837753 -0.052384418 -0.004161314
-0.026111118 -0.033154145 0.00589897 -0.04435459 -0.0066261296 -0.030676823 -0.039178062 0.0064639365
0.011695053 0.0066460534 -0.016029749 -0.0022385682 -0.010333847 0.0070534307 0.029871339 -0.038493536
0.035702653 0.017205406 -0.014835733 -0.02316072 0.0015102753 -0.0043542515 -0.047232065 -0.04847447
-0.008159398 -0.011602546 -0.02110098 -0.029676154 -0.017060895 0.014678213 -0.025710385 -0.011404284
-0.00025030077 0.064464375 0.0022900996 0.0052667437 0.0018602066 -0.046876807 -0.03467624 0.03790351
-0.009575093 -0.03241437 -0.02555699 -0.020049362 0.08317269 0.06779033 0.03728609 -0.020001335
0.03863333 0.0059456355 0.0034966045 0.018234795 -0.02089812 -0.01307255 0.0041648746 -0.071682625
-0.021226598 -0.00090530195 0.0068592476 0.016546862 -0.0034355598 -0.04429583 -0.017544568 -0.011420115
0.010512634 0.021800384 -0.004899791 0.005793141 -0.021078419 -0.011366506 0.015870508 -0.012955768
-0.003295113 -0.019501887 -0.0009421504 0.0023889737 0.014658199 -0.023897057 0.0006105836 -0.032977756
0.010772611 0.0005259867 -0.0149317365 -0.010197852 -0.020393444 0.0050749388 -1.74036e-06 -0.0019030574
0.0011537283 -0.008761979 -0.003853921 0.030891083 0.019256622 -0.019322239 0.017032426 -0.007720319
0.029558728 0.007728491 -0.022263352 -0.015907638 -0.014000977 -0.010472471 -0.016418496 -0.011892395
-0.004119931 -0.015723528 -0.0043847915 -0.0061350735 -0.018397793 -0.008347689 -0.004815592 -0.046563603
-0.015532936 -0.007485014 -0.0075815087 -0.012883228 0.0082423985 0.005881418 -0.0032074507 -0.021214807
-0.0106427735 0.012296823 0.008913043 0.010191475 0.009782046 0.0057121255 0.004366453 0.008371786
0.0024516862 0.0037978948 0.016125904 -0.0018559184 -0.00944146 0.0025017294 0.024919583 0.012982073
0.010243514 -0.048218057 0.04393252 -0.029569333 0.017419854 0.0075300545 0.0110642025 -0.015094931
-0.0057740174 0.017669166 0.024800293 0.017622782 0.010170782 0.01242571 -0.0005564854 0.009280765
-0.0052368464 -0.0016906635 0.011301196 0.004204117 0.007835016 -0.006499291 -0.013839688 0.031577535
-0.0002911109 -0.0023245742 -0.009657482 -0.0068448093 -0.0067473105 0.0049374537 0.013443924 -0.012338876
0.008250555 0.0096249245 0.0013432599 -0.020863254 -0.018394858 -0.017289253 -0.013147793 -0.016900726
-0.025870264 -0.0069406573 -0.00032317388 -0.011000947 0.0015134126 -0.005291751 0.00265133 0.0016375415
00000000: 123b 313d f2ab 5fbc 4e1f b33c 5a2e 663b
00000010: 4cf9 38bc 7a9e 393c 452a a13c be54 853c
00000020: 7c6b 5ebd 6354 223c ea9f f53c 2ea7 a3b9
00000030: f317 4c3a 713b 2fbc 3a65 643b b1ad 6a3b
00000040: 2a37 083c 38ec a93b 5ad9 733d dd99 0abc
00000050: 8e47 62bc 827f 4038 feb3 8d3b 7e3d fb3c
00000060: 067d 36bc 9770 06ba a498 be3c f130 9cbc
00000070: 7de3 c2bb 4417 f13c e21d c8bb d122 a83d
00000080: 72b6 16bb f404 d43a 4492 f239 28fa 92bb
00000090: 2849 09bc b1ec a43c d8ee 91bd 1f1f 8fbc
000000a0: f322 1dbb 08b1 67bc de08 db3c d5e6 c4b8
000000b0: cef2 c43c 908e 923c d591 85bb 8e39 393d
000000c0: 1f10 09bd 801d 673b 3c22 c7bb 578f 23bc
000000d0: 0c18 dc3c 464b 6abc 4f51 8d3c ef6a 3b3c
000000e0: fba1 0c3c db31 df3c 0cf5 e7bc 9456 90bc
000000f0: a9a4 a5ba 385d 0e3d 2121 543c 4580 393d
00000100: fb3e 05bb 02d4 4f3c eb75 ae3c cd9d 86bc
00000110: 371a 73bc d082 7b3b 0b91 56bd a25b 88bb
00000120: fce6 d5bc a4cc 07bd 264c c13b 29ad 35bd
00000130: 0120 d9bb f64d fbbc 2d79 20bd 6ecf d33b
00000140: 9c9c 3f3c 23c7 d93b d250 83bc f1b4 12bb
00000150: 4c4f 29bc 7720 e73b bdb4 f43c 66ab 1dbd
00000160: f23c 123d 5af2 8c3c 9311 73bc 8dbb bdbc
00000170: 6ef4 c53a 1cae 8ebb 6976 41bd 2a8d 46bd
00000180: ffae 05bc 9b18 3ebc f6db acbc 681b f3bc
00000190: 4ac3 8bbc e37c 703c 969e d2bc 09d9 3abc
000001a0: cd3a 83b9 e605 843d 7f15 163b a694 ac3b
000001b0: 2dd2 f33a e501 40bd ac08 0ebd b640 1b3d
000001c0: dae0 1cbc eec4 04bd e55c d1bc 8f3e a4bc
000001d0: 7156 aa3d a8d5 8a3d 4db9 183d d7d9 a3bc
000001e0: fc3d 1e3d 9bd3 c23b 4a27 653b 2361 953c
000001f0: 8932 abbc 402e 56bc 8079 883b 57ce 92bd
00000200: 67e3 adbc c951 6dba 8ac3 e03b 498d 873c
00000210: 2127 61bb 8b6f 35bd a0b9 8fbc 6f1b 3bbc
00000220: 2f3d 2c3c b896 b23c 6d8e a0bb 64d4 bd3b
00000230: a6ac acbc 953a 3abc de02 823c 6e44 54bc
00000240: d3f2 57bb 6cc2 9fbc a5fa 76ba 5490 1c3b
00000250: f128 703c c3c3 c3bc 920f 203a af13 07bd
00000260: 9b7f 303c 5fe2 093a 3ea4 74bc e414 27bc
00000270: 2710 a7bc ac4b a63b 5096 e9b5 0370 f9ba
00000280: b338 973a 678e 0fbc 1192 7cbb 4c0f fd3c
00000290: 10c0 9d3c ac49 9ebc 9687 8b3c bbfa fcbb
000002a0: 2525 f23c 483f fd3b a261 b6bc bc50 82bc
000002b0: 5b64 65bc ba94 2bbc 1580 86bc 52d8 42bc
000002c0: 7c00 87bb a1ce 80bc 4cae 8fbb ba08 c9bb
000002d0: f8b6 96bc bfc4 08bc 1dcc 9dbb 7ab9 3ebd
000002e0: db7d 7ebc d944 f5bb 4e6e f8bb 2d14 53bc
000002f0: 200b 073c e9b8 c03b 1834 52bb adca adbc
00000300: 075f 2ebc 9d78 493c 0308 123c 25fa 263c
00000310: e044 203c c82c bb3b 7614 8f3b d129 093c
00000320: 78ac 203b 1ae6 783b 791a 843c 4a42 f3ba
00000330: 5ab0 1abc 0ef4 233b 2724 cc3c c3b2 543c
00000340: 69d4 273c 4c80 45bd 96f2 333d 633b f2bc
00000350: 15b4 8e3c adbe f63b a146 353c bb50 77bc
00000360: f833 bdbb edbe 903c fc29 cb3c a75d 903c
00000370: 5aa3 263c 3595 4b3c 1ae1 11ba 5a0e 183c
00000380: da99 abbb 4199 ddba a728 393c b1c2 893b
00000390: 705e 003c 01f8 d4bb dcbf 62bc 7257 013d
000003a0: 3ea0 98b9 e257 18bb 6a3a 1ebc 6c4a e0bb
000003b0: 8b18 ddbb 5dca a13b e743 5c3c ff28 4abc
000003c0: 562d 073c dcb1 1d3c 5310 b03a 6ae9 aabc
000003d0: d0b0 96bc 31a2 8dbc d769 57bc 6473 8abc
000003e0: e0ed d3bc 746e e3bb aa6f a9b9 513d 34bc
000003f0: b35d c63a 6d66 adbb f0c1 2d3b c6a2 d63a

action_model._continuous_distribution.mu.bias f4 [5]
-0.0067485003 -0.0036283212 -0.0051961127 -0.0042745364 0.00062652264
00000000: 8622 ddbb 21c9 6dbb 2744 aabb 6911 8cbb
00000010: 393d 243a
