Assets/results/Midnight backup.onnx (onnx, 128747 bytes, 15 tensors)

discrete_act_size_vector f4 [1, 5]
000000 00 00 40 40 00 00 00 40 00 00 40 40 00 00 00 40
       3.0 2.0 3.0 2.0
000010 00 00 00 40
       2.0

network_body._body_endoder.seq_layers.0.weight f4 [128, 82]
000000 d6 86 06 3e 49 05 eb bd a3 6c bb 3d 78 c4 b4 3d
       0.13137373 -0.114756174 0.0915158 0.08826536
000010 85 9f 2d 3d 52 01 23 3e 03 d8 9c 3d 2f 83 dd bd
       0.042388458 0.15918472 0.076583885 -0.10816037
000020 c5 aa 07 3e 92 85 a2 3c 49 8b 70 3e 8f 19 53 bd
       0.13248737 0.019839082 0.23490633 -0.051538046
000030 68 d5 12 3c c8 8f 6c be 64 58 91 bb fd 5c 21 be
       0.008962013 -0.23101723 -0.004435586 -0.15758128
000040 cd 6f 19 3e 22 20 a2 3c 3e d1 35 3e 4b 70 00 3e
       0.14984055 0.019790713 0.17755601 0.12542836
000050 d7 d0 c5 3c 25 0b db 3d 7e 55 3a bd 53 92 9c bd
       0.024147434 0.10695485 -0.045491688 -0.07645097
000060 ab 5f 12 3d 9d 01 3c be 52 0f b4 bd 76 1d f6 bd
       0.035735767 -0.1835999 -0.087919846 -0.12017338
000070 7b f0 b2 bd 5e 26 f4 bd 91 dc 34 3d f2 fd 38 3d
       -0.08737274 -0.119213805 0.04415566 0.045164056
000080 c9 e1 9e 3d d0 8a b7 bb de 8d e2 3d d2 3a 19 3e
       0.07757909 -0.0056012645 0.11062215 0.14963844
000090 53 71 e5 bd ba c6 d2 3c 67 5e 5f 3d 78 36 71 3e
       -0.112032555 0.025729526 0.05453339 0.23555934
0000a0 06 7f 20 3d db e8 52 bd 32 a4 71 bd d7 24 b4 3d
       0.03918364 -0.0514916 -0.05899448 0.08796089
0000b0 4e 4f 00 be bf e0 1f bd 57 e5 31 3e 79 84 33 bd
       -0.12530252 -0.039032694 0.17372642 -0.043827508
0000c0 be ae 9b bd de 20 7c 3d 62 10 73 bd 09 4f 1d be
       -0.07601689 0.061554782 -0.059341796 -0.15362181
0000d0 c8 4b 90 3c 06 06 70 bc fd d2 3a 3e 3f 59 8b bd
       0.01761426 -0.014649874 0.18244548 -0.06804132
0000e0 eb b2 90 bd 6a c1 3f b9 7e 89 35 3d 76 51 ff 3c
       -0.07065376 -0.00018287232 0.044320576 0.031166773
0000f0 3f f6 14 be 0a 43 03 3e 1a cb 02 bd 5c ed ee 3b
       -0.1454706 0.12818542 -0.031931974 0.007291479
000100 67 23 3e bc 54 9a a6 3d 7b 72 01 be f7 13 50 bd
       -0.01160512 0.081349045 -0.12641327 -0.05080029
000110 d1 c0 bb 3d 7c c3 3c 3e 06 60 bd bd 85 f2 a0 3b
       0.09167636 0.18433946 -0.09246831 0.004911723
000120 a4 1d 9f bd 5e 11 0f 3e ea 6a 40 3d 55 27 38 bd
       -0.077693254 0.13971469 0.04697696 -0.044959385
000130 98 51 23 39 40 7a 7b 3c f1 90 1d bd dc ff d1 bd
       0.00015575287 0.015348971 -0.038468305 -0.102538794
000140 d2 c2 ff bd cf 19 9a bd 8e 1c 0a bd 6a 76 34 be
       -0.12488331 -0.07524454 -0.033718638 -0.17623296
000150 0f f8 87 3e a8 d9 a7 3b d8 7e 4a bd df 7b cb 3b
       0.2655644 0.005122382 -0.049437374 0.006209835
000160 5a 3d aa bd 64 ea af 3d bf 27 6b 3d f7 68 f2 bd
       -0.08312483 0.08589628 0.05741095 -0.11836427
000170 cd 4f 08 3c f2 9e be 3c 45 01 97 3c 6c 14 94 bd
       0.008319807 0.02326915 0.018433223 -0.07230458
000180 af 99 9d bc b8 26 3d be 16 3c 44 39 11 9e f0 bd
       -0.019238321 -0.18471801 0.000187144 -0.11748899
000190 00 9e 74 bd 63 05 41 be 5a 9e 79 bd 7a 0e 89 3d
       -0.059720993 -0.18849711 -0.06094203 0.06692214
0001a0 a0 0d a6 bb 2a 6b 6b bd b6 80 3a 3e b4 56 a9 bd
       -0.005067542 -0.057475246 0.18213162 -0.082684904
0001b0 c5 4f 1e bd 94 de 22 be 05 34 7b bd 8f 5c b6 bd
       -0.038650293 -0.1590522 -0.061328907 -0.08904373
0001c0 a3 28 7a 3e 20 c2 8c 3d 5d 53 4b 3e 79 9b 2a 3d
       0.24429564 0.06872964 0.1985602 0.041652177
0001d0 1a 77 ac bc 3c 56 1b 3b 3e fb b2 bd 5a bb d5 bd
       -0.021052886 0.0023702523 -0.08739327 -0.10436125
0001e0 44 a2 19 bd 95 0d 6b bd 53 e6 1e bc 57 36 8c 3c
       -0.037508264 -0.057386 -0.009698468 0.017115755
0001f0 f1 40 02 3d bd 14 18 3e 6c 2b 0c 3d d5 23 b7 3d
       0.031800214 0.14851661 0.034221098 0.08942381
000200 a8 b8 c0 3d df 08 15 bd 71 0b 38 3d c2 91 80 3d
       0.094102204 -0.036385413 0.044932786 0.06277801
000210 49 56 60 3d f4 d7 c3 bc 60 da e4 3d da ef 7c bd
       0.054769788 -0.023906685 0.11174464 -0.061752178
000220 cc 85 d7 bd 3c 0c 2c 3e 54 37 21 3e c4 4a f7 bd
       -0.105235666 0.16801542 0.15743762 -0.12074807
000230 b1 7a 06 bd 35 8a ed 3c 4e 7f 72 3e 31 94 6c be
       -0.03283185 0.028996566 0.23681375 -0.23103406
000240 72 03 24 3e 2f fa 2a 3b fd 68 ce bd 03 02 19 be
       0.1601694 0.0026089062 -0.10078619 -0.14942174
000250 00 19 0e bc 2a 3c 3f 3e f0 00 ed 3a e3 40 59 3d
       -0.008672953 0.18675295 0.0018081944 0.053040396
000260 3a 4b 23 be c7 f4 92 3c b6 e2 74 3d cc 5b b8 3c
       -0.15946665 0.017938985 0.05978652 0.02250471
000270 ca a7 2f 3d 65 55 ab 3d 10 9f 45 be eb 7a 00 be
       0.042884625 0.08365897 -0.19298959 -0.1254689
000280 76 d8 ed 3c 45 e1 80 3c 20 6e bc 3d 45 31 df bd
       0.02903388 0.015732417 0.09200692 -0.10898069
000290 70 1a 03 be bf 95 ab 3d 1a 91 18 3e f8 b0 f6 3c
       -0.12803054 0.08378171 0.14899102 0.030113682
0002a0 bc 3d a9 bd 20 a4 5c bb ee 67 71 3e e1 75 38 bc
       -0.08263728 -0.0033667162 0.23574802 -0.011258573
0002b0 d8 1f 2e bd 94 02 14 bd 31 85 05 be 34 f3 d1 3d
       -0.042510837 -0.03613527 -0.1303909 0.102514654
0002c0 ce de fd 3c 74 39 1e be 9b c0 49 3e 19 f6 6f 3d
       0.03099003 -0.15451604 0.1970238 0.058584306
0002d0 bb ba 9a 3c e4 59 0f be 0e af b1 bd ff dd 3b 3c
       0.018887868 -0.13999134 -0.08675967 0.011466502
0002e0 3f ba ff 3d 9e 0d a0 bc 42 47 8e 3d d7 f7 b3 3d
       0.124866955 -0.019537743 0.06947185 0.08787506
0002f0 51 5e 86 3c 89 1e 68 3d 63 70 fc bd 73 47 57 3d
       0.016402395 0.056669746 -0.123261236 0.052558374
000300 12 88 0b bc fc fc f6 bc 93 08 de 3d e7 bc 0d bc
       -0.008516328 -0.03014993 0.10841479 -0.008650995
000310 71 61 32 bd ec d0 82 be 37 84 91 bd 09 37 7a 3d
       -0.04354996 -0.2555002 -0.07105296 0.061087642
000320 0f c9 17 bc ba 34 e9 bd 39 d7 25 be b6 0a bf bd
       -0.009264245 -0.1138701 -0.16195382 -0.09328215
000330 41 f3 12 3e 85 ac 58 be 95 d3 33 bd 7c a8 ae bc
       0.14350607 -0.21159561 -0.043902952 -0.021320574
000340 c9 43 76 3d ca 65 29 3d 0d 62 5b 3c f8 f5 e7 3c
       0.06012324 0.04135684 0.013390076 0.02831553
000350 a6 c9 ef 3c 18 7d aa be e5 79 4a 3d f2 24 1e 3e
       0.029270958 -0.33298564 0.049432654 0.15443781
000360 f4 1c 55 3c 62 de 85 be 66 e5 3a 3d 2b 0c 7b 3d
       0.013007391 -0.26146227 0.045628928 0.0612909
000370 ff 12 b9 bc 69 6c aa bd d9 75 cb bd b8 e2 1b 3d
       -0.022592066 -0.08321459 -0.09934587 0.038058013
000380 4f 39 db bd 31 44 5f 3d c4 9e a7 3b ae 96 8c be
       -0.1070429 0.05450839 0.005115362 -0.2745871
000390 62 d9 0f 3d 7c a6 c7 3d bd 49 6c 3d 72 43 a4 3d
       0.03511942 0.09748551 0.05768751 0.08020677
0003a0 0e 17 a5 3d 46 f7 0d 3d 2f f2 1a 3d 50 ae 61 be
       0.08061038 0.034659646 0.03782862 -0.22039151
0003b0 1d 7d 7b 3c 4d fe 52 be ed 9e 01 3e 81 b4 1c 3e
       0.015349654 -0.2060482 0.12658282 0.15303232
0003c0 39 cc 45 be 82 22 b1 bc b0 72 31 3e 4b 0c 02 3b
       -0.19316186 -0.0216229 0.17328906 0.0019843753
0003d0 a6 ed 3e bd 4b de a6 bd 29 4e 29 bd de 11 ac bc
       -0.046613358 -0.08147868 -0.041334305 -0.021004613
0003e0 0a 99 3c be 72 9d 56 3d c5 d4 fc 3d c4 ad 07 be
       -0.18417755 0.052396245 0.1234527 -0.1324988
0003f0 e0 bb 40 3b e5 cc 8e 3d a1 fd da bd 47 85 04 3e
       0.0029408857 0.06972674 -0.10692907 0.12941466

network_body._body_endoder.seq_layers.0.bias f4 [128]
000000 9d 98 c1 9d 41 fc 6a 02 cf 6b 1f 3d 35 1f ea bc
       -5.1244473e-21 1.7263998e-37 0.038921174 -0.028579334
000010 7b f7 cd 31 01 b0 05 31 35 0b 97 19 1f 49 15 3b
       5.9944205e-09 1.9454094e-09 1.561756e-23 0.002277918
000020 a9 df b5 3c 43 6e 11 3b 48 7b 5e bc e4 6e 6a 3a
       0.022201376 0.0022190965 -0.013579197 0.00089429156
000030 c3 d5 41 bc 1a 66 70 bc a5 fa 0e a9 e0 14 9e bb
       -0.01183075 -0.01467278 -3.1747733e-14 -0.004824266
000040 5a 62 8a bd 52 4d 1d 3c 62 9f 46 36 44 17 16 bc
       -0.0675704 0.009600954 2.9597072e-06 -0.00916082
000050 a8 33 b7 bc 6f cc ed 35 98 bc ee 9d 27 2d a3 bc
       -0.022363499 1.7717374e-06 -6.3193077e-21 -0.019918991
000060 3c b2 00 96 04 f5 45 3d fa d6 90 bc 13 d4 3b 3c
       -1.0395999e-25 0.04832937 -0.017680634 0.011464137
000070 e0 3a 20 a2 e8 ba b1 3c 53 ec 2b 2d 75 a7 af bc
       -2.1715212e-18 0.02169557 9.772699e-12 -0.021442154
000080 e2 56 bd bc 3a 02 2c bc ed c1 21 3d 1f 9b 64 bc
       -0.023112718 -0.010498578 0.039491583 -0.013952999
000090 9d 64 de b1 5b 71 18 bd 00 00 00 00 11 c2 f6 bc
       -6.4724888e-09 -0.03721748 0.0 -0.030121835
0000a0 83 98 c1 3c d9 6b a3 bc e6 b9 63 bc 61 af ac 3c
       0.023632294 -0.019948887 -0.013899302 0.02107972
0000b0 8e c7 c5 bc 74 52 cd bc 02 32 76 3d 5d 08 46 bd
       -0.024143007 -0.02506373 0.060106285 -0.04834782
0000c0 d8 61 a4 35 47 77 35 bd bb 0b e7 bc b2 e8 a0 ae
       1.2247428e-06 -0.044303205 -0.028203836 -7.3172926e-11
0000d0 02 b7 e1 bb d0 9f 10 bb da 7b 89 3c 04 ae 84 bc
       -0.0068882713 -0.0022067912 0.01678269 -0.016196258
0000e0 b9 22 88 1f bf 66 7d bd 59 f9 86 b5 e0 06 cd bc
       5.7655684e-20 -0.061865564 -1.0056348e-06 -0.025027692
0000f0 4b 10 a6 2c 9a f6 3b 3c 2f f7 86 bb ed 79 24 bd
       4.7198126e-12 0.011472369 -0.004118822 -0.04015534
000100 48 ac d1 35 73 6d 56 3d 00 00 00 00 02 7c 78 3c
       1.5621854e-06 0.052350473 0.0 0.0151662845
000110 28 6e f0 bc d0 b3 8b 3b a8 32 ef 3b e6 53 75 a4
       -0.029349402 0.0042633787 0.00729974 -5.319697e-17
000120 a0 02 8b 3c de 64 d5 bc 30 2a aa bc 6f 19 34 bb
       0.016969025 -0.026049074 -0.02077207 -0.002748098
000130 64 c3 df bc 5a f4 71 bc cc 5a 8b bd 5a c2 e3 3b
       -0.02731485 -0.014767731 -0.068044275 0.0069506587
000140 8a 09 ad bc aa b2 85 bb 63 fd bb 3c 11 f4 4a bc
       -0.021122713 -0.0040801363 0.022947973 -0.0123872915
000150 9d 53 09 05 b6 49 cb bc ec 52 b1 ba af 6e 1f 3d
       6.4570664e-36 -0.024815422 -0.0013528741 0.038923915
000160 62 c7 2f 3c f3 6f 74 b0 9a fd 3a b7 d8 14 8b 2f
       0.010728689 -8.892577e-10 -1.114551e-05 2.5298763e-10
000170 ba d0 0d bd db a0 27 b1 e3 a8 1f b8 1c 7d 9e bc
       -0.034622885 -2.4393134e-09 -3.8065842e-05 -0.019346766
000180 74 ff 22 3c 9a 74 67 bc 2d c1 76 bc a7 5b ea bc
       0.0099486 -0.014126921 -0.015060705 -0.028608156
000190 1a cb 39 3c 40 b5 e7 bc ed a3 5e 3b ef ab e0 bc
       0.011339927 -0.028284669 0.003397222 -0.027425734
0001a0 bd 8c e9 b9 2b 69 dd 3b 67 cc 74 bc 59 d1 aa 3b
       -0.0004454608 0.0067569218 -0.014941311 0.0052129445
0001b0 a3 bb 3e 3d b3 73 99 bc 00 00 00 00 71 3b 01 bd
       0.046565663 -0.018731927 0.0 -0.03155083
0001c0 61 26 19 bd 1a 8c 01 bc 49 68 3a bd 63 4e 22 bd
       -0.037390117 -0.007906938 -0.04550961 -0.039625537
0001d0 bf ba c4 90 19 79 76 af fb 3d b5 bd 0f 64 db 35
       -7.7596097e-29 -2.2416592e-10 -0.088497125 1.6345892e-06
0001e0 ad 77 df 3a 17 c6 9c 27 f7 18 b2 bc ed 49 f4 bb
       0.0017049216 4.3513467e-15 -0.02174042 -0.0074551017
0001f0 4c 61 06 bc 03 1b c6 bc 3b 4f 32 bd b1 0a 8b bc
       -0.008201908 -0.024182802 -0.04353259 -0.016972871

network_body._body_endoder.seq_layers.2.weight f4 [128, 128]
000000 01 09 5b 3d ff 38 68 bc 8c 64 27 bd 43 3f 5c 3c
       0.053475384 -0.014173745 -0.040867373 0.013442817
000010 fc 9a f8 bc d6 03 63 bd 10 e2 05 3e f4 fe 32 3e
       -0.03034734 -0.05542358 0.13074517 0.1748007
000020 43 78 13 be 0b 4e 8d 3d bf 11 11 3e 66 28 b0 bc
       -0.14401345 0.06899651 0.14166926 -0.021503638
000030 b6 09 1d be 20 65 b9 bd 03 24 04 3d fc 59 03 3e
       -0.15335736 -0.09052491 0.032260906 0.12827295
000040 0c bd 4a 3d 2a 9b 32 be 03 80 d4 bd ae 63 6e 3b
       0.049496695 -0.17442003 -0.10375979 0.0036375332
000050 85 81 6a 3c 61 28 85 bd 2d de bd bc 39 d7 04 3c
       0.014313106 -0.06501842 -0.02317723 0.008107954
000060 7e b1 f9 bc b0 4a 0f 3e d7 c6 8d bd 6b 09 ce bc
       -0.030480143 0.13993335 -0.06922691 -0.025150975
000070 8c b2 94 3d 4d 08 bc bd 49 7a 17 be 08 df 62 bd
       0.072606176 -0.09181271 -0.14792742 -0.05538848
000080 d1 62 23 bd 27 a1 87 bd d3 49 c5 bd d8 1e dc bd
       -0.03988916 -0.06622534 -0.096332215 -0.107480705
000090 c1 cd ed 3b e6 d2 ab 3d 9e 89 b3 3c 35 37 a1 bc
       0.007257194 0.08389835 0.021916207 -0.019679645
0000a0 dd c9 07 be bb 68 2e bd 8f 25 94 bd ea 50 5a bd
       -0.13260598 -0.042580348 -0.07233726 -0.053299822
0000b0 61 63 26 be 12 b2 16 bc 84 ea 45 3e 36 48 85 3d
       -0.16248848 -0.009197729 0.19327742 0.06507914
0000c0 b7 e2 77 bc 33 f0 0b be 12 12 2d 3e 18 9b a1 bd
       -0.015129737 -0.13665847 0.16901425 -0.0789091
0000d0 55 43 bd 3c 50 23 68 3d 1f 69 16 bb 81 2f da bd
       0.023103395 0.0566743 -0.002295084 -0.10653592
0000e0 bc bf 95 bd 48 dc 0e 3e 8f d2 82 3c 7a 68 f0 bd
       -0.07311961 0.13951218 0.015969543 -0.11738677
0000f0 ec 56 44 be e1 f7 93 3d ea da 0d 3b a7 07 97 3d
       -0.19173783 0.072250135 0.0021645376 0.073745064
000100 06 e4 c6 bd 8f 45 51 bd 21 38 21 3e 89 38 50 bd
       -0.09711461 -0.051091727 0.15744068 -0.050835166
000110 d4 91 68 3a de 2b 0a bd fe 1d 0e bb f1 e7 c2 bd
       0.0008871828 -0.03373324 -0.0021685357 -0.095168956
000120 08 5e 8f 3c 73 f2 b1 3a 94 9e a9 3d ff a2 80 be
       0.017500892 0.0013576284 0.082821995 -0.25124356
000130 8d 23 91 bd bc a9 ef b8 f5 1d af 3d e5 15 14 be
       -0.07086859 -0.000114280236 0.08550636 -0.14461477
000140 1d 8c 82 bc e5 c9 56 bd 9e 29 46 3d e4 c9 74 bd
       -0.015935952 -0.052438635 0.048379533 -0.05976285
000150 37 0b 9f bd 4c 5f ee bb 92 aa 51 bd 2c 67 32 bd
       -0.07765811 -0.007274544 -0.05118806 -0.043555424
000160 63 13 bd 3b a4 2c ea bd b5 f6 8c 3c c0 90 da bd
       0.0057701333 -0.11434296 0.017207483 -0.1067214
000170 d0 c2 b7 3d b1 f2 91 b9 d9 44 79 bd 07 96 52 bd
       0.089727044 -0.00027837374 -0.060856674 -0.05141261
000180 63 6b 24 bb e1 c4 97 bd a4 a6 70 3d 3a 74 65 3c
       -0.0025088422 -0.074105985 0.05875267 0.014004761
000190 1a ab 20 bd 96 2f 20 3d 6a 78 20 bc 67 77 53 3d
       -0.039225675 0.03910788 -0.009794334 0.051627543
0001a0 81 5b 13 bc c4 6e 5b 3e 53 0c 65 3d 34 aa e6 bc
       -0.008993984 0.21428972 0.055919956 -0.028157331
0001b0 88 74 82 bc 37 c9 fe 3c cb 08 8b bd 1c db 8d be
       -0.015924707 0.031101806 -0.067887865 -0.2770623
0001c0 62 d4 03 3d 86 13 b9 bc 8d bf e1 bd c2 8a 30 bb
       0.032184966 -0.022592317 -0.110228635 -0.0026938175
0001d0 a1 7e ea 3c 93 38 11 3d 2e 3e 77 bc 53 f5 03 3c
       0.028624834 0.035454344 -0.015090508 0.008054095
0001e0 a1 cf d6 bb eb c9 9a bc 33 18 13 3d fd c6 88 bd
       -0.006555513 -0.01889511 0.03591175 -0.06678579
0001f0 2f d8 15 3e 2a 27 0d bd 69 ca 71 bd df 5c 30 bc
       0.14633249 -0.034461178 -0.059030924 -0.01076433
000200 82 cb b0 3d 8c 8d 42 3d 73 f4 96 3c 98 28 e7 3c
       0.08632566 0.04749827 0.01842711 0.028217599
000210 74 e8 ab bd 27 a7 88 bd 81 c5 00 3e c1 71 58 3d
       -0.08393946 -0.06672507 0.12575342 0.05284286
000220 97 c3 96 3d f8 f9 71 3d db 99 99 3d 05 ce 8d bd
       0.073615246 0.05907628 0.07500049 -0.06924061
000230 42 84 ff 3b a8 1d 06 bc c7 01 0e 3d 76 81 5a bd
       0.007797749 -0.008185782 0.034669664 -0.05334612
000240 f9 b4 23 be be 60 6d 3c 58 e8 5e 3d 88 1f a5 bd
       -0.15987004 0.014488397 0.0544208 -0.08062655
000250 91 ef 25 3d 1f a2 8b 3d c9 c5 a1 bd 84 6e 1e bd
       0.04051167 0.068180315 -0.07899053 -0.038679615
000260 20 61 80 bc 80 9b 20 bb 99 47 85 bd 95 e3 19 3c
       -0.015671313 -0.0024506748 -0.06507797 0.009392639
000270 68 d9 f4 3c e2 e0 80 bd 1d f4 92 bd 77 6a 55 bd
       0.029888824 -0.06292893 -0.07175467 -0.052103486
000280 8f e6 fd bb 42 72 73 bc c8 34 a3 bd 01 17 46 3d
       -0.007748432 -0.014858784 -0.079690516 0.048361782
000290 dd 2a 5d 3b 7e 96 98 bd 7a e8 b0 3d b9 ef a3 3d
       0.0033747472 -0.07450579 0.086380914 0.08004708
0002a0 dc d7 03 bd 59 45 10 bd 24 b7 f4 3c 47 b1 85 3c
       -0.03218828 -0.035222385 0.029872485 0.016319884
0002b0 5e 5d f3 3c fe ba 9e 3d 2b 48 ca bd 4e 04 28 3d
       0.029707607 0.0775051 -0.09877046 0.04101973
0002c0 c3 e9 12 bc c1 38 7e 3d e9 57 97 bd aa 4a 21 3d
       -0.008966866 0.062065843 -0.073898144 0.039377846
0002d0 97 cd 5d bd 82 c7 b4 3d 8e 86 36 3d e2 e5 ef bd
       -0.054151144 0.088271156 0.044561915 -0.117137685
0002e0 09 fa 0e be e2 f5 41 3e c3 36 ac 3c 8f 21 08 3d
       -0.13962568 0.18941453 0.021022206 0.03323513
0002f0 62 02 6d bd ab 59 7c 3d 45 6c 87 bd 9e 7a 84 bc
       -0.0578636 0.06160895 -0.06612448 -0.01617175
000300 ce b9 3a bd 51 06 41 3d cf f6 34 3d 59 c8 90 bb
       -0.045587353 0.047125164 0.044180688 -0.0044184146
000310 69 24 a5 3a 23 45 10 3e 40 47 62 be 35 53 fa bd
       0.0012599352 0.14088874 -0.22097492 -0.12222902
000320 46 49 ea bb 64 c8 a7 3d f1 11 bb bd f0 d6 ca 3d
       -0.007149848 0.08192518 -0.091342814 0.09904277
000330 b6 8d cd bc 87 41 43 3e 04 84 21 3d 70 a4 d0 3d
       -0.025091987 0.19067965 0.03943254 0.10187614
000340 ec ac eb bc df 39 08 be 44 65 3f bd 17 6e d7 3a
       -0.028768979 -0.13303326 -0.046727434 0.0016436008
000350 c6 d1 3f bc 2e 65 37 bc ed d8 e9 bb e8 73 98 3d
       -0.011707729 -0.011193557 -0.0071364553 0.07443982
000360 85 4d e0 b9 ea 87 46 bd 3a 76 67 bd 9c 66 f8 3b
       -0.00042782366 -0.04846946 -0.056509234 0.0075805914
000370 ad 25 3e bd c4 da ad bd 73 ec b3 bd 7a d4 87 bd
       -0.04642265 -0.08488992 -0.087853335 -0.066323236
000380 ad 37 d3 bd 0f 56 fe bc dc 47 ad bd 91 ae 1f 3d
       -0.10313354 -0.031046895 -0.08460972 0.03898484
000390 77 ae eb bd b2 83 b3 bd c2 c9 98 bd 76 14 36 bc
       -0.11507886 -0.08765353 -0.07460357 -0.011113277
0003a0 39 0a 89 3d ec c3 0b 3e 25 fb af 3d 64 54 c4 bd
       0.06691403 0.13648957 0.08592824 -0.09586409
0003b0 92 76 f9 3d bb 92 fa bc 4e 69 0e bc e5 0a 4a be
       0.121808186 -0.030587545 -0.008692099 -0.19730718
0003c0 54 6b af 3d 60 48 6f bc 06 7a 80 3d 69 4e fd bd
       0.08565393 -0.014604658 0.06273274 -0.12368471
0003d0 ea 4e 1d 3d 5c bd c1 3c 14 5e 0e 3d 82 26 28 bd
       0.038405336 0.023649864 0.03475769 -0.04105235
0003e0 1c 3b 7c 3d 11 2b 30 3e 67 09 ae 3d 05 61 0a 3e
       0.06157981 0.17203929 0.08497887 0.13513573
0003f0 9f c2 0f bd 6e 8f e5 bc 7c 48 40 be 81 0f 3c bd
       -0.035097715 -0.028022494 -0.1877765 -0.045913223

network_body._body_endoder.seq_layers.2.bias f4 [128]
000000 f9 bb 84 bc c6 09 18 bc 72 f8 23 32 4e 35 95 bc
       -0.016202914 -0.009279674 9.544339e-09 -0.018213894
000010 18 55 a7 bb 0f 0c e8 3a 72 39 4a bc 0b f9 d6 bc
       -0.0051065795 0.0017703789 -0.012342798 -0.0262418
000020 22 d0 8b bc ef 5a 76 bc d9 87 cc ba 50 01 19 bd
       -0.017067019 -0.015036329 -0.0015604451 -0.037354767
000030 0c 26 81 bc df 1c 8a bc 3e 93 58 bc bf 8b c4 bc
       -0.015765212 -0.01685947 -0.013218699 -0.023992417
000040 dd 54 6a bc 2b 70 b3 bc 2f b5 4c bc 91 ec 9b bc
       -0.01430246 -0.021904072 -0.012494369 -0.019033702
000050 35 bb ed 9e 75 5c 7e bc 78 db 73 bc b3 24 e4 bb
       -2.5170778e-20 -0.015524973 -0.014883868 -0.0069623827
000060 07 e8 bf bc 47 e0 f5 bb 50 7d 01 bd ae 1e 63 bc
       -0.023426069 -0.0075035426 -0.031613648 -0.013862295
000070 5e 49 1f bc ad 6b 96 bc 7f c2 0e bd 1e b6 4d bc
       -0.009722082 -0.01836189 -0.034853455 -0.012555627
000080 e4 f4 f6 a5 73 42 db 31 5d ad 82 bc c7 25 1e bc
       -4.2840142e-16 6.3812933e-09 -0.015951807 -0.0096525615
000090 ca 7e bb bc 15 14 53 bc b1 37 22 bd 8c fd e9 bc
       -0.022887606 -0.012883206 -0.039603893 -0.028563283
0000a0 95 89 69 bc 46 f1 8e bc 2b 87 ad bb 06 42 8c bc
       -0.0142539935 -0.017449033 -0.0052956543 -0.017121326
0000b0 82 82 18 bc 68 47 08 ba 80 41 c5 bb 40 51 c5 bc
       -0.009308459 -0.00051986286 -0.006019771 -0.024086595
0000c0 ee 98 3f bc 0a 9b a6 bb 69 e5 d0 b1 75 fd 78 bc
       -0.011694176 -0.0050844 -6.0796777e-09 -0.015197148
0000d0 1d b6 31 bb ad b7 51 bc 59 54 90 bc e7 10 08 bc
       -0.0027116605 -0.012800139 -0.017618345 -0.008304811
0000e0 d9 97 e0 bc f9 99 d9 2c 96 a3 4e bc 86 2b d0 93
       -0.027416157 6.1846053e-12 -0.012612244 -5.25495e-27
0000f0 5f a3 91 bc af d3 25 ba b0 f1 7e bc ee 36 30 bc
       -0.017778097 -0.0006325794 -0.0155605525 -0.010755284
000100 a2 52 8b bc ec 14 8e b8 5d 54 d7 bb 13 a0 80 33
       -0.017007176 -6.774985e-05 -0.006571336 5.989582e-08
000110 eb 8e 6f bc 07 7e cb bc 39 54 01 bc af b7 9d bc
       -0.014621477 -0.024840368 -0.007893615 -0.019252626
000120 f0 18 93 ac e0 26 02 bc 58 14 66 bc 71 bd 6d 3c
       -4.18076e-12 -0.007943839 -0.014042936 0.014510498
000130 20 90 c2 bc 6b 02 3f 99 2b d9 84 bb 0d ad 78 bc
       -0.023750365 -9.874957e-24 -0.0040542088 -0.015177977
000140 e0 b5 cb bc f9 00 81 ae 3d 72 3a 1c 87 76 e6 bb
       -0.024866998 -5.8664136e-11 6.1689887e-22 -0.0070331725
000150 68 ee 92 bc 8c f6 b9 b8 2f 9a ed bb 24 ed 31 bd
       -0.017935947 -8.86741e-05 -0.007251046 -0.043439046
000160 34 62 7d bc d3 8a 3b 30 ff 3a 41 bc e4 60 84 bb
       -0.015465308 6.8227485e-10 -0.011793851 -0.0040398706
000170 4a e5 4f bc 7d de b0 bb 6e 38 a8 26 b7 2b 96 bc
       -0.012688944 -0.0053976164 1.1672637e-15 -0.018331392
000180 5c 1c 81 bc c9 27 46 bc 26 4f 1f ba 3c 84 bb bc
       -0.015760593 -0.012094446 -0.00060771627 -0.022890203
000190 f1 07 cc b6 62 7a 0e 1b 61 7d 8c bc dd 6c 9d bc
       -6.0805983e-06 1.1785509e-22 -0.01714963 -0.01921695
0001a0 14 32 a8 bc 1b 9b 1e bc 68 fa 5d bc 99 b6 94 bc
       -0.020531692 -0.009680535 -0.013548471 -0.018153476
0001b0 82 51 96 bc d5 71 23 20 a8 8d e4 bc 69 9a ee bb
       -0.018349413 1.3844301e-19 -0.027899578 -0.0072815907
0001c0 de 0d 2b aa 16 ee 18 a0 1e 5b 8b a3 76 bc 28 bc
       -1.5192662e-13 -1.2953677e-19 -1.5109e-17 -0.010298839
0001d0 a0 d5 84 bc 70 c7 ac bc a0 09 19 a3 7a ca 65 a8
       -0.016215146 -0.021091193 -8.296185e-18 -1.2755959e-14
0001e0 5a 22 65 bb 99 b4 cf bc 1f 0f 87 33 a7 19 9d bc
       -0.0034963102 -0.02535467 6.289178e-08 -0.019177271
0001f0 85 68 30 bc f4 86 18 bc 10 3b 5b bc 90 b5 20 b9
       -0.010767107 -0.009309519 -0.013380781 -0.00015326426

action_model._discrete_distribution.branches.0.weight f4 [3, 128]
000000 1b cc 91 bb 07 58 3a bb d6 13 81 bb 37 c7 04 bd
       -0.00444938 -0.0028433816 -0.003939132 -0.03241655
000010 de e6 16 3c 0b da 82 3c d3 77 60 bb d3 4e 76 ba
       0.009210316 0.015973112 -0.0034251108 -0.0009395901
000020 7b 97 9f 3b a5 6a 41 bb a0 5f 1e 3d 23 e6 66 bb
       0.004870353 -0.0029513028 0.038665414 -0.0035232387
000030 fe 84 25 3b c7 0a 17 bd 8c 78 50 3c ce e0 05 3d
       0.0025256271 -0.036875512 0.012724053 0.032685094
000040 6e 41 02 bc 3e 3d 8c ba 49 e1 b4 ba bf 95 46 bc
       -0.00795017 -0.0010699404 -0.001380005 -0.012120663
000050 5b 0a 9f 3c 0d 26 ae bb 83 3b 86 bb 56 4f e7 3b
       0.019414118 -0.0053145946 -0.00409645 0.007059018
000060 72 60 7f 3c 78 f3 62 b9 82 38 c7 b9 99 27 f3 bb
       0.015586959 -0.00021643739 -0.0003799834 -0.007420492
000070 9c 35 97 38 1e 1e 30 3b be 5e 3a 3c c7 2e 82 3b
       7.2102266e-05 0.002687342 0.011375127 0.0039728615
000080 ef 35 88 ba 88 e5 c5 3b 46 11 ac b9 74 17 f4 bc
       -0.001039205 0.006039325 -0.00032819266 -0.02979634
000090 c2 a9 3a 3c e0 ee b1 bc e4 f5 3f bc 4a ea fd ba
       0.0113930125 -0.02172035 -0.01171634 -0.0019372192
0000a0 ee 85 26 3a 3b 03 0c bb 6d 04 5a bc c9 5a 87 bb
       0.00063523545 -0.002136423 -0.013306719 -0.0041306955
0000b0 20 d5 ce 3b 48 3f fa 3b 73 ac 8f bb b2 28 c6 3c
       0.0063120276 0.0076369382 -0.004384571 0.024189327
0000c0 eb 7b 72 3c e0 18 52 bc db c7 7d 3c 48 58 3f bc
       0.014800052 -0.0128233135 0.015489544 -0.011678763
0000d0 36 3a 04 3c 23 d6 2d 3b d6 99 71 3b ca 58 29 3c
       0.008070519 0.002652534 0.0036865375 0.01033611
0000e0 e2 cb 1f 3d cd bd f1 3a 03 22 92 3c db 4f f5 3b
       0.039012797 0.0018443406 0.017838484 0.007486326
0000f0 14 d8 79 3a 2a 62 fd bb 59 f7 95 bc 26 85 13 3c
       0.00095307943 -0.0077326493 -0.018306421 0.009003913
000100 88 18 8c bc e6 fb 55 3b 0f c4 98 b8 09 33 c1 3c
       -0.017101541 0.0032651364 -7.2844436e-05 0.023583906
000110 85 d0 89 bc 8b eb 1d bc 4f a3 a9 bc 9e 4a 5f bb
       -0.016823063 -0.009638677 -0.020707754 -0.0034071575
000120 35 06 97 3b 97 ab 05 bb e0 fe e9 3b b6 f9 10 ba
       0.004608894 -0.0020396465 0.007140979 -0.0005530374
000130 30 24 2b bc 0d 23 ed 3b 32 d7 24 bb ea 8e b1 bc
       -0.0104456395 0.0072368444 -0.002515268 -0.021674592
000140 30 2b fd bb d4 ad c0 3b 34 5a 3d bc 5e 61 03 3c
       -0.0077260956 0.005880097 -0.011557151 0.00801882
000150 55 45 23 bc 89 f5 8f 3c a3 81 c6 3b 47 95 15 3c
       -0.0099652605 0.017573135 0.0060579344 0.009129829
000160 58 bb 13 bb b8 0b dd 3b 4c 3f ba 3b 06 ab 61 bc
       -0.0022542085 0.0067457817 0.005683815 -0.013773685
000170 be c1 53 bc 84 3e 2f b9 ff 43 00 3c 4e 5e 38 3a
       -0.01292461 -0.0001671259 0.0078287115 0.00070330955
000180 50 ba 58 bb c4 31 bc ba 19 a5 01 3c d7 50 c2 bb
       -0.0033070035 -0.0014358093 0.0079128975 -0.005930047
000190 51 d9 d6 bb dd cc 03 bc ea 4b 44 bc 03 40 13 3c
       -0.006556668 -0.008044449 -0.01198099 0.00898743
0001a0 c9 84 fc ba dd 93 88 3a f4 84 d7 3b fe bf 1c bb
       -0.0019265647 0.0010420043 0.0065771285 -0.0023918147
0001b0 ff 13 b5 bb 0a 80 c5 ba c6 2a 63 bb 95 bf 11 3c
       -0.0055260654 -0.0015068066 -0.0034662946 0.008895774
0001c0 a1 ae 8c bc 38 df 62 bc cb 5b 35 bc bc ec 94 3b
       -0.017173113 -0.013847165 -0.011069248 0.0045448225
0001d0 2e 69 e5 3c 45 62 a4 3b 33 be 5f 3b d4 fd 31 bc
       0.028004255 0.0050165975 0.0034140467 -0.01086374
0001e0 c1 0a 24 bc 25 52 9f bb d0 21 3e 3c 21 dd 48 3c
       -0.01001233 -0.0048620873 0.011604741 0.0122597525
0001f0 45 f6 83 3c fe f5 29 bb af 9d e0 bb 62 3a 07 ba
       0.016108641 -0.0025933976 -0.006854735 -0.0005158541
000200 69 43 75 3c 89 6a 5a bc 63 a2 3a ba 45 a0 05 3d
       0.014969685 -0.013331064 -0.00071195344 0.032623548
000210 71 e6 ed bb 34 10 5a 3c 03 e3 2d bc f6 93 7e bc
       -0.007260137 0.013309527 -0.010613206 -0.015538206
000220 c4 24 c6 bb 97 d7 49 bc 01 80 8b bb 60 a0 b2 3a
       -0.0060468633 -0.012319467 -0.0042572026 0.0013628118
000230 ba ea 67 3c eb 9e da ba cb 41 39 3c fe 8a f4 bc
       0.014155084 -0.0016679441 0.01130719 -0.029851433
000240 7b ef be ba 79 e8 05 bb 62 93 ae bc ca c3 86 bc
       -0.001456722 -0.0020432754 -0.021310512 -0.016450781
000250 a6 27 43 ba 3e b1 ce bb 8c 9a 6f 3c dd 40 2e bc
       -0.0007444568 -0.00630775 0.014624249 -0.010635582
000260 66 59 d6 bb b3 10 77 3b 19 27 ea ba b1 2b 86 ba
       -0.006541419 0.0037699162 -0.0017864435 -0.001023641
000270 0c 83 cc bc 4c 27 8f 3c 79 57 d7 3b f4 89 7d 3c
       -0.024964832 0.017474793 0.006571707 0.015474785
000280 3e 6a 2c 3b 48 8e 42 3b a1 d8 38 bc 45 e8 44 3c
       0.0026308442 0.0029686857 -0.011282117 0.012018268
000290 f2 fd 88 bb cc 8e 96 bc e8 5f 10 bc 5d fb 5e 3b
       -0.0041806633 -0.018378638 -0.008811928 0.0034024336
0002a0 c9 0d c7 bb ed 3d e9 3b 9f e9 7c 3b a7 06 24 bc
       -0.0060746414 0.007117978 0.0038591397 -0.010011352
0002b0 0e 68 0b bc 4d 94 f9 3b e3 00 9b 3b dd f7 8f bc
       -0.008508695 0.007616556 0.0047303303 -0.017574245
0002c0 02 8f 0a 3c fb e6 c3 3c 0a 81 3f bb 8d e8 4b 3c
       0.008456947 0.023913851 -0.00292212 0.012445581
0002d0 92 17 17 bc e9 6c bf bc c2 80 70 39 d9 4e 89 3c
       -0.009221928 -0.023367362 0.0002293615 0.01676123
0002e0 96 8f e2 bc e8 03 a5 3b 0f 05 47 3b 7f 64 f1 bb
       -0.027656358 0.005035866 0.0030368005 -0.0073667164
0002f0 83 83 82 3c de 41 38 3c bd c6 00 bd bd 6d 42 bb
       0.01593185 0.011246173 -0.03143953 -0.002966746
000300 88 48 0e bc fd ee 30 bb 01 49 e4 b9 fa 26 69 3c
       -0.008684285 -0.0026997917 -0.0004354194 0.014230484
000310 6d b9 6e bc 93 91 af bb 2d 66 08 3d df be 43 bc
       -0.014570576 -0.00535793 0.033300567 -0.011947363
000320 1a 20 a6 3a 73 cd 76 3d 4e e1 14 3b c2 42 14 3d
       0.0012674362 0.060254525 0.00227173 0.036196478
000330 fe d1 9b bb 19 a4 3e 3c 82 68 5e bc 05 50 df 3b
       -0.0047552576 0.011635804 -0.013574721 0.006814959
000340 de 52 d8 bb ef 20 0e bc 0e 58 15 3c a2 7c 20 bb
       -0.0066016754 -0.008674844 0.009115232 -0.002448835
000350 f0 83 de 3b de ba 4d bb 98 dc fd ba f1 5a 4d bb
       0.0067906305 -0.00313919 -0.001936811 -0.0031334723
000360 09 20 93 bc 2a d9 f2 bb 87 6b 26 3b 5a 42 6e bc
       -0.017959611 -0.007411142 0.002539368 -0.014542187
000370 9d 0c d7 ba f4 44 41 3c 23 af a9 3b bb db 3e bb
       -0.0016406957 0.011796225 0.0051783486 -0.0029122669
000380 eb d4 db 3b d4 2d 93 bb ff f8 97 3c df 03 ae 39
       0.0067087314 -0.004491547 0.018551348 0.0003319075
000390 57 90 5a ba aa 78 f2 ba 8e 66 e4 3b 7e ba 41 3c
       -0.00083375484 -0.0018499095 0.0069702333 0.011824248
0003a0 a7 ae 9d bc 4c 1c b5 3b 00 ec 85 3c d7 b1 5d 3c
       -0.01924832 0.005527055 0.016347885 0.01353117
0003b0 b2 c8 af 3b 77 80 3c bb dd f3 54 ba 55 05 6c 3c
       0.005364501 -0.0028763094 -0.00081234967 0.014405568
0003c0 af b3 6b 3c 5a 68 ab 3b 7c 44 9e bb ac 91 9e 3b
       0.014386102 0.0052309455 -0.0048299413 0.004839143
0003d0 67 a0 a9 bc d7 08 9e 3c 80 4f d7 3b 2a c1 90 39
       -0.020706369 0.019291325 0.0065707564 0.0002760974
0003e0 c2 88 b6 bb e6 7f bb b6 cf c7 ad 3b 30 99 05 bb
       -0.005570502 -5.5879236e-06 0.00530336 -0.0020385496
0003f0 0d 33 0d bd 2e c0 23 3b f1 28 60 bd 8e 1d 89 bc
       -0.034472514 0.0024986374 -0.054726545 -0.016737726

action_model._discrete_distribution.branches.0.bias f4 [3]
000000 0f aa a3 bd 7b 70 8d bd 93 6b 13 3e
       -0.079914205 -0.069062196 0.14396505

action_model._discrete_distribution.branches.1.weight f4 [2, 128]
000000 c0 34 ab 3c 79 a0 71 3b 15 56 d1 3a 0b 2e ac bc
       0.020899177 0.003686933 0.0015971089 -0.021018049
000010 66 58 b2 bc 9d 26 0d 3c 8a e8 00 3d 0a 7b 94 bc
       -0.021770667 0.008615163 0.031471767 -0.018125076
000020 df 30 0c bc 87 83 6d 3b ab 59 5e bc c4 90 41 bc
       -0.008556574 0.0036241726 -0.013571183 -0.0118143
000030 aa d0 ff b9 45 c8 4b 3c 75 4c 62 3c 74 b0 ae 3c
       -0.00048792857 0.012437885 0.013812174 0.021324374
000040 d0 e9 07 bc 16 3d 0d bc 9c c4 8f 3a 5e 91 79 3a
       -0.008295491 -0.008620521 0.0010968628 0.00095202576
000050 35 8a 21 3c ed 7d 87 3c bf 31 39 bc a9 f3 56 3c
       0.009859611 0.016539538 -0.011303364 0.013119617
000060 5e 3e f2 bb 14 58 26 3c fa e5 3d bb a8 95 14 3c
       -0.0073926887 0.010152835 -0.0028976188 0.009068884
000070 0d fa ad ba 2e e2 0b 3c 45 92 c7 bb 23 42 82 3c
       -0.0013273373 0.008537812 -0.0060904347 0.015900677
000080 79 be 9c ba 8d 08 04 3c a9 f0 2a 3a db b0 e6 bb
       -0.0011958621 0.008058679 0.00065208465 -0.007040126
000090 02 77 01 bc 2a 16 bb 3b fa 1a 5b 3b 79 9c bb bb
       -0.007901909 0.0057094293 0.0033432827 -0.00572544
0000a0 34 1f 5b ba ae 7d 4c 3c 8d bb 8d bc 8a c3 67 bb
       -0.00083588366 0.012481136 -0.017301345 -0.0035364353
0000b0 c6 e2 7c 3c a1 91 88 bc fe bc 0a bb bd 3f a1 bc
       0.015434926 -0.016671004 -0.0021169777 -0.019683713
0000c0 07 ad 24 3c f4 b6 b8 bb 01 24 36 3b 33 81 c8 bc
       0.010051019 -0.005637044 0.0027792456 -0.02447567
0000d0 73 b3 29 bc 30 38 2f 3b df 93 31 bc c2 f7 50 bc
       -0.010357725 0.0026736371 -0.010838478 -0.012754383
0000e0 f3 69 a0 3c 12 66 74 ba f6 57 93 bb ab 92 7f 3c
       0.01958177 -0.0009323071 -0.0044965697 0.015598933
0000f0 4a d4 a3 bb 79 a8 43 ba 8b c9 80 bc 62 fc 22 3c
       -0.004999672 -0.0007463764 -0.015721103 0.009947868
000100 d9 0c 5c bb 33 18 b8 3b d0 3c ff 3b 25 34 57 3b
       -0.0033576994 0.005618119 0.007789232 0.0032837477
000110 f1 2d 13 3c 42 08 05 bb 5b 83 09 bc 07 84 7b bb
       0.008983121 -0.0020299111 -0.008393134 -0.0038378255
000120 9a 6a cc 39 32 80 90 bc a4 c1 f9 3b ef 63 4a 3d
       0.00038989336 -0.017639253 0.0076219607 0.04941171
000130 26 71 b0 ba 6f 5d 1b 3c d5 ae 6f bc 76 f7 3f 3a
       -0.0013461455 0.0094827255 -0.014629086 0.00073229463
000140 b4 58 a9 bb 5d f1 0d bc ef 2a 23 3c f4 ee eb 3c
       -0.005168045 -0.0086635025 0.009958967 0.028800465
000150 ce 85 25 3b 2a 11 74 3b 37 11 2f 3b b7 a5 a6 3b
       0.0025256756 0.0037241676 0.0026713142 0.0050856727
000160 17 bb 60 3c 6e 0a 88 bb aa e0 5b 3b 36 a7 b5 3b
       0.013716481 -0.004151634 0.0033550658 0.0055436147
000170 69 74 93 bb 06 cf 9a ba 58 5a 5a bc 20 33 a3 bb
       -0.004499961 -0.0011810965 -0.013327204 -0.00498046
000180 75 d5 8e bc f2 4f a8 bb 1e 42 1e 3c 10 26 88 3c
       -0.017435769 -0.0051364833 0.009659318 0.016619712
000190 61 20 0e bc e2 3b f3 3b b8 3d d5 bb 7e b8 1a 3c
       -0.008674712 0.00742291 -0.0065076016 0.0094434
0001a0 eb e7 6b bc 65 82 0a 3c 03 73 85 bb 91 07 b8 3c
       -0.014398555 0.00845394 -0.0040725484 0.022464545
0001b0 97 d0 e0 3c a3 77 99 bc b2 31 0f bc b4 88 44 3c
       0.027443213 -0.018733805 -0.008739876 0.011995483
0001c0 90 9f 54 3b bf 75 5c 3a c9 91 97 3c b9 54 ef 3c
       0.003244374 0.00084098795 0.018502133 0.029215204
0001d0 10 43 57 b8 0c e5 49 b9 80 54 f1 3b 1a 59 7b bb
       -5.132245e-05 -0.0001925418 0.0073648095 -0.003835267
0001e0 17 d8 93 bc 81 a9 41 3c 91 f8 fc 3b be 0f 46 bb
       -0.018047376 0.011820198 0.007720061 -0.0030221785
0001f0 5a a7 4e 3c 9a 37 02 3b dd 08 df 3a cd e9 d3 3a
       0.012613142 0.0019869567 0.0017016191 0.00161677
000200 9f 9e b7 bb 04 01 8b 3b f5 7b 77 3a 21 68 7c bb
       -0.005603626 0.0042420644 0.0009440773 -0.0038514214
000210 82 90 cb 3b ff 02 7a bc 1a c4 c1 bc bf b4 ea bb
       0.006212295 -0.015259503 -0.023653079 -0.00716266
000220 24 c1 48 bb 02 e9 a8 bb 19 7e 2d 3c 1a 12 1d 3b
       -0.00306327 -0.00515473 0.010589146 0.0023967088
000230 17 21 d3 3a d7 bf 14 3c b6 00 87 bc e6 fb de ba
       0.0016107884 0.009078941 -0.016479831 -0.0017012327
000240 ac 42 a7 3c 7f c3 09 3c f0 96 50 3c 3b e7 08 bb
       0.020417534 0.008408426 0.012731299 -0.0020889777
000250 9a f7 0e 3b 7e 70 36 3b a4 98 44 bb 4d 40 96 3c
       0.0021815063 0.0027838047 -0.0029998207 0.018341208
000260 89 7f 0b 3b f1 80 9a bc 5b 64 c2 3b c1 a1 db 39
       0.0021285734 -0.018860312 0.0059323735 0.0004189145
000270 30 24 1d bb 74 fb 6c bc 5a 97 95 bc 49 71 e2 bb
       -0.0023977868 -0.014464248 -0.018260647 -0.0069104773
000280 e6 35 9d 3b 5e 0c 54 3b 9e d8 21 3b be d5 f9 3c
       0.004797685 0.0032356004 0.0024695764 0.030497428
000290 ca 17 ee 3a a1 42 4e 3c 6f 6f d9 3b c6 98 ff 3b
       0.0018165049 0.012589128 0.0066355984 0.0078001944
0002a0 4d 34 0a bb 9d 80 e4 bb 2a c5 8d 3c 92 6d 52 3c
       -0.0021088303 -0.0069733397 0.01730593 0.012843506
0002b0 64 fc 1d 3c 5b 13 41 3c 3a 12 a3 3a 5a 39 4e 3b
       0.009642694 0.0117844 0.0012441345 0.003146729
0002c0 2c 78 4a 3c 40 f3 db bb 7a b9 c1 3b 42 6c 5d 3c
       0.012357753 -0.0067123473 0.005912003 0.01351458
0002d0 19 81 a1 ba f2 86 77 bb 98 34 5a bb e4 92 8a 3c
       -0.0012321799 -0.0037769643 -0.0033295508 0.016915746
0002e0 e6 78 44 bc cb 15 80 bb 0c 2d 36 3c eb c9 19 3c
       -0.011991715 -0.003908848 0.011119138 0.00938652
0002f0 28 5a 95 3c 9f 71 e7 ba 98 4a fe 3b 86 b6 8b 3a
       0.018231466 -0.0017657763 0.007760357 0.0010659255
000300 78 38 ca ba 4a a5 b4 3b 6d f1 9d 3b 9b 0e 32 bc
       -0.0015428206 0.005512868 0.00482004 -0.01086774
000310 1c 0e 98 3b 24 7f 84 3c be 8a 01 bc 9f 7d 96 ba
       0.004640354 0.016173907 -0.007906614 -0.001148153
000320 83 fc 22 ba 43 b1 a2 bb 08 c1 84 3b d6 44 3b bd
       -0.0006217437 -0.004964979 0.0040513314 -0.045719944
000330 e7 f1 2c 3b 50 a7 e9 bb 48 d6 8d b9 33 0a ec bb
       0.0026389302 -0.007130541 -0.00027053268 -0.0072033643
000340 0d cf 98 bc db f5 8d bc e3 99 1b bc 73 a5 4c bb
       -0.018653417 -0.017329147 -0.009497139 -0.0031226545
000350 a3 fb 8d 3a e8 1e 21 3b 98 94 14 3c 0a 91 a2 3c
       0.001083244 0.0024585072 0.009068631 0.01984455
000360 9d 9f 53 b8 1b a4 91 bb 2f 9e 5e bc 65 2f 24 3c
       -5.045497e-05 -0.0044446117 -0.013587519 0.010021065
000370 3e 90 93 ba 53 26 ba 3a 93 8b f6 3b 41 61 25 3c
       -0.0011258197 0.0014202095 0.0075239628 0.010093988
000380 8b 30 2a bc a6 bb 28 bb fd a8 cf 3c fc ad 0c 3c
       -0.01038755 -0.0025746613 0.025349135 0.008586403
000390 7b 8a f1 3b 39 1c 8c 3a 10 4e 23 3b c0 6f f9 ba
       0.0073712445 0.0010689563 0.0024918355 -0.0019030496
0003a0 bb b2 ae 3c e8 7f 17 3b e6 8f b5 bc 1f 03 d8 bc
       0.02132546 0.002311701 -0.022163343 -0.026368676
0003b0 95 a1 f2 bc ab 92 ca 3b 27 96 08 bc fe 40 b3 bc
       -0.029618064 0.006182035 -0.00833658 -0.021881577
0003c0 1f f5 0c bb b5 d1 b3 3b eb 37 26 3b 24 c8 af bc
       -0.0021508408 0.0054876455 0.002536292 -0.02145774
0003d0 bc bb 67 3c 14 83 a5 bb 11 2f af 3b bd 8e 4e bb
       0.01414388 -0.005051026 0.005346187 -0.0031518184
0003e0 6d 82 0d 3c 52 48 b0 3b 2b 2c 25 3c d6 91 f6 3b
       0.008637053 0.005379715 0.010081331 0.007524709
0003f0 e9 5d 14 3c 1b 84 a0 bb f9 a3 01 3d 91 f6 30 bc
       0.009055593 -0.0048985607 0.031650517 -0.0108009735

action_model._discrete_distribution.branches.1.bias f4 [2]
000000 41 a7 1e bd 42 a7 1e 3d
       -0.038733725 0.03873373

action_model._discrete_distribution.branches.2.weight f4 [3, 128]
000000 fe de 56 3c b1 4f 7c bc e4 2e 9f 3b f0 79 bf ba
       0.013114689 -0.015399859 0.0048578847 -0.0014608484
000010 58 51 a9 bc fa 1c 72 3c d3 b4 b2 bb b6 4e 5c 3c
       -0.02066867 0.014777416 -0.005453685 0.0134465005
000020 36 1c 18 3c b2 52 da 3b bd a9 04 3c a6 d4 96 3b
       0.00928407 0.00666269 0.008097109 0.0046029864
000030 3d c2 59 bb 63 a9 1d 3b a8 3d 03 bb a5 34 11 bc
       -0.0033227347 0.0024057261 -0.0020025764 -0.008862649
000040 0a 99 d4 bb df fb 88 3c 5c f1 47 bc 14 57 4a 3c
       -0.0064879702 0.016721664 -0.012203541 0.012349863
000050 cb 6f 1e bc d9 4d 59 bc 93 65 b5 ba da 91 22 3c
       -0.009670208 -0.013263189 -0.0013839476 0.009922469
000060 61 da 66 bb 5d 5f 09 bb 78 f5 14 3b 19 c6 a2 bb
       -0.0035225379 -0.0020961382 0.0022729319 -0.0049674627
000070 49 22 c5 3b ea f8 28 bc db 97 2a bc ad ee 39 3c
       0.00601605 -0.010313252 -0.010412182 0.011348409
000080 05 50 78 bb c7 f9 24 3c 3d 63 fb bb 90 f5 ba bc
       -0.0037889492 0.010069317 -0.0076717422 -0.022822171
000090 ae dc 8b b9 5b 23 69 ba 5c 51 b4 b8 47 84 43 3c
       -0.00026676565 -0.0008893513 -8.598223e-05 0.011933393
0000a0 77 f2 39 3c 1f 02 c8 3b e7 0b a4 bc 1c 95 1c 3c
       0.011349312 0.0061037685 -0.020025207 0.009557035
0000b0 1d 41 c0 bb b4 d2 2f bb 5f c5 4e bb e6 9a 54 3c
       -0.005867137 -0.002682847 -0.0031550748 0.012976384
0000c0 ea bc e3 3c 73 50 94 3c 0a 0a 9d bc 48 d0 87 3b
       0.027800042 0.018104767 -0.019169826 0.004144702
0000d0 f4 3f 2c 3c a3 9b 4c 3a b7 80 58 bc 82 06 04 3b
       0.0105132945 0.0007805174 -0.013214282 0.002014548
0000e0 42 ca 8a b9 ca 69 4a bc e0 90 1c bc b8 4e ec 3c
       -0.00026472105 -0.012354324 -0.009556025 0.02884613
0000f0 b7 48 0a bc a4 24 21 bc 95 bd be 3b 44 c8 36 3a
       -0.008440188 -0.009835396 0.00582094 0.0006972591
000100 9c 04 91 3c c4 dc 80 3c dd b0 b0 3b 53 2d 49 3c
       0.017702393 0.01573027 0.0053921775 0.012278873
000110 11 bf 01 3c 7a 9e bb 3b 3f 92 9a 3a 8a 90 16 3c
       0.007919089 0.005725679 0.0011792852 0.009189734
000120 5f 80 f4 3b 27 01 67 3b 07 b0 2f 3b b0 be 1c bd
       0.007461592 0.003524849 0.0026807801 -0.03826779
000130 66 5f 46 bc 1f a9 9b ba 0a 6e 4b bc ef 4d bb ba
       -0.012107706 -0.0011875964 -0.012416372 -0.0014290194
000140 19 74 67 bc 69 b0 08 bc c8 cf c7 3b b2 dd d5 3b
       -0.014126801 -0.008342841 0.0060977675 0.0065266723
000150 62 b0 e5 b9 a5 2c a5 bb 05 de bc b9 79 c6 d9 b9
       -0.000438097 -0.0050407224 -0.00036023572 -0.0004153734
000160 4f 19 0f bc 46 e9 8e bc 5c 91 32 bc c3 ae 78 bb
       -0.008734061 -0.017445218 -0.010898914 -0.0037945963
000170 b5 25 5d 3c ac c8 a9 bb d6 0e 90 3a 87 14 38 39
       0.01349776 -0.0051813927 0.001099075 0.00017555254
000180 ab d5 0e bc 8b 16 59 bc 37 ff 1a 3c b3 ea 74 bc
       -0.008717935 -0.013250004 0.009460262 -0.014948535
000190 80 28 5c bc ef 41 98 3b 0b c9 9d 3b f9 a5 e1 39
       -0.01343739 0.004646532 0.004815226 0.00043039004
0001a0 06 40 8f 3c 44 19 65 bb c6 cd a2 3b f2 51 84 3b
       0.017486583 -0.0034957686 0.0049683778 0.004038089
0001b0 88 ac 35 3b 31 37 15 bc 2d 5a 93 3b 8d 7b 88 3c
       0.0027721245 -0.009107397 0.004496834 0.016660476
0001c0 87 1c 13 3c 8f fc 82 3b e9 54 b2 bb 33 0e ec 3a
       0.008978969 0.0039973925 -0.005442251 0.0018009603
0001d0 0f 08 42 3c 40 96 86 3c 0b 0e 0b bc 18 36 d2 3b
       0.011842742 0.016429067 -0.008487235 0.00641514
0001e0 b6 ea c0 3c 73 86 be 39 b5 6f 5e bc 17 a9 55 bc
       0.023549419 0.00036339796 -0.013576438 -0.013040802
0001f0 be 71 b0 ba fa 39 b6 3c e1 03 5b 3c c7 1f a1 3a
       -0.0013461632 0.022244442 0.013367624 0.0012292796
000200 70 2e a2 bc 82 82 28 b9 67 bf 30 3c ba 07 1f 3d
       -0.019797534 -0.00016070346 0.010787821 0.038825728
000210 de 7e f5 bc 2c 9a 13 bc 0c ea 08 bc b7 13 45 b9
       -0.029967722 -0.009008925 -0.008356582 -0.00018794728
000220 b3 03 70 ba 29 e2 ff 3b 9b 0e b3 bc 7a 8c 99 3c
       -0.00091558247 0.007808943 -0.02185755 0.018743742
000230 8f 9b 5c bb 55 9e 33 bc 72 fd 5f bc af 7e a1 3b
       -0.0033662056 -0.010963042 -0.013671266 0.004928432
000240 47 2a 72 3b 55 52 0f bd 0b f7 15 37 cb 65 eb ba
       0.0036951469 -0.034990627 8.938611e-06 -0.0017959414
000250 73 9d ae 3a 50 4a 08 3b ed 67 ba 3c 21 6a 80 3c
       0.001332207 0.0020796247 0.022754634 0.015675606
000260 51 97 8d bc a5 0f ca ba e4 6d 73 3a 8e c0 78 bb
       -0.017284067 -0.0015416039 0.00092860893 -0.0037956568
000270 43 90 9c 3c c5 49 d9 3c ff be 8d ba 7d 06 c7 3c
       0.019111758 0.026524434 -0.0010814368 0.024295086
000280 50 a8 1b b9 37 1e 5e 3c f8 f5 cc 3a da 34 a9 bb
       -0.00014844653 0.0135570085 0.0015637269 -0.005163771
000290 63 17 e2 bb e4 cb db 3a f4 3c f2 39 76 8a 34 3c
       -0.0068997606 0.0016769138 0.0004620325 0.01101934
0002a0 41 02 51 3b e0 73 85 b9 a9 20 1a 3a fd 44 39 bc
       0.0031892213 -0.0002545407 0.00058795005 -0.011307952
0002b0 1b 86 78 3c f6 57 c0 bb 53 16 f2 3a a7 45 02 3c
       0.015168692 -0.0058698608 0.0018469788 0.007951177
0002c0 fd cf 6e 3b 08 35 f1 3a f1 e8 37 3c 1c 74 43 3c
       0.0036439889 0.0018402645 0.011224971 0.011929538
0002d0 3d 1b 07 bc 8e 22 f9 3b 33 cb 96 3c 2c 4f d1 b9
       -0.00824624 0.007602996 0.01840744 -0.00039922574
0002e0 a3 07 98 bb 22 1b d8 3a fb 03 fb 3b ae 66 34 bc
       -0.0046395822 0.0016487578 0.0076603866 -0.011010809
0002f0 7f 74 35 bb ca 69 cc 3b d2 d6 4a 3b f1 02 cd bb
       -0.0027687845 0.006238197 0.0030950797 -0.006256454
000300 55 7d 01 bc c1 2c dd bb 2d 97 6b bc 54 d3 42 ba
       -0.007903417 -0.00674972 -0.014379305 -0.0007432003
000310 5f 39 eb bb bc a2 3e bc f4 00 58 3b 6a cc 37 3c
       -0.00717847 -0.011635479 0.0032959552 0.01121817
000320 33 a1 b3 ba 4b d7 e2 3b 8e e7 03 bb df 8f 28 3d
       -0.0013704657 0.0069226376 -0.002012703 0.04115283
000330 20 20 aa bb 8f 05 8e 3a 41 76 b1 3c 1e dc 0e bd
       -0.005191818 0.0010835397 0.021662833 -0.03487789
000340 3e 75 16 bc 02 17 e9 bb 6f 51 bf 3b 84 8a 00 3c
       -0.009183226 -0.0071133384 0.005838565 0.007845525
000350 68 bb 0f 3b 92 7b b1 ba be 48 84 bc 3b 9b d3 bc
       0.0021931771 -0.0013540855 -0.016147967 -0.025830856
000360 21 ee 74 3c be ea 1b bb 9b 89 3f 3b bd c1 7b 3c
       0.0149493525 -0.002379104 0.0029226306 0.015366015
000370 f4 a0 a2 bb ce 9c b9 3a bd df ca bb 3c 73 86 bc
       -0.0049630348 0.0014161111 -0.0061912225 -0.01641237
000380 0d 59 08 bc 31 0b 19 bc f6 41 0b bc 79 54 02 3b
       -0.008322013 -0.009341047 -0.008499613 0.0019886775
000390 63 60 4e 3c d2 a7 76 bc b4 09 a6 3b 83 85 02 3d
       0.012596223 -0.01505466 0.0050670747 0.031865608
0003a0 f4 e3 0d bd bf 3c 0b 3b 19 19 7f 3c 5f 95 97 ba
       -0.03464122 0.0021245924 0.015569949 -0.0011564902
0003b0 bb d3 07 3b 5a fa e3 3b 8b b9 9f bb e5 c1 3a 3c
       0.0020725566 0.0069573345 -0.0048744134 0.011398767
0003c0 8f e8 fe bb b3 7f da 3b a6 3e 07 bc 2b 4c 17 bc
       -0.007779188 0.006668055 -0.008254683 -0.009234468
0003d0 e7 22 49 bc ef b0 28 3c 33 97 f4 3b 20 d8 4e 3c
       -0.012276388 0.0102960905 0.0074643134 0.01262477
0003e0 ff d5 e2 3c 5e 17 04 bc be d3 c8 3b e5 b7 94 ba
       0.027689932 -0.008062212 0.0061287573 -0.0011346309
0003f0 fb 9d 17 3b 4e e3 00 3d 12 d9 b9 bc f0 df f3 3a
       0.0023134935 0.031466775 -0.022686515 0.0018606167

action_model._discrete_distribution.branches.2.bias f4 [3]
000000 29 e2 aa 3a 0c 1b 95 be e9 c8 8c 3e
       0.0013037372 -0.29122198 0.27497032
